subject-models/ada-nodelta/lilbub2023-05-24T16-19-27_lilbub-ada/embeddings_gs-4500.pt (torch, 921583 bytes, 168 tensors)

pre_vecs f4 [2, 768]
0.0072472184 -0.019971538 0.017114628 0.020344814 0.037166942 -0.006392887 -0.042594645 -0.004110434
-0.0012774625 0.06225531 0.042070057 0.042772107 -0.0065914243 0.021578297 0.02432649 0.046098765
-0.010825859 -0.032756988 -0.02140519 0.012369857 -0.01634227 0.0008895522 -0.017658018 -0.010086542
0.048453208 -0.023964752 -0.016161066 0.01746805 -0.076329336 0.007043869 -0.010821751 0.0012103333
0.00830858 0.022388201 -0.010156217 0.04776842 -0.029269982 0.011937726 -0.02548854 -0.002226466
-0.0064324387 -0.027229838 0.051233556 -0.002114673 -0.0042092963 -0.018539868 0.027688798 -0.0009344794
-0.021583162 -0.017432874 -0.012107805 0.019765709 0.028311756 -0.00551725 -0.03397935 0.009596986
0.036344916 0.020639187 0.017600738 0.033100598 -0.03101671 -0.015709087 0.020113887 0.00039191198
0.019996807 -0.00014557313 0.006816163 -0.013993227 0.008946533 0.017385198 -0.020618148 0.008392847
-0.004187739 -0.017799286 0.01503671 -0.0009313254 0.005330103 -0.0080942735 -0.017163731 -0.00020870978
-3.8605365e-05 0.0051505114 0.04040906 -0.037595507 -0.014691434 -0.0112299835 0.026226295 0.0012278069
0.021294782 0.0046151476 -0.038057115 0.0019080064 0.021266839 -0.01395867 -0.00061502686 0.0064731906
-0.0048996666 -0.0022247112 -0.0053981002 0.037994243 -0.025752494 -0.008200402 0.00932957 0.016119393
-0.0077174604 -0.012494663 0.0089147 0.019708663 -0.024559999 -0.00080063485 0.011204848 0.005289947
-0.0390845 -0.013537608 0.028263792 -0.025322625 -0.014993764 0.011509784 0.0170925 -0.012025667
-0.003408055 0.041179538 0.0044117034 -0.0041603544 -0.0148263015 -0.0095754 -0.017282179 0.0021058572
-0.00831201 0.01166262 -0.024019765 -0.0248871 0.013663847 -0.00501575 -0.020721147 -0.018504828
-0.008958975 -0.033134334 0.023771683 0.030571064 -0.043821532 0.026842445 -0.008684122 -0.018596936
0.0112416465 -0.006967021 0.024642754 0.008923299 -0.0058883266 -0.002485274 -0.0010363167 -0.0064785522
-0.003827535 0.0126333125 0.012740429 0.003257457 0.072343424 0.004906048 0.0032212744 0.0047488115
0.0040666587 0.053980242 0.0349396 0.005645209 0.023337932 -0.002792636 -0.0058256807 -0.0025880989
-0.017534748 0.027056815 0.0034822018 0.029445892 -0.009586523 0.002106505 -0.022156587 0.025861144
-0.020210277 -0.017481104 -0.0054210536 0.0071585607 0.004459637 0.00010353934 0.034200788 -0.0109840855
0.044942398 -0.028251087 -0.038409133 -0.017385023 -0.0021314481 0.06226209 0.021512125 0.040814105
0.019771889 -0.04907442 -0.020595552 0.019154496 0.026266104 0.055684205 -0.016961826 -0.03359328
-0.03815355 0.018745705 -0.014709947 -0.011351486 0.0069227694 -0.0063416436 0.0072584352 0.012687755
0.0013373111 0.023802802 0.07071891 -0.0011300895 0.0231612 0.0010486724 -0.025428249 -0.021946732
0.02933756 0.05744729 0.007643008 -0.034484256 0.0015745687 -0.042422246 -0.021267662 0.01749382
0.00018285627 -0.01547001 -0.0056356015 -0.017565826 -0.004971308 -0.0015470084 0.015733317 0.021979082
0.012006915 -0.027710382 0.048897672 -0.019600762 0.00075209123 0.0077324645 0.04188494 -0.007920924
0.0011711238 0.024964668 -0.02774656 0.036093783 0.04130031 0.009788026 0.047042552 -0.026515001
-0.012068063 0.035373 -0.020583527 0.014222499 -0.02211 -0.024646558 -0.008453377 0.043763347
00000000: 137a ed3b 5a9b a3bc fa33 8c3c 2baa a63c
00000010: 5d3c 183d 6c7b d1bb b977 2ebd d2b0 86bb
00000020: 8770 a7ba 6dff 7e3d a751 2c3d ce31 2f3d
00000030: e0fc d7bb f8c4 b03c 5948 c73c 0fd2 3c3d
00000040: f25e 31bc 312c 06bd f059 afbc f1aa 4a3c
00000050: 39e0 85bc d630 693a 8ca7 90bc 0642 25bc
00000060: df76 463d ba51 c4bc 3664 84bc 2819 8f3c
00000070: 8e52 9cbd 41d0 e63b b74d 31bc 0ca4 9e3a
00000080: b620 083c 7667 b73c 4366 26bc d2a8 433d
00000090: 9ac7 efbc 7496 433c 58cd d0bc e7e9 11bb
000000a0: 35c7 d2bb 1c11 dfbc 47da 513d 5396 0abb
000000b0: 23ee 89bb ece0 97bc 9ed3 e23c daf7 74ba
000000c0: 2ccf b0bc 63cf 8ebc d15f 46bc b2eb a13c
000000d0: 0eee e73c 0cca b4bb ee2d 0bbd ad3c 1d3c
000000e0: 68de 143d 8313 a93c 6c2f 903c 7e94 073d
000000f0: c116 febc 58b0 80bc e1c5 a43c 8979 cd39
00000100: 58d0 a33c fda4 18b9 1f5a df3b d943 65bc
00000110: 7b94 123c 676b 8e3c 64e7 a8bc 2782 093c
00000120: 4d39 89bb cfcf 91bc 885c 763c 3124 74ba
00000130: 25a8 ae3b d89d 04bc f49a 8cbc 1bd9 5ab9
00000140: 32ec 21b8 9fc5 a83b f883 253d bffd 19bd
00000150: 57b4 70bc f7fd 37bc 87d8 d63c 5dee a03a
00000160: 6572 ae3c aa3a 973b c7e1 1bbd 1216 fa3a
00000170: cb37 ae3c e8b2 64bc c139 21ba 0f1d d43b
00000180: 628d a0bb 76cc 11bb 8ce2 b0bb da9f 1b3d
00000190: e5f6 d2bc fb5a 06bc 0edb 183c d10c 843c
000001a0: c0e2 fcbb 6ab6 4cbc f60e 123c 1074 a13c
000001b0: 0d32 c9bc b2e1 51ba 8a94 373c 4b57 ad3b
000001c0: 1217 20bd d8cc 5dbc 7889 e73c 6571 cfbc
000001d0: 68a8 75bc 8893 3c3c 9205 8c3c 4e07 45bc
000001e0: ad59 5fbb e0ab 283d 0d90 903b 9553 88bb
000001f0: 04ea 72bc 23e2 1cbc 5b93 8dbc 6c02 0a3b
00000200: 192f 08bc 9314 3f3c 19c5 c4bc 08e0 cbbc
00000210: 54de 5f3c 295b a4bb 65bf a9bc 7097 97bc
00000220: aac8 12bc deb7 07bd d5bc c23c 2b70 fa3c
00000230: 357e 33bd b0e4 db3c d947 0ebc 9a58 98bc
00000240: e22e 383c 9c4b e4bb 9adf c93c 0733 123c
00000250: ddf2 c0bb fbdf 22bb 05d5 87ba 094a d4bb
00000260: 62d7 7abb f4fb 4e3c 3bbd 503c 0f7b 553b
00000270: ca28 943d eac2 a03b 041c 533b eb9b 9b3b
00000280: 9b41 853b 631a 5d3d d31c 0f3d 72fb b83b
00000290: 312f bf3c a804 37bb 5ae5 bebb 189d 29bb
000002a0: 08a5 8fbc 41a6 dd3c a735 643b 8338 f13c
000002b0: cb10 1dbc 4a0d 0a3b bb81 b5bc c0da d33c
000002c0: 0690 a5bc 8834 8fbc 18a3 b1bb 5c92 ea3b
000002d0: 2622 923b 4323 d938 2016 0c3d 98f6 33bc
000002e0: 8515 383d d36e e7bc e552 1dbd 096b 8ebc
000002f0: c4af 0bbb 8906 7f3d 323a b03c b12c 273d
00000300: a8f8 a13c 4202 49bd 01b8 a8bc e4e9 9c3c
00000310: 032c d73c 1f15 643d 87f3 8abc 1b99 09bd
00000320: e646 1cbd 9890 993c fd01 71bc 95fb 39bc
00000330: 66d8 e23b 90cd cfbb 2bd8 ed3b 4de0 4f3c
00000340: b748 af3a 18fe c23c 13d5 903d 831f 94ba
00000350: 8fbc bd3c 9b73 893a e74e d0bc a2c9 b3bc
00000360: 5355 f03c d94d 6b3d 3372 fa3b 5d3f 0dbd
00000370: c261 ce3a f3c2 2dbd 8539 aebc 334f 8f3c
00000380: 1bbd 3f39 ed75 7dbc daaa b8bb 35e6 8fbc
00000390: 5be6 a2bb fdc4 caba 28e3 803c 7a0d b43c
000003a0: a7b8 443c e200 e3bc ed48 483d c791 a0bc
000003b0: fd27 453a 9d60 fd3b 8b8f 2b3d c3c6 01bc
000003c0: 6580 993a b482 cc3c c14c e3bc 13d7 133d
000003d0: 842a 293d f55d 203c b1af 403d fd35 d9bc
000003e0: 20b9 45bc 47e3 103d c99e a8bc 7c05 693c
000003f0: 0820 b5bc 94e7 c9bc 0880 0abc 3241 333d

basis_rand_weights f4 [16, 5]
0.056693416 -0.049239967 0.037994273 0.15676416 -0.06312808 0.021967888 0.017570142 -0.108620666
-0.08234698 0.09951154 -0.010205068 0.051287554 8.2309605e-05 0.0016597587 -0.048725307 -0.0021578837
-0.046697855 -0.08513489 -0.054141957 0.15564658 0.07835717 -0.062293183 -0.08440866 -0.019768478
-0.13462214 0.05280821 -0.067315765 -0.08220263 -0.040364847 -0.04028926 0.07280006 -0.05781992
-0.059085656 0.026344988 -0.05397139 -0.053654462 0.043045 -0.118353345 0.09047635 0.0012535597
0.14412566 -0.023948252 -0.06974203 0.10819603 -0.06967151 0.19617745 -0.08768754 -0.02953872
0.03721282 -0.039283905 0.145752 -0.13325757 0.09169541 0.165442 -0.15118904 0.055401612
-0.057474915 -0.12709787 0.09065128 0.09331539 -0.016580839 -0.020988977 0.051907685 0.3308487
0.06320199 -0.1300638 0.048724722 -0.12673844 0.13657114 0.025885794 0.092525385 -0.12958705
-0.08662492 -0.010423673 -0.16204734 -0.057619773 0.13145983 -0.049378864 0.35540444 0.026952758
00000000: 5b37 683d d9af 49bd e29f 1b3d c986 203e
00000010: 4b49 81bd 00f6 b33c 42ef 8f3c 8374 debd
00000020: 89a5 a8bd b5cc cb3d 2833 27bc e612 523d
00000030: a29d ac38 438c d93a 3094 47bd 486b 0dbb
00000040: 4046 3fbd 345b aebd f5c3 5dbd d161 1f3e
00000050: b979 a03d 2327 7fbd 73de acbd 81f1 a1bc
00000060: 63da 09be 6c4d 583d d9dc 89bd da59 a8bd
00000070: 9c55 25bd 5a06 25bd 3318 953d 95d4 6cbd
00000080: cd03 72bd 72d1 d73c 1b11 5dbd c8c4 5bbd
00000090: f44f 303d 3d63 f2bd aa4b b93d 7c4e a43a
000000a0: ad95 133e 202f c4bc e9d4 8ebd e195 dd3d
000000b0: f0af 8ebd bee2 483e 8695 b3bd 30fb f1bc
000000c0: 786c 183d 29e8 20bd 0340 153e ac74 08be
000000d0: ceca bb3d a169 293e 4dd1 1abe cdec 623d
000000e0: d16a 6bbd f225 02be 61a7 b93d 241c bf3d
000000f0: 8ad4 87bc 13f1 abbc 279d 543d 0065 a93e
00000100: 0c70 813d 722f 05be 9393 473d b9c7 01be
00000110: 4ed9 0b3e 720e d43c f37d bd3d 78b2 04be
00000120: 6868 b1bd 0ec8 2abc bdef 25be b602 6cbd
00000130: 689d 063e 7e41 4abd 92f7 b53e 08cc dc3c

basis_vecs f4 [3, 768]
0.0026598333 -0.0051681385 0.007852241 0.014070813 5.1923755e-05 0.0032343385 -0.010095311 -0.0025653075
-0.013710717 0.013787019 0.0035709976 0.014459381 -0.00728292 0.0035601896 -0.0027582687 0.022291992
0.0021966023 -0.02367881 0.0046146153 0.0069413525 -0.010622 -0.02502592 -0.009652802 -0.0026573907
0.021237241 -0.015121605 -0.003535838 0.022537211 -0.036757004 0.0018478347 -0.005611391 0.0065223156
0.0074961097 0.0066921283 -0.003639394 0.018241003 -0.008708879 0.0032006172 -0.00602842 -0.0062028794
-0.0057974514 -0.0038132062 0.02355013 -0.0021735532 0.00016211986 -0.0014485931 0.026188497 0.0020702016
0.007234173 -0.00076122145 -0.0053112274 -0.00087156886 0.008431971 -0.012652021 -0.026844125 0.01598105
0.020406093 -0.00951625 0.008372373 0.0015314537 -0.0006456278 -0.008991745 0.0032621843 0.0026146695
0.0030568237 0.0014979953 0.010156728 -0.009278616 0.0017361694 0.0099383565 -0.009708707 0.01243046
0.0030546356 -0.015630571 -0.0042351196 0.005637118 0.010153388 -0.0015588094 0.003218607 -0.011367668
0.015426944 0.00815376 0.01832015 -0.010183296 -0.010103805 0.004548165 0.0037638603 0.003967901
0.008299853 -0.0054213754 -0.012277449 0.0156082 -0.004698237 -0.018941225 -0.010763967 -0.016329322
-0.010221651 -0.006041721 -0.026642382 0.025458494 -0.019010095 -0.0033360396 0.0048494013 0.0057391175
0.002006624 -0.0059519713 0.02169978 0.016297441 -0.011246263 -0.017379018 0.0015061373 -0.0021373439
-0.0310833 -0.004105134 0.014187912 -0.0027766505 -0.0066283154 0.0023578182 -0.005407406 -0.019564377
-0.004988722 0.01004199 -0.0066087255 -0.015556194 -0.019146958 0.0044227852 -0.02142565 0.0079734465
-0.0018407453 -0.014464676 -0.0068289256 -0.007342215 -0.004894958 -0.016882012 -0.009388391 0.010601387
0.00041933788 -0.021507258 0.0005784112 0.002668632 -0.022980059 2.934298e-05 0.0074704783 -0.0070468937
0.013042304 -0.018275289 0.006759502 0.0074689146 0.0038084346 0.020685004 -0.0031195641 -0.0037327674
0.018330794 0.0035032055 0.0009046403 0.0038834356 0.026995966 0.010085411 0.009834753 0.009430488
0.0022674701 0.01188635 0.028891515 0.0034973642 0.020950299 -0.0042784563 0.0017084702 0.005908124
-0.011831664 0.018069852 0.004254665 -0.007075866 0.005988939 0.0051488434 -0.012949589 0.014967192
-0.022894356 -0.009379027 0.003091131 0.008125649 0.002492099 0.020920023 0.0062656235 -0.006783686
0.0053047366 -0.008623746 -0.005071341 -0.012101254 -0.0061145937 0.018358639 -0.0006436674 0.011359674
0.011459138 -0.024461469 -0.0125534795 -8.068753e-07 0.00828695 0.029848775 -0.011660413 -0.008489445
-0.016316794 0.0008198041 -0.0073816115 -0.004457354 0.017864041 -0.013871474 0.011776934 0.00448219
0.0114835985 0.011762224 0.020025572 -0.029630683 -0.0022591029 -0.0017682416 -0.007917368 -0.009910966
0.004454626 0.024929339 -0.010196399 -0.022642087 -0.002527011 -0.0338048 -0.013104566 0.0057308995
-0.014108954 -0.014247148 0.0010324137 -0.011690964 -0.0034390313 0.0023866002 0.0026515094 -0.0047329357
0.0017154145 -0.012402528 0.016578093 0.007279093 0.008893903 0.006930385 0.00039298937 -0.010375501
-0.0013335486 0.0024900672 -0.00024571168 0.010190027 0.011073182 0.012881018 0.014407703 0.011745701
-0.0055972426 0.009051566 -0.017579336 0.0012530239 -0.002870812 0.0006284641 0.008463759 0.033223607
00000000: 9950 2e3b 7d59 a9bb b0a6 003c 4489 663c
00000010: b5c8 5938 32f7 533b ce66 25bc b81e 28bb
00000020: eaa2 60bc f3e2 613c 6607 6a3b 0ae7 6c3c
00000030: 90a5 eebb 1252 693b 12c4 34bb b29d b63c
00000040: dff4 0f3b 10fa c1bc 3336 973b 4974 e33b
00000050: e607 2ebc 2803 cdbc c926 1ebc 9e27 2ebb
00000060: b9f9 ad3c 9cc0 77bc 85b9 67bb f59f b83c
00000070: 838e 16bd 0b33 f23a c2df b7bb 26b9 d53b
00000080: eda1 f53b a449 db3b e682 6ebb 286e 953c
00000090: b0af 0ebc 72c1 513b 0d8a c5bb 8641 cbbb
000000a0: 8cf8 bdbb fce6 79bb 34ec c03c 2c72 0ebb
000000b0: b8fe 2939 b8de bdba 4289 d63c 38ac 073b
000000c0: a40c ed3b b58c 47ba ce09 aebb ff79 64ba
000000d0: 4026 0a3c 6c4a 4fbc 36e8 dbbc b1ea 823c
000000e0: ae2a a73c 0cea 1bbc 472c 093c 0fbb c83a
000000f0: 593f 29ba 1d52 13bc 5fca 553b e05a 2b3b
00000100: fe54 483b 6258 c43a 6868 263c 5605 18bc
00000110: 2e90 e33a 7dd4 223c 4511 1fbc 21a9 4b3c
00000120: 4830 483b af0b 80bc c2c6 8abb 93b7 b83b
00000130: 655a 263c f750 ccba 44ef 523b 753f 3abc
00000140: 4bc1 7c3c 5997 053c 2414 963c d7d7 26bc
00000150: 6e8a 25bc c608 953b 19ab 763b 2b05 823b
00000160: 1bfc 073c cba5 b1bb 5a27 49bc 89b9 7f3c
00000170: abf3 99bb a12a 9bbc 5a5b 30bc 12c5 85bc
00000180: b678 27bc a1f9 c5bb 2041 dabc 558e d03c
00000190: 0fbb 9bbc 75a1 5abb bae7 9e3b 350f bc3b
000001a0: 9081 033b c108 c3bb bdc3 b13c 3682 853c
000001b0: 3f42 38bc 715e 8ebc 9569 c53a ae12 0cbb
000001c0: 68a2 febc 5c84 86bb 6b74 683c 77f8 35bb
000001d0: 5732 d9bb a085 1a3b 9c30 b1bb 7945 a0bc
000001e0: 6f78 a3bb 2987 243c 028e d8bb 68df 7ebc
000001f0: 15da 9cbc 03ed 903b d884 afbc 0fa3 023c
00000200: 2a45 f1ba 40fd 6cbc 2ec5 dfbb f796 f0bb
00000210: e265 a0bb 254c 8abc c4d1 19bc 71b1 2d3c
00000220: 94da db39 fd2f b0bc 85a0 173a 37e4 2e3b
00000230: ad40 bcbc 9225 f637 eaca f43b a1e9 e6bb
00000240: 63af 553c 0fb6 95bc d07e dd3b ccbd f43b
00000250: ee96 793b 9973 a93c 9a71 4cbb 72a1 74bb
00000260: 762a 963c 0996 653b 6225 6d3a 3d81 7e3b
00000270: a526 dd3c 483d 253c f221 213c 5582 1a3c
00000280: d699 143b f7be 423c e6ad ec3c 0934 653b
00000290: f69f ab3c 4b32 8cbb bfee df3a f098 c13b
000002a0: 98d9 41bc 3a07 943c b86a 8b3b abdc e7bb
000002b0: dd3e c43b a1b7 a83b 832a 54bc f438 753c
000002c0: f28c bbbc 7eaa 19bc 9394 4a3b 7121 053c
000002d0: 7c52 233b 7860 ab3c dc4f cd3b af49 debb
000002e0: 5bd3 ad3b 9d4a 0dbc 7e2d a6bb 5744 46bc
000002f0: ee5c c8bb db64 963c cabb 28ba ed1d 3a3c
00000300: 1cbf 3b3c 6b63 c8bc 1cad 4dbc 0c98 58b5
00000310: fdc5 073c 6b85 f43c 510b 3fbc 5017 0bbc
00000320: ccaa 85bc 1fe8 563a 72e1 f1bb ff0e 92bb
00000330: 9c57 923c 2e45 63bc 0bf4 403c 56df 923b
00000340: b425 3c3c 58b6 403c ab0c a43c 0cbc f2bc
00000350: 750d 14bb 58c4 e7ba d9b7 01bc 9b61 22bc
00000360: 1cf8 913b 9d38 cc3c cc0e 27bc e67b b9bc
00000370: 369c 25bb e776 0abd 89b4 56bc 45ca bb3b
00000380: 3e29 67bc df6c 69bc 0e52 873a 758b 3fbc
00000390: 5f61 61bb 8268 1c3b f2c4 2d3b be16 9bbb
000003a0: c2d7 e03a f933 4bbc c8ce 873c 7585 ee3b
000003b0: bcb7 113c 4818 e33b 240a ce39 01fe 29bc
000003c0: 77ca aeba 6530 233b ddd2 80b9 12f4 263c
000003d0: 4b6c 353c e80a 533c 490e 6c3c 0a71 403c
000003e0: 1369 b7bb 054d 143c 8a02 90bc 813c a43a
000003f0: 3c24 3cbb 83bf 243a 94ab 0a3c 7a15 083d

basis_comm_weights f4 [1, 5]
0.37347716 0.6169064 0.11241972 0.29580605 0.20818599
00000000: 6638 bf3e 94ed 1d3f 4f3c e63d e473 973e
00000010: b52e 553e

bias f4 [16, 768]
0.03462162 0.005336396 0.008435267 0.06408085 0.016420415 -0.01929441 0.010105714 -0.0083011985
-0.062672555 -0.0041569155 -0.004478048 -0.0072265305 -0.03572049 -0.05186963 -0.030022262 -0.008471788
-0.018707931 0.016264357 0.007298295 0.0005928159 0.053942323 -0.032000244 -0.036452778 -0.04193344
-0.056474645 0.0581686 -0.031292018 0.042265296 -0.028101426 -0.0035596017 -0.020405032 0.037025932
-0.051767867 0.0052380324 0.024497868 0.04335281 -0.05293166 0.028767746 0.01517017 0.00831993
0.06908395 -0.027724788 -0.06563358 0.006197455 -0.020532573 -0.0009655735 0.043971542 -0.035241038
0.03568993 0.0123785045 -0.016634958 -0.0071046073 0.01097058 0.030442992 -0.021638473 0.1026285
0.043204114 -0.011685381 -0.02328744 0.0043384926 0.01294804 -0.06655808 -0.019013312 0.015091193
0.047651872 -0.048996657 0.027914187 0.0030911746 -0.018209428 -0.018135596 -0.00405665 0.006524557
0.0020218354 -0.0067396946 -0.013129909 -0.058844592 0.019714508 0.029535586 0.04772673 -0.030793257
0.008538989 0.035611063 -0.035811253 0.004193644 -0.016693594 -0.0024561286 0.06325061 0.019207887
-0.025034135 0.019000374 -0.05381489 0.05733108 -0.024674075 0.0275984 0.051402684 0.006036866
-0.008761179 -0.018538782 -0.02977922 0.031944998 0.017959649 -0.011862418 -0.017113896 0.017878626
-0.028639276 -0.030505288 0.027622066 -0.053967018 -0.05062009 0.014470236 -0.028492697 -0.035275944
-0.00217293 0.023747036 0.0048209256 -0.041373584 -0.016891982 -0.03441967 -0.036576647 -0.01275446
0.033725504 -0.01399122 0.028640779 -0.056590922 -0.017853573 0.019897426 -0.036920525 0.024506228
-0.03463067 -0.009649054 0.016705366 0.060888834 0.0009743172 0.005197149 -0.033544824 -0.0057364646
0.05552829 -0.016625518 -0.012013947 0.025756055 0.03164292 -0.0077786916 0.02391445 -0.028993411
-0.017675329 0.003589193 -0.03340617 0.011949484 -0.0034675924 -9.907495e-05 -0.026066137 -0.017195879
0.029135767 0.04575668 -0.0056740795 0.0835117 0.0136536425 -0.013778307 0.010159099 -0.0029579413
-0.013503766 -0.05300347 -0.04554431 0.012077123 0.0395188 0.020955566 0.01616032 -0.026081778
0.024065379 0.029826546 0.049597766 -0.022338241 0.012419752 0.060453475 0.013559151 0.0131254485
-0.063491024 0.017583583 0.0027370378 0.01086716 -0.037556514 0.026633734 0.00068779336 0.04522503
-0.025416998 -0.013316601 0.034669343 0.022120278 -0.03631798 -0.011761042 -0.019073106 0.0040099923
0.017064942 0.042833846 -0.001207956 0.0023781278 0.05249517 0.014583692 -0.014006641 0.07517898
0.014724316 0.019892536 -0.01146741 -0.017892025 -0.012500081 -0.09908891 0.058249008 0.050894525
0.036418766 -0.034835946 0.04920753 -0.106710315 0.046978112 -0.049948085 -0.012444926 0.023593426
-0.021800695 0.020362971 0.011183642 -0.058175743 0.018200511 -0.0059911027 -0.0231512 0.010050095
0.01225997 0.0198153 -0.008569828 -0.032437995 0.05359381 0.0017080714 0.0057930583 0.01625675
0.016438408 -0.02002212 -0.010868468 0.033984687 -0.017069036 0.055411004 0.013804631 -0.010570043
0.043467775 -0.05725626 0.041039467 0.00020713407 0.044485588 -0.015539492 0.03263921 0.01918094
-0.0010391047 -0.019208217 0.0039014101 0.031161694 0.012057956 0.022148054 0.06408759 0.020457586
00000000: 66cf 0d3d efdc ae3b 1334 0a3c d23c 833d
00000010: 1b84 863c 4f0f 9ebc 7092 253c c001 08bc
00000020: 785a 80bd bc36 88bb 97bc 92bb 88cc ecbb
00000030: a64f 12bd 4075 54bd 3ff1 f5bc 41cd 0abc
00000040: 6041 99bc d43c 853c 8926 ef3b 3467 1b3a
00000050: a0f2 5c3d b012 03bd 824f 15bd 66c2 2bbd
00000060: f551 67bd 3342 6e3d 0f2c 00bd 601e 2d3d
00000070: f634 e6bc 3548 69bb 7428 a7bc 81a8 173d
00000080: 8b0a 54bd cda3 ab3b c1af c83c b792 313d
00000090: dece 58bd 56aa eb3c 4e8c 783c 5150 083c
000000a0: e37b 8d3d 181f e3bc e66a 86bd 0514 cb3b
000000b0: ed33 a8bc 8a1e 7dba 811b 343d e858 10bd
000000c0: 9b2f 123d 36cf 4a3c 0946 88bc c4cd e8bb
000000d0: f3bd 333c 9563 f93c 2b43 b1bc e42e d23d
000000e0: ccf6 303d 0a74 3fbc 4dc5 bebc ea29 8e3b
000000f0: 0424 543c 9a4f 88bd cec1 9bbc 0d41 773c
00000100: 9c2e 433d b8b0 48bd 4bac e43c 4e95 4a3b
00000110: f02b 95bc 1a91 94bc a6ed 84bb f3cb d53b
00000120: c580 043b a8d8 dcbb d41e 57bc 0707 71bd
00000130: 5280 a13c 9df4 f13c 1b7d 433d 2442 fcbc
00000140: 1ee7 0b3c e8dc 113d d2ae 12bd d66a 893b
00000150: 01c1 88bc 00f7 20bb 8989 813d dc59 9d3c
00000160: 6314 cdbc aca6 9b3c 016d 5cbd ffd3 6a3d
00000170: 4921 cabc 0a16 e23c 9f8b 523d e7d0 c53b
00000180: 0c8b 0fbc a5de 97bc 8df3 f3bc c2d8 023d
00000190: 1d20 933c 965a 42bc 7132 8cbc 3276 923c
000001a0: ea9c eabc 3ae6 f9bc ac47 e23c 850c 5dbd
000001b0: 0357 4fbd 9214 6d3c 8469 e9bc 827d 10bd
000001c0: b767 0ebb 2589 c23c dbf8 9d3b 5977 29bd
000001d0: 0e61 8abc a4fb 0cbd 65d1 15bd 15f8 50bc
000001e0: c123 0a3d 6e3b 65bc 11a0 ea3c e2cb 67bd
000001f0: a841 92bc edff a23c fa39 17bd 49c1 c83c
00000200: e4d8 0dbd 1117 1ebc b1d9 883c 9266 793d
00000210: 5269 7f3a d84c aa3b 4c66 09bd f4f8 bbbb
00000220: a271 633d 3d32 88bc 25d6 44bc 5dfe d23c
00000230: 029c 013d 65e4 febb 3de8 c33c 9783 edbc
00000240: dacb 90bc ab38 6b3b e8d4 08bd c5c7 433c
00000250: 8c40 63bb 75c6 cfb8 a788 d5bc 5fde 8cbc
00000260: 22ae ee3c 5b6b 3b3d a1ed b9bb 2f08 ab3d
00000270: 87b3 5f3c 68be 61bc 5972 263c 05da 41bb
00000280: e63e 5dbc 2b1a 59bd ac8c 3abd 20df 453c
00000290: 77de 213d 02ab ab3c a662 843c 74a9 d5bc
000002a0: c224 c53c cd56 f43c 0727 4b3d b0fe b6bc
000002b0: 377c 4b3c 109e 773d 3427 5e3c 1f0c 573c
000002c0: 9507 82bd 720b 903c e05f 333b 2c0c 323c
000002d0: dcd4 19bd fd2e da3c 084d 343a e23d 393d
000002e0: 4f37 d0bc df2d 5abc 7101 0e3d 9635 b53c
000002f0: 2ac2 14bd 63b1 40bc 343f 9cbc 4166 833b
00000300: c7cb 8b3c 8b72 2f3d 4754 9eba 5dda 1b3b
00000310: 2d05 573d 70f0 6e3c 1c7c 65bc 70f7 993d
00000320: 423e 713c acf5 a23c cee1 3bbc 4c92 92bc
00000330: 24cd 4cbc 20ef cabd 8396 6e3d c776 503d
00000340: d82b 153d 23b0 0ebd d68d 493d f08a dabd
00000350: 1f6c 403d 5d96 4cbd cee5 4bbc 0047 c13c
00000360: 5f97 b2bc 3fd0 a63c 983b 373c b049 6ebd
00000370: 3d19 953c 0351 c4bb 96a7 bdbc 27a9 243c
00000380: 0bde 483c b253 a23c 7768 0cbc b4dd 04bd
00000390: 2f85 5b3d 5ee1 df3a b2d3 bd3b e02c 853c
000003a0: d7a9 863c 6e05 a4bc a911 32bc 8733 0b3d
000003b0: 5dd4 8bbc a6f6 623d d22c 623c f92d 2dbc
000003c0: 440b 323d 8a85 6abd 0019 283d 2132 5939
000003d0: 8536 363d 5a99 7ebc b1b0 053d 5921 9d3c
000003e0: 9132 88ba 8d5a 9dbc cdae 7f3b cf46 ff3c
000003f0: bc8e 453c d66f b53c 5b40 833d ab96 a73c

weight f4 [768]
1.0178429 0.9829695 0.9630424 1.056697 1.0286164 1.0357425 0.9814064 1.0474738
0.9347937 0.9965768 0.9614014 0.9580371 0.9653079 0.8942808 0.9978453 0.9810622
0.9590049 0.9981544 0.9617795 1.0059009 0.8513443 1.0181742 1.0991739 0.94060546
0.84522146 0.8637903 1.0681369 1.1304308 1.1028148 1.0382426 1.0396554 1.0384978
0.93821037 1.0633487 0.97463804 0.97365004 1.056227 0.981768 0.9597359 1.0472943
0.8122568 1.051865 0.83060735 0.96483284 0.97492415 0.94244593 0.9584179 0.9968169
1.0252814 0.97469366 0.9630776 1.0165591 1.043205 0.92746365 1.0788789 1.2449497
1.1660522 0.9953305 0.9231866 0.9836553 0.98318654 1.0132993 1.0041393 0.97453105
1.0754379 0.90035206 1.0638973 0.9475942 0.90807754 0.94288576 1.0140134 0.95854
0.95744723 1.0211304 0.9207624 0.8918493 0.97385776 0.9921945 0.8879529 0.9908791
1.0039359 0.874509 0.97422814 0.9801018 1.0529028 0.98182356 0.92108005 0.9385229
0.95602125 0.9535285 1.1516733 1.0444757 0.84206337 0.9755704 0.8912845 0.95818865
1.0337312 1.0066286 1.0826912 1.1189107 0.95602846 1.0897312 1.0730271 1.0078293
0.9197989 1.0654267 1.0166377 0.83441573 1.1174078 0.9922957 0.93997175 0.84491795
1.0134681 0.88755494 0.9998281 1.0840735 0.9718302 0.9895083 0.878027 1.0451218
1.0105392 0.9203149 0.90035725 1.1162881 1.0461602 1.0917923 1.0647916 1.0260094
0.9334525 1.0052671 0.9579588 1.0252125 1.009055 0.9757017 1.0850633 0.98234725
0.9291361 1.0194864 0.9735766 1.0605456 0.9497011 1.0109489 1.0455524 1.0014684
0.9300733 1.0348179 0.95258343 1.0108954 1.0043653 0.97361106 1.0378684 1.0053341
1.1289747 1.053425 0.8988819 1.0773815 1.0500506 1.0073452 1.0203795 0.9969568
0.9573065 0.8371641 0.867497 0.90726686 1.1067411 1.0114994 0.98692715 0.96654946
1.0547527 1.1074082 1.1336497 0.9782956 1.0236912 1.1697986 1.0113182 1.0528966
1.1994576 0.93858933 0.9821261 0.96787685 0.91150427 0.980714 1.0561198 0.865227
0.93864673 0.969968 0.88063526 1.042634 1.0276719 0.9740581 1.0106716 0.96440506
1.0519367 0.9320272 1.0216068 0.99432594 1.1392225 1.0493228 1.0256132 0.8642563
0.96807 0.9569124 0.94080573 1.0025871 0.9194668 1.2478689 1.0153295 1.0047306
1.0797985 0.9015255 1.1350347 1.1011996 0.9212134 0.9952274 0.9978698 1.0178291
0.9699026 1.075391 0.9772963 1.252353 1.0051271 1.0225108 1.0104177 0.99699295
0.9362104 0.94973207 0.99381554 0.9796991 0.91636324 0.97852856 0.97582716 1.018545
1.0333624 1.0594463 0.9881358 0.9030945 1.0038422 0.895408 1.0307999 1.0786719
1.1209123 0.86945987 0.92582613 0.9792777 1.0589135 0.94543785 1.0335668 0.9569419
1.0343765 0.9642408 1.0279688 1.1334201 0.99664134 0.8985734 0.83140457 0.9930865
00000000: ad48 823f e4a3 7b3f f289 763f d941 873f
00000010: b4a9 833f 3693 843f 733d 7b3f 9f13 863f
00000020: a44e 6f3f a81f 7f3f 671e 763f eb41 753f
00000030: 6b1e 773f 96ef 643f ca72 7f3f e426 7b3f
00000040: 5881 753f 0c87 7f3f 2e37 763f 5cc1 803f
00000050: b3f1 593f 8853 823f bbb1 8c3f 85cb 703f
00000060: 6f60 583f 5c21 5d3f b6b8 883f f5b1 903f
00000070: 0929 8d3f 22e5 843f 6e13 853f 7fed 843f
00000080: 8e2e 703f cf1b 883f e181 793f 2141 793f
00000090: 7232 873f 2655 7b3f 40b1 753f bd0d 863f
000000a0: 10f0 4f3f 83a3 863f afa2 543f 49ff 763f
000000b0: a194 793f 2344 713f e05a 753f 642f 7f3f
000000c0: 6c3c 833f 8685 793f 418c 763f 9c1e 823f
000000d0: be87 853f 426e 6d3f b418 8a3f 835a 9f3f
000000e0: 3341 953f fbcd 7e3f f555 6c3f d5d0 7b3f
000000f0: 1db2 7b3f cbb3 813f a387 803f de7a 793f
00000100: f3a7 893f 797d 663f c92d 883f 8995 723f
00000110: c577 683f f660 713f 31cb 813f e162 753f
00000120: 431b 753f 67b4 823f 16b7 6b3f 3c50 643f
00000130: be4e 793f 7500 7e3f e250 633f 41aa 7d3f
00000140: f980 803f d2df 5f3f 0467 793f f4e7 7a3f
00000150: 85c5 863f ca58 7b3f e7cb 6b3f 0943 703f
00000160: cfbd 743f 721a 743f 086a 933f 61b1 853f
00000170: 7791 573f fbbe 793f 392b 643f da4b 753f
00000180: 4e51 843f 35d9 803f a095 8a3f 7738 8f3f
00000190: 48be 743f 507c 8b3f f458 893f 8d00 813f
000001a0: f177 6b3f e75f 883f 2f21 823f 459c 553f
000001b0: 3807 8f3f 1707 7e3f fda1 703f 8b4c 583f
000001c0: 53b9 813f cd36 633f bcf4 7f3f ecc2 8a3f
000001d0: ddc9 783f 6a50 7d3f 61c6 603f 8dc6 853f
000001e0: 5959 813f c299 6b3f d07d 663f 87e2 8e3f
000001f0: 94e8 853f dabf 8b3f 174b 883f 4754 833f
00000200: bef6 6e3f 98ac 803f ca3c 753f 2a3a 833f
00000210: b728 813f 96c7 793f 5be3 8a3f 1c7b 7b3f
00000220: dddb 6d3f 887e 823f 513c 793f f5bf 873f
00000230: 9c1f 733f c666 813f a9d4 853f 1e30 803f
00000240: 4919 6e3f ea74 843f 82dc 733f 0565 813f
00000250: 0b8f 803f 933e 793f dfd8 843f caae 803f
00000260: 3e82 903f a1d6 863f 201d 663f a3e7 893f
00000270: 0f68 863f b0f0 803f cc9b 823f 9038 7f3f
00000280: 0a12 753f 6350 563f 4914 5e3f a442 683f
00000290: b1a9 8d3f d078 813f 42a7 7c3f c96f 773f
000002a0: 2302 873f 8dbf 8d3f 6f1b 913f 9571 7a3f
000002b0: 5008 833f f6bb 953f e072 813f 51c5 863f
000002c0: d487 993f 6447 703f 9e6c 7b3f c7c6 773f
000002d0: 5858 693f 1310 7b3f ef2e 873f 847f 5d3f
000002e0: 274b 703f d34f 783f 5071 613f 0875 853f
000002f0: c18a 833f df5b 793f b05d 813f 40e3 763f
00000300: dda5 863f 5699 6e3f 03c4 823f 258c 7e3f
00000310: 0bd2 913f 3650 863f 4b47 833f e73f 5d3f
00000320: 6fd3 773f 36f8 743f a5d8 703f c654 803f
00000330: 2d62 6b3f 2bba 9f3f 51f6 813f 039b 803f
00000340: d636 8a3f 60ca 663f d148 913f 1cf4 8c3f
00000350: a4d4 6b3f 39c7 7e3f 6574 7f3f 3948 823f
00000360: 894b 783f 6aa6 893f 1730 7a3f 1a4d a03f
00000370: 01a8 803f a2e1 823f 5e55 813f ee3a 7f3f
00000380: 7cab 6f3f a421 733f b26a 7e3f 8fcd 7a3f
00000390: c896 6a3f d980 7a3f cfcf 793f af5f 823f
000003a0: 3845 843f f09b 873f 78f6 7c3f 3331 673f
000003b0: e77d 803f 7539 653f 40f1 833f ec11 8a3f
000003c0: 0e7a 8f3f ec94 5e3f f102 6d3f f1b1 7a3f
000003d0: 7a8a 873f 3708 723f eb4b 843f 25fa 743f
000003e0: 7366 843f 7cd8 763f 7b94 833f e913 913f
000003f0: e323 7f3f e808 663f eed6 543f eb3a 7e3f

bias f4 [768]
0.08935459 -0.025264291 0.018645907 0.1679484 0.05653608 -0.03899645 0.0176564 -0.03560334
-0.16095847 0.0053232773 0.03173562 -0.03143339 -0.056004297 -0.0756785 -0.02582 -0.011424555
-0.08259998 0.020228151 0.028362103 -0.03743148 0.08469787 -0.071875 -0.07671771 -0.06224344
-0.13711767 0.11317857 -0.098246776 0.12014848 -0.068461664 -0.033071436 -0.064748935 0.0515228
-0.085054815 0.03726444 0.0032246762 0.08448762 -0.13097407 0.09574801 -0.011301141 0.04444443
0.13342206 -0.10519332 -0.14618085 0.024141995 -0.033906363 -0.054928046 0.120452434 -0.065174036
0.10455373 0.03294174 -0.037174027 -0.029378284 0.03809837 0.10716495 -0.07368193 0.22250193
0.10591015 -0.049772702 -0.07382368 0.00237693 -0.0024259726 -0.14473397 -0.053435873 0.049977686
0.09769684 -0.1030529 0.08082881 -0.015870115 -0.070552856 -0.040558096 -0.024718732 0.020726189
0.015238002 -0.041930486 -0.046994008 -0.12694211 0.042140286 0.0430038 0.12706085 -0.05569474
0.014977376 0.09685788 -0.036726765 0.0131834205 -0.053201113 -0.02448927 0.1658544 0.046052475
-0.034977507 0.08336922 -0.14106855 0.10752778 -0.0399051 0.068330795 0.09161186 0.031034289
-0.035612874 -0.05608813 -0.061320715 0.11136906 0.050169993 -0.092792645 -0.081623234 0.06059018
-0.09343766 -0.089078 0.07171489 -0.14770027 -0.13406944 0.017679177 -0.04961557 -0.08238766
-0.020719519 0.086143255 0.027497608 -0.11697672 -0.04544727 -0.08984273 -0.08488182 -0.059038185
0.062272623 -0.053741276 0.10221806 -0.1481039 -0.015315148 0.0893534 -0.06993236 0.09183839
-0.103675395 0.0035497334 0.05902061 0.15625787 0.0001437237 0.020428883 -0.06072912 0.0030124926
0.12737067 -0.040081616 -0.021868333 0.09284799 0.044346593 -0.007857186 0.0814484 -0.098646075
-0.06420622 0.046427585 -0.040397014 0.01862656 -0.004653207 -0.015048479 -0.045415364 -0.100976475
0.1228556 0.092011265 0.010256981 0.22951274 0.04231217 -0.07511705 0.013791558 -0.008800039
-0.04678484 -0.16347176 -0.11108528 0.048486307 0.11304422 0.061046377 0.029708225 -0.123066776
0.08517497 0.1423752 0.14102429 -0.03824776 0.08672183 0.142344 -0.017538115 0.05526861
-0.17310832 0.04527906 -0.00597595 0.06255816 -0.10950935 -0.03046683 0.049307022 0.11881494
-0.034847975 0.023042887 0.08668702 0.060744 -0.030601349 -0.015205925 -0.026958678 -0.008560093
0.0656779 0.07367883 -0.022733083 0.004191483 0.12665768 0.03171352 -0.033185095 0.16196093
0.033965863 0.057708904 -0.053483423 -0.03588966 -0.059556182 -0.23092993 0.14592004 0.12349241
0.08590266 -0.06899606 0.12622315 -0.21754993 0.12570348 -0.13062355 -0.01088083 0.06573673
-0.032469295 0.07469573 0.048821583 -0.16350046 0.048000902 -0.020850504 -0.038561724 0.022212233
0.052174643 0.05607787 -0.022087155 -0.066813946 0.10216528 0.0028549933 -0.0070814146 0.048911527
0.05305171 -0.061103445 -0.006577865 0.078200445 0.01716529 0.13346602 0.005857383 -0.07337619
0.11891241 -0.13746889 0.12806039 -0.015241112 0.11389905 -0.075677186 0.058003888 0.044705708
-0.0338081 -0.021279164 -0.03308662 0.11971121 -0.013490787 0.077394605 0.1682898 0.006186219
00000000: 8aff b63d 0ff7 cebc 4dbf 983c aafa 2b3e
00000010: 6092 673d beba 1fbd 28a4 903c cfd4 11bd
00000020: 4cd2 24be e36e ae3b 36fd 013d 4cc0 00bd
00000030: c364 65bd 54fd 9abd 7784 d3bc 0f2e 3bbc
00000040: 2e2a a9bd 82b5 a53c a457 e83c c051 19bd
00000050: 1476 ad3d 3333 93bd 2d1e 9dbd faf2 7ebd
00000060: 9368 0cbe 2bca e73d 9b35 c9bd 6810 f63d
00000070: a135 8cbd ea75 07bd 179b 84bd 9209 533d
00000080: 3831 aebd 99a2 183d 1755 533b d807 ad3d
00000090: 111e 06be 8817 c43d 6c28 39bc 5d0b 363d
000000a0: cb9f 083e 986f d7bd 6fb0 15be 6fc5 c53c
000000b0: 66e1 0abd 3bfc 60bd c4af f63d f779 85bd
000000c0: 4420 d63d ebed 063d cb43 18bd baaa f0bc
000000d0: 090d 1c3d 4c79 db3d 8de6 96bd 8cd7 633e
000000e0: 6ce7 d83d 76de 4bbd df30 97bd 45c6 1b3b
000000f0: 11fd 1ebb 2435 14be 93df 5abd 67b5 4c3d
00000100: 4815 c83d 660d d3bd 9389 a53d 0b02 82bc
00000110: 047e 90bd 3f20 26bd f07e cabc f8c9 a93c
00000120: d0a8 793c 4dbf 2bbd ca7c 40bd 1dfd 01be
00000130: 4b9b 2c3d c124 303d 3d1c 023e 2b20 64bd
00000140: ab63 753c 6d5d c63d ce6e 16bd 46ff 573c
00000150: 69e9 59bd b99d c8bc bcd5 293e 85a1 3c3d
00000160: 9344 0fbd 7bbd aa3d 4674 10be 8637 dc3d
00000170: 8873 23bd 04f1 8b3d 009f bb3d 9f3b fe3c
00000180: cede 11bd abbc 65bd 6e2b 7bbd 7615 e43d
00000190: 0d7f 4d3d 120a bebd 152a a7bd 692d 783d
000001a0: 3e5c bfbd 876e b6bd 42df 923d bd3e 17be
000001b0: 8049 09be ecd3 903c b239 4bbd ddba a8bd
000001c0: fbbb a9bc e06b b03d aa42 e13c 7e91 efbd
000001d0: eb26 3abd 77ff b7bd 85d6 adbd 06d2 71bd
000001e0: 9411 7f3d d01f 5cbd b457 d13d 8ca8 17be
000001f0: 63ec 7abc eafe b63d b238 8fbd c415 bc3d
00000200: c453 d4bd a5a2 683b 98bf 713d 1002 203e
00000210: 89b4 1639 795a a73c 19bf 78bd 3d6d 453b
00000220: 756d 023e 9f2c 24bd 3825 b3bc 1627 be3d
00000230: c6a4 353d 6dbb 00bc 6bce a63d f406 cabd
00000240: 8d7e 83bd da2a 3e3d 5777 25bd ba96 983c
00000250: ee79 98bb e58d 76bc 7605 3abd c1cc cebd
00000260: b89b fb3d 6770 bc3d e50c 283c 6305 6b3e
00000270: 874f 2d3d f8d6 99bd fdf5 613c 0a2e 10bc
00000280: 76a1 3fbd 2465 27be ae80 e3bd 9499 463d
00000290: ba83 e73d c40b 7a3d aa5e f33c 6f0a fcbd
000002a0: 3770 ae3d ceca 113e ac68 103e afa9 1cbd
000002b0: 379b b13d a0c2 113e 18ac 8fbc 5761 623d
000002c0: 4f43 31be 8976 393d e7d1 c3bb 7e1e 803d
000002d0: 7046 e0bd 9395 f9bc 29f6 493d 3f55 f33d
000002e0: c0bc 0ebd 70c4 bc3c f788 b13d b3ce 783d
000002f0: aeaf fabc 4622 79bc 72d8 dcbc a23f 0cbc
00000300: 2382 863d ede4 963d bb3a babc b558 893b
00000310: 8db2 013e 09e6 013d 18ed 07bd 16d9 253e
00000320: ca1f 0b3d 2c60 6c3d 6f11 5bbd 0901 13bd
00000330: 2ff1 73bd e578 6cbe 106c 153e 97e9 fc3d
00000340: bced af3d ce4d 8dbd a440 013e 69c5 5ebe
00000350: 6ab8 003e 2ec2 05be 8245 32bc fba0 863d
00000360: 86fe 04bd 13fa 983d 24f9 473d aa6c 27be
00000370: 989c 443d adce aabc e6f2 1dbd 6ef6 b53c
00000380: 14b5 553d e9b1 653d 1ff0 b4bc c0d5 88bd
00000390: 083c d13d d71a 3b3b 360b e8bb 7457 483d
000003a0: c04c 593d 9b47 7abd 228b d7bb 8e27 a03d
000003b0: 399e 8c3c 51ab 083e 4aef bf3b 4246 96bd
000003c0: 5a88 f33d a5c4 0cbe 4322 033e dbb5 79bc
000003d0: e843 e93d a4fc 9abd 7c95 6d3d 551d 373d
000003e0: 5d7a 0abd a451 aebc d685 07bd 272b f53d
000003f0: 7608 5dbc 1081 9e3d 2954 2c3e c4b5 ca3b

weight f4 [768]
0.9306688 0.97534555 1.003471 0.9911289 0.9019357 0.9206149 1.0087231 0.9577413
0.98077863 1.125637 1.0163052 1.0159013 0.9711365 0.862221 0.96223223 1.1935418
1.0714178 0.9928498 0.9120041 1.029527 0.9724298 1.0137078 1.0174764 0.97584677
0.97267854 1.0996077 0.9647339 0.8890264 0.78344905 0.95028716 0.96039164 1.1100427
1.0342228 0.96997184 0.89790106 0.98728937 0.89020354 1.080002 0.89206445 0.94608504
0.93297344 1.0108784 0.955285 0.92756516 1.0558939 0.9987766 0.9905194 1.0091227
1.1035522 0.97819024 1.0124995 1.0209426 1.1015531 0.9810376 0.9450707 0.9320435
0.9345095 1.0757602 1.1278933 1.1186402 0.9309948 1.0070823 1.0048623 0.9259552
0.90433115 0.9511535 1.0008148 0.98791814 0.88784903 1.0267684 1.0889739 1.0371355
1.0597095 0.97954917 1.0593582 0.8732197 0.95562625 0.9758218 0.9497747 0.960322
0.9623748 0.83662516 0.9305391 0.94923025 0.958037 0.9535261 1.0255802 0.9731146
0.8183176 0.86659735 1.0015265 1.0268133 0.8569228 1.0915325 1.1693565 0.995279
1.0201416 1.1690395 1.0493035 1.0908563 1.1686277 1.1728631 1.2355542 1.0495242
0.99612385 0.9561201 1.0526211 0.8408831 0.82105255 0.96225244 0.95811373 1.0858738
1.0130973 0.9851834 0.91648155 0.9951371 0.970472 1.025807 1.0298897 0.965545
0.99596137 0.94005865 0.962003 1.0102619 1.0708146 0.92111677 0.88955116 0.91781723
0.95693225 1.0380425 0.89510757 1.0031022 1.0760735 1.0423685 0.9976382 0.9262757
0.9897732 0.9077158 0.98092073 0.9434066 1.0404587 1.0704308 1.0993668 1.0223037
1.051156 1.0320612 1.0832274 1.0287048 1.1510953 1.0010027 1.0460055 0.9603123
0.99446577 1.0978644 0.9956042 0.9863243 1.0198087 0.9563257 1.0463979 0.92018145
0.897415 1.0392503 1.0887185 0.9746428 0.9682165 0.9553931 1.0005006 0.9029848
0.99914634 0.9584064 0.9388049 0.8435186 0.98182225 1.0397903 0.9367709 0.9390175
0.9301968 0.9763605 1.0422872 1.0199904 0.98137367 0.9809706 0.9125046 0.9913868
0.9626685 1.0761735 0.9182328 0.9731134 0.999794 0.8045328 1.0406109 1.022751
0.9549188 1.067374 0.8204884 0.8999541 0.99832743 0.9389784 1.086254 1.0233111
0.91438997 0.98474866 1.0400711 1.0103581 0.9974718 0.9134795 0.9814455 0.97285277
1.0392445 0.9257948 0.8733199 0.9247692 0.9727648 0.966444 0.9854315 1.0623269
1.0659583 1.0557612 0.98918486 1.0833222 1.0211651 0.9116356 1.000465 0.84187126
1.0006458 1.0179436 0.94422615 1.1035559 1.0477558 0.9798647 1.0371196 1.0020547
0.93215925 1.0153744 0.99821347 1.1285957 0.9590809 0.9190126 0.9940492 1.050092
0.90657073 1.0124185 0.99263275 1.1341506 0.9427269 0.9200926 0.9038608 0.9635615
0.95198864 0.8700144 0.9362944 0.9541539 1.0549506 1.0860678 0.921897 1.0856113
00000000: 4f40 6e3f 3fb0 793f bd71 803f a0ba 7d3f
00000010: 42e5 663f 6bad 6b3f d71d 813f 892e 753f
00000020: 4f14 7b3f e014 903f 4a16 823f 0e09 823f
00000030: 679c 783f 84ba 5c3f da54 763f fac5 983f
00000040: 3824 893f 682b 7e3f 1a79 693f 8ac7 833f
00000050: 29f1 783f 2dc1 813f ab3c 823f 18d1 793f
00000060: 7601 793f f2bf 8c3f cdf8 763f 3c97 633f
00000070: 1e90 483f 0546 733f 3adc 753f e115 8e3f
00000080: 6a61 843f 1350 783f d8dc 653f ffbe 7c3f
00000090: 61e4 633f 813d 8a3f 565e 643f a132 723f
000000a0: 59d7 6e3f 7764 813f 8f8d 743f e974 6d3f
000000b0: 8827 873f d3af 7f3f ae92 7d3f ef2a 813f
000000c0: 3341 8d3f ad6a 7a3f 9599 813f 3fae 823f
000000d0: b1ff 8c3f 4825 7b3f 27f0 713f 679a 6e3f
000000e0: 043c 6f3f 83b2 893f cf5e 903f 9a2f 8f3f
000000f0: ad55 6e3f 13e8 803f 549f 803f 660b 6d3f
00000100: 3f82 673f cc7e 733f b31a 803f 34e8 7c3f
00000110: 134a 633f 266d 833f 7f63 8b3f dbc0 843f
00000120: 90a4 873f bcc3 7a3f 0d99 873f 548b 5f3f
00000130: eca3 743f 75cf 793f 6f24 733f aad7 753f
00000140: 325e 763f 112d 563f cf37 6e3f c100 733f
00000150: ea41 753f 491a 743f 3646 833f 0a1e 793f
00000160: 437d 513f 53d9 5d3f 0532 803f 9e6e 833f
00000170: 4b5f 5b3f 56b7 8b3f 79ad 953f 9bca 7e3f
00000180: 0094 823f 16a3 953f 944f 863f 2ea1 8b3f
00000190: 9895 953f 6120 963f a426 9e3f cf56 863f
000001a0: f901 7f3f 49c4 743f 4abc 863f 1d44 573f
000001b0: 8030 523f 2d56 763f f146 753f eafd 8a3f
000001c0: 2cad 813f fb34 7c3f 899e 6a3f 4ec1 7e3f
000001d0: da70 783f a54d 833f 6dd3 833f f52d 773f
000001e0: 53f7 7e3f afa7 703f d445 763f 4350 813f
000001f0: 7410 893f 4fce 6b3f a0b9 633f 12f6 6a3f
00000200: 83f9 743f 94de 843f c525 653f a765 803f
00000210: c7bc 893f 556c 853f 3865 7f3f 6720 6d3f
00000220: c761 7d3f 1060 683f 9f1d 7b3f 1883 713f
00000230: c02d 853f e003 893f 0db8 8c3f d9da 823f
00000240: 488c 863f 951a 843f 32a7 8a3f 99ac 833f
00000250: 1757 933f db20 803f 82e3 853f 07d7 753f
00000260: 4f95 7e3f d286 8c3f ebdf 7e3f c07f 7c3f
00000270: 1789 823f c3d1 743f 5ef0 853f 0391 6b3f
00000280: fdbc 653f 2706 853f 215b 8b3f 3182 793f
00000290: 09dd 773f a494 743f 6710 803f 032a 673f
000002a0: 0ec8 7f3f 1f5a 753f 8555 703f d6f0 573f
000002b0: b458 7b3f d917 853f 38d0 6f3f 7363 703f
000002c0: 6121 6e3f c3f2 793f ab69 853f 0c8f 823f
000002d0: 4e3b 7b3f e420 7b3f e799 693f 86cb 7d3f
000002e0: 7171 763f 0ec0 893f 4e11 6b3f f61d 793f
000002f0: 80f2 7f3f ddf5 4d3f bd32 853f 81e9 823f
00000300: 8f75 743f b69f 883f 870b 523f 6463 663f
00000310: 6392 7f3f e360 703f 5f0a 8b3f dcfb 823f
00000320: 7615 6a3f 7d18 7c3f 0d21 853f 6a53 813f
00000330: 505a 7f3f cbd9 693f 0340 7b3f e10c 793f
00000340: f705 853f e300 6d3f e591 5f3f adbd 6c3f
00000350: 1d07 793f e068 773f 3d45 7c3f 54fa 873f
00000360: 5271 883f 2f23 873f 383b 7d3f 4daa 8a3f
00000370: 8ab5 823f f360 693f 3d0f 803f e084 573f
00000380: 2915 803f fa4b 823f ceb8 713f 5241 8d3f
00000390: dd1c 863f 6ad8 7a3f 56c0 843f 5443 803f
000003a0: fda1 6e3f caf7 813f eb8a 7f3f d375 903f
000003b0: 5386 753f 6944 6b3f 027a 7e3f 6a69 863f
000003c0: 0515 683f ee96 813f 2e1d 7e3f d92b 913f
000003d0: 8d56 713f 308b 6b3f 6c63 673f f7ab 763f
000003e0: 87b5 733f 44b9 5e3f fdb0 6f3f 6e43 743f
000003f0: 9f08 873f 4504 8b3f 7101 6c3f 50f5 8a3f

bias f4 [768]
-0.16368124 0.0008921063 0.07195114 -0.006819782 -0.16139805 0.067774355 -0.016604027 0.040933184
0.018846259 0.09257826 0.05490866 0.010865693 -0.08950562 -0.1330079 -0.046736334 0.15662926
0.07148506 -0.0108619435 0.1025671 0.002465572 -0.0074255257 -0.044368356 -0.02215903 0.02690508
-0.027427506 -0.09850724 0.050901245 -0.112051286 0.19095021 0.14711972 0.025646742 0.12201954
-0.11920839 -0.017468246 0.10237552 0.030270472 0.23302124 -0.18593317 0.17535186 -0.036955472
0.059589077 0.076333255 -0.040914144 0.04474585 0.060394812 -0.12848832 -0.06634235 -0.03377118
0.08206278 0.02736041 -0.08625551 -0.05401597 0.1519565 -0.01303643 0.042139787 -0.060286354
-0.06351379 -0.014730269 0.15167107 0.121310286 0.0975235 0.018421361 -0.011069385 -0.055524223
-0.08265709 -0.071940556 -0.004563524 -0.07514685 -0.02235774 0.039049063 -0.089487165 -0.007075008
-0.10149206 0.070567675 0.06768447 -0.13128433 -0.0038680069 -0.030194143 -0.01730466 -0.07789174
0.0010636102 0.12490293 -0.058628548 0.021455849 0.0031210769 0.06295156 -0.08934111 0.029299783
-0.1770194 -0.0071312324 -0.01424572 0.018467827 -0.17723139 -0.15467863 -0.10844977 0.045986217
-0.100014195 -0.07141255 -0.025222497 0.09539351 -0.1427738 -0.18906794 -0.19154146 -0.086685404
-0.05485228 -0.03449126 0.0860014 -0.12683728 0.18560842 0.01732081 -0.21141967 0.1783466
-0.010009903 0.01599229 -0.060306177 -0.022877725 0.0045171357 -0.17281249 0.05014648 0.062649675
0.12932418 -0.061601017 0.017282706 -0.022677917 -0.050904926 -0.0834645 0.10734992 0.019468553
0.09932584 -0.033848066 0.10651193 0.058818992 -0.020224316 -0.068262875 -0.03199105 0.1540481
0.0120726125 0.08553569 -0.017485179 -0.09181714 -0.024843266 0.0168249 0.22210847 0.004952541
0.059325073 0.0637835 0.0761995 -0.03188573 -0.17606819 0.014525689 0.09725594 0.05106428
-0.003218073 0.09539944 0.041187104 -0.007884841 0.025457501 0.009028938 0.05716547 -0.07032677
-0.12082979 0.038659368 0.07715714 -0.027778432 -0.028374601 -0.0630005 -0.091696285 0.053506915
-0.00021890929 -0.033086278 -0.05635508 -0.11673814 -0.065216206 0.05487181 0.05669202 -0.056859907
0.05761808 0.012742016 -0.07391657 -0.0035115723 -0.02347259 -0.046753787 -0.08821467 0.03729659
-0.054573897 -0.06558009 0.050908644 -0.041679885 0.030761793 -0.17025131 0.042449288 0.071625285
-0.05416427 -0.057814352 0.15609787 -0.101427585 -0.01442223 -0.052528594 -0.088701956 -0.030385282
0.04290198 -0.033880994 -0.16622864 0.05730948 -0.022328366 0.06517198 0.0053447187 0.123616986
0.053684816 -0.06907221 -0.12411707 0.037089974 -0.0638764 0.034188386 0.085918754 0.08498143
0.07146779 0.051772736 -0.04130535 -0.06631915 0.041725032 0.08071526 -0.038393375 -0.17722066
-0.004713897 -0.029459681 0.098051436 -0.05760118 -0.057067513 0.040706947 -0.038119115 0.008666653
-0.039629634 -0.029860547 -0.0053599356 -0.08140642 0.053779732 0.1647169 0.023016095 -0.05492283
-0.0636685 0.0032910828 -0.082370184 0.14846298 -0.08846537 -0.09359271 -0.055458024 0.03018312
-0.10008644 -0.10717224 0.05603249 -0.0558605 -0.0697701 -0.07288723 0.07219927 0.08144587
00000000: 0e9c 27be 3edc 693a 1f5b 933d 7a78 dfbb
00000010: 8845 25be 48cd 8a3d 2b05 88bc 8ea9 273d
00000020: 7863 9a3c ac99 bd3d e7e7 603d 0506 323c
00000030: b94e b7bd 3933 08be 996e 3fbd 6c63 203e
00000040: c266 923d 4bf6 31bc b30e d23d 6f95 213b
00000050: d351 f3bb 98bb 35bd db86 b5bc 0b68 dc3c
00000060: a6af e0bc 2abe c9bd d37d 503d 257b e5bd
00000070: 7488 433e 8da6 163e 1e19 d23c 61e5 f93d
00000080: 8723 f4bd 9119 8fbc 42aa d13d c8f9 f73c
00000090: 1f9d 6e3e 4465 3ebe 708f 333e 9f5e 17bd
000000a0: ad13 743d 9c54 9c3d 9795 27bd 6d47 373d
000000b0: 8d60 773d 7192 03be 7fde 87bd a653 0abd
000000c0: 8810 a83d f022 e03c bba6 b0bd da3f 5dbd
000000d0: 7c9a 1b3e c096 55bc c59a 2c3d d3ee 76bd
000000e0: 8513 82bd 3a57 71bc a94f 1b3e 8771 f83d
000000f0: 67ba c73d 65e8 963c 5e5c 35bc 5e6d 63bd
00000100: 1f48 a9bd 9255 93bd 9d89 95bb 97e6 99bd
00000110: 9427 b7bc e9f1 1f3d 0c45 b7bd 78d5 e7bb
00000120: 12db cfbd c985 903d 289e 8a3d 666f 06be
00000130: 637e 7dbb b559 f7bc 81c2 8dbc b485 9fbd
00000140: d668 8b3a 1bcd ff3d 7d24 70bd 2dc4 af3c
00000150: fb8a 4c3b bfec 803d 79f8 b6bd 1906 f03c
00000160: 9344 35be 1dad e9bb e166 69bc d749 973c
00000170: 257c 35be 1364 1ebe ea1a debd 0b5c 3c3d
00000180: 3ed4 ccbd be40 92bd 699f cebc ac5d c33d
00000190: 4c33 12be 079b 41be 7223 44be 1e88 b1bd
000001a0: c9ac 60bd b546 0dbd 8121 b03d a2e1 01be
000001b0: 2210 3e3e 5fe4 8d3c 667e 58be 7ea0 363e
000001c0: 9400 24bc 4302 833c 9c03 77bd 116a bbbc
000001d0: 7b04 943b c2f5 30be 6566 4d3d 794e 803d
000001e0: 8f6d 043e 5951 7cbd 7694 8d3c 0ac7 b9bc
000001f0: af81 50bd 70ef aabd 46da db3d 847c 9f3c
00000200: 596b cb3d 45a4 0abd ed22 da3d 2fec 703d
00000210: 77ad a5bc 68cd 8bbd 0c09 03bd c9be 1d3e
00000220: 35cc 453c 562d af3d 143d 8fbc a00a bcbd
00000230: 1b84 cbbc 5fd4 893c 6770 633e ed48 a23b
00000240: d9fe 723d eca0 823d 7c0e 9c3d 9c9a 02bd
00000250: 384b 34be 28fd 6d3c 1f2e c73d c728 513d
00000260: 4ee6 52bb c860 c33d cfb3 283d 6c2f 01bc
00000270: 408c d03c 1cee 133c 5726 6a3d 7b07 90bd
00000280: 9c75 f7bd 4959 1e3d 9004 9e3d 988f e3bc
00000290: da71 e8bc 6806 81bd 43cb bbbd 112a 5b3d
000002a0: 048b 65b9 7a85 07bd 96d4 66bd 6814 efbd
000002b0: 1390 85bd 43c1 603d e435 683d efe5 68bd
000002c0: f000 6c3d e4c3 503c 9261 97bd 6822 66bb
000002d0: 9749 c0bc e680 3fbd e5a9 b4bd 4fc4 183d
000002e0: e188 5fbd db4e 86bd 9585 503d 87b8 2abd
000002f0: 2800 fc3c 5c56 2ebe 4edf 2d3d 47b0 923d
00000300: 5bdb 5dbd bece 6cbd 1fd8 1f3e 44b9 cfbd
00000310: 384b 6cbc 3928 57bd 5fa9 b5bd 8eea f8bc
00000320: fdb9 2f3d ccc6 0abd d737 2abe 58bd 6a3d
00000330: fae9 b6bc e378 853d c022 af3b e72a fd3d
00000340: 9ce4 5b3d bb75 8dbd 1731 febd a8eb 173d
00000350: a1d1 82bd 1f09 0c3d 2cf6 af3d be0a ae3d
00000360: b45d 923d a60f 543d cc2f 29bd 56d2 87bd
00000370: dee7 2a3d 0b4e a53d 5f42 1dbd 5579 35be
00000380: 0977 9abb 6e55 f1bc 31cf c83d 37ef 6bbd
00000390: a0bf 69bd 54bc 263d ca22 1cbd 94fe 0d3c
000003a0: af52 22bd 1b9e f4bc 66a2 afbb 69b8 a6bd
000003b0: 2348 5c3d 8cab 283e 408c bc3c c3f6 60bd
000003c0: a164 82bd 35af 573b b3b1 a8bd ae06 183e
000003d0: 552d b5bd 89ad bfbd f427 63bd 9742 f73c
000003e0: 1ffa ccbd 1f7d dbbd 5382 653d fbcd 64bd
000003f0: a0e3 8ebd e645 95bd 36dd 933d 18cd a63d
