ablations/static-layerwise/zendaya2023-05-29T15-57-05_zendaya-static-layerwise/embeddings_gs-4500.pt (torch, 945964 bytes, 172 tensors)

pre_vecs f4 [2, 768]
-0.022997174 0.0064609163 0.0034714965 -0.010054158 -0.00075746345 -0.012454672 -0.009908343 0.0013048188
0.016681721 0.032889966 0.045927778 0.004907341 0.010470276 0.0018486112 -9.963358e-05 -0.024212759
-0.021316307 -0.0121526765 0.005503529 0.012999983 0.013855794 0.007455361 -0.010916038 0.00031375972
-0.013376872 0.0055844416 -0.014104621 0.0068201725 -0.009695891 0.03612489 0.03838553 0.025581134
-0.013396517 0.014942405 0.0020829234 0.06094977 -0.0155727 0.015470911 -0.015508069 -0.017415531
0.004463365 0.003614065 0.01444126 0.013314044 0.010395061 -0.015811665 0.022612656 -0.015581756
-0.008747981 -0.0015531603 0.004163693 -0.008903477 0.010101962 0.009332783 0.0036482795 0.0031148482
0.018064473 0.002983275 -0.0003247791 -0.014518945 -0.0201122 0.0007094222 0.030676905 -0.031833276
-0.0058830674 -0.0005923968 0.026459709 0.004222169 0.0066897897 -0.019386258 -0.011565668 0.029659051
-0.0070909504 0.0076798475 0.017075576 0.021768386 0.041665044 0.004196756 0.013066741 0.0153798275
-0.010238496 -0.002744122 0.010206328 -0.010587651 -0.0023281486 0.014421078 0.016739603 -0.0049982355
-0.00158678 0.0006220717 -0.023072885 -0.0055884435 0.007125509 0.0009151482 -0.03869714 -0.015497885
0.01677264 -0.031259783 -0.042427845 0.031513106 -0.001917263 -0.01664146 0.014643633 -0.016648998
-0.012966182 -0.0024796666 0.041556202 0.0050866874 -0.004935581 -0.007958245 0.009747002 -0.012289042
-0.024593757 0.014284505 0.0190899 -0.0058161984 -0.024758888 0.010734486 0.0076979846 -0.0013363688
0.019404333 -0.0069054556 0.021355335 -0.00872418 -0.0022654927 0.011105225 0.0012878305 -0.019627413
-0.054340627 -0.01028513 -0.028271155 0.003857766 -0.012465235 -0.0019268539 0.016606068 0.014487672
-0.009499483 -0.014081167 0.020286905 -0.003833792 -0.043338373 0.009385983 -0.018713154 -0.008487148
-0.017229818 -0.018121809 0.01165863 0.022047164 -0.0071306396 0.015650991 -0.03326656 0.010047392
0.014167759 0.01866056 0.0010817947 0.008389881 0.02640622 0.0020421238 -0.014625725 -0.0001721852
-0.010914393 0.01073429 -0.00068865065 0.023549806 0.029168077 -0.006776632 0.015709218 -0.044436492
-0.01462803 0.00050832384 -0.021414038 0.02637214 0.0038677687 0.014871561 -0.0065500163 -0.006930916
-0.004504753 0.0006665886 -0.009035748 0.007827783 0.022309395 -0.011931357 0.009486229 -0.013333193
0.017096795 -0.014138952 0.008271387 -0.006188488 -0.020034254 -0.022747768 -0.055998232 0.009166794
-0.0069448897 -0.011765486 -0.014046429 0.03182621 0.015909653 0.0144119 0.030771712 0.0131061375
0.019256512 -0.015827462 0.020557445 -0.0053407834 -0.016977768 -0.034799844 0.030714046 -0.016342765
0.002381309 0.017292647 0.054782785 0.013097813 -0.010847515 0.009756166 0.009723617 0.015901588
-0.0027696656 0.032649044 -0.018490523 -0.021503542 -0.050604716 -0.043615617 -0.0043456485 -0.011294673
0.02190785 0.00091539836 -0.006109529 0.033331487 0.005375116 -0.007556584 0.016301183 0.016455887
0.0100236125 -0.005031635 0.02944915 -0.005435712 0.021203415 -0.011444163 0.037255313 -0.025048861
0.022397397 0.007860188 0.01904088 -0.01130847 0.01298519 0.027330605 -0.003597101 0.018072229
0.016044889 -0.0058415052 -0.016220124 -0.017040135 -0.022980383 -0.01209895 -0.023821862 0.0035325123
00000000: 9264 bcbc 18b6 d33b 0c82 633b 32ba 24bc
00000010: 8390 46ba ae0e 4cbc 9a56 22bc 7406 ab3a
00000020: 1ba8 883c a1b7 063d c41e 3c3d c3cd a03b
00000030: 858b 2b3c 194d f23a 5ff2 d0b8 d659 c6bc
00000040: 899f aebc 051c 47bc f356 b43b e1fd 543c
00000050: 6a03 633c 1a4c f43b 2fd9 32bc 1e80 a439
00000060: ab2a 5bbc b1fd b63b 1117 67bc c17b df3b
00000070: 84db 1ebc b1f7 133d 253a 1d3d 878f d13c
00000080: 117d 5bbc fdd0 743c a881 083b 77a6 793d
00000090: a324 7fbc b479 7d3c 8e15 7ebc 04ab 8ebc
000000a0: 6b41 923b f3d9 6c3b 099b 6c3c 2623 5a3c
000000b0: 0c50 2a3c 7787 81bc 2d3e b93c 9f4a 7fbc
000000c0: b153 0fbc 6993 cbba 976f 883b e4df 11bc
000000d0: b382 253c 87e8 183c f917 6f3b 7b22 4c3b
000000e0: f2fb 933c 0d83 433b 1d47 aab9 dee0 6dbc
000000f0: 57c2 a4bc 85f8 393a 224e fb3c 9c63 02bd
00000100: bfc6 c0bb 144b 1bba 08c2 d83c 1f5a 8a3b
00000110: 0636 db3b eecf 9ebc ed7d 3dbc 8af7 f23c
00000120: 345b e8bb 3ba7 fb3b 14e2 8b3c 9d53 b23c
00000130: f7a8 2a3d f184 893b e215 563c acfb 7b3c
00000140: 5dbf 27bc bad6 33bb 7138 273c d477 2dbc
00000150: da93 18bb 6346 6c3c 7e21 893c 3dc8 a3bb
00000160: 80fb cfba 8612 233a 5903 bdbc 431f b7bb
00000170: 1a7d e93b 8ee6 6f3a e480 1ebd d7ea 7dbc
00000180: c766 893c 420a 00bd d2c8 2dbd e313 013d
00000190: ac4c fbba ac53 88bc d9eb 6f3c 7b63 88bc
000001a0: 1c70 54bc e781 22bb d636 2a3d 3aae a63b
000001b0: a7ba a1bb 4d63 02bc e4b1 1f3c fa57 49bc
000001c0: d978 c9bc 8e09 6a3c 6c62 9c3c cf95 bebb
000001d0: 27d3 cabc b3df 2f3c 603f fc3b 1929 afba
000001e0: d6f5 9e3c 2947 e2bb 62f1 ae3c ddef 0ebc
000001f0: a978 14bb b1f2 353c 6ccc a83a abc9 a0bc
00000200: 4794 5ebd f682 28bc e998 e7bc 93d2 7c3b
00000210: fc3a 4cbc 7d8e fcba 7309 883c b35d 6d3c
00000220: b8a3 1bbc b2b4 66bc b930 a63c 5b40 7bbb
00000230: 9483 31bd abc7 193c 544c 99bc ae0d 0bbc
00000240: 8c25 8dbc 3074 94bc d703 3f3c 419c b43c
00000250: 24a8 e9bb 8236 803c 8442 08bd d19d 243c
00000260: e31f 683c 08de 983c 02cb 8d3a b675 093c
00000270: db51 d83c 27d5 053b bda0 6fbc 9d8c 34b9
00000280: 48d2 32bc e0de 2f3c 9086 34ba 86eb c03c
00000290: e4f1 ee3c 820e debb 9eb0 803c 0a03 36bd
000002a0: 68aa 6fbc 0941 053a 7e6c afbc 630a d83c
000002b0: 647a 7d3b d9a7 733c 85a1 d6bb bd1c e3bb
000002c0: 9b9c 93bb 01be 2e3a ad0a 14bc 1a40 003c
000002d0: 31c2 b63c bd7b 43bc 216c 1b3c 7773 5abc
000002e0: 940e 8c3c 10a7 67bc b684 073c cdc8 cabb
000002f0: e01e a4bc 8759 babc 675e 65bd 5230 163c
00000300: f591 e3bb 06c4 40bc fe22 66bc 335c 023d
00000310: f654 823c e41f 6c3c f514 fc3c 20bb 563c
00000320: d5bf 9d3c 98a8 81bc 1668 a83c bd01 afbb
00000330: f614 8bbc 488a 0ebd 069c fb3c 43e1 85bc
00000340: bc0f 1c3b 4fa9 8d3c ea63 603d 3698 563c
00000350: c7b9 31bc 53d8 1f3c ce4f 1f3c 0c44 823c
00000360: 4783 35bb 01bb 053d 7079 97bc 3228 b0bc
00000370: e446 4fbd 4aa6 32bd f165 8ebb 4b0d 39bc
00000380: 1778 b33c 58f7 6f3a 7232 c8bb 9986 083d
00000390: be21 b03b 399d f7bb 0f8a 853c 7fce 863c
000003a0: 143a 243c 6ae0 a4bb 583f f13c 0f1e b2bb
000003b0: c9b2 ad3c 4c80 3bbc 0799 183d 4533 cdbc
000003c0: bf7a b73c 05c8 003c 9ffb 9b3c 2947 39bc
000003d0: d6bf 543c 6fe4 df3c 57bd 6bbb 360c 943c
000003e0: 9270 833c 196a bfbb 11e0 84bc c197 8bbc
000003f0: 5b41 bcbc ad3a 46bc 1126 c3bc b981 673b

basis_rand_weights f4 [16, 5]
0.0019368598 0.06564433 -0.042127088 0.12102524 -0.027854793 0.012058968 0.03027258 -0.11095414
-0.11126198 0.11287561 -0.009345151 0.05013235 -0.02249468 0.0014523094 0.019090591 -0.013271761
-0.008272852 -0.13800141 -0.1464987 0.09245112 -0.03523719 0.027849989 -0.04063539 0.03943765
-0.074731074 -0.03172041 0.0026170204 0.027839031 -0.037930638 -0.03004556 -0.022486905 0.005325041
-0.014225686 0.038544606 -0.028693466 -0.061404366 0.029390575 -0.117108375 0.09644324 -0.008025596
-0.054251064 -0.007292863 0.2860223 0.2670211 -0.016516777 -0.111194134 0.058080077 0.17637357
0.14270695 0.045338944 -0.05017173 0.024760973 0.26515648 0.2202531 -0.16157988 -0.044483952
0.0056557907 -0.27095497 0.122358784 0.15265885 -0.011218864 -0.02664267 0.24366438 0.31944346
-0.0140376855 -0.06625778 -0.03225104 -0.06579126 0.1247302 0.034118287 -0.0033757018 0.02427823
-0.17274761 -0.03360731 -0.17662734 0.04391786 0.037963085 -0.042725082 0.2503493 -0.020803453
00000000: 3bde fd3a 8970 863d 748d 2cbd 15dc f73d
00000010: bc2f e4bc fa92 453c 34fe f73c ed3b e3bd
00000020: 52dd e3bd 542b e73d 671c 19bc 9457 4d3d
00000030: c346 b8bc 6b5b be3a df63 9c3c cd71 59bc
00000040: db8a 07bc 3e50 0dbe c103 16be 0357 bd3d
00000050: df54 10bd a925 e43c 4b71 26bd 6089 213d
00000060: 9b0c 99bd 43ed 01bd 5182 2b3b ae0e e43c
00000070: 285d 1bbd 1b22 f6bc 7536 b8bc ae7d ae3b
00000080: da12 69bc f3e0 1d3d 8f0e ebbc 2583 7bbd
00000090: 81c4 f03c 84d6 efbd 0984 c53d ca7d 03bc
000000a0: 5d36 5ebd f8f8 eebb 8471 923e fdb6 883e
000000b0: 314e 87bc c0b9 e3bd 60e5 6d3d 469b 343e
000000c0: c521 123e 54b5 393d df80 4dbd 86d7 ca3c
000000d0: 97c2 873e 078a 613e 3275 25be ce34 36bd
000000e0: 3654 b93b 9cba 8abe 3e97 fa3d 9a52 1c3e
000000f0: 53cf 37bc bb41 dabc 2883 793e 188e a33e
00000100: 52fe 65bc 29b2 87bd ab19 04bd 91bd 86bd
00000110: 8c72 ff3d 9ebf 0b3d e13a 5dbb 23e3 c63c
00000120: c0e4 30be d2a7 09bd ccdd 34be 37e3 333d
00000130: 2e7f 1b3d 7f00 2fbd c92d 803e 016c aabc

basis_vecs f4 [3, 768]
-0.021589804 -0.008585584 -0.05257678 -0.008261738 0.024157954 -0.033299856 -0.025558272 -0.012262843
0.0490931 0.07154415 0.033263836 0.02024501 0.049856868 0.0017101651 -0.028994204 0.014230854
0.007862842 -0.005124601 0.0001381347 -0.04197915 -0.014843021 0.046617255 -0.07914816 -0.015046391
-0.03391053 0.0023892496 -0.062275916 -0.013979976 -0.04743784 0.0141747035 0.016490124 -0.037463
0.014094853 0.043857615 0.008418009 0.12491589 -0.009560235 0.0019150629 -0.020541824 0.004744002
0.0053338506 -0.0024996693 0.030443422 -0.004576823 0.0430941 -0.060867168 0.008388078 0.0006186649
0.012207395 0.00365326 0.040263228 -0.0030233886 0.007119222 -0.0041336743 -0.014909546 -0.014685375
0.031848416 0.015657283 0.00826123 0.028109774 -0.045888416 -0.009863821 0.010081332 -0.009203111
0.008402813 -0.014598158 0.056134585 -0.055702526 -0.0012078623 -0.03554365 0.017675 0.03199922
-0.022627864 -0.008180557 0.0039380975 -0.03182851 0.011987051 0.015053736 -0.0008265845 0.11688107
0.013941698 -0.013355534 0.0056766984 -0.04246125 0.012669604 0.039717056 0.031247966 0.027500665
-0.005752651 0.028780146 -0.037165485 0.023713864 -0.00056745013 -0.0019149253 -0.054635674 -0.046205267
-0.008152057 -0.036110453 -0.052348655 0.014312372 0.040699273 0.007919252 -0.021557894 -0.0119114835
-0.010286719 -0.027763104 0.056413874 0.008595943 -0.04241448 -0.010143631 0.0126833925 0.00886187
-0.009800379 0.024458965 -0.008580535 -0.0071124183 -0.018547224 0.015648626 0.030534418 0.020850698
0.06396043 -0.035035964 0.008011097 -0.030318968 -0.056469094 0.031769894 -0.007973653 -0.0049689235
-0.058980756 -0.0019169645 -0.030837866 0.009527599 -0.055756908 -0.005915318 0.011305809 0.00025855613
-0.007778426 -0.039523255 0.0014428752 -0.014754263 -0.05258944 0.035064477 0.027831042 -0.05205355
0.030340312 -0.016542114 0.03198553 -0.007111023 0.04807441 0.016932536 -0.045967687 -0.0133757265
-0.006304824 0.004576172 -0.0121230595 -0.02937344 0.005925688 0.027239077 0.032381658 0.010555887
-0.023622109 0.010278255 0.04279657 0.027067631 0.046927962 0.0075719617 0.018664733 -0.028269816
0.020242931 -0.017855572 0.0008511755 0.02619977 0.02222289 0.01316746 0.004856853 0.0038192542
-0.03116778 -0.053047158 -0.013041645 0.030684559 0.04842289 0.028981412 0.00045578665 -0.032736704
0.00394785 -0.03220265 0.030285122 -0.062718175 0.0032991827 -0.021015393 -0.036442637 -0.004812689
-0.005586796 -0.00832915 -0.026986433 0.03397791 0.034603316 0.013979184 0.074660085 0.012121413
0.030618232 0.008192355 0.010206083 -0.010926984 0.014407702 -0.018379845 0.013428683 0.00898026
0.038857214 0.011644567 0.08100861 0.011860406 0.024687517 0.0040220036 0.050061066 -0.027731037
0.006491869 0.057076756 0.002787881 -0.01655435 -0.022885704 -0.060816243 0.009267312 -0.004872003
0.006062791 0.027859071 0.015450336 0.044762112 0.019225344 0.01796283 0.031038756 0.013251099
0.016518705 0.020150721 0.057184935 -0.013244793 -0.0070370566 -0.004083482 0.052064683 -0.102167904
0.030334646 0.055015355 -0.012409085 -0.0016052412 0.024571814 0.02662437 -0.022926236 -0.0036727686
-0.018402278 0.017796125 -0.014130474 -0.0054058116 -0.038291108 -0.006446253 -0.06881387 0.021494491
00000000: 1add b0bc 8daa 0cbc c05a 57bd 3e5c 07bc
00000010: e7e6 c53c 6e65 08bd 955f d1bc 17ea 48bc
00000020: d915 493d bd85 923d a93f 083d ddd8 a53c
00000030: b736 4c3d 9e27 e03a 4185 edbc 8728 693c
00000040: 26d3 003c 45ec a7bb 40d8 1039 54f2 2bbd
00000050: 2430 73bc bcf1 3e3d 6e18 a2bd 2385 76bc
00000060: c5e5 0abd f594 1c3b 0815 7fbd 450c 65bc
00000070: 2e4e 42bd 043d 683c 4c16 873c cd72 19bd
00000080: 19ee 663c 0ba4 333d b0eb 093c e7d3 ff3d
00000090: 88a2 1cbc d902 fb3a 5447 a8bc 9373 9b3b
000000a0: 95c7 ae3b 7ed1 23bb 7c64 f93c 2df9 95bb
000000b0: 7083 303d da4f 79bd 266e 093c e62d 223a
000000c0: 8701 483c 886b 6f3b 0eeb 243d 0b24 46bb
000000d0: 5d48 e93b c673 87bb 2b47 74bc ed9a 70bc
000000e0: 7c73 023d b443 803c 1c5a 073c 7846 e63c
000000f0: 7ef5 3bbd dd9b 21bc 2c2c 253c a5c8 16bc
00000100: f4ab 093c 1d2d 6fbc 61ed 653d 5528 64bd
00000110: 2251 9eba 3896 11bd 29cb 903c 9d11 033d
00000120: 125e b9bc be07 06bc 280b 813b 9d5e 02bd
00000130: 5665 443c f2a3 763c 26af 58ba 585f ef3d
00000140: b86b 643c 2bd1 5abc 9903 ba3b d9eb 2dbd
00000150: 2c94 4f3c 5aae 223d bcfb ff3c 1349 e13c
00000160: bc80 bcbb 57c4 eb3c d63a 18bd 9443 c23c
00000170: efc0 14ba 3bfe faba a8c9 5fbd bc41 3dbd
00000180: 3590 05bc 8ee8 13bd 8b6b 56bd 707e 6a3c
00000190: 48b4 263d c0bf 013c 2e9a b0bc 6228 43bc
000001a0: a089 28bc 736f e3bc 3c12 673d 00d6 0c3c
000001b0: ceba 2dbd 7931 26bc 01ce 4f3c 6031 113c
000001c0: c591 20bc 2b5e c83c 5f95 0cbc 4a0f e9bb
000001d0: 59f0 97bc 8c31 803c 5123 fa3c 15cf aa3c
000001e0: b0fd 823d df81 0fbd fa40 033c 7c5f f8bc
000001f0: 234c 67bd 2621 023d eda3 02bc 5ad2 a2bb
00000200: ce95 71bd a842 fbba b19f fcbc a619 1c3c
00000210: 5b61 64bd 49d5 c1bb 003c 393c d18e 8739
00000220: 2be2 febb 23e3 21bd dc1e bd3a ddbb 71bc
00000230: 0668 57bd c59f 0f3d edfd e33c 1a36 55bd
00000240: 3f8c f83c 5483 87bc 4203 033d 9603 e9bb
00000250: ace9 443d 1ab6 8a3c 9d48 3cbd dd25 5bbc
00000260: b298 cebb b7f3 953b cc9f 46bc 92a0 f0bc
00000270: 462c c23b 7c24 df3c a1a2 043d 99f2 2c3c
00000280: 2783 c1bc 2066 283c 754b 2f3d f0bc dd3c
00000290: 8937 403d 381e f83b c8e6 983c 1a96 e7bc
000002a0: 81d4 a53c d945 92bc 6c21 5f3a e6a0 d63c
000002b0: c70c b63c 55bc 573c 3c26 9f3b 744c 7a3b
000002c0: 9253 ffbc fa47 59bd a0ac 55bc 2f5e fb3c
000002d0: 1557 463d 6d6a ed3c a6f6 ee39 ec16 06bd
000002e0: f75c 813b ede6 03bd 8118 f83c 6372 80bd
000002f0: 1a37 583b 7928 acbc e044 15bd c3b3 9dbb
00000300: 7111 b7bb fd76 08bc a712 ddbc 6c2c 0b3d
00000310: 35bc 0d3d f308 653c 63e7 983d e498 463c
00000320: 16d3 fa3c 3a39 063c 6a37 273c 1807 33bc
00000330: 480e 6c3c 5491 96bc fb03 5c3c f121 133c
00000340: be28 1f3d dbc8 3e3c d8e7 a53d 2652 423c
00000350: 7a3d ca3c 03cb 833b d50c 4d3d 332c e3bc
00000360: bfb9 d43b 51c9 693d e2b4 363b fd9c 87bc
00000370: cd7a bbbc 741a 79bd ecd5 173c 53a5 9fbb
00000380: 61aa c63b b538 e43c 6823 7d3c 7a58 373d
00000390: 787e 9d3c c926 933c fd44 fe3c 231b 593c
000003a0: 3c52 873c 2013 a53c c03a 6a3d b000 59bc
000003b0: 1c97 e6bb bbce 85bb c741 553d 683d d1bd
000003c0: 5d80 f83c c857 613d 7a4f 4bbc f566 d2ba
000003d0: d44a c93c 5a1b da3c cdcf bbbc d5b2 70bb
000003e0: 60c0 96bc 2ec9 913c 8183 67bc 3c23 b1bb
000003f0: 23d7 1cbd 173b d3bb 49ee 8cbd 3715 b03c

basis_comm_weights f4 [1, 5]
0.23755261 0.6966825 0.3167843 0.36581197 0.26059815
00000000: fe40 733e c959 323f 8d31 a23e b54b bb3e
00000010: 1f6d 853e

bias f4 [16, 768]
0.044115268 0.030158265 0.034581948 0.018906726 0.016054453 0.031047286 -0.094525285 0.008691846
0.009534658 0.01911168 0.0015328394 -0.026407186 -0.0063091847 0.04988351 0.056534603 0.010466551
0.015517587 -0.024890197 -0.016673759 0.05043341 0.063952036 -0.11406604 0.060184468 0.04089857
0.016561631 0.05826588 -0.006845858 -0.0059902137 -0.032530874 0.060471755 0.014466581 0.058694117
-0.09521927 0.000104135754 0.031661898 -0.093045585 0.024902003 -0.050273255 -0.0059169377 0.072017714
0.04497321 -0.015885565 0.06670349 -0.037015617 0.03158587 -0.0052397307 -0.037811756 -0.0056224256
0.028031152 0.05074959 -0.005126003 -0.06400177 0.01162675 -0.019150864 -0.02408525 0.033340894
-0.03697775 -0.046369046 0.05054644 0.07948651 -0.012892541 0.07625027 0.025016464 -0.051202264
0.08165301 0.03955513 -0.007505726 -0.019265492 -0.025812551 0.07107284 0.01483888 0.04482834
-0.050356004 0.039539307 -0.045784127 -0.022169175 0.039041597 0.009935332 0.008759514 -0.049740344
0.007855359 0.09158655 0.04890082 0.025466265 0.014022899 -0.03283328 -0.059884384 0.051142808
0.010159159 0.034688953 0.07627448 0.08997424 0.060077406 -0.01975797 -0.07152994 0.007785169
-0.0038171653 0.0031146496 -0.005608683 0.08482521 0.0009959054 0.062455583 -0.06855115 0.07485253
-0.001455608 -0.008555087 0.08887045 0.050908163 -0.02517877 -0.06579847 0.008789838 0.00888096
-0.014863669 0.023236565 0.02704576 -0.01851105 0.025374664 -0.0753066 0.0022673223 -0.036191132
-0.005285572 0.04155157 0.036935516 -0.019009389 -0.042299304 0.06682724 -0.066187136 0.038345955
0.04156335 0.03054276 0.04312759 -0.010670918 0.007223115 0.039547727 -0.09357464 -0.08095927
-0.014406842 -0.00898298 0.0012581917 0.03656254 -0.07939928 0.0048554256 -0.04692436 -0.04327241
0.03647515 0.050991464 0.029229699 -0.0033364296 0.015698051 -0.0048238975 -0.03943113 -0.005452584
0.08208647 -0.054888453 0.058930743 0.06124825 0.022036497 -0.036150336 0.03156725 -0.04992687
-0.06312415 -0.0031779923 0.07996074 0.08226825 0.10683631 -0.016015675 0.010655105 -0.027888587
-0.026648961 0.06099041 0.033766728 -0.06201561 0.029981926 -0.037878975 -0.05777275 -0.015614122
-0.008180685 -0.020609492 -0.016238201 0.047591574 0.030269692 -0.07265042 0.019541258 0.056810874
-0.07619651 0.0942657 -0.013992125 0.1154062 0.060298163 -0.090821035 0.082665116 -0.007644831
-0.06088873 -0.0072822315 0.019678777 0.02423928 0.057549477 0.060066152 0.081864014 0.0049534263
-0.011789925 -0.007184026 0.00030360353 0.0037395211 0.05082386 -0.052252304 0.058809113 0.017049594
0.0256262 0.049271353 -0.03103133 -0.0108267255 -0.060133465 -0.00017593976 0.019458648 -0.05574583
-0.0003994793 0.053068917 0.043265656 -0.0571198 -0.010858443 0.047123164 -0.05474955 0.03813074
-0.03706637 -0.038062733 0.024506891 -0.033307247 0.02380805 -0.0028375655 -0.024323175 -0.06788474
-0.023316808 -0.037641957 0.054483723 -0.113921255 -0.03030489 -0.06474484 -0.033955302 -0.008399266
0.052177157 0.03970672 0.0039975345 0.048112534 -0.03393102 -0.06717178 -0.046707522 -0.09511323
0.057095714 0.056744028 -0.008610011 -0.051193476 0.010388442 -0.018067466 0.010430554 0.13939415
00000000: 36b2 343d 770e f73c cda5 0d3d 47e2 9a3c
00000010: a184 833c e156 fe3c 7996 c1bd 3f68 0e3c
00000020: 4137 1c3c 1990 9c3c 8ee9 c83a e253 d8bc
00000030: 47bd cebb a752 4c3d d490 673d e67b 2b3c
00000040: 7a3d 7e3c 87e6 cbbc 6897 88bc 4393 4e3d
00000050: 49f9 823d 759b e9bd fd83 763d 4285 273d
00000060: 42ac 873c 34a8 6e3d 3853 e0bb 8e49 c4bb
00000070: 183f 05bd 3bb1 773d 3d05 6d3c 3e69 703d
00000080: 5202 c3bd 7563 da38 e8af 013d af8e bebd
00000090: 49ff cb3c 54eb 4dbd dfe2 c1bb 067e 933d
000000a0: d435 383d 7222 82bc d79b 883d b09d 17bd
000000b0: 2f60 013d 0cb2 abbb 80e0 1abd 533c b8bb
000000c0: 96a1 e53c cdde 4f3d 08f8 a7bb 5c13 83bd
000000d0: 207e 3e3c 46e2 9cbc 6e4e c5bc 7690 083d
000000e0: fb75 17bd 78ed 3dbd c909 4f3d d3c9 a23d
000000f0: 3c3b 53bc 1a29 9c3d 54ef cc3c 77b9 51bd
00000100: b139 a73d 8f04 223d 98f2 f5bb aad2 9dbc
00000110: d874 d3bc a38e 913d c61e 733c ec9d 373d
00000120: 1942 4ebd f8f3 213d 2388 3bbd 219c b5bc
00000130: 15ea 1f3d cec7 223c 1184 0f3c 88bc 4bbd
00000140: c4b3 003c bb91 bb3d 3a4c 483d a19e d03c
00000150: 4dc0 653c 307c 06bd 5449 75bd 1f7b 513d
00000160: 9a72 263c 0116 0e3d cb35 9c3d 6a44 b83d
00000170: ba13 763d 77db a1bc 4a7e 92bd bb1a ff3b
00000180: 6829 7abb 261f 4c3b 0bc9 b7bb d7b8 ad3d
00000190: 0a89 823a 6dd1 7f3d 8c64 8cbd 494c 993d
000001a0: 1aca beba a32a 0cbc b601 b63d 1485 503d
000001b0: b543 cebc 59c1 86bd 4103 103c 7281 113c
000001c0: bf86 73bc 9c5a be3c 128f dd3c 7ca4 97bc
000001d0: 87de cf3c 593a 9abd 5b97 143b 273d 14bd
000001e0: 9732 adbb fb31 2a3d b249 173d 94b9 9bbc
000001f0: 0942 2dbd b8dc 883d 1f8d 87bd a610 1d3d
00000200: 553e 2a3d cf34 fa3c 8ea6 303d 13d5 2ebc
00000210: e1af ec3b ccfc 213d 10a4 bfbd f9cd a5bd
00000220: ad0a 6cbc 592d 13bc e8e9 a43a 9ac2 153d
00000230: 179c a2bd 431a 9f3b c233 40bd 693e 31bd
00000240: f866 153d 6ddc 503d 1f73 ef3c 00a8 5abb
00000250: 3399 803c c911 9ebb 8982 21bd 97ab b2bb
00000260: f41c a83d b7d2 60bd 5d61 713d 72df 7a3d
00000270: e285 b43c 6012 14bd a94c 013d 1e80 4cbd
00000280: 3c47 81bd dd45 50bb 75c2 a33d 427c a83d
00000290: ffcc da3d 4e33 83bc c092 2e3c 9b76 e4bc
000002a0: ec4e dabc 15d1 793d fb4e 0a3d 1504 7ebd
000002b0: a89c f53c fc26 1bbd 1ea3 6cbd 60d2 7fbc
000002c0: 4808 06bc 3dd5 a8bc fa05 85bc 62ef 423d
000002d0: 25f8 f73c bec9 94bd fd14 a03c 85b2 683d
000002e0: ea0c 9cbd 600e c13d 3a3f 65bc 165a ec3d
000002f0: 35fb 763d 6100 babd 544c a93d 7e81 fabb
00000300: 7666 79bd c99f eebb 6335 a13c 7491 c63c
00000310: 00b9 6b3d ed07 763d 52a8 a73d 5a50 a23b
00000320: 882a 41bc fa67 ebbb fa2c 9f39 c112 753b
00000330: ae2c 503d 8306 56bd d3e1 703d 97ab 8b3c
00000340: 09ee d13c c2d0 493d 6a35 febc 9462 31bc
00000350: 824e 76bd 787c 38b9 be67 9f3c bd55 64bd
00000360: 3471 d1b9 cb5e 593d 5437 313d 74f6 69bd
00000370: 9ce7 31bc 3804 413d 1041 60bd fb2e 1c3d
00000380: e8d2 17bd abe7 1bbd adc2 c83c 2e6d 08bd
00000390: 1a09 c33c 73f6 39bb 6541 c7bc 2807 8bbd
000003a0: e402 bfbc 742e 1abd 532a 5f3d 8c4f e9bd
000003b0: f641 f8bc f198 84bd b714 0bbd 139d 09bc
000003c0: b7b7 553d 83a3 223d c0fd 823b a611 453d
000003d0: 41fb 0abd 5c91 89bd 6350 3fbd baca c2bd
000003e0: 32dd 693d 6d6c 683d 0111 0dbc 40b0 51bd
000003f0: 4934 2a3c 3902 94bc eae4 2a3c 57bd 0e3e

weight f4 [768]
0.92870575 0.8897267 0.97674376 0.9833861 0.9923392 0.92660797 1.1436127 0.9807049
1.0155122 1.071812 0.9928563 0.9049976 0.99181426 0.90121853 0.8686933 0.91135335
0.98088044 1.0085297 0.9470581 0.9240942 0.95046 0.76492774 0.9053928 0.8850319
0.95833427 1.0929385 0.99834734 0.93660784 1.0591766 1.0608405 0.9549276 0.86236304
1.0474514 1.0003176 1.0315248 1.002836 0.9164256 0.9332793 1.0260328 1.0985342
1.0871545 0.99753946 1.0979284 0.81377983 0.941944 1.0532802 0.90836865 0.9644864
1.0554438 1.090982 0.99071646 1.0753235 0.92910033 0.98814243 1.0084581 1.003888
0.9059204 0.9410834 1.0638518 1.0779434 1.0321928 1.1363256 0.99907947 1.0813633
1.1462301 0.9728212 0.9102006 1.0018986 0.95892996 0.8291113 1.0047225 1.048974
1.0712768 0.97213334 0.8974282 1.0355748 0.9648317 0.9740635 1.0060915 0.88719404
0.9843408 0.8501102 1.0108739 0.9215799 1.0242906 0.92433786 0.91343325 1.2023563
1.0229113 0.9033051 0.85990006 1.1817394 0.93972504 0.9797332 1.1350285 0.9432735
1.0261285 0.9951232 1.0864865 1.1491413 1.0131679 1.0799209 1.0579851 0.86677647
0.9958682 0.9808866 1.1555022 0.8435925 1.031446 0.9414218 0.9555601 0.9379166
0.9227874 1.0694143 1.0518965 0.98838365 0.9252702 0.8514597 0.972468 0.8942192
0.98398 0.92635983 0.9857701 1.0262854 1.0835474 1.0927969 1.0934896 0.89305574
0.93028057 0.8887693 0.94741434 1.0331059 1.0376934 0.8854906 0.96059734 1.0804639
1.0157195 1.0256168 0.97164387 0.9706583 1.1654142 0.9607537 0.8323144 1.0581715
1.0239509 0.916442 1.0238998 0.9807578 1.0271878 0.9039242 1.0345029 1.0224981
0.9403522 0.945892 0.95606655 0.9463881 0.9926057 0.9395231 1.0420666 0.91165835
0.9851829 0.9628864 1.175895 1.1467695 1.2027467 0.8792584 0.9714828 1.0304021
0.9647606 0.8919604 0.97086203 0.8978766 0.9994419 0.8957053 0.93081594 1.069498
0.9805613 1.0711495 0.9711892 1.0510668 1.0567626 0.89323515 0.9948312 0.90414923
0.8924478 0.85292447 0.93342733 0.8115964 0.92258286 0.98698074 0.8521687 0.97823644
1.0365797 0.96523875 0.95482963 1.0206186 1.120621 1.0896015 1.0890825 1.0068246
1.0218259 0.9578567 1.0265528 0.9276935 1.0868226 1.0655779 1.0761036 0.98296833
1.0580009 1.0599594 0.91140455 0.912115 0.81081635 1.0217954 1.0040172 1.0272243
0.99511784 1.0875778 0.9236307 0.98308116 0.99766386 0.93294597 0.83177835 0.8550427
1.0506736 0.90626574 1.0111781 0.938245 1.0609853 1.0033092 0.9490353 0.87169284
0.9756227 0.88619834 1.082898 0.97074676 0.9926161 0.96985024 0.90660673 1.0688658
1.1172711 1.0864189 0.9395628 0.8736784 0.8814326 1.0261816 1.0379949 0.9625169
0.9997111 1.0713565 1.0172433 0.9836487 0.92415303 1.0256226 0.9894726 1.1027305
00000000: a9bf 6d3f 21c5 633f e10b 7a3f 31bf 7b3f
00000010: f109 7e3f 2e36 6d3f e761 923f 7a0f 7b3f
00000020: 4efc 813f 2331 893f d52b 7e3f ecad 673f
00000030: 8ae7 7d3f 42b6 663f af62 5e3f 744e 693f
00000040: fb1a 7b3f 8017 813f 6672 723f 7091 6c3f
00000050: 5951 733f 4ed2 433f d3c7 673f 7391 623f
00000060: 6555 753f 69e5 8b3f b193 7f3f 88c5 6f3f
00000070: 1993 873f 9fc9 873f 2376 743f d3c3 5c3f
00000080: e312 863f 680a 803f 0109 843f ee5c 803f
00000090: de9a 6a3f 64eb 6e3f 0b55 833f c59c 8c3f
000000a0: e127 8b3f bf5e 7f3f eb88 8c3f e053 503f
000000b0: 3e23 713f e3d1 863f d98a 683f 95e8 763f
000000c0: c818 873f 4ca5 8b3f 989f 7d3f 33a4 893f
000000d0: 85d9 6d3f e7f6 7c3f 2815 813f 677f 803f
000000e0: 66ea 673f d7ea 703f 4c2c 883f 0dfa 893f
000000f0: e51e 843f 1e73 913f acc3 7f3f 1d6a 8a3f
00000100: abb7 923f cf0a 793f e802 693f 373e 803f
00000110: 6f7c 753f a340 543f bf9a 803f c844 863f
00000120: 991f 893f bbdd 783f dbbd 653f b78d 843f
00000130: 36ff 763f 3a5c 793f 9bc7 803f 261f 633f
00000140: c2fd 7b3f d2a0 593f 5164 813f a9ec 6b3f
00000150: f41b 833f 68a1 6c3f c3d6 693f d0e6 993f
00000160: c2ee 823f 013f 673f 6922 5c3f 3d43 973f
00000170: d291 703f cccf 7a3f 9d48 913f 5f7a 713f
00000180: 2e58 833f 65c0 7e3f fd11 8b3f 1017 933f
00000190: 7caf 813f d93a 8a3f 0e6c 873f 10e5 5d3f
000001a0: 38f1 7e3f 621b 7b3f 7fe7 933f aef5 573f
000001b0: 6c06 843f 0501 713f 969f 743f 4d1b 703f
000001c0: cc3b 6c3f 91e2 883f 8ba4 863f b606 7d3f
000001d0: 82de 6c3f 43f9 593f aaf3 783f 8deb 643f
000001e0: 1de6 7b3f eb25 6d3f 6e5b 7c3f 525d 833f
000001f0: aeb1 8a3f c5e0 8b3f 78f7 8b3f 4d9f 643f
00000200: de26 6e3f 6386 633f bf89 723f d03c 843f
00000210: 23d3 843f 83af 623f b5e9 753f a44c 8a3f
00000220: 1903 823f 6947 833f a7bd 783f 107d 783f
00000230: 4b2c 953f f4f3 753f 8e12 553f 2a72 873f
00000240: d310 833f f19b 6a3f 260f 833f f112 7b3f
00000250: e47a 833f 9467 673f 976a 843f 38e1 823f
00000260: ecba 703f fa25 723f c7c0 743f 7e46 723f
00000270: 681b 7e3f 9684 703f 7062 853f 7162 693f
00000280: f234 7c3f b97f 763f ba83 963f 58c9 923f
00000290: 9bf3 993f 1417 613f 19b3 783f 37e4 833f
000002a0: 8dfa 763f 8457 643f 6a8a 783f 3edb 653f
000002b0: 6ddb 7f3f f14c 653f f449 6e3f 4fe5 883f
000002c0: 1106 7b3f 6d1b 893f db9f 783f 5b89 863f
000002d0: ff43 873f 0fab 643f 42ad 7e3f 5376 673f
000002e0: 7677 643f 4259 5a3f 18f5 6e3f c8c4 4f3f
000002f0: 642e 6c3f c5aa 7c3f ba27 5a3f b46d 7a3f
00000300: a5ae 843f e319 773f b76f 743f a1a3 823f
00000310: 8270 8f3f 1078 8b3f 0e67 8b3f a1df 803f
00000320: 31cb 823f 1936 753f 1566 833f 527d 6d3f
00000330: 011d 8b3f db64 883f c3bd 893f d0a3 7b3f
00000340: 936c 873f c0ac 873f cf51 693f 5e80 693f
00000350: a991 4f3f 31ca 823f a383 803f 167c 833f
00000360: 0bc0 7e3f c035 8b3f 1073 6c3f 35ab 7b3f
00000370: e666 7f3f 8cd5 6e3f 6def 543f 14e4 5a3f
00000380: 797c 863f 0801 683f 496e 813f d330 703f
00000390: 5ece 873f 706c 803f faf3 723f 4327 5f3f
000003a0: 69c2 793f e5dd 623f 679c 8a3f dc82 783f
000003b0: 171c 7e3f 1b48 783f 6117 683f 98d0 883f
000003c0: bd02 8f3f c60f 8b3f 3087 703f 63a9 5f3f
000003d0: 91a5 613f eb59 833f 04dd 843f 8267 763f
000003e0: 11ed 7f3f 3622 893f 0735 823f 67d0 7b3f
000003f0: 4b95 6c3f 9a47 833f 144e 7d3f 4626 8d3f

bias f4 [768]
0.06336315 0.044519838 0.039405562 0.008438288 0.026230516 0.050009824 -0.16192403 -0.0057576643
0.029481666 0.051051386 0.010031374 -0.06678406 0.0035809542 0.08885248 0.08944458 0.024820926
0.02971871 -0.046811707 -0.03446138 0.056945108 0.09459327 -0.21788467 0.10883111 0.05438423
0.02142822 0.10978297 -0.024029026 -0.029455397 -0.07549549 0.14041293 0.03168473 0.107412286
-0.18015875 0.019553563 0.06920142 -0.23932052 0.05363948 -0.09638034 -0.028223025 0.16043457
0.12735164 -0.07340423 0.112597264 -0.07378897 0.055681627 -0.035268705 -0.07805 -0.003356212
0.046732128 0.104202434 -0.017222201 -0.15316497 0.02670643 -0.0010732235 -0.03343833 0.06839118
-0.06457738 -0.06718924 0.08663035 0.13550618 -0.02439705 0.14741172 0.030105688 -0.089724906
0.17717348 0.07447013 -0.045356628 -0.02906871 -0.02473908 0.12420988 0.022752685 0.081269406
-0.08621141 0.0488665 -0.056213852 -0.064853586 0.07964937 0.019293657 0.03873902 -0.07790675
0.01795589 0.1820617 0.1191894 0.059312686 0.02874101 -0.07021507 -0.080680326 0.1125036
0.0056023244 0.085158035 0.12964304 0.18109702 0.0957037 -0.019224567 -0.1344193 0.009946939
-0.026817093 -0.020381521 -0.01354136 0.1519003 0.0051270053 0.08141845 -0.10921119 0.10840525
0.015530883 -0.030436076 0.1476499 0.063529804 -0.040086277 -0.113745324 -0.013127169 0.008976271
-0.044454128 0.060716204 0.069852255 -0.028542569 0.014302012 -0.11748081 -0.011492654 -0.06185199
-0.00272081 0.07302899 0.04988176 0.012904992 -0.10716046 0.11468003 -0.09730915 0.072227195
0.056319464 0.066272385 0.0690468 0.013339577 -0.015428055 0.051770773 -0.16470034 -0.12574418
-0.023211544 -0.04607271 0.023690417 0.050242044 -0.13965909 0.0046605114 -0.09642595 -0.050708555
0.058646053 0.096381046 0.046785686 0.008689308 0.06183087 0.02736842 -0.06388996 -0.018138023
0.15177466 -0.084999256 0.09582681 0.120577 0.025206057 -0.054573216 0.052395076 -0.07403504
-0.16266364 -0.013675105 0.17842068 0.17893043 0.19677131 -0.03271309 0.011311887 -0.059794605
-0.053587027 0.11229229 0.07602858 -0.09754486 0.058251504 -0.08041595 -0.101898015 0.012626449
-0.0008954052 -0.012997673 -0.025145737 0.059674427 0.05008947 -0.12704127 0.035258528 0.11452621
-0.14412251 0.15461153 -0.05903761 0.2164729 0.15345678 -0.16381572 0.13237953 -0.029112782
-0.085541785 -0.011033072 0.042296313 0.027835434 0.13054879 0.10509627 0.1636629 0.04151813
0.018710952 -0.02610919 0.014173959 0.002726328 0.08266845 -0.08463008 0.07567058 0.00760911
0.046814352 0.101920106 -0.08005475 -0.023438921 -0.105062634 -0.0073210895 0.026583005 -0.077068925
-0.0077365646 0.08209359 0.094248526 -0.11575391 -0.03025832 0.08096285 -0.09848491 0.057160445
-0.04985419 -0.054236762 0.031201662 -0.051832 0.040129684 0.004311764 -0.0394675 -0.14559425
-0.021071138 -0.08237202 0.08332215 -0.20165133 -0.030032786 -0.14401273 -0.09037281 -0.062474772
0.12233937 0.08068067 0.015352629 0.09226037 -0.07431985 -0.11160572 -0.11262464 -0.23119982
0.094781876 0.122855306 -0.022568448 -0.05343748 0.03630745 -0.013240827 0.019859245 0.24112919
00000000: 8ac4 813d 6f5a 363d ba67 213d bf40 0a3c
00000010: 61e1 d63c 1ad7 4c3d 6acf 25be caaa bcbb
00000020: 8983 f13c 421b 513d a25a 243c 15c6 88bd
00000030: 71ae 6a3b 4af8 b53d b82e b73d 4155 cb3c
00000040: a774 f33c a2bd 3fbd 6027 0dbd 463f 693d
00000050: 1eba c13d 291d 5fbe d8e2 de3d 00c2 5e3d
00000060: 3c8a af3c e5d5 e03d 85d8 c4bc 724c f1bc
00000070: 619d 9abd 68c8 0f3e d9c7 013d f9fa db3d
00000080: 897b 38be cb2e a03c 79b9 8d3d 7010 75be
00000090: 12b5 5b3d 0e63 c5bd f933 e7bc f648 243e
000000a0: 7868 023e f554 96bd 6599 e63d ac1e 97bd
000000b0: 6b12 643d eb75 10bd aed8 9fbd e5f3 5bbb
000000c0: 306a 3f3d 1668 d53d 9315 8dbc 47d7 1cbe
000000d0: 71c7 da3c 68ab 8cba a1f6 08bd ad10 8c3d
000000e0: 2541 84bd 839a 89bd 416b b13d 22c2 0a3e
000000f0: 52dc c7bc 19f3 163e 34a0 f63c b1c1 b7bd
00000100: f76c 353e cc83 983d dfc7 39bd 8121 eebc
00000110: 9ca9 cabc c061 fe3d d763 ba3c 9370 a63d
00000120: 9c8f b0bd 3d28 483d 7f40 66bd f5d1 84bd
00000130: 351f a33d bb0d 9e3c ceac 1e3d 938d 9fbd
00000140: 3b18 933c 626e 3a3e 9219 f43d dcf1 723d
00000150: 4472 eb3c ebcc 8fbd ba3b a5bd 4a68 e63d
00000160: b493 b73b 5667 ae3d 25c1 043e 7f71 393e
00000170: 4d00 c43d d77c 9dbc 37a5 09be 7cf8 223c
00000180: 85af dbbc 26f7 a6bc 95dc 5dbc c18b 1b3e
00000190: 7000 a83b b7be a63d 1eaa dfbd 9203 de3d
000001a0: 3f75 7e3c 1455 f9bc 8931 173e ea1b 823d
000001b0: 8231 24bd 4ff3 e8bd 5613 57bc 3611 133c
000001c0: 8815 36bd 8eb1 783d b30e 8f3d 1bd2 e9bc
000001d0: fc52 6a3c c799 f0bd af4b 3cbc 8358 7dbd
000001e0: 9e4f 32bb 3990 953d d150 4c3d 766f 533c
000001f0: f176 dbbd 5ddd ea3d 054a c7bd daeb 933d
00000200: 3daf 663d d1b9 873d 6968 8d3d 3e8e 5a3c
00000210: f4c5 7cbc 970d 543d 35a7 28be 15c3 00be
00000220: 2326 bebc bdb6 3cbd 6812 c23c 9aca 4d3d
00000230: cb02 0fbe 34b7 983b f87a c5bd c6b3 4fbd
00000240: d836 703d 6d63 c53d 59a2 3f3d 995d 0e3c
00000250: 5e42 7d3d bd33 e03c bdd8 82bd 3196 94bc
00000260: d16a 1b3e 1714 aebd d940 c43d 13f1 f63d
00000270: ef7c ce3c 2a88 5fbd 389c 563d af9f 97bd
00000280: 4c91 26be 8c0d 60bc e9b3 363e 8a39 373e
00000290: 6b7e 493e 29fe 05bd 7e55 393c 30eb 74bd
000002a0: 127e 5bbd 80f9 e53d dfb4 9b3d 99c5 c7bd
000002b0: 2199 6e3d 1eb1 a4bd e8af d0bd 2adf 4e3c
000002c0: a0b9 6aba 31f4 54bc 6ffe cdbc 2c6d 743d
000002d0: 9e2a 4d3d 1b17 02be 3f6b 103d b88c ea3d
000002e0: da94 13be 7c52 1e3e 6cd1 71bd 12ab 5d3e
000002f0: c623 1d3e 4fbf 27be 808e 073e ee7d eebc
00000300: 8830 afbd 0fc4 34bc e63e 2d3d 2307 e43c
00000310: 95ae 053e b73c d73d 3f97 273e ea0e 2a3d
00000320: b647 993c f1e2 d5bc e539 683c 32ac 323b
00000330: 144e a93d 8952 adbd 2df9 9a3d d755 f93b
00000340: 68c0 3f3d 7dbb d03d bff3 a3bd fb02 c0bc
00000350: 142b d7bd c0e5 efbb 9ac4 d93c 50d6 9dbd
00000360: 0283 fdbb af20 a83d 5f05 c13d 6310 edbd
00000370: 4ce0 f7bc dacf a53d 75b2 c9bd 1221 6a3d
00000380: e833 4cbd 5e27 5ebd a19a ff3c cb4d 54bd
00000390: 065f 243d b349 8d3b aca8 21bd a916 15be
000003a0: 619d acbc a9b2 a8bd cea4 aa3d b07d 4ebe
000003b0: 5107 f6bc 1378 13be 6115 b9bd 8ce5 7fbd
000003c0: 108d fa3d e83b a53d 9889 7b3c 01f3 bc3d
000003d0: 0135 98bd 8a91 e4bd bfa7 e6bd a5bf 6cbe
000003e0: 001d c23d 909b fb3d 77e1 b8bc 42e1 5abd
000003f0: 1fb7 143d 0ef0 58bc dbaf a23c 92ea 763e

weight f4 [768]
0.99053794 0.989537 0.88501173 0.91976154 0.95203763 0.8866967 1.0968441 0.99910533
0.9791443 0.9579937 1.187176 1.0055224 0.91703004 1.0100546 0.9457805 0.9295375
1.0779786 1.0548365 0.92079854 0.9213985 0.76541287 0.91392714 0.81150377 0.8156457
0.94954985 0.8725908 0.88448435 1.0081028 0.98084176 0.95615715 1.0232073 1.0034242
0.92389846 1.0597465 0.79025966 0.9922805 0.8812249 1.0594497 0.84241104 1.0110033
0.9972379 0.9729219 0.9623426 0.9998821 1.0266917 0.8910089 1.018615 1.0129052
1.0633558 0.87376446 0.81697077 0.94928247 0.8397838 0.9945009 1.1901144 1.1102778
0.86199933 0.9659512 1.0420272 0.9726901 0.8647832 0.97837055 0.993613 1.0067127
0.97353476 0.92679393 1.0453749 1.0755811 0.9679188 0.9844629 0.98843515 0.91032094
0.99620277 1.0005293 0.9717592 0.9634513 0.8964801 0.9884372 0.9769835 1.0183529
0.99258524 0.9471625 1.1065639 1.0637776 1.0350603 0.7535016 0.89066076 0.7894641
0.949136 1.1261758 1.1374453 1.1471187 0.9366901 1.0469986 0.9937864 0.9982602
1.0472168 0.9556253 0.9625734 1.0434434 0.8720527 1.008973 0.8924655 0.96151394
0.9706037 0.9919031 1.1620487 0.8884223 1.1280675 0.9231821 0.92041713 1.1404207
0.98382837 0.9534854 1.0563766 1.0119983 0.9017075 1.0526617 0.9163219 0.9147142
1.1323699 1.0264962 1.0366952 0.9523508 0.86589473 0.967238 1.166931 0.8811035
1.1394444 0.90687215 0.9624974 1.0514561 1.0016952 1.0040944 0.8463129 1.0598729
0.9948974 1.1992211 0.85577935 0.9484832 1.0098931 1.0057596 0.9797723 0.96947724
0.96575594 1.0632992 0.91776067 0.9116537 1.0307931 1.0045184 1.0717727 0.96668816
1.0300698 1.0024053 1.041898 0.9434775 1.2002063 0.9521662 0.82197154 0.98886067
0.98852456 1.0059065 1.0237994 0.9948344 0.8593173 0.92615515 0.8913126 0.99592936
0.9292677 0.9552918 0.9444617 0.9885476 0.9675237 1.1019326 0.9236037 1.0151696
0.8759471 0.9548988 0.8946852 1.0531279 1.0394797 0.90900826 1.0450525 0.88674194
0.9553716 1.0430597 1.0372618 0.910233 0.90168417 0.95995253 0.96368325 0.9183028
1.0428623 0.9433738 0.964405 0.8726693 0.9322182 0.94980615 0.8433208 1.041298
1.0803837 0.9117317 0.9686801 0.99141645 0.9154108 1.1590866 0.9709533 0.93623084
1.0200856 1.0585704 1.0841099 0.9299634 1.0410945 0.96369696 0.89754856 1.1192745
1.0348984 1.1618358 0.9241016 0.88099843 1.042391 0.9839309 0.8240302 0.9745449
0.96116316 1.1484047 1.0316502 1.0289373 0.9995876 1.1413702 0.881793 0.87740344
1.1027929 0.9960654 1.0482572 0.9148856 0.9534982 0.9683393 0.93365055 1.0799532
0.973437 1.0244875 0.9354677 0.9331182 0.91282475 0.9277088 0.8164387 0.9595771
0.9090578 0.9910522 1.0475075 1.0439947 1.0659722 1.0016663 0.99439764 0.98483795
00000000: e593 7d3f 4c52 7d3f 2190 623f 7e75 6b3f
00000010: bdb8 733f 8efe 623f 6365 8c3f 5ec5 7f3f
00000020: 33a9 7a3f 133f 753f 62f5 973f f5b4 803f
00000030: 7bc2 6a3f 7849 813f ac1e 723f 2bf6 6d3f
00000040: 34fb 893f e204 873f 74b9 6b3f c6e0 6b3f
00000050: 19f2 433f 21f7 693f b6be 4f3f 28ce 503f
00000060: b315 733f 1c62 5f3f 916d 623f 8309 813f
00000070: 7218 7b3f b7c6 743f 75f8 823f 3470 803f
00000080: 9c84 6c3f c6a5 873f 754e 4a3f 1806 7e3f
00000090: f497 613f 0c9c 873f 40a8 573f 8e68 813f
000000a0: fc4a 7f3f 6911 793f 165c 763f 46f8 7f3f
000000b0: a26a 833f 2919 643f fa61 823f e1a6 813f
000000c0: 0b1c 883f 07af 5f3f ff24 513f 2d04 733f
000000d0: 12fc 563f 9c97 7e3f ab55 983f 951d 8e3f
000000e0: fdab 5c3f 9448 773f 2661 853f 3802 793f
000000f0: 6f62 5d3f 7e76 7a3f 6c5d 7e3f f6db 803f
00000100: 9339 793f 5e42 6d3f d8ce 853f a4ac 893f
00000110: 87c9 773f c305 7c3f 160a 7d3f cb0a 693f
00000120: 2507 7f3f 5811 803f 36c5 783f bfa4 763f
00000130: b87f 653f 380a 7d3f 971b 7a3f 6359 823f
00000140: 111a 7e3f 3e79 723f e3a3 8d3f dd29 883f
00000150: db7c 843f 7be5 403f 5802 643f 521a 4a3f
00000160: 94fa 723f 8726 903f cf97 913f c9d4 923f
00000170: ecca 6f3f 0d04 863f c968 7e3f fb8d 7f3f
00000180: 330b 863f dca3 743f 366b 763f 8e8f 853f
00000190: d93e 5f3f 0726 813f 9e78 643f c725 763f
000001a0: 7c79 783f 5ded 7d3f 03be 943f a56f 633f
000001b0: 8464 903f a955 6c3f 75a0 6b3f 4ef9 913f
000001c0: 2ddc 7b3f 9f17 743f 5937 873f 2989 813f
000001d0: 4dd6 663f 9ebd 863f 1294 6a3f b62a 6a3f
000001e0: 7ff1 903f 3a64 833f 6eb2 843f 43cd 733f
000001f0: 47ab 5d3f e99c 773f ff5d 953f 0090 613f
00000200: 50d9 913f c628 683f 3b66 763f 1d96 863f
00000210: 8c37 803f 2a86 803f f6a7 583f eaa9 873f
00000220: 99b1 7e3f 1480 993f 5b14 5b3f cccf 723f
00000230: 2d44 813f bbbc 803f 5cd2 7a3f a92f 783f
00000240: c83b 773f 301a 883f 5df2 6a3f 2362 693f
00000250: 07f1 833f 0f94 803f d92f 893f e078 773f
00000260: 54d9 833f d14e 803f ea5c 853f be87 713f
00000270: 5ca0 993f 2ac1 733f ba6c 523f f925 7d3f
00000280: f20f 7d3f 8bc1 803f dc0b 833f 78ad 7e3f
00000290: 38fc 5b3f 8118 6d3f 102d 643f 3af5 7e3f
000002a0: 7de4 6d3f 018e 743f 3ec8 713f 7511 7d3f
000002b0: a2af 773f 210c 8d3f 4b71 6c3f 14f1 813f
000002c0: 123e 603f 3f74 743f 170a 653f e5cc 863f
000002d0: ac0d 853f c4b4 683f 48c4 853f 8501 633f
000002e0: 3c93 743f fb82 853f ffc4 843f 0805 693f
000002f0: c6d4 663f 73bf 753f f2b3 763f e415 6b3f
00000300: 837c 853f f280 713f 3fe3 763f 4167 5f3f
00000310: daa5 6e3f 7f26 733f dfe3 573f 4149 853f
00000320: 034a 8a3f 4067 693f 6bfb 773f 78cd 7d3f
00000330: 5d58 6a3f f35c 943f 6590 783f d3ac 6f3f
00000340: 2a92 823f 3c7f 873f 1dc4 8a3f 1512 6e3f
00000350: 9642 853f d8b4 763f bec5 653f 6344 8f3f
00000360: 8d77 843f 09b7 943f ec91 6c3f 1d89 613f
00000370: 116d 853f e5e2 7b3f a5f3 523f c67b 793f
00000380: ca0e 763f edfe 923f 1d0d 843f 38b4 833f
00000390: f9e4 7f3f 6b18 923f 30bd 613f 839d 603f
000003a0: 5128 8d3f 24fe 7e3f 4b2d 863f f135 6a3f
000003b0: 7518 743f 16e5 773f b903 6f3f e83b 8a3f
000003c0: 2b33 793f 6822 833f d07a 6f3f d6e0 6e3f
000003d0: e2ae 693f 537e 6d3f 2002 513f d8a6 753f
000003e0: 03b8 683f 99b5 7d3f ba14 863f 9ea1 853f
000003f0: c771 883f 9a36 803f d890 7e3f 571e 7c3f

bias f4 [768]
0.0004976559 0.06777059 0.117412336 0.09189648 -0.05878112 0.09916722 -0.11435213 -0.04966089
0.0022908018 -0.03988978 0.1783137 0.0077187936 -0.07813601 0.0035582518 0.09329614 0.054642696
-0.2597213 -0.08282016 -0.11952784 0.06354368 0.25950402 -0.05439127 0.16615051 0.14832652
0.047954705 -0.13385646 0.06635032 0.14757249 -0.0104646785 -0.020100258 -0.008108854 -0.027054528
0.12176263 0.00038629392 -0.19420378 -0.10573605 0.11934163 0.1200001 0.15354486 0.090880394
0.0015424652 -0.022682775 0.015512611 -0.00496623 -0.022957662 0.094701506 0.107350364 -0.057202283
0.011276795 -0.1452008 -0.094050325 0.037315678 0.16982187 0.03275766 -0.16082361 0.109650336
-0.12045631 0.00701591 0.01747805 -0.0047782524 0.114403844 -0.023929283 0.010708414 -0.018787928
-0.036015876 -0.051770277 0.054630022 -0.06481971 0.05550138 0.003654353 0.061895415 -0.09449201
-0.02856336 0.061205093 -0.021196105 0.07886007 0.18951802 -0.028541721 0.12341347 0.041853357
0.049865868 -0.02387003 0.15881236 -0.070980646 0.04152906 -0.25509164 -0.099386044 -0.20430362
0.14776325 0.14752409 -0.13157612 0.17707126 -0.023880456 -0.040459804 0.00050503423 0.0017988696
-0.041486878 0.040872827 -0.0035455672 0.060401898 -0.1297125 0.025396252 0.16605031 0.040971976
0.01083492 -0.026850224 0.14474487 0.17628427 -0.11552885 -0.1941088 -0.096606314 -0.24697904
0.054605335 -0.030847093 0.077753395 -0.049843613 0.13384001 0.05032159 -0.097894005 -0.14791834
0.14128317 -0.06820293 0.08688983 -0.04825012 0.11227324 -0.024380626 -0.1561637 0.10794019
-0.13686997 0.11276558 0.06369762 0.041650187 -0.029811941 -0.096839845 -0.10751348 -0.073003106
-0.035662144 -0.19594471 -0.12240129 -0.11227215 -0.02865488 -0.03900406 0.067594394 -0.10644573
0.023601627 -0.07784785 -0.04934709 0.07338125 0.031309135 0.045392316 -0.08664678 0.045665625
0.014458504 -0.021016728 -0.09235001 0.12441321 0.26997748 -0.0048486106 -0.1012182 0.03100177
-0.05435108 0.06475468 0.019252751 -0.0053430805 -0.1308555 -0.07248937 -0.1525446 -0.0013168487
0.07595001 0.08976222 -0.026984287 0.095159024 0.0980709 0.09025603 0.1745405 0.15765762
0.12878034 0.039087247 0.04880186 0.05623691 0.04946419 -0.08740037 0.07271898 0.13187939
-0.057114586 -0.06831631 0.079007685 0.074598 0.03257201 0.095296904 0.032485764 0.037698943
-0.062118277 0.026609205 0.03246653 -0.11001597 -0.053229738 -0.01534402 -0.055429984 0.018871825
0.082435295 0.0894923 -0.02749227 -0.033614025 -0.06217681 -0.17002003 -0.0445453 0.07385298
0.024408408 0.16011912 0.08452654 0.04930122 0.090728186 0.013822734 -0.098663434 -0.13653491
0.048442125 0.15753108 0.1083788 0.03681335 -0.06821552 0.012242513 -0.17068118 0.00591276
0.036425922 0.12352828 0.087634064 0.02535859 0.057221103 0.12502003 -0.10738624 -0.124788284
0.1488785 -0.00962907 0.036824983 0.15085839 0.05608964 0.05525373 -0.06965289 -0.07349175
-0.026871739 0.027493233 0.10755496 -0.021076022 -0.050446466 0.068544105 0.13557844 -0.02016796
-0.053958885 -0.00655688 -0.061759464 0.09722474 -0.06369838 -0.09297802 0.010249679 0.026739554
00000000: 1f75 023a 4fcb 8a3d e175 f03d 3934 bc3d
00000010: 79c4 70bd 2f18 cb3d 7331 eabd 3869 4bbd
00000020: 4721 163b 7763 23bd de97 363e efed fc3b
00000030: c605 a0bd 8f31 693b 0c12 bf3d 05d1 5f3d
00000040: 31fa 84be 9e9d a9bd 03cb f4bd 3023 823d
00000050: b6dd 843e 61c9 5ebd 5c23 2a3e e8e2 173e
00000060: 276c 443d ab11 09be ade2 873d 3e1d 173e
00000070: 0b74 2bbc 4ca9 a4bc 00db 04bc 75a1 ddbc
00000080: b05e f93d 7e87 ca39 5bdd 46be 248c d8bd
00000090: 6269 f43d 9dc2 f53d dd3a 1d3e 801f ba3d
000000a0: 8b2c ca3a 3ad1 b9bc 9b28 7e3c c2bb a2bb
000000b0: b511 bcbc ddf2 c13d 82da db3d f14c 6abd
000000c0: 4ec2 383c 85af 14be 759d c0bd 53d8 183d
000000d0: c9e5 2d3e e52c 063d f2ae 24be 5b90 e03d
000000e0: ccb1 f6bd b8e5 e53b 212e 8f3c e392 9cbb
000000f0: 904c ea3d 5807 c4bc 5872 2f3c 24e9 99bc
00000100: 6285 13bd 120d 54bd bbc3 5f3d 32c0 84bd
00000110: 6a55 633d df7d 6f3b 0c86 7d3d 0785 c1bd
00000120: b5fd e9bc 31b2 7a3d 74a3 adbc 6381 a13d
00000130: 0311 423e 54d0 e9bc 34c0 fc3d 6d6e 2b3d
00000140: 2740 4c3d 158b c3bc b59f 223e 4d5e 91bd
00000150: 601a 2a3d 5f9b 82be e98a cbbd f834 51be
00000160: 404f 173e 8e10 173e e4bb 06be 2b52 353e
00000170: f2a0 c3bc 2eb9 25bd 4664 043a 0cc8 eb3a
00000180: 25ee 29bd 446a 273d bf5c 68bb fb67 773d
00000190: 5bd3 04be cd0b d03c 1809 2a3e 3bd2 273d
000001a0: f384 313c 00f5 dbbc 0038 143e dd83 343e
000001b0: 649a ecbd 75c4 46be 88d9 c5bd 13e8 7cbe
000001c0: d8a9 5f3d 0bb3 fcbc 2c3d 9f3d d128 4cbd
000001d0: 5b0d 093e 031e 4e3d a77c c8bd e877 17be
000001e0: 89ac 103e faad 8bbd 4cf3 b13d eba1 45bd
000001f0: 83ef e53d e1b9 c7bc 61e9 1fbe bf0f dd3d
00000200: a427 0cbe a4f1 e63d e673 823d 6399 2a3d
00000210: 2c38 f4bc f853 c6bd 0730 dcbd a782 95bd
00000220: 7812 12bd bba5 48be 87ad fabd f1ee e5bd
00000230: a4bd eabc b9c2 1fbd ee6e 8a3d 3800 dabd
00000240: 3358 c13c b26e 9fbd 2d20 4abd e948 963d
00000250: 023e 003d 4bed 393d de73 b1bd e10b 3b3d
00000260: 5ce3 6c3c 462b acbc 0122 bdbd 5acc fe3d
00000270: 7d3a 8a3e 18e1 9ebb 7d4b cfbd 6df7 fd3c
00000280: 3d9f 5ebd 1a9e 843d f2b7 9d3c 0215 afbb
00000290: fcfe 05be 4f75 94bd a734 1cbe 1c9a acba
000002a0: ae8b 9b3d 41d5 b73d 270e ddbc bce2 c23d
000002b0: 65d9 c83d 27d8 b83d bfba 323e 0071 213e
000002c0: fede 033e f319 203d 76e4 473d ad58 663d
000002d0: f69a 4a3d f7fe b2bd b0ed 943d 640b 073e
000002e0: fcf0 69bd 6ce9 8bbd c8ce a13d d6c6 983d
000002f0: 3a6a 053d 062b c33d cb0f 053d 356a 1a3d
00000300: bc6f 7ebd 8cfb d93c a0fb 043d 0e50 e1bd
00000310: 6d07 5abd 7c65 7bbc 8d0a 63bd 1699 9a3c
00000320: d6d3 a83d bd47 b73d 7837 e1bc dcae 09bd
00000330: 1cad 7ebd bb19 2ebe 2275 36bd 3b40 973d
00000340: 24f4 c73c 44f6 233e 401c ad3d 13f0 493d
00000350: b3cf b93d c078 623c 0e10 cabd cfcf 0bbe
00000360: 406b 463d d44f 213e b4f5 dd3d 98c9 163d
00000370: 94b4 8bbd d294 483c 0cc7 2ebe d3bf c13b
00000380: 5933 153d 65fc fc3d 7d79 b33d d1bc cf3c
00000390: ad60 6a3d 4005 003e 51ed dbbd 0091 ffbd
000003a0: 9b73 183e 3fc3 1dbc cbd5 163d 9f7a 1a3e
000003b0: 40be 653d bc51 623d 2da6 8ebd d882 96bd
000003c0: 1f22 dcbc 7d39 e13c c645 dc3d 9fa7 acbc
000003d0: f4a0 4ebd da60 8c3d 13d5 0a3e 4737 a5bc
000003e0: fe03 5dbd 19db d6bb 7ef7 7cbd c41d c73d
000003f0: 4c74 82bd 436b bebd 45ee 273c e90c db3c
