subject-models/ryangosling2023-05-15T01-33-21_ryangosling-ada/checkpoints/embeddings_gs-4500.pt (torch, 921583 bytes, 168 tensors)

pre_vecs f4 [2, 768]
000000 0a af 49 bb 8f 0f 3d 3c 0d fd 1a 3b 32 32 ba bc
       -0.0030774497 0.011539354 0.0023649365 -0.022729013
000010 02 62 e2 bb 33 4f c1 3c 95 d5 df bb 03 68 2b bc
       -0.006908656 0.023597335 -0.006830881 -0.01046181
000020 a5 b5 66 bc d1 2e 43 3b ea 7d b3 3c 62 52 86 bb
       -0.014081393 0.0029782543 0.021910626 -0.0040991763
000030 57 49 f2 3b 88 ec 7e 3b a3 15 ba bb 05 6b 0c bc
       0.0073939967 0.0038898308 -0.005678849 -0.008570437
000040 e3 85 74 bc 7e a6 02 3c 33 29 c2 bb 41 25 53 3c
       -0.014924499 0.007974265 -0.0059253215 0.0128873
000050 a4 95 0a bb 7b 82 59 bc ed b7 cb ba fb 48 67 bc
       -0.0021146322 -0.013275738 -0.0015542485 -0.014116521
000060 2b 4c 84 3c a7 8e 6e bb 65 cf fb 3a 21 bf 2e bb
       0.016149601 -0.0036400945 0.0019211589 -0.0026664215
000070 e4 ea b8 3c db 1c d6 3c fb 5b 9e 3c a8 bb 75 3c
       0.022572942 0.026136806 0.01933097 0.014998354
000080 5f eb ee bb 27 3e 97 bb 9e 53 8c 3a 16 f9 d8 3c
       -0.007291242 -0.0046155634 0.0010706072 0.02648596
000090 39 7a 1f bc 7f 33 29 3c 5d f4 18 bb cd d3 6e 3c
       -0.00973373 0.010327219 -0.0023339011 0.014576864
0000a0 ae 16 26 3c 38 a3 84 3c ca 8f e5 bb 0c 5b 9e 3c
       0.010137243 0.01619111 -0.0070056664 0.019330524
0000b0 8d 03 98 bb 16 b0 ad 3b 33 2a d5 3b fe a3 65 3c
       -0.004639095 0.005300532 0.0065052747 0.01401615
0000c0 73 d7 57 bc 04 a7 90 3b ca 19 97 3b fe ce ed bb
       -0.013173926 0.004414441 0.0046112286 -0.0072573414
0000d0 93 1c 0f 3c 77 ce 77 bb d2 85 a7 bc 93 ac 61 bc
       0.00873484 -0.0037812272 -0.020449553 -0.013774055
0000e0 00 8e 99 3a 13 bc d8 3b fa 05 c3 3c 23 3b 83 bc
       0.0011715293 0.006614217 0.02380656 -0.01601941
0000f0 7a 18 8c bb 9d 30 44 3c 3f 76 2b bc 3c 61 30 ba
       -0.004275379 0.011974481 -0.010465204 -0.0006728356
000100 85 b6 1e bb 91 75 5b 3c 05 a4 e9 3c e7 5d d0 3b
       -0.0024217677 0.013394729 0.028520593 0.0063588503
000110 e4 bb 13 bd 62 49 6d bc 5c 66 57 bc 82 d8 cc 3b
       -0.03606786 -0.014482828 -0.013146963 0.0062513957
000120 f3 95 f9 3a 62 c0 c5 3c 3c 41 c1 bb eb 8d 36 3c
       0.0019041881 0.024139587 -0.005897669 0.011142234
000130 18 c6 64 bb be 56 f5 3b 68 fb c0 bc 8e 79 97 bb
       -0.0034908112 0.007487147 -0.02355738 -0.0046226447
000140 26 94 40 3c e1 d4 00 bb 2c 7c 29 3c aa 94 47 bc
       0.011754071 -0.0019658136 0.010344546 -0.01218144
000150 9c 30 cc bb 51 b1 d1 3b d0 e2 fb 3c b0 0d e5 3b
       -0.0062313806 0.0063993116 0.030747801 0.006990157
000160 0b dd af bb 49 24 33 bb b7 dc 09 bc e3 4e cd ba
       -0.0053669265 -0.002733486 -0.008414439 -0.0015663769
000170 c1 87 89 bc 44 ca 38 bc 09 09 5c bc a1 01 22 3c
       -0.016788365 -0.011278693 -0.0134298885 0.009888084
000180 e5 e8 50 3c cd 34 9e 39 6c b1 05 bc d0 aa b1 bc
       0.012750839 0.00030175448 -0.008159976 -0.021687895
000190 a0 71 10 3c ff 63 92 bc cb bc 05 3c 5e c2 ab bb
       0.008816153 -0.017869947 0.0081626875 -0.0052416762
0001a0 2a a2 bf bb f2 f2 80 bc cb 36 c4 bb 79 4c 82 3b
       -0.005848189 -0.015740845 -0.005987977 0.0039764014
0001b0 f6 2b eb 3b 66 1f 05 bd f6 19 e5 bb b1 98 86 bc
       0.0071768714 -0.032500647 -0.00699162 -0.01643023
0001c0 e0 76 0d bd 0d e1 0d bc ba 1c 81 3c 2c 97 63 3b
       -0.034537196 -0.008659613 0.015760768 0.0034727557
0001d0 e1 03 52 bc 8d 5b 29 3c 5c 98 33 bc 75 af d3 bc
       -0.012818308 0.010336769 -0.010961618 -0.0258405
0001e0 70 3e b8 bc 08 4f 60 3b c4 3e 1c bb 48 35 66 ba
       -0.02249071 0.0034226794 -0.0023841122 -0.0008781743
0001f0 53 0e 19 bb e4 92 82 3a d5 7c 09 3c 65 0e ad 3c
       -0.0023354485 0.000996199 0.008391579 0.021125028
000200 35 bc 89 bc d4 2c 9b 3c 9b 20 80 3c fd 5d 12 bc
       -0.016813377 0.018942274 0.015640547 -0.008933541
000210 5b 86 ff 3c c2 28 08 3b 06 fc a4 3c 5f 56 10 3b
       0.031191995 0.0020776247 0.020139705 0.0022024137
000220 0f c8 c8 bc a4 61 90 bc 80 63 2c 3b fb 7a 64 3b
       -0.024509458 -0.017624684 0.0026304424 0.003486334
000230 21 1e 93 bc 11 da 45 3c a4 ed c3 bb cc 13 94 bb
       -0.017958703 0.012075917 -0.0059792567 -0.0045189615
000240 6a f1 94 3c 8e bb 17 b7 ea 02 49 bb 3b ad 09 3c
       0.018181521 -9.04397e-06 -0.0030671903 0.008403118
000250 7e b2 be 3c ca d2 e5 3b 55 32 0d bc 94 52 d9 3b
       0.023278471 0.0070136534 -0.008617957 0.0066321585
000260 96 39 87 bc 8c 99 f2 ba 1d c7 72 3c dd d5 89 bb
       -0.016506951 -0.0018508895 0.01481798 -0.0042064027
000270 62 8d 1f 3c a5 ff d5 bc 50 c0 bc 3c ef ca 88 b9
       0.009738298 -0.026122877 0.02304092 -0.0002609114
000280 d9 b5 90 3c e6 da 32 3b ab 88 b8 3b 85 32 3b bb
       0.017664837 0.0027291118 0.0056315265 -0.0028564048
000290 91 cc 61 bc fb 3e 58 bb 4c cf 8f 3b 88 79 08 bc
       -0.013781683 -0.0032996524 0.0043887254 -0.008329757
0002a0 7f 24 8e bc 95 87 e3 3b f0 ad b3 3c 58 ca 8a 3c
       -0.017351387 0.006943653 0.021933526 0.016942188
0002b0 43 fd b7 b9 f2 01 2d 3c e7 8c 73 3b 9e 29 18 3c
       -0.00035093175 0.010559546 0.0037162842 0.009287266
0002c0 99 dd 2e 3c 28 b3 ad 3c 36 48 d6 3c 34 a0 06 3d
       0.01067295 0.021203592 0.02615748 0.032867625
0002d0 f2 a9 43 bc d7 8f fd 3a 45 9c e1 bb 9c bf 15 bc
       -0.011942374 0.0019345236 -0.006885084 -0.0091399215
0002e0 aa 6b 50 bc 30 f3 01 bd fc ea 80 ba e0 b8 ad bc
       -0.012720982 -0.031726062 -0.0009835656 -0.02120632
0002f0 29 02 99 bc 1d 1e 30 3c 67 7f 0a bc 06 cc 42 3c
       -0.018677788 0.010749367 -0.008453227 0.011889463
000300 6e 67 85 ba e6 5b 00 3c 43 d1 bb 3c 67 d1 82 3c
       -0.0010177919 0.00783441 0.022926932 0.015968991
000310 f6 23 49 3d a2 03 63 bc bd f4 f4 bb 33 b9 3f bc
       0.04910656 -0.013855847 -0.007475464 -0.01170187
000320 e7 ea 8c 3a 5d 86 cd ba 2c 66 a2 bc cf 22 95 3b
       0.0010751159 -0.0015680302 -0.01982411 0.0045512686
000330 f9 ab 07 bc 7a 32 80 3c 07 6d 32 3c 38 7b 27 3b
       -0.008280748 0.01564907 0.010890252 0.0025555622
000340 ec a4 e9 ba f1 05 e1 bb 2d 4d eb 3c 5a 90 96 3a
       -0.001782564 -0.0068671633 0.028723324 0.0011487112
000350 db 7f 76 3a f0 e2 f5 bb d6 37 e2 bb 32 97 ea 3c
       0.0009403207 -0.0075038597 -0.006903629 0.028636549
000360 3d 10 6f bb 64 a1 27 3b cc 63 d3 3c a4 c3 9d bc
       -0.0036478185 0.0025578374 0.025804423 -0.019258328
000370 24 9c ac 3b d9 58 67 bb f1 95 ed bc 44 e5 83 bc
       0.005267637 -0.003530076 -0.029002162 -0.016100533
000380 1f 4a 87 3b 26 56 7e bc 6b 3b d9 3b 85 b6 02 3d
       0.004128709 -0.015523469 0.0066293976 0.031912345
000390 f8 8d 54 3c e1 43 20 bc 8a 6c 5e bc 5f de 95 3b
       0.012973301 -0.009781809 -0.013575682 0.004573628
0003a0 ee 27 e6 ba f6 c4 10 bb 57 19 5d 3c 15 c5 0a bc
       -0.0017559507 -0.0022090054 0.013494811 -0.00846984
0003b0 f5 4e 8e 3c b7 83 76 3b 65 94 94 3c 98 c9 8e 3b
       0.017371634 0.003761513 0.018137166 0.004357528
0003c0 6d c5 ef bb 21 3d 86 ba 2d f8 b0 3c 86 4f 5d bc
       -0.007317236 -0.0010241607 0.021602714 -0.013507729
0003d0 93 42 56 bc 51 ae 38 3c 3b 70 a0 bc fb 90 98 3c
       -0.013077396 0.011272029 -0.019584766 0.01862382
0003e0 e1 4b 44 bc bb 93 15 3c f2 3c 2c bd 7e 54 4d bc
       -0.011980982 0.00912946 -0.04205031 -0.012532352
0003f0 a8 91 96 bb d2 54 d5 bc 64 89 6e b9 ef 12 62 3b
       -0.0045950003 -0.026041422 -0.0002274863 0.0034496149

basis_rand_weights f4 [16, 5]
000000 12 df 31 3d 33 d8 4b bd 47 5d 8c bd a5 fe 4a 3e
       0.043425627 -0.04976673 -0.06853729 0.19823702
000010 74 d7 6a 3c 4a b3 e4 b9 de 7c 71 3c d5 a0 87 bd
       0.014333595 -0.0004362113 0.014739243 -0.06622473
000020 38 66 13 3d 37 0b ad 3d bb ba e8 3b 4e b8 e2 3c
       0.035986155 0.08449405 0.007102338 0.027675774
000030 02 26 9c 3b c0 7b 16 bd 79 3e 8d bd 3e f5 80 bd
       0.004765273 -0.03673911 -0.06896681 -0.06296776
000040 ac 2d 80 3c 85 cf bc bd 9a 2b 04 bd 29 f3 e9 3d
       0.015646778 -0.09219269 -0.032268144 0.11423332
000050 44 c3 69 bd bd f0 c3 3c 3d 13 51 bc a1 fa 05 3d
       -0.057070985 0.023918504 -0.012760934 0.03270972
000060 95 e7 e3 bd ae 79 a3 bd 85 7b bb bc 87 2a b8 3d
       -0.11128155 -0.07982193 -0.022886047 0.089924864
000070 a7 11 2d bd f9 e5 95 bd b6 3e 8b bc 08 33 80 bd
       -0.042253163 -0.073192544 -0.016997676 -0.062597334
000080 90 49 45 3d a1 7a bf 3d 6d 06 b7 bc b8 62 b7 bd
       0.048165858 0.093495615 -0.022341931 -0.08954376
000090 6f ee 16 ba b6 66 ba bc 08 d1 80 3d 63 e5 fc bc
       -0.0005757575 -0.022754055 0.062898695 -0.030871099
0000a0 33 9e e4 bd 84 88 90 bc 65 6a 92 3e fa 6d 9b 3e
       -0.111629866 -0.01764322 0.28596798 0.30357343
0000b0 ca dc 0e bd 6b 89 17 be 91 b5 db bc be f9 8a 3e
       -0.03487853 -0.14798515 -0.026819976 0.27143663
0000c0 63 66 38 3e 8c 8b 3f 39 d4 7f 66 bd c5 d8 32 3c
       0.18007807 0.00018267165 -0.05627425 0.01091594
0000d0 66 3a 8b 3e 5b d1 40 3e a4 f6 3f be 05 ac 75 bc
       0.27192992 0.18829863 -0.1874643 -0.014994626
0000e0 07 e8 c5 bd eb 81 39 be a0 19 55 3e 79 2e 04 3e
       -0.09663396 -0.18115966 0.20810556 0.12908353
0000f0 51 df 10 3b 1e 4c 97 3b 97 c1 28 3e 91 a1 67 3e
       0.0022105763 0.004617228 0.16480099 0.22620226
000100 6f c1 a4 bd 16 91 ba 3c ff 2a e9 bd 23 2d c6 bd
       -0.08044707 0.02277426 -0.11385154 -0.09676578
000110 83 27 e5 3d d5 29 47 bd 7e 96 0c bc 24 82 68 bb
       0.11189177 -0.04862388 -0.008580802 -0.003547796
000120 a6 73 30 be 22 63 02 3d 15 c6 1a be 5c c8 dc 3d
       -0.17231616 0.03183282 -0.15114625 0.10780403
000130 a3 0e 85 bb d0 af 31 be 15 6e 91 3e 9a ce 3e 3d
       -0.0040605827 -0.17352223 0.28404298 0.04658375

basis_vecs f4 [3, 768]
000000 56 49 2c 3c 02 f2 d4 bc 40 1b 11 bd 8d ed bd bc
       0.0105155315 -0.025994305 -0.03542638 -0.023184562
000010 95 08 ef bc 3d 77 ce 3c e2 20 e9 bc d9 df 7c bc
       -0.029178897 0.025203342 -0.028458063 -0.015434229
000020 be 64 b9 bc 09 8c a4 3a 09 37 00 bd ef a0 6b bc
       -0.022631045 0.0012553941 -0.031302486 -0.014381631
000030 ee 20 da b9 bb 6a c8 3c 9e f8 c6 3b 39 cb bd 3d
       -0.00041604735 0.024464956 0.006072118 0.09267277
000040 30 ba 32 3d 97 0f 8f 3b 26 a1 e1 ba 60 08 7e bc
       0.043634593 0.004365872 -0.0017214164 -0.015504926
000050 3b 0a 47 bc 65 cc 63 3d b0 33 ee 3c 05 3b 13 bd
       -0.012148435 0.055614848 0.02907738 -0.035944957
000060 b5 bf c3 3c 88 97 23 bb 5d 3b 3e 3c 42 bd aa bb
       0.023895124 -0.0024962146 0.011610833 -0.0052105496
000070 a3 48 6e bd da 4a e8 3c 7e 54 32 3c 54 7c 08 bd
       -0.05817474 0.028356005 0.010884402 -0.033321694
000080 f0 6c 8b bc 38 41 4a 3d 06 0f 08 bc 88 9b a4 3d
       -0.017019719 0.049378604 -0.008304363 0.08037478
000090 0c 50 b9 3c 84 5a 53 3d e8 37 02 3a 7a b2 be 3c
       0.022621177 0.051599994 0.0004967437 0.023278464
0000a0 ea ae b2 bc fc bd 38 3b 97 d9 9d bc 97 6a 5c bc
       -0.021811921 0.0028189411 -0.019268794 -0.013453147
0000b0 30 b3 c8 3c e5 54 1f bd cd 90 eb 3c 75 8f c8 3b
       0.024499506 -0.03889932 0.02875557 0.006120617
0000c0 d1 cc 02 3d 76 7a 86 3c e3 13 4e bb 73 90 77 bc
       0.03193361 0.016415816 -0.003144496 -0.015110123
0000d0 61 b3 8d 3c 77 0a 93 3c 28 8c 83 bc b5 45 82 bc
       0.017297449 0.017949326 -0.016058043 -0.01590238
0000e0 fc c6 aa 3a 0f ee 68 3c 55 97 71 3b 98 51 3a bc
       0.0013029273 0.014216914 0.0036863883 -0.0113719925
0000f0 d3 b2 67 bd 79 da 08 3d 9d 61 e5 bc 2a e0 91 3b
       -0.056567024 0.033411477 -0.028000647 0.0044517713
000100 d4 40 83 3c 97 19 f3 bb a3 ba ac 3b 57 5d 41 bc
       0.016022123 -0.007418822 0.0052712723 -0.011802039
000110 0e ea 69 3c e6 41 5f bc 31 a1 bb 3c f2 81 2e 3d
       0.014276994 -0.013626551 0.02290401 0.042604394
000120 7f 5c ec 3c fa 47 4f 3c e7 16 19 3c 21 8b a7 bb
       0.0288527 0.012651438 0.009343839 -0.005113021
000130 a5 9d ec 3c ce 20 be 3c 43 ba 58 bc 5d 95 16 3e
       0.028883765 0.023209002 -0.013228002 0.14705415
000140 0b 86 04 3a fe 07 b5 3c 4d ab 40 3d 6f af 6f bd
       0.00050553743 0.022098538 0.047038365 -0.058516916
000150 f9 9c ed 3c 95 13 ad b9 8b 4d 3f 3d 38 aa 29 bd
       0.029005514 -0.0003301172 0.04670481 -0.0414221
000160 60 87 fc 3a 3d 63 b6 bc 9a a2 66 3c 26 35 7e bc
       0.0019266419 -0.022264117 0.014076853 -0.015515601
000170 73 99 55 bb 2a 3c 09 bd fc 54 ab bc f6 fc 96 bd
       -0.0032592684 -0.033504643 -0.020914547 -0.07372467
000180 45 7a 92 3b 27 d6 1f bd 76 ec 4a bb 50 88 70 ba
       0.004470142 -0.03902259 -0.0030963696 -0.00091755856
000190 4d 29 a9 3c 18 94 5b 3c af 90 9b bc 3b a7 94 3b
       0.020649577 0.0134020075 -0.018989889 0.004536537
0001a0 56 e8 b3 bc 53 1d 26 bc 31 8c 33 3d 7e de 9b bc
       -0.021961372 -0.010138827 0.04383487 -0.019026991
0001b0 a8 ec cf bc 5e 83 be bc 1a 09 9c 3b 6f be d8 bc
       -0.025381401 -0.023256 0.004761827 -0.026457993
0001c0 c2 98 86 bc 0c d8 3f 3d ae 8a 22 bc ac ea b7 bb
       -0.016430262 0.046836898 -0.009920759 -0.005612692
0001d0 c1 cb 9b bc 6e 6c 91 3c 0c 1d 02 3d 0d 4a 98 bc
       -0.019018056 0.017751899 0.031765983 -0.018589998
0001e0 a2 b1 1c bc a8 ad 4a 3d de ba bb bc f5 63 c7 3c
       -0.009563835 0.049482018 -0.022916254 0.024339655
0001f0 e6 29 15 3c 62 5f 65 3c 82 02 ab bc 2d 47 31 bc
       0.009104228 0.013999792 -0.02087522 -0.010820192
000200 34 e4 f8 bb a2 cf cd 3b 65 20 be bb 07 57 ab bc
       -0.0075955633 0.0062808553 -0.0058022016 -0.020915521
000210 47 67 a2 bc 9a c0 16 3d e6 f1 16 bd 3b 97 22 bc
       -0.019824637 0.036804773 -0.036851786 -0.0099237515
000220 5a 10 09 bd bb 41 c9 bc 98 f1 2c bd 13 7f 0e bd
       -0.03346286 -0.024567476 -0.04222259 -0.034789156
000230 3c 69 b4 bd 3c c8 8d 3d ad 6c 31 3c cb a2 1b bd
       -0.08809134 0.06922957 0.010829133 -0.03799705
000240 e2 7e 83 bb 20 0c 32 bd b0 69 9e 3c 16 ce 1a bd
       -0.0040129283 -0.043468595 0.019337505 -0.037794195
000250 81 dc 0a 3d db a1 cf 3c 6b 5c 59 bd d0 b4 33 3b
       0.033901695 0.025345733 -0.053066652 0.0027421005
000260 8d 77 78 3d b1 b6 b0 3d b5 71 56 3c 97 7b d4 3b
       0.060660888 0.086285956 0.013088633 0.0064844596
000270 d8 99 03 bd 14 f6 01 bd 66 94 e9 3c 99 51 ec bb
       -0.03212914 -0.03172882 0.028513145 -0.0072118756
000280 b3 af c9 3c d1 ff b0 3c de 4a a7 3c 67 3f 01 3d
       0.024619913 0.021606358 0.020421442 0.031554606
000290 d3 d7 c7 3c b7 89 02 3d 0c 94 bd 3b 31 83 00 bd
       0.024394905 0.031869616 0.005785471 -0.031375114
0002a0 f0 38 08 3d d4 c3 82 3b 90 bb 7f bb d5 92 05 bc
       0.033257425 0.0039906297 -0.0039021708 -0.008152683
0002b0 6d c6 52 bd b3 82 10 3d 55 88 3f 3c df ae 2c bd
       -0.051458765 0.035280894 0.011690219 -0.042158958
0002c0 9a fc 14 bd c4 6b 5a bd 80 81 ab bc ae cf 17 3d
       -0.036373712 -0.05332543 -0.020935774 0.037063293
0002d0 5c 06 29 3b 61 6c 88 3d 92 39 a0 3a be 2a 0c bd
       0.0025791144 0.06661297 0.0012224189 -0.03422045
0002e0 63 2b 72 3c 35 a4 18 bd e0 7a bc bc 39 d7 b3 bd
       0.014780852 -0.037265975 -0.02300781 -0.08781285
0002f0 a0 44 b9 bc a0 f8 04 3d 81 18 f3 3c ec 35 26 bd
       -0.02261573 0.03246367 0.02967477 -0.040578768
000300 32 bd c8 3b 6f 99 d8 bc 76 49 5a 3c 9d ee 4f 3c
       0.0061260695 -0.02644035 0.0133231785 0.012691167
000310 6a 2b 56 3d a4 de 2a 3d 04 bc c8 3d 47 68 97 bc
       0.052287497 0.041716233 0.09801486 -0.01848234
000320 ee a1 9e 3b 83 1d 43 bd a2 66 09 bd bc 2c 78 bb
       0.004841081 -0.047635566 -0.033545144 -0.003786846
000330 63 1d 7d 3d c9 74 29 3c c3 c9 2e 3d 86 8c 15 bd
       0.061795603 0.010342785 0.042672884 -0.036510967
000340 e3 06 7c 3b 8d c8 5e 3c c0 31 a6 3d 13 9c 07 bd
       0.0038456253 0.01359762 0.08114958 -0.03310783
000350 e8 39 3a 3d 37 6d cf 3b cc cc a5 3c 1f 0b 85 bc
       0.04546538 0.006330158 0.020239256 -0.016240655
000360 15 8c df 3c 9b 03 01 3d b1 82 56 bc 20 44 c9 ba
       0.027288476 0.03149758 -0.013092683 -0.0015355386
000370 27 dc 83 bc 13 e0 3e bd b0 63 a4 bc 7d bc 4c bc
       -0.016096188 -0.046600413 -0.020067066 -0.012496111
000380 02 9b 99 3a f4 3c 8c 3c 55 88 51 bc f0 dc 89 3c
       0.001171917 0.017118908 -0.012788852 0.016828984
000390 70 c8 26 3b 5d 8b 97 bc 83 b6 14 3c 12 bf 24 bd
       0.002544906 -0.01849907 0.009076717 -0.04022128
0003a0 78 62 f1 bb 5e 18 c7 bb 49 19 0c bd f3 83 ea 3c
       -0.0073664747 -0.006075903 -0.0342038 0.028627371
0003b0 59 c0 d7 bb 65 17 4a 3d be 3c ba 3c 92 37 55 bd
       -0.006584209 0.049338717 0.022734042 -0.05205495
0003c0 7b 25 83 3d 05 ee c2 bc 86 57 08 bb f2 08 ec 3c
       0.06403633 -0.023795137 -0.002080412 0.02881286
0003d0 72 5a 69 3c 10 fa 35 3d 3f e4 c4 bb 45 0b 92 bd
       0.014242755 0.04442793 -0.0060086544 -0.07131056
0003e0 57 54 89 3c 01 8a d1 3b 3e fd 04 bd c2 3a 89 bc
       0.01676385 0.006394625 -0.032468073 -0.01675165
0003f0 81 2d 9c bd 6a 17 43 bd 79 de 23 bd e8 20 68 3c
       -0.07625867 -0.04762975 -0.04000709 0.014168002

basis_comm_weights f4 [1, 5]
000000 13 9d 01 3e d0 d2 1d 3f 9d 5b ea 3e 0b 2a ea 3e
       0.12657575 0.616498 0.4577302 0.457352
000010 df 83 5c 3e
       0.2153468

bias f4 [16, 768]
000000 4b ca 83 3c a8 57 3e bc 8a 9b 6a 3b c4 8a dd 3c
       0.016087672 -0.011617579 0.0035798275 0.027043708
000010 a0 b3 1a 3d 62 59 bf bc 93 40 93 3b 0e 87 35 3d
       0.03776896 -0.02335805 0.004493782 0.04431825
000020 b5 25 b1 3c b0 da 9e 3d 9d b1 df 3c e9 7f 53 3d
       0.021624425 0.07756555 0.027306372 0.051635657
000030 91 41 40 bc a4 b8 2a bd 6c 43 08 3d 95 f8 08 bb
       -0.011734382 -0.041679993 0.033267424 -0.002090012
000040 20 e0 10 bd fc 9d 72 bd ef 5a b7 bc 77 87 62 3d
       -0.035369992 -0.059232697 -0.022382228 0.05530497
000050 88 e2 12 3d dd 22 2f bc fc a1 82 3c 60 69 52 bd
       0.03586057 -0.010689464 0.01594638 -0.051370025
000060 bf e8 8a 3c 51 cc bd 3c e0 00 3d bd 9d e9 57 3c
       0.016956685 0.023168715 -0.046143413 0.013178256
000070 d5 a2 b4 bd 94 69 28 3c b1 51 8b bd 80 60 51 ba
       -0.0882012 0.010279078 -0.06802691 -0.0007987097
000080 69 94 a2 bd a7 91 97 bb 3c 35 1c 3c 41 84 22 bd
       -0.07938463 -0.0046255174 0.009534176 -0.03967691
000090 da 65 44 bd 83 5b 1f 3d dc 36 e0 bb c2 31 aa 3c
       -0.047948696 0.03890563 -0.0068424772 0.02077568
0000a0 41 6c 40 3d c9 b9 70 3c a8 7b df bb 6d cf 90 3c
       0.04697824 0.014692732 -0.006820161 0.017677033
0000b0 47 cf 13 ba ea 4b f6 3b 68 62 4a bc f7 92 bb 3b
       -0.0005638492 0.007516374 -0.012352563 0.0057243067
0000c0 d8 43 ef bc 8e e0 01 bc fc 1b 34 3d 22 8a 8b bb
       -0.029207155 -0.007927073 0.043972 -0.00425841
0000d0 30 61 0c ba 6e e8 c1 bc 95 a7 af bc c6 19 1b 3d
       -0.0005355058 -0.023670401 -0.021442214 0.037866376
0000e0 a9 d3 cb 3c 54 20 4e bd 83 59 f8 3a 4e a8 69 bd
       0.0248812 -0.0503238 0.0018947575 -0.057045273
0000f0 92 9d d6 bc 39 7e 01 3d fb e1 6e bb 6d 80 46 3d
       -0.026198182 0.031614516 -0.0036450613 0.04846232
000100 32 ce 81 bc 7f 7a c2 bc 6a bf 17 3b 5b 0f f8 bb
       -0.015845392 -0.023740051 0.0023154863 -0.00757019
000110 3b 2a 0c 3d c6 02 2a bd 48 62 fd bc 18 3b 41 bd
       0.03421996 -0.04150655 -0.030930653 -0.047175497
000120 04 5c b9 bc 6e 90 fb bc 5d ad 0c 3d 89 79 b6 bc
       -0.022626884 -0.030708518 0.03434502 -0.02227475
000130 90 1b 7b 3c dc e9 9a 3c 9d 55 8e bc 08 7d 44 bd
       0.015326396 0.018910341 -0.017374808 -0.0479708
000140 b3 d8 49 3c 21 d8 85 3d 67 10 db 3c dd 0d 8b bc
       0.0123197315 0.06535364 0.02674122 -0.016974384
000150 f7 41 29 bb 1f b3 0c 3d c2 f3 75 bd 2b f4 b0 3c
       -0.0025826672 0.03435051 -0.06004692 0.021600803
000160 bb 3a ff bb 4a 7a c4 3b 0d 96 00 3c 74 0a 41 39
       -0.0077889836 0.0059960233 0.007848275 0.00018409808
000170 9a a9 89 3c f9 73 7a bd 0c c6 a3 3c 41 29 f7 bc
       0.016804505 -0.061145756 0.019991897 -0.030171039
000180 5b 44 fa 3c da b3 1d 3c 22 94 fb 3c c6 41 c3 3a
       0.030550173 0.0096253995 0.030710284 0.0014896921
000190 85 c7 07 3d 81 4f ef b9 62 de 9f bc 7a ed f2 3c
       0.03314926 -0.00045644867 -0.01951522 0.029654253
0001a0 51 9d 14 bd 36 7e 16 bd d5 b4 11 3d 3f 6e 62 bc
       -0.03628284 -0.036741458 0.035572845 -0.01382023
0001b0 9b 21 e2 3c d5 af c2 bc cd ea 1e 3c 35 d7 82 3b
       0.027603915 -0.023765484 0.009699536 0.00399294
0001c0 98 57 bf bc 84 e3 af bd e3 1b 83 bd 9a 20 cf bb
       -0.023357198 -0.08588317 -0.06401803 -0.006321025
0001d0 ce 9e 9f bc c4 b1 03 3d 03 bf a0 bc 36 e9 42 3c
       -0.019484904 0.032151952 -0.019622331 0.011896422
0001e0 07 b1 7e 3c 08 c9 99 bc 9a 44 4a 3d 2d a0 92 bc
       0.015545136 -0.018772617 0.04938183 -0.017898643
0001f0 38 7b 1e bc 84 b3 07 bd ea 7b 7c bc 80 0b 93 3b
       -0.009672932 -0.033130184 -0.015410403 0.004487455
000200 a5 f3 2a bd 16 5f 8e bd 4f 15 2c bd 10 4f 35 3d
       -0.041736264 -0.0695173 -0.04201251 0.044264853
000210 a6 dc 8c bd 15 61 86 bd 62 5b d0 bb 12 1b db bc
       -0.06878023 -0.06561486 -0.00635855 -0.026746307
000220 00 63 59 3b d0 06 7d 3c 56 57 63 3d ae 66 26 3d
       0.003317058 0.015443519 0.055503212 0.040625267
000230 02 db 95 3a 01 7e 3e 3c 05 ab 95 3c a9 0d 92 3c
       0.0011433067 0.011626721 0.018270025 0.01782878
000240 d2 04 8e 3d 14 6d aa 39 e5 00 fa 3c 94 96 9a 3b
       0.06934513 0.00032506196 0.030518005 0.0047176573
000250 54 f1 82 bc e2 6c 14 bd 67 f8 b0 3c 97 bd 2f bd
       -0.015984215 -0.03623665 0.021602822 -0.042905416
000260 35 96 cd bc e2 c4 09 bd 03 08 86 3d ee c5 93 3c
       -0.025096038 -0.033635028 0.06544497 0.018038716
000270 d0 aa 63 3d a8 df d4 bc 01 84 ef 3c c4 08 d7 bc
       0.05558282 -0.025985554 0.029237749 -0.026249297
000280 6d b7 85 3d 99 9c 61 ba d3 16 dc 3c 77 59 62 bc
       0.06529126 -0.0008606404 0.026866352 -0.013815275
000290 87 14 b9 3c 07 ee 0e bd 64 f6 37 bd 79 29 c3 bc
       0.022592796 -0.03489497 -0.04491271 -0.023823487
0002a0 21 c6 61 bb 8a 06 76 3d b7 ac 97 bb 75 1d e7 3b
       -0.003445037 0.06006483 -0.0046287435 0.007053072
0002b0 10 19 ec bb e8 12 fc bb 63 2c c9 bb bb 6b 76 bb
       -0.007205136 -0.0076926835 -0.0061393245 -0.0037600833
0002c0 9d da 59 bc e0 0f 81 bb 99 f7 03 bd d9 ed a2 3d
       -0.01329675 -0.00393866 -0.03221855 0.07955522
0002d0 c2 7a b6 bc 35 49 2e 3d be c8 ed 3c 27 73 0c 3c
       -0.022275332 0.042550284 0.029026385 0.008572376
0002e0 60 09 3d bd a3 3a 88 3d d9 41 a3 3c ff 19 02 3d
       -0.04615152 0.06651809 0.01992886 0.031763073
0002f0 eb 85 2c bd 25 0c bb 3d 0e b2 95 bc 30 79 d9 3b
       -0.0421199 0.09133176 -0.01827338 0.006636761
000300 98 a2 20 bc 9e d6 ea bc c1 fe 4a bd b6 eb 13 3c
       -0.00980439 -0.02866679 -0.04955936 0.009028366
000310 58 bf 86 3c fa 86 80 3c f9 0e 5a bc 9e 4a 74 3c
       0.016448662 0.015689362 -0.013309234 0.014910368
000320 c6 b9 32 3a 96 64 56 bc 00 ae 76 3a 53 50 31 bd
       0.00068178435 -0.013085505 0.00094100833 -0.043289494
000330 b9 7a 49 3c 0b 75 5c bd 26 04 84 bc c8 86 1e 3c
       0.012297326 -0.05382256 -0.01611526 0.009675689
000340 23 43 3c bb 15 85 a3 3c a3 a6 d4 3b 4b 3b 42 bc
       -0.002872654 0.01996092 0.006489591 -0.011854957
000350 ba f2 89 bd 13 3f 14 3c 76 af 03 bc d2 3a c4 3c
       -0.067357495 0.009048241 -0.008037439 0.023953829
000360 74 38 1b 3b da 84 49 bb 54 aa 12 3d 90 d4 1b bd
       0.0023684772 -0.0030749352 0.03580697 -0.038044512
000370 d6 9f 41 3d 80 10 6e bc 03 f3 fb bb c6 d4 a9 3d
       0.047271572 -0.014530301 -0.0076888814 0.082925364
000380 44 a3 a8 3c 3b 33 79 bd a1 9f 69 3c c9 18 6a bd
       0.020585664 -0.060839873 0.01425925 -0.057152543
000390 a1 72 27 3d 77 40 7a 3d 64 a7 3e 3d ad e8 b6 bb
       0.040880803 0.061096635 0.046546355 -0.0055819363
0003a0 ec aa 4f 3c 31 e1 1c 3d 9e b7 10 3d 92 80 b3 ba
       0.012675028 0.038300697 0.03533136 -0.0013694933
0003b0 14 5d a1 bb ed 89 23 bc 3c 6e 04 3d ed 46 99 bb
       -0.004924426 -0.009981615 0.03233169 -0.0046776445
0003c0 62 fa 89 3d 6c c4 31 bd 5c df cf bb 62 43 cd 3c
       0.0673721 -0.043400213 -0.006343765 0.025056545
0003d0 d6 6b f3 3c 37 5d 64 bd 71 99 50 3c 4a dc fd bc
       0.029714506 -0.05575296 0.012731896 -0.030988831
0003e0 af b9 77 bb bc 82 aa 3d f2 a9 98 bc 35 d8 3c 3c
       -0.0037799885 0.08325717 -0.018635724 0.011526157
0003f0 54 18 c6 3c 13 67 f4 3c 4e 6f 0e 3c cc f6 e3 3c
       0.024181522 0.029834306 0.008693529 0.027827643

weight f4 [768]
000000 d8 78 82 3f fd 19 80 3f dd 4b 7e 3f 5b 16 70 3f
       1.0193129 1.0007931 0.9933451 0.9378411
000010 68 45 63 3f 7e 65 7d 3f 87 a4 7e 3f e7 c7 62 3f
       0.8877778 0.9898299 0.994698 0.88586277
000020 f0 1a 70 3f 7f e7 53 3f 2d 8c 78 3f 15 49 4e 3f
       0.93791103 0.8277511 0.9708889 0.80580264
000030 33 3e 72 3f 70 90 68 3f 11 cb 85 3f 8a 95 77 3f
       0.9462616 0.90845394 1.0452596 0.96712554
000040 91 3d 6d 3f 1c 1a 7c 3f d2 18 83 3f 34 a0 56 3f
       0.9267207 0.9847734 1.024195 0.838382
000050 c2 80 68 3f 8f 03 7e 3f 40 a7 84 3f 47 16 94 3f
       0.9082147 0.9922418 1.0363541 1.1569299
000060 94 b9 8a 3f 41 7c 83 3f a7 1e 70 3f ee d1 7f 3f
       1.0837884 1.0272294 0.9379677 0.999297
000070 7a 42 9a 3f 45 4a 8d 3f 8f cd 4f 3f 2b 24 7d 3f
       1.2051537 1.103829 0.8117303 0.9888331
000080 9f ac 78 3f 51 fc 89 3f 4c 07 6d 3f 1f 1b 84 3f
       0.971384 1.0780126 0.9258926 1.0320777
000090 0f 0c 5f 3f 94 e6 86 3f b0 0e 84 3f cf 9c 81 3f
       0.87127775 1.0539117 1.0316982 1.0125979
0000a0 29 cd 5e 3f 14 6e 72 3f c4 51 7e 3f 9c 2c 7a 3f
       0.870318 0.94699216 0.99343514 0.9772432
0000b0 e0 a2 5a 3f a2 66 85 3f d7 77 6f 3f 54 28 6a 3f
       0.8540478 1.0421946 0.93542236 0.91467786
0000c0 89 92 76 3f 67 1b 81 3f be 98 70 3f a3 c3 81 3f
       0.96317345 1.0086488 0.93983066 1.0137829
0000d0 38 22 7a 3f f7 77 73 3f c7 eb 76 3f a8 c1 8b 3f
       0.97708464 0.95104927 0.9645352 1.0918474
0000e0 bb c8 69 3f e7 23 6c 3f 38 21 83 3f e2 9c 87 3f
       0.91321915 0.9224228 1.0244513 1.0594752
0000f0 ee e3 84 3f fd 1b 87 3f 38 54 7b 3f 9b cd 5b 3f
       1.0382059 1.0555416 0.9817538 0.85860604
000100 e9 ca 7b 3f f8 5c 80 3f ca 24 7f 3f 64 7e 7f 3f
       0.9835649 1.0028372 0.9966551 0.9980223
000110 d8 0d 84 3f 9c 92 72 3f 0d 36 70 3f 5e ab 56 3f
       1.0316725 0.9475496 0.93832475 0.83855236
000120 5d c2 76 3f 7f 73 7e 3f 38 a1 81 3f 58 70 80 3f
       0.96390325 0.99394983 1.0127325 1.0034285
000130 9b 5b 82 3f 1e 6d 82 3f 9b ca 79 3f 86 f4 57 3f
       1.0184206 1.018955 0.97574776 0.8435749
000140 42 cd 80 3f e8 49 8d 3f 18 62 8a 3f 5d 24 8b 3f
       1.006264 1.1038179 1.0811186 1.0870472
000150 b7 54 86 3f f7 a9 71 3f 12 c3 40 3f 98 31 66 3f
       1.0494603 0.9439997 0.75297654 0.89919424
000160 bc b8 69 3f e7 c0 7b 3f 24 08 84 3f ab 03 7e 3f
       0.9129751 0.9834122 1.0314984 0.99224347
000170 bd a1 69 3f c4 b2 8e 3f 34 56 68 3f b0 61 83 3f
       0.9126242 1.1148305 0.90756536 1.0264187
000180 54 8b 88 3f d2 fb 6f 3f 15 61 77 3f d0 10 70 3f
       1.066752 0.9374362 0.9663251 0.93775654
000190 d0 58 96 3f d0 d5 78 3f e7 90 75 3f 15 4e 63 3f
       1.1745853 0.9720125 0.9592423 0.8879102
0001a0 ce 4c 81 3f 99 e0 89 3f c8 bd 85 3f f4 30 7b 3f
       1.0101564 1.0771667 1.0448542 0.9812157
0001b0 d9 85 73 3f 34 51 71 3f 7a c6 7a 3f 42 16 7e 3f
       0.9512611 0.9426453 0.979591 0.9925271
0001c0 7e 1e 75 3f a0 88 42 3f 0c bb 5b 3f fe 7a 88 3f
       0.9574965 0.75989723 0.85832286 1.0662534
0001d0 7a 6c 7a 3f 76 75 86 3f ee a3 71 3f 65 9b 73 3f
       0.9782177 1.0504596 0.9439076 0.9515899
0001e0 5e 2a 75 3f ce 16 79 3f 3c c9 64 3f 07 ac 7b 3f
       0.9576777 0.9730042 0.8936956 0.9830937
0001f0 c7 8d 7e 3f e5 a6 6a 3f 83 d4 84 3f 1d 35 73 3f
       0.99435085 0.9166091 1.0377353 0.9500292
000200 11 41 92 3f 9e 47 55 3f 11 7f 77 3f 47 b6 7d 3f
       1.1426107 0.83312404 0.9667826 0.9910626
000210 e4 11 98 3f 0c ed 5b 3f f6 ed 80 3f fc 04 69 3f
       1.188046 0.8590858 1.007262 0.9102323
000220 ed 2d 7f 3f 55 75 73 3f 8b 04 5b 3f 9e 6e 71 3f
       0.9967945 0.9510091 0.8555381 0.94309413
000230 67 91 75 3f d8 7b 83 3f 2b f3 84 3f c1 f9 6b 3f
       0.9592499 1.0272169 1.0386709 0.9217797
000240 ba 9f 73 3f 9b 5b 75 3f a5 a2 81 3f 1f 06 78 3f
       0.951656 0.95842904 1.012776 0.9688434
000250 20 5f 7a 3f d3 da 79 3f d8 7a 80 3f 67 3c 55 3f
       0.978014 0.97599524 1.0037489 0.8329529
000260 6d 8f 6e 3f 9c 5a 7b 3f bf 7c 92 3f 48 be 8a 3f
       0.931876 0.98185134 1.144432 1.0839319
000270 7f c9 5c 3f d3 e6 85 3f ef 24 88 3f af c6 85 3f
       0.8624496 1.0461067 1.0636271 1.0451258
000280 d4 be 90 3f 45 c9 68 3f e6 0c 8a 3f cf f0 80 3f
       1.1308236 0.9093211 1.0785186 1.0073489
000290 15 a1 86 3f cb 95 7d 3f b7 1e 8a 3f 1e 9f 89 3f
       1.0517908 0.9905669 1.0790623 1.0751684
0002a0 08 84 80 3f 98 40 80 3f 44 d5 7d 3f f6 86 66 3f
       1.0040293 1.0019712 0.9915354 0.90049684
0002b0 bf a4 81 3f 92 17 81 3f ae 95 69 3f 14 00 59 3f
       1.0128402 1.0085318 0.9124402 0.84765744
0002c0 af 31 83 3f 1e 9e 80 3f 10 6d 8c 3f 51 0f 99 3f
       1.0249537 1.0048254 1.0970783 1.1957799
0002d0 0c 68 76 3f 6a f1 88 3f aa cd 7d 3f a7 f9 76 3f
       0.9625251 1.0698674 0.99141943 0.9647469
0002e0 f0 85 57 3f 70 c0 53 3f 17 07 80 3f e1 f4 48 3f
       0.8418875 0.8271551 1.0002164 0.78498656
0002f0 8e ff 8a 3f fc 10 9d 3f 5c 12 6e 3f 60 20 6a 3f
       1.0859239 1.2270808 0.92996764 0.9145565
000300 2e 58 83 3f aa b6 87 3f 85 c4 55 3f f9 88 81 3f
       1.0261285 1.060262 0.8350299 1.0119926
000310 7d c7 8b 3f e8 e7 90 3f 11 6a 78 3f 7f 30 6f 3f
       1.0920254 1.1320772 0.97036844 0.93433374
000320 20 71 64 3f b5 95 88 3f a9 30 70 3f 54 72 68 3f
       0.89235115 1.0670687 0.9382425 0.9079945
000330 2a 59 75 3f 26 ea 6b 3f a0 93 6d 3f bc 9d 7f 3f
       0.9583918 0.9215416 0.9280338 0.9985006
000340 b7 21 77 3f ef bf 77 3f d9 ed 79 3f 01 40 6f 3f
       0.9653582 0.9677724 0.9762855 0.9345704
000350 ef 7a 5a 3f 12 c7 76 3f 26 87 80 3f d6 1a 77 3f
       0.8534383 0.9639751 1.0041244 0.96525323
000360 f1 26 75 3f 1a 19 79 3f 9d a2 7a 3f 9c 32 6f 3f
       0.95762545 0.97303927 0.9790438 0.934366
000370 5f e8 59 3f b3 a0 81 3f 01 f6 85 3f ec 0a 5a 3f
       0.85120195 1.0127167 1.04657 0.85172915
000380 69 33 66 3f 5f 9d 6c 3f e0 45 7d 3f 2b 36 73 3f
       0.89922196 0.9242763 0.98934746 0.9500453
000390 87 aa 63 3f 95 28 56 3f 36 5c 85 3f 55 8d 87 3f
       0.8893208 0.83655673 1.0418766 1.0590006
0003a0 66 16 85 3f 22 b0 61 3f 7a 83 66 3f 77 7b 85 3f
       1.039746 0.8815938 0.9004437 1.0428303
0003b0 03 a0 8b 3f df ad 72 3f cf 18 8a 3f 29 3d 87 3f
       1.0908207 0.94796556 1.0788821 1.056554
0003c0 28 4a 9a 3f 67 a9 88 3f 1b e6 73 3f b4 2f 83 3f
       1.2053881 1.0676697 0.9527299 1.0248933
0003d0 51 66 89 3f 84 54 4a 3f a5 a2 76 3f 1a a6 8e 3f
       1.073435 0.7903521 0.96341926 1.114444
0003e0 de cf 79 3f 5c cd 97 3f 64 d1 86 3f ac 01 84 3f
       0.97582805 1.1859546 1.0532651 1.031301
0003f0 57 18 80 3f 8e 74 5c 3f 0b 9c 6f 3f 62 ff 8d 3f
       1.0007428 0.8611535 0.9359748 1.1093562

bias f4 [768]
000000 c0 dc 7d 3d 04 4a 00 bd a1 d2 22 3c 10 7b 7f 3d
       0.0619781 -0.031320587 0.009937913 0.06237322
000010 a7 c3 eb 3d 9d a4 ed bc c9 47 01 bd 2c 24 f0 3d
       0.11511927 -0.029009158 -0.0315626 0.11725649
000020 8d a6 85 3d af bf 89 3e 5d c1 6e 3d 8a f2 07 3e
       0.06525908 0.26904055 0.058289874 0.13276115
000030 b0 a4 cb bc 0f 02 ee bd 5c a1 a0 3d 12 93 f3 bc
       -0.024858803 -0.116214864 0.07843277 -0.029733215
000040 ae 28 8b bd ae a3 18 be 12 4b 71 bd ed e2 2a 3e
       -0.067948684 -0.14906189 -0.058909483 0.16688128
000050 86 34 2e 3e 1d ee 8b bb e5 ed 48 3d 63 f3 2b be
       0.17012224 -0.0042703287 0.049055 -0.16792063
000060 ac e5 b5 3d 8c 54 9f 3c 88 8b 91 bd f0 26 8c ba
       0.08881697 0.019449495 -0.071066916 -0.0010692757
000070 92 28 75 be 9a 66 de 3d 9d 1e 44 be 96 4b 2b 3d
       -0.23941258 0.108594134 -0.19152303 0.04182013
000080 3f 7e 6b be 70 66 7f 3d 16 57 b4 bc 30 1a 37 be
       -0.22997378 0.06235355 -0.022014182 -0.17881083
000090 7c 2c 07 be 60 1a 8b 3d 2b ff 79 bd 16 70 d6 3c
       -0.13200563 0.0679214 -0.061034363 0.026176494
0000a0 e0 80 1e 3e d7 86 4e 3d 0b 77 d0 3c 6a 37 dc 3c
       0.1547885 0.050421562 0.02544739 0.026881892
0000b0 dc 8e 8c 3d ee 63 9a 3d 69 21 88 bd d2 41 5d 3d
       0.06863186 0.07538591 -0.066469975 0.05401785
0000c0 44 fb 97 bd 08 ed 0a 3a b3 aa b4 3d 14 91 8e 3c
       -0.07420972 0.00052996026 0.08821621 0.017403163
0000d0 b3 8d 30 bc f9 09 61 bd 62 f2 b9 bd 01 d5 22 3e
       -0.010775971 -0.05494115 -0.09079434 0.15901567
0000e0 3f 04 cd 3d a4 f1 07 be 31 34 30 3d f0 5e 19 be
       0.100105755 -0.13275772 0.043018524 -0.14977622
0000f0 ad 04 2c bd 32 a6 92 3d 99 41 0d 3c 34 30 16 3e
       -0.041996647 0.071606055 0.008621597 0.14666826
000100 39 39 ae bb 20 cd a8 bc 25 9b 94 3b 36 44 6e bd
       -0.00531688 -0.020605624 0.004535096 -0.05817052
000110 23 05 ae 3d c8 b4 fa bd 43 13 7c bd 74 63 2e be
       0.084970735 -0.122415125 -0.061541807 -0.17030126
000120 c1 fa 42 bd d0 52 61 bd 65 9d 18 3d 6f 90 ff 3b
       -0.04760242 -0.055010617 0.037259478 0.0077992002
000130 c9 7b 2a 3d 58 6c bc 3c 95 36 2a bd 72 54 05 be
       0.041621957 0.023000881 -0.04155596 -0.13020495
000140 6b f2 6d bb e9 9f 4a 3e 4c 58 b7 3d a6 dd a3 bd
       -0.0036307822 0.19787563 0.08952388 -0.080012605
000150 ad 4f 98 3c a2 8c 84 3d 60 7e 25 be 62 6b 9a 3d
       0.01859268 0.06472136 -0.1616149 0.07540013
000160 b5 19 74 bd 9b 48 a8 3b a7 86 8a bc dd af 51 3d
       -0.05959483 0.0051356084 -0.01690991 0.051193107
000170 91 90 a2 3d 6a 54 03 be 24 03 c2 3d 0a 86 67 bd
       0.0793773 -0.1282517 0.09473255 -0.056524314
000180 06 ba 74 3d 06 72 ac 3c 0f e9 39 3d d5 73 6c 3c
       0.05974772 0.021050464 0.045388278 0.014431913
000190 cc 80 12 3e 88 8a f3 bb 13 88 6a bd 2a c4 82 3d
       0.14306945 -0.0074322857 -0.057258677 0.063850716
0001a0 48 21 f9 bd df 9e 1e be 80 ab c3 3d d5 fd 76 bd
       -0.12164551 -0.15490292 0.095541954 -0.060300667
0001b0 56 b3 76 3d c6 91 fd bd 62 0c 86 3d ed d0 f8 3b
       0.06022962 -0.1238132 0.065453306 0.0075932653
0001c0 38 54 4c bd 02 0d 6c be c4 b2 20 be dd a1 37 3d
       -0.049885005 -0.23051837 -0.15693194 0.0448321
0001d0 b2 10 62 bd b7 b2 9c 3d 25 4d 5a bd 21 74 b8 3c
       -0.055191703 0.07651275 -0.053296227 0.022516312
0001e0 2d 42 75 3d 3a af da bc e8 9c cd 3d 9b 45 83 bc
       0.059877563 -0.026694883 0.10039693 -0.016024401
0001f0 3e 05 8c 3c de dd 9d bd 52 36 4a bd af 93 6a 3d
       0.017092343 -0.077083334 -0.04936821 0.05726975
000200 e2 84 00 be d0 4b 79 be e7 b6 87 bd 90 43 12 3e
       -0.12550691 -0.24345326 -0.06626683 0.14283586
000210 8f bb 94 be 21 c3 1c be 8f bc 74 3a 9a 37 d3 bd
       -0.29049346 -0.15308811 0.0009335959 -0.103133395
000220 7d f9 89 3b 41 1e 59 3c 37 a9 1b 3e 4b 9d af 3d
       0.0042106495 0.013251842 0.15201269 0.08574923
000230 30 51 f4 3c bd da 16 3d 75 3a 21 3d f5 2b 96 3c
       0.02982387 0.0368297 0.03936239 0.018331507
000240 06 06 3f 3e e7 77 0f 3d f4 6a 3d 3d bf e1 39 3d
       0.18654642 0.035026457 0.046244577 0.045381304
000250 7f 16 bc bc c7 75 33 bc cf 89 46 3c d0 61 2f be
       -0.022959946 -0.010953373 0.012117817 -0.17127156
000260 2e cf 67 bd de c9 23 bc 68 8a 3f 3e 77 2d 9e 3d
       -0.056594066 -0.009996859 0.18705142 0.077235155
000270 03 6a ff 3d 9a d0 9c bd a2 c9 bc 3c bc 37 a1 bd
       0.12471392 -0.07656975 0.023045365 -0.078719586
000280 b6 8b 27 3e 0b 82 d7 bc 8c e3 40 3d d2 40 2c 3c
       0.16361889 -0.026307127 0.047092006 0.010513501
000290 76 ef b5 3d f7 bd 4d bc 3d 78 ee bd 80 33 b3 bd
       0.08883564 -0.012557498 -0.116440274 -0.08750057
0002a0 7f 8f 41 3c e2 80 36 3e e9 f5 9b bc 56 18 17 3d
       0.011813997 0.17822602 -0.019038158 0.036888443
0002b0 f3 d3 43 bc 6d a0 0b 3d f5 f1 73 bd 53 02 af 3d
       -0.011952388 0.03408854 -0.05955692 0.08545365
0002c0 3e 55 b2 bd ec 71 c3 3b 08 0e 09 be 66 41 46 3e
       -0.08707665 0.0059645083 -0.13384259 0.19360885
0002d0 00 4f 37 bc 34 ac 41 3d f6 d3 34 3d 3e d1 e8 3c
       -0.011188269 0.047283366 0.044147454 0.028420087
0002e0 09 7b 1e be 45 ba 27 3e 0f 16 7a bc 99 d7 21 3e
       -0.15476622 0.1637965 -0.015264048 0.158049
0002f0 51 c6 bd bd 62 74 75 3e 67 83 8d bd e1 e4 ed 3c
       -0.092663415 0.23970178 -0.06909829 0.029039802
000300 6d 29 48 bd 7b a9 88 bd 3c 50 cc bd 3d f4 a6 3c
       -0.04886763 -0.06672951 -0.09976241 0.020380134
000310 a8 ca b3 3d a4 97 f4 3d 36 8f b8 bc be 55 5a 3d
       0.08778888 0.11942986 -0.022529226 0.053304426
000320 63 7b 73 3d 37 66 82 bd 8c 59 2c 3d 87 48 c9 bd
       0.059443843 -0.06367152 0.042077586 -0.098282866
000330 37 a6 99 3d b2 02 d1 bd ac 95 51 bd 3a 29 cd bc
       0.07502406 -0.10205592 -0.05116813 -0.025044072
000340 ed 4f 46 3c 9a db 9b 3d f3 0b 89 bc 0e 2b 98 bd
       0.012104017 0.07610245 -0.01672933 -0.07430087
000350 d5 20 08 be 2b c5 ac 3d c5 87 83 bd 04 a5 a9 3d
       -0.13293774 0.08436044 -0.0642238 0.08283427
000360 6d d3 63 bc 4a 4d 4d 3c 9c 69 a8 3d 6c 5e c3 bd
       -0.013905388 0.012530634 0.082232684 -0.09539494
000370 78 27 01 3e 99 02 9f bc 94 3e 4a bd 05 3d 3c 3e
       0.12612712 -0.019410418 -0.049376085 0.18382652
000380 49 cd 0a 3d f4 90 04 be 1b 25 b4 3c a8 0f a4 bd
       0.03388718 -0.1294592 0.02199035 -0.08010799
000390 f6 df 9b 3d a9 75 38 3e 7f 53 06 3e 1d 69 40 bd
       0.076110765 0.18013634 0.13117789 -0.046975244
0003a0 ba c5 da 3c e2 47 21 3e ba f7 a7 3d 15 63 04 3d
       0.026705611 0.15750077 0.08201547 0.032321054
0003b0 f8 29 a1 bd 0a b6 7a bd 73 7d b9 3d 23 75 74 bd
       -0.07869333 -0.061208762 0.09057131 -0.059682023
0003c0 54 9e 47 3e bb 54 01 be be 0d e4 bc 3b 6a 9f 3d
       0.19493991 -0.12629978 -0.027838584 0.07783934
0003d0 60 fe 0a 3e c1 1d 41 be 79 3b 49 bc ea 5a 00 be
       0.13573599 -0.18859006 -0.012282246 -0.12534681
0003e0 61 75 ad 3c c1 d0 77 3e ce ef 40 bd f9 6e c6 bb
       0.021174135 0.24200727 -0.047103696 -0.0060557094
0003f0 fe 6f 17 3a 30 3c dc 3d 38 5d 11 3d 3a 9a ed 3d
       0.0005776881 0.10753667 0.03548929 0.11601682

weight f4 [768]
000000 8f 97 64 3f 16 1c 7b 3f 5a 6f 92 3f f2 19 96 3f
       0.8929376 0.9808973 1.1440232 1.1726668
000010 88 b2 61 3f fe 5a 7f 3f b6 6e 90 3f 5e 45 7a 3f
       0.8816304 0.9974822 1.1283786 0.97762096
000020 22 82 51 3f 3c 9c 58 3f 90 b4 79 3f 2c 4c 89 3f
       0.8183919 0.84613395 0.9754114 1.0726371
000030 be 2a 87 3f 2b 17 81 3f 7b ac 80 3f 1e df 6e 3f
       1.0559919 1.0085195 1.0052637 0.933092
000040 b8 20 74 3f bc 87 7a 3f c6 a4 7d 3f 63 78 5b 3f
       0.95362425 0.97863364 0.9907955 0.8573057
000050 be 9e 7e 3f e2 83 80 3f 5f 14 85 3f 80 b5 89 3f
       0.9946097 1.0040247 1.0396842 1.0758514
000060 a5 cf 54 3f 7a 19 76 3f 51 2b 80 3f af 1d 81 3f
       0.8312934 0.96132624 1.0013219 1.0087184
000070 88 56 79 3f 98 37 84 3f 86 48 92 3f de ce 82 3f
       0.9739766 1.0329466 1.1428382 1.0219381
000080 0b 02 87 3f d7 92 52 3f 3b 0d 73 3f f3 73 7d 3f
       1.0547498 0.8225531 0.94942063 0.9900505
000090 e6 e0 60 3f 8f de 6c 3f cd 2e 84 3f e8 1c 47 3f
       0.8784317 0.925271 1.0326782 0.7777848
0000a0 e2 65 67 3f c5 cd 74 3f 3f 74 88 3f 0f 51 74 3f
       0.90389836 0.9562648 1.0660475 0.95436186
0000b0 89 e7 77 3f 79 1b 72 3f 0a 8e 8b 3f bd b6 81 3f
       0.9683767 0.9457317 1.0902722 1.0133892
0000c0 d1 57 77 3f 92 32 74 3f 22 d9 84 3f d0 90 83 3f
       0.9661837 0.95389664 1.0378764 1.0278568
0000d0 87 72 7b 3f 2e 5f 7a 3f b5 e6 7a 3f 46 c7 77 3f
       0.9822163 0.9780148 0.9800828 0.9678844
0000e0 4a f9 82 3f a0 71 6e 3f 2c 80 70 3f 9a 48 86 3f
       1.0232327 0.9314213 0.93945575 1.0490906
0000f0 37 8b 47 3f ec 6b 84 3f 79 9f 81 3f ab 53 49 3f
       0.779468 1.0345435 1.0126792 0.7864329
000100 91 32 6e 3f aa 4f 6c 3f 63 77 6d 3f fd 30 92 3f
       0.9304591 0.9230906 0.92760295 1.14212
000110 59 8d 73 3f 79 ba 74 3f 21 1b 6c 3f d8 1b 8d 3f
       0.95137554 0.95597035 0.92228895 1.1024122
000120 98 22 5c 3f 72 4f 71 3f b7 69 83 3f 51 f7 7d 3f
       0.85990286 0.9426185 1.0266637 0.992055
000130 58 91 92 3f c0 61 79 3f 02 86 84 3f 15 56 6d 3f
       1.1450605 0.9741478 1.0353396 0.92709476
000140 2e fd 84 3f c2 04 77 3f 53 cb 77 3f a8 5e 6d 3f
       1.0389764 0.96491635 0.96794623 0.9272256
000150 5c 87 68 3f 32 42 7d 3f 63 df 6e 3f 5e 2f 81 3f
       0.9083154 0.9892913 0.9330961 1.009258
000160 c4 b4 8d 3f 80 89 33 3f 77 5e 77 3f 1b 0f 7c 3f
       1.107079 0.70131683 0.96628517 0.9846055
000170 2a 91 6a 3f f1 86 5a 3f 7c af 88 3f 3d d7 8b 3f
       0.9162775 0.85362154 1.0678554 1.092506
000180 b9 ce 82 3f ca 74 89 3f 6c 6e 81 3f 35 3d 72 3f
       1.0219337 1.0738766 1.0111823 0.94624645
000190 3e 51 8e 3f d9 e5 81 3f 48 8d 76 3f 6f db 89 3f
       1.1118543 1.0148269 0.9630933 1.0770091
0001a0 9b ce 59 3f 41 ef 78 3f b1 8e 91 3f 53 68 6b 3f
       0.8508088 0.9724007 1.1371671 0.9195606
0001b0 3e a1 88 3f 6e de 81 3f 2d 6a 7c 3f e5 61 a3 3f
       1.0674207 1.0146005 0.9859951 1.276425
0001c0 af 52 7c 3f 56 4f 72 3f 72 ee 85 3f d4 81 8b 3f
       0.98563665 0.9465231 1.0463393 1.0898995
0001d0 1d 94 64 3f 8b a4 82 3f 5b dd 85 3f a8 17 6c 3f
       0.892885 1.0206465 1.0458177 0.92223597
0001e0 d6 46 75 3f 24 ad 53 3f 6d e5 51 3f 49 84 72 3f
       0.9581121 0.82686067 0.819907 0.947331
0001f0 1f 2b 84 3f 6d 58 6f 3f 7c 9c 6d 3f f4 e1 8a 3f
       1.032566 0.934943 0.928169 1.0850205
000200 79 9a 88 3f eb 15 77 3f bf fa 6e 3f a4 8c 6b 3f
       1.0672141 0.9651782 0.9335136 0.92011476
000210 99 f8 65 3f 07 d9 71 3f a7 a1 6a 3f ec 9b 82 3f
       0.89832455 0.9447178 0.9165291 1.0203834
000220 18 78 2f 3f 8e 9c 82 3f de c7 7f 3f 84 10 80 3f
       0.68542624 1.0204027 0.9991435 1.000504
000230 22 7c 87 3f d7 8a 5a 3f cf ea 8a 3f 59 38 7a 3f
       1.0584757 0.853681 1.0852908 0.9774223
000240 73 68 70 3f 1d c5 52 3f 33 1d 7c 3f 5f 81 4e 3f
       0.93909377 0.8233202 0.98482054 0.80666155
000250 65 f4 65 3f 7f ff 80 3f c0 0e 41 3f 2c c0 8c 3f
       0.8982604 1.0077971 0.7541313 1.0996146
000260 df 7b 42 3f fb 38 89 3f cb b6 6c 3f 49 47 6d 3f
       0.7597026 1.0720514 0.9246642 0.926869
000270 4e 75 82 3f 57 dc 67 3f bb 49 7f 3f 98 56 7b 3f
       1.0192049 0.90570587 0.9972188 0.98179007
000280 8e 66 66 3f 65 c3 6c 3f 09 c4 78 3f 1d 8b 6f 3f
       0.90000236 0.9248565 0.97174126 0.93571645
000290 b9 aa 83 3f 33 39 7e 3f 10 3a 8a 3f a5 c9 81 3f
       1.0286475 0.9930603 1.0798969 1.0139662
0002a0 33 91 85 3f 3a c7 8e 3f d8 6b 72 3f 3e 8d 6f 3f
       1.0434936 1.1154549 0.94695807 0.93574893
0002b0 9b b3 88 3f ff a8 85 3f d8 f0 6d 3f 72 d0 5e 3f
       1.0679811 1.0442199 0.92945623 0.8703681
0002c0 23 5a 88 3f 26 e1 85 3f de c3 8b 3f 6b 91 8d 3f
       1.0652508 1.0459335 1.0919149 1.1060003
0002d0 53 33 83 3f d4 c0 5b 3f 89 bc 55 3f 7e fa 67 3f
       1.0250038 0.8584111 0.83490807 0.90616596
0002e0 f3 92 7c 3f 3f 31 88 3f 8e 91 6c 3f 13 86 93 3f
       0.98661727 1.0640029 0.924096 1.1525291
0002f0 e0 8c 7c 3f 47 7e 72 3f 13 2a 8a 3f 70 91 8e 3f
       0.9865246 0.94723934 1.079409 1.1138134
000300 9e fa 84 3f 21 9f 8e 3f d8 07 7d 3f d4 4e 53 3f
       1.0388982 1.1142312 0.98840094 0.8254216
000310 5b b4 67 3f ff fc 5b 3f e7 27 9c 3f e4 5b 7f 3f
       0.90509576 0.85932916 1.2199677 0.9974959
000320 b4 e5 71 3f 34 24 88 3f 57 ac 7f 3f f9 67 81 3f
       0.94491124 1.0636048 0.99872345 1.0109855
000330 58 1d 63 3f 63 b1 4e 3f 18 78 77 3f e3 dc 89 3f
       0.8871665 0.8073942 0.96667624 1.0770534
000340 6f 6b 70 3f 13 82 82 3f 0d ca 77 3f f6 b2 65 3f
       0.9391393 1.0195946 0.9679268 0.897262
000350 5f cb 82 3f 1a ca 88 3f 91 9a 82 3f f5 d9 74 3f
       1.0218314 1.0686677 1.020342 0.95645076
000360 26 6d 80 3f f7 77 92 3f 76 cc 73 3f 4e 0d 78 3f
       1.003331 1.144286 0.9523386 0.968953
000370 d6 a0 81 3f 1f b2 5d 3f fe ec 50 3f e1 d3 84 3f
       1.0127208 0.86599916 0.8161162 1.037716
000380 73 55 8f 3f f1 30 82 3f e4 21 83 3f 0a 2a 78 3f
       1.1197952 1.0171186 1.0244718 0.96939147
000390 97 bd 3b 3f 95 fb 90 3f 5f e3 81 3f da 45 7e 3f
       0.73336166 1.1326777 1.0147513 0.99325335
0003a0 7f b1 82 3f 17 62 81 3f 53 7a 7d 3f 11 1a 70 3f
       1.0210418 1.010806 0.99014777 0.93789774
0003b0 d3 22 3a 3f 84 aa 73 3f c8 a9 79 3f c1 0b 78 3f
       0.7270939 0.9518206 0.9752469 0.96892935
0003c0 bc 4a 55 3f c7 d9 90 3f 8a 68 91 3f 6a 0d 75 3f
       0.8331716 1.131646 1.1360028 0.95723593
0003d0 59 ce 6c 3f a9 a9 7d 3f f5 cc 93 3f 1c da 6f 3f
       0.9250236 0.99087006 1.1546923 0.93692183
0003e0 b6 ba 83 3f 91 f5 73 3f 50 a1 86 3f 03 39 74 3f
       1.0291355 0.9529658 1.0517979 0.9539949
0003f0 4c 7a 74 3f d3 c8 98 3f 67 53 6d 3f ba ef 72 3f
       0.9549911 1.1936287 0.92705387 0.94897044
