subject-models/ada-0629/gabrielleunion2023-06-29T18-03-01_gabrielleunion-ada/embeddings_gs-4500.pt (torch, 834159 bytes, 168 tensors)

pre_vecs f4 [2, 768]
000000 5b 44 6d 3b f8 c7 13 ba 55 9c 91 bc 56 1e 60 3c
       0.0036204073 -0.00056374026 -0.01777474 0.013679108
000010 ec 46 6b 3a 66 80 dc 3c 13 fd 27 3c 91 af dc bc
       0.0008975107 0.026916694 0.010253209 -0.026939185
000020 4e 26 8e 3c b8 8d 0b 3c d9 1b 98 3c d2 33 b0 3b
       0.01735225 0.008517675 0.018567966 0.005377271
000030 80 29 2e bc 57 41 0d bc d1 97 d0 3c c9 09 e2 3a
       -0.010630012 -0.008621535 0.025463017 0.0017245348
000040 93 97 99 bb 02 ce d4 3b 62 d8 7f bb 20 a0 51 bb
       -0.0046872585 0.0064942846 -0.0039038886 -0.003198631
000050 2f a2 85 3c 17 82 42 3c ba 3a d8 bb 98 23 44 bc
       0.016312687 0.011871836 -0.0065987976 -0.011971377
000060 b6 98 24 3c 4e 63 77 bb 2c 4e d7 bc 9d dd 48 bc
       0.010046175 -0.00377484 -0.026282392 -0.012259868
000070 e7 4b 62 3c 93 74 c1 3c 1b 24 30 3b e1 e2 bd 3b
       0.013812042 0.023615157 0.002687699 0.0057948683
000080 f2 47 27 b9 24 b8 99 3b 7f 0f 5a 3c b5 97 61 3c
       -0.00015953163 0.0046911407 0.013309359 0.01376908
000090 f0 90 8a bc 42 8e 8a 3c 9e a6 13 bd 51 62 b4 3c
       -0.016914815 0.016913537 -0.03604757 0.022019537
0000a0 f4 41 0e bc 67 58 10 3d 78 79 41 bc b7 60 91 3c
       -0.008682717 0.035240557 -0.011808746 0.017746313
0000b0 fa 8d 41 3b 3a 41 8c bc 53 9e 5d 3c 9b f5 e0 bc
       0.0029534088 -0.017120946 0.013526517 -0.027460864
0000c0 01 f8 9e bc 5b 2f f2 bc a4 ce 9f bb 75 91 c6 3b
       -0.019405367 -0.029563596 -0.0048769284 0.0060598203
0000d0 e6 cb e6 3b d0 92 82 bc 74 b1 77 bc 21 92 a6 3a
       0.0070433496 -0.015939146 -0.015117992 0.0012708345
0000e0 02 98 87 bb 5d 0c 59 3c 95 e8 b8 3b bc b6 95 bb
       -0.004137994 0.013247577 0.0056429603 -0.004568903
0000f0 59 52 58 bc ef 94 2b bc 80 5d ac ba ef 13 ad bc
       -0.013203227 -0.01047252 -0.0013150424 -0.02112767
000100 d9 00 30 3c e0 53 d2 bc c4 56 28 3c f7 5e f4 bb
       0.01074239 -0.02567476 0.010274593 -0.0074576098
000110 56 72 01 3b ac b7 aa bc a3 14 fa bb 01 44 0a 3a
       0.0019751987 -0.020839535 -0.0076318546 0.00052744156
000120 9a 2a aa 39 00 6c e9 bb b7 4f a2 bc 54 63 0a 3a
       0.00032456667 -0.0071234703 -0.019813402 0.0005279083
000130 ee f8 2f bc 63 7c 0b 3c 5c 37 f4 bc ec e9 cd bc
       -0.010740502 0.008513543 -0.029811554 -0.025135957
000140 e6 9c 9b 3c 6b 9f 22 3b 68 dd 20 bb 01 7e de bb
       0.018995713 0.0024814259 -0.002454603 -0.006789923
000150 e8 87 44 bc 79 47 11 ba aa 90 a6 3b b1 86 98 bb
       -0.011995293 -0.0005541961 0.0050831633 -0.0046547283
000160 29 66 94 bb 13 b8 c0 bb 8f 94 4c 3c 80 85 16 3d
       -0.00452878 -0.0058813184 0.012486591 0.03674841
000170 3e 67 ab bc 2f f9 81 bb 3d ce f4 3b cd 58 e7 3b
       -0.020923253 -0.0039664726 0.0074708746 0.0070601464
000180 df 06 f3 bb 98 40 88 3a 60 1b 02 bd a3 67 b6 3c
       -0.0074165906 0.0010395227 -0.031764388 0.022266215
000190 ee 60 15 bc 3f 80 89 bc 58 4d 41 bc 9f 86 1b bb
       -0.009117348 -0.016784785 -0.011798225 -0.0023731363
0001a0 92 65 97 bb c9 c7 48 3c 9c 51 e5 3b 65 e2 1b bc
       -0.0046202624 0.012254664 0.006998254 -0.009514426
0001b0 e9 3f a9 ba d5 85 90 bc ef 1d 38 bc ac aa 9d 3c
       -0.0012912723 -0.017641941 -0.0112376055 0.019246422
0001c0 47 85 da 39 4a be 21 3c 96 5f 0b 3c f0 81 ec 3b
       0.000416795 0.009872029 0.008506676 0.007217638
0001d0 33 3a f0 ba 41 90 bd bb bb 67 b8 bc fe 0b 42 bb
       -0.0018327892 -0.0057850187 -0.0225104 -0.0029609199
0001e0 01 4a 45 3c aa 76 6b bc 05 23 70 bc 6c cf 3b 3c
       0.01204157 -0.014371553 -0.014656787 0.011463027
0001f0 f2 c5 be 38 ba ba bf 3b 44 6b 23 bc cc 25 ce 3b
       9.096776e-05 0.005851117 -0.009974305 0.006291127
000200 7b fc d3 bc 6e c7 71 3c e8 a3 02 3c a3 b7 0d 3c
       -0.025877228 0.01475702 0.007973649 0.008649739
000210 5e fb 2b 3c 17 89 1c bc 6f 28 72 3b 94 8e 41 3c
       0.010496942 -0.009554169 0.003695037 0.011813778
000220 b9 82 bc bc 7c b6 23 bc 6a b0 6b 3c cb 65 7f 3c
       -0.023011552 -0.009992238 0.014385322 0.015588234
000230 07 17 f6 bb b4 9e 10 3c 82 f0 08 3c 37 2a 8c bc
       -0.0075100693 0.0088269 0.008358123 -0.017109973
000240 de 66 33 3d 1f 05 b0 3c 67 1d 17 3b 00 f5 47 3c
       0.043799274 0.021486817 0.0023058297 0.012204409
000250 e2 fd 9d 3c 80 0c ff bc 96 8a 47 3b 7c b9 28 3d
       0.0192861 -0.03113389 0.0030447594 0.041192517
000260 15 5c 57 bc 94 c7 41 3b eb 04 27 3c 13 40 bb ba
       -0.013144513 0.002956842 0.010194044 -0.0014286063
000270 c7 7f 0d 3d 99 4a e3 bc e4 c9 09 3b c0 57 fe b9
       0.034545686 -0.027745532 0.0021024877 -0.00048512034
000280 cc 94 ce 3c 34 85 c5 3c 0e 3c c5 3c c6 96 a3 3c
       0.025217436 0.024111368 0.024076488 0.019969355
000290 4d 88 cc bc 12 89 a4 bb f4 67 bc bb 30 24 2a bc
       -0.024967337 -0.005021223 -0.005749697 -0.010384604
0002a0 cd 06 23 3c c8 42 81 3c 0d f8 a4 bb 34 19 32 3c
       0.009950352 0.015778914 -0.005034453 0.010870267
0002b0 9e 93 f4 3b 99 76 63 3c 52 5a 4c 3a 2c 4b ab bc
       0.0074638864 0.013883256 0.0007795441 -0.020909868
0002c0 3f 2f 80 bc b7 9d 01 3c e6 c8 52 bc c8 2e 9d 3c
       -0.015647529 0.007911137 -0.012865281 0.019187346
0002d0 28 b9 3c 3c df e1 bc ba f6 39 0e bb 65 b5 c9 bc
       0.011518754 -0.0014410577 -0.0021702028 -0.024622628
0002e0 78 1b 03 bc e5 78 0e bd 9b c7 b4 3b ca 3a d2 3b
       -0.0080021545 -0.034783263 0.005516959 0.0064156996
0002f0 83 b6 5b bc a6 7d 02 3d c7 49 97 bc 74 50 d0 3c
       -0.013410213 0.03185811 -0.018467797 0.025428988
000300 e2 0e b9 bb 46 cf d7 bb a6 ca 5c 3b 75 1d e0 3c
       -0.005647526 -0.006585988 0.0033690124 0.027357796
000310 59 2a 85 3c 3b c9 08 3d 0d a0 91 3c 90 e7 5f 3b
       0.016255544 0.033395033 0.017776513 0.0034165122
000320 0b 22 dc bc af d1 f3 bc 4a f3 59 bc b5 e5 10 bc
       -0.026871702 -0.02976307 -0.013302634 -0.008843829
000330 9a eb a7 bb ae 42 b8 3c 5a f1 5f 3c 15 24 ae 3b
       -0.0051245214 0.022492733 0.013668383 0.00531436
000340 25 88 df 3c e6 da 8f 3b 60 39 3f 3d 9d e3 6d b7
       0.027286598 0.0043901084 0.046685576 -1.4179296e-05
000350 a8 fb cf b9 36 f5 a7 3c df 33 01 bc 4b e2 84 3c
       -0.00039669615 0.020502668 -0.007885902 0.016221186
000360 2a 49 38 bc 25 79 28 3d 0b 7b a1 3b f0 95 a8 bb
       -0.011247912 0.041131157 0.004927998 -0.005144827
000370 44 5d 94 bc 2e 0e a8 bb a1 af 05 bc d2 23 c9 bc
       -0.018110879 -0.0051286435 -0.008159549 -0.024553213
000380 60 c3 6c 3c 38 52 3c bc ad 3e 9e 3c 08 19 c8 3b
       0.014450878 -0.011494212 0.019316996 0.0061064996
000390 34 83 04 3d f5 67 b2 bc 53 da ea 3b b6 6b 0a bd
       0.032351688 -0.021778086 0.0071671396 -0.033794127
0003a0 cd b4 8d 3a c0 57 94 bc 80 40 df ba 36 2d 42 bc
       0.0010811329 -0.018108249 -0.0017032772 -0.011851599
0003b0 56 58 4d 3c 65 9a 79 bb 5f 5d 4d 3c 10 31 65 ba
       0.012533268 -0.003808641 0.012534468 -0.00087429676
0003c0 10 7c ab bc 43 74 82 3c 3d 16 d6 3b 6c 1d e4 3b
       -0.020933181 0.015924579 0.0065334127 0.006961515
0003d0 d3 f6 bc bc f9 6d 86 3a 62 9c 7f 3c bc 5f 11 3d
       -0.023066914 0.0010256163 0.015601249 0.03549169
0003e0 e2 18 cf 3c 43 4c 6a 3c 25 12 bb bc c6 99 39 3c
       0.02528042 0.014300409 -0.0228358 0.011328166
0003f0 af a0 db bb 6e 75 bf bc 95 af 3d bc 6b a3 59 bc
       -0.0067025046 -0.023371425 -0.011577507 -0.013283591

basis_rand_weights f4 [16, 5]
000000 21 bb 68 3c fa 59 07 be c1 14 2f 3d ce 63 a0 bd
       0.014204771 -0.13217917 0.0427444 -0.07831536
000010 b8 5e 34 be b5 04 89 3d 68 52 13 bc d5 23 5f 3d
       -0.17614257 0.06690351 -0.008991815 0.05447753
000020 aa ed ef bd 8c 7c 92 bd 2b 27 c3 bd 23 bf 1d bd
       -0.11715253 -0.07152662 -0.09528955 -0.03851236
000030 1e c9 66 3e 46 3a 13 3e c8 de 08 3e 3c 0e e1 3d
       0.22537658 0.14377698 0.13366234 0.10989043
000040 ac ec f2 bd e6 74 27 be 04 2d 0e be 82 50 08 bc
       -0.11861548 -0.16353187 -0.1388436 -0.008319976
000050 7b 20 65 3d d5 49 f6 bd f5 40 94 bc 68 7c 84 3d
       0.05593918 -0.12025801 -0.01809738 0.06469041
000060 45 95 f5 3c 98 d7 35 3e df f9 3b be 64 88 12 3e
       0.029978404 0.17758024 -0.18357037 0.14309841
000070 bc f4 a5 bc f1 8d b4 bd 75 29 9e bd 1b c7 2b bd
       -0.0202583 -0.08816136 -0.07722751 -0.04193793
000080 39 e6 55 3e fc 62 a1 3d 33 7f d4 3b 03 fb 9f 3d
       0.20888604 0.07880208 0.00648489 0.078115486
000090 39 2d 34 be cb 85 49 3e 79 3d d7 bd 57 31 bc bd
       -0.17595376 0.19679944 -0.10509772 -0.09189098
0000a0 27 16 7d bd 65 da a1 bd 09 29 3c 3e cb 6d 6a 3e
       -0.061788704 -0.079029836 0.18375029 0.22893445
0000b0 08 c2 d9 bd b4 ec 2b be 5b 5f be bd c8 16 cb 3e
       -0.10632712 -0.16789514 -0.09295531 0.39665818
0000c0 ba 59 5e 3d 10 49 be bd 7e ba 09 be 7e 16 89 bd
       0.05428479 -0.09291279 -0.13450047 -0.06693743
0000d0 d8 31 89 3e 81 f5 5b 3e 57 3b 0d 3e 51 ac 09 bd
       0.2679584 0.21480371 0.13792168 -0.0336116
0000e0 81 1c 83 be 82 0e 01 3f 60 73 5d bd b1 71 f1 bd
       -0.25607684 0.5041276 -0.05406511 -0.11789263
0000f0 7d ef e2 3d e4 30 96 be e3 fe 10 3e 0d 9b 4d bd
       0.11080835 -0.29334176 0.14159732 -0.050196696
000100 cd 57 be bc 3b 82 3b bd 63 3b df 3d 18 09 09 3e
       -0.023235226 -0.045778494 0.10899999 0.13382375
000110 60 ed 35 b9 61 4b cb bd d8 2e 4b 3d f4 cc 2f be
       -0.00017349934 -0.09926487 0.04960522 -0.17168027
000120 6b dd 20 3d ab 7c d6 bd 05 e2 7c bd 94 af 2a 3d
       0.03927366 -0.10472997 -0.061738987 0.04167135
000130 a9 b5 7e bd ca b3 e2 3d 49 16 02 be f4 54 bb bc
       -0.062184963 0.11069448 -0.12703814 -0.022867657

basis_vecs f4 [3, 768]
000000 99 e4 6e 3c b4 23 b0 3c 4a e4 2c 3b b5 7f 7b 3d
       0.014580869 0.0215014 0.0026381188 0.061401088
000010 fe 7f ec 3c 3b a1 39 bc c6 07 4e bd e7 55 86 bb
       0.028869625 -0.011329944 -0.050300382 -0.004099596
000020 9f 6b 4d 3c 89 9d 6c 3d ee cc 3b 3d 2c 7c 8a 3d
       0.012537866 0.057767425 0.045849733 0.06761965
000030 cc 4e 49 3d 7e fe 2a bd 05 ed 07 bd 3c 45 aa 3c
       0.049147412 -0.04174661 -0.033185024 0.020784967
000040 ac da 6c 3c 1a e0 05 3c 12 02 73 bd 88 23 73 3c
       0.014456432 0.008171106 -0.059328146 0.014840014
000050 16 4f 4e 3c fb 4d d1 bc 0d e4 ab bc c9 af fa 3a
       0.012592098 -0.02554988 -0.020982767 0.0019125874
000060 b2 ce 2a 3d 3b e1 fe 3c ef b5 75 3a b4 54 e9 bc
       0.041701026 0.031113258 0.00093731185 -0.028482772
000070 67 aa e1 bd 7f 61 2d 3d f0 60 39 bd 8b 9c d4 3c
       -0.1101883 0.042329308 -0.045258462 0.025953552
000080 9c 7c 1c bd 16 1f 12 3d 78 8a e4 bb 10 38 1f 3d
       -0.038204774 0.035674177 -0.0069745146 0.038871825
000090 cc 50 75 3c 2a e6 0d 3d f0 22 0c bd d4 19 cb 3c
       0.014972877 0.03464333 -0.034213006 0.02479259
0000a0 4b de da 3c 2d 89 fe 3b f2 06 6a 3d 14 86 26 3c
       0.026717326 0.0077678175 0.05713553 0.010163803
0000b0 f3 03 20 3d a0 61 93 bd d5 bf 12 3d 7c f2 14 3c
       0.039066266 -0.07196355 0.035827477 0.009091016
0000c0 ff 40 ed 3c 00 e3 9c 3c e3 8c cc 3c 9d 84 1b 3c
       0.028961657 0.01915121 0.024969524 0.009492067
0000d0 d9 28 14 3d ec c5 09 3d 46 49 7e bd 42 c6 51 3d
       0.036171768 0.03363602 -0.062081598 0.051214464
0000e0 e9 b8 f6 3b 9d 86 fb 3c 33 28 7a 3d 26 80 28 3d
       0.007529367 0.030703837 0.061073493 0.041137837
0000f0 f5 7d 88 bd cb d6 22 bc 18 a7 11 3c ab 78 e1 3b
       -0.066646494 -0.009938906 0.008889936 0.00688084
000100 5f 74 5a 3d 6d 5b a8 3b 18 58 92 3d cf cd be bd
       0.053333636 0.005137852 0.07145709 -0.093165986
000110 93 17 b7 3b e7 3d 05 3c a1 a2 1f bd a6 f9 d7 3c
       0.005587527 0.008132434 -0.038973454 0.026364159
000120 e4 3c 3e bc f7 cc 92 bc 76 40 bc bc 35 f2 a4 bb
       -0.011611197 -0.01792 -0.022979956 -0.005033756
000130 70 dc 51 bd c7 3d 87 3c 71 54 2b bc 26 42 8a 3c
       -0.051235616 0.01650895 -0.010457144 0.016877245
000140 b7 21 e4 bc 77 f2 11 bb 98 5e 60 3d 1d d7 38 bd
       -0.027848108 -0.0022269764 0.05477771 -0.045127023
000150 fc 63 22 3c 84 ae 82 bd 97 6a ce 3c ae 11 36 3d
       0.009911533 -0.063809425 0.02519731 0.044450454
000160 e1 f7 dc ba 41 4e d6 bc 5c 4b f6 3b 27 fb 12 3d
       -0.0016858542 -0.026160361 0.0075163078 0.03588405
000170 52 da 18 3d a3 f1 e2 bc 45 e7 47 bd 1f 36 56 bd
       0.03731758 -0.027703112 -0.04880454 -0.052297708
000180 e2 64 31 bd 53 d4 e8 bc be 5d 7c bc 85 9a 57 3d
       -0.0433091 -0.028421557 -0.015403209 0.052637596
000190 eb e7 9f 3c 78 d1 7c 3d fe 5d 05 3d 93 3c f9 bc
       0.019519767 0.061723202 0.03256034 -0.030424392
0001a0 05 3d cc bc 40 f4 60 bc 47 d9 99 3d 15 d9 43 3b
       -0.02493144 -0.013730109 0.075121455 0.002988403
0001b0 62 9b 10 bd ea 0a 3d bd 42 7f 9f 3c 17 74 26 bc
       -0.035304435 -0.046152987 0.019469861 -0.010159514
0001c0 28 42 02 bc 50 e9 e4 3c c6 f7 05 3c ba 57 a0 3c
       -0.007950343 0.027943283 0.00817675 0.019573081
0001d0 bb c4 d3 bb e5 d7 06 bd aa af 44 3d c3 c2 b3 3b
       -0.006462661 -0.032920737 0.04801909 0.005485864
0001e0 f7 e2 92 3d 70 c3 ef 3b 51 c3 7e bb 0f 8d a4 ba
       0.07172196 0.007316999 -0.0038873742 -0.0012554246
0001f0 3f b8 49 bd 72 a9 5e bb ab 05 18 bd f5 ef 4d 3d
       -0.049247976 -0.003397551 -0.03711478 0.05027767
000200 09 d7 af bc e5 bd 5c bc d3 54 ac bc fc a2 6b bc
       -0.021464841 -0.013473009 -0.021036541 -0.01438212
000210 b7 8a c7 bd 37 29 60 bd 3f b1 ad bc 43 74 ab 3c
       -0.09743255 -0.054726806 -0.021202682 0.020929461
000220 6f 3d 3c 3d 21 fd 87 bd bc 05 f8 3c b3 5e ca 3b
       0.045957025 -0.066400774 0.030276172 0.00617584
000230 70 66 8b bd 05 c6 8d 3d f9 49 45 3d fb f3 59 bd
       -0.06806648 0.06922535 0.04816625 -0.053211194
000240 12 59 4e 3d f9 e7 65 bd 88 b3 f4 3c ba 07 4c 3d
       0.050377913 -0.05612943 0.029870763 0.049812056
000250 62 75 69 bc cd e1 d5 bc 31 86 37 bd 00 68 92 3c
       -0.014249178 -0.026108647 -0.04480571 0.017871857
000260 fa c2 b2 3c 6c e3 c1 3c 25 5f 3b bd 56 db 49 3a
       0.021821488 0.023668014 -0.045745034 0.0007700225
000270 b8 47 33 3d 6f 2d e4 bc e4 f8 8a 3d c1 6f 57 3a
       0.04376957 -0.027853696 0.06785753 0.0008218252
000280 7a 97 c1 3c 74 8f 29 3d 77 06 c0 3d ff cc 87 3d
       0.0236318 0.041396573 0.09376233 0.06630897
000290 6d 5b bc 3c 51 23 3e 3a c8 60 07 bd 78 33 e0 bc
       0.022992814 0.00072531874 -0.033051282 -0.027368292
0002a0 83 7f c9 3b 61 83 98 3d 03 3f 6a bd b8 a8 5b 3d
       0.006149234 0.074469335 -0.057189 0.0536277
0002b0 88 9c 13 bd 05 a8 f5 3c 11 df f7 bb 02 31 fd 3c
       -0.03603795 0.029987345 -0.0075644334 0.030907158
0002c0 2b 5e 7a bd 3b 10 e2 bc 1d 88 04 3d cd 70 bf 3c
       -0.06112496 -0.02759563 0.03235637 0.023369217
0002d0 d4 e0 32 3d cd 89 51 3c 6c 0a 38 bc f1 22 f6 bc
       0.043671444 0.012789202 -0.0112329535 -0.030045958
0002e0 59 8a 3b 3b d5 b6 02 bd 4f 17 88 3d 2f 37 34 3c
       0.0028616397 -0.031912643 0.06645071 0.010999485
0002f0 a8 82 cf bb dd 9f 6f 3a 79 ed 86 bc f7 00 a8 3c
       -0.006332714 0.0009140948 -0.016470658 0.020508273
000300 99 09 04 3d a7 4d 26 bd ec ca 59 3c 3d ba 44 3c
       0.032235716 -0.0406014 0.013293009 0.012007293
000310 dc 1b 64 3c 80 b4 bf 3d 4b 18 7a 3d a8 28 45 3c
       0.013922658 0.093605995 0.061058324 0.012033619
000320 5b 24 ee bc f4 68 3a bd ed dc 11 bd 58 ec c6 3b
       -0.02907007 -0.045510247 -0.035611082 0.006070655
000330 b4 a7 eb 3d 14 be 4c 3c 7a f8 cc 3d 17 b9 44 3c
       0.11506596 0.01249649 0.10008331 0.0120070195
000340 04 51 1e 3d b2 9c 89 3c 4b f9 b6 3d 4a 85 cd 3a
       0.03865148 0.016798351 0.089342676 0.0015679982
000350 b2 8b e8 bc f9 2a d3 ba 9b 7c dd 3b db d4 e6 bc
       -0.028386924 -0.0016110829 0.006759239 -0.02817767
000360 1f 01 08 3d 6d a0 b1 3d 1a d5 0e bd de e1 4e bd
       0.033204194 0.08673177 -0.0348712 -0.050508372
000370 ce 55 2f bc 63 c5 96 bd 18 05 9c bc 45 9d 87 3d
       -0.01070161 -0.07361867 -0.019045398 0.06621794
000380 de 8f 37 3c d6 fc 5f bb bb b0 a3 bb 8f 55 32 bd
       0.011203734 -0.0034177802 -0.004995433 -0.043538626
000390 af c4 b5 3c 02 c5 06 3d 09 f3 a2 bd d9 42 c6 bc
       0.022188513 0.032902725 -0.079565115 -0.024201797
0003a0 e1 d4 a2 3c 06 55 07 3d d0 0d 0a 3d a3 32 8a bc
       0.0198769 0.03304007 0.03370458 -0.016869849
0003b0 a0 ff 18 bc db 0e 63 3c f2 15 24 bb 7d 8e 22 bd
       -0.0093382895 0.013858522 -0.0025037494 -0.03968667
0003c0 cf ea e7 3b ae 0b 48 bb 0a 9e b2 bb 4a 45 93 3b
       0.007077552 -0.003052454 -0.0054509686 0.004494344
0003d0 7d 9f e8 3c 2d 90 40 bc f4 c4 fc 3c b1 06 17 bd
       0.028396362 -0.011753124 0.030855633 -0.036871616
0003e0 60 c4 ac bc 76 3b 65 3d cb be 1f bc 2c ce 06 3d
       -0.021089733 0.05596491 -0.009750078 0.032911465
0003f0 36 e9 f8 bc 83 1b 08 bb 73 fb 19 bd c0 4d 56 3d
       -0.030384641 -0.0020768351 -0.037593316 0.052320242

basis_comm_weights f4 [1, 5]
000000 e1 b3 86 3e bf 23 ba 3e da 5a 26 3f 22 19 8c 3e
       0.26309112 0.36355397 0.6498238 0.27362925
000010 0a c8 c7 3d
       0.09754951

bias f4 [16, 768]
000000 63 26 3f 3d fb 43 a5 3b f2 2d 9d bd 74 da 36 bc
       0.046667468 0.0050435043 -0.07674779 -0.011160482
000010 01 2f da ba 32 69 e1 3b 17 23 09 bc 60 69 12 3d
       -0.0016646088 0.0068789953 -0.0083701825 0.035745025
000020 44 55 6f bc 26 cc 2c 3d f0 07 fd 3c 32 4f 0e 3d
       -0.014607731 0.04218688 0.030887574 0.034743495
000030 56 ec d9 3c 2f ee 6f bd c1 b6 a7 bc ee 9d 8e bc
       0.026601952 -0.05857676 -0.020472886 -0.017409291
000040 18 e6 ad bc 38 f5 e7 bc 84 1d a1 3a ea fb 66 bb
       -0.021227881 -0.028315172 0.0012292122 -0.0035245367
000050 4c 3c 6f 3d 18 8d 35 3c c7 a9 f9 3c 68 f0 1a 3d
       0.058407113 0.011081003 0.030476464 0.037826926
000060 6d d5 87 3b 15 6a 21 3c 6b 4e 6f bd 61 7e 31 bc
       0.0041453154 0.009851952 -0.058424395 -0.010833354
000070 24 dd 19 bd 94 85 c9 3a a0 7d 6d bc e4 64 a7 bc
       -0.03756441 0.0015374892 -0.014495283 -0.02043385
000080 0c 32 5a bc bc 00 38 bc ab e0 69 bd 17 17 9e bc
       -0.013317596 -0.011230644 -0.057099026 -0.01929812
000090 b6 ee 03 bd 6e a5 00 bd e3 f5 b7 3c 28 85 38 bc
       -0.032210074 -0.031407766 0.022456115 -0.011262216
0000a0 0e a4 a0 3b f7 e4 96 bb 1e 69 0b bd 88 57 07 bd
       0.0049023693 -0.0046049315 -0.034035794 -0.03304246
0000b0 69 c7 84 3c 64 57 83 bc 20 43 20 bc 39 b1 ae 3b
       0.016208367 -0.016032882 -0.009781629 0.005331185
0000c0 4e 3b 03 bc be 28 19 3d e4 e0 04 bb 90 ed 43 bd
       -0.008009745 0.03739237 -0.0020275647 -0.04783398
0000d0 7d ac 01 bc 91 da 9a 3a 4b ec 89 bd 0f 63 4c 3d
       -0.00791466 0.0011814405 -0.067345224 0.049899157
0000e0 8f d8 1a 3d da 1e 7b bd fa 1c 53 3c 6f 8d c6 bc
       0.037804183 -0.06130872 0.0128853265 -0.024237363
0000f0 bf b4 65 bd f4 d3 3f 3d 57 3a e5 bc 6e 05 c7 bc
       -0.056080576 0.046832994 -0.02798192 -0.024294581
000100 35 35 24 3d 34 69 68 bc 4b 6b 5b 3d 6e 92 38 3b
       0.040089805 -0.014185239 0.05356912 0.002816345
000110 80 cb 89 3d ba a5 0e 3d e1 26 f9 bb 72 1c e7 3c
       0.06728268 0.034826018 -0.0076035117 0.028211806
000120 72 eb 8c 3c 48 de d7 3c d2 cb 8f bb b2 a4 83 3d
       0.017202113 0.02635111 -0.004388311 0.064278975
000130 da dd 8b 3d 5e a9 83 3b c4 d2 e1 3c 40 22 f2 bc
       0.06829424 0.004017993 0.027566321 -0.029557347
000140 f6 f1 ef 3c 68 d4 7a 3d 6e 17 d9 3b 06 86 8c bb
       0.02929018 0.061237723 0.0066251075 -0.004288438
000150 4c 7a 86 3c bb 44 87 bc 37 e1 26 bc ab 23 90 3c
       0.016415738 -0.016512265 -0.010185531 0.017595133
000160 c7 29 2a 3b 7a 93 01 3d 7a b6 4d bb 1f 52 03 3d
       0.0025964843 0.031634785 -0.0031389282 0.03206074
000170 25 17 76 3c 31 b5 f8 bc 33 c6 5d bb 7c 34 55 3d
       0.0150201665 -0.030359836 -0.003384006 0.052052006
000180 a5 a9 35 3d 19 dc d8 bc 13 f2 1e bd 1f 6e ff 3b
       0.04435124 -0.026472138 -0.03880508 0.00779511
000190 cd 02 38 3d 8c 2d f9 3c 16 da a3 3b a7 7e 16 3d
       0.044924546 0.030417226 0.005000363 0.03674188
0001a0 61 34 35 bc 0a 1e 59 bd b3 99 6b 3c 13 e1 93 bc
       -0.011059851 -0.053007163 0.0143799065 -0.01805166
0001b0 43 ef 05 bc cf 8b 56 3b 78 6f 90 3a 0c 03 66 3c
       -0.00817472 0.003273714 0.0011019548 0.014038812
0001c0 04 53 59 bd 07 54 53 3c 11 03 80 3c ec 66 40 bd
       -0.053057685 0.012898452 0.015626462 -0.046973154
0001d0 84 8f 88 bc 05 48 d2 bb 1f 5c 3b bd bf bf 8e bd
       -0.016669996 -0.006417277 -0.04574215 -0.069701664
0001e0 ea f5 51 bc 97 1d 1d 3d 5b 07 c0 3c 70 a4 b7 bd
       -0.012814978 0.038358297 0.023441007 -0.08966911
0001f0 78 b5 73 bc 08 3a 39 bc 8b 13 f5 bb c9 55 45 3d
       -0.0148748085 -0.01130534 -0.0074791363 0.048177514
000200 c1 7d 31 3d 78 3f 7b bc 4d 19 d8 bc dc 8c 81 3c
       0.04333282 -0.015334956 -0.026379252 0.015814237
000210 33 4b 20 3b eb b8 a3 bb bd 65 06 3b 9c 0f ad ba
       0.0024458885 -0.004996409 0.0020507418 -0.0013203504
000220 be 0e a1 bb 73 86 ad 3c 19 4c c8 3c 23 6f 88 bc
       -0.0049150875 0.021182274 0.024450349 -0.016654557
000230 0f d9 1e 3a 9b bf 57 3d 6d e0 6c bb 39 c6 dc ba
       0.0006059566 0.052672964 -0.003614451 -0.0016843743
000240 c5 38 20 3c 58 66 cf 3c 34 e8 45 3d eb d3 e2 bb
       0.00977916 0.025317356 0.04831715 -0.0069222352
000250 73 79 38 3d 48 b5 17 3b c2 a4 8a bc b7 af 2c bd
       0.045037698 0.0023148824 -0.016924266 -0.042159762
000260 9c 93 a1 3c d7 0d 81 bb 05 ec 88 3c 84 63 4e 3d
       0.019723706 -0.0039384174 0.016714105 0.050387874
000270 24 6f 89 3d 6b c7 90 bd 58 7c 11 3c 28 df e9 3c
       0.067106515 -0.07069286 0.0088797435 0.028548792
000280 59 43 ee bc 38 73 38 3d dc f1 18 3d 60 e8 55 3d
       -0.029084848 0.045031756 0.03734003 0.052223563
000290 d2 f4 41 3d a4 17 02 bd 77 a5 8e bc 5d 84 41 bd
       0.04735262 -0.031760827 -0.017412884 -0.047245372
0002a0 d2 73 91 bc ed 0a 8e 3d c2 64 94 3d e8 3f 4d 3b
       -0.017755423 0.06935678 0.072457805 0.0031318609
0002b0 a0 42 77 3d 23 45 dd 3c 56 2b b6 bc 16 e4 5c bc
       0.060366273 0.027010506 -0.022237461 -0.013482114
0002c0 e8 66 1e 3c a4 e3 55 3c b3 77 17 bc 80 bf e2 3c
       0.009668089 0.013054762 -0.009244847 0.027679205
0002d0 e9 86 72 3b 14 1e b2 3c 73 be 32 3c e9 67 37 3d
       0.0037006682 0.021742858 0.010909664 0.04477683
0002e0 30 17 06 bc 00 ab 84 3c 18 8e 8d 3c 40 54 29 3d
       -0.008184239 0.01619482 0.01727967 0.041340113
0002f0 4b ea d8 bc 8e 3b 8d bd a2 37 de 3b a5 5f ab bc
       -0.026478907 -0.06896125 0.0067815343 -0.02091963
000300 cc 3b 87 3c 54 f1 52 bd cf ce 14 3d 8c 16 87 3c
       0.016508006 -0.05149968 0.03633004 0.016490243
000310 41 9d 30 3d 44 2a 5d 3b 18 f4 01 bd dd 4a 3d 3c
       0.04311872 0.0033747116 -0.031726927 0.011553493
000320 f1 7a f8 3c e4 ce e2 3c 6c cf 12 bb b2 00 df bb
       0.03033206 0.027686544 -0.0022401465 -0.006805503
000330 cd f8 0b 3d d3 d3 2c 3c a8 47 11 3d 72 ec b7 3b
       0.03417282 0.01054855 0.035468727 0.0056129033
000340 5b 21 fd 3c 8f 31 d6 bb 0e 76 ae 3c cc 01 86 bd
       0.030899694 -0.0065366696 0.021296527 -0.065433115
000350 fe 69 b4 3b f2 88 39 bd fb 47 93 bc b7 7f 3c 3b
       0.0055057993 -0.045296617 -0.017978659 0.0028762647
000360 3a 35 44 bc a8 be ce bc 4f e9 76 3c 23 16 91 bd
       -0.011975581 -0.025237396 0.015070274 -0.070843
000370 fa 4e 37 3c 05 da ac 3b 33 6f cd bc 93 70 61 bc
       0.011188263 0.0052750134 -0.025077438 -0.01375975
000380 9e 78 60 3c 48 86 80 bd 26 33 c4 3c bb de f1 bc
       0.013700632 -0.06275612 0.02395017 -0.029525151
000390 dc 88 a9 3c 5f 25 9f 3b 24 46 51 3d f9 8c 61 bd
       0.020695142 0.00485675 0.051092282 -0.055066083
0003a0 af b8 88 bb 6c 8e 90 3b 45 67 b3 3d 0c 27 0e bd
       -0.0041724066 0.0044115093 0.087599315 -0.034705207
0003b0 35 95 b0 bb 84 e5 68 bc f8 d7 00 3d ee 01 86 3b
       -0.0053888806 -0.014214877 0.031455964 0.0040895855
0003c0 17 79 78 3c 81 33 41 bd 33 ca 05 bc 2e 31 7d bb
       0.015165589 -0.04716826 -0.008165884 -0.003863405
0003d0 63 54 be 3c d3 59 9f bc 7f 5c d7 bc b7 0d 4f 3d
       0.023233598 -0.019452011 -0.026289223 0.05055019
0003e0 7d 0f 1c bc 5d c8 6b bc 9b 16 96 3c 30 e7 25 bd
       -0.009525177 -0.014391032 0.018321326 -0.04050368
0003f0 ed d4 3f 3d df d7 bf 3c f3 38 ee 3c c3 a3 0a 3d
       0.04683392 0.023418365 0.02907989 0.03384758

weight f4 [768]
000000 65 e5 87 3f e2 b0 70 3f 33 f9 93 3f d3 03 70 3f
       1.0616881 0.940199 1.1560425 0.93755835
000010 e7 3d 68 3f 7c 07 6d 3f c0 f6 75 3f b0 d4 6a 3f
       0.90719455 0.92589545 0.96079636 0.91730785
000020 61 38 7b 3f c7 aa 8b 3f 79 d0 8d 3f 6c 94 8c 3f
       0.981329 1.0911492 1.1079246 1.0982795
000030 5d 91 8e 3f fa 95 80 3f 81 b5 83 3f e7 5e 57 3f
       1.1138111 1.0045769 1.0289766 0.84129184
000040 67 a8 5a 3f 68 27 7d 3f 97 c4 7c 3f b0 6d 74 3f
       0.8541321 0.98888254 0.9873747 0.9547987
000050 c5 39 7d 3f ca cf 5e 3f 26 3e 5b 3f d6 ff 56 3f
       0.98916274 0.8703581 0.85641706 0.83984125
000060 f3 d5 7e 3f 88 ac 89 3f af 43 4e 3f d1 40 81 3f
       0.9954521 1.0755777 0.80572027 1.0097905
000070 00 65 8c 3f 70 11 69 3f 28 56 8f 3f db d4 72 3f
       1.0968323 0.9104223 1.1198168 0.9485604
000080 5b 67 80 3f 1b 9a 7c 3f a3 57 7f 3f 46 b6 7e 3f
       1.0031542 0.98672646 0.997431 0.9949688
000090 be 11 55 3f 93 91 69 3f 44 b4 57 3f 79 5c 71 3f
       0.832302 0.91237754 0.8425944 0.9428173
0000a0 f4 d8 70 3f b6 95 61 3f 62 99 6e 3f ef db 61 3f
       0.94081044 0.88119066 0.93202794 0.8822622
0000b0 d8 82 81 3f a0 da 80 3f 70 96 7c 3f 1c 28 7c 3f
       1.0118055 1.0066719 0.9866705 0.984987
0000c0 cb 59 71 3f 11 4a 90 3f 93 d2 6b 3f 42 84 8a 3f
       0.9427764 1.1272603 0.92118186 1.0821612
0000d0 f7 7e 70 3f 14 1e 74 3f 74 92 95 3f cc 88 87 3f
       0.9394373 0.95358396 1.1685319 1.0588622
0000e0 e6 4c 70 3f 4f 92 4f 3f c5 6a 86 3f 14 da 61 3f
       0.9386734 0.81082624 1.0501333 0.88223386
0000f0 67 17 96 3f 4e d4 81 3f e7 03 67 3f 94 aa 80 3f
       1.1725892 1.0142915 0.9024033 1.0052056
000100 ef 01 85 3f 8a 1c 76 3f e3 15 97 3f 1e bc 84 3f
       1.0391215 0.961373 1.1803554 1.0369909
000110 69 94 7a 3f a5 d1 84 3f d4 6b 8b 3f 61 6a 84 3f
       0.97882706 1.0376478 1.0892282 1.0344964
000120 8a b2 7c 3f 39 d5 76 3f 56 5a 84 3f 50 b4 83 3f
       0.9870993 0.964191 1.0340068 1.0289402
000130 42 30 59 3f d3 0c 77 3f b0 c4 6e 3f b8 81 66 3f
       0.8483926 0.96503943 0.9326887 0.90041685
000140 58 ef 74 3f 2f 7d 7e 3f 32 70 81 3f aa 71 74 3f
       0.9567771 0.99409765 1.0112364 0.9548594
000150 65 57 62 3f 02 7e 87 3f f9 2a 59 3f d7 3e 7e 3f
       0.88414603 1.058533 0.84831196 0.99314636
000160 73 2f 75 3f 90 3c 52 3f 55 ab 6c 3f b6 c2 8a 3f
       0.95775527 0.8212366 0.9244893 1.0840671
000170 b0 71 75 3f 6d 03 6a 3f 62 97 7b 3f d9 a1 56 3f
       0.958766 0.9141148 0.98277867 0.8384071
000180 6d 2c 50 3f 18 b4 88 3f 1f fe 74 3f 23 2d 84 3f
       0.8131779 1.067996 0.9570026 1.0326275
000190 88 7f 80 3f 62 5a 78 3f f7 d7 70 3f 97 1d 6d 3f
       1.003892 0.97012913 0.94079536 0.92623276
0001a0 46 63 7c 3f 89 dd 87 3f 95 fb 8a 3f 08 42 82 3f
       0.9858898 1.0614482 1.0858027 1.0176401
0001b0 b7 f4 71 3f f2 8a 76 3f b5 b0 71 3f 30 ce 6f 3f
       0.9451403 0.96305764 0.9441026 0.9367399
0001c0 c6 23 6f 3f 36 cc 7d 3f 15 4d 83 3f 29 d6 6c 3f
       0.9341396 0.99139726 1.0257899 0.9251428
0001d0 f1 84 64 3f 61 08 81 3f 7b 2d 50 3f ce ed 7f 3f
       0.8926535 1.0080682 0.813194 0.99972236
0001e0 ca 13 6d 3f f6 48 76 3f b5 43 6a 3f 2e 93 8e 3f
       0.9260832 0.9620508 0.9150956 1.1138666
0001f0 8e 71 69 3f c5 93 83 3f c6 71 7c 3f d9 1a 8b 3f
       0.91188896 1.0279471 0.98611104 1.0867568
000200 b1 05 5a 3f d4 46 63 3f 2a ec 70 3f 41 a8 7f 3f
       0.85164934 0.8877995 0.9411036 0.9986611
000210 15 97 81 3f f4 f5 85 3f 10 b9 70 3f cf fa 74 3f
       1.0124232 1.0465684 0.9403238 0.95695204
000220 b1 af 6e 3f 42 c1 76 3f 73 99 83 3f 07 25 77 3f
       0.93236834 0.9638864 1.0281204 0.96540874
000230 69 ad 7b 3f 44 69 8e 3f 95 85 63 3f ab 6c 7c 3f
       0.9831148 1.1125875 0.88875705 0.98603314
000240 f6 41 7f 3f 45 0d 73 3f aa b4 83 3f bd f8 82 3f
       0.99710023 0.9494212 1.0289509 1.0232159
000250 6f 87 60 3f 1a 1f 82 3f ba 42 79 3f 25 55 65 3f
       0.87706655 1.0165741 0.9736744 0.89583045
000260 34 8c 7b 3f c1 5c 68 3f 4b 94 6a 3f 54 2a 8f 3f
       0.9826081 0.9076653 0.9163253 1.1184793
000270 9a 50 95 3f e7 8a 93 3f b5 c8 7e 3f 20 0a 84 3f
       1.1665223 1.1526765 0.99525005 1.031559
000280 9a 01 62 3f 8e 22 8a 3f b7 68 8c 3f 48 88 97 3f
       0.88283694 1.0791795 1.0969456 1.1838465
000290 41 91 8a 3f 17 d9 72 3f 7b 01 88 3f 39 bd 93 3f
       1.0825578 0.948625 1.0625452 1.1542121
0002a0 a9 df 75 3f dd 7b 99 3f 42 0c 4c 3f 38 ea 6f 3f
       0.96044403 1.1990925 0.79706204 0.93716764
0002b0 dd ab 4c 3f e9 58 88 3f 9d 19 78 3f 19 40 6f 3f
       0.7994974 1.0652133 0.9691408 0.9345718
0002c0 14 74 82 3f 99 06 6e 3f e6 99 68 3f 08 c8 80 3f
       1.0191674 0.9297882 0.9085983 1.0061045
0002d0 e7 19 79 3f 23 e5 85 3f cb 3b 89 3f a5 36 5b 3f
       0.9730515 1.0460552 1.0721372 0.85630256
0002e0 08 1c 74 3f 9f 62 6a 3f 4c ac 84 3f 9c da 8a 3f
       0.9535527 0.91556734 1.0365081 1.0847964
0002f0 7d fa 82 3f b2 2d 87 3f cf a9 79 3f 33 ed 5f 3f
       1.0232693 1.056082 0.9752473 0.8747131
000300 48 8d 77 3f 07 e7 88 3f dd b1 81 3f ec 58 80 3f
       0.96699953 1.0695504 1.0132405 1.0027137
000310 79 14 66 3f 77 61 83 3f eb 02 5a 3f 0a e7 76 3f
       0.8987499 1.0264119 0.851607 0.9644629
000320 e4 9b 69 3f 80 64 73 3f 00 e1 77 3f 0d c7 6c 3f
       0.91253495 0.95075226 0.968277 0.9249123
000330 e2 e3 85 3f 40 f9 82 3f b0 02 8d 3f 20 ab 82 3f
       1.0460169 1.0232315 1.1016445 1.0208473
000340 36 ab 89 3f a9 a4 66 3f 7b 82 8a 3f 5e 2e 72 3f
       1.0755374 0.90095 1.082107 0.94602
000350 43 48 72 3f 63 15 71 3f fa 42 6e 3f e2 de 76 3f
       0.9464151 0.9417326 0.9307095 0.9643384
000360 f8 f4 74 3f 5c 91 79 3f 55 32 6b 3f 32 89 93 3f
       0.9568629 0.97487426 0.91873676 1.1526244
000370 11 5d 64 3f da 17 7f 3f 67 5c 83 3f e9 23 77 3f
       0.8920451 0.9964577 1.0262574 0.9653917
000380 fa 32 78 3f b4 aa 79 3f 4a 9e 80 3f 9f 13 84 3f
       0.96952784 0.975261 1.0048306 1.0318488
000390 dd 10 7c 3f 44 cf 7d 3f b7 e9 53 3f ce 7a 82 3f
       0.9846323 0.9914439 0.82778496 1.0193727
0003a0 9f 89 81 3f 20 ac 66 3f a8 06 97 3f 58 a9 7c 3f
       1.0120124 0.9010639 1.1798906 0.986959
0003b0 fd 40 80 3f cf bc 6f 3f f3 98 82 3f 35 cb 64 3f
       1.0019833 0.93647474 1.0202926 0.8937257
0003c0 76 cd 5d 3f 2c bc 6f 3f 22 b3 6e 3f ac cc 6d 3f
       0.86641634 0.936465 0.93242085 0.9289043
0003d0 8e d4 7b 3f 9e f0 5f 3f 9d 70 70 3f 45 3b 61 3f
       0.9837121 0.8747653 0.93921834 0.87981063
0003e0 a6 93 7f 3f ee 8a 7f 3f 1f 56 73 3f 9c ad 58 3f
       0.9983467 0.99821365 0.95053285 0.84639907
0003f0 d4 40 5e 3f 75 29 77 3f 70 79 5f 3f 5a 18 83 3f
       0.8681767 0.96547633 0.87294674 1.0241807

bias f4 [768]
000000 75 bc e5 3d e3 71 c0 3b f3 15 2d be 44 4c 19 bc
       0.11217586 0.0058729514 -0.16902904 -0.009356562
000010 d5 fe cc bc cf 91 6b bd 83 5d 5b bd e6 36 d8 3d
       -0.025023857 -0.0575121 -0.053555977 0.10557346
000020 40 6d 2b bd d9 c4 b2 3d 63 89 83 3d e1 b4 cc 3d
       -0.041852236 0.08728952 0.06422689 0.099954374
000030 b2 76 0d 3e 65 86 13 be 22 59 8d bd 7a 0d bf 3b
       0.1381481 -0.14406736 -0.06901766 0.005830464
000040 c0 fb c1 bd 5c b3 37 bc a4 95 7f bb 0d 89 1f bd
       -0.094718456 -0.011212196 -0.0038999105 -0.03894906
000050 e8 00 13 3e ae 1b 58 bd fb 03 05 3e eb d5 97 3d
       0.14355814 -0.052760772 0.129898 0.074138485
000060 ef 8f db 3c 85 e3 a5 3d e0 42 0a be c2 18 55 bd
       0.026802031 0.081000365 -0.13502073 -0.052025564
000070 c2 92 bf bd 3a 59 4f 3a 87 5a b2 bd 70 0c 20 bd
       -0.09354164 0.0007909719 -0.08708673 -0.03907436
000080 2d c4 08 bd c7 14 15 3d 37 be 12 be fc a1 9d bd
       -0.033390213 0.036396768 -0.14330374 -0.07696912
000090 78 a7 be bd 73 ce 81 bd 87 4f 30 3d 1b 2f 30 bd
       -0.09309286 -0.06338205 0.043044593 -0.043013673
0000a0 9e fc 97 3d 9f cd 85 bd 6e 98 42 bd 11 75 43 bd
       0.0742123 -0.0653336 -0.04750865 -0.047719065
0000b0 70 b6 d0 3d 2f 4b 1b bd 99 7b 33 bc 0c f1 40 3c
       0.10191047 -0.037913498 -0.010954761 0.01177622
0000c0 a6 d4 45 bd 0b 9b f5 3d dc 51 33 3d 0c b1 24 be
       -0.0482985 0.11992463 0.04377924 -0.16083163
0000d0 c7 1a d4 3a 23 ea 6d 3c 01 60 3e be ea 03 0b 3e
       0.0016182297 0.014521155 -0.1859131 0.13575712
0000e0 e1 44 4d 3d 5e ce 31 be 9b 5c 7c 3d 61 95 7b bd
       0.050114516 -0.17363879 0.061611753 -0.061421756
0000f0 3f d1 36 be db 63 08 3e 18 e5 c2 bd c9 16 11 bd
       -0.17853259 0.13319342 -0.095163524 -0.03542212
000100 38 3f e3 3d 93 6a c0 bc 9a a0 2c 3e 4f f9 20 bd
       0.110960424 -0.023488319 0.1685814 -0.03930026
000110 50 8a 27 3e 7f fe c1 3d 1a 2e c8 bd 7e de 69 3d
       0.16361356 0.094723694 -0.09774418 0.05709695
000120 fd df 73 3d c6 c9 76 3d 72 68 35 bd 7d cb 27 3e
       0.059539784 0.06025102 -0.04428906 0.16386218
000130 c2 b8 06 3e 5c c4 ca 3b 43 f2 a0 3d 8b 95 0f be
       0.13156417 0.0061879586 0.07858708 -0.1402189
000140 5b 9a 38 3d 4c 45 3d 3e 14 17 25 3d 62 f3 13 bc
       0.04506908 0.18483466 0.040305212 -0.009030195
000150 3b 8b 80 3d 69 e3 58 bd b3 97 bd bc 0f e3 65 3d
       0.06276556 -0.05295125 -0.023143625 0.056124743
000160 cb 7c 28 3d 3d 4b f8 3d 22 e2 15 3b 2d 8e c8 3d
       0.041134637 0.121237256 0.0022870381 0.09792743
000170 33 90 23 3d bf d7 a1 bd 88 cf 45 bc 28 17 d1 3d
       0.03993244 -0.079024784 -0.012073405 0.10209495
000180 aa 73 46 3e 61 58 af bd f6 9b 7d bd a8 bf 90 3d
       0.1938006 -0.08561779 -0.061916314 0.070678055
000190 1e d2 21 3e 54 59 df 3d 24 ff 64 3d 59 b1 7f 3d
       0.1580281 0.1090571 0.055907384 0.06242499
0001a0 f9 f3 f2 3c bc d9 20 be 51 c0 9c 3d 37 c1 8a bd
       0.02965735 -0.15708059 0.07653869 -0.06775134
0001b0 77 d2 1d bd 2d 33 9e 3b ef 63 05 bd 3d b6 f8 ba
       -0.038530793 0.004827878 -0.032566007 -0.001897521
0001c0 03 ac 1d be 4e ba 39 3d b5 75 37 3d a3 ca d0 bd
       -0.15397649 0.04534369 0.04478999 -0.101949
0001d0 e3 21 70 bc b7 be 59 bd df 6c 07 be 14 2c 45 be
       -0.014656517 -0.053160395 -0.13225125 -0.19255096
0001e0 25 a3 a0 bc 7c ac be 3d 81 52 7c 3d ee 55 75 be
       -0.019609043 0.093102425 0.06160212 -0.23958561
0001f0 81 a3 5d bd ff ca 13 3d 91 28 b8 bc e5 05 ef 3d
       -0.054111008 0.036082264 -0.022480281 0.11671046
000200 a7 08 09 3e 81 b8 30 bd 62 74 dd bc 05 e3 9c 3d
       0.13382207 -0.043144707 -0.027033035 0.07660488
000210 df 1c 9e 3c c0 43 97 bd 76 f0 d2 3c b7 96 11 b8
       0.019300876 -0.07385969 0.025749426 -3.4711058e-05
000220 3f c5 d7 3c 2f a2 f9 3c 4f 2f 8e 3d 60 1e dd bc
       0.026339171 0.030472843 0.06942617 -0.026992023
000230 4c c7 30 3b 8b 2f 08 3e b5 e5 04 3d ac cc b0 bc
       0.002697426 0.13299386 0.03244563 -0.02158197
000240 96 d6 b1 3c 73 a2 1a 3d 1b 4b 02 3e 42 1d db 3b
       0.021708768 0.03775258 0.12723963 0.0066868374
000250 0b 22 28 3e 14 96 71 3d e7 98 84 bd ef 67 de bd
       0.16419236 0.058981016 -0.06474476 -0.108596675
000260 be 1b da 3c 7b e6 9b bc 96 68 c8 3b 17 8f 0e 3e
       0.026624557 -0.0190308 0.0061159832 0.13921772
000270 ad 7c 39 3e 31 76 5c be a2 d0 83 bb 79 06 ca 3d
       0.18113966 -0.21529461 -0.0040226737 0.09864516
000280 f0 e2 86 bd 95 6d c8 3d 22 9b c8 3d 6a a8 34 3e
       -0.06586254 0.09786526 0.09795214 0.1764237
000290 80 01 f7 3d 7d 4d ab bd bf 2d c0 bd d6 97 21 be
       0.12060833 -0.08364389 -0.093837254 -0.15780577
0002a0 c0 e5 60 bd 48 1c 5a 3e 14 e6 2c 3e ce 96 53 3c
       -0.054906607 0.21299851 0.16884643 0.012914373
0002b0 9f 3b 54 3e 5b a3 b4 3d 0f ea 75 bd f9 88 25 bd
       0.20725869 0.0882022 -0.06003767 -0.04041383
0002c0 f5 0a d7 bc d6 b8 4e 3d 5c 99 79 bd 4e a4 3e 3d
       -0.026250342 0.050469242 -0.06093727 0.046543412
0002d0 f1 e0 a6 3c 68 3b 61 3d 8a 59 89 3d ba d8 db 3d
       0.020370932 0.054988295 0.06706531 0.10734697
0002e0 1e ce b9 3b b3 f3 94 3d 57 e0 25 3d 23 5c f9 3d
       0.005670323 0.072730444 0.04049715 0.12175777
0002f0 66 d1 8d bd e5 63 46 be b2 b3 14 bb 68 0a d1 bd
       -0.06924705 -0.19374044 -0.0022690115 -0.10207063
000300 1f a4 1d 3d 64 72 fd bd 5d 91 a1 3d 42 ab 0d 3d
       0.038486596 -0.12375334 0.07889054 0.034587152
000310 bd c9 92 3d 6c ce f4 3c fb 8a a0 bd dc d8 86 3d
       0.07167385 0.029883586 -0.078390084 0.065843314
000320 05 33 a1 3d 27 bd 12 3d 9c 62 45 bc 0b 8a 11 bd
       0.07871059 0.03582492 -0.012047436 -0.03553204
000330 ec 36 b7 3d 6c 7a b2 3c 65 7c b1 3d 05 72 1a 3d
       0.089460224 0.02178689 0.086663045 0.037706394
000340 ac 19 e0 3d d3 d2 7b ba fa 2f a4 3d e9 61 34 be
       0.109423965 -0.00096063054 0.08016963 -0.17615475
000350 7d fa 61 bd 3c 38 e0 bd f7 38 b6 bc 80 1e ce 3c
       -0.055170525 -0.10948226 -0.02224396 0.025161028
000360 af 8a 98 bc ef 6a 8e bc fd 9e f6 3c a7 68 4b be
       -0.018620817 -0.017384974 0.030105108 -0.1986414
000370 9c 96 e9 3c bc 79 2e bc f0 eb 90 bd 90 ff 94 3b
       0.028514199 -0.010649141 -0.070762515 0.004547067
000380 60 6c d6 3c d0 f4 26 be c9 dc 2d 3d d4 38 2b bd
       0.026174724 -0.16304326 0.042446885 -0.041802242
000390 dc 76 7d 3d cd 78 5f 3d 71 6e d3 3d 50 c3 e3 bd
       0.06188093 0.054558564 0.103237994 -0.11121237
0003a0 ca d2 56 3b 3e 81 30 bd 5f c8 6a 3e 82 a6 ad bd
       0.0032779449 -0.043092005 0.22927998 -0.084790245
0003b0 81 0d 62 bd b3 8c 63 bd 02 4c d9 3d fa 04 8a 3d
       -0.05518866 -0.055554103 0.106102005 0.067392305
0003c0 37 f3 0c 3d 24 01 11 be e6 4d 5f 3b 99 04 e0 bc
       0.034411635 -0.14160591 0.003407353 -0.027345942
0003d0 c7 72 5d 3c d6 78 d9 bd fb 23 86 bd 74 ac 01 3e
       0.013516135 -0.10618751 -0.065498315 0.12663442
0003e0 fb 68 75 3c 72 0e 38 3a 8d b2 62 3d d0 72 aa bd
       0.014978643 0.00070211955 0.05534606 -0.0832268
0003f0 7e 82 e9 3d 4b 64 8b 3d 40 18 c4 3d 84 6d d6 3d
       0.114018425 0.06806239 0.09574938 0.10470107

weight f4 [768]
000000 f7 61 7f 3f ef 22 8c 3f 97 a1 70 3f 48 6b 6d 3f
       0.9975886 1.0948161 0.93996567 0.92741823
000010 2c 7d 7c 3f 8b 03 7d 3f 25 75 86 3f 92 99 58 3f
       0.986285 0.9883353 1.05045 0.8460933
000020 6b 67 77 3f 80 a9 96 3f 39 59 83 3f e5 0e 8a 3f
       0.9664218 1.1770477 1.0261604 1.0785795
000030 c6 af 6a 3f 14 b2 73 3f 48 72 84 3f e7 1a 64 3f
       0.9167446 0.951936 1.0347376 0.8910355
000040 cb 82 74 3f d9 a5 7e 3f e4 3b 8b 3f ec 15 6e 3f
       0.95512074 0.99471813 1.0877652 0.930022
000050 00 34 95 3f ef 06 70 3f 49 73 68 3f d3 2a 83 3f
       1.1656494 0.9376058 0.9080091 1.0247444
000060 25 1b 94 3f 8e 73 6d 3f 09 7e 63 3f 71 49 82 3f
       1.1570784 0.9275445 0.8886419 1.0178663
000070 a1 af 64 3f 76 57 75 3f c8 b2 8b 3f c9 35 5c 3f
       0.8933049 0.9583658 1.0913935 0.8601957
000080 23 1a 83 3f ad 40 53 3f 3b 59 7d 3f dc 3c 80 3f
       1.0242351 0.8252056 0.9896428 1.0018573
000090 58 de 6e 3f 8e 53 5d 3f 19 2d 82 3f 1c 6e 81 3f
       0.9330802 0.8645562 1.0170013 1.0111728
0000a0 ed 20 83 3f 10 33 73 3f 6e 71 76 3f fc 45 63 3f
       1.0244423 0.9499979 0.9626683 0.8877866
0000b0 ea 27 85 3f c7 21 6b 3f e9 bc 7b 3f 02 af 81 3f
       1.0402806 0.91848415 0.9833513 1.0131533
0000c0 0e f6 6e 3f d2 65 68 3f 73 04 7a 3f a2 2e 8e 3f
       0.933442 0.90780365 0.9766304 1.1107981
0000d0 93 88 85 3f a9 26 88 3f 7f 67 88 3f 29 a3 89 3f
       1.0432304 1.0636798 1.0656585 1.0752918
0000e0 eb 85 81 3f c9 f9 8f 3f dc e8 8e 3f e6 a6 85 3f
       1.0118994 1.1248103 1.1164813 1.0441558
0000f0 02 03 7e 3f ff fc 6f 3f ab 37 85 3f cb 23 81 3f
       0.9922334 0.93745416 1.0407614 1.0089048
000100 9a 76 89 3f b2 b4 82 3f da 6a 6c 3f a3 05 71 3f
       1.0739319 1.0211394 0.9235054 0.94149226
000110 b9 f4 7b 3f 90 91 83 3f bb 62 80 3f 32 62 7b 3f
       0.9842029 1.0278797 1.003013 0.9819671
000120 c7 59 81 3f 8d 8f 57 3f 1b 40 68 3f a8 fb 70 3f
       1.0105523 0.84203416 0.9072282 0.94133997
000130 5c 49 79 3f 3e 28 78 3f 01 2e 8a 3f c7 a5 7a 3f
       0.9737756 0.96936405 1.0795289 0.97909206
000140 f5 b3 89 3f 1f 16 7d 3f 55 73 7b 3f 06 82 4e 3f
       1.0758044 0.9886188 0.9822286 0.8066715
000150 ea 3a 81 3f 85 38 8a 3f 4f 90 87 3f 71 97 6d 3f
       1.0096104 1.0798498 1.0590914 0.92809206
000160 3d ba 81 3f 6e 78 7d 3f d6 8a 77 3f 2f db 6b 3f
       1.013496 0.99011886 0.9669622 0.9213132
000170 60 a4 87 3f 3c 02 90 3f c9 ac 81 3f 2a e1 85 3f
       1.0597038 1.1250682 1.0130855 1.045934
000180 a1 68 6e 3f 8e e2 6a 3f 6a 04 86 3f ff a7 8a 3f
       0.931284 0.91751945 1.0470097 1.0832518
000190 71 05 81 3f 99 6c 7e 3f 4b f8 7e 3f 27 37 94 3f
       1.0079786 0.99384457 0.99597615 1.1579331
0001a0 47 c1 81 3f 89 df 89 3f a6 eb 4d 3f 0f 2a 84 3f
       1.0137109 1.0771343 0.80437696 1.0325335
0001b0 fb 63 88 3f 02 a8 7d 3f 46 37 83 3f 83 c5 87 3f
       1.0655512 0.99084485 1.0251243 1.0607151
0001c0 25 3f 80 3f 64 32 6c 3f 76 47 8f 3f 4d 78 82 3f
       1.001927 0.9226439 1.1193683 1.0192963
0001d0 6e 8a 80 3f 8e da 81 3f 5f 46 78 3f 8e 9f 76 3f
       1.0042245 1.0144823 0.9698238 0.9633721
0001e0 95 0a 7a 3f f1 ee 6f 3f a4 03 68 3f e8 fc 78 3f
       0.97672397 0.9372397 0.90630555 0.97260904
0001f0 d6 8f 5d 3f 40 ad 94 3f f4 fe 92 3f d5 6e 66 3f
       0.865476 1.1615372 1.1484056 0.90012866
000200 50 9f 82 3f 78 ea 6f 3f 7c b3 7c 3f 46 e3 5e 3f
       1.0204868 0.93717146 0.9871137 0.8706554
000210 9c a6 76 3f c9 01 84 3f a5 6c 7c 3f 3f 10 80 3f
       0.96347976 1.0313045 0.9860328 1.0004958
000220 c5 7c 84 3f 0c 7d 7c 3f 25 dd 6d 3f 1a e1 63 3f
       1.0350577 0.98628306 0.92915565 0.8901535
000230 d8 c8 84 3f 7b b8 71 3f de ce 77 3f b6 4c 85 3f
       1.0373793 0.9442212 0.9680003 1.0414035
000240 6f 02 8c 3f cb b8 86 3f e4 65 73 3f 14 d8 74 3f
       1.0938243 1.0525144 0.9507735 0.9564221
000250 66 de 82 3f a5 9f 71 3f 84 1b 74 3f cf 71 73 3f
       1.0224121 0.94384223 0.95354486 0.95095533
000260 ad 9c 7b 3f 08 83 88 3f 74 6b 6e 3f 23 76 89 3f
       0.98285943 1.0664988 0.9313271 1.0739177
000270 d6 20 80 3f 1b 4c 82 3f 42 ee 77 3f e9 f4 80 3f
       1.0010021 1.0179476 0.9684793 1.0074741
000280 f9 1e 59 3f 62 e6 8f 3f c0 ac 7b 3f 04 ee 5e 3f
       0.84812886 1.1242182 0.9831047 0.87081933
000290 d9 df 8b 3f 16 1c 84 3f 5c 45 7b 3f fa 1c 51 3f
       1.0927688 1.0321071 0.9815271 0.8168484
0002a0 8b 32 74 3f 77 ca 8a 3f 05 0a 41 3f ff e2 62 3f
       0.9538962 1.0843037 0.75405914 0.8862762
0002b0 f8 83 82 3f 12 ee 89 3f fb 79 7b 3f c0 be 62 3f
       1.0196524 1.0775778 0.98233 0.8857231
0002c0 6e 44 84 3f 82 da 7a 3f 37 8a 67 3f 46 e7 88 3f
       1.0333383 0.97989666 0.90445274 1.0695579
0002d0 9b 81 84 3f dc fa 60 3f b8 b9 7a 3f 81 ab 87 3f
       1.0352052 0.8788278 0.97939634 1.0599214
0002e0 a5 93 87 3f 8e 58 85 3f 85 40 8e 3f 19 f4 84 3f
       1.0591933 1.041765 1.111344 1.0386993
0002f0 60 7e 76 3f 6a 6f 7f 3f c9 3a 67 3f 9b 00 72 3f
       0.9628658 0.9977938 0.90324074 0.94532174
000300 54 f7 66 3f 4f 46 71 3f 95 f1 88 3f 9a 1e 69 3f
       0.9022114 0.9424791 1.0698725 0.9106232
000310 d9 d1 75 3f 7f 23 81 3f c8 aa 86 3f e6 b0 6d 3f
       0.9602333 1.0088958 1.0520868 0.9284805
000320 0b 3c 79 3f 32 a9 7c 3f e4 93 84 3f 60 a3 86 3f
       0.97357243 0.9869567 1.0357633 1.0518608
000330 b5 1a 80 3f 6f 12 59 3f 36 27 45 3f 97 ae 60 3f
       1.000815 0.8479375 0.77012956 0.877664
000340 a9 b0 87 3f aa f6 7e 3f ce 8b 32 3f 03 70 93 3f
       1.0600787 0.9959513 0.69744575 1.1518558
000350 b3 f6 71 3f f3 52 84 3f 00 52 89 3f 3c 33 72 3f
       0.9451706 1.0337814 1.072815 0.9460943
000360 00 ca 82 3f 50 f8 8c 3f b5 02 80 3f cc 65 85 3f
       1.0217896 1.1013279 1.0000826 1.0421691
000370 38 b3 61 3f 67 8f 7d 3f 0c 04 79 3f 56 47 8c 3f
       0.8816409 0.9904694 0.972718 1.095927
000380 d8 80 87 3f 33 7d 82 3f fc 8d 80 3f a6 f5 71 3f
       1.0586195 1.0194458 1.004333 0.94515455
000390 fe 46 76 3f 9c 6e 72 3f 54 6b 70 3f 39 45 70 3f
       0.96202075 0.94700027 0.9391377 0.93855625
0003a0 77 18 79 3f b5 93 79 3f a8 14 70 3f 7e 10 7a 3f
       0.97302955 0.9749101 0.9378152 0.97681415
0003b0 e8 b2 8c 3f ab b9 80 3f 21 95 77 3f 8d e8 6f 3f
       1.0992098 1.0056661 0.9671193 0.9371422
0003c0 ef de 7f 3f 3e 4f 70 3f be 9d 7f 3f 38 18 85 3f
       0.99949545 0.93870914 0.9985007 1.0398016
0003d0 6a 9f 57 3f c5 fc 71 3f 3b 9b 7e 3f f6 6c 74 3f
       0.8422762 0.9452632 0.9945561 0.9547876
0003e0 d7 70 6f 3f 17 3b 7b 3f e0 03 78 3f ec a7 56 3f
       0.93531555 0.9813704 0.9688091 0.8384998
0003f0 9e e0 84 3f c4 c1 83 3f a5 d0 78 3f 58 b8 7b 3f
       1.0381048 1.0293508 0.97193366 0.9832816
