ablations/ada-nodelta/keanureeves2023-05-24T18-33-43_keanureeves-ada/embeddings_gs-4500.pt (torch, 921583 bytes, 168 tensors)

pre_vecs f4 [2, 768]
000000 dd a7 a4 3b 3b d3 59 3c 4e a0 20 39 57 f1 79 bc
       0.0050248937 0.01329499 0.00015318507 -0.015255294
000010 ab 96 95 3b 55 c4 b7 3c dd 29 d2 bc b3 ae 3b bc
       0.00456508 0.022432486 -0.025654728 -0.011455226
000020 98 f4 35 bc d4 00 42 3b 1e 77 af 3c a5 45 b3 ba
       -0.011105679 0.0029602544 0.021419104 -0.0013677372
000030 c5 9e 8d 3b ff d9 36 bb 32 f8 ff bb 95 6b d3 3a
       0.0043219053 -0.0027900932 -0.0078115696 0.0016130084
000040 2c 7c 90 bc 13 3c 07 3c 03 0f 91 ba 8c ff 8a 3c
       -0.017637335 0.008254069 -0.0011067096 0.016967557
000050 70 b9 69 bc f1 24 2d bb 79 e9 2b 3c d5 af 56 bc
       -0.014265403 -0.0026419724 0.010492676 -0.013103445
000060 2f 03 4b 3c 2c ee 52 bb ac 9c 34 bc da bf ab 3a
       0.012390896 -0.0032185419 -0.011023682 0.0013103441
000070 d0 1a 57 3c 19 3b 1f 3d 8d 80 84 3c 92 5a f9 3c
       0.013128951 0.03887472 0.016174579 0.030438695
000080 4f ed 17 bb c1 45 cb 3b a2 81 56 ba 38 23 e3 3c
       -0.0023182218 0.0062033837 -0.0008182769 0.027726755
000090 0a b8 3a bc 42 c1 51 3c ad 09 a6 bc 1e 13 6e 3c
       -0.011396417 0.012802424 -0.020268286 0.014530925
0000a0 6a aa 84 3b a3 d0 9e 3c 74 38 e2 36 49 8e 06 3c
       0.0040486353 0.019386595 6.741897e-06 0.008212634
0000b0 06 6f be 3a 5d b4 44 3b 93 e7 9d 3b cc 11 22 3c
       0.0014528937 0.0030014731 0.0048188656 0.009891938
0000c0 13 ad 9e bc 6e 21 46 3b 5c a3 97 3b 1e 2d cb ba
       -0.019369638 0.0030232328 0.0046276283 -0.0015501117
0000d0 b3 e6 d1 3b b9 74 3b ba f6 d3 a2 bc c4 cd bc bc
       0.0064056753 -0.0007150877 -0.019876461 -0.023047335
0000e0 cc fe 7c 38 66 d8 5b 3c 9f c6 c8 3c 75 5e 46 bc
       6.031878e-05 0.013418293 0.024508772 -0.012107481
0000f0 0e a2 84 ba 62 a9 9f 3c a0 91 8c bc 95 21 f3 b9
       -0.0010119097 0.019489948 -0.017159283 -0.00046373592
000100 31 54 09 bc 61 93 41 3c 85 4f f4 3c c6 0d 64 3b
       -0.008381889 0.011814923 0.029823074 0.0034798249
000110 aa 2c 38 bd 15 95 f4 bb e3 e9 b3 bc ab ab fa 3b
       -0.04496447 -0.007464061 -0.021962112 0.007649859
000120 55 ad d5 bb 6f ab a5 3c f0 9f f4 bb 97 25 10 3c
       -0.006520907 0.020223347 -0.007465355 0.008798025
000130 20 e3 33 bc 1a ef d6 3b 7d f5 04 bd 0b 82 09 bc
       -0.010979444 0.006559265 -0.03246068 -0.008392821
000140 11 08 79 3c d4 b0 12 3b e3 11 96 3c 81 f4 02 bc
       0.015199677 0.002238323 0.018319076 -0.007992865
000150 4f 87 72 bb 31 fe 37 bc c2 74 fa 3c 14 2d fb 3b
       -0.003700692 -0.011230038 0.030573253 0.007665286
000160 1b 48 86 bb 4b b8 20 bc 3e 46 e9 bc 8e 7e fe 3b
       -0.004097951 -0.009809564 -0.028475877 0.0077665513
000170 dd a8 85 bc dc 4e 59 bc 24 1f 8c bc ad 49 59 3c
       -0.016315872 -0.01326343 -0.017104693 0.013262195
000180 86 54 23 3c 34 70 4f bc de 60 9a bb 24 73 d8 bb
       0.009968882 -0.012661029 -0.0047112545 -0.0066055227
000190 68 42 9c 3b a2 a7 df bc 6c 60 5b 3c a9 8d 54 bc
       0.0047686584 -0.027301613 0.013389688 -0.012973228
0001a0 70 59 a2 ba eb b2 a0 bc 22 cc 2d bc cb 54 fd ba
       -0.0012386274 -0.019616565 -0.010607751 -0.0019327638
0001b0 52 c7 df 3b 26 0e c0 bc 6b 09 85 bc 31 60 bd bc
       0.0068291808 -0.023444247 -0.016239842 -0.023117157
0001c0 4f 0e b4 bc a0 7a 06 3b 4f 4e a9 3c 2a 26 0b 3a
       -0.02197948 0.0020519868 0.020667223 0.0005308116
0001d0 c6 32 52 bb c9 ca 8f 3b c0 ef ae ba 49 ff a4 bc
       -0.003207372 0.0043881875 -0.0013346598 -0.02014126
0001e0 48 5a ba bc 24 d5 48 3c 24 bb 0c bb 47 43 84 b9
       -0.022748128 0.012257848 -0.002147385 -0.00025227127
0001f0 68 ba 93 ba a5 de 37 bb a5 1c 85 3c b7 34 a0 3c
       -0.0011270763 -0.002805629 0.01624901 0.019556386
000200 fa 63 a5 bc 2c c1 6b 3c f8 7b 24 3c e1 ee fd bb
       -0.020189274 0.0143893175 0.010039322 -0.007749424
000210 2b b5 e5 3c f7 cb ce 3b 69 84 64 3c dd 60 5d 3b
       0.02804049 0.0063109356 0.013947585 0.003377966
000220 8b f5 0e bd 79 49 a5 bc df 36 11 3c c9 7d 8c 3b
       -0.034902137 -0.020176636 0.00886318 0.0042874557
000230 68 20 01 bd 6a ef 0f 3c 81 53 14 bc 92 dc 1f bb
       -0.031525046 0.008785108 -0.009053112 -0.0024392945
000240 4e 36 40 3c e0 d1 13 b9 4c da e9 3b 18 b2 58 3c
       0.011731697 -0.00014097197 0.0071366187 0.013226055
000250 1a cd dc 3c fa 0e db 3b f1 f6 fe bb 8d cd 6e 3b
       0.026953269 0.006685135 -0.0077809026 0.0036438436
000260 65 9a 23 bc 9c 4b 66 bb 91 10 4a 3c 00 23 e2 3b
       -0.009985541 -0.0035140282 0.012333051 0.006901145
000270 90 07 d7 3b 64 f3 b3 bc c5 49 06 3d 15 b9 34 bc
       0.006562181 -0.021966644 0.032785196 -0.011030455
000280 9e 0e 65 3c 3d 20 bb bb 5c 07 d4 ba 46 b3 ae bb
       0.013980536 -0.00571063 -0.001617651 -0.0053314297
000290 4e ca 6d bc 98 ad 13 3c 57 8e 8f 3a d6 46 48 bb
       -0.014513565 0.009013556 0.0010952455 -0.00305598
0002a0 19 12 9d bc b9 3d e7 3b 3d 89 89 3c 74 a3 a8 3c
       -0.019173669 0.0070569185 0.016789073 0.020585753
0002b0 ba 4c 25 bb ab 28 c5 3b 03 cc 85 bb 5f 32 64 3c
       -0.0025222735 0.006016811 -0.004083158 0.013928025
0002c0 bb b9 85 bb ea 7d aa 3c 2b 07 0f 3d 11 7b 07 3d
       -0.0040809787 0.020811994 0.034918945 0.03307635
0002d0 e1 c9 3e bb 58 f5 2c bb ed 26 53 bc 35 28 4c bc
       -0.0029112028 -0.0026391353 -0.012887699 -0.012460758
0002e0 19 1e 65 bc 3f f6 e0 bc 1f 69 bd bb 45 68 96 bc
       -0.013984227 -0.02746117 -0.0057803537 -0.018360266
0002f0 d3 4c bc bc 7d 09 bf 3c 53 49 24 bc 29 3d 76 3c
       -0.022985851 0.023319954 -0.0100272475 0.01502923
000300 08 fd 1a bc 46 be 47 3c ff 94 64 3c 82 a9 60 3c
       -0.009459741 0.012191361 0.013951539 0.013712289
000310 78 d7 4c 3d 01 d8 67 bc 39 93 15 bb 84 d1 e5 bb
       0.050010175 -0.01415062 -0.0022823347 -0.0070135016
000320 96 70 d7 bb 1a f3 17 3b 67 6f 7f bc f2 58 a7 bb
       -0.0065747006 0.0023185671 -0.015590525 -0.0051070387
000330 ac d8 81 ba 35 86 9b 3c 41 5c f4 3b f5 a5 b9 3b
       -0.0009906492 0.018984893 0.0074572866 0.0056655356
000340 9a fa 81 3b c8 9a ac 3a 46 86 05 3d 46 79 15 3c
       0.0039666416 0.0013168687 0.032598756 0.009123152
000350 70 95 a5 b9 ff bc 14 bc c1 27 08 bc ba 40 ea 3c
       -0.00031582592 -0.009078263 -0.008310259 0.028595317
000360 af 0c 8e 3b 30 3c 43 3c da ee fe 3c 2d 68 ee bc
       0.004335008 0.011916205 0.031119753 -0.02910241
000370 39 4a 8c 3b e7 7e f1 bb 53 7e b3 bc 82 53 99 bc
       0.004281309 -0.0073698643 -0.021910822 -0.018716577
000380 96 dd b6 3b ba 05 68 bc e5 66 2c 3c a4 14 d3 3c
       0.0055806143 -0.014161522 0.010522579 0.025766678
000390 1e 9d 49 3c f1 54 73 bc ae 59 2f bc b7 f8 cf bb
       0.012305526 -0.014851795 -0.010702534 -0.006346788
0003a0 c2 dd 31 bc ea 06 8c 3b 2a 49 9c 3a 46 ef 73 ba
       -0.010856094 0.004273285 0.001192366 -0.0009305369
0003b0 84 28 e8 3c 30 10 9a b9 97 4f 8c 3c cf c2 09 bb
       0.028339632 -0.0002938523 0.017127795 -0.0021020656
0003c0 0c 56 28 ba 55 23 05 3c 40 b4 a6 3c 4e 22 a0 bc
       -0.00064215134 0.0081261 0.020349622 -0.019547608
0003d0 89 3e 2a bc 39 0e 39 3b 17 9b c6 bc 39 cd 94 3c
       -0.010390886 0.0028237237 -0.024243874 0.018164264
0003e0 ad d0 87 bc 91 c9 4a 3c 95 46 1d bd b0 9b c3 bb
       -0.016578997 0.012377159 -0.03839739 -0.005969487
0003f0 4e 6e 8e bb 9f ef b8 bc b4 4e 8e bb 25 0c bc 3b
       -0.0043466454 -0.022575198 -0.0043428782 0.0057387524

basis_rand_weights f4 [16, 5]
000000 d2 e5 84 bc 32 23 5c 3c bb 7b ec bc 6b f0 82 3e
       -0.016222868 0.013436126 -0.028867593 0.2557405
000010 6a 56 52 bd f1 7e 51 3d 39 b2 6b bd 34 84 3c be
       -0.051351942 0.05114645 -0.057543013 -0.18409806
000020 6e 1f 84 bd 4d 1a f8 3d e4 c6 03 bd af 16 3b 3d
       -0.06451307 0.121143915 -0.0321721 0.04567593
000030 58 16 19 bd 6b ef a3 3d 0b be 78 bc 6a 09 a0 bd
       -0.037374824 0.0800465 -0.0151820285 -0.078142956
000040 79 1c 08 bc bb 90 63 bc 3f 50 2b bd 92 b1 a0 3d
       -0.00830757 -0.013889487 -0.041824576 0.07846369
000050 a1 6d 17 bd c3 e8 be bd 6e 22 5c bd 86 ec 18 3e
       -0.036969785 -0.093217395 -0.053743772 0.14933977
000060 7b 98 b5 bd 82 8e 26 3b e8 58 6a bd 03 fa a6 3c
       -0.08866974 0.002541453 -0.057213694 0.020382887
000070 40 17 13 bb fb 4b 55 bc b0 f3 f4 3d 46 09 1f be
       -0.0022444278 -0.013018603 0.11960542 -0.15530881
000080 5a cd 06 be 0c 0c 9f bb b6 d2 82 bd 74 bc 5b 3d
       -0.13164273 -0.004853731 -0.06387846 0.05364652
000090 03 4d 1c be 7e 09 3e be a6 29 ac 3d 13 a2 64 bb
       -0.15263753 -0.18558308 0.08406381 -0.0034886643
0000a0 ec 83 05 be 42 78 c0 bd 1a c0 57 3e f1 78 f6 3e
       -0.13038605 -0.09397937 0.21069375 0.48139146
0000b0 93 3b 14 bd 9e aa 45 be 5b ed a7 bd 5a d3 29 3e
       -0.036189627 -0.19303367 -0.08199569 0.1658453
0000c0 a1 b1 bf 3e ae 04 24 3b b8 e5 43 bd 6f 4a 0c 3c
       0.37440208 0.0025027203 -0.0478265 0.008562668
0000d0 b7 5f cf 3d 50 b3 7b 3e 44 9c 20 be fe 3f 0f be
       0.10125678 0.24580121 -0.1568461 -0.13989255
0000e0 a1 95 3b bd 20 b7 96 be b4 cf 83 3e fb a1 be 3d
       -0.045796994 -0.29436588 0.25744402 0.09308239
0000f0 f3 ec 95 bd 5d e4 24 bc f7 9b 1f 3d 28 9a d5 3e
       -0.07320585 -0.010064212 0.0389671 0.41719174
000100 ec c6 05 bd d5 97 85 bc b5 1a 92 bd f9 5f 18 be
       -0.03266041 -0.01630775 -0.07134 -0.1488036
000110 18 87 d4 3d f0 66 50 bd a9 c9 39 bd 69 f5 f7 3c
       0.103773296 -0.05087942 -0.045358334 0.030268388
000120 62 2c 8a be a9 20 35 bd 57 e3 78 be 18 44 db 3c
       -0.26986986 -0.0442206 -0.24305473 0.026765868
000130 e5 3c 66 bc 7d 43 1a 3c 5a 54 b2 3e 9b 1f c3 3c
       -0.014052604 0.0094155045 0.3482998 0.023818782

basis_vecs f4 [3, 768]
000000 1d fc fb 3c 9c c4 30 bc f6 ea f8 ba d2 f3 4a bb
       0.030759865 -0.010789063 -0.0018990922 -0.0030968082
000010 ce 71 d7 3b 0e 98 36 3c ff 21 a5 bb b7 5f 90 bc
       0.006574846 0.011144651 -0.005039453 -0.017623765
000020 12 ee 89 bc d7 49 23 3b fc 9c 3a 3c 54 97 6f 3c
       -0.016837154 0.0024915838 0.011389967 0.014623482
000030 03 33 9d bc 0c 60 c3 3c b5 1c 61 3b 34 1a b2 3b
       -0.019189363 0.02384951 0.0034349386 0.0054352526
000040 f9 1b 08 3c 5a c0 c1 bc 13 d3 9a bc 04 48 03 3c
       0.00830745 -0.02365129 -0.018899476 0.008012775
000050 12 6f 57 bc 9d 71 4b 3b 06 c5 1b bc 30 eb 35 bb
       -0.01314904 0.003104306 -0.009507423 -0.002775859
000060 fc 98 a2 3c 0d f8 c9 bb 13 2a 18 bb a4 1b 22 bb
       0.01984834 -0.006163603 -0.0023218438 -0.0024735713
000070 df c6 0b bd bb 8f 21 3b 73 bb 9a bc b4 cb 15 3c
       -0.034125205 0.002465232 -0.01888821 0.009142805
000080 74 92 31 3c af e0 d5 3c cd 09 ab bc 1b 5c 44 3d
       0.01083814 0.026108114 -0.020878697 0.0479394
000090 f5 61 a1 3b 28 1f 9d 3b 22 06 43 bc 99 27 9b 39
       0.0049250075 0.004794974 -0.011903318 0.00029593406
0000a0 c3 be 5b bb 13 6a 5b bc f5 93 90 3c 47 09 48 bc
       -0.003353045 -0.013391989 0.017648676 -0.012209243
0000b0 44 a1 4b 3c e0 76 99 bb ca c8 36 3c be f7 bd ba
       0.012428585 -0.0046833605 0.01115627 -0.0014493389
0000c0 da 0b a5 bb 11 5e 97 3c 7e 01 d6 bc c7 eb 24 3c
       -0.005036813 0.018477472 -0.026123758 0.010065979
0000d0 d5 49 56 bc 5a 55 34 3b 9d 0c 0b bd cd 69 8c bc
       -0.013079126 0.0027516694 -0.033947576 -0.017140293
0000e0 56 4e 89 bc ae 2d f0 bb 05 92 6d 3b ea 13 a1 3c
       -0.016760986 -0.007329664 0.0036250365 0.019662816
0000f0 85 83 5e bb 0a b0 01 3b 2f 19 88 bb 4a 17 ab bc
       -0.0033952903 0.0019788765 -0.0041533927 -0.020885129
000100 d4 d4 c2 3c c7 8c 8e bc 24 a8 ff 3b 3c 44 78 bc
       0.023783125 -0.017401112 0.0078020263 -0.015152987
000110 08 7d a1 3b 9d 19 67 bb 6d 10 4e b9 af fc 84 bc
       0.004928235 -0.003526307 -0.0001965181 -0.01623377
000120 bb e5 41 3c b5 e9 da 3c b3 2c 32 3c fa c5 04 3d
       0.011834557 0.026722768 0.010874915 0.032415368
000130 70 69 b8 bb e6 ee 49 3c d0 75 92 bc 5a 69 33 3d
       -0.0056278035 0.012325024 -0.017878443 0.043801643
000140 32 a8 aa 3c 49 ee fb bc d8 13 28 3c 39 b6 4c bd
       0.020832155 -0.030753272 0.010258637 -0.04997847
000150 89 91 17 3d 2f 13 0c bc 54 37 1e 3b e2 5c d7 3c
       0.037004028 -0.008549496 0.0024141865 0.026289407
000160 be 65 d8 3c b6 c3 4b bc c7 3a 0e bd 6d 6b de 3a
       0.026415702 -0.012436798 -0.034724023 0.0016969271
000170 bf 5d 43 bc 77 cc cf bb 51 28 62 3c ed 20 0e bd
       -0.011924206 -0.006341513 0.0138035575 -0.03469937
000180 8b 7e 61 bc d8 ff d7 ba 1f 91 bc 3c 80 f3 2a 3c
       -0.01376308 -0.0016479446 0.023018418 0.0104340315
000190 26 f0 25 3c 13 91 d9 3c d8 c2 2c 3c 97 ed b4 bc
       0.010128057 0.026558435 0.010544501 -0.022085948
0001a0 c9 3b 19 3b 53 a0 42 bb f3 c5 4d 3c 8f 68 ee bc
       0.0023381582 -0.0029697611 0.012559402 -0.029102592
0001b0 17 33 79 bc b9 41 b0 3b 39 4d d1 ba f0 8a ae bc
       -0.015209935 0.0053789285 -0.0015968449 -0.021306485
0001c0 f6 6d 27 3c 81 d4 ea bc cb 94 ae bb e4 34 13 bd
       0.010219088 -0.028665783 -0.005327796 -0.035939112
0001d0 4e 77 82 3c b9 8c 34 3c 81 52 bd b9 5a 46 f9 bb
       0.01592603 0.011019879 -0.0003611036 -0.0076072635
0001e0 61 ff 55 3c a7 24 b7 bc f1 1a de bc cb 07 6a 3b
       0.013061375 -0.022356344 -0.027112456 0.0035710211
0001f0 82 6d 10 3a af c7 88 bc 40 93 d1 bc 9d 8b 37 3c
       0.0005509482 -0.016696779 -0.02558291 0.01120272
000200 ed 22 14 bc b6 82 98 bc 43 d8 3f 3c 44 29 88 bc
       -0.00904153 -0.018617015 0.011709276 -0.01662124
000210 dc 2b 0f bc 97 33 75 3c 54 84 a3 39 8c 69 cc 3b
       -0.008738484 0.014965913 0.00031188375 0.006238168
000220 5a 23 78 bc b7 53 c3 bc a7 cc 15 3c 1a b4 b9 3b
       -0.015145147 -0.02384363 0.009143031 0.0056672217
000230 2b 44 97 bc 17 bc 11 3d e7 21 59 3c 0e 53 26 3c
       -0.018465122 0.035579767 0.013252712 0.010151638
000240 c2 98 90 3c 1f 97 bf bc f7 ca 40 3c a1 eb 49 3c
       0.017650966 -0.02338749 0.011767141 0.012324245
000250 bd 95 58 3b 87 5a a7 3a 01 8f 8f bc b1 eb 3b 3b
       0.0033048235 0.0012768068 -0.017524244 0.0028674419
000260 ff 74 58 bc 75 46 5e ba 2d a6 e4 3c 2d 13 74 3b
       -0.013211488 -0.0008479127 0.02791127 0.0037242875
000270 18 8b e7 3b 68 5c 22 bc 1c 16 06 3d 93 fe 92 3c
       0.007066142 -0.009909727 0.03273593 0.017943656
000280 5e 18 18 bb 5b 53 61 bc a2 a2 8a 3c 98 aa dc 3c
       -0.0023207883 -0.013752784 0.016923252 0.026936814
000290 44 19 2b 3c a1 ff 8f 3b 5d eb 46 bc 84 aa 7e ba
       0.0104430355 0.004394487 -0.012141076 -0.000971474
0002a0 4d f4 c0 3c ab 65 f1 bb e2 ee f6 bb 73 4b b3 3c
       0.023553992 -0.007366856 -0.0075358013 0.021886563
0002b0 c2 87 7b 3c 04 24 31 3d 2b d3 3d bc c5 e4 b5 3c
       0.015352191 0.043247238 -0.011585991 0.022203812
0002c0 42 d3 62 bc 6f 05 70 bb d6 b7 4b 3c 47 eb 35 3d
       -0.013844313 -0.0036624332 0.012433967 0.04441383
0002d0 d3 49 18 3c 97 e4 c2 3c 29 64 26 bb 32 2b 54 bc
       0.009294945 0.02379064 -0.002538929 -0.012949752
0002e0 ff 24 e1 3c a3 86 08 bc cb d1 8c bb c2 c2 94 bc
       0.027483461 -0.008332881 -0.00429747 -0.018159274
0002f0 0f 94 b6 bc 82 4c 35 bc 2c 68 4b bd 57 e9 af bb
       -0.022287397 -0.011065604 -0.049659893 -0.0053683924
000300 ba b8 bf ba 71 08 b4 bb fc fd 85 bc 0e a3 dd bb
       -0.0014627196 -0.0054941704 -0.01635646 -0.0067638224
000310 e4 e0 d2 3c df 4b af 3c a3 0e ba 3d ab 46 c3 3c
       0.025742002 0.021398483 0.09084823 0.023837408
000320 a9 dc fd 3b 3d 74 c6 bc f6 c8 0e bc 73 ad f4 bc
       0.007747252 -0.024225349 -0.008714905 -0.029867863
000330 4f 7a a2 bb 5c 61 b3 3b 28 b7 21 3d 0c 64 24 bc
       -0.004958428 0.0054742526 0.039481312 -0.010033619
000340 58 3d 32 3c 31 27 43 3d 6c 8f d4 3c 60 46 c4 3b
       0.010878883 0.047644798 0.025947295 0.0059898347
000350 d0 32 3a bc eb c8 2a bc f8 55 1d bb 46 0a 7f 3c
       -0.011364654 -0.010423879 -0.002400754 0.015566414
000360 48 0b 80 3c bb c1 fc 3c 77 87 af bc f5 1c b1 bc
       0.01563038 0.030854097 -0.0214269 -0.021620253
000370 7b dd 9c 3c 51 66 9e bc 53 a2 4b 3c 95 45 9f 3b
       0.019148579 -0.019335898 0.012428838 0.0048605897
000380 94 a0 e5 bc 22 38 61 3c 88 47 2d 3c 2a 57 14 bd
       -0.028030671 0.013746293 0.010576136 -0.03621594
000390 c6 19 37 3d ca b0 8c 3c 88 19 40 3c 2c dd 74 bb
       0.044702314 0.017174143 0.011724837 -0.0037363274
0003a0 fe 04 97 b9 ec 08 74 bc f2 99 97 3c 3f 2b 96 b7
       -0.00028804684 -0.014894705 0.018506024 -1.7901531e-05
0003b0 0c 90 a2 3c a9 46 73 3c 91 73 fc 3b 35 cb 7a bc
       0.019844078 0.01484839 0.0077042063 -0.015307237
0003c0 33 dc ed 3c 5b 3f d7 bb e4 76 4b 3b 2a f0 95 bb
       0.029035663 -0.006568832 0.0031046206 -0.004575749
0003d0 83 d1 e1 3c 6a 0d 8c bb 65 e5 fa ba df 31 e6 bc
       0.027565723 -0.00427406 -0.0019141851 -0.028099952
0003e0 aa b4 0a bc 35 73 68 bc d9 ae f9 bc a9 12 44 3c
       -0.008465925 -0.014187624 -0.030478882 0.01196734
0003f0 d8 08 09 bd 63 e0 23 bd 8c df 03 bc 63 83 c9 3c
       -0.0334557 -0.040008914 -0.008048903 0.024598783

basis_comm_weights f4 [1, 5]
000000 af f5 22 3e ad 58 03 3f 13 90 33 3e 78 6e 2a 3f
       0.15914033 0.51307184 0.17535429 0.6657481
000010 1a 8f 61 3e
       0.22027245

bias f4 [16, 768]
000000 8a f8 46 3d a3 25 f8 3c 3e 88 04 bd 8f cd dd 3c
       0.04857687 0.030291384 -0.032356493 0.027075557
000010 25 39 bd 3b 32 4d 67 3d f2 75 30 3d ff af 91 3c
       0.0057746344 0.056470104 0.04308123 0.017784117
000020 66 ec 8f 3d db 19 d1 3c f4 d3 9e 3c cf 6e 2a bd
       0.07027511 0.025525024 0.019388177 -0.04160958
000030 8b 15 41 3d da a2 a4 3b 47 48 b9 bc 50 47 28 bd
       0.047139686 0.005024296 -0.022617472 -0.041083634
000040 87 5b e9 bc 25 41 08 bc a0 39 1f bd 81 2c de bb
       -0.028486026 -0.008316313 -0.038873315 -0.0067802076
000050 8c 1f 79 3d 93 03 ac 3c b6 13 72 ba 97 e9 e2 3c
       0.0608211 0.020997798 -0.00092345045 0.027699275
000060 cc bb 8d 3c d9 73 ae bd d6 26 6b bd 6f c0 6e 3c
       0.017301463 -0.0851819 -0.057410084 0.014572247
000070 82 e0 8d bd 15 9a 06 3d 7e 3d a3 3c ff d7 b4 ba
       -0.06927587 0.032861788 0.019926783 -0.0013797282
000080 66 bd 6b bd f9 c4 79 bd 6d f7 6f bd 97 93 dd 3c
       -0.05755367 -0.060978863 -0.058585573 0.027047915
000090 44 f2 d4 bc 50 97 fc bc 0c 57 84 3d 3e 41 4b 3b
       -0.025994428 -0.03083387 0.064619154 0.003101423
0000a0 68 9d 9e 3c c2 79 e6 ba 81 33 d8 3b a5 c7 84 3c
       0.019362167 -0.0017583894 0.0065979366 0.01620848
0000b0 00 33 0d 3d 80 92 57 3d 00 0c 37 3b c7 4a ce 3c
       0.034472466 0.052629948 0.0027930737 0.025182141
0000c0 8f 0c bc 3b 4c e9 c4 3d 76 44 f1 bb af 06 dd 39
       0.005738802 0.0961481 -0.0073628975 0.00042157384
0000d0 9d be 4e bd 76 81 2a 3c e8 c3 b7 3c 4c 08 33 3d
       -0.05047475 0.010406842 0.022432283 0.043709084
0000e0 d3 2e 45 3d 76 f1 bd bc 1b 7f 33 3d f8 31 1c 3c
       0.04814036 -0.023186427 0.04382239 0.009533398
0000f0 89 21 39 bd cc 1b 95 3b a1 09 53 bd 9d 2d 54 3d
       -0.045197997 0.004550433 -0.051522855 0.051801313
000100 1b 9e c3 3c 01 fe 2d bd c7 c0 06 3d 9a b9 c5 3c
       0.023879101 -0.042478565 0.03289869 0.024136353
000110 71 66 da bc 38 b8 b3 3b 4f 24 7d bd ec 95 c3 bc
       -0.026660176 0.005484607 -0.061802205 -0.0238752
000120 4a c5 91 3c 37 ee f9 bd 9c 76 fb 3c 75 ee a3 3c
       0.01779427 -0.12203639 0.030696206 0.020011166
000130 ce 07 48 3d eb 00 9d bc 2a db 0e bd 5c c1 76 bb
       0.048835568 -0.019165477 -0.03487698 -0.0037651872
000140 ff 6c de 3c 83 04 c4 3d 26 9b 20 3d f5 cc fd 3c
       0.027151583 0.09571173 0.03921046 0.03098152
000150 49 f4 bd bc 5d bc 7b 3b c3 d0 4b bc bc c5 a4 bd
       -0.023187773 0.0038411834 -0.012439909 -0.08045527
000160 f6 b4 70 bc f2 a1 52 3d 08 74 e4 bc 87 4e 55 3b
       -0.014691582 0.051423974 -0.02788736 0.0032548027
000170 d9 c6 a6 3c 1d 95 3b bd 6f d3 74 3d 7d b2 33 bd
       0.02035849 -0.045796502 0.05977195 -0.04387139
000180 2a 73 4c bc b5 23 b9 3c da 3c 13 bb c9 d2 06 3b
       -0.012478629 0.022600034 -0.002246669 0.0020572415
000190 af 00 e3 3c 0f a2 bb 3b 65 82 6a 3c 2b 15 4b 3d
       0.027710287 0.005726106 0.014313315 0.049580734
0001a0 67 31 48 bd c2 44 54 bc c6 62 34 3b 6a 47 a8 3c
       -0.04887524 -0.012955846 0.0027524694 0.020541865
0001b0 a5 6f 01 3d bd a6 bf 3c b3 1f 9c bc a6 61 3c bd
       0.031600613 0.023394937 -0.019058084 -0.045991562
0001c0 ea bb c6 bd d0 e2 88 3b 53 c0 b5 ba 5f c9 db bc
       -0.097038105 0.004177429 -0.0013866521 -0.02682942
0001d0 1c e9 ec bc 95 9d 9b 3d ae 52 5b bd 11 e6 84 bd
       -0.028919749 0.07598416 -0.053545646 -0.06489194
0001e0 c5 8f 06 bc 31 f2 93 bc e1 3b d5 bc a1 37 4c bb
       -0.008212988 -0.018059822 -0.026029529 -0.0031161087
0001f0 9d e2 d2 3c d8 09 56 bd 4d 1f c1 3b 81 9a 66 3d
       0.025742823 -0.05225548 0.005893624 0.05629969
000200 fb e0 41 3c e6 ce 45 3b 1a e2 b6 b9 bf 5a ae 3d
       0.011833425 0.0030183136 -0.00034882204 0.08513402
000210 cd 22 bc 3b 9d 13 b0 bc fa 17 7d bd a8 f7 5b bd
       0.0057414533 -0.021493727 -0.061790444 -0.05370298
000220 c2 5f 58 3d 3f 09 7a bc b9 67 f5 3c ec a9 b7 bc
       0.052825697 -0.0152609935 0.029956685 -0.022419892
000230 ee 6f 01 bd 4e 46 5c bc d1 18 04 bd be e0 4f 3d
       -0.031600885 -0.013444496 -0.03225023 0.05075144
000240 49 85 23 3d 65 49 00 3d 22 4d 62 3d 49 f1 4f bc
       0.039922033 0.031319994 0.05524934 -0.012691804
000250 11 50 6f 3d 2c c7 d6 bb 26 db 7d 3c 42 22 27 bb
       0.058425967 -0.006554505 0.015494144 -0.0025502597
000260 87 58 e2 3c 78 c7 ca 3c 46 92 0c 3b 40 55 a3 3d
       0.027630104 0.024753317 0.002144949 0.079752445
000270 a2 24 78 3c 3a 1b b4 3c ab bf 83 bd 48 62 46 3d
       0.015145453 0.021985639 -0.06433042 0.048433572
000280 f8 39 d1 bc 9b 15 4d bd 58 a9 6d 3c 1a 2c b1 3d
       -0.025540337 -0.050069433 0.014505707 0.0865099
000290 32 95 2f 3d 56 0f b8 3c ba 2f b5 3b 84 65 09 3d
       0.042866893 0.02246825 0.005529371 0.03354408
0002a0 7d 08 3d 3d bc 3a 62 3d e9 02 b5 3c 8f 00 5d bc
       0.046150673 0.055231795 0.022096114 -0.013488903
0002b0 9c 99 16 bd 73 50 a7 3b 0c 83 4f bd a5 8d bf 3b
       -0.036767587 0.005106026 -0.050662085 0.0058457428
0002c0 e5 b3 1c bc 10 fa 94 bd 6e 45 ce bd 68 21 eb bb
       -0.009564375 -0.07274258 -0.100718364 -0.007175613
0002d0 e1 3a 0c bc ba 59 52 3c 8e 09 0f 3d 6a 0c 9c bc
       -0.00855896 0.012838775 0.03492122 -0.019048888
0002e0 2d 2d 22 bb 59 00 99 3d 6a f7 84 3c 55 ee 9b 3d
       -0.0024746165 0.074707694 0.016231257 0.076138176
0002f0 e0 06 3b bd 63 7e a5 bc 54 16 5a 3d 19 df 5c bd
       -0.045660853 -0.020201867 0.05324395 -0.0539237
000300 7c 59 8c 3b e8 d5 6b 3c af ba 2b 3c b1 1b 9a bc
       0.0042831283 0.014394261 0.010481521 -0.018812032
000310 b5 74 41 bc a3 19 85 3c 62 08 92 bd 04 90 87 bd
       -0.01180761 0.016247576 -0.07130505 -0.06619266
000320 ef df 00 3d 09 2d 58 bd e0 cd 80 bd 8f f6 b0 bc
       0.03146356 -0.052777324 -0.062892675 -0.021601943
000330 70 ed 07 3d 3c ba 41 bc d1 63 25 3c a5 86 6d 3d
       0.033185422 -0.011824187 0.010094599 0.057989735
000340 4f 23 12 3d 16 04 eb ba 54 9d 77 3d 63 a6 04 3c
       0.035678204 -0.0017930295 0.060452774 0.00809631
000350 48 2a fe 3c 30 42 40 bd 1a 8c c3 bc ff c9 a7 bd
       0.03102602 -0.04693812 -0.023870517 -0.081928246
000360 c1 20 6b 3d 0f 2b 21 3d 7b 17 15 bd 2f a9 26 bd
       0.057404283 0.039347704 -0.036399346 -0.04068869
000370 ec f9 c7 bc 57 82 83 bc 40 3f 23 3c 63 d8 38 3c
       -0.024411164 -0.016053362 0.00996381 0.011282059
000380 26 9f 41 3c 6b 3a da 3c df 0c a1 3d 26 f4 01 3c
       0.011817729 0.026639184 0.07863783 0.007931745
000390 05 90 55 bd 63 70 8b bd a7 80 c7 bb 7a 62 84 bd
       -0.0521393 -0.068085454 -0.0060883346 -0.064640954
0003a0 b5 24 84 bc 4e ee 77 3c 2e 8d e3 3c 3f f1 84 bd
       -0.016130785 0.0151325 0.02777728 -0.064913265
0003b0 aa cf d3 bb 7e b2 d9 3c f8 89 b8 bc 39 35 a5 bc
       -0.0064639645 0.02657437 -0.022526726 -0.02016698
0003c0 b1 e0 33 3b a8 2d d3 ba c7 83 b2 bd 90 3f f1 ba
       0.002744716 -0.0016111629 -0.08716541 -0.0018405784
0003d0 f0 69 60 3d e4 2a f4 bc cd b2 9b bd ff dd 06 bd
       0.05478853 -0.029805608 -0.07602463 -0.032926556
0003e0 05 9a 9b bb e8 97 8e 3d 92 da 45 bc 5c 37 aa 3c
       -0.004748585 0.069625676 -0.012076037 0.02077835
0003f0 d4 b5 c2 b9 6b 87 57 bc ae 6e 9c 3c 01 15 4a 3d
       -0.00037138036 -0.013154845 0.019095745 0.049336437

weight f4 [768]
000000 18 81 89 3f 3d a5 5c 3f 11 9e 63 3f 6d ae 81 3f
       1.0742521 0.86189634 0.88913065 1.0131356
000010 db 4c 80 3f b0 e9 8e 3f 6a 31 67 3f de 58 65 3f
       1.0023454 1.1165066 0.90309775 0.89588726
000020 55 08 5d 3f 5b 27 84 3f b8 99 76 3f 5d 6c 69 3f
       0.8634084 1.032451 0.96328306 0.91180974
000030 9d 95 4e 3f 94 57 77 3f 16 06 5e 3f ee 37 79 3f
       0.8069704 0.9661801 0.86728036 0.97350967
000040 74 ea 62 3f d4 90 80 3f 01 23 8a 3f 6a 99 68 3f
       0.88639 1.0044198 1.0791932 0.9085909
000050 6e 22 54 3f 6c f5 86 3f c0 bb 72 3f a7 ba 5e 3f
       0.82865036 1.0543647 0.94817734 0.8700356
000060 e8 d1 7d 3f a3 b9 8c 3f cd e8 85 3f e1 91 81 3f
       0.99148417 1.0994152 1.046167 1.0122644
000070 e4 fe 94 3f 91 4b 8a 3f 03 13 6d 3f 3a b4 70 3f
       1.1640286 1.0804311 0.92607135 0.94025004
000080 49 d4 8b 3f b5 51 5f 3f f2 c7 86 3f 0c 0e 7c 3f
       1.0924159 0.8723405 1.0529768 0.98458934
000090 8a 73 65 3f f5 af 6d 3f 76 dd 55 3f ef 3b 6f 3f
       0.89629424 0.92846614 0.8354105 0.93450826
0000a0 10 35 84 3f 5d 9c 72 3f 25 b0 68 3f 0b 7b 76 3f
       1.0328693 0.9476984 0.90893775 0.962815
0000b0 bb 5c 8b 3f cb 62 6c 3f c7 e4 7b 3f 04 d5 70 3f
       1.0887674 0.92338246 0.9839596 0.94075036
0000c0 b4 50 6f 3f 4c 87 99 3f dc 66 7f 3f 99 e0 80 3f
       0.9348252 1.1994414 0.99766326 1.0068542
0000d0 4c a7 67 3f e4 e7 74 3f e9 0b 76 3f c0 a3 59 3f
       0.9048965 0.95666337 0.96111923 0.8501549
0000e0 74 20 62 3f 31 11 84 3f 28 6a 8c 3f db 66 83 3f
       0.8833077 1.0317746 1.0969896 1.0265764
0000f0 e5 07 71 3f 0e 41 81 3f dc d9 61 3f 0e 30 68 3f
       0.9415267 1.0097978 0.8822305 0.90698326
000100 02 cb 86 3f da 8f 73 3f 06 fa 85 3f 28 e7 70 3f
       1.0530703 0.95141375 1.0466926 0.94102716
000110 3c 5c 69 3f 02 48 7e 3f 26 79 80 3f 28 b6 6b 3f
       0.91156363 0.99328625 1.0036972 0.92074823
000120 61 4c 71 3f 67 1a 6c 3f 41 67 7b 3f b9 d0 7e 3f
       0.9425717 0.92227787 0.9820443 0.99537235
000130 61 3b 82 3f 6d f3 74 3f 9b 01 88 3f c4 81 81 3f
       1.0174371 0.9568394 1.062549 1.0117726
000140 c5 cf 75 3f 50 8f 41 3f 25 2d 8f 3f 88 95 6a 3f
       0.96020156 0.756093 1.1185652 0.91634417
000150 ac f0 66 3f 2c fe 79 3f 59 b5 71 3f 2e 3d 5a 3f
       0.90210986 0.9765346 0.9441734 0.852496
000160 30 65 6c 3f b2 f2 5c 3f 16 82 84 3f e3 ad 72 3f
       0.923419 0.86307824 1.0352199 0.9479658
000170 77 07 79 3f c2 b2 82 3f 8a 2b 6e 3f 34 9d 84 3f
       0.97277015 1.0210803 0.93035185 1.0360475
000180 b0 39 77 3f 11 3d 64 3f 3b 9f 7f 3f 92 c2 6e 3f
       0.965724 0.8915568 0.9985234 0.9326564
000190 a7 4c 85 3f 67 52 7c 3f 24 10 80 3f 60 b3 65 3f
       1.0414017 0.98563236 1.0004926 0.8972683
0001a0 c3 60 8f 3f bb 4f 58 3f 0f 5f 87 3f ef fd 70 3f
       1.1201404 0.8449666 1.0575885 0.9413747
0001b0 37 b0 61 3f be 6c 6f 3f 06 07 80 3f aa 50 8d 3f
       0.8815951 0.935253 1.0002143 1.1040242
0001c0 47 fb 44 3f 81 fe 73 3f c3 63 80 3f e6 ee 86 3f
       0.7694592 0.9531022 1.0030445 1.0541656
0001d0 68 4b 78 3f 6d 13 94 3f 41 7b 6f 3f 15 9e 8a 3f
       0.9699006 1.1568428 0.93547446 1.0829493
0001e0 e6 7a 7e 3f 72 5f 82 3f 4e 3b 89 3f 0e c0 7b 3f
       0.9940628 1.0185378 1.0721223 0.9833993
0001f0 76 10 6f 3f 63 d9 82 3f a2 fc 81 3f ae 10 89 3f
       0.9338449 1.0222591 1.0155222 1.0708215
000200 29 c2 73 3f ec 43 78 3f 7e 85 72 3f 41 6e 88 3f
       0.9521814 0.9697864 0.9473494 1.0658647
000210 69 26 7a 3f 5d 1c 70 3f d9 d0 57 3f 1a 81 5b 3f
       0.9771486 0.9379328 0.8430305 0.8574387
000220 b3 dc 63 3f 2f 1c 82 3f 36 37 84 3f cd f9 74 3f
       0.89008635 1.0164851 1.0329349 0.95693666
000230 7b 57 86 3f 37 ab 72 3f 0a d5 68 3f 41 de 85 3f
       1.0495447 0.94792503 0.9095007 1.0458452
000240 c6 72 8d 3f a5 53 7a 3f 7e 71 63 3f 07 a4 79 3f
       1.1050651 0.9778388 0.8884505 0.9751591
000250 c3 ca 72 3f 28 7b 7e 3f a3 6f 66 3f 93 fd 80 3f
       0.9484064 0.9940667 0.90014094 1.0077385
000260 fd cc 88 3f 73 ec 85 3f f7 38 7b 3f 73 30 92 3f
       1.0687557 1.0462784 0.98133796 1.1421036
000270 96 74 6b 3f e4 92 76 3f ea 84 4a 3f 44 d6 57 3f
       0.9197477 0.9631789 0.7910906 0.8431132
000280 6f 4f 6c 3f 4b 2f 5c 3f d1 54 85 3f 78 00 a4 3f
       0.92308706 0.86009663 1.0416509 1.2812643
000290 57 b9 8c 3f 1f 42 78 3f 0e cb 7a 3f bf dd 6b 3f
       1.0994061 0.9697589 0.97966087 0.9213523
0002a0 33 37 92 3f 04 55 89 3f fc ff 6c 3f 41 85 70 3f
       1.1423095 1.072907 0.925781 0.9395333
0002b0 8a 3d 86 3f d0 55 81 3f 1a ff 75 3f cc cf 7f 3f
       1.048753 1.0104313 0.9609238 0.9992645
0002c0 98 43 71 3f 4f 4e 93 3f c1 c7 65 3f 45 95 7e 3f
       0.94243765 1.1508273 0.89757925 0.9944652
0002d0 97 7d 77 3f 21 43 66 3f 70 33 6f 3f 1d f1 83 3f
       0.9667601 0.8994618 0.9343786 1.0307957
0002e0 86 de 85 3f 9d 9f 6b 3f 8b 22 6e 3f d2 ef 7e 3f
       1.0458534 0.92040426 0.9302146 0.99584687
0002f0 49 e4 8d 3f 6b a2 7b 3f 84 96 64 3f 87 e9 51 3f
       1.1085292 0.98294705 0.8929217 0.8199696
000300 65 82 75 3f aa 58 6c 3f 4f 8b 7b 3f ca 99 79 3f
       0.9590209 0.9232279 0.98259443 0.9750029
000310 71 84 68 3f df 56 7c 3f 43 02 4f 3f d2 14 75 3f
       0.9082709 0.98570055 0.80862826 0.95734894
000320 f9 92 80 3f b8 33 93 3f 5b 32 64 3f 3e ae 7f 3f
       1.0044852 1.1500158 0.89139336 0.9987525
000330 ce 3c 82 3f 44 08 69 3f b2 7b 88 3f 3c dc 65 3f
       1.0174806 0.9102824 1.0662749 0.89789176
000340 82 ae 78 3f e3 21 7e 3f d5 62 92 3f f1 7a 76 3f
       0.9714128 0.9927046 1.1436411 0.96281344
000350 bc 21 6d 3f 19 02 82 3f 7d 24 86 3f a7 65 80 3f
       0.926296 1.015689 1.0479885 1.0031022
000360 95 a3 8c 3f b0 69 84 3f 02 5d 83 3f 01 25 87 3f
       1.0987421 1.0344753 1.0262759 1.0558168
000370 58 cf 73 3f 1c 56 87 3f e8 d0 6c 3f b3 f1 5a 3f
       0.95238256 1.0573153 0.92506266 0.85525054
000380 72 81 6a 3f 54 83 68 3f b5 ab 99 3f 24 4c 6f 3f
       0.9160377 0.9082539 1.2005526 0.93475556
000390 0c 2c 57 3f 53 57 55 3f 7f 68 7b 3f 5e fe 92 3f
       0.84051585 0.8333637 0.98206323 1.1483877
0003a0 eb 11 77 3f 02 fa 70 3f 4f 54 78 3f cd 23 5c 3f
       0.96511716 0.9413148 0.97003645 0.8599213
0003b0 b8 86 75 3f e6 e9 87 3f 80 4e 7f 3f ba 40 84 3f
       0.9590869 1.0618255 0.99729156 1.0332253
0003c0 c5 76 85 3f d4 92 81 3f b9 86 8c 3f b9 21 6a 3f
       1.042687 1.0122933 1.0978614 0.91457707
0003d0 d4 7b 65 3f 89 da 7c 3f 93 f3 54 3f 10 1c 87 3f
       0.8964207 0.9877096 0.83184165 1.0555439
0003e0 8d 97 7e 3f 67 f9 83 3f 21 89 83 3f 08 37 5d 3f
       0.9945 1.0310487 1.0276223 0.86412096
0003f0 a3 46 7d 3f 57 02 83 3f 6b 71 79 3f 2a 79 8e 3f
       0.9893591 1.0235089 0.9743869 1.1130726

bias f4 [768]
000000 6b 2a 02 3e 31 db 24 3d 83 42 c2 bd 79 92 11 bd
       0.12711494 0.0402481 -0.09485342 -0.035540078
000010 3b 62 98 3c 09 59 0b 3e 8f a2 88 3d 65 f1 a8 3d
       0.018601527 0.13608183 0.066716306 0.08249167
000020 b8 90 14 3e 2a 2e 72 3d 32 41 be 3b 5f 97 92 bd
       0.14508331 0.059126057 0.0058061117 -0.07157778
000030 bf 18 3e 3e c7 41 af bc 91 40 d8 bd bd 40 a2 bd
       0.18564127 -0.02139367 -0.1055919 -0.07922504
000040 f4 b3 6b bd 56 55 bf bc 4f 33 d2 bd 13 f6 14 bd
       -0.057544664 -0.023356121 -0.102636926 -0.036367487
000050 f0 d0 25 3e 90 d0 97 3d 50 58 8b bc d8 af 1f 3d
       0.16192985 0.07412827 -0.017009884 0.038986057
000060 2d 2e 08 3d 53 65 3a be 74 d4 9a bd 9e a0 d7 3c
       0.03324716 -0.18202715 -0.075600535 0.026321705
000070 7e d5 31 be c1 d4 ce 3d 8e a9 1a 3d 79 de 82 bd
       -0.17366597 0.10099173 0.037759356 -0.063900895
000080 52 1b 1b be d4 c6 f0 bd ba 53 bc bd d0 be 7b 3d
       -0.1514714 -0.117566735 -0.09195657 0.06146127
000090 b9 f2 47 bd 1d 42 fa bc 1f ab 1b 3e 02 4d 91 3d
       -0.048815463 -0.030549103 0.15201996 0.07094766
0000a0 1e ea 72 3d ab 13 03 3d 25 e4 cd 3c 81 7c fe 3c
       0.059305303 0.03200118 0.025133202 0.031065227
0000b0 c0 73 c2 3d 28 69 ac 3d 91 e5 02 bb 19 8a 33 3d
       0.09494734 0.084184945 -0.0019973258 0.043832872
0000c0 74 f7 6c 3c 5b 27 50 3e 4c f9 6c bc 1f 2d b3 bc
       0.014463294 0.20327513 -0.014463734 -0.021872101
0000d0 c3 ba 0b be 97 fe 60 3d af 58 a1 3c f3 9d 11 3e
       -0.13645463 0.054930296 0.019695608 0.14220409
0000e0 20 9e cb 3d a6 dd 6e bd 58 23 ca 3d 9d d1 bb 3c
       0.09942269 -0.05831685 0.098700225 0.0229271
0000f0 9a 67 c3 bd fa 05 dd 3c c0 b0 e2 bd da 86 c3 3d
       -0.09541245 0.026980389 -0.11068869 0.09547205
000100 44 08 c8 3d 66 1d 1d be ba 4d a8 3d 7a 8a 63 3d
       0.097672015 -0.15343246 0.0821795 0.055551983
000110 7f 59 56 bd 99 da 68 3c 5b a7 ea bd f6 c2 b2 bc
       -0.052331444 0.014212274 -0.11457702 -0.02182148
000120 5e e6 c3 3c 55 a0 7a be 88 5b 9a 3d e8 d7 61 3c
       0.023913559 -0.24475224 0.075369895 0.013784386
000130 36 6c ac 3d a7 29 a0 bd 10 a0 99 bd 88 80 0e 3b
       0.08419077 -0.078204446 -0.075012326 0.002174409
000140 aa fe b1 3d bc 28 84 3e 5e 7d e2 3d 00 f3 71 3d
       0.086911514 0.25812328 0.11059068 0.059069633
000150 c9 34 22 bd 99 7a 9f bc 9c 88 72 bc b3 94 2a be
       -0.03960112 -0.019467639 -0.014803078 -0.16658287
000160 7e e0 5e bd 68 80 02 3e a3 ed 45 bd 1e 4f fb 3c
       -0.05441331 0.12744296 -0.04832233 0.030677374
000170 1a 0a 24 3d 75 34 db bd 05 26 a8 3d a4 99 95 bd
       0.040048696 -0.10703365 0.08210377 -0.07304695
000180 03 4e 0b bd ee e1 a5 3d 48 f7 a3 3b 5a e1 40 bd
       -0.034009945 0.08099733 0.0050038435 -0.047089912
000190 bd d1 8a 3d fc 5f 0e 3d a6 e1 be 3c 06 e3 c9 3d
       0.06778286 0.034759507 0.023300957 0.098577544
0001a0 26 65 0e be ba 03 b9 bd 89 68 80 3d bf c0 55 3d
       -0.13905773 -0.09033914 0.062699385 0.05218577
0001b0 c8 4b 55 3d 90 fe 84 3d ff ca 87 bd 8f 0e f8 bd
       0.052074224 0.064938664 -0.06630515 -0.12112152
0001c0 ac 44 5a be be f3 e4 3c 08 91 2a bd ca dd 99 bd
       -0.21315259 0.027948257 -0.04164222 -0.07513006
0001d0 20 91 87 bd 00 db 32 3e 36 5f ca bd 73 26 10 be
       -0.06619477 0.17466354 -0.09881441 -0.14077167
0001e0 ca eb 4a bb 32 2a ca bd 9b 43 90 bd ad 6e b3 3a
       -0.0030963295 -0.09871329 -0.07044145 0.00136896
0001f0 77 80 81 3d db ac 06 be 7c 7a 34 bc 6b d3 06 3e
       0.06323331 -0.13151877 -0.011015531 0.13166587
000200 68 1b 09 3d 16 65 51 3c 1a 1c ac 3c 85 b9 25 3e
       0.033473402 0.012780448 0.021009494 0.16184051
000210 d9 6b ed 3c d8 f6 39 bd 4f 63 fd bd 7e 3d c4 bd
       0.02898209 -0.045401424 -0.12372457 -0.09582041
000220 34 44 d0 3d 11 8f 3f bd a4 e5 70 3d 93 a2 37 bd
       0.10169259 -0.046767298 0.058812752 -0.044832777
000230 77 c6 a0 bd 2d 32 e6 bc 49 75 31 bd a5 16 08 3e
       -0.07850354 -0.028100098 -0.043324742 0.13289888
000240 d0 89 fb 3d 95 05 4b 3d 3a 11 01 3e 60 54 d0 bb
       0.12282145 0.04956587 0.12604228 -0.0063577145
000250 01 6f 04 3e 86 89 a3 ba b4 37 9c 3c 6d 7e d7 bc
       0.1293297 -0.0012476898 0.01906953 -0.026305402
000260 85 f9 d6 3d 89 4d 69 3d 56 ae e5 bb d2 04 4f 3e
       0.10496811 0.05695871 -0.007009308 0.20216683
000270 cb 9a 46 3d f9 c9 4f bb 51 19 16 be 05 a4 ce 3d
       0.048487466 -0.0031706078 -0.14658095 0.10089878
000280 60 48 6a bd a4 6d 9b bd dd 0c 73 3d 1f 78 73 3e
       -0.05719793 -0.07589272 0.05933844 0.23776291
000290 2c 2b b8 3d 3b 7e f4 3b 8e 38 cf ba 06 75 29 3d
       0.089926094 0.007461337 -0.0015809701 0.041371368
0002a0 38 e3 b1 3d 15 e1 50 3e 91 e4 86 3d 5e da b6 bc
       0.08685917 0.20398362 0.06586564 -0.022320922
0002b0 30 0b ad bd f6 ae f2 3c 92 24 1e be a4 33 c4 3c
       -0.084493995 0.029624444 -0.15443638 0.023950405
0002c0 60 14 0e 3d fb 12 29 be bb 67 54 be e9 a0 8e bb
       0.0346874 -0.16511147 -0.20742695 -0.004352678
0002d0 d7 8a eb bb 70 83 b6 3d bb 68 a5 3d 3b 5f c7 bc
       -0.007188182 0.089117885 0.080766164 -0.024337402
0002e0 bb 71 b7 ba 02 51 2c 3e 33 09 88 3c dc 41 44 3e
       -0.0013995686 0.16827777 0.016605949 0.19165748
0002f0 dc 8e 19 be 3a 58 4b bc 18 7b cb 3d 79 c5 0d be
       -0.14995903 -0.012411172 0.09935588 -0.13844861
000300 53 f5 27 3d d4 4e 6e 3b 19 ce af 3b e9 a1 3b bc
       0.041005444 0.0036362903 0.005365145 -0.011452177
000310 41 27 6a bd ce bd 93 3c d0 50 21 be 44 ce 09 be
       -0.05716634 0.018034842 -0.15753484 -0.1345759
000320 71 eb 84 3d 81 ef 29 be 7b 86 12 be 12 f3 d6 bc
       0.064902194 -0.1659527 -0.14309113 -0.026238952
000330 ac 5f 9b 3d 69 22 94 bc 13 fb 84 3d ce b8 e3 3d
       0.07586607 -0.018082814 0.06493201 0.11119233
000340 99 20 51 3d b5 37 ef 3a b9 ad 1b 3e 28 d8 be 3c
       0.05105648 0.0018250855 0.15202989 0.02329643
000350 8f 05 ca 3d bb 93 cc bd c2 60 22 bd 1b c4 5b be
       0.098643415 -0.09989115 -0.039643057 -0.21461527
000360 c3 1f ea 3d b9 0a bd 3d db d0 49 bd c4 cd cb bd
       0.11431839 0.09230561 -0.049271446 -0.09951356
000370 14 5f 07 bd 00 71 7a bd fe 9f b8 3c c8 fd 9d 3d
       -0.033049658 -0.06114292 0.022537228 0.077144206
000380 f0 ac 86 3d 76 37 9f 3d f3 a1 4f 3e 9b 2f 29 3d
       0.06575954 0.0777425 0.20276622 0.041305166
000390 ac 20 ff bd c5 4f 02 be 4c 2f 43 3c 6f 51 2e be
       -0.124574035 -0.12725742 0.011913132 -0.17023252
0003a0 25 d0 23 bc 2e e5 93 3d cf 4c ba 3c 19 08 23 be
       -0.009998356 0.07221447 0.022741703 -0.15921058
0003b0 3a 5b 97 bd 4c 79 5b 3d e4 30 7f bd 41 38 55 bd
       -0.07390447 0.053582475 -0.062302485 -0.0520556
0003c0 1b b3 0a 3d f6 6c d3 bc 32 45 01 be 0e a8 10 3d
       0.033862215 -0.025808793 -0.12624052 0.03531652
0003d0 1d 1b 09 3e 5d a5 48 bd 14 79 32 be b7 37 82 bd
       0.13389249 -0.048985828 -0.17429 -0.06358283
0003e0 be 95 29 bd b5 0a f7 3d eb 6d 20 bd d3 e9 44 3d
       -0.04140257 0.12062589 -0.039167326 0.048074555
0003f0 a9 46 34 3c 93 85 f9 ba 1e cc 5a 3d 68 10 03 3e
       0.011003175 -0.0019037001 0.053417318 0.12799227

weight f4 [768]
000000 b3 c4 81 3f 2f db 88 3f 76 08 73 3f e3 99 73 3f
       1.0138153 1.069189 0.94934785 0.9515669
000010 11 66 88 3f 86 64 8d 3f c7 11 98 3f 7b 68 68 3f
       1.0656148 1.1046302 1.1880425 0.90784425
000020 c4 52 69 3f af 5d 80 3f 7b 0d 7b 3f 14 03 74 3f
       0.91141915 1.002859 0.98067445 0.95317197
000030 2d 17 8d 3f fc ee 73 3f 67 bb 82 3f ae 99 82 3f
       1.1022698 0.95286536 1.0213441 1.0203149
000040 e2 36 87 3f 2e 5b 66 3f ec 95 74 3f f4 2d 6d 3f
       1.0563624 0.8998288 0.9554126 0.92648244
000050 f9 c0 7e 3f 01 8f 8f 3f 6d 8d 7b 3f 77 1d 8e 3f
       0.995132 1.1215516 0.98262674 1.1102742
000060 24 5d 70 3f 36 d4 84 3f fd 78 53 3f ce 23 8e 3f
       0.9389212 1.0377262 0.8260649 1.1104677
000070 7f e7 78 3f a3 eb 75 3f 03 12 70 3f 33 77 7c 3f
       0.97228235 0.9606268 0.93777484 0.98619384
000080 e9 f3 83 3f 5b 4b 60 3f bb 99 8e 3f 60 5b 84 3f
       1.030881 0.87614983 1.1140665 1.0340385
000090 13 36 7f 3f 76 18 7e 3f 64 da 4e 3f 2a db 83 3f
       0.99691886 0.99256074 0.8080199 1.0301259
0000a0 65 92 8d 3f e0 05 75 3f 36 54 56 3f 8b 26 84 3f
       1.1060301 0.9571209 0.83722246 1.0324262
0000b0 67 a4 6e 3f b2 70 66 3f 02 98 74 3f 92 49 82 3f
       0.9321961 0.9001571 0.95544446 1.0178702
0000c0 e7 f2 82 3f 50 1a 66 3f f9 ed 78 3f 3e d6 86 3f
       1.0230378 0.898839 0.9723812 1.0534132
0000d0 e3 66 80 3f 78 14 84 3f db f5 85 3f d5 21 5a 3f
       1.0031399 1.0318747 1.0465654 0.85207874
0000e0 ef 8f 8b 3f 73 32 80 3f 7b 3a 78 3f c4 f6 67 3f
       1.09033 1.0015396 0.96964234 0.9061091
0000f0 9a 1a 8b 3f e1 44 83 3f 54 43 7b 3f f8 c6 74 3f
       1.0867493 1.0255395 0.9814961 0.956161
000100 a3 08 73 3f 11 83 80 3f 7d 0c 8c 3f 09 d8 7a 3f
       0.94935054 1.0039998 1.0941311 0.97985893
000110 c9 b0 7c 3f cb 3d 88 3f 9e 71 72 3f b5 a4 8b 3f
       0.9870725 1.0643858 0.94704616 1.090964
000120 d5 39 6f 3f 40 d8 75 3f 78 f1 6b 3f ba 5b 8e 3f
       0.9344762 0.96033096 0.9216533 1.1121743
000130 3f f1 87 3f f6 82 78 3f 05 d8 80 3f 14 fb 71 3f
       1.0620497 0.9707483 1.0065924 0.9452374
000140 78 1e 86 3f f5 61 64 3f b7 fc 97 3f ee 43 61 3f
       1.0478048 0.8921197 1.1873997 0.8799428
000150 bb ad 6c 3f 81 99 8d 3f 6a f9 87 3f db 7a 7d 3f
       0.9245259 1.1062471 1.062299 0.9901559
000160 6a b7 5f 3f 5c 9f 6d 3f 98 39 89 3f f6 5b 83 3f
       0.8738924 0.9282129 1.0720701 1.0262439
000170 7a 50 7c 3f e5 77 8d 3f 50 33 99 3f ad a5 8f 3f
       0.985603 1.1052214 1.1968784 1.1222435
000180 71 47 7a 3f 4a 73 72 3f 5e 04 62 3f e3 13 88 3f
       0.9776526 0.9470717 0.88287914 1.0631069
000190 b1 96 69 3f ad 16 7f 3f 93 a8 77 3f ea ff 75 3f
       0.9124556 0.99643975 0.967416 0.9609362
0001a0 bc 33 63 3f db c9 8a 3f b0 e0 8c 3f 9d c1 64 3f
       0.88750815 1.0842851 1.1006069 0.8935793
0001b0 8a c1 95 3f 84 ba 83 3f fe 43 8d 3f 95 33 8b 3f
       1.1699688 1.0291295 1.1036375 1.0875117
0001c0 cf 2a 6a 3f 7a 9a 80 3f 0a f7 79 3f 21 5c 7c 3f
       0.9147157 1.0047143 0.97642577 0.9857808
0001d0 be 33 88 3f b7 b8 85 3f bb b1 7d 3f b3 5e 77 3f
       1.064079 1.0446995 0.9909932 0.96628875
0001e0 01 be 68 3f d6 42 6e 3f de f6 65 3f c7 4d 88 3f
       0.9091492 0.93070734 0.89829814 1.0648736
0001f0 78 92 86 3f e8 04 79 3f de 6c 8a 3f af a3 89 3f
       1.0513449 0.9727311 1.0814474 1.0753077
000200 78 b8 85 3f 59 bd 82 3f 19 db 6e 3f 06 b5 78 3f
       1.044692 1.0214034 0.93303066 0.9715122
000210 d2 27 69 3f c9 5d 70 3f 08 50 6d 3f 9a ab 88 3f
       0.91076386 0.93893105 0.92700243 1.0677369
000220 4a 38 6e 3f c1 3a 82 3f fd 22 7c 3f 5e de 83 3f
       0.9305464 1.017418 0.9849089 1.0302236
000230 b0 2d 8e 3f 13 19 5f 3f ba 0e 76 3f dc 07 75 3f
       1.1107693 0.87147635 0.9611622 0.9571512
000240 57 d4 7a 3f ec 9c 7d 3f 41 36 7d 3f 18 5d 81 3f
       0.97980255 0.9906757 0.9891091 1.0106535
000250 2a 75 77 3f 41 81 69 3f 9e 7c 7a 3f 5b 66 79 3f
       0.96663153 0.9121285 0.978464 0.9742181
000260 06 b9 71 3f 7f 3c 75 3f 3a 0e 84 3f df 99 8d 3f
       0.9442295 0.95795435 1.0316842 1.1062583
000270 4f dd 86 3f 48 39 85 3f 09 64 76 3f b4 38 8a 3f
       1.0536288 1.0408106 0.9624639 1.0798554
000280 93 90 63 3f 7e ff 71 3f 1a bb 6a 3f 1b ac 69 3f
       0.8889248 0.94530475 0.91691744 0.9127824
000290 4d 9d 89 3f ce 98 7e 3f 4b d7 8a 3f 19 12 82 3f
       1.0751129 0.9945191 1.0846952 1.0161773
0002a0 79 3f 6a 3f 64 2b 85 3f 44 6e 82 3f d5 6f 86 3f
       0.915031 1.0403867 1.01899 1.0502878
0002b0 be 2e 79 3f 6c ee 8d 3f 69 ed 7e 3f fd 91 76 3f
       0.9733695 1.1088386 0.9958101 0.9631651
0002c0 cc 01 89 3f 26 79 66 3f b1 70 80 3f 5a 85 80 3f
       1.0703673 0.9002861 1.0034391 1.0040696
0002d0 c6 3c 85 3f 8d 78 89 3f ca cc 6e 3f ec 3b 5f 3f
       1.0409172 1.0739914 0.93281233 0.8720081
0002e0 c7 91 81 3f d2 69 8a 3f 14 71 86 3f 0e 88 53 3f
       1.0122613 1.0813544 1.0503259 0.8262948
0002f0 54 63 87 3f bb 22 67 3f 98 a3 67 3f a5 64 7c 3f
       1.0577188 0.9028737 0.90484 0.9859107
000300 73 af 6a 3f 53 c9 78 3f 4c 87 6b 3f 60 22 70 3f
       0.91673964 0.97182196 0.9200332 0.9380245
000310 95 cc 87 3f ed bc 71 3f 45 b0 75 3f e8 01 82 3f
       1.0609308 0.944289 0.9597209 1.0156832
000320 c9 c8 87 3f 53 71 5f 3f b5 12 75 3f aa 1e 7b 3f
       1.060815 0.87282294 0.9573167 0.98093665
000330 ad 4a 59 3f 7c 95 57 3f 56 c9 48 3f 86 40 79 3f
       0.8487957 0.8421247 0.78432214 0.9736408
000340 da 93 7e 3f 62 d8 6a 3f 7c 79 74 3f 50 54 80 3f
       0.99444354 0.91736424 0.9549787 1.002573
000350 8e 31 82 3f 69 38 89 3f 52 23 85 3f 7c 6d 76 3f
       1.0171373 1.072034 1.0401404 0.9626081
000360 36 ef 85 3f 96 5c 80 3f 0b ee 82 3f 6b e2 84 3f
       1.0463626 1.0028255 1.0228895 1.0381597
000370 54 ca 57 3f b1 09 81 3f 7d 3b 85 3f c9 98 81 3f
       0.84293103 1.0081083 1.0408779 1.0124751
000380 fc 9f 5b 3f 33 59 8a 3f a4 7a 8d 3f c8 0e 79 3f
       0.8579099 1.0808471 1.1053052 0.9728818
000390 36 24 94 3f fe 8c 8b 3f 58 d3 67 3f 49 99 8f 3f
       1.1573551 1.0902402 0.9055686 1.1218654
0003a0 6c 13 82 3f bf 68 80 3f 9a 08 86 3f 2f c8 4e 3f
       1.0162177 1.0031966 1.0471375 0.80774206
0003b0 b4 90 62 3f b6 66 79 3f c1 6f 6e 3f 41 8b 8b 3f
       0.8850205 0.9742235 0.9313927 1.0901872
0003c0 8f 8c 65 3f 96 98 85 3f 88 de 7e 3f a1 53 73 3f
       0.896676 1.043719 0.99558306 0.9504948
0003d0 78 04 65 3f db 33 7a 3f 42 8c 8b 3f 05 18 72 3f
       0.89459944 0.97735375 1.0902178 0.945679
0003e0 0b ed 91 3f f5 96 78 3f de a5 7d 3f 94 e1 7e 3f
       1.1400465 0.9710534 0.9908122 0.99562955
0003f0 97 0e 69 3f 3a 86 89 3f 0d ac 60 3f 9c f4 60 3f
       0.9103789 1.0744088 0.8776253 0.87873244
