subject-models/ada-delta/jiffpom2023-05-27T17-40-56_jiffpom-ada/embeddings_gs-4500.pt (torch, 943527 bytes, 172 tensors)

pre_vecs f4 [2, 768]
0.015958147 0.0028521658 0.006930147 -0.0071363705 -0.0049343496 -0.0049024206 -0.045617417 0.006366566
2.9727711e-05 0.0046307147 -0.020735536 0.069888614 0.020134766 -0.0017388148 -0.013108444 0.060362913
-0.0011015438 -0.012160907 -0.023411574 0.048829157 0.006691946 -0.034846224 0.02032346 0.010943497
0.011913221 -0.0270832 -0.045560665 0.012445797 -0.033728994 -0.025329515 0.0141351465 0.014226824
-0.022845933 0.06345897 -0.0031922741 0.033012077 0.02339447 0.03316784 0.0016785038 0.03778885
0.03276591 0.038684685 0.030148428 0.0114877 -0.029450616 -0.065097146 0.019055652 -0.0070826695
-0.02078025 -0.025630794 -0.0097843865 -0.050479032 0.012443135 -0.042578194 -0.034675084 0.01008603
0.005002493 -0.0068408265 0.03911712 0.028839013 -0.033718906 0.01575711 0.01932387 0.003793338
0.047547843 0.0050221514 0.07923553 -0.022387462 -0.009065657 -0.009902881 -0.03996417 0.016425995
-0.016913282 -0.022885438 -0.015964251 0.0022191412 -0.025430894 0.055014316 -0.03180098 -0.024606515
0.030545495 0.005120212 0.01708255 -0.020103306 -0.03626539 -0.024034077 0.01118352 0.0019751196
0.028673047 -0.00014990741 -0.034086775 0.03203846 -0.011269872 -0.042551663 -0.004210043 -0.0053990805
0.0018943037 -0.011058826 -0.040478505 0.057455476 -0.027146934 0.02722476 0.030565733 0.008954515
0.009288682 -0.054755792 0.031534966 0.02179659 -0.0214898 -0.058987234 -0.017971672 -0.01521615
-0.020085849 -0.030167852 0.037447244 0.010070118 -0.021528143 -0.031191854 -0.010197757 -0.0114285825
0.02905995 -0.02343296 -0.033301815 0.035529204 -0.043114875 -0.0014708501 -0.04737188 -0.015661076
-0.008571836 -0.02853012 -0.025077391 0.03131485 -0.022702139 -0.017072449 -0.035564177 -0.009833242
0.008698578 -0.024306802 -0.009812241 0.009073863 -0.046157535 0.0007967858 0.051259324 -0.024123011
0.011134134 -0.028162295 0.015971879 -0.009493115 -5.5408946e-05 0.0043642186 -0.04740643 -0.017498003
0.04583055 0.056546934 0.013359521 0.03574808 0.033459567 0.015310839 -0.011442057 0.03493484
0.006876798 0.05183467 0.045852486 0.043021094 0.01800853 0.055425204 -0.0027354185 -0.0153148305
0.014022128 -0.013315647 -0.0065392978 -0.0022260132 0.0024428423 0.020880131 0.005059858 0.046876892
-0.010698942 -0.04824709 0.017566565 0.054990597 0.027018216 0.052099098 0.07419496 -0.013177181
-0.007900378 -0.009812707 -0.036443654 -0.0031039945 0.004603216 0.010967816 -0.0015657073 -0.0004327029
-0.010378054 0.0020775595 -0.0680815 0.048427597 0.011703931 0.07726989 -0.042112023 -0.01460895
-0.009356656 -0.02676674 -0.02461648 0.04484876 0.04630084 -0.065430984 -0.019140894 -0.01274755
0.012313769 0.012916759 0.04718284 -0.02247017 -0.023292493 -0.009750052 -0.01450986 0.015706033
0.00557094 0.03647755 -0.0076639606 0.0067399247 -0.025353646 -0.034387935 -0.039741054 0.05952279
-0.020308392 -0.024682162 -0.0027081424 0.01355224 -0.032171533 0.0049270275 -0.006615072 0.0048615714
0.034594093 -0.029127453 0.034599572 0.016100477 -0.028856495 -0.047989514 0.025856823 -0.03206552
-0.004694862 -0.0056022075 0.0035573237 0.009012209 0.0012552786 -0.029809086 0.020323385 -0.02594259
0.00068911514 0.009819976 -0.023515534 0.04891194 -0.018645199 -0.027572537 -0.005435592 0.016790003
00000000: a9ba 823c 67eb 3a3b 4916 e33b 37d8 e9bb
00000010: 53b0 a1bb 7ca4 a0bb 54d9 3abd a09e d03b
00000020: c65f f937 40bd 973b 92dd a9bc c321 8f3d
00000030: aaf1 a43c f1e8 e3ba cdc4 56bc 1a3f 773d
00000040: ad61 90ba 8a3e 47bc a1c9 bfbc 1501 483d
00000050: 1d48 db3b eaba 0ebd 637d a63c 5a4c 333c
00000060: ac2f 433c 96dd ddbc d29d 3abd 75e9 4b3c
00000070: 6a27 0abd d87f cfbc 1a97 673c a017 693c
00000080: 6527 bbbc c7f6 813d 7935 51bb ac37 073d
00000090: c2a5 bf3c 00db 073d 3e01 dc3a 7bc8 1a3d
000000a0: 8c35 063d d573 1e3d d6f9 f63c e836 3c3c
000000b0: 6b42 f1bc a751 85bd 991a 9c3c bd15 e8bb
000000c0: 583b aabc acf7 d1bc b14e 20bc 1ac3 4ebd
000000d0: 4ade 4b3c 7966 2ebd 7607 0ebd e03f 253c
000000e0: f4eb a33b 0329 e0bb 4639 203d cb3f ec3c
000000f0: d61c 0abd 0e15 813c 184d 9e3c a799 783b
00000100: 87c1 423d dc90 a43b 3d46 a23d e965 b7bc
00000110: 1f88 14bc b23f 22bc 78b1 23bd cf8f 863c
00000120: b98d 8abc 3e7a bbbc 76c7 82bc 036f 113b
00000130: 7354 d0bc b156 613d bf41 02bd 9a93 c9bc
00000140: 8c3a fa3c 74c7 a73b b4f0 8b3c b0af a4bc
00000150: 058b 14bd 1de3 c4bc 153b 373c 0271 013b
00000160: bde3 ea3c 7730 1db9 939e 0bbd c33a 033d
00000170: 45a5 38bc a74a 2ebd 66f4 89bb c5ea b0bb
00000180: 494a f83a 1430 35bc cacc 25bd 6f56 6b3d
00000190: 3f63 debc 7606 df3c fd64 fa3c f5b5 123c
000001a0: 8e2f 183c 9c47 60bd cf2a 013d c38e b23c
000001b0: 610b b0bc 999c 71bd 5439 93bc 294d 79bc
000001c0: 148b a4bc 9222 f7bc 4862 193d 23fd 243c
000001d0: ca5b b0bc 0f86 ffbc 7e14 27bc f33e 3bbc
000001e0: 220f ee3c 7bf6 bfbc 7c67 08bd 1287 113d
000001f0: 3999 30bd 8ac9 c0ba 0409 42bd a84b 80bc
00000200: e370 0cbc 00b8 e9bc 1a6f cdbc 0044 003d
00000210: d6f9 b9bc 85db 8bbc beab 11bd 9b1b 21bc
00000220: 7b84 0e3c 0f1f c7bc 86c3 20bc 8aaa 143c
00000230: af0f 3dbd 64df 503a 4cf5 513d 9f9d c5bc
00000240: f16b 363c 9db4 e6bc 75d7 823c 0389 1bbc
00000250: e766 68b8 b801 8f3b 3f2d 42bd f957 8fbc
00000260: d1b8 3b3d c29d 673d e4e1 5a3c 946c 123d
00000270: e60c 093d 50da 7a3c 7777 3bbc d617 0f3d
00000280: c356 e13b 9750 543d d1cf 3b3d e336 303d
00000290: a086 933c 8a05 633d b544 33bb 0eeb 7abc
000002a0: 11bd 653c df29 5abc 9b47 d6bb 4ee2 11bb
000002b0: 1818 203b cf0c ab3c 2acd a53b fc01 403d
000002c0: 9d4a 2fbc be9e 45bd c2e7 8f3c d23d 613d
000002d0: 4e55 dd3c dd65 553d 87f3 973d 1ae5 57bc
000002e0: 9670 01bc 7ac5 20bc f145 15bd 636c 4bbb
000002f0: 93d6 963b 5bb2 333c 6b38 cdba 66dc e2b9
00000300: b708 2abc aa27 083b 506e 8bbd 045c 463d
00000310: d8c1 3f3c ad3f 9e3d a87d 2cbd 615a 6fbc
00000320: a94c 19bc ec45 dbbc 80a8 c9bc 55b3 373d
00000330: f3a5 3d3d ae00 86bd 5dcd 9cbc 1adb 50bc
00000340: b1bf 493c d0a0 533c cb42 413d 5d13 b8bc
00000350: e6cf bebc afbe 1fbc c4ba 6dbc f0a9 803c
00000360: 6f8c b63b 7c69 153d f621 fbbb 96da dc3b
00000370: 73b2 cfbc 5dda 0cbd 84c7 22bd 2bce 733d
00000380: c95d a6bc 3f32 cabc 177b 31bb 370a 5e3c
00000390: 4cc6 03bd e772 a13b 3fc3 d8bb d14d 9f3b
000003a0: 89b2 0d3d b29c eebc 48b8 0d3d 26e5 833c
000003b0: 7564 ecbc a790 44bd b0d1 d33c 2257 03bd
000003c0: 5bd7 99bb b992 b7bb fd21 693b f2a7 133c
000003d0: 2988 a43a 2f32 f4bc 3a7d a63c 8e85 d4bc
000003e0: bca5 343a f7e3 203c a6a3 c0bc e357 483d
000003f0: d1bd 98bc cddf e1bc 0d1d b2bb 308b 893c

basis_rand_weights f4 [16, 5]
0.040426776 0.010048524 -0.015283354 0.09281091 -0.030299284 0.056696177 -0.02766834 -0.1098434
-0.0981 0.097264096 0.034287147 -0.04405315 -0.013003811 0.02718781 -0.035159163 -0.12749836
0.010639277 0.019265588 0.023428226 0.24879767 0.022534788 -0.11166694 -0.06405484 0.03737448
-0.10002484 0.06862868 -0.16040528 -0.06902221 -0.058366228 -0.06360399 -0.001873472 -0.05363452
-0.06317838 0.06998686 -0.034286562 0.05052271 -0.09650039 -0.08929345 0.028412733 -0.060094234
0.12230408 -0.14434521 -0.04697502 0.14879844 -0.07590752 0.116012864 -0.12799563 -0.06379508
0.07567543 -0.055340376 -0.095099464 0.04189099 0.14472653 0.38337794 -0.0790311 0.04221975
-0.107137844 -0.1683767 0.12556082 0.10818436 0.11624689 -0.12948474 -0.00061129796 0.22869763
-0.08451533 -0.0048120986 -0.071999356 -0.1084266 0.091321744 -0.09973311 0.024312055 -0.135184
-0.05559986 0.031705298 -0.20342046 0.060840636 0.053592063 -0.07439043 0.23852468 -0.06320078
00000000: 8c96 253d 90a2 243c 0867 7abc a513 be3d
00000010: 3436 f8bc 403a 683d b7a8 e2bc 94f5 e0bd
00000020: a7e8 c8bd 6632 c73d ae70 0c3d 1371 34bd
00000030: f00d 55bc f8b8 de3c 0e03 10bd ee8e 02be
00000040: 5d50 2e3c ded2 9d3c 8dec bf3c d1c4 7e3e
00000050: e09a b83c a3b1 e4bd 2f2f 83bd fc15 193d
00000060: d3d9 ccbd 328d 8c3d 4841 24be 845b 8dbd
00000070: 6d11 6fbd cf42 82bd 4a8f f5ba dfaf 5bbd
00000080: ab63 81bd 4555 8f3d 1170 0cbd e7f0 4e3d
00000090: ffa1 c5bd 7cdf b6bd d2c1 e83c 5f25 76bd
000000a0: 907a fa3d 3bcf 13be e168 40bd 9e5e 183e
000000b0: 6775 9bbd 2798 ed3d 4911 03be ffa6 82bd
000000c0: b8fb 9a3d 97ac 62bd 82c3 c2bd e395 2b3d
000000d0: 3133 143e 1d4a c43e 0fdb a1bd 9eee 2c3d
000000e0: 166b dbbd f16a 2cbe 0493 003e c38f dd3d
000000f0: d912 ee3d a697 04be 833f 20ba b62f 6a3e
00000100: 6016 adbd cfae 9dbb 6674 93bd c40e debd
00000110: e506 bb3d df40 ccbd 132a c73c ad6d 0abe
00000120: aebc 63bd 6add 013d 744d 50be 0834 793d
00000130: 5a83 5b3d 025a 98bd d03f 743e 696f 81bd

basis_vecs f4 [3, 768]
-0.006409568 0.006436112 0.00016255163 0.008354708 -0.007759893 -0.0020905375 -0.020565342 0.0023289034
0.0036065422 0.005977613 -0.0015401811 0.024395365 0.010983342 -0.005775347 -0.019781943 0.017888032
-0.018916126 -0.008535941 -0.013146024 0.0196533 -0.0022253091 -0.016441548 0.016930914 0.013599817
0.005430119 -0.022893012 -0.010462815 0.011929707 -0.016164478 0.00034865327 0.0007531704 0.0042915633
-0.020126807 0.009072078 0.007302581 0.007131715 0.0021093488 0.006830554 -0.00031589024 0.011139373
0.0022207021 0.009916675 0.0032001708 0.018384434 -0.00443894 -0.026495965 0.003292728 -0.008159923
-0.0010602799 0.00066834595 0.00033304674 -0.003030832 0.012104613 -0.0015520151 -0.013186465 0.0071932497
0.0020889651 0.008390802 0.025958203 0.012884116 -0.0077958046 0.011213518 -0.005054359 -0.0049204417
0.013258087 -0.0020267882 0.031504393 -0.015506154 -0.008506329 -0.01334568 -0.013192305 0.001127466
0.008666094 -0.011484742 -0.0031985852 0.0059645525 0.010638753 0.0065355455 -0.009824107 0.009983701
0.009271331 -0.00043858902 0.016052952 -0.013786378 -0.011990599 -0.009936706 0.010174345 -0.012898378
0.00064192235 0.00480239 -0.011064582 0.029042266 0.011448328 -0.010406835 -0.0077898228 -0.006151375
-0.0044526253 -0.006135489 -0.02161615 0.03044598 -0.0046405746 0.007195582 0.0135409115 -0.0059944503
0.0029531948 -0.027162977 0.01107702 0.010038708 -0.016075097 -0.023794247 -0.0037140865 -0.02015395
-0.011496891 -0.01904325 0.025165848 -0.0066958987 -0.010192342 -0.01750375 0.008103447 -0.0038297083
0.015337692 -0.00040895113 -0.014300054 0.0059377565 -0.0045344285 0.02467964 -0.021299351 0.00189631
-0.0052576996 -0.0040596104 -0.009519519 0.0046189292 -0.015212818 -0.014967289 -0.014718905 -0.007899956
0.0026828584 -0.013276584 -0.0065833176 0.0026561124 -0.0135761555 0.018486448 0.0043656 -0.028414225
0.017711144 -0.0132108815 -0.0038329954 -0.008758005 0.004028229 0.010526489 -0.027173137 -0.005369356
0.018189332 0.020452945 -0.0074085635 0.0072131543 0.01720208 0.0031579612 -0.00947864 0.011427021
0.003278442 0.01140084 0.040114176 0.017368412 0.008215321 0.0106411455 0.01730095 -0.00316491
-5.185088e-05 0.00060817314 -0.005574297 0.006112129 0.0065003713 0.008043613 0.00043029198 0.011933531
-0.014690379 -0.017279198 -0.008793568 0.027573016 -0.0031235314 0.013964564 0.015460737 0.008851963
0.0064384653 -0.0011286375 -0.018343069 -0.004169674 -0.013037781 0.0048031523 -0.0024125134 -0.011982041
-0.0022684315 -0.002272897 -0.030127764 0.007104329 0.005920619 0.016947646 -0.008593584 -0.00027556872
-0.012177524 -0.010262929 -0.007401635 0.0050366665 0.016209625 -0.027690435 -0.006394401 -0.013123925
0.003031754 0.006886094 0.024817633 0.00015628492 -0.004859495 -0.0012028299 0.0025051874 0.0042984216
0.0030222263 0.015196734 -0.0015167547 -0.016525755 -0.0055305366 -0.020859713 -0.016945107 0.015607973
-0.018755948 0.0012040691 -0.006711585 -0.011590604 0.0038761168 0.010688727 -0.0028250013 -0.0021574076
0.0040627946 -0.0075954646 0.0094460035 0.013586825 -0.008350894 -0.008353554 0.013050481 -0.023481864
0.006817039 0.0026341635 2.7336007e-05 0.0109276045 0.015949063 0.0023285619 -0.0014367437 -0.018136421
-0.002973827 -0.00044597022 -0.011905923 0.015316176 -0.00027166578 -0.014236639 -0.0058905827 0.018728832
00000000: 5a07 d2bb 05e6 d23b 9f72 2a39 2fe2 083c
00000010: b346 febb 6601 09bb a678 a8bc 84a0 183b
00000020: bd5b 6c3b dadf c33b e7df c9ba cad8 c73c
00000030: 7af3 333c 1f3f bdbb be0d a2bc ec89 923c
00000040: fef5 9abc 55da 0bbc 6c62 57bc f5ff a03c
00000050: 7ed6 11bb 6db0 86bc b3b2 8a3c c4d1 5e3c
00000060: 24ef b13b 208a bbbc 3a6c 2bbc d174 433c
00000070: 5e6b 84bc 73cb b639 6970 453a 3ea0 8c3b
00000080: f9e0 a4bc 0ea3 143c 7d4a ef3b 29b1 e93b
00000090: 003d 0a3b d7d2 df3b 129e a5b9 eb81 363c
000000a0: 3389 113b 8d79 223c f5b9 513b f49a 963c
000000b0: 8774 91bb 110e d9bc cfca 573b 33b1 05bc
000000c0: 17f9 8aba f033 2f3a c79c ae39 eca0 46bb
000000d0: 6d52 463c fc6c cbba 0b0c 58bc 5ab5 eb3b
000000e0: 05e7 083b 9379 093c 4ca6 d43c e617 533c
000000f0: f373 ffbb e7b8 373c 099f a5bb a83b a1bb
00000100: 7338 593c ddd3 04bb c00a 013d 860d 7ebc
00000110: 215e 0bbc d7a7 5abc 8a24 58bc 7bc7 933a
00000120: 3cfc 0d3c 802a 3cbc 5b9f 51bb 4b72 c33b
00000130: 2a4e 2e3c 2128 d63b 4bf5 20bc ad92 233c
00000140: c8e6 173c 6cf2 e5b9 7b81 833c 43e0 61bc
00000150: 3874 44bc 91cd 22bc 4cb2 263c b853 53bc
00000160: ae46 283a 5e5d 9d3b 3848 35bc 0cea ed3c
00000170: c591 3b3c 6e81 2abc c541 ffbb 7991 c9bb
00000180: 54e7 91bb 360c c9bb 5a14 b1bc d969 f93c
00000190: f60f 98bb ebc8 eb3b b3da 5d3c 186d c4bb
000001a0: 638a 413b e484 debc 647c 353c 6579 243c
000001b0: ecaf 83bc 27ec c2bc 0868 73bb e619 a5bc
000001c0: 755d 3cbc 9700 9cbc 9c28 ce3c 4569 dbbb
000001d0: c8fd 26bc 0664 8fbc 52c4 043c d8fb 7abb
000001e0: f14a 7b3c 7e68 d6b9 c64a 6abc 8391 c23b
000001f0: 8b95 94bb f52c ca3c fa7b aebc 9b8d f83a
00000200: c848 acbb 7b06 85bb c2f7 1bbc 635a 973b
00000210: 2f3f 79bc 5c39 75bc 9027 71bc d16e 01bc
00000220: e5d2 2f3b 0886 59bc dfb8 d7bb 2c12 2e3b
00000230: 866e 5ebc e470 973c 4f0d 8f3b f3c4 e8bc
00000240: f616 913c 7472 58bc fe32 7bbb bc7d 0fbc
00000250: 3cff 833b 4b77 2c3c 339a debc 6cf1 afbb
00000260: cb01 953c ef8c a73c 89c3 f2bb 535c ec3b
00000270: 60eb 8c3c ccf5 4e3b 4c4c 1bbc 6638 3b3c
00000280: 21db 563b 97ca 3a3c c34e 243d 3348 8e3c
00000290: 8e99 063c 3358 2e3c b9ba 8d3c 616a 4fbb
000002a0: 757a 59b8 cf6d 1f3a 98a8 b6bb 4148 c83b
000002b0: 1101 d53b 5cc9 033c d098 e139 db84 433c
000002c0: eaaf 70bc 1b8d 8dbc e612 10bc cee0 e13c
000002d0: 29b4 4cbb a0cb 643c 084f 7d3c d307 113c
000002e0: c3f9 d23b caee 93ba 3444 96bc c3a1 88bb
000002f0: 6b9c 55bc c363 9d3b 421b 1ebb 5350 44bc
00000300: f7a9 14bb e2f4 14bb 80ce f6bc 6ecb e83b
00000310: c001 c23b cad5 8a3c 1bcc 0cbc 357a 90b9
00000320: 3d84 47bc d825 28bc 6a89 f2bb 9f0a a53b
00000330: 0cca 843c 0dd7 e2bc 2088 d1bb bb05 57bc
00000340: 64b0 463b bea4 e13b 594e cb3c 6ae0 2339
00000350: 663c 9fbb 46a8 9dba 122e 243b c6d9 8c3b
00000360: 8b10 463b b9fb 783c d8cd c6ba 0561 87bc
00000370: 8139 b5bb fde1 aabc 77d0 8abc 95b8 7f3c
00000380: 13a6 99bc dbd1 9d3a dbec dbbb 84e6 3dbc
00000390: 7306 7e3b c51f 2f3c a823 39bb 4b63 0dbb
000003a0: 3121 853b 60e3 f8bb 69c3 1a3c 469b 5e3c
000003b0: 30d2 08bc 58dd 08bc afd1 553c 0a5d c0bc
000003c0: 7861 df3b eea1 2c3b a14f e537 b209 333c
000003d0: 9ca7 823c c99a 183b 1e51 bcba d592 94bc
000003e0: 8ae4 42bb 1cd1 e9b9 0f11 43bc b3f0 7a3c
000003f0: 5d6e 8eb9 cb40 69bc ca05 c1bb 356d 993c

basis_comm_weights f4 [1, 5]
0.6299602 0.20028026 0.09038938 0.32498407 0.1759425
00000000: 1245 213f 4516 4d3e 111e b93d 5064 a63e
00000010: 452a 343e

bias f4 [16, 768]
0.046052355 0.017274505 0.049940106 0.044305295 -0.02187208 0.009540607 -0.015722955 0.06424228
-0.002305329 0.048432212 -0.013474569 0.0033872828 0.037487224 0.00358536 0.0055486155 0.011199785
-0.14229904 0.0044636866 -0.0020535595 -0.017777426 0.030066648 -0.071682066 0.016382618 -0.014136717
0.05135858 -0.003497692 -0.05488581 -0.0038138055 -0.040916212 -0.0011705763 0.027143871 0.05919439
0.01649819 0.076360315 -0.033085532 -0.027917039 -0.04754914 -0.014043134 0.017924171 -0.03884057
-0.027651979 -0.022872347 -0.07844722 0.010292889 0.025093287 0.028302707 0.0019882154 -0.0054345853
-0.089379095 0.046145707 0.049567528 -0.0040388615 0.011943017 -0.000909417 0.01179711 0.118769266
0.009729294 -0.035343055 0.02294425 0.0030355523 -0.03282827 0.06176627 -0.02626663 0.0011980089
-0.042731006 -0.064117245 0.021213567 -0.013709714 -0.039357778 0.012181717 -0.060140476 0.041191645
-0.02588238 -0.045665942 -0.009461642 -0.0031815562 0.071437575 -0.04683482 -0.022474183 -0.0029335998
-0.0503714 0.030163934 0.10507028 -0.022856113 -0.034472 -0.02069121 0.0139971 0.04535791
-0.035277084 0.0052993065 0.03174596 0.05622254 0.014735772 -0.033000186 0.020435227 -0.028529504
0.045398526 0.0089279935 -0.01756068 -0.023005161 0.04258855 0.04595599 0.054411564 -0.00888271
0.0069019436 -0.032700505 -0.029535776 0.031641282 0.015423868 0.011432421 0.009681313 -0.028159065
0.027160665 -0.026367271 0.018493414 -0.00678885 -0.06978941 0.04656955 -0.028963786 0.03412002
-0.040605534 -0.029547388 -0.040121168 -0.041079406 -0.014887029 0.013787228 -0.019845419 0.012882503
0.019831074 0.039203823 -0.005454904 -0.0006954 0.010580923 0.08377044 0.009941743 -0.05683346
0.0509639 -0.0014066629 0.009929417 -0.005497122 -0.0022018284 -0.053046945 -0.064643286 0.004858156
-0.051777102 0.023087 0.0013106293 0.0034474318 0.016891414 -0.009638385 0.015112383 -0.019715704
-0.0021198124 -0.011722715 -0.010897238 0.04418042 0.042746834 -0.054565817 0.016796269 -0.018626742
-0.012295511 -0.041833453 0.07443229 0.090880424 0.027170293 -0.032726727 -0.015936973 -0.017926713
0.028502759 0.039473537 0.03012578 -0.050422013 0.018861914 0.017305491 0.0037628678 -0.053699493
0.000868769 -0.005881908 -0.018711597 -0.0076610795 0.0037419936 -0.029305594 -0.01703936 0.076905966
-0.017356832 0.06379612 0.01215657 0.055552073 -0.026039736 -0.012216818 -0.012607276 0.007281082
-0.009482714 -0.04140342 0.029696297 0.065737344 0.013212652 -0.036007885 0.03761602 -0.04289906
-0.022643328 -0.0028467006 0.032871522 -0.048522364 -0.008807598 -0.0034538615 -0.05488928 -0.035256665
0.024740016 -0.00096807175 0.0071345423 0.022035336 0.06889394 0.019225597 -0.044171367 0.023710757
0.068252765 0.029692834 0.010641885 -0.020748336 0.027615223 -0.0014497285 0.008050847 -0.039389707
-0.069504425 0.0032776096 -0.023667777 -0.019249547 0.026424909 -0.02078471 0.0033813566 0.013516492
0.018398514 -0.023162993 0.0055349716 -0.032937363 0.0031007365 0.01811352 0.0014527369 -0.0018980944
0.0007178804 -0.038056485 -0.050473887 0.00651355 -0.0031495737 -0.017438065 0.038774505 0.004582333
-0.06791912 0.021141352 0.038601335 -0.010922798 -0.07000812 0.013314786 -0.008078034 0.041398138
00000000: 65a1 3c3d 4383 8d3c ff8d 4c3d 7879 353d
00000010: 142d b3bc 3550 1c3c 6dcd 80bc 7591 833d
00000020: 0115 17bb db60 463d 70c4 5cbc 2dfd 5d3b
00000030: 348c 193d 5cf8 6a3b 29d1 b53b 4e7f 373c
00000040: d7b6 11be 1e44 923b 0395 06bb f7a1 91bc
00000050: 554e f63c 0cce 92bd d734 863c b09d 67bc
00000060: 605d 523d 8939 65bb f1cf 60bd 0af1 79bb
00000070: c297 27bd 066e 99ba d35c de3c d175 723d
00000080: 3627 873c cc62 9c3d b284 07bd 46b2 e4bc
00000090: e3c2 42bd 2c15 66bc b6d5 923c 4a17 1fbd
000000a0: 6786 e2bc ca5e bbbc f0a8 a0bd 81a3 283c
000000b0: 7090 cd3c 14db e73c b84c 023b 9b14 b2bb
000000c0: 630c b7bd 4803 3d3d 5207 4b3d 6d58 84bb
000000d0: a5ac 433c f165 6eba aa48 413c 4d3d f33d
000000e0: 9e67 1f3c e1c3 10bd 94f5 bb3c 1ef0 463b
000000f0: f076 06bd a1fe 7c3d 1e2d d7bc 8206 9d3a
00000100: b506 2fbd e74f 83bd 13c8 ad3c b59e 60bc
00000110: 9f35 21bd d395 473c dc55 76bd 92b8 283d
00000120: 4907 d4bc 360c 3bbd 0105 1bbc a881 50bb
00000130: dd4d 923d ded5 3fbd c71b b8bc a341 40bb
00000140: 3e52 4ebd 5b1a f73c 162f d73d be3c bbbc
00000150: 8332 0dbd 9d80 a9bc 1854 653c 37c9 393d
00000160: b47e 10bd cea5 ad3b 0d08 023d 9b49 663d
00000170: 4f6e 713c 342b 07bd c767 a73c b5b6 e9bc
00000180: cef3 393d b846 123c 6adb 8fbc 5275 bcbc
00000190: 5571 2e3d 593c 3c3d a9de 5e3d c988 11bc
000001a0: b329 e23b f7f0 05bd 03f5 f1bc 4a9a 013d
000001b0: 64b4 7c3c 0d4f 3b3c 5f9e 1e3c d7ad e6bc
000001c0: 0b80 de3c 2d00 d8bc 807f 973c 0075 debb
000001d0: c0ed 8ebd b6bf 3e3d 7645 edbc 6fc1 0b3d
000001e0: fd51 26bd 5d0d f2bc 1856 24bd e142 28bd
000001f0: bae8 73bc d3e3 613c dc92 a2bc 2211 533c
00000200: c774 a23c 3094 203d 0dbf b2bb 814b 36ba
00000210: 9c5b 2d3c d68f ab3d b1e2 223c 34ca 68bd
00000220: 86bf 503d c65f b8ba feae 223c 3421 b4bb
00000230: 8d4c 10bb c147 59bd b363 84bd 2b31 9f3b
00000240: 3a14 54bd f320 bd3c 6cc9 ab3a 4fee 613b
00000250: dd5f 8a3c 51ea 1dbc ee99 773c d482 a1bc
00000260: 8dec 0abb a110 40bc 548a 32bc 87f6 343d
00000270: 4e17 2f3d 6880 5fbd 5498 893c 1c97 98bc
00000280: 1c73 49bc 8e59 2bbd f56f 983d 841f ba3d
00000290: 3c94 de3c 760c 06bd 418e 82bc 0bdb 92bc
000002a0: 9e7e e93c 01af 213d 57ca f63c 5087 4ebd
000002b0: 4d84 9a3c 3fc4 8d3c 729a 763b 00f4 5bbd
000002c0: 1abe 633a 05bd c0bb 1049 99bc cb09 fbbb
000002d0: 3c3c 753b 4912 f0bc 2196 8bbc e080 9d3d
000002e0: ea2f 8ebc 8aa7 823d 5a2c 473c 928a 633d
000002f0: 4951 d5bc 0c29 48bc c08e 4ebc 2596 ee3b
00000300: 635d 1bbc a296 29bd a645 f33c 4da1 863d
00000310: e179 583c 017d 13bd 4113 1a3d edb6 2fbd
00000320: 807e b9bc b68f 3abb 4aa4 063d 63bf 46bd
00000330: be4d 10bc 2e5a 62bb 95d3 60bd 4b69 10bd
00000340: 93ab ca3c 32c6 7dba e1c8 e93b 7383 b43c
00000350: 4418 8d3d 007f 9d3c 09ed 34bd 103d c23c
00000360: 1bc8 8b3d 633e f33c 4d5b 2e3c 6af8 a9bc
00000370: 5239 e23c d104 beba b3e7 033c 1a57 21bd
00000380: 5658 8ebd 2acd 563b ede2 c1bc 3ab1 9dbc
00000390: 0d79 d83c b244 aabc c099 5d3b 4774 5d3c
000003a0: 7bb8 963c 51c0 bdbc b55e b53b 54e9 06bd
000003b0: ba35 4b3b ce62 943c c369 be3a 7bc9 f8ba
000003c0: 2330 3c3a 1ee1 1bbd b5bd 4ebd 9e6f d53b
000003d0: 1469 4ebb 46da 8ebc 04d2 1e3d 6527 963b
000003e0: 2e19 8bbd a130 ad3c 6f1c 1e3d 89f5 32bc
000003f0: 6b60 8fbd 4326 5a3c bb59 04bc 1891 293d

weight f4 [768]
0.904489 1.0039579 1.0651702 0.93817204 1.0070962 0.97842413 1.0331322 1.0024046
1.0183569 1.0098644 1.0029397 1.0285001 1.0520152 1.0368053 1.0394064 1.0495968
1.2175542 0.9605841 0.9831472 1.0252492 0.9749773 1.1573349 0.99508506 0.9635105
0.9937713 0.9744255 1.1338854 0.9523023 1.0371578 0.9380298 0.9421758 1.0318202
1.0601013 1.1354985 0.99660665 0.99562764 0.8948972 0.9628593 1.0186186 0.91831815
0.9730091 0.9808823 0.8920364 1.0591762 0.9154315 0.9296673 0.98804283 1.0250443
1.0601835 0.9513784 1.0536932 0.9622462 1.0112642 0.9550483 1.051339 1.2485042
0.9686287 0.90880823 1.0351901 0.98174214 1.0822698 1.1210659 0.90613914 0.95850235
0.9015545 0.96253705 1.1026298 0.9603242 1.0367379 0.9804423 1.0711689 1.0365893
1.0075375 1.1002468 0.9371938 0.98734146 0.8285943 0.91698486 1.0271772 1.0600057
0.8728502 0.9866292 1.2153338 1.0260073 1.0342939 1.0484657 0.9864817 1.0457761
0.9343491 0.90499705 0.9440444 1.0943395 0.9797377 1.0227498 0.99374384 0.9958583
0.93451273 0.99345607 1.0182214 0.9298713 1.0142078 1.017311 1.1438254 1.0062708
0.96012974 1.0724103 0.9793156 1.0418884 0.9398652 0.9433248 0.9880365 1.1030976
0.8609195 1.0283899 1.0201252 1.0143406 1.116527 0.8539151 0.9673837 0.92220306
0.9323204 0.9927145 1.0603354 0.8939965 1.0391071 1.010314 1.0208853 0.87915665
1.0126104 0.90119874 0.9844352 0.99187 0.9461268 0.83504474 0.9050624 1.1283394
0.9769769 0.9641684 0.9281675 0.94890416 0.96567607 1.0051001 0.87119913 0.97288644
0.88453066 0.9186537 1.0032128 0.91079116 1.0899919 0.92581373 0.92183965 1.0162661
0.9735507 0.9848937 1.0360559 1.1281824 1.114231 0.93591666 0.95987934 0.912794
0.93616074 0.90604174 1.1621947 1.1812787 1.0110985 0.8860319 0.9338883 1.0170468
0.9948862 0.9211483 0.9969482 0.90706116 0.96292514 1.0041803 0.9955296 0.9281364
0.97993 0.9896204 0.94159377 1.0286701 0.9887823 0.9322877 1.0042902 0.89141166
1.056092 0.96213657 1.0053209 0.9043434 1.0074677 0.9338909 0.96816903 1.1077697
0.9815561 0.9947535 0.9208356 1.152878 1.0304166 0.89785683 0.94143885 0.88455164
1.0592006 1.0097234 0.90006876 0.8960857 1.0134301 1.0301236 1.1182858 1.075115
1.0019236 0.9728894 0.9793099 0.9714046 1.0016865 0.9219406 1.0037178 1.007165
1.0274615 1.0606682 0.92172945 1.0327716 0.946132 0.98345864 1.010956 0.8885577
1.0064685 0.917689 1.0353216 0.98829573 0.9066357 0.9400203 1.0073322 1.0152438
1.0967314 1.0433203 0.94249797 0.8853316 0.9939705 0.9934487 0.9802699 1.048457
0.9684392 0.89483225 0.97613156 1.0846418 1.0260396 1.0673279 1.0285147 1.0010071
0.8837309 0.9286299 0.8461715 0.9642594 1.1847484 0.97710276 0.9589444 0.98680866
00000000: 978c 673f b181 803f 7f57 883f 0b2c 703f
00000010: 87e8 803f 017a 7a3f ad3d 843f cb4e 803f
00000020: 8559 823f 3d43 813f 5460 803f e4a5 833f
00000030: 6fa8 863f 09b6 843f 450b 853f 3059 863f
00000040: d1d8 9b3f d7e8 753f 89af 7b3f 5e3b 833f
00000050: 1d98 793f 8d23 943f e5bd 7e3f a0a8 763f
00000060: cc67 7e3f f373 793f 2823 913f 15ca 733f
00000070: 96c1 843f b922 703f 6f32 713f af12 843f
00000080: 66b1 873f 0458 913f 9d21 7f3f 74e1 7e3f
00000090: fc17 653f f27d 763f 1862 823f e616 6b3f
000000a0: 2017 793f 1a1b 7b3f 7f5c 643f 1693 873f
000000b0: b859 6a3f adfe 6d3f 60f0 7c3f a734 833f
000000c0: 18b4 873f 898d 733f 6bdf 863f c455 763f
000000d0: 1b71 813f 0c7e 743f 4792 863f fcce 9f3f
000000e0: 0df8 773f a8a7 683f 1c81 843f 7453 7b3f
000000f0: d187 8a3f 167f 8f3f bcf8 673f 6960 753f
00000100: 47cc 663f d468 763f f922 8d3f cfd7 753f
00000110: d4b3 843f 44fe 7a3f 101c 893f f5ae 843f
00000120: fdf6 803f e3d4 8c3f efeb 6f3f 69c2 7c3f
00000130: c21e 543f 85bf 6a3f 8b7a 833f 44ae 873f
00000140: 1c73 5f3f bb93 7c3f 0f90 9b3f 3554 833f
00000150: be63 843f 2034 863f 118a 7c3f fedb 853f
00000160: 8131 6f3f e3ad 673f e5ac 713f 5113 8c3f
00000170: 17d0 7a3f 77e9 823f ff65 7e3f 92f0 7e3f
00000180: 3a3c 6f3f 2353 7e3f 1455 823f 0c0c 6e3f
00000190: 90d1 813f 3f37 823f df68 923f 7bcd 803f
000001a0: 10cb 753f be44 893f 6db4 7a3f 995c 853f
000001b0: 019b 703f bc7d 713f f6ef 7c3f 4d32 8d3f
000001c0: 3865 5c3f 48a2 833f 7693 823f ead5 813f
000001d0: 5bea 8e3f 2e9a 5a3f 75a6 773f 8015 6c3f
000001e0: 8dac 6e3f 8a22 7e3f 12b9 873f f4dc 643f
000001f0: 7601 853f f851 813f 5fac 823f 6910 613f
00000200: 389d 813f f6b4 663f f203 7c3f 31eb 7d3f
00000210: 5e35 723f 7ec5 553f 2bb2 673f 6d6d 903f
00000220: 281b 7a3f bed3 763f 639c 6d3f 62eb 723f
00000230: 8c36 773f 1fa7 803f e806 5f3f 160f 793f
00000240: 9a70 623f e42c 6b3f 4769 803f 9c29 693f
00000250: db84 8b3f 2102 6d3f affd 6b3f 0215 823f
00000260: 9e3a 793f fe21 7c3f 7b9d 843f 4868 903f
00000270: 1f9f 8e3f 3c98 6f3f a7ba 753f deac 693f
00000280: 3ba8 6f3f 5af2 673f ccc2 943f 2434 973f
00000290: ad6b 813f fdd2 623f 4e13 6f3f 972e 823f
000002a0: ddb0 7e3f 60d0 6b3f ff37 7f3f 2935 683f
000002b0: 4382 763f fb88 803f 07db 7e3f 599a 6d3f
000002c0: b1dc 7a3f c357 7d3f 4a0c 713f 76ab 833f
000002d0: d620 7d3f 68aa 6e3f 958c 803f 8e33 643f
000002e0: 062e 873f 954e 763f 5bae 803f 0d83 673f
000002f0: b4f4 803f 7913 6f3f edd9 773f 66cb 8d3f
00000300: 4347 7b3f 2aa8 7e3f e2bb 6b3f 8291 933f
00000310: b1e4 833f f2d9 653f 2302 713f fa71 623f
00000320: e393 873f 9e3e 813f e86a 663f df65 653f
00000330: 14b8 813f 17db 833f fd23 8f3f 5e9d 893f
00000340: 083f 803f 480f 793f 0eb4 7a3f f9ad 783f
00000350: 4337 803f 4d04 6c3f d379 803f c8ea 803f
00000360: dc83 833f fac3 873f 76f6 6b3f dc31 843f
00000370: b535 723f f2c3 7b3f 0267 813f 8478 633f
00000380: f6d3 803f abed 6a3f 6b85 843f f300 7d3f
00000390: 4719 683f 2ca5 703f 43f0 803f 82f3 813f
000003a0: b261 8c3f 858b 853f 8c47 713f 17a5 623f
000003b0: da74 7e3f a752 7e3f f8f2 7a3f d733 863f
000003c0: a2eb 773f ba13 653f c2e3 793f 8bd5 8a3f
000003d0: 4455 833f 339e 883f 5fa6 833f 0021 803f
000003e0: 303c 623f b0ba 6d3f b29e 583f b4d9 763f
000003f0: d6a5 973f 6823 7a3f 617d 753f 7e9f 7c3f

bias f4 [768]
0.122887745 0.024879582 0.036055014 0.094439305 -0.03262079 0.009481548 -0.034209125 0.14640759
0.015933024 0.07391693 -0.028683603 0.028771155 0.068943344 -0.025797125 0.017873805 0.05156948
-0.26197746 0.011531176 -0.0007981262 -0.07627063 0.09895048 -0.16571704 0.029450167 -0.021174401
0.077594586 0.034834065 -0.12612295 -0.022980016 -0.06826897 0.022000924 0.052454077 0.09390959
-0.022163631 0.16935243 -0.05960902 -0.041628595 -0.07526907 -0.024461241 0.07160244 -0.0956074
-0.0697611 -0.0056912317 -0.15220876 0.06461407 0.06679236 0.054606915 0.048815124 -0.0048714275
-0.15258811 0.08866107 0.09173058 0.0020720402 0.03384453 0.0040530753 -0.047265578 0.25857788
0.021348448 -0.07766125 0.04636676 0.007473608 -0.076960884 0.11956386 -0.086676195 -0.020830045
-0.09622074 -0.16884246 0.09200451 -0.0327574 -0.1346854 0.049716607 -0.10185904 0.07182334
-0.050873827 -0.10046738 -0.019713625 -0.009657302 0.1442692 -0.08826229 -0.05111952 -0.09297422
-0.084512696 0.058700323 0.23715277 -0.08076291 -0.05468873 -0.06377306 0.06140785 0.116554774
-0.05849721 0.07133939 0.023775494 0.10490852 0.005727845 -0.041271124 0.008318999 -0.014737376
0.0885149 0.020621687 -0.034013364 -0.049336948 0.10535601 0.061582755 0.14105552 -0.020152485
0.028028416 -0.07212566 -0.0026863315 0.05046969 0.029505057 0.02170787 0.01813561 -0.09031485
0.04702035 -0.0552085 0.022267345 -3.5601868e-05 -0.15486935 0.097401924 -0.040608056 0.054331582
-0.07450344 -0.08604333 -0.07685887 -0.098891154 -0.036504027 0.023609761 -0.031549077 -0.024742156
0.024831442 0.087969966 -0.00026097952 0.01447669 0.008810526 0.16347215 0.10520174 -0.12690106
0.0780623 0.0027045181 0.030075446 -0.011445105 0.030527178 -0.10567422 -0.09607315 0.0033949676
-0.076941855 0.07317264 -0.007044025 0.016709577 0.02994662 -0.02378779 0.056563966 -0.016087838
-0.029945623 -0.007805522 -0.0625535 0.11964033 0.11139311 -0.06117909 0.00882892 -0.103023395
-0.03085902 -0.0996963 0.14615193 0.17612068 0.045711104 -0.08260235 -0.025375832 -0.023039032
0.03840835 0.13098092 0.05415634 -0.09382845 0.07076337 0.05953802 0.021582935 -0.07112109
0.04800782 -0.012862744 -0.008830536 0.027441598 -0.0080722505 -0.055499673 0.0108601935 0.17797592
-0.058661316 0.1318965 -0.0074877623 0.12869245 -0.06112693 -0.054012515 -0.039215643 -0.035409093
-0.04159552 -0.08999448 0.0521837 0.15026774 0.043012884 -0.085135266 0.06200138 -0.07929971
-0.034003235 -0.013972468 0.050825167 -0.107066296 0.015530303 -0.03281742 -0.110951655 -0.0930515
0.048709534 -0.025612863 0.031111222 0.022918226 0.13718846 0.052893117 -0.089233056 0.0465295
0.1211047 0.09862164 0.04966911 -0.050394043 0.092077374 -0.0035416675 -0.0013170912 -0.082480475
-0.12038608 0.08161779 -0.048122454 -0.024485929 0.06468676 -0.04310086 -0.016879356 0.052305643
0.087604284 -0.04395432 -0.01427625 -0.06296504 -0.04023426 0.013158896 -0.009824647 -0.045579433
-0.014665625 -0.08980219 -0.08056508 0.06674052 -0.02663452 -0.06319089 0.047843054 -0.01090044
-0.14479177 0.09911943 0.12570976 -0.021431513 -0.19787598 -0.014065881 -0.0008180938 0.086673506
00000000: 92ac fb3d 44d0 cb3c 6cae 133d 6569 c13d
00000010: 619d 05bd 7f58 1b3c de1e 0cbd dfeb 153e
00000020: f985 823c c261 973d e0f9 eabc 7cb1 eb3c
00000030: 2b32 8d3d 7e54 d3bc 166c 923c 853a 533d
00000040: e921 86be 42ed 3c3c 5839 51ba c733 9cbd
00000050: 8da6 ca3d bab1 29be 7a41 f13c f075 adbc
00000060: e9e9 9e3d 2aae 0e3d 6026 01be 9640 bcbc
00000070: 9ad0 8bbd 483b b43c 16da 563d ac53 c03d
00000080: 8190 b5bc b96a 2d3e 9628 74bd bf82 2abd
00000090: ac26 9abd f162 c8bc 4da4 923d d0cd c3bd
000000a0: e8de 8ebd 837d babb 9ddc 1bbe 6254 843d
000000b0: 6fca 883d 80ab 5f3d 5ef2 473d 7fa0 9fbb
000000c0: 0f40 1cbe ef93 b53d 3edd bb3d 11cb 073b
000000d0: 90a0 0a3d a9cf 843b 8d99 41bd 5264 843e
000000e0: f1e2 ae3c dd0c 9fbd 12eb 3d3d 2be5 f43b
000000f0: ab9d 9dbd e6dd f43d 4a83 b1bd c5a3 aabc
00000100: 610f c5bd 0ae5 2cbe dc6c bc3d a02c 06bd
00000110: f8ea 09be a4a3 4b3d 799b d0bd 1e18 933d
00000120: 1361 50bd d7c1 cdbd 787e a1bc a939 1ebc
00000130: 4ebb 133e dcc2 b4bd b462 51bd 4569 bebd
00000140: fe14 adbd c06f 703d 2dd8 723e 0667 a5bd
00000150: 4a01 60bd 739b 82bd cc86 7b3d 45b4 ee3d
00000160: c59a 6fbd 631a 923d d3c4 c23c 47da d63d
00000170: a5b0 bb3b e90b 29bd 694c 083c 0975 71bc
00000180: 4d47 b53d d0ee a83c 9951 0bbd 8a15 4abd
00000190: e4c4 d73d 333e 7c3d dc70 103e d316 a5bc
000001a0: d99b e53c 9eb6 93bd 2a0d 30bb 4eb9 4e3d
000001b0: 97b4 f13c b4d4 b13c 2191 943c fef6 b8bd
000001c0: 6998 403d 4f22 62bd 026a b63c 3753 15b8
000001d0: 1296 1ebe a97a c73d a254 26bd cb8a 5e3d
000001e0: 4295 98bd 7c37 b0bd 2f68 9dbd 7287 cabd
000001f0: 3f85 15bd 4269 c13c 9b39 01bd 10b0 cabc
00000200: 4f6b cb3c 9929 b43d 14d4 88b9 a42f 6d3c
00000210: 065a 103c 3e65 273e 0374 d73d 5af2 01be
00000220: 21df 9f3d 493e 313b c860 f63c 4084 3bbc
00000230: 2214 fa3c ba6b d8bd 00c2 c4bd 1b7e 5e3b
00000240: b193 9dbd 89db 953d 91d1 e6bb 86e2 883c
00000250: 9d52 f53c 9dde c2bc 9eaf 673d a4ca 83bc
00000260: 8650 f5bc 77c5 ffbb 0d1c 80bd fd05 f53d
00000270: 1222 e43d ed96 7abd 2da7 103c eefd d2bd
00000280: 0ecc fcbc 932d ccbd daa8 153e fb58 343e
00000290: 913b 3b3d 6c2b a9bd fae0 cfbc 5abc bcbc
000002a0: 1352 1d3d dd1f 063e 0ad3 5d3d 2129 c0bd
000002b0: 63ec 903d 24de 733d b2ce b03c efa7 91bd
000002c0: d9a3 443d 42be 52bc f4ad 10bc 34cd e03c
000002d0: 7941 04bc a053 63bd f4ee 313c 523f 363e
000002e0: d946 70bd e00f 073e e75b f5bb f4c7 033e
000002f0: 3b60 7abd 3a3c 5dbd 95a0 20bd 2009 11bd
00000300: 1060 2abd 074f b8bd 93be 553d c9df 193e
00000310: 472e 303d 665b aebd 29f5 7d3d e367 a2bd
00000320: fa46 0bbd c7ec 64bc 0d2e 503d 9345 dbbd
00000330: d072 7e3c 8f6b 06bd 9f3a e3bd c991 bebd
00000340: a683 473d 11d2 d1bc f6dc fe3c 01bf bb3c
00000350: 227b 0c3e 74a6 583d d2bf b6bd b895 3e3d
00000360: be05 f83d 24fa c93d d671 4b3d fc69 4ebd
00000370: 1093 bc3d 521b 68bb 3fa2 acba 86eb a8bd
00000380: fa8c f6bd 3a27 a73d 0d1c 45bd b796 c8bc
00000390: 7e7a 843d 878a 30bd 9346 8abc 713e 563d
000003a0: e069 b33d 7209 34bd efe6 69bc d1f3 80bd
000003b0: aecc 24bd 6998 573c 8ef7 20bc 80b1 3abd
000003c0: 1748 70bc 36ea b7bd 4eff a4bd 41af 883d
000003d0: a330 dabc 3a6a 81bd 14f7 433d c297 32bc
000003e0: 4b44 14be 21ff ca3d 0fba 003e 2491 afbc
000003f0: 00a0 4abe 9574 66bc 5875 56ba e181 b13d

weight f4 [768]
1.0961597 0.94528943 0.92925924 0.9311778 1.0655104 0.9725296 0.91823435 0.9549398
0.968256 1.035129 0.88386947 1.025667 0.9233941 1.1661712 1.0272204 0.9741545
0.9650627 0.8428688 0.899505 1.0048405 1.0022893 1.0197678 1.0345411 1.0605161
1.0273284 0.97638744 0.9634322 1.1141833 0.93520117 1.12053 0.9781093 0.9811348
1.0323175 0.96412265 0.96773726 1.0133084 1.0203861 0.9105292 1.0263983 1.023682
1.0612459 0.9010985 0.90118396 0.9531476 0.9626905 0.8751285 0.9235029 1.0738652
0.98169774 0.9424982 0.9894477 1.0769737 0.9565854 0.9275072 1.040952 1.0246303
0.9826805 0.96791637 1.1890069 0.9932892 1.0128375 1.0486636 0.9869412 1.0397222
1.0735402 0.98179096 1.0289686 0.996068 1.0017831 0.9413682 1.1350362 1.0484698
1.0028285 1.0055758 1.017 0.9730027 0.96965396 0.99877316 0.99472344 0.991235
0.913552 0.9914699 1.0453969 1.1058047 1.0323936 0.94263685 1.0853881 0.99224085
0.8383836 0.8900997 0.9608327 0.93694174 1.0076272 1.1896036 1.0578402 0.9787611
0.965667 0.97342277 1.008826 0.97232103 0.9851701 1.045091 0.84836334 1.0272299
0.9807359 0.98202044 0.95405036 0.8756912 0.90933406 0.85948896 1.0202672 0.9558588
1.0559747 1.0809491 1.067532 0.9726475 1.1780304 0.99555045 0.9928299 0.9040791
0.99861544 0.9970324 0.98572105 0.91402715 1.0466877 1.0555041 1.0073327 1.049399
1.0080225 0.8620826 1.0190965 1.1082766 0.99471813 0.9565096 1.074504 0.88916034
0.92652404 0.9218432 0.90705854 0.9549296 0.9946734 1.0357783 1.1028432 0.81737083
0.9933743 0.9347519 0.8949466 1.073824 0.95690423 0.99696964 1.029848 1.0745351
0.975725 0.9721398 0.99377453 1.170606 0.8952627 1.0474613 1.0211987 0.82936937
0.9359811 1.1497045 0.8787032 0.9782908 1.0101898 0.9745649 0.91589814 1.0098981
0.9406422 0.90479285 0.9292814 0.945511 1.0435508 0.96438456 0.9579557 1.0657842
1.0381194 0.92978966 0.9734374 0.9662986 0.9473379 1.0470343 0.8481903 1.0665138
1.0645983 1.0349792 0.99298567 0.90833247 1.031815 0.98248464 0.98194784 1.0557944
1.0392476 0.947565 0.8912955 0.93288267 0.9626978 0.8791226 0.97064686 1.0079826
0.96292925 1.0473065 0.9591479 1.0793121 0.94893986 0.8436518 1.0053908 1.0196843
1.0618488 0.885289 0.86038804 0.9495589 0.9737537 1.0491415 1.0097561 1.1057322
0.9302966 1.0371813 1.1031892 0.96009713 1.0318646 0.94821364 0.9117143 0.8601505
0.9484511 0.9934026 0.91323626 0.96684635 0.993243 1.105995 1.1195219 0.8868059
1.0449804 1.0464611 0.9898925 0.86202145 0.9564596 0.9945012 0.96542716 0.9862397
0.9491635 1.1116395 0.9825267 1.0839347 1.1303096 0.85067993 0.9183519 0.89832246
0.95109 1.0289531 1.0166966 0.9118866 1.1811628 0.964576 0.8803541 1.01244
00000000: f64e 8c3f 7dfe 713f efe3 6d3f ab61 6e3f
00000010: a562 883f b3f7 783f 6811 6b3f ef76 743f
00000020: a0df 773f 1b7f 843f 4545 623f 0e49 833f
00000030: 8e63 6c3f 1945 953f f57b 833f 3062 793f
00000040: 590e 773f 40c6 573f f645 663f 9d9e 803f
00000050: 044b 803f c087 823f d86b 843f febe 873f
00000060: 7f7f 833f 87f4 793f 7ea3 763f 8f9d 8e3f
00000070: 5869 6f3f 876d 8f3f 5f65 7a3f a62b 7b3f
00000080: fb22 843f bed0 763f a1bd 773f 17b4 813f
00000090: 039c 823f 7118 693f 0561 833f 0308 833f
000000a0: e8d6 873f 64ae 663f feb3 663f 7b01 743f
000000b0: e272 763f 6c08 603f b06a 6c3f 6a74 893f
000000c0: 8b50 7b3f 9047 713f 724c 7d3f 46da 893f
000000d0: c8e2 743f 1d71 6d3f ea3d 853f 1627 833f
000000e0: f390 7b3f 5ec9 773f 6131 983f 3348 7e3f
000000f0: a9a4 813f 9c3a 863f 2ea8 7c3f 9e15 853f
00000100: c469 893f a756 7b3f 3eb5 833f 50fe 7e3f
00000110: 6e3a 803f 82fd 703f de48 913f 4234 863f
00000120: af5c 803f b5b6 803f 0e2d 823f b416 793f
00000130: 3e3b 783f 99af 7f3f 32a6 7e3f 94c1 7d3f
00000140: 8bde 693f f9d0 7d3f 91cf 853f 028b 8d3f
00000150: 7925 843f a650 713f ffed 8a3f 7f03 7e3f
00000160: 4fa0 563f 93dd 633f 22f9 753f 6adb 6f3f
00000170: eef9 803f ee44 983f 4f67 873f 1690 7a3f
00000180: f435 773f 3c32 793f 3621 813f 08ea 783f
00000190: 1c34 7c3f 8bc5 853f 572e 593f 457c 833f
000001a0: 8211 7b3f b165 7b3f a53c 743f 4c2d 603f
000001b0: 1eca 683f 7807 5c3f 1e98 823f 2ab3 743f
000001c0: 2e2a 873f 8a5c 8a3f e3a4 883f 6dff 783f
000001d0: b3c9 963f 65dc 7e3f 1a2a 7e3f ba71 673f
000001e0: 43a5 7f3f 843d 7f3f 3758 7c3f affd 693f
000001f0: ddf9 853f c21a 873f 47f0 803f b552 863f
00000200: e206 813f 72b1 5c3f c171 823f 02dc 8d3f
00000210: d9a5 7e3f d0dd 743f 5989 893f 03a0 633f
00000220: ae30 6d3f eafd 6b3f fd34 683f 4476 743f
00000230: eaa2 7e3f 6294 843f f729 8d3f 373f 513f
00000240: c74d 7e3f e74b 6f3f 381b 653f 1173 893f
00000250: adf7 743f 6739 7f3f 0fd2 833f 5e8a 893f
00000260: 1dc9 793f 27de 783f 0268 7e3f 6bd6 953f
00000270: f02f 653f 3613 863f a4b6 823f 8d51 543f
00000280: 759c 6f3f 8429 933f b1f2 603f 4471 7a3f
00000290: e64d 813f 167d 793f 4d78 6a3f 5744 813f
000002a0: edcd 703f 81a0 673f 63e5 6d3f 020d 723f
000002b0: 1393 853f e8e1 763f 963c 753f 9e6b 883f
000002c0: 19e1 843f b206 6e3f 3233 793f 585f 773f
000002d0: bd84 723f 3805 863f 0023 593f 8683 883f
000002e0: c244 883f 337a 843f 4f34 7e3f 7a88 683f
000002f0: 8412 843f 1d84 7b3f ef60 7b3f 4524 873f
00000300: 1106 853f 9f93 723f f12b 643f 66d1 6e3f
00000310: 5d73 763f 2e0e 613f 507c 783f 9305 813f
00000320: 8882 763f 240e 863f b78a 753f e626 8a3f
00000330: b9ed 723f 90f9 573f a5b0 803f 0485 823f
00000340: a9ea 873f 4da2 623f 6442 5c3f 4b16 733f
00000350: ec47 793f 454a 863f b03f 813f a288 8d3f
00000360: eb27 6e3f 5bc2 843f 4e35 8d3f edc8 753f
00000370: 2414 843f 21be 723f 1c66 693f d332 5c3f
00000380: b1cd 723f a24f 7e3f dac9 693f 3e83 773f
00000390: 2c45 7e3f 3f91 8d3f 7e4c 8f3f b605 633f
000003a0: ebc1 853f 70f2 853f 9869 7d3f 70ad 5c3f
000003b0: 89da 743f a197 7e3f 3c26 773f 347a 7c3f
000003c0: 61fc 723f 344a 8e3f df86 7b3f 5fbe 8a3f
000003d0: fcad 903f 29c6 593f 1c19 6b3f 76f8 653f
000003e0: a27a 733f bcb4 833f 1d23 823f 6671 693f
000003f0: 5830 973f 74ee 763f e35e 613f a297 813f

bias f4 [768]
-0.09686475 0.039453756 -0.11073579 0.10555593 -0.10017663 0.13694102 0.079982065 -0.0114854695
0.090686336 0.04301799 0.1183321 0.026624393 -0.099417806 -0.15430097 -0.054875422 -0.008481229
-0.006585986 0.1268771 0.062135454 -0.03684843 0.14612688 -0.0054837638 0.05709934 -0.07464747
0.053876024 0.03695318 0.030184004 0.09692554 0.07258966 -0.10442769 0.040393658 0.033696093
-0.044585753 -0.036773056 0.14957912 -0.08944741 0.082348414 -0.07960592 0.0536417 0.031761155
0.09738762 -0.100484036 -0.037250936 -0.036933642 0.04297993 0.09899679 -0.15497199 -0.1199346
-0.04321145 0.07540961 -0.092210576 -0.07548493 -0.032421 -0.017585723 -0.050293673 0.05275919
0.019957362 -0.030431256 0.19379257 0.018616665 -0.011759031 0.051584784 -0.03063574 0.1295356
0.083655566 0.15522102 0.019147618 -0.038704548 -0.061554488 0.032837782 -0.13971494 0.06394141
-0.0069752065 0.00380219 -0.07956837 -0.011884022 0.0048202407 0.0015899163 -0.025657026 -0.026367033
-0.07802669 0.014422693 -0.041278336 -0.111873336 -0.04518194 0.020461429 0.07716485 0.044685364
-0.15352663 0.1035515 0.01767238 -0.05511893 0.026604312 -0.17910859 0.06075004 -0.054269392
-0.03318808 -0.053025335 -0.016839223 -0.008228975 -0.1362179 -0.12659748 -0.14463595 -0.13405031
0.026123425 0.011297343 -0.037272472 -0.1301221 0.12367842 0.09994671 -0.10750086 0.005690839
-0.04373602 -0.070369594 0.06905218 -0.0033550665 -0.16008443 0.007966099 -0.0024892865 0.073666185
0.00875912 -0.08602009 0.0026145135 -0.04088304 -0.05203484 -0.049923606 -0.00696341 0.16257486
-0.04689944 0.13781445 -0.014979798 0.13357083 0.19656615 0.033327237 -0.11454217 0.10670048
-0.07061514 0.0847438 -0.013383958 -0.03561144 0.0049339384 -0.054381263 0.11208999 0.17599761
0.013170406 0.10204359 -0.18881099 0.027917214 -0.07480652 0.004051587 -0.031894594 -0.12998354
-0.029385835 -0.021622496 -0.12541144 0.14284098 -0.10460642 0.06046227 0.011808583 -0.18661146
-0.053966228 0.12933443 -0.10667079 -0.039449204 0.006917584 -0.014479959 -0.044759683 -0.032100838
-0.047799114 0.17154416 0.050838124 -0.053804122 0.10344856 -0.05192404 -0.06417713 0.061407752
-0.039228227 0.03779644 -0.013734395 -0.031195125 -0.058042165 0.06759341 -0.13433613 -0.14413087
-0.09542039 0.054286487 0.022568034 0.040355306 -0.025280423 -0.016436752 -0.027625497 0.09679104
-0.033734184 0.015232124 0.10129406 -0.067110546 -0.04561684 -0.10076804 0.019903148 -0.056981895
0.009665896 -0.030880556 0.04497639 0.060513068 -0.058358498 0.13344556 -0.010576796 -0.035180394
0.09775112 -0.1322902 -0.29155442 0.06501112 -0.051038478 -0.07488602 -0.017232582 0.12286991
-0.08000164 0.041007094 -0.105092876 0.0044291676 -0.019998668 0.038245097 0.05394552 -0.114194855
0.0154174995 -0.02321082 0.035589524 0.08871716 -0.019718282 0.16309847 -0.15404691 0.17722933
0.045825634 -0.044697393 -0.013359824 -0.12825789 0.0371682 -0.007886131 -0.01702321 0.020342695
-0.15467812 0.113227695 0.010967118 0.07210562 -0.1513033 0.14883332 -0.082692966 0.0940336
-0.08729148 0.0096925795 -0.0072557656 -0.07605414 -0.18402353 -0.0006305782 -0.15452412 -0.09745077
00000000: 0761 c6bd 439a 213d 72c9 e2bd b52d d83d
00000010: 6829 cdbd 443a 0c3e a3cd a33d 8d2d 3cbc
00000020: c2b9 b93d a233 303d 1a58 f23d 661b da3c
00000030: 909b cbbd 1301 1ebe 0dc5 60bd daf4 0abc
00000040: 41cf d7bb 12ec 013e bf81 7e3d 61ee 16bd
00000050: 49a2 153e 25b1 b3bb ffe0 693d c6e0 98bd
00000060: 1bad 5c3d 385c 173d 7244 f73c e680 c63d
00000070: e3a9 943d 2fde d5bd d273 253d ea04 0a3d
00000080: 8d9f 36bd 589f 16bd 452b 193e 3430 b7bd
00000090: 49a6 a83d 6e08 a3bd 66b7 5b3d fc17 023d
000000a0: 2973 c73d 93ca cdbd 7094 18bd bb47 17bd
000000b0: b90b 303d d4be ca3d fab0 1ebe 46a0 f5bd
000000c0: 7dfe 30bd 5b70 9a3d e6d8 bcbd d897 9abd
000000d0: e2cb 04bd ef0f 90bc bd00 4ebd 051a 583d
000000e0: 9f7d a33c f84a f9bc 8f71 463e fa81 983c
000000f0: f3a8 40bc 914a 533d cef7 fabc fba4 043e
00000100: 9c53 ab3d 42f2 1e3e 77db 9c3c a988 1ebd
00000110: 8f20 7cbd e980 063d 6f11 0fbe b7f3 823d
00000120: 4690 e4bb 2a2e 793b bef4 a2bd 33b5 42bc
00000130: 1cf3 9d3b bd64 d03a af2e d2bc adff d7bc
00000140: 75cc 9fbd 294d 6c3c 7913 29bd d91d e5bd
00000150: b310 39bd ba9e a73c 9b08 9e3d 0008 373d
00000160: 1636 1dbe cf12 d43d abc5 903c 63c4 61bd
00000170: 49f1 d93c 3e68 37be 09d5 783d 9549 5ebd
00000180: 39f0 07bd 1831 59bd 69f2 89bc d3d2 06bc
00000190: b57c 0bbe c5a2 01be 721b 14be 7c44 09be
000001a0: cb00 d63c 7e18 393c 05ab 18bd ba3e 05be
000001b0: 1d4b fd3d dcb0 cc3d 6929 dcbd 387a ba3b
000001c0: 8a24 33bd ef1d 90bd 3b6b 8d3d ade0 5bbb
000001d0: 2ced 23be 3e84 023c 4c23 23bb 4cde 963d
000001e0: 6982 0f3c 4d2b b0bd 4258 2b3b f974 27bd
000001f0: 7c22 55bd b27c 4cbd 512d e4bb 067a 263e
00000200: a119 40bd 3b1f 0d3e d46d 75bc cbc6 083e
00000210: a348 493e 2482 083d 1695 eabd c885 da3d
00000220: ac9e 90bd 288e ad3d 6348 5bbc 4ddd 11bd
00000230: e0ac a13b e3be 5ebd 708f e53d b838 343e
00000240: b0c8 573c 3bfc d03d ab57 41be a4b2 e43c
00000250: 2934 99bd 2dc3 843b e8a3 02bd 681a 05be
00000260: 90ba f0bc a921 b1bc db6b 00be e844 123e
00000270: e43b d6bd 49a7 773d c978 413c 1317 3fbe
00000280: b10b 5dbd 3f70 043e 3776 dabd 7d95 21bd
00000290: e7ac e23b 5a3d 6dbc ee55 37bd 2b7c 03bd
000002a0: 01c9 43bd 46a9 2f3e a33b 503d b661 5cbd
000002b0: d7dc d33d 4dae 54bd 4d6f 83bd b286 7b3d
000002c0: c7ad 20bd 71d0 1a3d 3a06 61bc eb8c ffbc
000002d0: 9fbd 6dbd 6a6e 8a3d 698f 09be 0b97 13be
000002e0: c46b c3bd 825b 5e3d 99e0 b83c 9b4b 253d
000002f0: e418 cfbc 5ea6 86bc de4e e2bc 613a c63d
00000300: db2c 0abd 2990 793c 4373 cf3d 4171 89bd
00000310: b9d8 3abd 795f cebd ed0b a33c d965 69bd
00000320: b55d 1e3c 38f9 fcbc 2a39 383d 8ddc 773d
00000330: 5209 6fbd f4a5 083e 4c4a 2dbc 5119 10bd
00000340: bd31 c83d 1577 07be 9f46 95be 8d24 853d
00000350: b90d 51bd d75d 99bd 582b 8dbc 38a3 fb3d
00000360: e6d7 a3bd 0ef7 273d ef3a d7bd 8d22 913b
00000370: 3fd4 a3bc e4a6 1c3d faf5 5c3d fede e9bd
00000380: ae99 7c3c 9e24 bebc 52c6 113d 58b1 b53d
00000390: 3c88 a1bc 4903 273e 79be 1dbe 9b7b 353e
000003a0: a9b3 3b3d 9d14 37bd 2ae3 5abc 0956 03be
000003b0: af3d 183d d534 01bc 4274 8bbc b9a5 a63c
000003c0: f163 1ebe ece3 e73d 6daf 333c 1cac 933d
000003d0: 41ef 1abe c367 183e ee5a a9bd b094 c03d
000003e0: e0c5 b2bd a0cd 1e3c c6c1 edbb 46c2 9bbd
000003f0: aa70 3cbe 634d 25ba 923b 1ebe 4594 c7bd
