subject-models/ada-0626/masatosakai2023-06-26T13-34-59_masatosakai-ada/embeddings_gs-4500.pt (torch, 836552 bytes, 168 tensors)

pre_vecs f4 [2, 768]
0	0xbc8d49a7	-0.017247034
1	0xbbade584	-0.0053069014
2	0x3a5a5d6a	0.000832996
3	0x3ce1cc6f	0.027563302
4	0xbcab1a96	-0.0208867
5	0xba865b63	-0.0010250624
6	0xbc40160d	-0.011724007
7	0xbb1acf40	-0.0023622066
8	0xbc78042e	-0.015137715
9	0xbb2b165b	-0.0026105854
10	0xbbbd90d8	-0.005785089
11	0xbcbeec31	-0.023305984
12	0xbc8b6203	-0.017014509
13	0xbb68b383	-0.0035507388
14	0x3b3574ec	0.00276881
15	0x3caf5b49	0.021405833
16	0x3c17fe8e	0.009276999
17	0x3b8539c9	0.0040657264
18	0xbc9de6ce	-0.019275095
19	0x3b49ec3d	0.0030810975
20	0x3b1aa056	0.0023594103
21	0x3c8befa4	0.017082043
22	0x3bad2f08	0.0052851476
23	0xbce664b7	-0.028124196
24	0x3c0d4934	0.00862341
25	0xbbdc179b	-0.006716681
26	0x3c4ea456	0.012612423
27	0xbbadde09	-0.0053060097
28	0x3ae53ba2	0.0017489085
29	0xbad6e70c	-0.0016395762
30	0x3c6359ef	0.013876422
31	0x3a78bc93	0.0009488549
32	0x3a8fd8de	0.0010974666
33	0xbb3f1967	-0.0029159428
34	0x3c0594a3	0.008153114
35	0x3d099f30	0.03359908
36	0xbc9cc266	-0.019135665
37	0x3ccc92fd	0.024972433
38	0xbd065ca3	-0.03280319
39	0x3c233d0d	0.009963286
40	0x3cb70d7c	0.022345297
41	0x3b70b67a	0.0036729858
42	0xbb388299	-0.0028154014
43	0xbb13eb3c	-0.002257063
44	0xba1dd933	-0.000602144
45	0x3b219ef3	0.0024661392
46	0x3bb7f122	0.005613462
47	0xbc475def	-0.012168392
48	0xbd01232c	-0.031527683
49	0xbca26f56	-0.01982848
50	0x3c6aad5b	0.014323558
51	0x3c320620	0.010865718
52	0xbc031a86	-0.008001929
53	0x3aac4749	0.0013143803
54	0xbd03b28c	-0.032152697
55	0xbb818a22	-0.0039532343
56	0x3c4c28bd	0.012460885
57	0xbb6f5df1	-0.00365245
58	0x3d029023	0.03187574
59	0xbc0e7445	-0.008694713
60	0xbbbf1f1e	-0.005832567
61	0x3c8f419e	0.017487343
62	0x3c047c7b	0.008086319
63	0xbbfea421	-0.0077710305
64	0xbc112506	-0.008858925
65	0xbc157efa	-0.009124512
66	0xb9a01270	-0.00030531315
67	0x3cc87a1f	0.024472294
68	0x3c90f47c	0.017694704
69	0x3c9ebe86	0.019377958
70	0xbc8e2fd6	-0.017356794
71	0xbc43f1b9	-0.011959487
72	0xbc013f10	-0.00788857
73	0x3c05d022	0.0081672985
74	0xbc0c6457	-0.008568845
75	0x3bff8994	0.007798383
76	0xbc927f4c	-0.017882966
77	0xbc518384	-0.012787703
78	0x3c06c562	0.008225771
79	0x3aadbbae	0.0013254785
80	0xbc0f3618	-0.008740924
81	0x38d5025f	0.00010157073
82	0x3c4db210	0.01255466
83	0xbcfab16f	-0.030602185
84	0xbb75701b	-0.0037450853
85	0x3be4c205	0.0069811367
86	0xb968dfa3	-0.00022208555
87	0x3c3ff06a	0.011715034
88	0x3c41d7dc	0.01183125
89	0xbc4c59b6	-0.012472561
90	0x3c9530ac	0.018211685
91	0x3bb6379e	0.0055608293
92	0x3b96f6b5	0.0046070465
93	0xbc3d2b66	-0.0115459915
94	0xbc97c7ec	-0.018527947
95	0x3c9b6c90	0.018972665
96	0x3c131a29	0.008978405
97	0x3b3dd39b	0.0028965238
98	0x3c0a0498	0.008423947
99	0x3bc7fcd0	0.0061031356
100	0xbcc18148	-0.023621216
101	0x3c8614a2	0.01636726
102	0xbbca03bb	-0.0061649955
103	0x397ff70a	0.00024410724
104	0xbc393e2e	-0.011306329
105	0xbbd48996	-0.006486128
106	0xbb7fdb02	-0.003904045
107	0x3a1c7f43	0.0005969891
108	0xbc979679	-0.018504368
109	0xba0ecff9	-0.00054478605
110	0x3be25a4b	0.0069077364
111	0x3afc7d1b	0.0019263359
112	0xba8afdca	-0.00106042
113	0x3b2b53d5	0.0026142497
114	0x3bb60e05	0.0055558705
115	0x3c3e8124	0.011627469
116	0xbd2c0c31	-0.042003814
117	0x3ba92f83	0.0051631345
118	0xbcac095a	-0.021000553
119	0xbb64e3f3	-0.0034925907
120	0x3bcfde9e	0.0063436767
121	0xbc5b7b5c	-0.01339611
122	0x3bc0c1dc	0.005882485
123	0xbc71d66d	-0.014760596
124	0xbc92254a	-0.017840046
125	0x3a53efdd	0.00080847536
126	0xbb81a480	-0.0039563775
127	0xbc530f7e	-0.012882112
128	0xbb9dd0a4	-0.0048161317
129	0xbcfbc975	-0.03073571
130	0x3c0f9151	0.0087626735
131	0x3c3e91c9	0.011631438
132	0xbc520945	-0.012819593
133	0x3b5a32c3	0.0033294416
134	0x3c465230	0.012104556
135	0x3bdcb215	0.006735096
136	0xbd025b45	-0.031825323
137	0xbd286a03	-0.041116726
138	0xbbd4f081	-0.006498397
139	0xbc2dac79	-0.010600203
140	0xbd1455b1	-0.036214534
141	0xbc5479b4	-0.012968469
142	0xbc5c7848	-0.013456412
143	0xbb074b4c	-0.0020644246
144	0x3c072d25	0.008250509
145	0xbade152b	-0.0016943564
146	0x3c9602ac	0.01831182
147	0xbc6fca54	-0.014635641
148	0x3bbd851d	0.0057836906
149	0x3c6b8e24	0.014377151
150	0x3c82cec3	0.015967732
151	0x3ca7d714	0.0204883
152	0xbc96733b	-0.018365493
153	0x3c83bf58	0.01608245
154	0xbc8037e9	-0.01565166
155	0x3cdea212	0.02717689
156	0x3cd3c318	0.025849864
157	0x3cbdefe0	0.02318567
158	0xbc2fe42b	-0.010735552
159	0xbcadbe71	-0.021208974
160	0x3b04aafc	0.0020243516
161	0x3c4ff8b2	0.012693571
162	0x3d2dd7ea	0.04244224
163	0x3bcd7e15	0.0062711337
164	0xbbf6b472	-0.007528835
165	0xbcb0901e	-0.021553095
166	0xbac8c218	-0.0015316634
167	0xbc8c4a49	-0.017125266
168	0x3c10cc82	0.008837821
169	0xb9bb103e	-0.0003567952
170	0xbbe4201b	-0.006961835
171	0x3b0806f0	0.0020756088
172	0xba97d0f9	-0.0011582664
173	0xbb670cf3	-0.003525552
174	0x3c015ee6	0.007896161
175	0x3c077c93	0.008269447
176	0xbcb18897	-0.021671576
177	0xbca9fbae	-0.020749893
178	0xbc8f7dce	-0.017516043
179	0x3c248f2c	0.0100439
180	0xbcde5ba2	-0.027143303
181	0x3c4f5cc4	0.012656394
182	0x3c6e9a43	0.014563146
183	0x3c201584	0.009770755
184	0xbba67ec1	-0.005081028
185	0x3b612c10	0.0034358539
186	0xbc2cd23a	-0.010548169
187	0x3ba5e72d	0.0050629587
188	0x3bfec54f	0.007774986
189	0x3b912803	0.0044298186
190	0xbbaa062c	-0.005188724
191	0x3b516a9f	0.003195442
192	0x3b56c7db	0.0032772932
193	0xbc467585	-0.01211298
194	0xbc3acf51	-0.011401967
195	0x3c3f876c	0.011690002
196	0x3c98289c	0.018574052
197	0x3b8d67ab	0.0043153367
198	0x3c21a616	0.009866258
199	0xbb8af378	-0.0042404495
200	0x3b23e683	0.0025009222
201	0x3ad114df	0.0015951655
202	0xbcc02dc0	-0.023459315
203	0xbbb5a184	-0.005542936
204	0xbc9031e3	-0.017601913
205	0xbb958a80	-0.0045636296
206	0x3b1a9d0e	0.0023592147
207	0x3adba9f3	0.0016759023
208	0x3c7cd6cd	0.015432072
209	0x3c9370d4	0.017998137
210	0x3ce8b2d9	0.028405594
211	0x3b22ac5a	0.0024821968
212	0x3c2da0ce	0.010597421
213	0x3bcb4931	0.0062037935
214	0xbc71fed1	-0.014770226
215	0xbced6fc8	-0.028983966
216	0x3c71e56f	0.014764174
217	0x3cdda59a	0.027056504
218	0x3bafd429	0.0053658676
219	0x3b0372db	0.0020057473
220	0x3cb15d9d	0.021651084
221	0x3c029a9d	0.007971433
222	0xbba37fdb	-0.004989607
223	0xbb16c4e0	-0.002300553
224	0xbc0b2112	-0.008491771
225	0xbba9fe4d	-0.0051877857
226	0x3bd97061	0.006635711
227	0x3c8131e4	0.01577086
228	0x3d005373	0.031329583
229	0xbaa40a30	-0.0012515243
230	0x3d19dfc3	0.03756691
231	0x3b3c2d65	0.002871358
232	0xbc5b7b5f	-0.013396113
233	0xbcd889a3	-0.026432818
234	0x3c8059c9	0.015667813
235	0xbaec9383	-0.0018049333
236	0x3c12792f	0.008940025
237	0xbc0ddef5	-0.008659114
238	0x3d1430ea	0.03617946
239	0xbabf9390	-0.0014616121
240	0xb71feee6	-9.532761e-06
241	0x3c5173ba	0.012783939
242	0xb9b990e9	-0.00035393916
243	0x3cf0b143	0.0293814
244	0xbbeef81b	-0.00729276
245	0xbc4c001c	-0.012451198
246	0xbc454f96	-0.012042901
247	0xbb1ea173	-0.0024205118
248	0x3c771699	0.015081071
249	0x3c8c30c6	0.0171131
250	0x3b379f31	0.002801847
251	0x3d165887	0.03670552
252	0xbb18e591	-0.0023330192
253	0xbd286ba8	-0.041118294
254	0xbbbc5880	-0.0057478547
255	0x3c607ed2	0.013702111

basis_rand_weights f4 [16, 5]
0	0xbbb6be2b	-0.005576869
1	0xbd4da7e7	-0.050208952
2	0xbd36ada7	-0.0445992
3	0x3c2aa17f	0.01041448
4	0xbe358173	-0.17725162
5	0x3c56c382	0.013108136
6	0x3d2fd058	0.0429233
7	0x3db60f11	0.088895924
8	0xbdae3633	-0.085064314
9	0x3d7d02c2	0.06177021
10	0x3de12b36	0.1099457
11	0xbdc7fe30	-0.09765279
12	0x3c91a08e	0.017776754
13	0x3cea6104	0.028610714
14	0xbaf16f1e	-0.0018419956
15	0xbd550a19	-0.052011583
16	0x3cc0775c	0.023494415
17	0xbd8f0c21	-0.06984735
18	0x3a20f5f1	0.0006140164
19	0xbccaea0c	-0.024769805
20	0xbc8bd960	-0.017071426
21	0x3aa7c983	0.0012801144
22	0xbdc692e1	-0.09695984
23	0x3e47f0ac	0.19525403
24	0xbceab4b7	-0.028650625
25	0xbd353950	-0.04424411
26	0xbdb427f9	-0.08796687
27	0x3e93bb91	0.2885404
28	0x3e465396	0.19367823
29	0xbdac9ea8	-0.08428699
30	0xbcd76625	-0.026293823
31	0xbc605602	-0.013692381
32	0x3d881013	0.06643691
33	0x3d61d4d3	0.055134606
34	0xbd3c2ab9	-0.04593918
35	0xbd5b8f69	-0.053603563
36	0xbce71b46	-0.028211247
37	0x3e83eebf	0.25768086
38	0xbd497a04	-0.04918863
39	0xbdc0e2aa	-0.09418233
40	0xbd848546	-0.064707324
41	0xbd4771b5	-0.048692424
42	0x3cba7540	0.022760987
43	0x3e82b5c2	0.25529295
44	0xbdba85c1	-0.09107543
45	0xbd84d5c0	-0.06486082
46	0xbdf5a9b8	-0.11995262
47	0x3e3001f9	0.17188253
48	0x3e20d995	0.15708001
49	0xbdaa7c64	-0.08324507
50	0xbd5da072	-0.05410809
51	0xbd041de9	-0.032255087
52	0x3e500f95	0.20318444
53	0x3da1fc64	0.07909468
54	0x3d255cde	0.04037177
55	0xbcfca1f5	-0.030838946
56	0xbd95379c	-0.07285997
57	0x3ec490e8	0.38391805
58	0x3cbf2f4f	0.023337988
59	0xbda1bb02	-0.07896997
60	0x3e182c78	0.14860713
61	0xbe3eb37f	-0.1862316
62	0x3c05d031	0.0081673125
63	0xbd376292	-0.04477174
64	0xbd420364	-0.047366515
65	0xbc98af02	-0.018638138
66	0x3c00f96c	0.007871967
67	0x3d88f93f	0.06688165
68	0x3e195d77	0.1497706
69	0xbe246367	-0.16053544
70	0xbcf64094	-0.03006009
71	0x3d8aa189	0.06769092
72	0xbc5716c4	-0.013127986
73	0xbe0c1d10	-0.13682961
74	0xbe128995	-0.14310296
75	0xbc68de5e	-0.014213173
76	0x3be917ef	0.007113449
77	0x3defd9dd	0.11711476
78	0xbd2f5392	-0.04280431
79	0xbc965dab	-0.018355211

basis_vecs f4 [3, 768]
0	0x3b3342f3	0.0027353137
1	0x3c8e3217	0.01735787
2	0xbc21b67a	-0.009870166
3	0x3c2781f6	0.010223856
4	0x3c4bbc64	0.012435053
5	0x3c8c9782	0.017162088
6	0xbcd50ac4	-0.02600611
7	0x3d26c434	0.040714458
8	0xbbd39d9d	-0.006457998
9	0x3c078437	0.008271269
10	0xbba57686	-0.0050495295
11	0x3d5e6b50	0.05430156
12	0xbcaa12b8	-0.020760879
13	0x3d5234e9	0.05131999
14	0xbd11c848	-0.035591394
15	0x3d8368fc	0.064165086
16	0x3b267c7a	0.0025403784
17	0x3bcc9a1c	0.006243957
18	0xbc9a5e14	-0.018843688
19	0x3cecfb48	0.028928414
20	0x3cd3f3c3	0.02587307
21	0x3ce414ca	0.027841944
22	0xbc644ba9	-0.013934054
23	0xbd09f771	-0.033683244
24	0x3d519e7d	0.051176537
25	0xbc979054	-0.018501438
26	0xbcb0f6ec	-0.021602117
27	0x3a348220	0.0006885845
28	0xbde606cf	-0.112317674
29	0x3d43579d	0.047690976
30	0xbbbc24dc	-0.0057416987
31	0xbd43e4e4	-0.04782571
32	0xbd0db610	-0.034597456
33	0x3d234903	0.03986455
34	0x3d111a90	0.035425723
35	0x3daebe76	0.08532421
36	0x3c1538a1	0.00910774
37	0x3c83b68d	0.016078258
38	0xbd9a2af4	-0.07527724
39	0x3c68b8a9	0.014204183
40	0x3cc48730	0.023990244
41	0xbb72c150	-0.0037041493
42	0x3bce3446	0.0062928526
43	0x3c29679b	0.010339643
44	0x3cc3a98d	0.023884559
45	0xbd547f1a	-0.051879026
46	0x3d05ada0	0.032636285
47	0xbce87d66	-0.028380107
48	0x3bb13e5f	0.0054090465
49	0xbcc62149	-0.024185793
50	0x3c36aa37	0.011148981
51	0xbc32128d	-0.010868681
52	0x3cb5e45c	0.022203617
53	0x3c8e2f42	0.017356519
54	0xbd7cc8bb	-0.06171487
55	0x3cd08c6c	0.025457583
56	0x3baddef9	0.0053061214
57	0xbcc36ea3	-0.023856467
58	0x3d631ccc	0.055447385
59	0x3d18a6dd	0.03726851
60	0xbd8cbd3e	-0.068720326
61	0x3d569b56	0.052394234
62	0x3cbeae34	0.023276426
63	0xbd09a6ef	-0.033606466
64	0x3ba19470	0.004931025
65	0xbc85fb73	-0.016355252
66	0x3d9af6bd	0.07566593
67	0xbd4ea69b	-0.050451856
68	0xbbad7fa9	-0.0052947593
69	0xbc48294f	-0.01221688
70	0xbd065f15	-0.03280552
71	0x3d0f86c7	0.035040643
72	0xbd266d97	-0.040631857
73	0xbba0a102	-0.004902006
74	0xbce1c6d7	-0.027560635
75	0x3d7015a9	0.058614407
76	0xbcfc3013	-0.030784642
77	0x3b1f611a	0.0024319352
78	0xbcc24e4a	-0.023718972
79	0x3ce225ff	0.027606009
80	0xbc08338a	-0.008313069
81	0xbaeed252	-0.0018220639
82	0x3d48534a	0.048907556
83	0xbd63d689	-0.05562452
84	0x3d2c856c	0.04211943
85	0xbd288324	-0.04114069
86	0x3c5ebb9f	0.013594537
87	0x3bd2c966	0.0064327
88	0x3c49e988	0.012323745
89	0xbd35d396	-0.044391237
90	0x3d1643a0	0.036685586
91	0x3d026b95	0.03184088
92	0x3c29b44a	0.010357926
93	0xbd9c9232	-0.07645072
94	0xbd501236	-0.050798617
95	0xbd44d23a	-0.04805205
96	0x3c614791	0.013749973
97	0xbd0a5b40	-0.03377843
98	0xbca518fa	-0.020153511
99	0x3d4db124	0.050217763
100	0xbc667771	-0.014066563
101	0x3b8d046b	0.004303505
102	0xbc051c8f	-0.008124485
103	0xbd214553	-0.039372753
104	0xbc66f5d3	-0.014096695
105	0xbd25de65	-0.040495295
106	0x3d9d0d51	0.076685555
107	0x3c7c7dad	0.015410823
108	0xbd614b08	-0.055003196
109	0x3cae5575	0.021280983
110	0x3d203981	0.03911734
111	0xbd1a2fe8	-0.037643343
112	0xbd37cd00	-0.044873238
113	0x3c1cb315	0.009564181
114	0xbc19ae74	-0.009379972
115	0x3d11596d	0.035485674
116	0xbd189f95	-0.037261564
117	0xbd0a4c25	-0.033764023
118	0x3c18a269	0.009316065
119	0x3d31c182	0.043397434
120	0x3c8117bf	0.015758393
121	0xbbc3d7cd	-0.005976653
122	0xbd2b7010	-0.041854918
123	0x3cf51847	0.029918803
124	0xbd3689ae	-0.044564895
125	0x3d1cee71	0.038313333
126	0xbc2acd16	-0.010424873
127	0xbc211c58	-0.009833418
128	0xbd5083d7	-0.050906982
129	0xbd17da4a	-0.03707341
130	0xbc822b88	-0.015889898
131	0xba0909c6	-0.00052275916
132	0xbc8c98b0	-0.01716265
133	0xbc5945ba	-0.013261253
134	0xbc3019f7	-0.010748378
135	0xbd12f47f	-0.0358777
136	0xbc5c64f6	-0.013451805
137	0xbd412505	-0.047154445
138	0xbc22a4f9	-0.009927028
139	0x3b232722	0.002489515
140	0xbda31373	-0.07962694
141	0xbc8854ad	-0.016641939
142	0x3d4a65d5	0.04941352
143	0xbd0027d9	-0.031288
144	0x3d6e2ee0	0.058150172
145	0xbd003dd8	-0.03130898
146	0x3d9a0920	0.07521272
147	0x3c17c054	0.009262163
148	0x3be1def8	0.006893035
149	0xbc1dd8f2	-0.009634243
150	0xbdcc00b4	-0.099610716
151	0xbc0ff7aa	-0.008787075
152	0x3d403430	0.04692477
153	0x3d4cc005	0.04998781
154	0x3d124f07	0.035719898
155	0x3d703f56	0.05865415
156	0x3d74b02d	0.059738327
157	0x3c84fc50	0.016233593
158	0x3c871b3a	0.016492475
159	0x3c4d57be	0.012533126
160	0x3cf11028	0.02942665
161	0xbcfef835	-0.031124214
162	0x3dc40d34	0.09572831
163	0x3d0c6640	0.0342772
164	0x3a421e60	0.0007405039
165	0xbd0175c5	-0.031606454
166	0xbd5525ef	-0.05203813
167	0xbd11ab3e	-0.0355637
168	0x3bbae23c	0.005703239
169	0x3cf317e0	0.02967447
170	0xbce0c852	-0.02743927
171	0x3c3878ed	0.0112593
172	0xbbd6ad36	-0.00655141
173	0x3d2176f5	0.039420087
174	0xbc931a82	-0.017956976
175	0xbd10a10b	-0.035309833
176	0xbd5bf09d	-0.053696264
177	0xbd474208	-0.048646957
178	0xbcb3a13d	-0.02192747
179	0x3d6553ca	0.05598811
180	0x3d49839d	0.04919778
181	0x3d4341c6	0.04767015
182	0x3c677b67	0.0141285425
183	0x3c005bda	0.007834399
184	0xbbd1df5b	-0.0064048
185	0xbd2cacdf	-0.04215705
186	0xbce69a9a	-0.028149892
187	0xbd5857fb	-0.05281828
188	0xbb9b22c3	-0.0047343685
189	0xbb3e9a4f	-0.0029083674
190	0xbbaef255	-0.005338947
191	0x3c81a3e8	0.015825227
192	0x3c4736fc	0.012159105
193	0xbd74c8f5	-0.05976196
194	0x3c14e4a8	0.009087719
195	0x3d17858c	0.036992595
196	0x3ca6e325	0.020371983
197	0x3c85b5cf	0.016322045
198	0x3d3fc919	0.04682264
199	0x3cacdd2c	0.021101557
200	0x3cd405e9	0.025881724
201	0xbd001b7a	-0.031276204
202	0xbc4d1506	-0.012517219
203	0xbb95ce3f	-0.0045717056
204	0x3ca5338a	0.020166177
205	0xbd0f32c8	-0.03496054
206	0x3cce0f2a	0.025153715
207	0xb9ae53de	-0.00033250352
208	0x3d81dbd1	0.06340755
209	0x3d9ef815	0.07762162
210	0x3dc03e00	0.093868256
211	0x3c8da660	0.017291248
212	0x3d01e757	0.031714763
213	0xbcc1ea14	-0.023671187
214	0xbc805a11	-0.015667947
215	0x3c39d420	0.011342078
216	0x3d9d32db	0.076757155
217	0x3dba3546	0.09092192
218	0xbced02ea	-0.028932054
219	0xbda9c98d	-0.08290396
220	0x3a50769a	0.00079522433
221	0xbd54efb0	-0.051986396
222	0xbc348698	-0.011018418
223	0x3c86f48a	0.016474027
224	0xba101abb	-0.0005497147
225	0xbc948149	-0.018128054
226	0x3cda58fc	0.02665376
227	0xbc78561d	-0.01515725
228	0xbc017417	-0.007901213
229	0x3d2652a5	0.04060616
230	0x3c4230c2	0.011852445
231	0xbc6ca63d	-0.014443931
232	0x3cd6bf1d	0.026214177
233	0xbbe5790b	-0.007002955
234	0x3cc20125	0.023682186
235	0x3ca7a40b	0.020463964
236	0x3bd9ccdf	0.006646737
237	0xbd8651da	-0.06558581
238	0x3d829786	0.06376557
239	0xbdc0f8da	-0.09422465
240	0x3d523223	0.051317345
241	0xbc80c31f	-0.015718041
242	0xbb73ec08	-0.0037219543
243	0x3d1f3195	0.038865644
244	0x3c0978bb	0.008390601
245	0xbc1e63c0	-0.009667337
246	0xbcc7718f	-0.024346141
247	0xbc712dc5	-0.014720385
248	0x3d1459ad	0.036218334
249	0x3d362c27	0.0444757
250	0xbd80c0be	-0.06286763
251	0x3d48d396	0.04902991
252	0xbcd95345	-0.026528964
253	0xbd5d4711	-0.054022852
254	0xbccb6f3e	-0.024833318
255	0x3d4f30c9	0.050583635

basis_comm_weights f4 [1, 5]
0	0x3e4303fc	0.19044489
1	0x3f062f6b	0.52416104
2	0x3efdd3b5	0.49575582
3	0x3ede1ed6	0.433829
4	0x3db1725e	0.08664392

bias f4 [16, 768]
0	0x3d6099ec	0.05483429
1	0xbcb83703	-0.02248717
2	0xbcfbfe6b	-0.030760964
3	0x3d1eeebc	0.038801894
4	0x3b809778	0.0039243065
5	0xbd697a80	-0.05700159
6	0x3d1424ea	0.036168016
7	0x3c72daf6	0.014822712
8	0xba8e679e	-0.001086462
9	0x3ca26291	0.01982239
10	0x3ca253be	0.019815322
11	0x3c9f99bc	0.019482486
12	0x3c4a8ab0	0.012362167
13	0xbd43eb8d	-0.04783206
14	0x3b0d9cc2	0.0021608328
15	0xbd15e720	-0.03659737
16	0xbd80eebf	-0.06295537
17	0xbd1256b4	-0.035727218
18	0xbc89a6f2	-0.016803239
19	0xbd3fb286	-0.046801113
20	0x3cae90bf	0.021309255
21	0xbdab0d43	-0.08352139
22	0x3c453bfa	0.012038225
23	0xbc80e8a0	-0.015735924
24	0x3d0a011f	0.033692475
25	0x3bfb6bc4	0.007672759
26	0xbd4f12f4	-0.050555184
27	0xbd0044a6	-0.03131547
28	0xbd6eda31	-0.058313552
29	0x3d554dad	0.05207603
30	0xbd6a3ea7	-0.057188656
31	0x3cb792c8	0.022408858
32	0xbd2fecfc	-0.042950615
33	0x3a1a04c1	0.0005875342
34	0xbd07940b	-0.03310017
35	0xbcfdf32d	-0.030999744
36	0xbd745475	-0.059650857
37	0xbc72e7bb	-0.014825757
38	0x3d93f5a2	0.07224585
39	0x3d204193	0.039125036
40	0x3d2b079d	0.041755307
41	0x3c9a5976	0.018841486
42	0xbc3e4b7d	-0.0116146775
43	0xba0b86cc	-0.00053225155
44	0x3ca91e49	0.020644324
45	0x3c84c30d	0.016206289
46	0xba59785e	-0.0008295829
47	0xbcdecd18	-0.027197406
48	0xbc0fed5b	-0.008784617
49	0x3d1ed02d	0.03877275
50	0x3c0f5025	0.008747135
51	0xbd8d5643	-0.06901219
52	0xbc970f1f	-0.018439827
53	0xbad27596	-0.0016056772
54	0x3cfb9194	0.030709065
55	0x3d1ba675	0.038000543
56	0xbc2bd4b8	-0.010487728
57	0xbd30a7e1	-0.04312885
58	0xbc9681d6	-0.018372457
59	0xbd0acad0	-0.033884823
60	0x3bf0b420	0.0073456913
61	0x3d13dcbf	0.03609919
62	0x3c690754	0.014222939
63	0x3b7d4551	0.0038646052
64	0xbd732fcd	-0.05937176
65	0xbd88e9c2	-0.06685211
66	0xbced7660	-0.02898711
67	0xbd243f01	-0.040099148
68	0x3d2d7f61	0.042357806
69	0xbd24e87a	-0.04026077
70	0xbd5935b5	-0.053029735
71	0x3c9f14af	0.019419042
72	0x3d029249	0.03187779
73	0x3c7d63ba	0.015465671
74	0x3cd006ee	0.02539393
75	0x3a187a4e	0.00058165647
76	0x3bc30e64	0.005952643
77	0x3cb0abcc	0.021566294
78	0x3cd334c8	0.025782004
79	0x3a0ff718	0.0005491837
80	0x3d835052	0.06411804
81	0x3d39ac15	0.045330126
82	0x3cfb1383	0.030648952
83	0xbbf27654	-0.0073993597
84	0x3c9adab2	0.01890311
85	0xbd205afc	-0.03914927
86	0xbd8cf411	-0.068824895
87	0x3bd59a4f	0.006518639
88	0x3c4311e1	0.011906118
89	0x3da1e6a9	0.07905323
90	0xbd56e0b4	-0.052460387
91	0x3b875e9f	0.0041311528
92	0x3cc36037	0.02384959
93	0xbbc6e2d5	-0.006069521
94	0xbca8a245	-0.020585189
95	0xbc48bd66	-0.012252187
96	0xbcf2ec14	-0.029653586
97	0x3c1b2ce8	0.009471156
98	0x3d6372c3	0.055529367
99	0xbc6dabff	-0.014506339
100	0x3d5d0241	0.053957228
101	0xbc6d2670	-0.014474496
102	0x3cd2a26a	0.02571221
103	0x3d26df95	0.04074057
104	0xbc9a1e90	-0.018813401
105	0x3aaa2c26	0.0012983128
106	0x3c995886	0.01871897
107	0xbd01f3ea	-0.031726755
108	0x3bcc7f14	0.006240735
109	0x3bc6efef	0.006071083
110	0x3d59c590	0.053166926
111	0xbd78ade6	-0.060712717
112	0xbce9dd1a	-0.028547812
113	0x3d32b391	0.04362828
114	0xbd469a0d	-0.048486758
115	0x3d254acb	0.04035453
116	0x3cd9136e	0.026498523
117	0x3d1fa868	0.038978964
118	0x3ca341fa	0.019928921
119	0xbd2825c4	-0.04105164
120	0x3b854f93	0.004068324
121	0xbb393d39	-0.0028265251
122	0xbc008a2b	-0.007845442
123	0xbd0d56de	-0.03450667
124	0x3ccd227c	0.025040857
125	0xbbfdb9d9	-0.007743102
126	0x3a892c3c	0.0010465453
127	0x3cf62ebe	0.030051585
128	0xbb7ea425	-0.0038855162
129	0xbd1813ef	-0.037128385
130	0xbd3868f9	-0.045021985
131	0x3a8df79b	0.0010831238
132	0xbd299b54	-0.041407898
133	0xbcb38b9e	-0.02191716
134	0x3ca575b1	0.020197721
135	0xbc144e66	-0.009051895
136	0xbb819a69	-0.0039551747
137	0xbc805902	-0.015667442
138	0x3d502a52	0.05082161
139	0x3d038f20	0.032118917
140	0xbd2027dd	-0.039100517
141	0x3c71c5e8	0.014756657
142	0xbd27b993	-0.04094846
143	0xbcc6a720	-0.024249613
144	0x3ce9ea14	0.028554
145	0x3bbcdc6e	0.005763582
146	0x3a9129c2	0.0011075067
147	0x3bd759e4	0.006571995
148	0x3ce29f28	0.027663782
149	0xbcd8d5b3	-0.026469087
150	0x3cfd8ef2	0.03095195
151	0x3c624d19	0.013812327
152	0xbb89e48b	-0.0042081526
153	0xbc839927	-0.01606424
154	0x3c426a4f	0.011866166
155	0x3cac0d71	0.021002503
156	0xbce6de98	-0.028182313
157	0xbd482c9b	-0.048870664
158	0xbd0b9178	-0.034074277
159	0x3d03580d	0.032066394
160	0xbb7f58e2	-0.003896289
161	0xbcf62ac1	-0.030049684
162	0x3db46f52	0.08810295
163	0xbd0d8606	-0.034551643
164	0x3d037a57	0.032099094
165	0xbd1cfeb2	-0.038328834
166	0xbd3c825e	-0.046022765
167	0x3b52568b	0.003209504
168	0xbbe7e0f3	-0.0070763766
169	0x3c6851c4	0.014179651
170	0x3d9e7f90	0.07739174
171	0x3bcf4b3e	0.0063261082
172	0x3d710904	0.05884649
173	0xbb41358e	-0.0029481384
174	0x3c90a412	0.01765636
175	0xbc85767c	-0.01629185
176	0x3c55f51c	0.013058927
177	0x3cdd6d35	0.027029613
178	0xbd801e04	-0.06255725
179	0x3d97d4b4	0.07413617
180	0x3a617343	0.0008600244
181	0x3ac0f317	0.0014720884
182	0xbcbf1dfa	-0.023329724
183	0x3c7212e5	0.014775013
184	0x3d0854e7	0.033284094
185	0x3d890435	0.066902556
186	0xba5a1261	-0.0008318779
187	0x3d07d972	0.033166356
188	0x3c01ed44	0.007930104
189	0x3d19a8ff	0.037514683
190	0xbd363d95	-0.044492323
191	0xbba30aec	-0.004975667
192	0x3c9143b1	0.017732473
193	0xbca07e07	-0.019591345
194	0xbcc772a6	-0.02434666
195	0xbcd05298	-0.025430009
196	0x3d3794ad	0.044819523
197	0x3d491eb4	0.049101546
198	0xbd6129b9	-0.05497143
199	0x3d565365	0.052325625
200	0x3c6a78f9	0.014311069
201	0xbc850b5e	-0.016240772
202	0xbce56a82	-0.028004888
203	0xbcb965e7	-0.022631599
204	0xbbe863c3	-0.0070919706
205	0x3b83908a	0.004015033
206	0x3af52488	0.0018702904
207	0xbcc3157b	-0.023813954
208	0x3c5e2307	0.013558156
209	0x3d40261e	0.04691135
210	0x3c947b1c	0.01812511
211	0x3cce42f1	0.025178405
212	0xbc5621ea	-0.013069609
213	0xbd15a16c	-0.036530897
214	0xbc71b106	-0.014751678
215	0x39bf84c7	0.00036529286
216	0x3cbbf9e8	0.022946313
217	0x3d2b0ba5	0.041759152
218	0x3d1080a3	0.035278928
219	0xbb84dc82	-0.004054607
220	0x3c22a37c	0.009926673
221	0xbd3bd454	-0.04585679
222	0xbc9e0996	-0.01929168
223	0x3d0eb7c3	0.034843218
224	0xbcc591af	-0.024117319
225	0xbd2fb8c1	-0.042900804
226	0x3d8abda1	0.0677445
227	0x3c31ac06	0.010844236
228	0x3d438847	0.047737386
229	0x3d2a9eaa	0.04165522
230	0x3be2927d	0.0069144354
231	0xbd29ec2c	-0.041484997
232	0x3c9f8051	0.019470366
233	0x3d0293b9	0.03187916
234	0x3c81ec2a	0.015859682
235	0xbc41a1cf	-0.011818363
236	0x39987538	0.00029079034
237	0xbc9a71cf	-0.018853096
238	0x3d0c6ef0	0.034285486
239	0xbcb6d3c9	-0.022317784
240	0x3c54f853	0.012998658
241	0xbc8f9537	-0.017527206
242	0xbcdac640	-0.026705861
243	0x3cccf514	0.025019206
244	0x3d7a0dad	0.0610482
245	0xbc0ab5f6	-0.008466234
246	0x381120e3	3.4601322e-05
247	0xbc504121	-0.01271084
248	0xbbad1849	-0.005282436
249	0x3b1e8c68	0.0024192575
250	0x3d14988a	0.036278285
251	0x3ca2daab	0.01987966
252	0x3d5504df	0.0520066
253	0x3c877fbe	0.016540404
254	0x39b8d8f8	0.0003525687
255	0x3d130c7c	0.035900578

weight f4 [768]
0	0x3f87daf7	1.0613698
1	0x3f75d9d2	0.9603549
2	0x3f734e42	0.95041287
3	0x3f8bafe2	1.091305
4	0x3f8362b6	1.0264499
5	0x3f696108	0.9116368
6	0x3f7f60de	0.9975718
7	0x3f89d3ab	1.0767721
8	0x3f78d0c2	0.9719354
9	0x3f5fab75	0.87371
10	0x3f78ba90	0.9715967
11	0x3f8722c4	1.0557485
12	0x3f7e867b	0.9942395
13	0x3f57c0e7	0.8427872
14	0x3f6e4a56	0.9308218
15	0x3f60ca84	0.87809014
16	0x3f628b3e	0.88493717
17	0x3f8287fb	1.0197748
18	0x3f85bd7d	1.0448452
19	0x3f6394da	0.88899004
20	0x3f7285b9	0.94735295
21	0x3f3e1b12	0.74260056
22	0x3f769431	0.9631987
23	0x3f868b5b	1.0511278
24	0x3f862005	1.0478522
25	0x3f72ceed	0.94846994
26	0x3f8a3e24	1.0800214
27	0x3f7413f4	0.95342946
28	0x3f8cfc53	1.1014503
29	0x3f8eb080	1.1147614
30	0x3f7f6451	0.99762446
31	0x3f563f5d	0.83690435
32	0x3f844058	1.0332136
33	0x3f80d9c2	1.0066454
34	0x3f5ea604	0.8697207
35	0x3f762001	0.96142584
36	0x3f6a1d2e	0.91450775
37	0x3f6beaaf	0.92154974
38	0x3f54ea27	0.8316979
39	0x3f88d246	1.068917
40	0x3f8382e8	1.0274324
41	0x3f81034d	1.0079132
42	0x3f7573b9	0.95879704
43	0x3f71aef5	0.9440759
44	0x3f79d7c7	0.97594875
45	0x3f71748b	0.94318455
46	0x3f800f27	1.0004624
47	0x3f8a46e9	1.080289
48	0x3f6ede84	0.9330828
49	0x3f7570d3	0.9587528
50	0x3f7aae7f	0.9792251
51	0x3f93346a	1.150037
52	0x3f7e4965	0.9933074
53	0x3f77e741	0.9683724
54	0x3f6fc741	0.9366341
55	0x3f8c29af	1.0950221
56	0x3f71d911	0.9447184
57	0x3f806014	1.0029321
58	0x3f7f1264	0.99637437
59	0x3f731553	0.94954413
60	0x3f7cf275	0.9880746
61	0x3f87ad7f	1.0599822
62	0x3f817959	1.0115157
63	0x3f7c7cbb	0.98627824
64	0x3f7e9a47	0.9945416
65	0x3f68dd4d	0.9096268
66	0x3f72bc40	0.94818497
67	0x3f874d32	1.0570433
68	0x3f815e0d	1.0106827
69	0x3f85c558	1.045085
70	0x3f88c1ad	1.0684105
71	0x3f7c99bd	0.98672086
72	0x3f85505e	1.0415151
73	0x3f8540b7	1.0410374
74	0x3f765f9d	0.96239644
75	0x3f780fa1	0.9689885
76	0x3f7f2bbd	0.99676114
77	0x3f736258	0.95071936
78	0x3f724955	0.94643146
79	0x3f710ce0	0.9416027
80	0x3f6d2075	0.9262765
81	0x3f8827f2	1.063719
82	0x3f8c8b6a	1.0980046
83	0x3f7bc2a5	0.9834388
84	0x3f89c0b1	1.076193
85	0x3f809ef3	1.0048507
86	0x3f8b3897	1.0876645
87	0x3f8668d4	1.0500741
88	0x3f8a09d6	1.0784252
89	0x3f692f61	0.9108792
90	0x3f6d3378	0.9265666
91	0x3f81f682	1.0153353
92	0x3f75d7c9	0.96032387
93	0x3f88056e	1.0626657
94	0x3f88d7f4	1.0690904
95	0x3f7a4aca	0.9777037
96	0x3f74d33a	0.95634806
97	0x3f6dbb27	0.92863697
98	0x3f691ce7	0.91059726
99	0x3f753395	0.9578183
100	0x3f577de5	0.84176475
101	0x3f755815	0.9583753
102	0x3f6984a8	0.9121804
103	0x3f67b07f	0.90503687
104	0x3f54064c	0.8282211
105	0x3f7757b3	0.96618193
106	0x3f89d72e	1.0768793
107	0x3f6deb65	0.9293731
108	0x3f6f287f	0.9342117
109	0x3f818626	1.0119064
110	0x3f73a669	0.95175797
111	0x3f8f9789	1.121812
112	0x3f81cf3b	1.0141367
113	0x3f795a44	0.9740336
114	0x3f86d9f7	1.0535268
115	0x3f849d26	1.0360458
116	0x3f7189ea	0.94351065
117	0x3f6fae86	0.93625677
118	0x3f6a8eb5	0.91624004
119	0x3f60e542	0.8784982
120	0x3f73fae2	0.9530469
121	0x3f67285c	0.9029596
122	0x3f773a13	0.9657299
123	0x3f5dbd46	0.86616933
124	0x3f76f1f6	0.96462953
125	0x3f809ef3	1.0048507
126	0x3f814e61	1.0102044
127	0x3f6f2763	0.93419474
128	0x3f75246a	0.9575869
129	0x3f83ae3e	1.028755
130	0x3f7cf759	0.9881492
131	0x3f855c2a	1.0418751
132	0x3f8c20e0	1.0947533
133	0x3f7a84e7	0.9785904
134	0x3f765fd4	0.9623997
135	0x3f6ae0ad	0.9174908
136	0x3f7cdc5c	0.9877374
137	0x3f8324fb	1.024566
138	0x3f7282de	0.9473094
139	0x3f86de87	1.053666
140	0x3f8ed153	1.1157631
141	0x3f728c3d	0.94745237
142	0x3f771c94	0.9652798
143	0x3f83719d	1.0269047
144	0x3f89e37f	1.0772551
145	0x3f6303b1	0.8867751
146	0x3f7afdab	0.98043317
147	0x3f7890e9	0.97096115
148	0x3f861996	1.0476558
149	0x3f7da762	0.9908353
150	0x3f847726	1.0348861
151	0x3f823780	1.0173187
152	0x3f80af23	1.0053447
153	0x3f7bca47	0.98355526
154	0x3f839121	1.0278665
155	0x3f7e9b75	0.9945596
156	0x3f6e0f88	0.9299245
157	0x3f4f08a8	0.80872583
158	0x3f8102c8	1.0078974
159	0x3f6b6e68	0.9196534
160	0x3f82a4f1	1.0206586
161	0x3f8a825d	1.0821034
162	0x3f995120	1.1977882
163	0x3f7293dc	0.94756866
164	0x3f84a21d	1.0361973
165	0x3f7f2810	0.99670506
166	0x3f8df012	1.1088889
167	0x3f7aeffc	0.9802244
168	0x3f7d899a	0.9903809
169	0x3f8666f2	1.0500166
170	0x3f4ecb20	0.80778694
171	0x3f7f2dfe	0.99679554
172	0x3f7fdd79	0.99947315
173	0x3f76c9f4	0.96401906
174	0x3f7146d6	0.9424871
175	0x3f7d20c2	0.9887811
176	0x3f6afd81	0.91793066
177	0x3f634d03	0.88789386
178	0x3f846739	1.0344001
179	0x3f8f23be	1.1182783
180	0x3f77782a	0.9666773
181	0x3f7ec4c0	0.99518967
182	0x3f82b8d8	1.021266
183	0x3f663952	0.89931214
184	0x3f79060e	0.97274864
185	0x3f451b15	0.7699445
186	0x3f63b650	0.8895006
187	0x3f66cded	0.9015797
188	0x3f8358a5	1.0261427
189	0x3f81b6db	1.0133928
190	0x3f7efbb7	0.99602836
191	0x3f71333e	0.94218814
192	0x3f74ec0f	0.95672697
193	0x3f80c724	1.0060773
194	0x3f83107a	1.0239403
195	0x3f6a2636	0.91464555
196	0x3f88f619	1.0700103
197	0x3f84024a	1.0313199
198	0x3f635ed0	0.8881655
199	0x3f835e04	1.0263066
200	0x3f84fada	1.0389054
201	0x3f883609	1.064149
202	0x3f8000b7	1.0000218
203	0x3f800b11	1.0003377
204	0x3f722259	0.9458366
205	0x3f77f0b4	0.9685166
206	0x3f7473a0	0.9548893
207	0x3f893e7b	1.0722193
208	0x3f860242	1.0469439
209	0x3f8748b6	1.0569065
210	0x3f807bf3	1.0037826
211	0x3f889a4a	1.0672085
212	0x3f791241	0.9729348
213	0x3f89a9d2	1.075495
214	0x3f7899e5	0.97109824
215	0x3f7ccd0c	0.98750377
216	0x3f82fb18	1.0232878
217	0x3f8ac283	1.084061
218	0x3f6f7767	0.9354157
219	0x3f87713e	1.0581434
220	0x3f863edd	1.0487934
221	0x3f87231e	1.0557592
222	0x3f7c5098	0.98560476
223	0x3f8bab43	1.091164
224	0x3f802da9	1.0013934
225	0x3f7e5aca	0.99357283
226	0x3f8dfc3b	1.10926
227	0x3f83a5c5	1.0284964
228	0x3f7b843d	0.98248655
229	0x3f8e2bc6	1.1107109
230	0x3f6fd298	0.93680716
231	0x3f891c5c	1.071178
232	0x3f7b7eef	0.9824056
233	0x3f7e7498	0.9939666
234	0x3f803044	1.001473
235	0x3f706713	0.9390728
236	0x3f82d1e7	1.0220307
237	0x3f865df8	1.0497427
238	0x3f889bfb	1.0672601
239	0x3f835ed6	1.0263317
240	0x3f861bb8	1.0477209
241	0x3f7257be	0.94665134
242	0x3f84ce2f	1.0375422
243	0x3f866ae6	1.0501373
244	0x3f7f3a13	0.9969799
245	0x3f82ef9f	1.0229377
246	0x3f65303b	0.8952672
247	0x3f83549b	1.0260195
248	0x3f736be0	0.9508648
249	0x3f6c079a	0.921991
250	0x3f69c681	0.9131852
251	0x3f85ca7e	1.0452421
252	0x3f5462c4	0.82963204
253	0x3f61d1b5	0.8821061
254	0x3f72eac0	0.9488945
255	0x3f880db5	1.0629183

bias f4 [768]
0	0x3e419e55	0.18908055
1	0xbcc9a7fa	-0.02461623
2	0xbd9dd107	-0.077058844
3	0x3d8a5a32	0.06755485
4	0x3ccaa8a0	0.02473861
5	0xbdf63eb2	-0.12023677
6	0x3bc96249	0.0061457497
7	0x3d8944cc	0.06702575
8	0x3c4b0bb6	0.012392929
9	0x3d609293	0.054827284
10	0x3cfa463c	0.030551068
11	0x3d822fe4	0.06356791
12	0x3cc6f90a	0.024288673
13	0xbdee8f80	-0.11648464
14	0x3c8ae107	0.016953005
15	0xbd8aaa03	-0.067707084
16	0xbda8a07c	-0.08233735
17	0xbdb6642a	-0.089058235
18	0xbd03418f	-0.032044943
19	0xbdfa4449	-0.122200556
20	0x3d977dea	0.07397063
21	0xbe427225	-0.18988855
22	0x3d549035	0.05189534
23	0xbcdefd24	-0.027220316
24	0x3d8ec99f	0.0697205
25	0xbbf9bab4	-0.0076211337
26	0xbe1ba7c5	-0.15200718
27	0xbdb4b1d4	-0.088229805
28	0xbe07dde5	-0.1326824
29	0x3e0aefab	0.13567989
30	0xbe0fd65b	-0.14046614
31	0x3da19dc0	0.078914165
32	0xbd8eb46d	-0.06968007
33	0x3c237596	0.009976765
34	0xbdc25874	-0.09489527
35	0xbd365baa	-0.04452101
36	0xbda786be	-0.08179997
37	0xbd83625c	-0.06415245
38	0x3e215c9e	0.15757987
39	0x3db5a96c	0.08870205
40	0x3d596a9a	0.05308018
41	0x3c46004d	0.012085033
42	0xbb38fcd8	-0.0028226878
43	0x3cdc929d	0.02692538
44	0x3c5ac231	0.013351963
45	0x3d57ecfd	0.052716244
46	0xbbb88a49	-0.0056317193
47	0xbdb0e0c1	-0.086366184
48	0xbb79e9a4	-0.0038133645
49	0x3d365002	0.044509895
50	0xbb47b8e0	-0.0030475184
51	0xbdd73a8f	-0.10509216
52	0xbd113c80	-0.035458088
53	0xbb3aa696	-0.002848064
54	0x3d6f68f7	0.05844971
55	0x3e001a7e	0.12510106
56	0xbcdef50a	-0.027216453
57	0xbdd5bbd2	-0.104362145
58	0x3bf92bda	0.0076041045
59	0xbd34f486	-0.04417851
60	0x3bc726a1	0.006077603
61	0x3d8bf6e6	0.068342015
62	0x3cd5f079	0.026115643
63	0x3c13f37e	0.009030221
64	0xbd918780	-0.07105923
65	0xbe0107ba	-0.12600604
66	0xbd40b2f2	-0.047045656
67	0xbe062938	-0.13101661
68	0x3dd79b57	0.105276756
69	0xbddbbd89	-0.1072951
70	0xbda8e965	-0.082476415
71	0x3d0f144e	0.034931473
72	0x3db388b3	0.08766308
73	0x3d840115	0.06445519
74	0x3d882bcc	0.066489786
75	0xbc65e165	-0.014030789
76	0xbc282110	-0.010261789
77	0x3cc6682f	0.0242196
78	0x3d430fa7	0.04762235
79	0xbd812327	-0.06305533
80	0x3dfb2b21	0.122640856
81	0x3dfb8545	0.122812785
82	0x3dc76a33	0.09737053
83	0x3c633d03	0.013869527
84	0x3db38f10	0.087675214
85	0xbda1a376	-0.07892506
86	0xbe1549ad	-0.14578886
87	0xbbcb2c99	-0.006200385
88	0x3dba5317	0.090978794
89	0x3e26ccc6	0.16289052
90	0xbd8e172d	-0.06938014
91	0x3c859d46	0.016310345
92	0x3d124fa8	0.035720497
93	0xbd5bf1d9	-0.05369744
94	0xbd6a9acc	-0.057276532
95	0xbd6669f0	-0.056253374
96	0xbd855ec7	-0.06512218
97	0x3ccdaab9	0.025105821
98	0x3dd1919e	0.102328524
99	0xbcc853f5	-0.024454096
100	0x3db29b47	0.08721023
101	0xbbd27440	-0.0064225495
102	0x3d8ebc26	0.0696948
103	0x3dac933f	0.084265225
104	0xbcc65c5e	-0.024213966
105	0x3c4731c1	0.012157858
106	0x3d785128	0.06062427
107	0xbd87f4a0	-0.066384554
108	0x3ba301c2	0.004974575
109	0x3b3eb0c8	0.002909707
110	0x3e0997d4	0.13436824
111	0xbe183412	-0.14863613
112	0xbda9f66a	-0.08298953
113	0x3db94ad9	0.09047479
114	0xbe01fe4b	-0.12694661
115	0x3d4b78dc	0.049675807
116	0x3d6c3f3f	0.057677504
117	0x3dbe2033	0.09283485
118	0x3d3efa84	0.04662563
119	0xbdd91bd7	-0.10601013
120	0xbbb3dea5	-0.005489188
121	0x3ccd805a	0.025085617
122	0x3c1119c0	0.008856237
123	0xbdcd949e	-0.10038112
124	0x3cd120f8	0.025528416
125	0xbb634942	-0.0034681116
126	0xbc04a43f	-0.0080958
127	0x3d968a57	0.07350605
128	0xbc8c3183	-0.017113453
129	0xbd749c22	-0.059719212
130	0xbd99d8a9	-0.07512028
131	0x3d765a5d	0.06014477
132	0xbde0ac0e	-0.10970317
133	0xbcc2dbca	-0.023786444
134	0x3cf3e465	0.029771993
135	0xbc8426e5	-0.016131828
136	0x3c2333a9	0.009961047
137	0xbd114caa	-0.035473503
138	0x3da5d1d6	0.08096664
139	0x3c96a583	0.018389469
140	0xbdc925b2	-0.09821643
141	0x3d3bad1c	0.045819387
142	0xbd90e7e9	-0.07075483
143	0xbcbc1135	-0.022957424
144	0x3d4af0d5	0.04954608
145	0xbca7d8e1	-0.020489158
146	0xbc765044	-0.015033785
147	0x3d0b6bc1	0.03403831
148	0x3d90499c	0.0704529
149	0xbd6e77c0	-0.05821967
150	0x3d96cd83	0.07363417
151	0x3c5a7662	0.013333889
152	0x3c14c860	0.009080976
153	0xbbc1f71e	-0.0059193512
154	0x3d0fa69e	0.035071008
155	0x3c87fb39	0.016599284
156	0xbd76a6de	-0.06021773
157	0xbe06e487	-0.13173114
158	0xbdcb4155	-0.099245705
159	0x3d4c0d4e	0.049817376
160	0x3b611036	0.0034341938
161	0xbda34996	-0.0797302
162	0x3e349db3	0.17638282
163	0xbd446151	-0.04794437
164	0x3d777567	0.060414698
165	0xbd9500fe	-0.0727558
166	0xbddf55f8	-0.10905069
167	0x3c610413	0.0137338815
168	0x3c3dddf3	0.011588561
169	0x3d6a2358	0.057162613
170	0x3e32207f	0.17395209
171	0x3ae3221e	0.0017328893
172	0x3dfa2023	0.12213161
173	0xbcbbebf1	-0.022939654
174	0x3d5fd457	0.054645862
175	0xbda8a358	-0.0823428
176	0x3cf63e3b	0.03005897
177	0x3da54468	0.08069688
178	0xbdaaa5a3	-0.08332374
179	0x3dec9133	0.11551132
180	0xbd640333	-0.055667114
181	0xbcd27dc4	-0.025694735
182	0x3c3b0a1a	0.011415983
183	0x3da3cccb	0.079980455
184	0x3d8a4ec5	0.06753305
185	0x3e21ce72	0.15801409
186	0x3c9fc4d2	0.01950303
187	0x3d462ff3	0.04838557
188	0xbd161fb4	-0.03665133
189	0x3d9f65d9	0.07783098
190	0xbd8144e7	-0.0631197
191	0xbcc4d241	-0.024026038
192	0x3c963fae	0.018340912
193	0xbd832afe	-0.064046845
194	0xbc6a965a	-0.014318073
195	0xbd9416d8	-0.072309196
196	0x3de602e0	0.11231017
197	0x3dc7a922	0.097490564
198	0xbdd5d9da	-0.104419425
199	0x3da489f8	0.08034128
200	0x3cde0fb8	0.027107105
201	0xbd88e7db	-0.06684848
202	0xbd7b7b35	-0.061396796
203	0xbd106ef8	-0.035262078
204	0xbc38d2b9	-0.011280709
205	0xbbd995ec	-0.0066401865
206	0x3caa4b26	0.020787787
207	0xbdc9da3c	-0.09856078
208	0xbbcf5f2a	-0.006328483
209	0x3d812b7c	0.06307122
210	0x3bb50559	0.005524319
211	0x3d751642	0.05983568
212	0xbc58b830	-0.0132275075
213	0xbdd0c991	-0.10194696
214	0xbb3cf2f8	-0.0028831344
215	0xbaab1e49	-0.001305529
216	0x3ce4da4b	0.027936121
217	0x3da18ecc	0.078885645
218	0x3dba0e78	0.09084791
219	0xbd37c6d8	-0.044867367
220	0x3d23992a	0.03994099
221	0xbd9b8096	-0.07592885
222	0xbd3fa912	-0.046792097
223	0x3ddff593	0.109355114
224	0xbd3ff920	-0.046868443
225	0xbd7b6612	-0.06137664
226	0x3e128f0f	0.14312385
227	0xbcdaeaad	-0.02672323
228	0x3e07c373	0.13258152
229	0x3df2a749	0.11848313
230	0x3a3af24c	0.0007131442
231	0xbdea926a	-0.114537075
232	0x3d463486	0.048389934
233	0x3d968203	0.073490165
234	0x3c61bf5a	0.013778532
235	0xbd44bf12	-0.04803378
236	0xbafa781e	-0.0019109284
237	0xbd8d8737	-0.06910556
238	0x3d920fc1	0.07131911
239	0xbd2d8a70	-0.042368352
240	0x3d285c2d	0.04110353
241	0xbd5cf0af	-0.05394047
242	0xbda47de2	-0.08031823
243	0x3d667ce7	0.05627146
244	0x3dba6206	0.09100728
245	0xbcf110f8	-0.029427037
246	0x3b8ccc9b	0.004296852
247	0xbcacbceb	-0.021086177
248	0x3c7911cb	0.015201996
249	0xbb356a89	-0.0027681908
250	0x3d843ecf	0.06457292
251	0x3d67ac5e	0.056560867
252	0x3e130440	0.1435709
253	0x3dcde008	0.10052496
254	0x3d027042	0.03184534
255	0x3d85de91	0.06536592

weight f4 [768]
0	0x3f8ca2f3	1.0987228
1	0x3f8b60ef	1.0888957
2	0x3f7beb5b	0.98406
3	0x3f804116	1.0019863
4	0x3f6a5434	0.91534734
5	0x3f830135	1.0234743
6	0x3f9bc6ed	1.2170082
7	0x3f5ad169	0.85475785
8	0x3f460299	0.77347714
9	0x3f88d0e4	1.0688748
10	0x3f7ceacf	0.9879579
11	0x3f5bc5df	0.858488
12	0x3f936ee2	1.1518214
13	0x3f6712e8	0.90263224
14	0x3f733eaa	0.9501749
15	0x3f951146	1.1645896
16	0x3f8fac63	1.1224483
17	0x3f73b78d	0.9520195
18	0x3f8c1847	1.0944909
19	0x3f753a82	0.957924
20	0x3f8df439	1.1090156
21	0x3f627113	0.8845379
22	0x3f6c21c7	0.9223904
23	0x3f81c5ae	1.0138452
24	0x3f8521fd	1.0400997
25	0x3f81d4de	1.0143087
26	0x3f777975	0.96669704
27	0x3f758d5f	0.9591884
28	0x3f717dde	0.94332683
29	0x3f5bf97e	0.8592757
30	0x3f821084	1.016129
31	0x3f7e2351	0.9927264
32	0x3f6bbf58	0.9208884
33	0x3f7e1f0c	0.99266124
34	0x3f815a36	1.0105655
35	0x3f7fad74	0.99874043
36	0x3f727268	0.9470582
37	0x3f85702f	1.0424861
38	0x3f529ed6	0.82273614
39	0x3f6e0758	0.92979956
40	0x3f7d4c21	0.9894429
41	0x3f78dd1a	0.97212374
42	0x3f7104d1	0.94147974
43	0x3f7d1fd7	0.9887671
44	0x3f886f25	1.0658919
45	0x3f65a727	0.8970818
46	0x3f6dd6d6	0.9290594
47	0x3f8a9fa7	1.0829972
48	0x3f7d5e5d	0.9897211
49	0x3f765e3f	0.9623756
50	0x3f7c002b	0.98437756
51	0x3f6b165a	0.9183098
52	0x3f7dd556	0.9915365
53	0x3f85db00	1.0457458
54	0x3f6f5a1b	0.93496865
55	0x3f8693a1	1.0513803
56	0x3f7f7b18	0.997972
57	0x3f6bcfc7	0.9211392
58	0x3f86f8f8	1.0544729
59	0x3f6b21f9	0.91848713
60	0x3f676736	0.9039186
61	0x3f816cd8	1.0111341
62	0x3f80a3bc	1.0049968
63	0x3f4980f4	0.7871239
64	0x3f7beb0e	0.9840554
65	0x3f6ecf69	0.9328523
66	0x3f8006bc	1.0002055
67	0x3f860c43	1.0472492
68	0x3f805a51	1.0027562
69	0x3f78f620	0.97250557
70	0x3f7ed246	0.995396
71	0x3f7aeacb	0.98014516
72	0x3f8b37b4	1.0876374
73	0x3f737800	0.9510498
74	0x3f704122	0.93849385
75	0x3f7243d3	0.9463474
76	0x3f6571ac	0.89626575
77	0x3f69973e	0.912464
78	0x3f6e8870	0.9317694
79	0x3f7f8343	0.99809664
80	0x3f6ea005	0.9321292
81	0x3f7d5f54	0.98973584
82	0x3f74f03f	0.95679086
83	0x3f72f8ca	0.9491087
84	0x3f76c6ce	0.963971
85	0x3f609218	0.8772292
86	0x3f85fe49	1.0468227
87	0x3f6b1989	0.9183584
88	0x3f674580	0.90340424
89	0x3f6288a0	0.88489723
90	0x3f8e3c52	1.1112158
91	0x3f646ade	0.89225566
92	0x3f6faf3c	0.9362676
93	0x3f89daf9	1.076995
94	0x3f930e66	1.1488769
95	0x3fa1ecdf	1.2650412
96	0x3f78240d	0.9693001
97	0x3f914b0a	1.1351025
98	0x3f762549	0.9615064
99	0x3f66d46e	0.9016789
100	0x3f8bd931	1.0925657
101	0x3f8ce29c	1.1006656
102	0x3f687e3e	0.9081763
103	0x3f8ff8f4	1.124785
104	0x3f75dc67	0.9603943
105	0x3f7d175d	0.98863775
106	0x3f7a33cf	0.97735304
107	0x3f86cf97	1.0532101
108	0x3f6de0b4	0.92920995
109	0x3f77e9d7	0.96841186
110	0x3f6a211a	0.9145676
111	0x3f922b4c	1.1419463
112	0x3f8066cf	1.0031375
113	0x3f7b7ccb	0.98237294
114	0x3f755473	0.95831984
115	0x3f882ddc	1.0638995
116	0x3f6c48c8	0.92298555
117	0x3f8205f1	1.0158063
118	0x3f72464b	0.9463851
119	0x3f791b20	0.97307014
120	0x3f94758b	1.1598371
121	0x3f7cbf7f	0.987297
122	0x3f5bdcd0	0.8588381
123	0x3f7a1a2f	0.97696203
124	0x3f674814	0.9034436
125	0x3f823574	1.0172563
126	0x3f6f8322	0.9355947
127	0x3f6f75bb	0.9353902
128	0x3f9a6964	1.2063413
129	0x3f67942b	0.9046046
130	0x3f7bf385	0.98418456
131	0x3f846048	1.0341883
132	0x3f6e643b	0.9312169
133	0x3f817fc1	1.0117112
134	0x3f7292fe	0.9475554
135	0x3f883ab4	1.0642915
136	0x3f83927c	1.0279078
137	0x3f62a3d0	0.8853121
138	0x3f838500	1.0274963
139	0x3f778d63	0.96700114
140	0x3f83995e	1.0281179
141	0x3f6dd85e	0.92908275
142	0x3f974f83	1.182114
143	0x3f831531	1.0240842
144	0x3f7e7a6b	0.99405545
145	0x3f876987	1.0579079
146	0x3f7472d7	0.9548773
147	0x3f75a8e7	0.9596085
148	0x3f79888c	0.9747398
149	0x3f7c2aa0	0.9850254
150	0x3f7c1c67	0.9848084
151	0x3f694d09	0.9113317
152	0x3f6666bb	0.90000504
153	0x3f806dcb	1.0033506
154	0x3f7cbce2	0.9872571
155	0x3f77a7a0	0.9674015
156	0x3f855c2e	1.0418756
157	0x3f7f69a5	0.99770576
158	0x3f6f3573	0.9344093
159	0x3f8a5565	1.080731
160	0x3f6f7eb5	0.93552715
161	0x3f805280	1.0025177
162	0x3f6bcbca	0.9210783
163	0x3f74af0d	0.95579606
164	0x3f9168aa	1.1360066
165	0x3f7700bd	0.964855
166	0x3f938a45	1.1526572
167	0x3f883d6e	1.0643747
168	0x3f8564eb	1.0421423
169	0x3f8e2612	1.1105368
170	0x3f6b1b67	0.9183869
171	0x3f71eee7	0.9450516
172	0x3f82100c	1.0161147
173	0x3f7dc8f0	0.9913473
174	0x3f6f27f8	0.9342036
175	0x3f55dd4f	0.83540815
176	0x3f8860e7	1.0654572
177	0x3f806482	1.0030673
178	0x3f8a551b	1.0807222
179	0x3f862b56	1.0481975
180	0x3f80f05c	1.0073352
181	0x3f65d8fc	0.89784217
182	0x3f852dcf	1.0404605
183	0x3f6f2ec0	0.9343071
184	0x3f8aa008	1.0830088
185	0x3f8e58e5	1.1120878
186	0x3f795dba	0.9740864
187	0x3f8cdec8	1.1005487
188	0x3f784236	0.9697603
189	0x3f7816ff	0.9691009
190	0x3f86c34f	1.0528353
191	0x3f71e17c	0.94484687
192	0x3f61af55	0.8815816
193	0x3f79db6b	0.9760043
194	0x3f85aa2e	1.044256
195	0x3f49f932	0.78895867
196	0x3f8100a6	1.0078323
197	0x3f656001	0.89599615
198	0x3f8d3ba1	1.1033822
199	0x3f6b57a9	0.91930634
200	0x3fa05f00	1.2528992
201	0x3f86b139	1.0522834
202	0x3f7a9ace	0.97892463
203	0x3f7804c6	0.96882284
204	0x3f7e73cd	0.9939545
205	0x3f8d91d3	1.1060127
206	0x3f54b782	0.8309251
207	0x3f78d4f7	0.9719996
208	0x3f6a4265	0.9150756
209	0x3f79995f	0.9749965
210	0x3f6db9c8	0.92861605
211	0x3f7f67f9	0.99768025
212	0x3f8cba0d	1.0994278
213	0x3f83e5dc	1.0304523
214	0x3f87f335	1.0621096
215	0x3f649ac7	0.8929867
216	0x3f854d75	1.0414263
217	0x3f5d3428	0.8640771
218	0x3f594409	0.8486944
219	0x3f6ae4c2	0.91755307
220	0x3f6d2e1e	0.92648494
221	0x3f775c49	0.9662519
222	0x3f702064	0.93799424
223	0x3f65dd07	0.89790386
224	0x3f5ac681	0.8545914
225	0x3f8d33b5	1.1031405
226	0x3f8317a9	1.0241596
227	0x3f8a6a36	1.0813663
228	0x3f7efaaf	0.9960126
229	0x3f8094ac	1.0045371
230	0x3f7917f4	0.97302175
231	0x3f88acde	1.0677755
232	0x3f6f370e	0.9344338
233	0x3f8177c6	1.0114677
234	0x3f7ae9fe	0.98013294
235	0x3f7fd2b1	0.99930865
236	0x3f8072c9	1.003503
237	0x3f5eac6c	0.86981845
238	0x3f7e6019	0.99365383
239	0x3f83a77f	1.0285491
240	0x3f7e88b4	0.9942734
241	0x3f6de018	0.92920065
242	0x3f7cdc39	0.98773533
243	0x3f9424f0	1.1573772
244	0x3f64cd55	0.8937581
245	0x3f8129ec	1.0090919
246	0x3f8c688a	1.0969403
247	0x3f82bdfa	1.0214226
248	0x3f734129	0.950213
249	0x3f84eb1e	1.0384252
250	0x3f70155f	0.9378261
251	0x3f87b88d	1.0603195
252	0x3f5e0e57	0.8674063
253	0x3f6d3998	0.92666006
254	0x3f5d8bae	0.8654126
255	0x3f5a8ccd	0.85371095

bias f4 [768]
0	0x3df12a1f	0.11775612
1	0x3db01b64	0.08598974
2	0xbccb094b	-0.024784705
3	0x3d2df204	0.042467132
4	0xbda04c9d	-0.07827113
5	0x3c55eb45	0.013056581
6	0xbe61a3ef	-0.22035192
7	0xbdee9217	-0.11648958
8	0x3e5ff052	0.21869019
9	0x3df4acd7	0.11947029
10	0x3c9701f6	0.018433552
11	0xbde72b57	-0.11287563
12	0xbe6c7a5f	-0.23093556
13	0xbdc283d7	-0.09497803
14	0x3d591952	0.053002663
15	0x3e4887fd	0.19583125
16	0x3e129501	0.14314653
17	0xbe6166fa	-0.22011939
18	0xbe024e9b	-0.12725298
19	0xbd10f20f	-0.035387095
20	0x3e00bb06	0.12571344
21	0xbda430cc	-0.0801712
22	0x3d72e486	0.05929997
23	0xbd1cf477	-0.038319077
24	0x3d49ab28	0.049235493
25	0x3cea0a3d	0.028569335
26	0x3dc949de	0.09828542
27	0xbccd6287	-0.025071396
28	0x3d1f3372	0.03886742
29	0xbe1ef30b	-0.15522401
30	0xbcbbc842	-0.022922639
31	0x3d185654	0.037191704
32	0x3cce2658	0.025164768
33	0x3a0c727d	0.0005357636
34	0x3ce7741e	0.028253611
35	0xbd8d98a9	-0.06913883
36	0xbd3a955b	-0.045552593
37	0x3d9e09c0	0.077167034
38	0x3e199c05	0.15000923
39	0xbd2c3a80	-0.042047977
40	0x3cda53fa	0.026651371
41	0x3cb58584	0.022158392
42	0xbbecc749	-0.007225905
43	0xbc51563f	-0.01277691
44	0x3d76be86	0.06024029
45	0x3dc8f7fe	0.09812926
46	0x3dbbc58a	0.09168537
47	0xbe256a93	-0.16153936
48	0x3d447b6c	0.047969267
49	0x3d12773c	0.035758242
50	0x3e186651	0.1488278
51	0xbc702089	-0.0146561945
52	0x3d875aa4	0.06609085
53	0x3dd2d80d	0.10295115
54	0x3d8796f3	0.06620588
55	0x3d89bce4	0.06725481
56	0xbcb0ccf1	-0.021582099
57	0x3cf05485	0.029337177
58	0x3d7f244c	0.062290475
59	0xbd8e6047	-0.06951957
60	0x3daba837	0.08381694
61	0xbc29ab79	-0.010355824
62	0xbc4ef5c8	-0.012631841
63	0x3e5214f8	0.20515811
64	0xbe1a877a	-0.15090743
65	0xbafd4bed	-0.0019324996
66	0x3c41c294	0.011826176
67	0xbcfd22a1	-0.030900301
68	0x3dcc403d	0.0997319
69	0xbcb9d1aa	-0.022682983
70	0xbc5e80ab	-0.0135804815
71	0xbd46bb9d	-0.048518766
72	0xbe01e5ce	-0.1268532
73	0xbda60d6d	-0.081080295
74	0x3d972b83	0.07381346
75	0xbd414b93	-0.047191214
76	0x3e619611	0.22029902
77	0x3ccc31de	0.024926122
78	0x3d814bff	0.06313323
79	0x3ccd0213	0.025025403
80	0x3cd48c77	0.025945885
81	0xbcbdca62	-0.023167793
82	0xbce948b3	-0.028477049
83	0x3cde72a3	0.027154272
84	0xbc0b38a8	-0.008497395
85	0x3dae1a20	0.08501077
86	0xbd9c81d7	-0.076419525
87	0xbd172636	-0.036901675
88	0xbddfc742	-0.10926677
89	0x3e23a4ec	0.15980881
90	0x3de430fd	0.11142156
91	0xbdc99578	-0.09842962
92	0xbd9acec9	-0.075589724
93	0xbd336178	-0.043794125
94	0xbe3b6cc6	-0.18303213
95	0xbe5477df	-0.20748852
96	0x3c2ee841	0.010675491
97	0xbe050941	-0.12991811
98	0x3d80c40f	0.06287395
99	0xbdc1d785	-0.09464935
100	0xbe23643e	-0.15956208
101	0xbd7c302b	-0.061569374
102	0x3de1914d	0.11014042
103	0xbdf22c96	-0.1182491
104	0xbc04bc59	-0.008101546
105	0x3c265151	0.010151223
106	0xbcba1e18	-0.022719428
107	0x3d9c1780	0.0762167
108	0x3d03cb1a	0.032176115
109	0x3d61ab1e	0.05509483
110	0xbe1d1878	-0.15341365
111	0xbde3e306	-0.11127286
112	0xbd0deee4	-0.034651652
113	0xbe84c4fb	-0.25931534
114	0xbd90bbac	-0.070670456
115	0x3d97ae82	0.074063316
116	0x3dad2771	0.084547885
117	0xbd923da7	-0.071406655
118	0xbc32c5b9	-0.010911399
119	0xbcde0058	-0.027099773
120	0x3e0c8efc	0.13726419
121	0xbc845085	-0.016151676
122	0x3e173e40	0.1476984
123	0x3d608425	0.054813523
124	0x3d9a768a	0.07542141
125	0xbb010f5e	-0.0019692997
126	0x3cbc46dc	0.022983007
127	0x3c6b3e1a	0.014358068
128	0xbe362a7f	-0.17789648
129	0x3de6b2c5	0.11264566
130	0x3d994d57	0.074854545
131	0x3db5b20e	0.08871852
132	0x3d498592	0.04919965
133	0xbd69529a	-0.05696354
134	0x3c964ecf	0.018348126
135	0xbd491f6a	-0.049102224
136	0xbd5b93d0	-0.05360776
137	0x3dc98b9a	0.0984108
138	0x3d4d4511	0.050114695
139	0xbe5125fe	-0.20424649
140	0xbcb6e1cd	-0.022324467
141	0x3d9848db	0.07435771
142	0x3e1f4de4	0.15557057
143	0xbd8e06b0	-0.06934869
144	0x3d45f486	0.0483289
145	0xbde5b8db	-0.11216899
146	0xbd23075b	-0.039801937
147	0xbd193c3c	-0.03741096
148	0x3d3ace3c	0.045606837
149	0xbe010d5d	-0.12602754
150	0xbd87c8f4	-0.06630126
151	0x3d91574b	0.07096728
152	0xbdba133a	-0.090856984
153	0x3ce7486f	0.028232781
154	0xbd2682ae	-0.04065197
155	0xbc986bcc	-0.018606089
156	0x3d3b6e53	0.04575951
157	0x3a8b5a58	0.0010631783
158	0x3dd7cc2c	0.105369896
159	0x3bdbda0c	0.006709343
160	0xbd94a495	-0.07257954
161	0x3baa59dc	0.0051987004
162	0xbd9d4d33	-0.0768074
163	0xbd1e9287	-0.038713958
164	0x3dc4d445	0.096108
165	0x3cbabd83	0.022795444
166	0xbe2bf9d3	-0.16794519
167	0xbd2e7cde	-0.04259955
168	0x3dd1c588	0.10242754
169	0x3e041fa1	0.1290269
170	0x3d8ed300	0.06973839
171	0x3d8d0268	0.068852246
172	0x3bf7aa94	0.0075581763
173	0xbc82dece	-0.015975382
174	0x3d8448ae	0.06459175
175	0x3e264588	0.16237462
176	0xbd4631e0	-0.04838741
177	0xbca40ee3	-0.02002663
178	0xbd9369f4	-0.07197943
179	0x3d16140b	0.03664021
180	0x3d28770f	0.041129168
181	0xbdc18f60	-0.09451175
182	0x3cc06e75	0.02349017
183	0x3d8f20b5	0.0698866
184	0xbda55369	-0.0807255
185	0xbda2cf6e	-0.0794972
186	0x3cafcee3	0.021460956
187	0xbe0c5f72	-0.13708284
188	0x3d332435	0.0437357
189	0xbc4172f7	-0.011807195
190	0xbb8f195e	-0.0043670377
191	0xbda6aa29	-0.08137924
192	0x3daa30f4	0.08310118
193	0xbcbd3f8b	-0.023101589
194	0x3df0329f	0.11728405
195	0xbe65dc6f	-0.2244737
196	0x3c1fda6f	0.0097566685
197	0xbd8a7c6f	-0.06762015
198	0x3db96b9b	0.09053727
199	0xbd2fb266	-0.042894743
200	0x3ea2683a	0.31720144
201	0xbd3fbf0e	-0.046813063
202	0xbd52e437	-0.051487174
203	0xbd50f76d	-0.051017214
204	0xbca042bb	-0.01956307
205	0xbdc53233	-0.09628715
206	0xbe2924bd	-0.16517921
207	0x3b9a6260	0.0047114342
208	0xbd4b7f91	-0.049682204
209	0xbca33cf6	-0.01992653
210	0xbd8d00fb	-0.06884953
211	0x3d4ffdc7	0.05077913
212	0x3dcfd913	0.101488255
213	0x3babb9e2	0.005240665
214	0xbdd7a85d	-0.105301596
215	0x3dcebeb0	0.100949645
216	0x3d0a47de	0.033759944
217	0xbdf8ef8e	-0.121550664
218	0x3e1f9ef6	0.15587983
219	0x3db3a9ce	0.08772622
220	0xbd8347fe	-0.06410216
221	0x3d0f94e2	0.035054095
222	0x3d7b62ae	0.061373405
223	0xbdce1d2e	-0.10064159
224	0x3e0819a7	0.13291036
225	0xbe16c0a6	-0.14721927
226	0x3d06f39e	0.032947175
227	0xbdb06d69	-0.08614618
228	0x3c83f89d	0.016109759
229	0x3c96c813	0.01840595
230	0xbc415473	-0.011799919
231	0xbd7c6ade	-0.061625354
232	0xbd1f4678	-0.038885564
233	0xbd92f09d	-0.071747996
234	0xbd9a0061	-0.075196035
235	0x3d3a9457	0.045551624
236	0x3da46468	0.080269635
237	0x3e0a2125	0.13489206
238	0xbb068c74	-0.0020530494
239	0xbcf9d756	-0.030498188
240	0x3c99f6b9	0.018794404
241	0x3d6682e8	0.056277186
242	0xbc1f0f23	-0.009708199
243	0x3e38e2b9	0.18055238
244	0xbe3eab9f	-0.18620156
245	0xbdb2ee04	-0.08736804
246	0xbe2b1e23	-0.16710715
247	0xbc491c64	-0.012274835
248	0xbe0f1988	-0.13974583
249	0x3ccc47d3	0.024936592
250	0x3d5942ed	0.05304234
251	0x3d641f31	0.05569381
252	0x3df7a78c	0.12092504
253	0x3d5c3383	0.053760063
254	0x3df916e6	0.12162571
255	0xbdde61f4	-0.10858527
