subject-models/ada-0629/michelleyeoh2023-06-29T16-04-09_michelleyeoh-ada/embeddings_gs-4500.pt (torch, 836552 bytes, 168 tensors)

pre_vecs f4 [2, 768]
000000 cb 9c ca bc 6f 9d e5 bb 75 d6 62 ba 7f c0 e3 3c
       -0.024732968 -0.007007293 -0.00086531724 0.02780175
000010 92 66 d4 bc 07 18 a4 3b f4 74 ca bb 81 25 88 bc
       -0.025927816 0.005007747 -0.0061784927 -0.016619446
000020 e2 c7 75 bc c6 11 cc 39 02 9c 19 3b 03 bc c3 bc
       -0.015001269 0.00038923154 0.0023438935 -0.023893362
000030 a2 56 fa bb 12 17 27 bc 25 36 85 3c bb 85 83 3c
       -0.007639722 -0.0101983715 0.01626117 0.016054979
000040 02 88 6d ba f0 64 8a 3b 16 1a 8c bc 2e 21 f7 3b
       -0.0009061099 0.0042234585 -0.017102282 0.007541797
000050 76 d6 7e bb b7 e2 a4 3c b6 a6 0d 3c d3 d8 c9 bc
       -0.0038885153 0.020127637 0.008645704 -0.024639523
000060 7d b8 2b bb 48 0c 82 3b 69 b5 8c 3b 38 99 8f bb
       -0.0026202493 0.003968749 0.0042940867 -0.004382279
000070 c5 53 21 bc c3 a4 04 bc f7 ac 82 3c 90 a1 7e 3c
       -0.009846632 -0.008095923 0.015951617 0.015541449
000080 e6 cc 12 3b 4d f3 8d bb 93 39 e7 3b 7d ea 02 3d
       0.002239996 -0.004331982 0.007056424 0.031961907
000090 66 7b 77 bc 6a a4 e8 3c 40 3d db bc 68 7b 28 3c
       -0.015105104 0.028398711 -0.026762605 0.010283329
0000a0 58 8b 89 3c 86 6f 84 3b 3f 9d b9 ba a3 d3 22 bc
       0.016790077 0.004041615 -0.0014161243 -0.009938153
0000b0 29 ae 69 bc eb b8 97 bb d9 1f 1b bb e7 98 e6 3b
       -0.014262714 -0.0046301982 -0.0023670106 0.0070372703
0000c0 d2 c6 de bc 3d 62 17 bc a7 ac a3 3c ee 1e 89 bb
       -0.027194414 -0.00923973 0.019979788 -0.0041845953
0000d0 59 31 89 3b b6 f8 dc bb 8e 0d ff bc af 61 af bb
       0.004186791 -0.006743516 -0.031134393 -0.005352221
0000e0 75 bb 66 3c 0b 51 2e bc 88 69 0a 3d 6d 2e fc bb
       0.014082779 -0.010639439 0.03379205 -0.007695964
0000f0 a1 1e 17 bc 90 02 d3 3b 19 b0 c8 3b 2a 7e 9d bb
       -0.009223611 0.0064395145 0.006124508 -0.0048062997
000100 ee 1d 95 bb e1 b0 85 bc 28 a8 e1 36 c8 57 04 3d
       -0.004550687 -0.016319694 6.7250985e-06 0.032310277
000110 00 1a 7c 3c 3e b5 6f 3c 52 74 0d bc fa 2a b5 bc
       0.015387058 0.014630614 -0.00863369 -0.02211522
000120 15 75 fe bb b0 65 d5 3b dc d3 ff bb bb 03 ce 3b
       -0.007765422 0.0065123662 -0.007807238 0.006287066
000130 4c 94 13 bc 39 3d 00 bc 79 21 f5 3b 9a ed 42 ba
       -0.009007525 -0.007827097 0.007480797 -0.0007435918
000140 da fa 8f bc 61 a7 15 3c 3f 0c 79 3c ba 5f 0a bd
       -0.01757567 0.0091341445 0.015200674 -0.0337827
000150 d5 37 2e bc a2 5e 4a 3c f2 ba 6a bc d9 11 11 3c
       -0.010633429 0.012351664 -0.014326798 0.008854353
000160 80 a6 55 3c 5b c0 83 bc 7f 0f 94 3c 68 08 57 3c
       0.013040185 -0.016082933 0.018073795 0.013124563
000170 3b 17 38 3c c4 a2 e7 bb 3b 96 c9 bc 32 88 4e 3c
       0.011236007 -0.0070689637 -0.024607768 0.012605714
000180 3b 3e 51 3c f1 7f 8e 3b 93 4f ea 3b ba 77 17 3c
       0.012771185 0.004348748 0.0071505993 0.009244854
000190 5d 41 9c bc f7 f6 c2 3c 5a 6b 86 3b a6 f8 83 b9
       -0.019074136 0.023799403 0.004102153 -0.00025171525
0001a0 71 fd 35 bc 3e ae c8 39 b6 52 f7 b9 66 c2 b2 3b
       -0.011107788 0.00038276793 -0.00047173136 0.005455303
0001b0 d2 f9 f6 bb 92 dc 37 bc 1e b7 be 3b 35 a3 22 bb
       -0.007537105 -0.011222022 0.005820169 -0.0024816517
0001c0 50 1f 24 3b d2 ba 60 3c 63 25 99 3b 32 52 f2 bb
       0.0025043078 0.013716416 0.0046736463 -0.0073950524
0001d0 2b 20 f7 bc 06 cf 6f 3b d8 d3 72 bc ab 8e 12 bc
       -0.030166706 0.0036591901 -0.014821015 -0.0089451475
0001e0 2a 69 34 3c 47 03 99 bc 5f 48 e4 3b 45 5a 8b bc
       0.011011401 -0.01867832 0.006966635 -0.017010817
0001f0 5f 2e b4 bc 1e 02 ae bb 91 a2 f9 ba 09 a0 a5 ba
       -0.021994768 -0.005310311 -0.0019045641 -0.0012636195
000200 9b 4b 68 3b 6a a3 95 bc 41 42 08 ba a6 eb 51 3c
       0.0035445455 -0.018266398 -0.0005197861 0.012812531
000210 88 22 a8 bc e7 b7 b8 b8 8f 73 73 3c 6e 66 18 3c
       -0.020524278 -8.808058e-05 0.014859094 0.009301765
000220 c0 ad 93 bc 6b b7 23 bd 82 5c 03 3b fb b7 16 bc
       -0.018027186 -0.039969843 0.0020044153 -0.009199138
000230 cb 58 f0 bc 37 07 16 bc 1c 73 f7 bb a7 43 f6 3b
       -0.029339215 -0.009156994 -0.007551564 0.007515389
000240 80 b4 4c bb 1b 8e bd bb 24 2a 7d 3c 4c 5f 3f bc
       -0.0031235516 -0.0057847626 0.015451942 -0.011680435
000250 77 c9 02 3c 07 c3 79 3c f0 96 d9 3c 43 cb 9c 3c
       0.007982603 0.015244252 0.02656123 0.019139891
000260 c0 c1 c2 bc b3 67 30 3c d1 28 a4 bc 67 ad 88 3c
       -0.023774028 0.010766911 -0.020038994 0.016684247
000270 50 76 8b 3c 12 ba 4f 3c 7e c6 df bc 19 b8 37 bc
       0.01702419 0.01267864 -0.027316328 -0.011213326
000280 cb 46 07 3b 3a 9f bc 3c 12 7b 07 3d ff a5 a7 3a
       0.002064156 0.023025144 0.033076353 0.001279056
000290 a6 be e6 ba 36 ac c9 bb 31 27 bd bb f5 21 7c bc
       -0.0017604425 -0.0061545623 -0.0057724942 -0.015388955
0002a0 54 3a 15 3c 2b bb 80 3b 32 a4 14 3a af de c9 3b
       0.009108145 0.003928562 0.0005670219 0.006160579
0002b0 d0 eb 65 3b 7b ad ef bb 27 cd 04 3b cc 75 91 3c
       0.0035083182 -0.0073143817 0.0020263882 0.017756365
0002c0 58 59 09 bc 2d 98 d6 bc 61 84 e7 bb 7f 1c 66 3b
       -0.008383118 -0.02619561 -0.0070653413 0.00351122
0002d0 72 29 b5 bc 33 64 a9 3b b9 98 af 3c a6 0b 11 3c
       -0.02211449 0.0051694154 0.021435129 0.008852875
0002e0 a6 08 67 3b 99 60 4e 3c 6a 22 c3 bb 75 c5 8e 3c
       0.0035252958 0.012596273 -0.00595503 0.01742814
0002f0 e0 c7 05 bc c9 5c 5e 3c ac 47 09 bc 74 b0 44 3b
       -0.00816533 0.013571926 -0.008378904 0.00300124
000300 5f af 26 bb 94 c3 b3 bb 9b 17 9a bc 0c 4a e8 3b
       -0.002543412 -0.005485961 -0.018810084 0.007088905
000310 83 a2 ba 3c 81 33 5a 3c 73 a5 e1 3b 46 9f b5 37
       0.02278257 0.013317944 0.006886178 2.1651049e-05
000320 63 58 d6 3a 0c fd 6a 3c 48 e8 eb bc e3 51 a8 bb
       0.0016353246 0.014342558 -0.028797284 -0.005136715
000330 74 62 19 bc 47 ce 94 3b eb c6 17 bb 5f 2e 02 3c
       -0.009361852 0.0045411917 -0.0023159336 0.007945626
000340 e5 b9 af 3c 1a 45 db 3b 9d 1d 9b 3c 21 9f 2e ba
       0.021450946 0.006691587 0.01893502 -0.00066612853
000350 76 6a 06 3c 9d c2 98 3c 29 07 53 bc 69 f0 10 bd
       0.008204093 0.018647486 -0.012880125 -0.035385523
000360 dd 6a c3 3a ff 60 9a 3c 86 74 ed 3b ae f2 e0 bb
       0.0014909167 0.01884508 0.0072465567 -0.006864867
000370 b1 a4 8a 3c fc 4c 39 3c 10 80 22 bc 1d c9 4c ba
       0.016924234 0.011309858 -0.009918228 -0.00078119506
000380 31 92 14 bc 77 a7 d0 bb 6a a5 12 3c d4 c0 3d 3c
       -0.009068058 -0.0063676196 0.008950571 0.011581618
000390 8b 80 2a 3d 5f 35 3c bc b9 5e 28 3d 03 58 bc 3b
       0.041626494 -0.011487334 0.04110596 0.0057477965
0003a0 f5 e5 04 bc 48 de f6 bc cf d5 e2 3b 13 08 98 bb
       -0.008111467 -0.030135289 0.0069224606 -0.0046396344
0003b0 bd 4f be 3b 11 90 e3 3b c7 14 0a 3d da c2 0d 3c
       0.0058078454 0.0069446643 0.03371122 0.008652413
0003c0 1a 39 fd 3b 5c cd 36 3c f0 cd b5 ba 3e e2 d4 3c
       0.0077277543 0.01115736 -0.0013870578 0.025986787
0003d0 17 2f 87 bb 7e 8c 81 bc 48 c3 1f bc 32 72 06 bc
       -0.0041254866 -0.015814062 -0.0097511485 -0.008205937
0003e0 8e 70 94 3c 6f fb c9 3c 68 69 2c 3b a4 69 04 3d
       0.018120077 0.024656026 0.0026307944 0.03232731
0003f0 7a a3 48 bc e0 b5 03 bd 3a 4c cc 3b c5 04 8d 3c
       -0.012246007 -0.03215587 0.006234673 0.017214188

basis_rand_weights f4 [16, 5]
000000 fc 0d 84 3d e4 14 b7 bd 07 4c b5 bd c8 8d cb bd
       0.0644798 -0.089395314 -0.08852392 -0.09939152
000010 73 bb 3e be f7 a1 bc bc 22 2d ba 3c 27 a9 32 3e
       -0.18626194 -0.02302645 0.0227266 0.17447339
000020 2e c4 b4 3c 09 39 f7 3a e2 d4 74 ba 5e 29 2f bb
       0.022066202 0.0018861602 -0.00093395833 -0.0026727538
000030 76 a9 a8 3d 8e 35 c8 3d 7e 3c ec 3d aa 81 2a 3c
       0.08235447 0.0977584 0.115349755 0.010406891
000040 d4 2d 7e bc 83 02 28 bd bf c4 ad bd ba aa 6b 3d
       -0.015513856 -0.04101802 -0.08484792 0.057535864
000050 a6 c7 87 bc 73 a1 a8 bb c7 10 d4 bc 2e 7e 34 3e
       -0.016574692 -0.0051461994 -0.025886906 0.17626259
000060 3f 35 b0 3b 4f a1 8e bd a9 d1 04 3d d5 e1 48 3e
       0.005377441 -0.06964361 0.03242651 0.19617398
000070 33 fe 52 3e 51 b9 70 bd eb 52 75 3d ad 0c b9 bc
       0.20604782 -0.05877048 0.05989353 -0.022589052
000080 59 fa b4 bc 4e a4 e1 bc cf 4a 3d bd 0d d7 67 bd
       -0.022092031 -0.027544167 -0.04621392 -0.056601573
000090 da 86 e5 bc 09 a3 7a 3e 3b 9e 2e 3c 00 64 91 bd
       -0.028018404 0.24476255 0.010657842 -0.070991516
0000a0 76 d9 00 be e5 ee 82 bd 1b fe 43 bd 86 c2 c6 3e
       -0.12582955 -0.06393222 -0.047849756 0.38820285
0000b0 49 51 09 be 90 23 29 be 60 01 38 3d 0b 06 20 3e
       -0.13409914 -0.16517472 0.044923186 0.15627305
0000c0 16 00 27 3d 2a ef e8 bd 42 20 6f bd fe 9c 5d bc
       0.040771566 -0.11373742 -0.058380373 -0.013526199
0000d0 ce 56 1b 3d 2b 51 41 3e 2a 39 51 3e eb e6 5b bd
       0.03792458 0.1887862 0.20431963 -0.053687017
0000e0 24 01 5f 3c 66 df 97 3e e4 0a a2 3d 46 22 13 be
       0.013611112 0.29662627 0.079122335 -0.14368543
0000f0 bd d8 00 3e 99 26 b2 bd 66 7b 3a 3d 43 69 06 bd
       0.12582679 -0.08698768 0.04552784 -0.03281523
000100 5c 71 45 bd 01 d7 ae bc 7d 25 98 3d e2 d5 0d 3d
       -0.04820381 -0.021342756 0.07429025 0.034627803
000110 64 ea f6 3c 97 3b 44 be 6e d0 c7 bc e8 3c 37 3b
       0.030141063 -0.19163357 -0.02439138 0.0027959887
000120 94 ff f9 3c c3 1f 80 bd e6 a9 23 be 63 e5 04 bd
       0.030517377 -0.06256058 -0.1598278 -0.032445323
000130 87 49 35 3d c5 57 e8 3d 92 78 a4 bd 64 d7 9a bd
       0.044259574 0.11344866 -0.080308095 -0.07560614

basis_vecs f4 [3, 768]
000000 92 f6 3d bc 02 9d 0d 3a 40 31 e5 3c 4a 63 1c 3c
       -0.0115944315 0.0005402119 0.027977586 0.009545157
000010 82 8a c8 bc 45 6a 4a 3a b6 d9 71 bc 44 6c 10 bc
       -0.024480108 0.0007721524 -0.014761379 -0.008814875
000020 0c a2 db 3b e6 ab 23 3c 77 aa 72 3c 9e 83 05 3d
       0.006702667 0.009989714 0.01481115 0.032596223
000030 cb a9 7c 3c 6e a4 70 ba 70 a5 fe bc 81 e6 b2 3c
       0.015421341 -0.00091797754 -0.031084746 0.021838428
000040 40 af a6 bb a8 ab 12 bc 85 ca 42 3b b1 5c 73 3c
       -0.0050868094 -0.008952059 0.0029722762 0.014853642
000050 a5 ed e7 3b dc c5 b1 3c ac 4f 95 3c c8 e1 a7 3a
       0.00707789 0.021700792 0.018226467 0.0012808377
000060 d0 45 d5 3c 41 42 8a 3b 0e 4e 11 bd 75 66 f1 b9
       0.026034266 0.004219324 -0.03547483 -0.00046043438
000070 ba 55 99 bd 49 f7 3e 3d 21 76 56 3c a7 da 94 bb
       -0.07487054 0.04662255 0.013089688 -0.004542667
000080 da 3e e2 bc 65 dd 04 3d 88 02 d5 3c 36 7b 97 3d
       -0.02761786 0.0324377 0.026002184 0.073965475
000090 e0 71 1d 3b 63 b9 3b 3d 12 af 13 bc 45 54 57 3c
       0.0024024174 0.045831095 -0.009013908 0.01314265
0000a0 26 e2 47 3c 55 da 14 3b f6 f2 1d 3d b4 e4 16 bd
       0.012199914 0.0022713144 0.038561784 -0.036839202
0000b0 97 d1 26 3b 02 2c 73 bd 25 df 89 3b c9 57 27 bb
       0.0025454515 -0.05936814 0.004207509 -0.0025534502
0000c0 e1 05 91 bb ec da bc 3b 8e 77 fb 3c 76 6b 1e bd
       -0.0044257496 0.005763402 0.030696657 -0.0386767
0000d0 b0 b5 41 3d ed bf 14 3c 92 e6 fd bc 2e 89 64 3c
       0.04729241 0.009078962 -0.030993734 0.013948722
0000e0 3f 31 52 3c a2 b6 33 bc 70 78 4a 3d db a6 2a 3c
       0.012829124 -0.010968836 0.049431264 0.010415758
0000f0 0f 5e 27 bd b3 e6 2e 3b 01 14 ac 3c bd cd a1 bc
       -0.040861186 0.00266878 0.021005632 -0.019751424
000100 c9 56 29 3b 78 e1 33 bd b2 80 84 3d f8 f5 d9 bc
       0.0025839081 -0.043916196 0.06469859 -0.026606545
000110 4f d1 a8 3b 8a 5c de bb 36 9a fd bb 56 d5 c7 bb
       0.0051519047 -0.006785934 -0.0077393306 -0.0060984297
000120 24 27 50 bc 89 05 a3 bc 66 96 47 3c cd 53 49 3d
       -0.012704644 -0.0199001 0.012181854 0.049152184
000130 10 8f a3 3c 38 61 4d 3d 43 38 96 3c da 57 4f 3d
       0.019965678 0.050141543 0.018337375 0.05062089
000140 6c 75 3b 3b 1a 24 44 3c 88 7b 07 3d ea 46 84 bc
       0.0028603924 0.011971498 0.033076793 -0.016147096
000150 5b 03 20 bc c6 a0 51 3b e5 fc 3d bb 02 b0 19 bc
       -0.009766425 0.0031986698 -0.0028989848 -0.009380342
000160 13 61 96 3a 71 f2 1c 3b e9 e4 1d 3b 62 c5 3d 3d
       0.0011473022 0.0023948217 0.002409274 0.046330817
000170 13 cb 93 3c df 54 49 bd 2c a2 01 bd 1a 73 04 bd
       0.01804117 -0.049153205 -0.0316488 -0.032336332
000180 fb 88 06 3b 46 24 8b bc 7a bf 93 3c 2d f2 3f 3d
       0.0020528424 -0.01698507 0.01803564 0.046861816
000190 f7 f5 67 3c 35 db 15 3d aa 99 9f 3b 12 b1 f8 3b
       0.014157764 0.036586005 0.004870613 0.007589468
0001a0 96 3e fb bc 7f 45 29 bd 08 a3 75 3d 5a 28 84 3c
       -0.030669492 -0.041326042 0.05996993 0.016132522
0001b0 ba 59 b2 bc 90 6b 85 bb 57 62 a0 3c a5 e5 21 bd
       -0.0217713 -0.0040716603 0.019578142 -0.039525647
0001c0 da 6b 0d bd a6 6a 2b 3c 46 7c 9f 3b 06 dc 02 bd
       -0.034526683 0.010462439 0.0048671095 -0.031948112
0001d0 b8 f9 ae bb ee 15 12 bd 02 14 bf 3c 63 9a 13 3d
       -0.0053398274 -0.035665445 0.02332497 0.036035907
0001e0 d5 74 9c 3c df f3 2c bd 30 b3 dc bc 6f 68 9d bc
       0.019098679 -0.04222476 -0.026940912 -0.019214837
0001f0 ab 1c 80 bc d5 30 af 3b 2c da 73 bb 40 c1 3b 3d
       -0.01563867 0.0053463974 -0.0037208898 0.045838594
000200 55 b5 09 bc 38 8b 29 bc 01 ce b1 bc 1b 24 90 bb
       -0.008405049 -0.010348134 -0.021704676 -0.0043988354
000210 4e a1 2e bd 4e bb 3b bd e7 02 d1 3b b4 af 98 bc
       -0.0426343 -0.045832925 0.00637852 -0.01863847
000220 0e 4a a9 bb 11 99 8d bc c0 df b8 3c 60 e9 cb 3c
       -0.0051662987 -0.017284902 0.02256763 0.024891555
000230 aa 1c 09 bd 8f a6 a5 3c 19 97 5e 3a f0 f3 50 3c
       -0.0334746 0.020221023 0.0008491143 0.012753472
000240 4e 6c 80 3d 84 52 45 bd dd a1 3a 3d d9 20 cb 3c
       0.062706575 -0.048174396 0.04556452 0.024795936
000250 41 c0 0f 3d 9e 79 6d bc bb 24 5f bd a8 93 8c bc
       0.035095457 -0.014494328 -0.05447839 -0.017160252
000260 bd af 2e 3b ce 7e 24 3c 86 84 5f bc 91 f4 7f bb
       0.002665504 0.010039998 -0.013642436 -0.0039055685
000270 19 fa 2f 3d 00 4d 8d 3a 4e c9 8e bc be 4c 08 3d
       0.04296312 0.0010780394 -0.017429974 0.033276312
000280 42 1a 6a 3c 98 a7 ae 3c d0 2e 88 3d 8a 5b 1c 3d
       0.014288487 0.02132015 0.06649554 0.038173236
000290 74 e0 ea 3c 7c 4e 92 3c 66 61 38 bd fb f3 f2 bc
       0.02867148 0.01785969 -0.04501476 -0.029657355
0002a0 4b ed f8 bb 54 7f 8a 3c e3 66 13 bc 3a 0b 60 3c
       -0.007596647 0.016906418 -0.008996698 0.013674552
0002b0 4a 77 5f 3c 20 35 ee 3c e7 d2 b0 3c f9 5f dc 3b
       0.013639281 0.029078066 0.021584941 0.006725308
0002c0 c0 6a 16 bd e7 8e 36 bd 31 b2 c3 3b f5 8e f7 3c
       -0.0367229 -0.044569876 0.00597217 0.030219534
0002d0 d4 0e 2f 3d 35 9d 25 3c 04 17 8e bc 75 19 d2 bb
       0.04273875 0.010108282 -0.01734496 -0.006411726
0002e0 13 ea 0b 3c 39 37 9c 3c 02 f6 f5 3b b9 05 cc bc
       0.008539694 0.019069301 0.007506133 -0.024905073
0002f0 e9 8b 51 bd 2f 10 1b bc 7c b5 ab bb d8 b4 68 bc
       -0.05115882 -0.009464308 -0.0052401405 -0.014203273
000300 6a 5d 68 3c af 88 5b bd 59 34 bd bc 69 c1 16 3d
       0.014182428 -0.05359715 -0.02309625 0.036805544
000310 26 c4 40 3d a9 7d 6e 3d 72 75 f1 3b e6 9e 37 3d
       0.04706206 0.058225308 0.007368737 0.04482927
000320 e5 6f 53 bc ec 8f 8c bb 4e 30 04 bd fe 49 45 3c
       -0.012905096 -0.0042896178 -0.03227263 0.012041567
000330 54 ae 18 3d 7d 1b 01 3a 5e 00 05 3d 89 c4 c0 3c
       0.037275627 0.00049250555 0.032471053 0.023531215
000340 ef 22 23 3d 84 97 95 3d 9b 6f 1d 3d 3f 08 26 3b
       0.039828237 0.0730429 0.038436513 0.0025334505
000350 9c 97 b0 bc 52 e0 fe 3b 23 7d 90 bc c9 5e 88 bc
       -0.021556668 0.007778206 -0.017637795 -0.01664676
000360 ae d7 34 3d 20 05 2c 3d 66 c4 88 bc fc e2 25 bd
       0.044151 0.041997075 -0.016695213 -0.040499672
000370 20 b0 1e bc cf 25 4e bd 05 19 ee bc 2a e6 54 bc
       -0.009685546 -0.050329026 -0.029064665 -0.0129943285
000380 f9 c9 b5 bc f7 ad d9 bc 19 e1 2f 3d 7f 3c 9d bb
       -0.022191035 -0.02657221 0.04293928 -0.0047984715
000390 eb 48 a6 bc e2 d5 34 3c 17 a6 de 3c ce ef 89 bc
       -0.020298442 0.011037322 0.027178807 -0.01683798
0003a0 3c 3f c3 3c eb 8b e2 bb c4 c3 25 bd 9c 88 44 3c
       0.023833863 -0.006913652 -0.0404699 0.011995461
0003b0 a9 fb bb bb b0 98 0f 3d 59 73 12 3d b2 a3 9d bd
       -0.0057367873 0.035057724 0.035754535 -0.07697238
0003c0 a9 ea 5d 3d ac da a3 3c a2 44 dc bb f0 63 73 bc
       0.054178867 0.020001732 -0.006722049 -0.01485537
0003d0 d7 a5 75 3d b7 43 40 bc 62 9a 16 bd 91 67 aa bc
       0.05997261 -0.0117348945 -0.036768325 -0.020801337
0003e0 60 a0 2e 3d 38 3a 65 3b 18 97 43 bc 56 07 c9 3c
       0.042633414 0.0034977328 -0.011937879 0.02453963
0003f0 42 b7 b1 bc 3c c3 26 bd 25 a0 e9 bc 7f 71 be 3c
       -0.02169383 -0.040713534 -0.028518746 0.023247479

basis_comm_weights f4 [1, 5]
000000 41 27 57 3e a0 1e 20 3f 48 6c be 3e 63 59 de 3e
       0.21011068 0.6254673 0.37191987 0.43427572
000010 34 6e 04 3e
       0.12932664

bias f4 [16, 768]
000000 21 38 86 3c bf 74 86 bc ec 2a bd bc 14 e8 36 3d
       0.016384186 -0.01641309 -0.023091756 0.04465492
000010 98 8e f0 3c 31 c2 a4 bd ba 18 18 3c 04 bd af 3c
       0.029364869 -0.080448516 0.009283239 0.021452434
000020 7a 85 a2 bb 14 6b ff 3c e7 12 51 3d 63 73 3a 3d
       -0.0049597593 0.031178989 0.051043417 0.045520198
000030 17 45 99 3c e3 76 0e 3d 87 cb 9f 3c f1 ef 64 bd
       0.018709702 0.034781348 0.01950623 -0.05589289
000040 83 34 98 bd d6 0c 33 3d 48 22 16 3c 0e 0e b7 bc
       -0.07431891 0.043713413 0.009163447 -0.022345569
000050 a9 2d 86 3d 1d 12 df bc d1 2d 4a 3d cf 03 17 3c
       0.06551678 -0.027230317 0.0493601 0.009217217
000060 67 d3 31 bd 34 de 40 3d 5e ff 58 bd b5 09 48 bc
       -0.0434145 0.04708691 -0.052977912 -0.012209346
000070 4b 01 59 bd a0 3a 5c 3d f3 e4 c3 bc 0f 69 33 3c
       -0.05297975 0.053766847 -0.023912882 0.010950341
000080 34 60 90 bc 96 e9 0d 3d 2a 5a 2a bd 21 63 ba bb
       -0.017623998 0.034646593 -0.041589893 -0.0056880866
000090 54 e5 67 bd 16 33 f1 bc 10 d0 0a bb bb 4e b2 3c
       -0.05661519 -0.029443305 -0.0021181144 0.021766057
0000a0 1e ec db b9 e4 91 47 3c 7e de 22 bd 33 c3 9e 3c
       -0.00041946856 0.012180779 -0.039762966 0.019380188
0000b0 20 8b 37 3b 0e 57 3f bc d1 80 56 bc 41 47 d9 3c
       0.002800651 -0.01167847 -0.013092236 0.026523234
0000c0 ec 20 d6 bb 5e 21 d2 bb 80 b9 a5 bd b1 ab 9a bc
       -0.0065346863 -0.006412669 -0.08092022 -0.018880697
0000d0 a8 ee 85 bc ed a2 a0 bc 19 04 d2 bc 2c 41 db 3d
       -0.016349152 -0.019608939 -0.02563672 0.1070579
0000e0 2c 85 b6 3c bd 65 0f bd 64 ee 5a 3d 40 59 c4 ba
       0.022280298 -0.035009135 0.053450003 -0.0014980212
0000f0 69 57 96 bd ad ee b4 3d 2e 28 48 3d c2 3f b1 3b
       -0.07340891 0.08834586 0.048866443 0.005409212
000100 cb 4c 73 3c 2a b8 62 bc e9 2b f8 3c fe f1 c8 bd
       0.014849852 -0.013837853 0.030294375 -0.09811781
000110 f3 51 ed 3c 24 5b 3e 3d 77 14 90 bd 55 41 25 bd
       0.02896974 0.046473637 -0.07035153 -0.04034551
000120 f3 da a6 bc 54 bf 1c 3d 70 22 03 bb 7a a7 bc bb
       -0.020368075 0.038268402 -0.002000954 -0.0057572694
000130 ed e8 bc 3d b8 f3 38 bb 78 1a 66 bd f2 f0 40 bd
       0.092241146 -0.002822144 -0.056177586 -0.047104783
000140 3c 31 b5 bd fb e7 e5 3d c2 83 88 3d 11 9c 87 3c
       -0.08847281 0.112258874 0.06665756 0.01655391
000150 4a 20 4a 3c 64 57 d0 bb 5b 3e 15 bd 75 f5 82 3c
       0.0123368 -0.006358074 -0.03643642 0.015986184
000160 42 35 28 3d 25 c3 36 3d d3 1a 81 bd 7d 90 cf bc
       0.041066416 0.044619698 -0.063039444 -0.025337452
000170 ad 77 4a 3b 93 8c af 3b b0 ff ac bc 69 de 3d bb
       0.0030894086 0.005357334 -0.021118015 -0.0028971678
000180 75 56 1a 3d ad e6 9c 3c b3 fd 06 bd 0e 92 6f 3d
       0.037680108 0.019152964 -0.03295679 0.058488898
000190 7c ca c2 3c 02 62 3a 3d 0d 4a 4b 3d 30 61 07 3c
       0.023778193 0.045503624 0.049631167 0.008262917
0001a0 6b ac dd 3b ed 18 10 bc e9 e9 33 3d 3b 57 18 3d
       0.0067649386 -0.008795005 0.043924246 0.037192564
0001b0 ee 49 c0 3b ce 02 40 bd 2c 01 9b 3d b6 38 4f bd
       0.005868188 -0.046877675 0.07568583 -0.050591193
0001c0 8e 95 ab bd 1c eb c6 3d db 04 f4 bc d3 5e 62 bd
       -0.08378135 0.09712812 -0.029787472 -0.055266213
0001d0 2c 00 fb bc 1b 84 2a bb ec 55 75 bb 2a ea 4a bd
       -0.03063973 -0.0026018682 -0.0037435247 -0.049539723
0001e0 53 cb f3 bb d2 a1 b1 3b 28 41 ba 3c 5c ff a4 bd
       -0.0074400096 0.005420902 0.022736147 -0.080565184
0001f0 c0 af ce bc 2a 9a 31 bc 92 c2 b8 39 5e 8d e1 3c
       -0.025230289 -0.010839978 0.0003524018 0.02753323
000200 c8 bf 11 3b b9 f3 8d 3c 02 8a 42 3d f6 1b 3f 3d
       0.0022239555 0.01732813 0.047494896 0.046657525
000210 08 fe 61 bc fe a2 80 3b fa 91 4c bd a8 88 4f bd
       -0.013793476 0.00392568 -0.0499439 -0.050667435
000220 c8 b0 15 bb 4b 18 1b bc 52 81 17 3d 0f 2d 59 3c
       -0.0022840966 -0.009466241 0.036988564 0.013255372
000230 c4 1d d1 3b c8 dc 78 3d 47 88 ac bc db 13 5d bc
       0.006381722 0.06075743 -0.021061076 -0.013493503
000240 cc b3 55 bc f8 b6 8f 3d a4 9f a0 3d b1 14 28 3c
       -0.013043355 0.070173204 0.07842949 0.0102588395
000250 b2 12 fb bc 61 5e e2 3c 85 fd 7b bc c2 c4 de 3c
       -0.030648563 0.027632894 -0.015380268 0.02719343
000260 53 91 f7 3c 03 2f 17 3d c2 95 a5 bc dc 79 1a 3d
       0.030220663 0.03691007 -0.020213012 0.03771387
000270 90 a1 c1 3c 45 a4 9f bd 0e 19 94 bd c2 75 ec ba
       0.02363661 -0.07795004 -0.07231341 -0.0018040466
000280 21 9e cc 3c af 00 ff 3c f1 13 41 3d b1 26 4d 3d
       0.024977745 0.031128256 0.04713816 0.050085727
000290 8f 5e 8d 3d 77 8b c3 bc 8e ba c8 bc f9 33 a3 3b
       0.06902801 -0.023870213 -0.024503019 0.004980561
0002a0 9b b3 25 bc 92 df b3 3d ed 11 46 3d 50 4d ac bd
       -0.010113622 0.08782877 0.04835694 -0.08413184
0002b0 f1 58 04 3d 6f 27 02 bc eb d4 de bb 9a 80 f4 bc
       0.032311384 -0.007943972 -0.006800284 -0.029846478
0002c0 b0 85 8d 3c 62 c1 87 3c 75 fa 9b bd 11 de a6 3b
       0.017275661 0.016571704 -0.0761613 0.0050923903
0002d0 2d 14 5a 3d ea 28 13 3d 40 04 c1 3d 4f f6 7e 3d
       0.053241897 0.03592769 0.09424639 0.062246617
0002e0 53 d8 51 3d f3 e5 45 3d ed 7f 27 3d 58 bd 71 3d
       0.051231693 0.048315 0.040893484 0.059018463
0002f0 03 52 92 bc 5d f9 45 bd 77 de 0a 3d 4a 32 0e bd
       -0.017861372 -0.048333514 0.033903565 -0.034715928
000300 2d 2e f0 b8 c1 6f b9 bc 23 73 05 3d fb 78 63 bd
       -0.00011452693 -0.022636296 0.032580506 -0.055535298
000310 9d ac 3c 3d e2 0f 60 bc 3d b1 7e 3c 78 a4 34 3c
       0.046063054 -0.013675662 0.015545187 0.0110255405
000320 93 f5 af 3c 11 7b 42 3b 39 1f 37 3c d4 2f 16 bc
       0.021479404 0.0029675404 0.011176878 -0.009166677
000330 69 78 6b bd a5 f8 8e bd be f1 3a bc 16 fa ed bc
       -0.05748788 -0.06981019 -0.011410175 -0.029049914
000340 d2 db 0d 3b 46 a2 b2 3b 87 84 4b bd e8 df a4 bd
       0.0021645916 0.0054514734 -0.049686935 -0.08050519
000350 76 73 34 3c f4 14 54 bd 98 71 85 3c 70 da 16 bd
       0.011013856 -0.051777795 0.016289517 -0.036829412
000360 d4 66 8a 3c 31 f1 d3 3b 22 ca 05 bc 23 4f 2b bd
       0.016894735 0.0064679612 -0.008165868 -0.041823518
000370 e4 ce 9a bc 77 14 14 bd 57 c3 cf 3b 92 6a ec 3b
       -0.018897481 -0.03615233 0.006340425 0.0072148526
000380 ed 9a bf bc 07 ca e6 bb b4 2c 69 3c 0b 7a 10 3b
       -0.023389304 -0.0070431265 0.014231849 0.00220454
000390 56 af 89 3d d6 41 5a bd f9 9c 86 bd 5e fa 1d 3c
       0.06722896 -0.053285442 -0.06572909 0.009642212
0003a0 51 1f 0f 3b fc a1 b6 ba 1e d6 93 3d 54 17 34 bc
       0.0021838734 -0.0013933773 0.07218574 -0.01099189
0003b0 86 4a bb bb 74 ad 21 bd 51 5a fb 3c 8a fe ac 3c
       -0.005715671 -0.03947206 0.030682715 0.021117467
0003c0 98 05 11 3d 56 3f df bd b9 2e 20 3b 46 ff 5f 3d
       0.035405725 -0.10900752 0.0024441911 0.054686807
0003d0 ab d4 f0 3c 84 f2 54 bd 37 a7 50 3b 97 79 11 3d
       0.029398283 -0.051989093 0.003183795 0.035516348
0003e0 5a ae 57 bc 95 0b a2 3a ba 9a 42 bb be 6d de 3c
       -0.013164127 0.0012363071 -0.0029694275 0.027151939
0003f0 33 35 24 3d 53 27 05 3d 0a ad 39 3d 4b 6c 9e 3d
       0.040089797 0.032508206 0.04533104 0.07735499

weight f4 [768]
000000 2f 05 87 3f c2 91 73 3f ab ec 6d 3f 2e b7 55 3f
       1.0548457 0.95144284 0.9293925 0.83482635
000010 8a 2d 70 3f e2 35 7b 3f d2 c1 6e 3f 71 70 6e 3f
       0.9381949 0.98129094 0.93264496 0.9314032
000020 9e bf 71 3f 5b 42 5e 3f be e2 91 3f 28 50 88 3f
       0.9443301 0.8682 1.1397321 1.0649462
000030 3f 99 6c 3f ce a4 62 3f 75 3d 73 3f d0 d4 8a 3f
       0.92421335 0.8853272 0.9501565 1.0846195
000040 06 70 83 3f a6 61 61 3f 50 c2 75 3f 7a 04 72 3f
       1.0268562 0.88039625 0.9599962 0.9453808
000050 5a 25 8b 3f 34 7d 65 3f 12 a8 91 3f 83 91 72 3f
       1.0870774 0.8964417 1.1379416 0.94753283
000060 0f 6c 5d 3f 3f a3 54 3f 40 47 85 3f 34 0e 79 3f
       0.8649301 0.83061594 1.0412369 0.972873
000070 91 d9 88 3f e0 70 8c 3f 34 da 5d 3f 5e f3 7c 3f
       1.0691396 1.0971947 0.86661077 0.9880885
000080 86 40 87 3f 6f e9 8e 3f 3b cf 5e 3f af 0b 77 3f
       1.0566566 1.1164988 0.8703496 0.965022
000090 1f ad 86 3f 95 60 6c 3f 50 a7 6b 3f 7e e9 80 3f
       1.0521582 0.9233487 0.92052174 1.0071256
0000a0 0d 5a 82 3f 89 1a 71 3f c2 5f 63 3f 8f 43 64 3f
       1.0183731 0.94181114 0.8881799 0.89165586
0000b0 0d 4d 7f 3f 99 56 80 3f c0 be 5f 3f 66 64 79 3f
       0.99726945 1.0026428 0.87400436 0.9741882
0000c0 71 d6 6d 3f 04 21 72 3f 7c 39 51 3f 82 36 85 3f
       0.92905337 0.9458163 0.8172834 1.040726
0000d0 24 bd 6e 3f bc 34 74 3f 49 1d 81 3f 08 7e 98 3f
       0.93257356 0.95392966 1.0087062 1.1913462
0000e0 9b 58 84 3f 50 8d 79 3f 60 21 8e 3f 1a e2 73 3f
       1.033954 0.9748125 1.1103935 0.9526688
0000f0 e4 f9 90 3f 88 2b 69 3f cc f2 85 3f ab bd 79 3f
       1.132626 0.9108205 1.0464721 0.97555035
000100 58 17 70 3f 95 f4 77 3f 4d 16 85 3f 0a c2 9c 3f
       0.9378562 0.9685758 1.0397431 1.2246716
000110 84 e0 7d 3f 85 d9 87 3f 84 38 69 3f c4 75 84 3f
       0.9917071 1.0613257 0.9110186 1.0348439
000120 79 c2 76 3f b7 c7 6f 3f 75 08 7e 3f f7 35 78 3f
       0.9639049 0.93664116 0.99231654 0.96957344
000130 09 6e 93 3f 4b 53 76 3f 08 1b 78 3f a9 e3 57 3f
       1.1517955 0.96220845 0.96916246 0.84331757
000140 6b c8 59 3f ac 47 9a 3f f8 d7 8d 3f 0a 71 6d 3f
       0.8507144 1.2053123 1.1081533 0.9275061
000150 6b 9e 74 3f 7d 8b 71 3f 3b 2f 7b 3f 7e 7a 6f 3f
       0.95554227 0.9435347 0.9811894 0.93546283
000160 f9 2b 7d 3f c7 9c 6b 3f 45 79 81 3f c0 20 6f 3f
       0.9889522 0.920361 1.0115134 0.9340935
000170 05 24 85 3f c9 83 83 3f 15 0f 7e 3f 07 a1 76 3f
       1.0401617 1.0274593 0.99241763 0.9633946
000180 70 cd 65 3f 5e 9c 74 3f 06 d1 68 3f b1 c3 8d 3f
       0.897666 0.955511 0.90943944 1.1075345
000190 df 8f 6a 3f 38 34 80 3f 62 0f 5f 3f 8c dc 7a 3f
       0.9162578 1.0015936 0.8713285 0.9799278
0001a0 fc dc 78 3f 8f 22 81 3f 97 74 8c 3f 3f 77 85 3f
       0.97212195 1.0088671 1.097308 1.0427016
0001b0 81 92 80 3f 2b 4d 87 3f 59 5c 81 3f e1 df 72 3f
       1.004471 1.0570425 1.0106307 0.9487286
0001c0 55 8c 7f 3f 1c 23 92 3f 3f 02 6b 3f 66 25 82 3f
       0.99823505 1.1416965 0.918003 1.0167663
0001d0 87 c6 60 3f 5f 24 6f 3f 21 78 74 3f 1c 80 55 3f
       0.8780293 0.9341487 0.954958 0.83398604
0001e0 f0 89 79 3f 7c 8c 77 3f 65 45 64 3f ff 6f 96 3f
       0.974761 0.9669874 0.8916839 1.1752928
0001f0 b2 34 6a 3f fe d3 78 3f 89 6f 7d 3f bc e8 72 3f
       0.91486657 0.97198474 0.98998314 0.94886374
000200 e0 f3 7f 3f 42 9f 70 3f 73 b5 67 3f 73 b9 8b 3f
       0.999815 0.9399301 0.90511245 1.091597
000210 fe da 87 3f 25 17 75 3f 48 a8 83 3f d6 3c 71 3f
       1.0613706 0.9573844 1.028573 0.94233453
000220 f7 8e 7c 3f 74 1a 7f 3f 86 5a 87 3f cd 50 6f 3f
       0.9865565 0.9964974 1.05745 0.9348267
000230 46 d3 77 3f 3f 0d 89 3f 85 1c 71 3f 22 7f 72 3f
       0.9680675 1.0707167 0.9418414 0.9472524
000240 df 88 72 3f 2a 41 51 3f 8a 79 95 3f 54 93 7d 3f
       0.947401 0.8174006 1.1677716 0.9905293
000250 30 e8 67 3f 5f 18 74 3f 21 16 7f 3f fc a4 69 3f
       0.90588665 0.9534969 0.9964314 0.9126737
000260 10 c6 85 3f af a4 86 3f 5d 25 70 3f 99 a2 72 3f
       1.0451069 1.0519007 0.9380701 0.94779354
000270 fd 3b 87 3f 75 23 5d 3f ff e6 4c 3f 4d d1 6e 3f
       1.0565182 0.8638223 0.8003997 0.9328812
000280 ca 1b 74 3f 59 f8 76 3f 14 84 88 3f 25 5f 90 3f
       0.953549 0.964727 1.0665307 1.1279036
000290 98 b3 8b 3f 0d 87 80 3f 5c 68 8a 3f bd c0 66 3f
       1.0914183 1.0041214 1.0813098 0.90137845
0002a0 ea 0c 7f 3f b1 c9 8e 3f d1 21 5f 3f 46 5a 68 3f
       0.9962908 1.1155301 0.87160975 0.90762746
0002b0 70 52 80 3f 00 cd 81 3f e6 89 7f 3f c2 27 82 3f
       1.0025158 1.0140686 0.9981979 1.0168383
0002c0 60 2c 7b 3f 10 62 70 3f ce ff 83 3f 63 0a 81 3f
       0.98114586 0.9389963 1.031244 1.0081295
0002d0 61 dd 81 3f dc f6 8e 3f 15 04 5f 3f 99 23 6d 3f
       1.0145684 1.1169086 0.87115604 0.9263244
0002e0 d0 2d 60 3f 2a aa 64 3f e8 3d 73 3f 71 63 66 3f
       0.87569904 0.8932215 0.95016336 0.89995486
0002f0 e5 a0 83 3f a1 74 84 3f 9e 5f 6d 3f 26 99 7d 3f
       1.0283476 1.0348092 0.92724025 0.9906181
000300 90 a3 73 3f 27 29 7a 3f 13 03 70 3f 55 bf 59 3f
       0.9517145 0.97719043 0.9375469 0.85057575
000310 11 1a 90 3f 9c a9 76 3f 4e d8 87 3f 41 6b 78 3f
       1.1257955 0.96352553 1.0612886 0.97038656
000320 3e 72 7b 3f e2 bd 7e 3f b1 fa 73 3f b4 92 7b 3f
       0.98221195 0.9950849 0.953044 0.98270726
000330 0e 60 60 3f 05 19 5e 3f 20 54 77 3f d1 31 69 3f
       0.8764657 0.86756927 0.9661274 0.9109164
000340 55 ef 83 3f 36 a1 80 3f 16 80 68 3f b8 0e 58 3f
       1.0307413 1.0049198 0.90820444 0.8439746
000350 98 eb 82 3f 59 28 69 3f 5a 6b 6d 3f bc 39 8b 3f
       1.0228148 0.9107719 0.9274193 1.0876994
000360 ba cf 7e 3f 8a 21 84 3f 2e 37 72 3f e9 45 82 3f
       0.99535716 1.0322735 0.9461545 1.0177585
000370 a1 a3 78 3f 55 7b 8a 3f 1b 27 65 3f cd 18 79 3f
       0.9712468 1.0818888 0.89512795 0.9730347
000380 af 5f 74 3f b2 73 77 3f 0b 54 81 3f 8c 42 74 3f
       0.954585 0.9666091 1.0103773 0.9541404
000390 89 59 5c 3f 18 ff 5b 3f 3f bd 58 3f 0c b7 80 3f
       0.8607412 0.8593612 0.84663767 1.0055861
0003a0 d7 28 81 3f 4a ce 6e 3f 28 df 7f 3f 43 56 75 3f
       1.0090588 0.9328352 0.99949884 0.9583475
0003b0 5a 9b 80 3f af 9d 7b 3f 71 df 7f 3f 53 62 67 3f
       1.004741 0.9828748 0.9995032 0.90384406
0003c0 e3 be 80 3f 92 5d 41 3f 10 73 76 3f a6 93 7e 3f
       1.0058254 0.755334 0.9626932 0.99444044
0003d0 6b 90 83 3f 09 76 8a 3f 01 07 71 3f a4 7b 81 3f
       1.0278448 1.0817271 0.9415131 1.0115857
0003e0 a1 4e 81 3f e4 1f 55 3f e1 f4 7e 3f 16 37 85 3f
       1.0102121 0.83251786 0.99592406 1.0407436
0003f0 e1 33 75 3f fe ea 5c 3f 45 04 60 3f da 34 97 3f
       0.95782286 0.8629607 0.87506515 1.1813004

bias f4 [768]
000000 1c db 80 3d 01 89 4a bd 6b c4 54 bd 76 41 03 3e
       0.06291792 -0.049447063 -0.05194513 0.1281794
000010 07 28 c9 3c 3b af 52 be 20 fa 59 3c a1 b3 f2 3c
       0.02455522 -0.20574658 0.013304263 0.02962667
000020 85 ed d4 3b a4 d7 c6 3d c1 02 01 3e 64 99 da 3d
       0.006498041 0.09709099 0.12598707 0.10673788
000030 4c 62 99 3c 59 40 43 3d e4 12 e5 3c 1b 51 ea bd
       0.01872363 0.04766879 0.02796311 -0.11441251
000040 70 cc 1d be 41 e0 b5 3d 24 c5 0a 3d 56 17 58 bd
       -0.15410018 0.08880664 0.033879414 -0.05275663
000050 a6 2d 39 3e 07 5d 97 bd aa a0 06 3e c3 6c e8 3c
       0.1808382 -0.073907904 0.13147226 0.028372174
000060 ae 4a 98 bd d8 0d c9 3d 93 e8 e7 bd 40 1d f7 bc
       -0.07436119 0.098170936 -0.11323657 -0.030165315
000070 23 78 a4 bd 5f ff 1b 3e ff f7 ac bd 92 5a 9f 3c
       -0.08030727 0.15234135 -0.08445739 0.019452367
000080 8b 3a 6c bd 64 83 01 3e f9 64 84 bd a6 9f 8a 3b
       -0.05767302 0.12647778 -0.064645715 0.0042304574
000090 ff c6 f4 bd 6a 64 ac bd 20 38 91 bc fd 38 4a 3d
       -0.11952018 -0.0841759 -0.017726958 0.049370755
0000a0 f4 ff 8a 3c c5 1d b1 3c 65 af 97 bd f1 0c ad 3d
       0.016967751 0.02162064 -0.07406501 0.08449734
0000b0 62 0e cf 3b 80 84 86 bc 45 8b 35 3b 4f f2 87 3c
       0.0063188532 -0.016420603 0.002770142 0.016595034
0000c0 e5 1b 97 3c ee 8f 82 b9 4d 0a 1c be 9b 4a 66 bd
       0.018445918 -0.00024902768 -0.15238304 -0.056223493
0000d0 8c af b5 bb f7 10 d8 bc 71 c3 b5 bc ea 84 78 3e
       -0.0055446085 -0.026375277 -0.02218792 0.24269453
0000e0 9a 9a e0 3c 5a 6f 12 bd 3a a5 ee 3d 28 1a 87 bc
       0.02741747 -0.035750724 0.11652608 -0.016491964
0000f0 0e cb 1f be 9d 32 0f 3e 24 52 ac 3d 76 86 aa 3b
       -0.15604803 0.13984151 0.084141046 0.0052040173
000100 04 49 b8 3c a3 f4 1f bd e4 09 67 3d ab a4 6a be
       0.022495754 -0.039051663 0.056405917 -0.22914378
000110 3f b4 be 3d 93 91 a5 3d eb df 00 be 50 f7 e4 bd
       0.09311723 0.08084407 -0.12585418 -0.111799836
000120 03 5c 49 bd 36 94 20 3d 70 0e d8 ba be dc 0f bd
       -0.049160015 0.039203845 -0.0016483795 -0.035122626
000130 49 a9 4f 3e 37 6c 2d bc 0c 3f 11 be c2 ae 2f be
       0.20279421 -0.010584882 -0.14184207 -0.17156509
000140 63 c4 0e be a6 c6 6e 3e a6 d2 09 3e 2c dc 08 3d
       -0.13942103 0.23317966 0.13459262 0.033413097
000150 38 51 a3 3d 5a 71 07 bd 3b 8a 89 bd de 21 d3 3c
       0.079744756 -0.033067085 -0.067158185 0.025772985
000160 9f 10 de 3d 72 d0 02 3e 21 e0 ec bd cf 84 5a bd
       0.10843014 0.12774828 -0.11566187 -0.053349312
000170 a9 0e 5d 3c 7b 17 03 bd 72 c3 8b bd 17 16 b6 bc
       0.013492265 -0.032004815 -0.068243876 -0.02222733
000180 8d 03 9f 3d 18 83 28 3d 4d d3 86 bd e3 39 04 3e
       0.07764349 0.041140646 -0.06583271 0.12912707
000190 d1 88 12 3d 84 15 8c 3d 0e 73 f2 3d de 4f 13 3c
       0.03577501 0.06840041 0.11838351 0.00899121
0001a0 5c f1 89 3c 56 23 fd bc c7 d8 be 3d 19 96 87 3d
       0.016838722 -0.030900639 0.09318691 0.06620426
0001b0 94 c0 a9 3c cf 92 9c bd 77 f4 0a 3e 94 9b b8 bd
       0.020721711 -0.07645189 0.13569818 -0.09014049
0001c0 fe 56 2d be f1 58 68 3e 5b ab 33 bd cc df ef bd
       -0.16927716 0.22690178 -0.04386459 -0.11712608
0001d0 3e 9a 5c bd 01 6b 31 3d 9e 50 f3 bc 27 3c 00 be
       -0.053858034 0.043314938 -0.029701527 -0.12522946
0001e0 1a 14 3c bc 93 34 8b 3c 2f 73 74 3d 4a 98 5a be
       -0.011479402 0.016992843 0.05968016 -0.21347156
0001f0 cc ef 5b bd 95 3d f6 bc 2b 6e c5 3b 20 11 62 3d
       -0.053695485 -0.030058661 0.006025096 0.055192113
000200 e0 5f 37 bd a6 b4 10 3d 38 9a b8 3d a2 c8 00 3e
       -0.044769168 0.03532853 0.0901379 0.12576535
000210 42 ce 89 bd 8d af 7a 3c c8 17 a6 bd 8d 20 ac bd
       -0.06728794 0.015300644 -0.08110005 -0.08404646
000220 1c ec 4b 3b f1 5e 98 bc 2c 7e 4d 3d 7a a8 c0 3c
       0.0031116074 -0.01859996 0.050169155 0.023517836
000230 4e d5 ca 3c e5 39 f5 3d 9c ad 98 3c 57 b9 51 bc
       0.024759915 0.11973933 0.01863747 -0.012800536
000240 c7 b4 8d bc 39 54 d9 3d 4f c4 2b 3e 3e 2e 7b 3d
       -0.017298115 0.10611767 0.16774105 0.061323397
000250 32 3f 8a bc c9 fc 92 3d 44 63 87 bc 4a 24 6e 3d
       -0.016875837 0.07177121 -0.016526826 0.058140077
000260 ce 1e 13 3d 9a 67 bc 3d c5 46 3c bd 66 50 bd 3d
       0.03591805 0.09199448 -0.04596593 0.092438504
000270 db b4 a2 3d ce 51 2a be 9a ad 3d be 40 2c 32 3d
       0.07944652 -0.16632769 -0.18523255 0.04349923
000280 69 25 3b 3d e1 f5 a6 3d 04 45 9d 3d 5c 37 f5 3d
       0.045689974 0.081523664 0.07679179 0.119734496
000290 bf de eb 3d 14 f5 89 bd ff 27 af bd 67 59 5c 3c
       0.11517095 -0.06736198 -0.085525505 0.01344905
0002a0 3d be d2 bc 34 d3 1e 3e de ef 00 3e 64 0f 12 be
       -0.025725478 0.15510255 0.12591502 -0.14263684
0002b0 3d e0 55 3d ae 15 d8 3c a5 b0 25 3b 65 91 9b bd
       0.052215803 0.026377525 0.002528229 -0.07596091
0002c0 f4 b0 99 3c c1 7b 29 3d 2f 4b 51 be 14 21 41 3c
       0.018761136 0.041377787 -0.20438837 0.011787672
0002d0 18 29 c5 3d 82 b8 d6 3d 16 3d 3d 3e ee 7e f4 3d
       0.09626979 0.10484411 0.18480334 0.119382724
0002e0 f1 13 c9 3d 64 95 d6 3d fc d1 bb 3d 30 dd 00 3e
       0.09818257 0.10477713 0.09170911 0.12584376
0002f0 ff 0c 8d bd fe bb e9 bd ca 22 98 3d dc 13 bc bd
       -0.068872444 -0.1141281 0.074285105 -0.091834754
000300 a2 7f 1e 3b ba b4 ea bc 5b 73 78 3d 25 56 05 be
       0.0024184962 -0.02865063 0.060656887 -0.13021143
000310 42 ac eb 3d ea 01 0a bd b7 df 71 3d 77 c4 93 3c
       0.11507465 -0.03369323 0.05905124 0.018038018
000320 ad ec 1d 3d 5d c0 a4 bb fb c0 e2 3c 35 3e 2d 3c
       0.03855579 -0.0050278143 0.02767991 0.010573913
000330 b6 ab cf bd 52 4e 03 be 65 9d bb bc 79 77 ac bd
       -0.10140173 -0.12822846 -0.0229022 -0.08421225
000340 15 f2 15 3c 5d ee 0b 3d cd 4e b2 bd 72 81 20 be
       0.009151955 0.034162868 -0.08706436 -0.1567438
000350 b2 ee 5d 3d 90 b7 ec bd 36 f1 57 3d 99 74 b9 bd
       0.054182716 -0.11558449 0.05272027 -0.09055442
000360 93 38 0a 3d 63 d1 2c 3d b5 c8 f0 3a 83 5a 13 be
       0.03374536 0.042191874 0.0018370362 -0.14389996
000370 07 36 98 bc da 0f bc bd be 6e da 3c 7d 15 53 3b
       -0.01858045 -0.09182711 0.026664134 0.0032208853
000380 d4 fe 82 bd f8 cc 0b 3c f7 2b ba 3c 79 be b4 3c
       -0.06396261 0.008532755 0.022726042 0.02206348
000390 40 9b 06 3e ec 5f fe bd 30 15 07 be 42 65 00 3b
       0.1314516 -0.124206394 -0.13191676 0.0019591604
0003a0 53 b1 c9 3c a8 42 1a 3d 98 21 24 3e d0 0d 04 bd
       0.024620688 0.037661225 0.1602844 -0.032239735
0003b0 6d 40 4b bc 37 88 b1 bd e0 20 9b 3d c1 74 97 3d
       -0.012405497 -0.08668559 0.0757463 0.07395316
0003c0 b6 6f 93 3d c3 97 70 be ec e6 77 3c 4d 1f e0 3d
       0.071990415 -0.23495393 0.01513074 0.1094347
0003d0 47 72 67 3d 9d 80 07 be 75 c7 c6 bc e3 71 82 3d
       0.056505468 -0.13232656 -0.02426503 0.063693784
0003e0 3d 7a 8b 3c 06 21 1d 3d 7c ed f7 39 16 9f 7e 3d
       0.017026061 0.03836157 0.0004728845 0.062163435
0003f0 fb 56 a4 3d a7 4c e2 3d 24 44 cb 3d 08 ac 67 3e
       0.08024403 0.110497765 0.09925106 0.22624218

weight f4 [768]
000000 e6 d4 68 3f 3d 15 7a 3f 20 48 83 3f 9a 75 79 3f
       0.9094986 0.9768866 1.0256386 0.9744507
000010 3f b2 6d 3f e6 70 80 3f 32 7d 8e 3f 66 2d 84 3f
       0.92850107 1.0034454 1.1131957 1.0326355
000020 c3 eb 68 3f 3e 34 84 3f 31 5c 8c 3f e6 cb 89 3f
       0.90984744 1.0328443 1.0965635 1.076535
000030 70 29 67 3f 87 6a 85 3f d1 dc a0 3f f4 42 7e 3f
       0.90297604 1.0423135 1.2567388 0.9932091
000040 f1 a4 64 3f de 45 85 3f 64 70 80 3f 61 67 63 3f
       0.8931418 1.0411947 1.0034299 0.8882962
000050 0c fd 80 3f af 61 74 3f 72 d1 74 3f 88 99 74 3f
       1.0077224 0.95461553 0.9563209 0.9554677
000060 bb ea 8b 3f 07 16 7b 3f b0 28 62 3f 70 6c 6e 3f
       1.0931009 0.98080486 0.88343334 0.9313421
000070 3a e6 6c 3f 2c a8 6f 3f 8d ee 6e 3f 54 67 6f 3f
       0.925388 0.93615985 0.9333275 0.9351704
000080 ca 63 76 3f 4d 75 61 3f 79 75 79 3f 0e 1e 7e 3f
       0.96246016 0.8806961 0.97444874 0.9926461
000090 d2 3d 76 3f 99 c4 85 3f f1 39 51 3f a1 d3 84 3f
       0.9618808 1.0450622 0.81729037 1.0377084
0000a0 c6 a3 79 3f 8e b0 64 3f 59 bd 75 3f 10 79 73 3f
       0.97515523 0.893319 0.95992047 0.951066
0000b0 20 11 6e 3f 8e 70 74 3f 1c 53 73 3f bf 71 84 3f
       0.9299488 0.95484245 0.9504869 1.0347213
0000c0 25 00 80 3f 00 b3 73 3f 1a 86 7b 3f 9d 32 80 3f
       1.0000044 0.9519501 0.982515 1.0015446
0000d0 0b 0b 8c 3f c3 21 84 3f 1e 6e 85 3f d7 f1 81 3f
       1.094087 1.0322803 1.042423 1.0151929
0000e0 a3 4c 85 3f ba cf 80 3f af c5 74 3f 99 df 78 3f
       1.0414013 1.0063393 0.9561414 0.9721618
0000f0 20 79 84 3f 82 72 71 3f f6 fc 84 3f 20 8d 8d 3f
       1.0349464 0.9431535 1.0389698 1.1058693
000100 86 67 82 3f d2 dd 6c 3f 40 2f 76 3f 15 65 7f 3f
       1.0187843 0.9252597 0.9616585 0.99763614
000110 db 65 7a 3f 3e 82 88 3f 2c 26 68 3f 90 6f 79 3f
       0.9781167 1.0664747 0.90683246 0.97435856
000120 18 46 8e 3f c2 1a 80 3f f5 f0 74 3f 35 3c 7b 3f
       1.1115141 1.0008166 0.9568017 0.98138744
000130 77 c8 8b 3f 76 f6 80 3f 9b 21 82 3f f1 05 62 3f
       1.0920552 1.0075214 1.0166506 0.88290316
000140 b6 a8 86 3f a2 ef 79 3f 98 d6 88 3f 90 c0 49 3f
       1.0520236 0.97631276 1.0690489 0.7880945
000150 54 72 6e 3f 95 ff 64 3f a6 7f 8b 3f a6 cd 77 3f
       0.931432 0.8945249 1.089833 0.9679817
000160 ce 74 70 3f da 9c 82 3f b9 c9 88 3f 73 5f 72 3f
       0.9392823 1.0204117 1.0686561 0.94676894
000170 c0 da 7a 3f 94 8d 87 3f 66 80 81 3f 77 ad 85 3f
       0.97990036 1.0590081 1.0117309 1.0443562
000180 0e 93 7c 3f b7 64 81 3f 3f 18 82 3f c2 c0 87 3f
       0.9866189 1.0108861 1.0163649 1.06057
000190 5d f5 8a 3f b0 8a 90 3f b3 9a 75 3f c4 73 7d 3f
       1.0856129 1.1292324 0.9593918 0.9900477
0001a0 db 69 74 3f a0 1a 98 3f ac 4e 75 3f ca 11 82 3f
       0.9547402 1.1883125 0.9582317 1.0161679
0001b0 64 51 81 3f 24 4d 7a 3f 29 81 6e 3f 55 64 8e 3f
       1.0102963 0.9777396 0.9316583 1.1124369
0001c0 fa 13 85 3f 51 11 87 3f 0a 61 79 3f 53 b1 72 3f
       1.0396721 1.055216 0.97413695 0.94801825
0001d0 e9 c2 6e 3f 42 7f 7d 3f d5 22 57 3f 06 54 71 3f
       0.9326616 0.99022305 0.84037524 0.94268835
0001e0 72 7b 83 3f bd 47 7e 3f cf 13 82 3f 73 21 75 3f
       1.0272048 0.99328214 1.0162295 0.95754164
0001f0 ba 01 84 3f c0 05 8b 3f e4 44 7e 3f 47 c5 87 3f
       1.0313027 1.086113 0.9932387 1.0607079
000200 43 fa 95 3f fd de 6c 3f b0 1e 5a 3f 97 6c 94 3f
       1.1716999 0.92527753 0.85203075 1.1595639
000210 4c 50 77 3f ac ef 9b 3f 9e cf 62 3f c4 eb 83 3f
       0.966069 1.2182517 0.8859805 1.0306325
000220 d6 b1 6b 3f c2 ef 7f 3f 9e ea 79 3f d7 f3 7f 3f
       0.9206823 0.99975216 0.9762362 0.99981445
000230 94 c3 8b 3f f3 86 70 3f e4 02 77 3f 88 e2 85 3f
       1.0919061 0.93955916 0.96488786 1.0459757
000240 ec 2e 84 3f 30 f5 88 3f 30 96 8d 3f 6b 09 83 3f
       1.032682 1.0699825 1.1061459 1.0237249
000250 ed db 66 3f 8e b9 7f 3f 97 46 89 3f 69 59 85 3f
       0.9017933 0.9989251 1.0724667 1.0417911
000260 49 9f 80 3f 4f d5 79 3f cc 5f 6b 3f d2 39 77 3f
       1.004861 0.9759111 0.9194305 0.965726
000270 c3 77 87 3f fe 53 66 3f 42 23 60 3f 36 a3 70 3f
       1.0583423 0.8997191 0.875538 0.9399904
000280 1e fe 58 3f 34 bc 72 3f a0 86 80 3f 18 d0 67 3f
       0.8476275 0.94818425 1.0041084 0.905519
000290 10 5a 8d 3f 91 d5 88 3f 9d 53 8b 3f 3d 95 6a 3f
       1.104311 1.0690175 1.0884892 0.9163397
0002a0 64 6a 63 3f f6 7e 8a 3f 02 f4 83 3f e3 7b 88 3f
       0.88834214 1.0819995 1.030884 1.0662807
0002b0 34 88 7d 3f 95 56 98 3f 6c 75 8a 3f ca 7e 7b 3f
       0.99035954 1.1901423 1.0817084 0.9824034
0002c0 5a 48 85 3f 15 99 4e 3f 52 2e 80 3f 84 96 8a 3f
       1.0412705 0.80702335 1.0014136 1.0827184
0002d0 cb 99 96 3f e8 b1 84 3f d7 e1 6e 3f 6e 0c 67 3f
       1.1765684 1.0366793 0.93313354 0.9025334
0002e0 48 fa 77 3f 26 1f 80 3f 4d f1 65 3f 19 c2 75 3f
       0.96866274 1.0009506 0.8982132 0.95999295
0002f0 dc 31 7f 3f a9 8b 7e 3f 97 89 68 3f 6c 03 81 3f
       0.99685454 0.99431854 0.90834945 1.0079169
000300 76 82 8a 3f 83 57 6b 3f 92 86 60 3f 9e 02 63 3f
       1.0821064 0.9193041 0.8770534 0.8867587
000310 8f 81 6a 3f 0f c1 80 3f 49 8d 78 3f f0 4d 76 3f
       0.9160394 1.0058917 0.97090584 0.96212673
000320 f1 05 6d 3f d6 8d 50 3f 0a 4a 73 3f 5a 4e 7b 3f
       0.9258719 0.81466424 0.9503485 0.9816643
000330 e1 e1 71 3f ea 23 6a 3f 9a ac 51 3f f0 45 80 3f
       0.9448529 0.9146105 0.81903994 1.0021343
000340 a9 61 78 3f 6e 53 7e 3f 05 58 86 3f 7f 39 87 3f
       0.9702402 0.99346054 1.0495611 1.0564421
000350 39 6d 85 3f 83 d8 76 3f 20 99 5a 3f 41 1b 71 3f
       1.0423957 0.9642412 0.853899 0.9418221
000360 1c 7f 6f 3f 7d 36 8e 3f d9 c4 85 3f 75 9c 5b 3f
       0.9355333 1.1110379 1.0450698 0.8578561
000370 a1 46 7a 3f c7 26 81 3f 23 96 79 3f 9b 09 7f 3f
       0.9776402 1.0089959 0.97494715 0.9962403
000380 5f b6 49 3f 4f db 84 3f f9 1c 91 3f a8 09 96 3f
       0.787939 1.0379428 1.1336967 1.1721697
000390 4d 44 62 3f b9 84 7b 3f 3e fd 83 3f 02 08 97 3f
       0.8838547 0.98249394 1.0311658 1.1799319
0003a0 e0 9e 72 3f 27 2c 84 3f 44 59 7a 3f 2a c3 68 3f
       0.94773674 1.0325974 0.9779246 0.90922797
0003b0 d0 ed 4e 3f a4 48 80 3f f4 74 81 3f e9 0d 54 3f
       0.80831623 1.0022168 1.0113816 0.82833725
0003c0 c4 c1 82 3f 81 b3 77 3f 31 5c 5a 3f de 5a 85 3f
       1.0215383 0.96758276 0.8529692 1.0418355
0003d0 66 50 80 3f a4 87 81 3f d3 d7 7f 3f f9 4b 72 3f
       1.0024536 1.0119519 0.99938697 0.94647175
0003e0 0f 09 6b 3f 82 e9 70 3f 2f b0 81 3f 7e ed 74 3f
       0.918107 0.94106305 1.0131892 0.95674884
0003f0 05 16 85 3f f5 f6 61 3f 5a 80 7f 3f 18 e3 85 3f
       1.0397345 0.8826745 0.99805224 1.0459929
