ablations/static-layerwise/lilbub2023-05-29T13-01-00_lilbub-static-layerwise/embeddings_gs-4500.pt (torch, 945964 bytes, 172 tensors)

pre_vecs f4 [2, 768]
000000 df 70 95 ba f8 02 03 bd c3 f0 77 3c 8f 0b 3d 3c
       -0.0011401436 -0.031985253 0.015133086 0.0115384
000010 df bb 01 3d 8e 93 af bc 85 99 1c bd 06 63 a7 3b
       0.03167331 -0.021432664 -0.038232345 0.00510824
000020 b6 cd e5 ba eb 74 2a 3d d8 06 70 3d 91 a4 32 3d
       -0.001753262 0.041615408 0.058600277 0.043613974
000030 e0 31 8b bc 96 75 8c 3b 07 9d 41 3c 07 f3 17 3d
       -0.016991556 0.0042864783 0.011817223 0.037097003
000040 67 f5 c9 bc c4 9d ba bb ae ee b0 3b 3a df 73 3c
       -0.02465315 -0.0056950767 0.0053995466 0.014884764
000050 80 e5 06 bd 53 31 bf 3c 10 ab 61 3c 15 24 df bc
       -0.032933712 0.02333895 0.013773695 -0.027238885
000060 88 96 02 3d 1f 24 2b 3b a5 2e 6c bc 28 d4 54 3c
       0.03188184 0.002611406 -0.014415418 0.012990035
000070 a8 98 b2 bd 79 36 1c bb 8a f9 ba bc b4 4b ca 3b
       -0.08720523 -0.002383618 -0.022824068 0.0061735753
000080 7d dc 6e bc d1 67 86 3d 2c 41 e3 3b 89 fb a6 3d
       -0.014578936 0.0656277 0.0069352593 0.08153445
000090 1a 0c 26 bd 48 56 d6 ba fa 7c 65 bd 82 1e 24 3c
       -0.040538885 -0.0016352618 -0.05602739 0.010017039
0000a0 ba c4 31 3c 5b 49 79 bb d5 77 6a 3d d9 53 6d ba
       0.010850126 -0.0038038108 0.057243187 -0.0009053327
0000b0 db 04 d6 3c 2e 4c e1 bc 9f 33 05 3b 8f b0 03 bd
       0.026125362 -0.027502146 0.0020324958 -0.0321508
0000c0 56 75 92 bb ed e1 d7 bb bb 94 f8 bc f0 03 13 bc
       -0.004469554 -0.0065882117 -0.030344358 -0.008973107
0000d0 fa 7b 0a 3d 7c 51 6a 3c 1e b8 e1 bc f4 26 98 3c
       0.03380964 0.014301654 -0.027553614 0.018573262
0000e0 91 ce a4 3c 82 a9 28 bb 47 a1 a1 3b 80 a6 f8 3c
       0.02011803 -0.00257358 0.004932556 0.03035283
0000f0 c8 eb ca bc 52 4c 84 3b 71 e3 57 bc 21 65 d3 bc
       -0.024770632 0.0040374184 -0.013176785 -0.025805058
000100 79 f8 2a 3d c8 17 0a 3d d1 6f 35 39 1a d9 b6 3b
       0.04174087 0.033714086 0.0001730316 0.0055800797
000110 5d 88 ac bb ab a1 a0 3c 74 e2 f1 bb 8b aa c8 3c
       -0.005265279 0.01960834 -0.0073817316 0.024495384
000120 b4 13 c4 bc 5b 8e dc bc 21 a8 cf 3b a4 77 54 3c
       -0.023935176 -0.02692335 0.006337181 0.012967978
000130 46 7e e0 3b 1a a2 ac bc ca b7 0e bc 9d 34 57 3d
       0.0068509905 -0.02107339 -0.008710811 0.05254041
000140 78 4b fc 3a 45 38 17 3c 5e 9a 34 3c a5 16 3b bd
       0.0019248566 0.009229724 0.011023132 -0.045675892
000150 49 c6 18 bc 50 2f da bb 4b 82 0c 3d 11 68 8c 3b
       -0.009324619 -0.006658472 0.034303945 0.0042848666
000160 94 2f 87 3c b7 c6 45 bc 67 e4 4d bd eb 63 e1 3b
       0.01650218 -0.012071303 -0.05026665 0.006878366
000170 f9 89 ba 3c 65 5e cd 3c 24 87 1d bc 4e 25 8a 3c
       0.022770869 0.025069425 -0.00961474 0.016863491
000180 69 84 62 3c 60 d1 03 bb 0b 99 14 3c 00 0e 34 3d
       0.013825514 -0.002011381 0.009069691 0.043958664
000190 fa 3e 8d 3c de 2f 02 bc 2f 3a 2d 3c 75 4f f7 3c
       0.017241944 -0.007945983 0.010572954 0.030189255
0001a0 a1 df 2b bc e6 e8 91 3c 68 68 99 3c 14 48 83 ba
       -0.010490329 0.01781125 0.018726543 -0.0010015988
0001b0 4f e1 78 bc 5d fd a3 3c 9c 40 ba 3b b6 84 aa bb
       -0.0151904365 0.020018274 0.0056839716 -0.0052038087
0001c0 28 32 b6 bc 06 21 99 3b c8 46 72 bc d4 5d d6 bc
       -0.022240713 0.004673126 -0.014787383 -0.026167788
0001d0 ec d5 17 bc a0 f1 98 b9 d9 e1 f1 3b 74 49 ea bb
       -0.009267312 -0.00029171724 0.0073816595 -0.0071498696
0001e0 ea 3a be bb d8 a0 8a 3c c0 90 0a bc 02 f5 bb 3c
       -0.005805363 0.0169224 -0.008457363 0.022943977
0001f0 d0 28 f9 bb c0 da b6 3c 63 98 9a bc cd 77 27 ba
       -0.007603742 0.022321105 -0.018871492 -0.0006388396
000200 57 3f f5 bc 6f a2 d9 3b 78 e6 66 bc 28 b5 0e bc
       -0.02993743 0.006641678 -0.014093034 -0.008710183
000210 68 2d b8 3b f8 9a 89 bc a7 b9 9e bc fa e6 a2 bc
       0.005620647 -0.016797528 -0.019375635 -0.019885529
000220 8f 2f 10 bb 4c 2d f6 bb 0d 35 c2 3b 54 07 da 3c
       -0.0022001003 -0.007512724 0.0059267343 0.026614822
000230 58 a9 6e bd 5c 23 c9 3c 4d 28 29 bb 67 2e 01 bd
       -0.058266968 0.024552993 -0.0025811375 -0.031538393
000240 e8 c3 d7 3c 43 cf c6 bb cf a1 d0 bb 6d 35 7f bc
       0.026338533 -0.006067188 -0.0063669453 -0.015576703
000250 51 a2 b8 3c d1 d7 5c 39 9f 5c 50 bc 5e 38 8b bb
       0.022538336 0.00021061233 -0.012717395 -0.004248663
000260 0f 42 ff bb 85 79 8c 3c eb 29 8b 3c 70 c2 ec 3a
       -0.007789857 0.017147789 0.016987761 0.0018063318
000270 a9 c0 4b 3d 4d a3 24 bc 45 d0 16 3c 8d b6 aa bc
       0.049744282 -0.0100487 0.009204929 -0.020839
000280 a7 8c 43 bc d6 af 50 3d 37 74 86 ba 7c 16 19 3b
       -0.01193539 0.05094894 -0.0010258023 0.002335935
000290 2d 19 71 3c 49 7b 27 3c 2c c0 1d 3c 80 bb 3c bc
       0.014715475 0.010222265 0.009628337 -0.011519313
0002a0 c9 f5 82 3b 86 f1 e3 3c 37 1d 7c 3c c4 31 18 3d
       0.003996585 0.027825128 0.015387825 0.037156835
0002b0 32 bd 23 3c 5a 00 53 3c ef 56 88 bc 9a 57 2f 3d
       0.009993838 0.012878502 -0.016643016 0.042808153
0002c0 32 07 a1 ba 49 48 b1 bc 4c aa 57 ba 7f 79 da 3c
       -0.001228547 -0.021640914 -0.00082269753 0.026669262
0002d0 d3 18 7f bc 7b 01 74 3b 89 eb 20 3c d7 a3 d7 bb
       -0.015569883 0.0037232328 0.009821781 -0.0065808105
0002e0 71 6b 89 3d 94 c8 0e bd 77 8f 27 bd 65 e6 dc bb
       0.06709946 -0.034859255 -0.040908303 -0.0067413324
0002f0 d8 ec 76 bc 08 2e 8b 3c 8d 7b 9c 3c be 03 05 3d
       -0.015071116 0.016989723 0.019101882 0.032474272
000300 21 96 a4 3c 3d e2 32 bd 02 5c a6 bc 1e 46 38 3d
       0.020091118 -0.04367279 -0.020307545 0.044988744
000310 2c 51 e3 3c ef c6 31 3d ff 67 68 3c 61 5d 78 bc
       0.027748667 0.04340261 0.014184951 -0.015158982
000320 48 36 f1 39 8a ab 59 3b c6 39 a2 bc 3a 85 ae bb
       0.00046007545 0.0033213818 -0.01980294 -0.0053259404
000330 96 80 02 3d 5b 61 38 bc b2 fa 87 3b 78 b3 b6 3c
       0.03186091 -0.01125368 0.0041497583 0.022302374
000340 e2 ee a4 3c 4e dd 07 3d 0b 47 9a 3d c0 d2 45 bc
       0.02013344 0.033170037 0.075330816 -0.0120741725
000350 51 03 4f 3c e4 81 62 3c 74 63 c2 bc 47 69 d5 bc
       0.012635068 0.013824914 -0.023729064 -0.026051177
000360 c8 c7 ba 3c 70 50 30 3d 7a 28 0a 3d 15 84 35 bc
       0.022800341 0.04304546 0.033730008 -0.011078854
000370 38 58 67 bc 1d 63 0a bd 56 d1 61 bc 67 7b d6 3c
       -0.014120154 -0.033785928 -0.01378282 0.02618189
000380 70 6b 94 3c 41 3b d3 3c ad 04 71 bc 33 36 01 bd
       0.018117636 0.02578509 -0.014710587 -0.03154583
000390 00 15 44 3c a0 25 9f bb 8c 3d a6 3c 58 ed c7 3b
       0.011967897 -0.00485678 0.02029302 0.0061012916
0003a0 e6 26 49 3c dc 61 b1 bc 32 23 06 3d 09 bc 06 bc
       0.0122773405 -0.021653108 0.03274841 -0.008223542
0003b0 68 ce 4a bc 8d 39 8b bc 3f 8a 15 3d d8 73 f6 bc
       -0.012378313 -0.016995216 0.036508795 -0.030084535
0003c0 b0 50 8d 3c bc 33 e3 3c 51 14 f9 bc a0 9c f5 3c
       0.017250389 0.02773463 -0.030405195 0.029981911
0003d0 1f 51 f9 3c da a3 c3 3c 82 c2 9b 3c 11 2c 38 bd
       0.03043419 0.023881841 0.019013647 -0.0449639
0003e0 1f 34 6a bc 5f dd 87 3c 20 d4 87 bc 64 eb 97 3c
       -0.014294653 0.01658505 -0.016580641 0.01854486
0003f0 44 45 03 bd 71 cd 8a bc 0a 74 ae bc 3d d6 14 3d
       -0.03204848 -0.016943665 -0.021295566 0.036337126

basis_rand_weights f4 [16, 5]
000000 1e 75 cb 3c bd 88 a4 3b cd 52 49 bc f4 64 35 3e
       0.02483612 0.0050211833 -0.012287808 0.17714292
000010 99 e6 55 bc e5 37 14 3d bb 4e 8a 3c b9 38 f4 bd
       -0.013055467 0.036186118 0.016883245 -0.119248815
000020 92 e3 e3 bd 16 86 b9 3d df 2c 74 bd ee 65 1d 3d
       -0.1112739 0.09058778 -0.059613105 0.038427286
000030 42 33 0b 3e 6e d5 66 3d 29 70 00 bc 3b 43 67 bd
       0.13593772 0.056355886 -0.007839241 -0.0564606
000040 f2 0b bf 3b 2e 6e a9 3c 74 4b 82 bd e9 1b e0 3d
       0.0058302814 0.02068242 -0.06362048 0.109428234
000050 7c 04 60 3d 57 88 b9 bc 94 07 a7 bd 9b 0b 3f bd
       0.054691777 -0.02264802 -0.08155742 -0.046641927
000060 98 42 27 be cc ef 73 3d 62 45 49 bd 4f db a1 bd
       -0.16333997 0.05955486 -0.049138434 -0.07903158
000070 bc 85 ee bd f3 56 98 bd 3b 85 dc bc 16 38 6f 3d
       -0.116466016 -0.07438459 -0.026918998 0.058403097
000080 66 ec 00 bd e8 ea 9e bc eb a0 54 bd b1 6a 67 bd
       -0.031475447 -0.019399121 -0.051911276 -0.056498233
000090 80 d4 e1 3c f7 20 d8 bd db fc b1 3d b3 0d 99 bc
       0.027567148 -0.105531625 0.086908065 -0.01868329
0000a0 d9 43 7b bd 68 ea 88 3c bb 47 01 3e 7b 2f 90 3e
       -0.061344 0.016713336 0.12625019 0.28161225
0000b0 64 9a 49 bd 36 42 7a bd e8 c7 1e 3d 92 61 95 3d
       -0.049219504 -0.0610983 0.038764864 0.07294001
0000c0 c4 2e 22 3e 8f 7b 50 3d d8 b3 02 bd aa 2c 4b bc
       0.15838152 0.050899085 -0.031909794 -0.012400785
0000d0 4e 06 7f 3e 16 22 77 3e 13 e0 09 be 3f f0 c6 3d
       0.24904749 0.24134097 -0.13464384 0.09713792
0000e0 0e 6c c2 bd b0 43 81 be 8f 50 85 3d b2 75 4a 3d
       -0.09493266 -0.25246954 0.06509506 0.04942865
0000f0 5d 29 16 3d 7b e1 1e bc bc a6 98 3d ca 24 78 3e
       0.03666054 -0.009697313 0.07453677 0.24232784
000100 47 34 98 bc b2 c9 88 bd 29 e8 52 bd ae 1d 15 bd
       -0.018579615 -0.06679095 -0.051490936 -0.036405258
000110 00 82 2f 3e 06 07 a5 3c d1 0e a2 ba 24 d4 87 bc
       0.17139435 0.02014495 -0.0012364035 -0.016580649
000120 4f 4b 91 bd 41 b0 7f 3c 01 c4 45 be fd 77 f6 3c
       -0.07094442 0.015605987 -0.19313051 0.030086512
000130 70 38 db 3c 5a 46 81 bd 1b 95 a2 3e cd 02 50 bd
       0.02676031 -0.063122466 0.31754383 -0.05078392

basis_vecs f4 [3, 768]
000000 a8 89 d3 3b 65 ac 25 bd fe ec 11 bc 00 80 a4 bb
       0.006455619 -0.04044761 -0.008906601 -0.0050201416
000010 36 e7 55 bc ed 7f 93 bc d9 ea da 3b 64 a1 b0 3c
       -0.013055613 -0.018005336 0.006680828 0.021561332
000020 c1 f9 f1 ba 5d 40 49 3d 1e 7d fa 3c f2 b6 fd 3c
       -0.0018461273 0.049133647 0.030577239 0.030971024
000030 68 ac 42 bc b3 28 51 bb bb fe 8c bc 97 a7 c9 3c
       -0.011881925 -0.0031915128 -0.017211309 0.024616046
000040 70 a6 41 bc 64 25 9e bb 35 29 42 bc 52 24 72 3b
       -0.011819467 -0.0048262347 -0.011850645 0.0036947918
000050 ed d0 13 bd e0 3d 88 bc e4 80 a7 3c a0 49 4c 3c
       -0.03608792 -0.016631067 0.020447202 0.012468725
000060 52 38 76 3d c4 75 86 3c 84 9c 94 bc 34 e8 26 3d
       0.060112305 0.016413577 -0.018141039 0.04074879
000070 9b 32 db bd 6c 67 0f 3d a6 ed 5f bb f9 b9 a8 3c
       -0.107030116 0.03501074 -0.003416875 0.020596491
000080 8d fc b9 3c f1 1a 81 3d 78 e4 d8 3c d4 5d c5 3d
       0.022703433 0.06303967 0.02647613 0.09637037
000090 3e 6f 09 bc 40 0b 12 3d 05 d1 81 bd 22 66 ba 3c
       -0.008388339 0.03565526 -0.063386954 0.022753779
0000a0 65 ef 41 bb 3c 4c 74 3c 93 50 5d 3d 87 37 90 bc
       -0.0029592153 0.014910754 0.05403192 -0.017604603
0000b0 ae 61 1b 3d 5c d9 fb bc 57 81 be 3c 90 d3 05 bd
       0.03793495 -0.030743293 0.023255033 -0.032672465
0000c0 bd ad 40 3c 9a 7d b4 3a 64 43 be bc d1 0f ff bc
       0.011760172 0.0013770342 -0.023225494 -0.031135472
0000d0 36 e4 ef 3c 3c a0 8b bc 3b c5 73 bd 18 cb f2 3c
       0.029283624 -0.01704418 -0.059514266 0.029637858
0000e0 0a e5 04 3d 3d d1 10 bc aa 53 2f bc 3a fb b7 3c
       0.03244499 -0.008838949 -0.010701099 0.022458661
0000f0 6e 45 02 bd 14 97 8c 3c 25 66 42 bc 66 e0 7f bc
       -0.031804495 0.017161883 -0.0118651735 -0.015617466
000100 9b 6e ac 3c 3b 49 63 3b 30 53 08 3d 86 fe 95 3c
       0.021048835 0.00346811 0.03328246 0.018309843
000110 e1 c8 e6 bc 7c 70 79 3c 33 92 69 bc f9 2d 80 3c
       -0.028171958 0.015224572 -0.014256048 0.015646921
000120 51 23 42 bb 42 64 c0 bc 60 8d 13 3c 06 a1 a7 3c
       -0.00296231 -0.023485307 0.009005874 0.020462524
000130 2c 9d 80 3c f4 a2 15 bc cd 1e 26 3b db 1b e3 3d
       0.015699945 -0.009133089 0.0025347949 0.110892974
000140 28 2c a1 3c 60 7f b9 b8 ae c8 ce 3c 7f 51 4c bd
       0.019674376 -8.845213e-05 0.025242176 -0.04988241
000150 e4 bd 9f 3c 8b 02 3c bb 79 90 b3 3c 94 10 37 3c
       0.019499727 -0.002868804 0.021919476 0.011173386
000160 ca 84 d5 3b ea e2 c0 ba 01 bd 12 bd 27 35 fe 3c
       0.006516074 -0.0014716063 -0.03582478 0.031031204
000170 99 f0 ab 3b 64 40 88 bc f4 4f bb bc f9 0b 71 bc
       0.0052471873 -0.016632266 -0.022865273 -0.014712327
000180 60 31 11 bd b1 19 c4 bc 56 22 67 bc 69 6f 0a 3d
       -0.03544748 -0.023938032 -0.014107307 0.033797655
000190 c4 71 56 3c 08 6b 1f bc 31 89 10 3c d2 05 13 3d
       0.013088647 -0.009730108 0.0088217715 0.035894223
0001a0 de b6 a2 bb d9 2d 8a 3c a1 b2 5a 3d a6 84 92 3c
       -0.004965647 0.016867565 0.05339301 0.017885517
0001b0 d7 22 9c bb f4 2c 04 3c 41 5f 91 bc 7e 52 ae 3c
       -0.0047648954 0.008067358 -0.017745616 0.02127957
0001c0 41 9c 19 bb ef 0b ff 3b e8 4d c8 bc e1 bd 8e 3c
       -0.0023439082 0.007783405 -0.024451211 0.017424526
0001d0 08 bc 17 bb 7b e5 49 bc e6 52 11 3c ec c1 13 3b
       -0.0023152847 -0.012322779 0.008869862 0.0022546006
0001e0 69 d0 4a bb d3 dc 84 3c f1 66 1c bd 0b 33 b6 3c
       -0.0030946976 0.016218578 -0.03818411 0.022241136
0001f0 0c 5e 66 bd 99 36 18 3d ec cc b5 bc e2 5d 9f 3c
       -0.056242034 0.037161443 -0.02219244 0.019453947
000200 c8 5a df bc 9b 8d 18 bd 4d 85 1f bc fb ee 91 bb
       -0.027264968 -0.03724442 -0.009736371 -0.0044535375
000210 70 67 23 bd fc ca 09 bd ba e9 db 3b d6 8f 98 bb
       -0.039893568 -0.033640847 0.006711212 -0.0046558185
000220 cb 81 8d bc 8d 13 c8 bb 1b 2f 0f 3d 1a 2c 1c bc
       -0.017273804 -0.0061058463 0.034957033 -0.009531999
000230 95 21 cf bd 0e 54 93 bc c6 ec 12 3d 25 91 10 bd
       -0.10113827 -0.017984416 0.035870336 -0.03529467
000240 f6 2b 80 3d 42 e7 1e bd bf c3 64 bb e5 c8 b9 bb
       0.06258385 -0.038794763 -0.0034906713 -0.0056697004
000250 49 b1 a4 3c 44 c0 38 3c ea 4c 27 bd 82 8d 5d bc
       0.020104067 0.011276308 -0.040844835 -0.013522508
000260 3a 13 6d 3b 5d 4c 2a 3c 35 dd 19 3c 01 a7 42 3c
       0.003617479 0.010394183 0.009391119 0.011880637
000270 e9 15 2e 3d d8 ff 07 3b 8f 40 13 3d 05 6d c7 bb
       0.042501364 0.002075186 0.03595024 -0.006085994
000280 a2 9e 1b bc ac c5 27 3d 33 d8 bd 3c 23 cb 0b bb
       -0.00949827 0.04096 0.02317438 -0.0021330796
000290 58 de fe 3c bd ef 91 3c 0a 90 a2 bb 7d 55 f3 bc
       0.031111881 0.017814511 -0.0049610185 -0.02970385
0002a0 09 54 d0 3c ab 33 2c 3d 7c 13 09 bb 49 1e e7 3c
       0.025430696 0.042041462 -0.0020916155 0.028212683
0002b0 62 48 27 3d 56 f8 f1 3c 53 2f 9d bc b5 73 cb 3c
       0.040840514 0.029537361 -0.019187605 0.024835447
0002c0 c6 46 8c bc 54 f2 d8 bc 67 c3 08 3c e3 e9 82 3d
       -0.017123591 -0.026482739 0.008347369 0.063922666
0002d0 c2 3c f4 3a 59 7e 49 3d fa 1c 03 3b b2 bb 56 3a
       0.001863383 0.04919276 0.0020006285 0.0008191421
0002e0 6c d3 61 3c a9 ba 02 3c da b0 d1 bb a8 78 e2 bc
       0.013783317 0.007979074 -0.006399256 -0.027645424
0002f0 bf 83 a4 ba 7e 9d 69 bc fa 9b 5d 3b 7a 84 5d ba
       -0.001255147 -0.0142587405 0.0033814893 -0.00084502215
000300 7b 46 9f 3a b2 0d 29 bd d5 1b 61 bd 94 03 8c 3d
       0.0012151742 -0.041272826 -0.054958183 0.0683662
000310 b3 bf 7a bb f9 24 87 3d f4 7e a7 3c dc b1 c0 bc
       -0.0038261234 0.06598849 0.020446278 -0.02352231
000320 e7 4d cc 3b 4a 60 b1 bc a8 7d 42 bd be 6e 9e bc
       0.0062348726 -0.02165236 -0.047483116 -0.019339915
000330 d9 4c bd 3d 1a 6e 1a bd b5 9f 2d 3d 23 40 89 3c
       0.09243173 -0.037702657 0.042388637 0.016754216
000340 ac 2a 15 3d 4f f0 8a 3d a8 b9 5a 3d 76 f1 c0 bc
       0.03641765 0.067841165 0.05339971 -0.023552638
000350 97 00 c7 3b 49 ee 8c bb 5e 5b b2 3c dc cc ea bc
       0.0060730684 -0.0043008667 0.021772083 -0.028662138
000360 63 43 30 3c da 7a 31 3d d7 b1 cb 3b 9f bc 11 bc
       0.010758254 0.04333005 0.0062162685 -0.008895068
000370 ec 3f 1e bc e5 0e 54 bd 19 49 c3 bb 1e 4f ae 3c
       -0.009658795 -0.051772017 -0.0059596417 0.02127796
000380 40 35 8a bc 83 d3 de 3c 9d 53 15 bc 9e 90 9d ba
       -0.016871095 0.027200466 -0.009114173 -0.0012021249
000390 ad 96 1c 3d a4 d9 80 bc 49 c2 ad bc 3c f8 fa bc
       0.038229633 -0.01572878 -0.021210806 -0.030635945
0003a0 46 3c d8 3c 71 51 13 bd 7a 6e d5 bb d9 e0 f8 3c
       0.026395928 -0.03596634 -0.006513414 0.030380653
0003b0 d7 0f a7 3b 05 8f cc bc de 36 85 3c 5e 6b 86 bd
       0.005098324 -0.02497054 0.016261514 -0.065634474
0003c0 e2 ae ea 3c 4e 09 11 bc 6a 76 90 bc 0e 82 a7 3c
       0.028647844 -0.008852316 -0.01763459 0.020447757
0003d0 38 a9 77 3c 04 30 45 3d 4f fb dc bc eb 41 07 bd
       0.0151160285 0.048141494 -0.026975302 -0.03302185
0003e0 c6 fc 60 3a 6b 87 3b bb 7e 34 70 bc 67 b2 22 3c
       0.0008582588 -0.002861465 -0.014660953 0.00993023
0003f0 d1 19 1f bd fb cc fa 3a d3 2b 02 bc f5 68 62 3d
       -0.03884298 0.0019134575 -0.007945019 0.055275876

basis_comm_weights f4 [1, 5]
000000 2f 96 92 3e b0 0d 2c 3f 58 1c 62 3e 68 2d b1 3e
       0.28630206 0.67208385 0.22081125 0.34604955
000010 df e1 3a 3e
       0.18250225

bias f4 [16, 768]
000000 1f b4 fa 3c 96 b0 bc 3c fb 9b 88 bd ef 71 88 3d
       0.030603467 0.023033421 -0.06670376 0.06662356
000010 57 d4 ba bc 83 98 fc 3b b6 e5 15 3b b7 40 2b bd
       -0.02280633 0.0077086105 0.0022872514 -0.041809764
000020 3a cb 72 bd 44 95 77 bb 4b 7b 15 3d 9f fc 36 3d
       -0.059275843 -0.0037778178 0.036494534 0.044674512
000030 8c c0 22 3c d0 23 04 be cc 6b 28 bd 7c ad c1 bc
       0.009933602 -0.12904286 -0.041118428 -0.023642294
000040 91 11 3b 3c 62 a9 dc 3a 4d ab dd 3c f8 09 da 3c
       0.011417762 0.0016835148 0.027059222 0.026616082
000050 49 91 d2 3c 44 25 08 bd bc ca 81 ba 09 f4 47 bd
       0.025704043 -0.033238664 -0.0009902338 -0.048816714
000060 a5 ce 4f bd f0 91 aa 3d 46 1b 1d bd b5 ef c5 3c
       -0.05073418 0.083286166 -0.038356088 0.024162153
000070 7f 49 22 bd 3a 46 54 3c 47 17 48 bd 03 d5 cd 3c
       -0.039620873 0.012956196 -0.048850324 0.025125986
000080 b2 3b 97 bd 3c 1f 39 bd c1 ce b4 bd 60 06 ec bc
       -0.07384433 -0.045195803 -0.08828498 -0.028811634
000090 f8 5b 08 bd 61 de 3b 3c 54 5d d0 3c 50 ed e0 3c
       -0.033290833 0.0114665935 0.025435127 0.02745691
0000a0 b6 52 58 3d d4 7e 6c bd e5 73 23 3d bf b6 38 39
       0.052813254 -0.05773814 0.039905448 0.00017615686
0000b0 8f 65 c1 bc 51 74 25 bc 89 3b 40 3d e8 67 e4 3c
       -0.023607997 -0.010098533 0.046931777 0.027881578
0000c0 d8 09 2c 3d 63 1b 0a 3d 09 b9 da bb 66 91 dc bc
       0.042001575 0.033717524 -0.00667489 -0.0269248
0000d0 39 b0 df 3b c3 c7 42 bb 3a 15 41 bc b8 af a7 3d
       0.0068264273 -0.0029721118 -0.011784846 0.081878126
0000e0 5f 74 08 bd 45 7a 1d bd bb 0f 19 3c 98 5e 8c bc
       -0.033314105 -0.038446683 0.009342129 -0.01713495
0000f0 57 54 c4 bc 1f 94 34 3c c4 48 6c bc 8a df cf bc
       -0.023965998 0.011021643 -0.014421646 -0.025375146
000100 8f ab 42 3d d8 25 fc bb 0f bb 2f 3d 6d 01 9b bd
       0.047526892 -0.007694941 0.042903002 -0.07568631
000110 19 59 d7 3b ae c2 a9 3c f9 7b d9 3c 36 5c f5 3c
       0.0065719006 0.020722713 0.026548373 0.029951196
000120 61 4a 21 3c fd fb d4 3c 54 88 25 bb 11 81 1b bd
       0.0098443935 0.025999064 -0.002525826 -0.037964884
000130 b1 0c 8b ba 5d aa 01 3d 60 4f 64 bd 33 2c 29 bc
       -0.0010608641 0.03165661 -0.05573976 -0.010325479
000140 84 1f 05 3d de ca 39 3d f8 61 0b 3d 6d f1 ae 3b
       0.03250076 0.045359485 0.034028977 0.005338839
000150 3c 6e 10 bb 10 6a 47 bc 7a 16 89 3b 80 ec 08 bd
       -0.002203836 -0.012171283 0.0041835876 -0.03342867
000160 5f 64 fc bc ce d7 7d 3a f2 54 be bc cb 02 92 3d
       -0.03080958 0.00096833415 -0.023233864 0.07129439
000170 b1 54 27 39 f0 00 95 bc 45 17 80 3c ad fc 16 bd
       0.00015957911 -0.018188924 0.015636096 -0.036862064
000180 a2 87 2e bd 99 5e be bc 73 09 ef bc b8 1a 92 3c
       -0.04260982 -0.023238467 -0.02917931 0.017835006
000190 98 d2 86 3c f6 82 f5 bc 06 06 e5 bc f7 d7 82 bc
       0.01645784 -0.029969674 -0.027956974 -0.01597212
0001a0 c9 73 f0 bc 8b 27 6c bd d1 09 a4 3d cb 21 5d bc
       -0.029352086 -0.0576549 0.08009685 -0.013496826
0001b0 c6 8f 91 bd 34 d2 71 3c 4a cc 21 3b 8a a1 4e bd
       -0.07107501 0.014759589 0.0024688416 -0.050447024
0001c0 da c3 8a 3b 73 9d 92 3c 17 68 24 3d 8d b8 b1 bc
       0.004234773 0.017897343 0.04013833 -0.021694446
0001d0 0f 42 2e bd 16 cf 32 bd 1e dc 93 ba cd ad aa bc
       -0.042543467 -0.043654524 -0.001128081 -0.020834828
0001e0 b2 f8 e0 bc 21 68 6b 3d fa bb 07 3d a9 6c 20 bd
       -0.027462337 0.057472352 0.033138253 -0.039166126
0001f0 dd fd 1a bd 9c 62 3c 3d 0b 6e 1c 3d 6d 39 10 3d
       -0.03783976 0.04599248 0.038190883 0.035211015
000200 d7 f6 03 bd af 55 f0 bc 99 d8 e5 3c e1 19 fb bc
       -0.032217827 -0.029337732 0.028057383 -0.030651988
000210 d2 f6 b2 bc 7c 02 fe 3c 0f f1 fd bc 1a ff 9d ba
       -0.021846209 0.031007044 -0.030998735 -0.0012054176
000220 80 d1 17 3d 71 a6 85 bd b3 bf 31 3d 69 31 e3 ba
       0.03706503 -0.06525887 0.04339571 -0.0017333451
000230 0a e4 5e 3d 38 ec 1b bb 41 64 21 3d fb 67 32 bd
       0.054416694 -0.002379192 0.03940225 -0.043556195
000240 9f 2f 31 3d bf 92 65 3d 2a d2 a2 bc 54 f1 14 3d
       0.043258306 0.05604815 -0.019875605 0.03636296
000250 0b c1 20 bd d6 b3 f9 3c c8 88 11 bc ff bb 9a bc
       -0.0392466 0.03048126 -0.008882709 -0.018888472
000260 59 ad ae 3c 44 aa 9b 3d dd 1f 79 bc 28 6c 70 3d
       0.021322893 0.07600835 -0.015205351 0.058696896
000270 96 4a 9b 3d c6 42 b5 bc d1 1b 7f bb 7c 5f 93 bd
       0.075825855 -0.022126567 -0.0038926492 -0.071959466
000280 92 0e 80 bb d1 f5 73 bd 5e c6 08 3c 61 32 eb bc
       -0.003907987 -0.0595606 0.008348076 -0.028710546
000290 fa b3 0f 3d ea a1 30 3d 89 63 c2 3c ba b9 b7 bc
       0.03508375 0.043123163 0.023729103 -0.022427429
0002a0 fc 12 e4 bc 48 1c 21 3c fe 8a 50 3c d8 3e f7 bc
       -0.027841084 0.009833403 0.012728451 -0.030181333
0002b0 9f 42 dc bb 5e 0b 16 3a 13 a0 9e 3c 99 98 a9 bc
       -0.006721809 0.000572374 0.019363439 -0.020702647
0002c0 aa 55 54 bd 92 a7 c0 3c c8 77 4d bc 0a 06 14 bc
       -0.051839508 0.023517404 -0.012540765 -0.009034643
0002d0 f0 81 db 3c ce 5f 3a bd a4 40 01 3c 82 3d 7e 3d
       0.026795357 -0.045501523 0.007888947 0.062070377
0002e0 20 81 fb bb cc 6e b4 3d 70 e1 4f bd 94 b6 85 3d
       -0.007675305 0.08810195 -0.050752103 0.06528965
0002f0 22 37 94 bc 2b dc 08 bd 41 02 3a 3a a0 24 11 3c
       -0.018092696 -0.033413094 0.0007095673 0.00885883
000300 f0 9f 4e 3c 39 61 6d bc 01 72 18 3d 93 5f ff 3c
       0.012611374 -0.014488512 0.037218098 0.031173503
000310 19 1c 5b 3d 1e 72 3a bc 54 28 ff 3c d5 b7 92 3c
       0.053493593 -0.011379747 0.03114716 0.017909924
000320 4e 5c 99 3d 2d e6 00 3d 86 1d c0 bc 8f ad 88 bd
       0.07488309 0.031469513 -0.023451578 -0.06673729
000330 b6 ec f9 bc 8d 89 92 bd 2e bc 88 bc 47 4a a0 3b
       -0.03050838 -0.07155142 -0.016691294 0.004891667
000340 da 7a 04 3d 7b c8 55 bd 76 5e 9d bc d2 09 a1 bd
       0.032343723 -0.052193146 -0.019210082 -0.07863201
000350 2f b2 a5 3c 93 51 b7 bd 3e 71 a7 bc 52 20 f9 39
       0.020226566 -0.08951106 -0.02043974 0.00047517061
000360 9e 31 ea bc 77 bd 4a 3b 20 14 72 3d 3e dd 04 bd
       -0.028588112 0.0030935684 0.059101224 -0.032437555
000370 cb c1 66 3d 95 94 1e 3a 1b 3d db bc 4c c0 fd ba
       0.05633716 0.0006049362 -0.026762536 -0.0019359677
000380 12 bd 8a bc f1 ff 40 bd 86 c0 c0 3b 64 d7 87 bd
       -0.016935859 -0.047119085 0.0058823256 -0.066328794
000390 19 e5 90 3b de 05 61 3d 7c 66 1a 3c 1d f4 88 3d
       0.004421842 0.054937236 0.009423848 0.06687186
0003a0 8f e9 04 3d b6 46 1c bd 14 88 4e 3d e3 98 f6 3c
       0.0324493 -0.038153373 0.050422743 0.030102199
0003b0 81 13 7c 3d 0c 2c 33 3c c5 9e 09 3a 97 61 f9 bb
       0.061542038 0.010935795 0.0005249794 -0.0076105106
0003c0 07 1a c1 bc 3d 5d ff bc c7 ac 55 3d 79 c6 06 3c
       -0.023571981 -0.03117239 0.052166726 0.0082260305
0003d0 b5 ab 63 3d 69 2d 08 bc c1 fb 1c 3b 8e d2 0b 3c
       0.055583674 -0.008311608 0.0023953768 0.008534087
0003e0 0b 35 d7 bc 0e bf b9 bc 2b 6f 20 bc d7 31 24 3c
       -0.02627041 -0.02267411 -0.0097921295 0.010021648
0003f0 6d 5b 61 bc f6 22 25 3d 62 39 71 3d b2 0a a2 bd
       -0.013754708 0.040316544 0.058892615 -0.07912196

weight f4 [768]
000000 ab 3c 6d 3f 24 9e 66 3f 43 43 88 3f 11 ea 86 3f
       0.92670697 0.90085053 1.0645527 1.0540181
000010 2b 9c 7e 3f da 46 81 3f 9f 4f 7f 3f cd 6e 7a 3f
       0.99457043 1.0099747 0.9973087 0.9782532
000020 91 6e 86 3f ce f6 82 3f c0 40 8a 3f 32 95 8c 3f
       1.0502492 1.0231569 1.080101 1.0983031
000030 7c e2 71 3f f2 71 8e 3f d6 5c 7e 3f bc 3a 79 3f
       0.9448621 1.1128523 0.99360406 0.97355247
000040 e9 63 7a 3f 6e d0 85 3f b4 50 7f 3f 26 35 7a 3f
       0.978087 1.0454233 0.9973252 0.9773735
000050 33 a3 77 3f 5d 6b 82 3f e6 a8 80 3f e8 50 84 3f
       0.967334 1.0189015 1.0051544 1.0337191
000060 cb 14 67 3f f9 97 8b 3f 5d 80 88 3f 5f a8 83 3f
       0.902661 1.0905753 1.0664173 1.0285758
000070 24 23 89 3f 57 7e 6f 3f 60 bc 8b 3f c4 ba 87 3f
       1.0713849 0.93552154 1.0916862 1.0603871
000080 9e 13 78 3f 50 69 67 3f 9b 3e 5f 3f 22 e4 68 3f
       0.96904933 0.9039507 0.87204903 0.90973103
000090 e7 f3 85 3f 14 2e 83 3f b2 14 6e 3f 96 84 83 3f
       1.0465058 1.0248437 0.9300033 1.0274837
0000a0 0c f0 8c 3f 2f 0f 67 3f 60 b0 8b 3f 54 98 7b 3f
       1.1010756 0.90257543 1.09132 0.9827931
0000b0 3a 61 7a 3f 02 9f 80 3f bf ed 88 3f 2d ef 74 3f
       0.97804606 1.0048525 1.0697554 0.95677453
0000c0 18 cb 82 3f 71 46 78 3f 95 63 81 3f 74 71 7f 3f
       1.0218229 0.96982485 1.0108515 0.9978249
0000d0 e4 80 80 3f e0 4f 83 3f f7 fd 84 3f c0 29 97 3f
       1.0039334 1.0258751 1.0390004 1.1809616
0000e0 80 e0 7e 3f 92 5f 8c 3f d2 c1 7c 3f 38 b5 73 3f
       0.9956131 1.0966666 0.98733246 0.9519839
0000f0 24 e7 83 3f 2b d4 74 3f 47 97 71 3f dc 8e 88 3f
       1.0304914 0.9563624 0.94371456 1.0668597
000100 f4 2e 8c 3f c0 e6 6d 3f 0a a9 8c 3f 1c 30 56 3f
       1.0951829 0.9293022 1.0989087 0.8366716
000110 26 1e 88 3f 3a 94 74 3f 0e 76 72 3f 23 44 84 3f
       1.06342 0.95538676 0.9471139 1.0333294
000120 61 06 7e 3f b2 cb 63 3f 68 79 80 3f c4 0d 66 3f
       0.99228483 0.8898269 1.003705 0.89864755
000130 b9 09 7a 3f d3 f9 6d 3f e7 aa 7c 3f c0 59 80 3f
       0.97671086 0.92959327 0.98698276 1.002739
000140 ac 2d 79 3f 64 e5 6f 3f 76 2f 8b 3f 1a e9 77 3f
       0.97335315 0.937094 1.0873859 0.9684006
000150 2c ba 7b 3f a6 99 7f 3f 72 bc 7b 3f 9a 6a 71 3f
       0.9833095 0.99843824 0.9833442 0.94303286
000160 86 42 72 3f 34 a3 79 3f 9d 16 84 3f 83 d5 92 3f
       0.94632757 0.97514653 1.0319401 1.1471409
000170 78 73 7e 3f 65 8b 79 3f 94 bf 82 3f 12 9b 81 3f
       0.9939494 0.97478324 1.0214715 1.0125449
000180 d1 54 74 3f 95 86 89 3f e9 42 8f 3f 45 7c 85 3f
       0.9544192 1.0744196 1.1192294 1.0428549
000190 b9 49 7a 3f 7c 8c 7f 3f 3d f9 83 3f 00 04 6b 3f
       0.9776874 0.9982374 1.0310436 0.9180298
0001a0 56 a9 80 3f 80 85 71 3f bf 0c 97 3f 08 bd 75 3f
       1.0051677 0.9434433 1.1800765 0.95991564
0001b0 c8 2f 92 3f da 20 80 3f 51 5f 74 3f 5f e4 68 3f
       1.1420832 1.0010026 0.9545794 0.90973467
0001c0 04 bf 73 3f f2 51 79 3f d2 6b 6e 3f 1b 89 80 3f
       0.9521334 0.97390664 0.9313327 1.0041841
0001d0 7f 36 71 3f 00 74 86 3f 81 ef 76 3f 3c 36 87 3f
       0.9422378 1.050415 0.96459204 1.0563426
0001e0 9d 5e 82 3f 4f 3f 88 3f e6 5b 64 3f db cf 5c 3f
       1.0185124 1.064432 0.89202726 0.8625466
0001f0 3d a4 88 3f 56 53 8c 3f 36 2b 72 3f e1 f2 6f 3f
       1.0675122 1.0962932 0.94597185 0.9372998
000200 e2 56 82 3f fe 7b 85 3f a6 bf 71 3f e1 17 77 3f
       1.0182765 1.0428464 0.9443306 0.9652081
000210 0c 16 7c 3f f0 df 6f 3f 31 39 84 3f 44 38 6e 3f
       0.9847114 0.93701077 1.0329953 0.93054605
000220 1d c5 79 3f 91 29 94 3f 35 73 87 3f 43 98 83 3f
       0.97566396 1.1575185 1.0582033 1.0280842
000230 f8 44 65 3f 97 ca 7d 3f af 7b 91 3f 62 5b 8f 3f
       0.8955836 0.9913725 1.136587 1.1199763
000240 5a 0e 8c 3f 5e 07 59 3f 8c aa 75 3f e0 18 7c 3f
       1.094188 0.84776866 0.9596336 0.98475456
000250 ed 0e 75 3f f9 9a 8d 3f 22 7e 78 3f ac 91 85 3f
       0.957259 1.1062919 0.97067463 1.043508
000260 fb de 7e 3f 89 b2 8f 3f 1a 0e 75 3f a6 63 8c 3f
       0.9955899 1.122636 0.9572464 1.096791
000270 5e 13 9b 3f 22 de 84 3f 3a dd 7a 3f 9b 5a 84 3f
       1.2115285 1.038029 0.97993815 1.034015
000280 5f 0b 81 3f 7c b7 57 3f ed 53 82 3f aa 13 7b 3f
       1.0081595 0.8426435 1.0181862 0.9807688
000290 e9 93 8c 3f a6 05 8e 3f 9a 38 80 3f b7 c8 83 3f
       1.0982639 1.1095474 1.0017273 1.0295628
0002a0 3b f7 71 3f bc 22 6e 3f 05 c1 86 3f ad 62 6d 3f
       0.9451787 0.9302175 1.0527655 0.9272869
0002b0 07 16 80 3f ab 95 7e 3f 7b 7e 77 3f 1e 25 6f 3f
       1.0006722 0.99447125 0.9667737 0.9341601
0002c0 69 d3 76 3f 59 3b 6a 3f 77 94 86 3f 10 c7 6f 3f
       0.96416336 0.9149681 1.0514058 0.9366312
0002d0 1b 70 79 3f fb 2f 5f 3f 8b 29 7d 3f a2 7e 86 3f
       0.97436684 0.8718259 0.98891515 1.0507395
0002e0 45 bc 7f 3f b6 5b 6e 3f e9 44 88 3f ad 65 80 3f
       0.9989665 0.9310869 1.064603 1.0031029
0002f0 85 4f 78 3f 96 76 6b 3f 2d b0 80 3f e4 6b 7b 3f
       0.9699634 0.9197782 1.0053765 0.98211503
000300 ad 25 82 3f ff bb 82 3f 6a 11 75 3f a9 cb 83 3f
       1.0167748 1.0213622 0.95729697 1.0296527
000310 28 1f 78 3f fd 84 74 3f f0 55 72 3f 50 26 80 3f
       0.9692254 0.95515424 0.9466238 1.0011692
000320 f0 c0 95 3f 58 1e 6a 3f 4c 34 89 3f 83 8f 72 3f
       1.1699505 0.9145255 1.0719085 0.9475023
000330 fb 82 75 3f d0 5e 92 3f 2c 97 80 3f 9e 40 81 3f
       0.95902985 1.1435184 1.0046134 1.0097845
000340 d8 76 8d 3f 0a 86 61 3f 8f ff 76 3f 2d e1 8d 3f
       1.1051893 0.8809515 0.964837 1.1084343
000350 ea 83 72 3f 3f 00 53 3f e8 62 83 3f bd b3 7c 3f
       0.94732535 0.8242225 1.0264559 0.9871176
000360 40 8d 74 3f 11 dc 82 3f a7 8f 83 3f 42 c5 88 3f
       0.9552803 1.0223409 1.0278214 1.0685198
000370 e0 7e 78 3f fa 25 71 3f b6 ea 83 3f d4 8f 7a 3f
       0.97068596 0.9419857 1.0306003 0.97875714
000380 84 a8 87 3f 00 6c 80 3f a3 7a 7b 3f 67 1e 92 3f
       1.0598302 1.0032959 0.98234004 1.1415528
000390 7a 22 7a 3f bb 01 74 3f 01 2f 69 3f c0 dd 82 3f
       0.9770886 0.9531514 0.9108735 1.0223923
0003a0 94 d3 87 3f 7b 74 92 3f 35 9f 82 3f e5 0a 7f 3f
       1.0611444 1.1441797 1.0204836 0.99626
0003b0 c3 0b 62 3f ec 80 73 3f 9a ad 84 3f 3e ff 83 3f
       0.88299197 0.95118594 1.0365479 1.0312269
0003c0 a1 53 76 3f c8 6e 7d 3f 73 d7 64 3f da 0a 80 3f
       0.9622136 0.98997164 0.8939125 1.0003312
0003d0 bd 07 79 3f 5e 02 7d 3f 37 4d 6a 3f 9e 80 80 3f
       0.9727743 0.9883174 0.9152407 1.0039251
0003e0 0a c6 85 3f 31 15 7d 3f 17 5d 82 3f a2 c6 81 3f
       1.0451062 0.9886046 1.0184659 1.0138743
0003f0 a9 98 83 3f 6c be 79 3f 44 82 5b 3f dd be 55 3f
       1.0280963 0.97556186 0.85745645 0.8349436

bias f4 [768]
000000 ed 81 8e 3d 70 f9 e5 3c 1f 06 da bd bb b0 03 3e
       0.06958375 0.028073043 -0.10645699 0.12860386
000010 26 ce dc bc f4 aa a0 bc 03 6a 46 3c 9e 86 80 bd
       -0.026953768 -0.019612767 0.012110236 -0.06275676
000020 58 63 b5 bd e7 ba cf 3c c6 8f a9 3d f9 75 ab 3d
       -0.08856839 0.025357677 0.08279376 0.08372111
000030 8a 49 7b 3c a7 32 86 be 15 21 9d bd 62 c6 01 bd
       0.015337357 -0.2621052 -0.076723255 -0.031683333
000040 ce c2 8a 3c 11 21 e4 bb c9 15 b7 3d b2 69 2c 3d
       0.016938593 -0.0069619496 0.08939702 0.042092986
000050 4a c1 f6 3c 3f 6d 37 bd 5f 22 2e 3c 4f 7f 9d bd
       0.030121464 -0.04478192 0.010628312 -0.07690298
000060 d1 49 cd bd 68 bb 1f 3e f4 25 96 bd 76 c5 14 3d
       -0.10023845 0.15598834 -0.07331458 0.036321126
000070 b9 d4 7b bd bf 0c d4 3c df 18 bf bd 31 8d 91 3d
       -0.061482165 0.025884984 -0.09330916 0.07107008
000080 34 2b 09 be 05 62 be bd cc 03 11 be 33 2a 53 bd
       -0.13395387 -0.092960395 -0.14161605 -0.051553916
000090 72 ad 5a bd d9 c1 34 3d d2 30 59 3d c5 68 0d 3d
       -0.053388067 0.04413018 0.053025074 0.034523744
0000a0 57 85 e9 3d a6 b9 f1 bd 94 5f a6 3d b9 e0 f1 bc
       0.11402386 -0.11802988 0.08123699 -0.029526101
0000b0 c7 04 8d bc 15 8a b2 b9 3a 54 c7 3d 87 a0 8b 3d
       -0.017214192 -0.00034053685 0.09732862 0.068177275
0000c0 f8 7d d3 3d 9f 58 ab 3d b3 7d 91 bc 76 de a3 bd
       0.10326761 0.083665125 -0.017760133 -0.080014154
0000d0 10 e8 1f 3d 2f 88 6c 3b f0 07 db bc 09 63 37 3e
       0.03903967 0.0036091914 -0.026737183 0.17908873
0000e0 60 78 97 bc 77 53 97 bd fe 2c ab ba 9e 0c 1a bd
       -0.018490016 -0.073889665 -0.0013059673 -0.03760969
0000f0 4e df 5c bd 0e 63 70 3c f3 64 ca bc 8d f4 56 bd
       -0.053923897 0.014672054 -0.02470634 -0.052479316
000100 85 8b bc 3d d7 9d ad bc 18 1f 9d 3d d1 cf 0d be
       0.09206299 -0.021193428 0.07671946 -0.13848807
000110 e6 87 80 3d 48 c9 4c 3d fe 9d 86 3d e8 a5 60 3d
       0.062759206 0.049996644 0.06573103 0.05484572
000120 4e 8d ff 3b 92 23 50 3d 0c f5 5b 3b d9 99 9f bd
       0.0077988273 0.050815172 0.0033562807 -0.07793016
000130 1b 57 5f ba 1c f6 79 3d e4 3a bb bd 4b 6e a4 bb
       -0.00085197546 0.061025724 -0.09142092 -0.0050180308
000140 d6 e0 59 3d 22 d6 b5 3d 03 82 ae 3d 9f a5 ac 3c
       0.053192936 0.08878733 0.085208915 0.021075068
000150 95 76 bd 3c 04 dd 0d bd a7 e1 3e 3d d5 9a 87 bd
       0.023127833 -0.034634605 0.046601918 -0.06621329
000160 87 bb 73 bd 0b 31 cf 3a 50 0a ff bc 52 25 09 3e
       -0.059505012 0.0015807463 -0.031132847 0.13393143
000170 2e 23 af 3a 41 a9 fe bc 70 0d b1 3b 8d 35 88 bd
       0.0013361925 -0.031086566 0.005403213 -0.06650839
000180 e9 6f b9 bd 10 82 44 bd c5 78 8a bd ca fa 1d 3d
       -0.09054548 -0.0479756 -0.06761316 0.03856925
000190 55 87 14 3d c0 cd 6c bd 51 c1 93 bd 61 cf 3e bd
       0.036261875 -0.057813406 -0.072146066 -0.04658449
0001a0 df 36 c2 bc 06 32 bf bd 37 79 11 3e 79 12 04 bd
       -0.023707805 -0.09335713 0.14206396 -0.03224418
0001b0 c4 3a 39 be 7a 3b 36 3b ac 88 77 bc 9d 01 ce bd
       -0.18088824 0.0027806447 -0.015108269 -0.100589015
0001c0 15 13 ee bb ab 82 0e 3d 00 77 9c 3d 21 e0 3f bd
       -0.0072654583 0.034792583 0.07639885 -0.046844605
0001d0 0a 15 a7 bd e2 60 a8 bd 98 c4 50 bc 31 f1 61 bd
       -0.0815831 -0.08221604 -0.012742184 -0.05516166
0001e0 15 85 85 bd b0 05 e6 3d e6 86 84 3d cd 7a ba bd
       -0.06519524 0.112315536 0.06471042 -0.09105454
0001f0 7b 16 ae bd 7f 77 d8 3d 28 5f 3f 3d e3 6b 8e 3d
       -0.085003816 0.10569667 0.046721607 0.069541715
000200 51 51 7b bd 85 49 6f bd e2 55 46 3d 4d 37 16 bd
       -0.061356846 -0.058419723 0.048421748 -0.036673833
000210 40 ff 32 bd 3b e5 6b 3d bf a8 01 bd 7a 8e 9d bc
       -0.043700457 0.057591658 -0.03165507 -0.019232977
000220 fd 35 58 3d 31 30 49 be 74 84 b6 3d ae 43 93 bc
       0.052785862 -0.1964729 0.08911982 -0.017976608
000230 16 64 ac 3d f6 9d 93 bb 0f ea e7 3d 97 d0 ab bd
       0.084175274 -0.0045049144 0.1132394 -0.08389395
000240 8d e0 9a 3d 28 50 d5 3d 4e a6 2c bd be 6d 3d 3d
       0.07562361 0.10415679 -0.042150788 0.046247236
000250 1e 1f 90 bd 43 bc 8b 3d 42 f0 dd b8 e0 28 2d bd
       -0.07037185 0.068230174 -0.00010582853 -0.04227531
000260 57 39 30 3d b8 e1 0a 3e e1 56 e6 bc b3 de d6 3d
       0.043023434 0.13562667 -0.028117599 0.10491695
000270 1f 71 52 3e 30 b3 05 bd 95 27 ce bb 7d 17 ec bd
       0.20550965 -0.03264159 -0.0062913396 -0.115279175
000280 95 7e f1 bc 23 9f 07 be 1b c9 c5 3c e5 c6 32 bd
       -0.029479304 -0.132443 0.024143746 -0.04364671
000290 49 b8 b6 3d e2 96 d3 3d e5 d3 89 b9 85 ad 07 bd
       0.08921868 0.10331513 -0.0002628855 -0.033124465
0002a0 d6 f3 51 bd ee 5f 80 3d bf 1b 7a 3d ab 3d 9a bd
       -0.05125793 0.06268297 0.061061617 -0.075312935
0002b0 18 ac a3 3c dd 75 8e 3c 88 9b f6 3c 7c 69 6c bd
       0.019979522 0.017390186 0.03010346 -0.057717785
0002c0 90 3c 01 be c4 12 4b 3d 95 65 5e bd 8d a0 96 bc
       -0.12620759 0.049578443 -0.054296095 -0.018387103
0002d0 74 62 df 3c 26 c0 e7 bd da 9e 82 3c 6d 31 03 3e
       0.027268626 -0.11315946 0.015944887 0.12811823
0002e0 50 50 67 3b bb e5 20 3e 62 13 a7 bd dc 28 e6 3d
       0.0035295673 0.15712635 -0.08157994 0.11238262
0002f0 65 76 11 bd 0b d7 43 bd 6e 0b 08 bc ef 12 60 ba
       -0.0355133 -0.047812503 -0.008303506 -0.0008547743
000300 bc 37 db 3c 72 bf da bc 7b 10 93 3d 7c 74 11 3d
       0.026759975 -0.026702616 0.07180878 0.03551148
000310 5c dc b0 3d 4c 56 bc bc a1 c5 90 3d f1 0f 91 3c
       0.0863578 -0.022990368 0.07068945 0.017707797
000320 aa f7 21 3e ff 89 58 3d 7a a0 46 bd 7d ef fe bd
       0.15817133 0.05286598 -0.048492886 -0.124480225
000330 9e 3f 0b bd 1d f4 0e be 74 a0 dd bc ea 15 4d 3c
       -0.033996217 -0.1396031 -0.02705405 0.012517432
000340 09 e2 cf 3d 4d 0f 99 bd 29 22 10 bd 60 78 11 be
       0.10150535 -0.074736215 -0.035188828 -0.14206076
000350 68 50 d4 3c 80 82 33 be b2 41 0a bd 4a 9b 1e b9
       0.025917247 -0.1753025 -0.03375406 -0.00015125904
000360 01 02 e7 bc 05 ef f3 3c 15 ee bc 3d 7e 8e b3 bd
       -0.028199198 0.02977706 0.09225098 -0.087674126
000370 41 96 b8 3d fc f2 0c 3d fc de 2e bd f2 ed 2e bc
       0.09013034 0.034411415 -0.042693123 -0.010676848
000380 30 78 11 bd 85 76 da bd 98 cf 07 3c 20 ad 0f be
       -0.03551501 -0.10667137 0.00828924 -0.14030886
000390 49 31 88 3c 87 84 a1 3d dc 5b a1 3c 0c 80 12 3e
       0.016625063 0.07886606 0.019697122 0.14306659
0003a0 54 0a 6b 3d d4 a2 e6 bd c4 2f a5 3d 5c d0 16 3d
       0.057382897 -0.11261526 0.08065751 0.0368198
0003b0 5f 8f 16 3e c1 d0 a9 3c 05 76 d0 bc a1 53 25 bd
       0.14703129 0.020729424 -0.025446901 -0.040362958
0003c0 e3 14 61 bd db b9 5e bd bf ef b8 3d fc fc 63 ba
       -0.05495156 -0.054376464 0.09030103 -0.00086970604
0003d0 50 4f bf 3d c8 93 66 bc 76 99 25 bd 1a 5e d0 bb
       0.093412995 -0.01407332 -0.040429555 -0.006358874
0003e0 d8 0c 77 bd bd 77 1c bd 45 f3 a7 bb 76 66 0d 3d
       -0.060314983 -0.03820013 -0.0051254355 0.034521542
0003f0 e3 99 0c bd dc 97 b3 3d 4e ec 15 3e 17 17 04 be
       -0.034326445 0.08769199 0.14640924 -0.12899433

weight f4 [768]
000000 c6 ee 88 3f 33 78 7e 3f 5c 93 76 3f 5b a5 61 3f
       1.0697868 0.9940216 0.963186 0.8814294
000010 72 80 80 3f ae d5 7a 3f bb fc 92 3f 87 d4 7a 3f
       1.0039198 0.979823 1.1483377 0.9798054
000020 cf 2e 70 3f 98 f8 78 3f 98 6b 8b 3f 8e 06 73 3f
       0.93821424 0.97254324 1.089221 0.94931877
000030 48 a0 8f 3f 4d 6e 83 3f 19 3e 82 3f 88 a0 89 3f
       1.1220789 1.0268036 1.0175201 1.0752115
000040 88 0f 7a 3f 1e 1c 72 3f 0b 2c 80 3f c2 ce 7c 3f
       0.9767995 0.94574153 1.0013441 0.9875299
000050 f8 aa 8b 3f be 35 6e 3f 6f 02 91 3f da 62 79 3f
       1.091155 0.93050754 1.1328868 0.9741646
000060 55 a9 6f 3f c7 bc 79 3f 57 30 71 3f ae 2c 82 3f
       0.93617755 0.97553676 0.94214386 1.0169885
000070 50 3f 58 3f 53 27 82 3f c3 26 86 3f 0b af 84 3f
       0.8447161 1.0168251 1.0480579 1.0365919
000080 3b ab 66 3f 7a 2b 7b 3f 97 12 7b 3f ab 34 78 3f
       0.90105027 0.98113215 0.9807524 0.96955365
000090 93 06 45 3f 3d 02 81 3f e3 c4 6e 3f b4 33 78 3f
       0.76963156 1.0078808 0.93269175 0.9695389
0000a0 05 e0 83 3f 03 f0 87 3f 3a a9 79 3f a8 91 6d 3f
       1.030274 1.0620121 0.97523844 0.9280038
0000b0 45 e5 8b 3f a5 09 79 3f b5 fe 76 3f c5 cf 71 3f
       1.0929343 0.9728034 0.964824 0.94457656
0000c0 ff bb 83 3f ba b8 83 3f a9 6d 60 3f 77 83 88 3f
       1.0291747 1.0290749 0.8766733 1.066512
0000d0 4b 22 85 3f 73 52 83 3f cf 72 82 3f 47 a9 72 3f
       1.040109 1.0259537 1.0191287 0.94789547
0000e0 e3 eb 81 3f 40 b6 80 3f 77 ec 8a 3f 7d 96 8e 3f
       1.0150112 1.0055618 1.0853413 1.1139675
0000f0 4c cc 79 3f 92 71 84 3f de 01 7d 3f f6 44 71 3f
       0.9757736 1.0347159 0.98830974 0.9424585
000100 42 c5 7c 3f 89 88 5b 3f c4 df 87 3f 07 22 25 3f
       0.9873849 0.8575521 1.0615163 0.64505047
000110 2b ca 61 3f 6c f5 65 3f 4f 12 7d 3f 35 f4 83 3f
       0.8819911 0.8982761 0.9885606 1.0308901
000120 08 20 91 3f a0 fa 5a 3f 5f 7a 6e 3f 3f c8 58 3f
       1.13379 0.85538673 0.93155473 0.8468055
000130 d5 93 7c 3f 25 6f 8f 3f 11 43 75 3f ec 6e 71 3f
       0.98663074 1.1205794 0.9580546 0.9430988
000140 ee 32 82 3f fa f1 6d 3f 8e cc 6b 3f 61 59 8a 3f
       1.0171793 0.9294735 0.92109 1.0808526
000150 47 22 80 3f df 11 84 3f 98 8f 6d 3f f2 f9 70 3f
       1.0010461 1.0317954 0.9279723 0.94131386
000160 bf 59 62 3f 5b 94 7e 3f 03 e4 82 3f 65 b6 83 3f
       0.8841819 0.9944512 1.0225834 1.0290037
000170 22 63 89 3f 1a fc 5c 3f af b1 8b 3f ff bf 85 3f
       1.0733378 0.86322176 1.09136 1.0449218
000180 a6 66 83 3f 9e 44 7d 3f 69 7f 82 3f aa 02 91 3f
       1.0265701 0.98932827 1.0195132 1.1328938
000190 86 0c 67 3f 36 c1 8d 3f 7d b1 88 3f 8a 35 7e 3f
       0.90253484 1.1074588 1.0679165 0.99300444
0001a0 d9 74 8a 3f 3a bb 59 3f ed 69 8d 3f 6c a3 62 3f
       1.0816909 0.8505131 1.1047951 0.8853061
0001b0 3c a9 63 3f aa 14 7a 3f 2c 92 84 3f d8 55 6d 3f
       0.88930106 0.9768778 1.0357108 0.9270911
0001c0 86 f8 6c 3f ec a2 78 3f d9 59 88 3f 91 28 73 3f
       0.92566717 0.971236 1.0652419 0.94983774
0001d0 c9 00 82 3f 45 e0 85 3f f5 73 78 3f 20 7f 67 3f
       1.015649 1.0459067 0.97051936 0.9042835
0001e0 57 95 72 3f 0a fe 81 3f 81 68 7b 3f 30 54 6b 3f
       0.94759125 1.0155652 0.98206335 0.91925335
0001f0 d7 2b 69 3f 3d 01 80 3f d6 36 79 3f 36 8f 76 3f
       0.9108252 1.0000378 0.973493 0.9631227
000200 cd a5 92 3f 28 1b 76 3f ff e0 80 3f e9 d6 82 3f
       1.1456848 0.9613519 1.0068663 1.0221835
000210 48 27 7b 3f bc f8 71 3f 1c ff 85 3f a1 dd 6a 3f
       0.98106813 0.94520164 1.0468478 0.9174443
000220 d3 9e 85 3f dd 19 84 3f c7 47 73 3f 2e 1e 8d 3f
       1.0439094 1.0320393 0.950314 1.1024835
000230 bb 16 62 3f 71 b6 8d 3f f5 82 90 3f a1 51 78 3f
       0.88315934 1.1071302 1.1289965 0.96999556
000240 8c 20 89 3f f8 5d 77 3f fb 35 80 3f ba 64 87 3f
       1.0713058 0.9662776 1.0016474 1.0577614
000250 37 86 82 3f 70 65 78 3f a4 8a 7f 3f 8d a3 81 3f
       1.0197209 0.9702978 0.99820924 1.0128037
000260 5a d1 87 3f d9 e5 86 3f 74 05 81 3f 90 1d 85 3f
       1.0610764 1.0538894 1.0079789 1.0399647
000270 e4 21 82 3f 2b 86 5c 3f c3 e3 46 3f 0c 29 79 3f
       1.0166593 0.86142224 0.77691287 0.9732826
000280 b2 cf 8c 3f 11 b2 88 3f 8a 70 7a 3f 32 90 85 3f
       1.1000884 1.0679342 0.9782797 1.043463
000290 81 4a 71 3f f6 a8 8a 3f 9e 7d 8c 3f 68 82 82 3f
       0.9425431 1.0832813 1.0975835 1.0196047
0002a0 4f 1b 77 3f a7 5d 7e 3f 84 4c 73 3f e3 7e 80 3f
       0.96526045 0.9936165 0.9503863 1.0038723
0002b0 c9 a7 74 3f 7b 6e 66 3f 39 fd 6e 3f 6c 3f 89 3f
       0.9556852 0.9001233 0.9335514 1.072248
0002c0 22 0c 83 3f c7 98 83 3f 67 e5 8a 3f 4e 9a 76 3f
       1.0238078 1.0280999 1.0851258 0.963292
0002d0 06 cd 75 3f bc 3d 85 3f 70 1e 6b 3f c6 57 81 3f
       0.96015966 1.0409465 0.9184332 1.0104911
0002e0 da 6a 71 3f 4d 05 8b 3f cc 5b 64 3f 80 20 7c 3f
       0.9430367 1.0860993 0.8920257 0.9848709
0002f0 73 ec 86 3f 4e 88 66 3f e2 76 8a 3f c0 85 78 3f
       1.0540909 0.90051734 1.081753 0.97079086
000300 df 78 6f 3f 3a bf 82 3f 2b f8 4c 3f a9 fb 66 3f
       0.9354381 1.0214608 0.80066174 0.9022775
000310 e9 6a 84 3f 70 db 7b 3f 25 53 6f 3f f2 9d 75 3f
       1.0345126 0.9838171 0.93486243 0.9594413
000320 42 07 84 3f fd bd 71 3f df 2f 85 3f 21 40 7f 3f
       1.0314715 0.94430524 1.0405234 0.9970723
000330 cd 09 84 3f 71 56 84 3f c5 6c 75 3f 49 be 84 3f
       1.0315491 1.033888 0.95869094 1.037057
000340 f0 13 86 3f ca 0e 84 3f c5 eb 78 3f 90 86 88 3f
       1.0474834 1.0317013 0.97234756 1.0666065
000350 f1 27 78 3f e2 3f 8a 3f 31 1b 89 3f 5d 69 67 3f
       0.96935946 1.0800745 1.0711423 0.90395147
000360 d7 b8 8e 3f 47 e5 86 3f c7 a4 75 3f 6b be 86 3f
       1.1150159 1.053872 0.95954555 1.0526861
000370 ee 9b 7c 3f 93 9c 53 3f c6 4d 72 3f 6e ab 7c 3f
       0.9867543 0.8266079 0.9464992 0.9869908
000380 d6 73 73 3f c0 e6 89 3f 80 2a 84 3f a0 41 87 3f
       0.95098627 1.0773544 1.032547 1.0566902
000390 64 a8 85 3f 6a 19 79 3f 44 4e 7b 3f 6d a5 8a 3f
       1.0442014 0.97304404 0.981663 1.0831734
0003a0 ec 0e 6f 3f 99 c5 5d 3f 3a 0c 87 3f 51 1b 5a 3f
       0.93382144 0.86629635 1.0550606 0.8519793
0003b0 ef 0f 78 3f 26 63 81 3f 77 97 84 3f 8e 48 89 3f
       0.9689931 1.0108383 1.0358723 1.0725267
0003c0 ee 8c 76 3f 48 39 92 3f 14 9f 82 3f ec 0d 8b 3f
       0.9630879 1.1423731 1.0204797 1.0863624
0003d0 90 f5 80 3f 91 69 44 3f 16 c4 80 3f 10 8b 68 3f
       1.007494 0.7672358 1.0059841 0.9083719
0003e0 93 18 74 3f 9a f4 83 3f 91 f7 7c 3f e1 7b 78 3f
       0.9535 1.0309021 0.98815256 0.97064024
0003f0 6f 2e 85 3f 5a ba 74 3f 91 84 8b 3f e6 bd 89 3f
       1.0404795 0.9559685 1.0899831 1.0761077
