subject-models/ada-0626/michelleyeoh2023-06-26T15-12-54_michelleyeoh-ada/embeddings_gs-4500.pt (torch, 836552 bytes, 168 tensors)

pre_vecs f4 [2, 768]
-0.02216409 -0.012381046 0.013084556 0.031185072 -0.02966237 0.008470923 -0.0043942924 -0.014121244
-0.023640478 -0.006716568 0.006291172 -0.025748488 -0.0075424206 -0.013968136 0.0101593435 0.018817969
-0.0026787044 -0.0011244635 -0.02699285 0.0016229876 0.0046349275 0.026733603 0.010546646 -0.024347838
0.009459652 -0.0007898223 0.009344946 -0.0113806 -0.0016310273 -0.0011289343 0.019878369 0.0036469514
0.006699331 0.0036789526 0.019407421 0.05267696 -0.015155555 0.025663355 -0.03296359 0.014629087
0.008704331 0.012496632 0.015842302 0.004075612 -0.009303203 -0.012299491 0.010697178 0.0023452342
-0.03150404 -0.017433057 0.015879732 0.005645875 -0.0032485079 -0.00214007 -0.025589667 -0.009403211
0.006325582 -0.00045292143 0.029050052 0.0004923922 0.0037998394 0.0073648174 0.018792745 -0.0029702266
-0.013071067 -0.016909173 0.00020078971 0.027952287 0.011883633 0.011701921 -0.017160265 -0.025583748
-0.0063701817 0.006522046 -0.009097398 0.010838032 -0.018968765 -0.0023340497 0.0068912474 0.005152278
-0.014281042 0.005031496 0.007801033 -0.025219982 -0.007955165 0.014963715 -0.000883997 0.005196512
0.0047146482 -0.01136951 0.006270658 0.008509786 0.01316201 -0.008040505 -0.019473039 0.008711377
-0.00052407867 -0.003083608 0.012456995 0.022602208 -0.016107578 0.021605356 0.0047358116 0.0047896923
-0.0069269636 -0.00926645 0.00877956 0.008938063 -0.020477569 -0.018534826 0.013028661 0.006324853
0.0040632035 0.021753324 0.005411153 0.010655611 -0.03486352 0.0054493546 -0.016492883 -0.001977274
0.00679442 -0.028068637 -0.008146252 -0.017631749 -0.022199508 -0.0014777493 -0.009092653 -0.0021456818
-0.0030307358 -0.018493084 0.0072828177 0.011253371 -0.026032204 0.0051907017 0.017064504 0.014291997
-0.01749477 -0.036265675 0.0074767363 -0.007848839 -0.02567961 -0.010711755 -0.011351821 -0.005724379
0.012087823 -0.01030263 0.014001588 -0.007649416 0.018382443 0.010089823 0.01779609 0.012426486
-0.017975645 0.014167508 -0.030950384 0.028179469 0.023552854 0.014562158 -0.014904343 -0.01678131
0.013690884 0.031767868 0.038705025 0.007752946 -0.00043465328 -0.005858227 -0.005378895 -0.021414554
0.01014135 0.0006413585 -0.014843119 0.018849483 0.0014022166 0.0032031378 0.005871802 0.015860692
-0.011370468 -0.025484253 -0.0040969243 0.005888238 -0.01996907 0.014211179 0.014506268 0.0036880828
0.004836416 0.0035134812 -0.014167296 0.011087121 -0.00704927 0.012462598 -0.00558746 0.008283793
0.0108455755 -0.0057791644 -0.022941276 0.0063890745 0.033370182 0.015845459 0.0132143 0.0015675972
0.0005863128 0.006858683 -0.01999993 -0.0015860801 0.0013277405 -0.011217707 -0.0018951686 0.006458437
0.023206282 0.010321376 0.018807214 -0.002628788 -0.0025172255 0.014520669 -0.01704779 -0.039213933
0.015641568 0.027867349 0.006175804 0.0034435128 0.025506668 0.006052993 -0.0010675496 -0.0010713796
-0.010126051 -0.0028580462 -0.002795236 0.017515276 0.037153672 0.009071572 0.036895987 0.004459669
-0.0016945838 -0.015910698 0.008510107 0.009970889 -0.002225541 0.0030201671 0.031479575 -0.0021403746
0.010068263 0.0067600873 0.001912777 0.02636634 -0.0008762428 -0.014916264 -0.01613168 -0.010987064
0.013459343 0.020565089 -0.012240312 0.039764747 0.0006772752 -0.036028955 -0.017653441 0.007905842
00000000: 7791 b5bc dfd9 4abc 9b60 563c d677 ff3c
00000010: 80fe f2bc a0c9 0a3c fffd 8fbb ca5c 67bc
00000020: ada9 c1bc a816 dcbb 2d26 ce3b 7eee d2bc
00000030: 6926 f7bb 9cda 64bc 6073 263c 2428 9a3c
00000040: 348d 2fbb bc62 93ba 1c20 ddbc 6dba d43a
00000050: 97e0 973b 6e00 db3c d7cb 2c3c 1e75 c7bc
00000060: a8fc 1a3c 140c 4fba 8b1b 193c b275 3abc
00000070: 32c8 d5ba c0f8 93ba f6d7 a23c b101 6f3b
00000080: 1086 db3b 951a 713b 50fc 9e3c ccc3 573d
00000090: 014f 78bc f53b d23c d404 07bd d7ae 6f3c
000000a0: 9c9c 0e3c acbe 4c3c b7c7 813c b68c 853b
000000b0: 766c 18bc ce83 49bc 3743 2f3c 80b2 193b
000000c0: 610a 01bd c5cf 8ebc 3616 823c 0801 b93b
000000d0: ebe4 54bb 6b40 0cbb 6ca1 d1bc ed0f 1abc
000000e0: d446 cf3b 1676 edb9 60fa ed3c e213 013a
000000f0: ba06 793b 9154 f13b 3ef3 993c 22a8 42bb
00000100: 0728 56bc 1b85 8abc 148b 5239 32fc e43c
00000110: 92b3 423c 6ab9 3f3c af93 8cbc 0295 d1bc
00000120: f5bc d0bb e3b6 d53b 410d 15bc 0092 313c
00000130: 6264 9bbc dbf6 18bb f9cf e13b 71d4 a83b
00000140: 08fb 69bc 3fdf a43b cf9f ff3b 239a cebc
00000150: 6156 02bc 5f2a 753c 09bc 67ba 8147 aa3b
00000160: 567d 9a3b 2e47 3abc 187a cd3b a16c 0b3c
00000170: 79a5 573c 53bc 03bc ec85 9fbc 2aba 0e3c
00000180: 5362 09ba 5c16 4abb 6d18 4c3c 4428 b93c
00000190: 0af4 83bc b7fd b03c de2e 9b3b daf2 9c3b
000001a0: 95fb e2bb 4fd2 17bc 25d8 0f3c f470 123c
000001b0: 93c0 a7bc 59d6 97bc 2a76 553c b640 cf3b
000001c0: 9f24 853b 0734 b23c 0b50 b13b df94 2e3c
000001d0: 0dcd 0ebd 8090 b23b 151c 87bc 2795 01bb
000001e0: baa3 de3b 33f0 e5bc db77 05bc 7570 90bc
000001f0: bedb b5bc 0ab1 c1ba 5af9 14bc 919e 0cbb
00000200: 4f9f 46bb cf7e 97bc b4a4 ee3b 0f60 383c
00000210: 7d41 d5bc c316 aa3b dcca 8b3c fb28 6a3c
00000220: 3151 8fbc 518b 14bd 69ff f43b 6b98 00bc
00000230: 0c5e d2bc 5b80 2fbc fdfc 39bc 9293 bbbb
00000240: 010c 463c 5dcc 28bc eb66 653c f4a7 fabb
00000250: c796 963c c94f 253c 1bc9 913c 7698 4b3c
00000260: a941 93bc d61e 683c a98b fdbc a1d8 e63c
00000270: eaf1 c03c 1e96 6e3c 5831 74bc f578 89bc
00000280: bb4f 603c 061f 023d 2989 1e3d 6d0c fe3b
00000290: 2de2 e3b9 5ff6 bfbb 7141 b0bb 936d afbc
000002a0: e827 263c d720 283a 8e30 73bc 3b6a 9a3c
000002b0: 95ca b73a bceb 513b 3f68 c03b 48ee 813c
000002c0: 334b 3abc 5ac4 d0bc 7e3f 86bb 1ff2 c03b
000002d0: 2d96 a3bc 01d6 683c b3ab 6d3c c3b3 713b
000002e0: cc7a 9e3b 6f42 663b f21d 68bc c2a6 353c
000002f0: 90fd e6bb ed2f 4c3c 0317 b7bb bfb8 073c
00000300: a4b1 313c 255f bdbb 58ef bbbc 715b d13b
00000310: 2caf 083d 56ce 813c cb80 583c d577 cd3a
00000320: c9b2 193a cebe e03b e5d6 a3bc 04e4 cfba
00000330: 9407 ae3a 79ca 37bc 4e67 f8ba 4ca1 d33b
00000340: 1a1b be3c fd1a 293c 9611 9a3c be47 2cbb
00000350: 09f8 24bb 1ae8 6d3c cfa7 8bbc ca9e 20bd
00000360: bf22 803c 114a e43c 665e ca3b 8fac 613b
00000370: 5cf3 d03c 2f58 c63b 05ed 8bba 896d 8cba
00000380: bce7 25bc 0f4e 3bbb 4730 37bb 327c 8f3c
00000390: 732e 183d eea0 143c 3f20 173d 6a22 923b
000003a0: cc1c deba 2757 82bc fa6d 0b3c f15c 233c
000003b0: 62da 11bb ffed 453b baf0 003d 8745 0cbb
000003c0: 5bf5 243c b983 dd3b 25b6 fa3a 39fe d73c
000003d0: a9b3 65ba 5963 74bc 9626 84bc 1603 34bc
000003e0: 9484 5c3c 1e78 a83c 978b 48bc 5ce0 223d
000003f0: 2b8b 313a 1993 13bd f39d 90bc 8187 013c

basis_rand_weights f4 [16, 5]
0.053369004 -0.058608487 -0.07706422 -0.17624368 -0.2265643 0.0075807734 -0.0047077285 0.16604456
-0.059733443 0.057514727 -0.003162403 0.018339332 0.045391448 0.051601045 0.15829423 -0.0029423176
-0.014219565 -0.0704571 -0.08293126 0.20682284 0.013796511 0.009730575 -0.1002376 0.115804575
0.14936554 -0.009363693 -0.04156341 0.24847305 0.19395067 0.02141557 -0.033315927 0.044562213
0.06957583 0.036808316 0.106859624 0.1889182 -0.19158697 0.084781736 -0.21187 -0.12931651
-0.08413763 0.025167529 -0.057168946 0.31487787 -0.18952383 -0.07325442 0.009598348 0.15860082
0.06448384 -0.028616073 -0.05810327 -0.06149106 0.06563982 0.15793161 0.31211582 -0.08253683
-0.026480729 0.43461946 0.039823234 -0.0823429 0.12871796 -0.06764952 0.07560557 -0.1859195
0.037954226 -0.023469225 0.103911854 0.032712612 0.045100212 -0.20548226 0.069153376 -0.06740241
-0.056956757 -0.2278045 -0.11807861 -0.020493733 0.06247114 0.10749344 -0.1485338 0.024230532
00000000: 7599 5a3d 740f 70bd d9d3 9dbd 3979 34be
00000010: 7900 68be 2368 f83b 4a43 9abb 9607 2a3e
00000020: 0eab 74bd 9094 6b3d 5140 4fbb 5e3c 963c
00000030: 62ec 393d 9e5b 533d e217 223e e6d3 40bb
00000040: 2ef9 68bc d04b 90bd ddd7 a9bd 5ec9 533e
00000050: c30a 623c fd6c 1f3c 5f49 cdbd f32a ed3d
00000060: 48f3 183e 2d6a 19bc 653e 2abd b86f 7e3e
00000070: 019b 463e b56f af3c 4876 08bd de86 363d
00000080: c67d 8e3d 51c4 163d 38d9 da3d c673 413e
00000090: 602f 44be 0ca2 ad3d 73f4 58be 8c6b 04be
000000a0: 5a50 acbd 222c ce3c fc29 6abd ac37 a13e
000000b0: 8912 42be 6a06 96bd 6442 1d3c 4168 223e
000000c0: 1a10 843d 416c eabc b2fd 6dbd 0dde 7bbd
000000d0: 2c6e 863d d3b8 213e a5cd 9f3e 1209 a9bd
000000e0: 1dee d8bc 7186 de3e b01d 233d 65a3 a8bd
000000f0: a4ce 033e d58b 8abd 18d7 9a3d ae61 3ebe
00000100: e475 1b3d 8842 c0bc bdcf d43d a9fd 053d
00000110: 00bb 383d f169 52be 49a0 8d3d 460a 8abd
00000120: 7d4b 69bd 9545 69be 33d3 f1bd 79e2 a7bc
00000130: bde1 7f3d 8525 dc3d 3f19 18be 1c7f c63c

basis_vecs f4 [3, 768]
0.004881166 -0.022125164 0.035610646 0.037047856 -0.032197386 0.009902804 -0.023468649 -0.019665353
-0.014857232 -0.02334016 0.017174201 0.030529136 -0.005620882 -0.0029742823 -0.026978293 0.02485762
-0.039915413 -0.02124478 -0.02646342 3.2355501e-06 -0.0016742657 0.032047477 -0.004895936 -0.037964497
0.018782124 -0.0044673313 -0.02092935 -0.023716034 -0.059184887 0.039045766 -3.7341062e-05 -0.02331965
-0.0025114804 0.03375803 0.03357584 0.0858103 0.009924475 0.030359857 -0.011572764 0.011030317
0.020856133 0.024748983 0.042278133 0.009416918 -0.00014028524 -0.04455862 0.009786359 0.019001553
0.002909257 -0.011728268 0.008009539 -0.029229486 0.010305551 0.019448947 -0.026882786 0.012289234
-0.002328594 -0.0057082227 0.037040662 0.037674833 -0.04204051 -0.006481127 0.017399559 -0.0052884445
0.00421942 -0.039029833 0.04777733 -0.023578577 -0.022162136 0.00044252575 -0.027862068 0.0022403726
-0.004447593 0.00609077 0.004102343 0.04757189 -0.0017568218 0.03557563 -0.006518517 0.042091012
-0.017848333 -0.0044060713 0.02351423 -0.00686625 0.016177097 -0.008091027 0.03026626 -0.012075619
-0.018634023 0.00936403 -0.02073308 0.03926382 0.020266267 -0.014754676 -0.0021834034 -0.032013975
-0.017087443 -0.01311114 0.0010228744 0.04783997 -0.003522983 0.0416941 -0.008444411 0.018099103
0.0144742485 -0.04401042 0.04899615 0.003098526 -0.048853002 -0.025801096 0.03217543 -0.006567344
-0.0055809766 0.045783952 -0.0029988266 0.011053684 -0.011733484 -0.016847892 0.037254684 0.03524379
-0.0002978858 -0.045653995 -0.038740963 -0.024016138 -0.022610309 -0.0069801947 -0.03548674 0.035837367
0.00052598247 -0.0074874447 0.005835043 -0.0048581976 -0.04682719 -0.05169986 0.002550193 0.0073941816
0.0025809759 -0.0024412265 0.024011424 0.011210115 -0.015812626 0.017422717 0.0155157335 -0.03483683
0.03620732 -0.04076779 0.054996617 0.00218404 0.041423675 -0.005608065 -0.050348744 -0.037853897
0.034612782 0.035535175 -0.013680298 0.015081558 0.04339813 -0.0074170316 -0.008240775 0.009058108
0.029134635 0.0064221644 0.048830185 0.026850246 0.016224038 0.0107494015 -0.031386483 -0.028401582
0.018248549 0.012560837 -0.016817546 0.029863523 0.018953789 0.03849007 0.041090213 0.014887315
-0.013929546 -0.016992353 -0.009103913 0.044450972 0.041852053 0.026689522 0.0093116015 -0.013546235
0.0063792733 -0.020228453 -0.002815725 -0.034845818 -0.05212007 -0.0130453035 -0.007721175 0.022052962
0.01285203 -0.04451956 -0.04050295 0.02461877 0.03753341 0.030427411 0.03638152 0.02941593
-0.0014265163 -0.011795579 0.009332122 -0.0005240548 0.06649307 -0.027603718 0.0045631435 -0.0016744275
0.048849624 0.056764726 0.06631411 -0.009151698 -0.029423514 0.0011439213 -0.016218984 -0.03383625
0.046131134 0.03946536 -0.0073046624 -0.015083628 -0.011368537 -0.05799513 0.018347528 -0.0048243594
0.0051464164 0.00703407 0.0053989487 -0.0034941805 -0.0123042865 0.062231053 0.00712228 -0.018287988
0.028878802 0.0009283385 -0.029191343 0.018321736 0.007965642 -0.005707065 0.02256737 -0.060914945
0.07184504 -0.01955336 5.7500278e-05 -0.012881158 0.043343503 -0.007807654 -0.022601431 -0.01708878
0.040480226 0.025501573 -0.03301486 0.03206516 0.0053523784 -0.00914077 -0.05484999 0.0075539914
00000000: 30f2 9f3b d53f b5bc 78dc 113d 7ebf 173d
00000010: 68e1 03bd 5f3f 223c 5341 c0bc 3c19 a1bc
00000020: bf6b 73bc dd33 bfbc e9b0 8c3c 3d18 fa3c
00000030: 602f b8bb 2dec 42bb 9501 ddbc 35a2 cb3c
00000040: 587e 23bd 8809 aebc d0c9 d8bc 5422 5936
00000050: 0973 dbba 3744 033d 176e a0bb a980 1bbd
00000060: f8dc 993c b162 92bb 0774 abbc 2148 c2bc
00000070: da6b 72bd 74ee 1f3d a99e 1cb8 da08 bfbc
00000080: a697 24bb dc45 0a3d d286 093d 50bd af3d
00000090: 449a 223c 3cb5 f83c b19b 3dbc 81b8 343c
000000a0: 7bda aa3c 61be ca3c d62b 2d3d 6b49 1a3c
000000b0: 8819 13b9 1983 36bd f756 203c 25a9 9b3c
000000c0: 3ca9 3e3b ec27 40bc 713a 033c ad72 efbc
000000d0: 9dd8 283c 6653 9f3c 4a39 dcbc c958 493c
000000e0: 539b 18bb 0b0c bbbb f3b7 173d ed50 1a3d
000000f0: ab32 2cbd a25f d4bb 8589 8e3c b04a adbb
00000100: 0f43 8a3b bfdd 1fbd 29b2 433d dc27 c1bc
00000110: 5e8d b5bc cd02 e839 fe3e e4bc 37d3 123b
00000120: 1dbd 91bb 1595 c73b f36c 863b beda 423d
00000130: 2845 e6ba c0b7 113d 4999 d5bb a067 2c3d
00000140: ab36 92bc ce60 90bb eaa0 c03c 48fe e0bb
00000150: d585 843c 3a90 04bc f3f0 f73c d1d8 45bc
00000160: 61a6 98bc 976b 193c 6cd8 a9bc 19d3 203d
00000170: 7105 a63c 99bd 71bc 6e17 0fbb 1621 03bd
00000180: f7fa 8bbc 1bd0 56bc f811 863a d8f3 433d
00000190: d9e1 66bb 6fc7 2a3d 6d5a 0abc 9244 943c
000001a0: 6625 6d3c 4544 34bd 30b0 483d a410 4b3b
000001b0: 161a 48bd d25c d3bc 62ca 033d e032 d7bb
000001c0: a0e0 b6bb f487 3b3d f687 44bb 831a 353c
000001d0: cd3d 40bc 9704 8abc 5e98 183d cb5b 103d
000001e0: 8e2d 9cb9 afff 3abd d8ae 1ebd 7ebd c4bc
000001f0: 4139 b9bc 1eba e4bb 8b5a 11bd 34ca 123d
00000200: 16e2 093a 3d59 f5bb e333 bf3b 8431 9fbb
00000210: decd 3fbd 3bc3 53bd 2421 273b e44a f23b
00000220: 9725 293b fcfc 1fbb 9bb3 c43c a1aa 373c
00000230: 7b89 81bc 16ba 8e3c b435 7e3c 10b1 0ebd
00000240: 204e 143d 20fc 26bd 2244 613d 1c22 0f3b
00000250: dfab 293d dcc3 b7bb 7c3a 4ebd b00c 1bbd
00000260: 22c6 0d3d 558d 113d 5423 60bc a418 773c
00000270: 3dc2 313d 920a f3bb 5104 07bc 7568 143c
00000280: c2ab ee3c 0571 d23b 2902 483d 0cf5 db3c
00000290: 46e8 843c 421e 303c 1d8f 00bd 6faa e8bc
000002a0: fb7d 953c f8cb 4d3c f3c4 89bc 59a4 f43c
000002b0: fa44 9b3c c3a7 1d3d 364e 283d ede9 733c
000002c0: c038 64bc 8c33 8bbc 9428 15bc 3912 363d
000002d0: 0f6d 2b3d fca3 da3c b08f 183c 07f1 5dbc
000002e0: 3909 d13b 24b6 a5bc 0788 38bb 7dba 0ebd
000002f0: db7b 55bd f8bb 55bc e901 fdbb 6aa8 b43c
00000300: 5291 523c 245a 36bd 6ce6 25bd 4ead c93c
00000310: a2bc 193d e842 f93c ca04 153d adf9 f03c
00000320: f2f9 baba 3f42 41bc c2e5 183c b960 09ba
00000330: 852d 883d 3121 e2bc 6c86 953b 7778 dbba
00000340: 8b16 483d 2182 683d b1cf 873d 01f1 15bc
00000350: 9509 f1bc a1ef 953a addd 84bc e197 0abd
00000360: 00f4 3c3d 6ea6 213d f35b efbb 5221 77bc
00000370: 1a43 3abc 4d8c 6dbd 8e4d 963c a915 9ebb
00000380: 45a3 a83b 0e7e e63b aae9 b03b 9ffe 64bb
00000390: eb97 49bc fde5 7e3d 0462 e93b b1d0 95bc
000003a0: 3d93 ec3c be5b 733a af22 efbc 7717 963c
000003b0: 5382 023c 5502 bbbb 35df b83c f381 79bd
000003c0: 7e23 933d 5e2e a0bc 742c 7138 7e0b 53bc
000003d0: f588 313d 59d7 ffbb a326 b9bc c5fd 8bbc
000003e0: 98ce 253d ade8 d03c 973a 07bd c256 033d
000003f0: 0163 af3b 2bc3 15bc 62aa 60bd 7987 f73b

basis_comm_weights f4 [1, 5]
0.25372887 0.6291829 0.3328768 0.29444882 0.23300518
00000000: c0e8 813e 2112 213f d46e aa3e ffc1 963e
00000010: e998 6e3e

bias f4 [16, 768]
0.023859406 -0.032705836 -0.043742273 0.033175983 0.030973682 -0.019870615 0.031256154 0.05163266
-0.019523898 0.005978426 -0.0006571742 0.053125065 0.021890117 -0.017049396 -0.024705164 -0.058148574
-0.007576663 0.029588366 -0.007848913 -0.02499788 0.035789095 0.015071256 0.075465485 0.004537647
0.030981665 0.004654218 -0.043701656 0.047158368 -0.026434824 0.054076493 -0.019439893 0.020306055
-0.03391026 0.010713953 0.004659052 -0.014943858 -0.02130176 -0.019006643 0.011165365 -0.003342141
-0.042166676 -0.020203965 0.055397168 0.057075914 0.05166396 -0.006448419 0.035616085 -0.03486703
-0.0027267325 -0.038336817 -0.075178094 -0.009091547 0.010451681 -0.050122455 -0.059254464 0.09694665
0.00877946 0.012191987 0.023293223 0.020520959 -0.05733472 0.06988421 0.053253364 -0.032524414
-0.03132001 0.008041846 0.04146258 -0.038699564 0.057699863 0.006478051 -0.0037973314 -0.06989862
-0.0042088456 -0.0010445382 -0.017765194 0.009781182 0.06198352 -0.04241786 -0.01984138 -0.038622916
0.030399479 0.097557805 0.028399186 0.017703447 0.01529528 0.008753338 -0.075039886 0.008781577
0.05901344 0.08540204 -0.028304096 0.0045950394 0.008283446 -0.045925934 0.0036699388 0.0011860952
0.0312571 0.014577486 0.017321574 0.079670355 0.069570094 0.005862043 0.031234378 0.009175152
-0.02602999 -0.016751401 0.064251326 0.007498622 0.018756844 -0.060389113 0.0048465026 -0.048038285
-0.09742746 0.043925058 -0.025011709 -0.052753698 -0.019997029 0.009806237 -0.030174231 -0.042845346
0.031882077 0.012618686 -0.022628685 -0.032666493 -0.10426746 0.019322395 -0.0054317247 0.07803447
-0.009168225 -0.033027206 0.08125821 0.04792344 -0.059552535 0.006178536 -0.039525785 0.0064126235
0.029184077 0.0019824961 0.0356956 0.06618339 0.0018541745 0.008681006 0.016044166 -0.008113745
0.031450607 0.00078604196 0.06616415 0.040077552 0.012617778 0.032720625 -0.0058007827 0.01589081
0.015955444 0.008376787 0.001091259 0.034891717 0.028024975 -0.061940398 -0.011748431 0.024381902
0.03156453 0.060234353 0.019990658 0.0022782977 0.054068103 0.015039939 -0.030763991 0.028938556
-0.0266119 0.06345109 0.06251748 -0.04555609 0.03337239 0.020602634 -0.03714909 -0.09273437
-0.011210402 -0.0002065547 0.0016659712 0.04843883 -0.011574766 0.01442562 0.07245835 0.045605775
0.008850494 0.047041543 -0.004606754 0.016377999 0.017277189 -0.016191315 0.04731876 -0.035029713
0.07634213 -0.021790018 -0.01717568 -0.1135437 0.05521864 -0.026442537 0.022888554 0.046375323
0.009353619 0.041163005 0.027109807 -0.011003595 -0.013641972 -0.075864695 0.05936728 -0.047848396
0.03280591 0.008980499 -0.06825946 -0.03528082 0.0017631103 -0.039082244 0.037727248 -0.0404106
-0.0151842795 -0.023662062 0.015687924 -0.058988497 0.028044878 -0.024607135 0.01676907 -0.015928242
-0.025938813 -0.019070834 -0.036176134 0.013061135 0.023366041 -0.033172347 0.012209549 -0.027572371
-0.030324457 0.02156493 0.064666316 -0.022833526 0.016236005 -0.09583252 0.036128905 0.020912927
0.01156991 -0.1105133 0.033439003 0.0074805156 0.048467174 -0.058556266 0.0020766868 0.044045072
0.036585934 0.007724945 -0.0007941572 0.05325976 0.044062298 0.045623954 0.02581536 0.054790046
00000000: cd74 c33c 8ef6 05bd 192b 33bd 8ae3 073d
00000010: 85bc fd3c b3c7 a2bc 7406 003d c57c 533d
00000020: 95f0 9fbc ace6 c33b 3746 2cba ab99 593d
00000030: e752 b33c 2dab 8bbc 7c62 cabc 332d 6ebd
00000040: a845 f8bb 4d63 f23c ba98 00bc 5bc8 ccbc
00000050: 9697 123d 6eed 763c a68d 9a3d 8bb0 943b
00000060: 43cd fd3c 6982 983b 8200 33bd 2229 413d
00000070: d88d d8bc 507f 5d3d 6940 9fbc e258 a63c
00000080: 7ce5 0abd 9389 2f3c f6aa 983b 15d7 74bc
00000090: 0781 aebc d2b3 9bbc efee 363c d207 5bbb
000000a0: f7b6 2cbd c982 a5bc 24e8 623d 6fc8 693d
000000b0: 979d 533d 424d d3bb 2ce2 113d bbd0 0ebd
000000c0: fbb2 32bb 1107 1dbd f9f6 99bd b6f4 14bc
000000d0: 873d 2b3c 344d 4dbd cfb4 72bd f78b c63d
000000e0: b9d7 0f3c e6c0 473c 6ed1 be3c 921b a83c
000000f0: d0d7 6abd 741f 8f3d 3320 5a3d 5238 05bd
00000100: 6949 00bd f2c1 033c abd4 293d 6f83 1ebd
00000110: b156 6c3d d545 d43b a6dc 78bb 0227 8fbd
00000120: 5bea 89bb e3e8 88ba 5088 91bc 4041 203c
00000130: 6ee2 7d3d 5abe 2dbd 648a a2bc 1033 1ebd
00000140: 5408 f93c 63cc c73d 69a5 e83c d206 913c
00000150: 0e99 7a3c 296a 0f3c 83ae 99bd 9be0 0f3c
00000160: 14b8 713d 44e7 ae3d fedd e7bc fc91 963b
00000170: 4ab7 073c d51c 3cbd 5b83 703b c076 9b3a
00000180: 7207 003d 68d6 6e3c f9e5 8d3c 362a a33d
00000190: c47a 8e3d 6116 c03b 3ddf ff3c 6053 163c
000001a0: d83c d5bc 3c3a 89bc 3396 833d 00b7 f53b
000001b0: f4a7 993c 935a 77bd 69cf 9e3b cbc3 44bd
000001c0: 0c88 c7bd c3ea 333d 5be5 ccbc 4314 58bd
000001d0: cfd0 a3bc 57aa 203c f32f f7bc 9a7e 2fbd
000001e0: c896 023d 9bbe 4e3c cb5f b9bc 4dcd 05bd
000001f0: 2e8a d5bd 004a 9e3c 9cfc b1bb 89d0 9f3d
00000200: 5336 16bc 8947 07bd b46a a63d 5e4b 443d
00000210: 5ced 73bd 5175 ca3b cae5 21bd fc20 d23b
00000220: 7213 ef3c c4ec 013b 8d35 123d 288b 873d
00000230: c607 f33a c73a 0e3c 0e6f 833c 83ef 04bc
00000240: 5ad2 003d 620e 4e3a 1281 873d 5c28 243d
00000250: ccba 4e3c 1006 063d 7e14 bebb 722d 823c
00000260: feb4 823c cb3e 093c 9308 8f3a 9eea 0e3d
00000270: a294 e53c 37b5 7dbd 7e7c 40bc 8ebc c73c
00000280: cf49 013d 4cb8 763d 73c3 a33c 7e4f 153b
00000290: 8476 5d3d 146a 763c c404 fcbc 8d10 ed3c
000002a0: 3301 dabc a5f2 813d 2a09 803d 0699 3abd
000002b0: 7db1 083d dbc6 a83c a529 18bd 84eb bdbd
000002c0: d5ab 37bc 9b96 58b9 b85c da3a cb67 463d
000002d0: 16a4 3dbc 7059 6c3c 0b65 943d 1fcd 3a3d
000002e0: aa01 113c a2ae 403d 41f4 96bb 272b 863c
000002f0: e488 8d3c a6a3 84bc 51d1 413d 517b 0fbd
00000300: 4359 9c3d fb80 b2bc 03b4 8cbc 9989 e8bd
00000310: f12c 623d 059e d8bc c780 bb3c 0df4 3d3d
00000320: ec3f 193c 8a9a 283d 6315 de3c 6c48 34bc
00000330: 9482 5fbc f35e 9bbd 1b2b 733d aefc 43bd
00000340: 7d5f 063d f122 133c 9ecb 8bbd 9f82 10bd
00000350: 2a18 e73a b414 20bd e387 1a3d 9685 25bd
00000360: 7cc7 78bc f1d6 c1bc f683 803c ec9d 71bd
00000370: 5fbe e53c e794 c9bc 4a5f 893c f27b 82bc
00000380: a27d d4bc 703a 9cbc 6d2d 14bd 5ffe 553c
00000390: 246a bf3c badf 07bd 8f0a 483c 74df e1bc
000003a0: ff6a f8bc f0a8 b03c c66f 843d 600d bbbc
000003b0: 5f01 853c d743 c4bd e7fb 133d 9651 ab3c
000003c0: b88f 3d3c cc54 e2bd 56f7 083d 1d1f f53b
000003d0: 8485 463d b2d8 6fbd 0619 083b 9b68 343d
000003e0: 22db 153d 8921 fd3b fd2e 50ba e826 5a3d
000003f0: ab7a 343d 2fe0 3a3d bc7a d33c 876b 603d

weight f4 [768]
0.94456685 0.978629 0.8474269 1.1075747 0.91481996 0.986704 0.93967235 1.0485376
1.0000262 0.94851255 1.0718986 1.126455 0.8296727 0.8963078 1.0414795 0.98229384
0.970648 0.89004934 0.9879117 0.8901718 1.0211986 1.0091287 0.979398 1.0211964
1.037865 0.94481564 0.9466224 0.919507 1.1427506 1.0668509 0.97291774 0.8793592
1.0737398 1.0072573 1.0017592 1.006694 0.96986383 0.8936515 0.97029877 0.99799234
0.96543926 0.9685234 1.0546459 0.85917836 0.9820245 0.95336014 0.9860718 1.0255694
0.9500074 0.8388532 0.9170405 1.0080237 0.9620537 0.82740885 1.1363479 1.1670423
0.9953167 0.97657764 1.0100608 1.0493574 1.0940654 0.96000594 1.0939023 0.9964532
0.8499215 0.9890824 1.0397942 0.99329585 0.84134626 0.9447664 0.9768007 1.1319062
0.95811 0.90586936 0.95588595 1.0082383 1.0086412 0.8973136 0.9465157 0.8329429
0.8511455 0.91591674 1.0414752 0.99841946 0.9305957 1.0149857 0.8655107 0.897111
0.8957579 0.97187597 0.9095288 0.9627573 0.9297125 1.0912542 0.94518626 0.9481666
1.0078675 0.9223836 1.0304514 1.1856894 1.0115333 1.0260507 0.8836267 0.9457594
1.0504434 1.0206636 1.0985144 0.98949414 0.9404628 1.0875977 0.9304291 0.9090202
0.81391174 0.85715586 0.9331409 0.8432753 0.95001936 0.9933955 0.9297283 0.8787099
1.0022963 0.95902234 0.9794592 1.1109277 1.1063625 0.9748268 1.0080171 1.0473391
0.932873 1.0610845 0.97082675 1.1202786 1.144976 0.97890186 1.0255395 0.9248585
0.9386797 0.99706703 1.0218854 0.8656287 1.0088422 0.9054629 0.9494868 1.0034773
0.98241115 0.9921124 1.1320028 0.9820852 1.0577781 1.0585138 0.95903486 0.88478756
1.0121378 1.0417804 0.9472068 1.0343037 1.0871868 0.88192374 0.87860376 1.0156721
0.86596256 1.06465 1.045228 0.94944286 1.1376104 0.8573608 1.0830611 0.8744984
0.95984083 1.1092936 0.79943365 0.87901366 0.9470516 1.0673363 0.889627 0.78085107
1.0127562 0.9787155 0.96909744 1.1480114 0.9516488 1.0121782 0.88577974 1.0661447
0.92394745 0.90440565 0.8970704 0.9159965 0.96809775 0.90142345 0.89125353 0.90825593
0.9776762 0.9708422 1.019333 0.7034401 1.0912888 0.91079694 1.1010157 1.0801313
0.8737685 0.90920883 0.92118657 0.9500355 0.9485669 0.89498585 1.0535264 0.8966495
1.0269337 1.0131605 0.905356 0.9078168 0.99733317 0.9673308 0.9205866 1.0812954
0.8937711 1.0011727 0.9166419 1.0183235 0.9531709 1.0706316 0.9430865 0.9964843
0.9446133 1.00431 0.9099378 1.0041378 0.8694326 0.91366607 0.98304945 1.0202771
0.94483453 0.8981077 1.034689 0.90953076 0.91027284 1.0667366 0.9768435 0.9641392
1.0297353 0.7687993 0.94713205 0.9874506 1.1339375 1.0994209 0.9273965 1.0034181
1.105787 0.9282439 0.94698834 1.1239974 0.89945817 0.85845613 0.9576314 1.0616562
00000000: 22cf 713f 6e87 7a3f f8f0 583f 02c5 8d3f
00000010: a431 6a3f a298 7c3f 5e8e 703f 7b36 863f
00000020: dc00 803f b8d1 723f f933 893f ad2f 903f
00000030: 6e65 543f 6e74 653f 334f 853f 9c77 7b3f
00000040: 637c 783f 46da 633f c8e7 7c3f 4de2 633f
00000050: a3b6 823f 212b 813f d4b9 7a3f 90b6 823f
00000060: c3d8 843f 70df 713f d855 723f d064 6b3f
00000070: a745 923f 928e 883f 2311 793f af1d 613f
00000080: 4e70 893f cfed 803f a539 803f 59db 803f
00000090: ff48 783f 58c6 643f 8065 783f 6d7c 7f3f
000000a0: 0727 773f 26f1 773f a3fe 863f 1df3 5b3f
000000b0: f565 7b3f 690f 743f 346f 7c3f dc45 833f
000000c0: af33 733f 15bf 563f 2bc3 6a3f ec06 813f
000000d0: 2749 763f 11d1 533f d973 913f a461 953f
000000e0: 13cd 7e3f fe00 7a3f ac49 813f 5851 863f
000000f0: 560a 8c3f f3c2 753f fe04 8c3f 8f17 7f3f
00000100: 7594 593f 8134 7d3f fa17 853f a348 7e3f
00000110: 7862 573f 36dc 713f 9c0f 7a3f 4de2 903f
00000120: b246 753f 0ee7 673f f1b4 743f f40d 813f
00000130: 281b 813f 58b6 653f da4e 723f bf3b 553f
00000140: ace4 593f 8579 6a3f 0f4f 853f 6b98 7f3f
00000150: 853b 6e3f 0deb 813f 1c92 5d3f 11a9 653f
00000160: 6450 653f ddcc 783f e1d6 683f 4377 763f
00000170: a301 6e3f 38ae 8b3f baf7 713f 0cbb 723f
00000180: cd01 813f 5521 6c3f d5e5 833f acc4 973f
00000190: ec79 813f a155 833f 5c35 623f 4a1d 723f
000001a0: ee74 863f 1ba5 823f 1f9c 8c3f 7d4f 7d3f
000001b0: 2cc2 703f 6736 8b3f 9a30 6e3f 8cb5 683f
000001c0: 855c 503f 916e 5b3f 52e2 6e3f e4e0 573f
000001d0: 7834 733f 2b4f 7e3f ad02 6e3f 22f3 603f
000001e0: 3f4b 803f 7d82 753f d7bd 7a3f e132 8e3f
000001f0: 499d 8d3f 408e 793f b406 813f 350f 863f
00000200: c4d0 6e3f 9ed1 873f 1a88 783f 4a65 8f3f
00000210: 938e 923f 5099 7a3f e144 833f 87c3 6c3f
00000220: 504d 703f c93f 7f3f 24cd 823f d899 5d3f
00000230: be21 813f 6bcc 673f 9111 733f f271 803f
00000240: 4c7f 7b3f 14fb 7d3f 78e5 903f f069 7b3f
00000250: 4665 873f 617d 873f 4f83 753f 7081 623f
00000260: bb8d 813f 0f59 853f 257c 723f 1064 843f
00000270: f028 8b3f c1c5 613f 2dec 603f 8b01 823f
00000280: b9af 5d3f 7446 883f 08ca 853f b00e 733f
00000290: 389d 913f ff7b 5b3f bfa1 8a3f 21df 5f3f
000002a0: 21b8 753f 55fd 8d3f afa7 4c3f 0a07 613f
000002b0: f971 723f 7a9e 883f 98be 633f dbe5 473f
000002c0: ffa1 813f 198d 7a3f c516 783f 0af2 923f
000002d0: 419f 733f 0e8f 813f 76c2 623f 6e77 883f
000002e0: d287 6c3f 2187 673f 68a6 653f bf7e 6a3f
000002f0: 41d5 773f b0c3 663f 3129 643f 7683 683f
00000300: fd48 7a3f 1d89 783f 8179 823f a714 343f
00000310: 5aaf 8b3f fd29 693f 15ee 8c3f be41 8a3f
00000320: 4baf 5f3f e9c1 683f e2d2 6b3f 8735 733f
00000330: 48d5 723f cb1d 653f f4d9 863f d28a 653f
00000340: 9072 833f 3eaf 813f 69c5 673f af66 683f
00000350: 3a51 7f3f fea2 773f 90ab 6b3f e367 8a3f
00000360: 2fce 643f 6d26 803f 0ba9 6a3f 6d58 823f
00000370: 0203 743f 750a 893f 1e6e 713f 9819 7f3f
00000380: 2dd2 713f 3b8d 803f aff1 683f 9687 803f
00000390: 2393 5e3f 05e6 693f 21a9 7b3f 7198 823f
000003a0: ade0 713f 63ea 653f b070 843f 02d7 683f
000003b0: a407 693f d38a 883f 6a12 7a3f d4d1 763f
000003c0: 5ece 833f 08d0 443f 3f77 723f 90c9 7c3f
000003d0: dd24 913f d3b9 8c3f db69 6d3f 0170 803f
000003e0: 6e8a 8d3f 64a1 6d3f d46d 723f 26df 8f3f
000003f0: e442 663f c8c3 5b3f 5527 753f 5ae4 873f

bias f4 [768]
0.09425959 -0.067162074 -0.13743173 0.11238066 0.0600833 -0.11739351 0.06560797 0.11066831
-0.03477796 0.016977208 0.021754809 0.10923931 0.085680924 -0.049385533 -0.033860207 -0.10697853
-0.009888805 0.050792836 0.006747501 -0.08200987 0.06775551 0.018426739 0.21026641 -0.02665042
0.062293448 0.0089873765 -0.13362834 0.10478093 -0.1057109 0.13900031 -0.071291536 0.08017948
-0.08308001 0.031481005 0.009858605 -0.038148172 -0.07520031 -0.076186016 0.012335335 0.023964306
-0.04351615 -0.059471853 0.09959202 0.12594874 0.0979797 0.014592436 0.059480958 -0.080447085
0.016445098 -0.03742803 -0.14518237 -0.016022636 0.03817232 -0.091063425 -0.15477902 0.25136682
0.035828013 0.023019265 0.02899908 0.04331455 -0.112443246 0.13676491 0.124227054 -0.045468964
-0.046492893 -0.004844312 0.064715825 -0.0733199 0.15367152 -0.030913563 -0.026844619 -0.18211575
-0.023745053 0.010172145 -0.019974455 0.015643418 0.18066071 -0.077316314 -0.042149562 -0.12832105
0.084249556 0.22378553 0.09229334 0.010678638 0.07599029 0.01861156 -0.20807157 0.045548137
0.1525002 0.24598885 -0.06352874 -0.011033213 -0.0042229868 -0.09366142 -0.018432142 0.00035502072
0.072875954 0.04025924 0.071682505 0.20773128 0.16246702 -0.00598076 0.10514545 0.043603834
-0.09934534 -0.058725838 0.1309546 0.031253166 0.035144284 -0.14413215 0.012879358 -0.0961652
-0.19302234 0.15891494 -0.0441664 -0.1366362 -0.023713715 0.065907605 -0.084304325 -0.10671051
0.084496215 0.016507752 -0.038895983 -0.120799474 -0.21597104 0.08565471 -0.016339075 0.16938832
-0.059730303 -0.084787965 0.18213232 0.13386205 -0.13872272 -0.025470681 -0.07925336 0.029856792
0.047256626 0.00061075506 0.07005285 0.15790483 -0.03877307 -0.013292305 0.032883998 -0.026034545
0.03396721 -0.027729167 0.14994948 0.10874002 0.08414927 0.09655015 -0.019494066 0.02621441
0.02237907 0.060181588 0.0145841185 0.054108836 0.08353497 -0.12525731 -0.07647233 0.051104404
0.08643238 0.12643118 0.051034316 -0.010466951 0.14266272 0.00953612 -0.11537979 0.03617705
-0.05223774 0.13874283 0.20922118 -0.06646786 0.087363645 0.07335201 -0.09886826 -0.18425485
-0.042193536 0.026407147 -0.024212709 0.14340313 -0.013899232 0.048788205 0.18098214 0.12375345
0.031531412 0.08405807 -0.0012606406 0.051543564 0.0011571123 -0.09359998 0.07493955 -0.08638063
0.13736016 -0.093611196 -0.047725856 -0.27301785 0.09484088 -0.07333207 0.10388565 0.120039344
0.031051105 0.07528879 0.044431407 -0.016053893 -0.02094655 -0.13679667 0.13168873 -0.15204312
0.10082602 0.031118684 -0.099408545 -0.079732314 0.0072270646 -0.11726388 0.075384505 -0.09290477
-0.044360355 -0.016361574 0.06090319 -0.18613537 0.054774698 -0.074226215 0.015700491 -0.013211928
-0.06451143 -0.050789315 -0.08916893 0.06270105 0.08521366 -0.06394445 0.0032209966 -0.051130306
-0.024572987 0.071384 0.15612431 -0.057710897 0.035271186 -0.169976 0.0917057 0.024323514
0.0896659 -0.2391051 0.063748844 0.021984374 0.11917472 -0.13952063 -0.029880507 0.07551142
0.10644072 0.034410823 0.02875887 0.14173654 0.09131898 0.15405495 0.032967962 0.1561703
00000000: 2c0b c13d 458c 89bd e7ba 0cbe d527 e63d
00000010: e819 763d 026c f0bd 795d 863d 11a6 e23d
00000020: 5673 0ebd c913 8b3c 2437 b23c dcb8 df3d
00000030: 7b79 af3d 7c48 4abd 00b1 0abd 8f17 dbbd
00000040: a804 22bc 260c 503d 241a dd3b caf4 a7bd
00000050: 67c3 8a3d acf3 963c 1450 573e fb51 dabc
00000060: 6a27 7f3d ca3f 133c ded5 08be 6297 d63d
00000070: f57e d8bd 1956 0e3e 4c01 92bd 2435 a43d
00000080: da25 aabd 3af2 003d fd85 213c 4241 1cbd
00000090: 9f02 9abd 6a07 9cbd 251a 4a3c cb50 c43c
000000a0: fe3d 32bd c298 73bd e7f6 cb3d b5f8 003e
000000b0: 95a9 c83d 1d15 6f3c 4ea2 733d 71c1 a4bd
000000c0: dfb7 863c 224e 19bd b0aa 14be e741 83bc
000000d0: 945a 1c3d 767f babd 647e 1ebe 27b3 803e
000000e0: 65c0 123d e692 bc3c 7b8f ed3c 996a 313d
000000f0: a548 e6bd 1a0c 0c3e c16a fe3d aa3d 3abd
00000100: 556f 3ebd 09bd 9ebb bb89 843d be28 96bd
00000110: 115c 1d3e 713e fdbc 3fe9 dbbc 8d7c 3abe
00000120: fc84 c2bc 12a9 263c 78a1 a3bc a026 803c
00000130: 1fff 383e 0458 9ebd 05a5 2cbd 9866 03be
00000140: 088b ac3d 0928 653e 4a04 bd3d 74f5 2e3c
00000150: cca0 9b3d 4577 983c b710 55be af90 3a3d
00000160: 0329 1c3e 80e4 7b3e 5b1b 82bd a6c4 34bc
00000170: fb60 8abb 8fd1 bfbd 01ff 96bc 1322 ba39
00000180: fd3f 953d dfe6 243d 47ce 923d 82b7 543e
00000190: c15d 263e 40fa c3bb 7f56 d73d ef99 323d
000001a0: 9275 cbbd 818a 70bd f618 063e 5203 003d
000001b0: 74f3 0f3d 6197 13be f103 533c 43f2 c4bd
000001c0: a6a7 45be 99ba 223e d4e7 34bd 5cea 0bbe
000001d0: 4443 c2bc 91fa 863d bfa7 acbd 0a8b dabd
000001e0: 5a0c ad3d 443b 873c 6551 1fbd b765 f7bd
000001f0: 8327 5dbe bd6b af3d 86d9 85bc 2274 2d3e
00000200: c3a7 74bd 50a5 adbd e580 3a3e 2213 093e
00000210: 540d 0ebe e4a7 d0bc 964f a2bd 3b96 f43c
00000220: 2a90 413d 141b 203a de77 8f3d ceb1 213e
00000230: 83d0 1ebd f8c7 59bc 5fb1 063d 6646 d5bc
00000240: 3421 0b3d 4728 e3bc 5b8c 193e 16b3 de3d
00000250: 7456 ac3d 16bc c53d 05b2 9fbc 9abf d63c
00000260: 5054 b73c f880 763d 3af2 6e3c 3aa1 5d3d
00000270: 6214 ab3d 7443 00be 869d 9cbd da52 513d
00000280: 7603 b13d 2d77 013e 5c09 513d 937d 2bbc
00000290: 2d16 123e 633d 1c3c 3d4c ecbd 632e 143d
000002a0: 3ef7 55bd 9a12 0e3e 143e 563e 4d20 88bd
000002b0: b6eb b23d 9439 963d 717b cabd 4ead 3cbe
000002c0: 21d3 2cbd cd53 d83c bb59 c6bc 45d8 123e
000002d0: 9bb9 63bc 24d6 473d 6253 393e 7372 fd3d
000002e0: 1527 013d a326 ac3d 143c a5ba 581f 533d
000002f0: 3faa 973a 59b1 bfbd e879 993d 54e8 b0bd
00000300: 24a8 0c3e 3ab7 bfbd 307c 43bd ffc8 8bbe
00000310: ef3b c23d 202f 96bd 00c2 d43d 30d7 f53d
00000320: e35e fe3c 0231 9a3d b5fd 353d 7483 83bc
00000330: 1998 abbc 6d14 0cbe 69d9 063e 31b1 1bbe
00000340: df7d ce3d 9cec fe3c b596 cbbd b24a a3bd
00000350: 03d1 ec3b 0c28 f0bd 3163 9a3d db44 bebd
00000360: 34b3 35bd b508 86bc a075 793d 459a 3ebe
00000370: 6f5b 603d ea03 98bd 519e 803c d876 58bc
00000380: 921e 84bd 7508 50bd 339e b6bd 6869 803d
00000390: 8084 ae3d 4ff5 82bd 5b17 533b 036e 51bd
000003a0: 4a4d c9bc c631 923d 0ddf 1f3e 4362 6cbd
000003b0: 8578 103d 300e 2ebe 33d0 bb3d 1b42 c73c
000003c0: c1a2 b73d f8d7 74be c18e 823d 9318 b43c
000003d0: e011 f43d 7fde 0ebe f7c7 f4bc bba5 9a3d
000003e0: 98fd d93d 5df2 0c3d b997 eb3c 6223 113e
000003f0: 7205 bb3d 95c0 1d3e 6a09 073d 1beb 1f3e

weight f4 [768]
0.96485776 0.990886 1.0138019 1.0009444 0.9064601 1.0094283 1.1813682 0.87326384
0.8951841 0.9618224 1.2212707 1.2787882 1.1615905 1.0297705 1.0834032 0.94783276
0.9703747 1.0009202 0.9699702 0.9597863 1.0866551 1.0428838 0.92567784 0.92058545
1.0105647 0.89881533 0.7758662 0.9453289 0.8923368 0.879468 0.99161184 1.0114895
1.0436279 0.9416008 0.8572784 0.95368725 0.97434187 0.98647326 0.73501664 0.9682139
1.1149875 0.8702866 0.90153825 0.9633344 0.88648367 0.99998677 0.98015225 1.0485094
0.99301195 0.9265418 0.98019236 1.0044373 1.1373634 1.0457784 1.0539645 1.0900236
0.9909604 1.0092306 0.8761813 0.8903357 0.98954964 0.8612934 1.0204114 1.0427842
0.93305033 0.9355167 0.92424047 0.9409846 0.9647326 0.9194931 1.0015666 0.99374664
1.1238651 1.0237029 0.96736646 0.99305147 0.99492157 1.0203149 0.9964061 0.9555314
1.022365 0.8867086 0.99047065 0.873527 1.0192091 0.85642946 0.9573793 0.952607
0.9895561 0.87068903 1.0136658 1.014192 0.9937613 1.1123867 0.96518534 0.9546284
0.8442094 0.9821046 0.95599055 1.2450745 0.96490455 0.98393226 0.90275675 0.9472457
0.86989135 1.2271022 0.99900603 1.01929 1.0213492 0.9957936 0.90833247 0.91919076
0.9579433 0.9245249 0.98893976 1.0049725 0.89650285 1.1465667 0.7458093 0.9915973
0.9611317 1.0098423 0.8620812 1.1088643 0.9418474 1.081347 1.0204304 1.1126975
0.6378717 0.879333 1.0144167 1.0539387 0.9312955 1.1757987 0.822557 0.9385706
0.9239804 0.91983336 0.987081 1.0502857 1.1418287 0.83973336 1.0374401 1.0380212
1.0364999 1.0350738 1.0857153 0.89264905 0.92723924 0.84447694 1.0342149 1.0240779
0.8204628 1.0488026 0.85812765 1.0873978 0.96371 1.0057021 0.91595453 0.9842804
0.905162 1.0185635 1.0022671 0.9298539 1.0546945 0.95139074 1.039338 0.96837217
0.98527944 1.0152798 0.94759756 0.9009766 0.9638398 1.199411 1.0153476 1.0462706
1.0569223 0.9129854 1.150969 0.96518904 1.0357901 0.87252754 0.9086694 0.9673805
0.9642147 0.98400915 0.9550435 1.0641032 1.0149076 0.96243286 0.8367585 0.9745425
1.0059407 1.0035487 0.9266849 0.7423775 1.0318944 0.9597458 0.94628894 0.9491255
0.99324477 0.9343479 1.0541165 0.94362986 1.0862082 1.0587394 0.80269027 1.0272561
0.93895084 1.179462 0.9985303 1.0520966 0.9868191 0.9126153 0.8822581 0.97565347
1.0575123 1.0290517 1.016151 0.8880051 1.0092763 1.0563778 0.9156489 0.8506562
0.9453269 0.98676187 1.1099575 0.9211789 0.9004726 0.89840454 1.0342109 0.96103364
1.0118017 1.051583 0.9498233 0.95335835 1.0024436 0.95992446 0.95678395 0.91241217
0.9130334 0.93052334 0.91810435 1.042548 0.81952864 0.8829474 0.9424521 0.98093987
0.93633497 0.9179828 0.95827967 0.75325865 0.9944214 1.0026804 0.95126915 0.9652932
00000000: eb00 773f b4aa 7d3f 43c4 813f f21e 803f
00000010: c50d 683f f234 813f 1337 973f 388e 5f3f
00000020: c92a 653f fe39 763f 9952 9c3f 55af a33f
00000030: ffae 943f 85cf 833f f5ac 8a3f 2ba5 723f
00000040: 7a6a 783f 271e 803f f84f 783f 8eb4 753f
00000050: 8417 8b3f 377d 853f 39f9 6c3f 7dab 6b3f
00000060: 2f5a 813f c318 663f 2b9f 463f 1301 723f
00000070: 2f70 643f d124 613f 46da 7d3f 7d78 813f
00000080: 9995 853f c00c 713f 9976 5b3f d924 743f
00000090: 786e 793f 8389 7c3f 0d2a 3c3f dedc 773f
000000a0: e9b7 8e3f 1acb 5e3f 36cb 663f 159d 763f
000000b0: 98f0 623f 22ff 7f3f 42eb 7a3f 8e35 863f
000000c0: 0836 7e3f d831 6d3f e3ed 7a3f 6791 803f
000000d0: 2095 913f 11dc 853f 4fe8 863f e585 8b3f
000000e0: 95af 7d3f 782e 813f 6b4d 603f 0aed 633f
000000f0: 2053 7d3f b97d 5c3f d79c 823f f479 853f
00000100: 63dc 6e3f 067e 6f3f 069b 6c3f 5ee4 703f
00000110: b7f8 763f e663 6b3f 5633 803f 2e66 7e3f
00000120: d0da 8f3f b208 833f 54a5 773f 9f38 7e3f
00000130: 2eb3 7e3f ae99 823f 7814 7f3f b59d 743f
00000140: dbdc 823f 56ff 623f 7c8f 7d3f 779f 5f3f
00000150: 7275 823f f63e 5b3f cf16 753f 0dde 733f
00000160: 8c53 7d3f 7ae5 5e3f cdbf 813f 0bd1 813f
00000170: 2467 7e3f b062 8e3f 6316 773f 8762 743f
00000180: 1b1e 583f 356b 7b3f ccbb 743f 9a5e 9f3f
00000190: fc03 773f fce2 7b3f 111b 673f b27e 723f
000001a0: 33b1 5e3f af11 9d3f dcbe 7f3f 1878 823f
000001b0: 92bb 823f 54ec 7e3f 7a88 683f 1650 6b3f
000001c0: c63b 753f aaad 6c3f 282b 7d3f f0a2 803f
000001d0: 3681 653f b3c2 923f 5ced 3e3f 52d9 7d3f
000001e0: ba0c 763f 8342 813f 5bb1 5c3f 44ef 8d3f
000001f0: e91c 713f 9469 8a3f 779d 823f df6c 8e3f
00000200: 8f4b 233f f81b 613f 68d8 813f 77e7 863f
00000210: 6269 6e3f 9280 963f 1893 523f 2a46 703f
00000220: fb89 6c3f 337a 6b3f 57b1 7c3f c36f 863f
00000230: 7127 923f c4f8 563f d6ca 843f e1dd 843f
00000240: 07ac 843f 4c7d 843f b8f8 8a3f a684 643f
00000250: 8d5f 6d3f a42f 583f 2761 843f fc14 833f
00000260: da09 523f 2a3f 863f 41ae 5b3f da2f 8b3f
00000270: b3b5 763f d9ba 803f ff7b 6a3f cdf9 7b3f
00000280: b2b8 673f 4a60 823f 4a4a 803f e80a 6e3f
00000290: 3b00 873f 588e 733f 0709 853f 3de7 773f
000002a0: 463b 7c3f b0f4 813f c195 723f 67a6 663f
000002b0: 35be 763f 4d86 993f e9f6 813f 32ec 853f
000002c0: 3b49 873f 69b9 693f f452 933f a116 773f
000002d0: c594 843f f75d 5f3f 8f9e 683f 40a6 773f
000002e0: c6d6 763f 06e8 7b3f bb7d 743f 8934 883f
000002f0: 7ee8 813f 0062 763f ce35 563f 9e7b 793f
00000300: aac2 803f 4974 803f 393b 6d3f 740c 3e3f
00000310: 1e15 843f e7b1 753f fe3f 723f e4f9 723f
00000320: 4a45 7e3f 6d31 6f3f 4aed 863f ba91 713f
00000330: df08 8b3f c684 873f 1c7d 4d3f 217d 833f
00000340: 155f 703f 9cf8 963f af9f 7f3f 1aab 863f
00000350: 2da0 7c3f 28a1 693f abdb 613f 6dc4 793f
00000360: 905c 873f f7b7 833f 3c11 823f 4d54 633f
00000370: f72f 813f 6337 873f f767 6a3f 9bc4 593f
00000380: f200 723f 6d9c 7c3f 1613 8e3f 61d2 6b3f
00000390: 5f85 663f d7fd 653f 0661 843f 4d06 763f
000003a0: b882 813f 469a 863f 9f27 733f 4b0f 743f
000003b0: 1250 803f 9cbd 753f cbef 743f d893 693f
000003c0: 8fbc 693f c736 6e3f e308 6b3f 3672 853f
000003d0: a1cc 513f d708 623f 8a44 713f e01e 7b3f
000003e0: a6b3 6f3f ec00 6b3f d151 753f 8fd5 403f
000003f0: 6792 7e3f d557 803f 6086 733f 751d 773f

bias f4 [768]
0.09213662 0.019429974 0.01949846 -0.029792985 0.11016541 -0.07061775 -0.20847258 -0.106003575
0.10477171 0.046751894 0.2050963 0.2691876 -0.15083945 -0.027191583 -0.06404231 0.053951625
0.01608019 -0.053228 0.032882255 -0.051637758 0.08609271 0.044099092 0.09889099 0.06519585
0.038039297 -0.067418784 0.18195401 -0.0026221892 0.0690953 -0.10687033 -0.06378257 -0.030821435
-0.07038364 -0.023415359 -0.1126603 -0.081723996 0.02918266 0.0122492425 0.22733912 -0.03766204
0.152345 -0.2224053 -0.022723876 0.00640564 -0.11345151 -0.039640743 0.043970194 -0.10336076
-0.05653113 -0.07994738 0.022969723 -0.11329379 0.24982145 0.14562967 -0.053601496 0.108193375
-0.011354782 -0.17335023 -0.11177999 -0.08148176 -0.014389901 0.09903735 0.04086139 -0.00849126
-0.0037407235 0.019936325 -0.06315008 0.054209847 0.056647874 -0.07971188 -0.018699117 0.032497734
-0.15865012 0.09101772 0.058128484 0.02532399 0.11531121 0.007106793 0.03548974 -0.03393558
0.07998287 -0.034949575 0.020249164 0.09947366 0.06624921 -0.15505272 -0.004530758 0.055775706
-0.01828229 -0.020225985 -0.102345295 0.02999568 0.014907894 -0.1448311 -0.045077223 -0.037490766
0.012210637 0.033613045 0.031604744 0.22030601 -0.068253025 0.03451086 0.09255529 0.034783494
0.113604024 -0.21705739 0.007730255 0.026091974 -0.005990304 -0.0021314751 -0.065034054 -0.3591384
0.052071646 -0.023189139 -0.040076938 0.014269666 0.1387674 -0.14700153 -0.20614013 0.011982034
0.015792618 -0.026561057 0.12673439 -0.13553227 0.016443962 0.24196717 -0.017929472 0.12237277
-0.37889072 0.17298064 0.13981448 0.11118518 0.0437498 -0.14258552 0.17195149 -0.16036814
0.09762765 0.070915155 0.055812377 -0.08634164 -0.1827717 -0.106577136 0.14621074 -0.05584446
0.057118677 -0.045032863 0.08921889 0.09185218 -0.06154359 -0.15452437 -0.07509623 -0.1456945
-0.17855354 -0.008925297 0.09414813 0.10681767 -0.035687745 -0.0759896 -0.15248063 -0.01337967
-0.22707596 0.031770308 0.009302517 -0.07189167 0.060572576 -0.08504875 -0.065482736 0.02422563
0.019932842 0.054328814 0.049979456 -0.021462852 -0.04149818 0.17760992 0.032152817 0.09335167
-0.06281259 0.12211407 -0.17207223 -0.014453286 0.048690945 -0.07182934 -0.0428411 0.0014534475
0.08721804 0.0050012968 0.07733308 -0.06511561 -0.0048122834 -0.031654835 0.17375205 -0.024301
-0.034309965 0.026139576 0.096341416 -0.18462181 0.010222837 -0.033637866 -0.04204532 -0.03410906
0.11995222 0.06000182 -0.08715437 -0.09466456 0.103366375 -0.3401487 -0.24129666 0.025317648
-0.023151834 0.17063785 -0.0031985096 0.06405297 0.0426425 0.08620573 0.115971 0.024275627
0.036923617 0.04160872 -0.03711127 0.12781405 0.12843968 -0.047717247 -0.0311818 0.16246822
0.06222875 -0.14079861 0.0767286 -0.101640634 0.11412339 -0.07334011 0.052894134 -0.022280764
0.016969591 -0.030936252 0.04313131 -0.030596176 0.14871047 0.06431865 0.07334096 0.07486344
-0.0892638 -0.036457643 0.10373879 -0.030874113 -0.1631444 0.12882453 -0.037376553 -0.018967979
-0.06474834 0.015808057 0.034508605 -0.25431654 -0.016792322 -0.014594933 0.022731401 -0.002767636
00000000: 20b2 bc3d 9c2b 9f3c 3cbb 9f3c 6b10 f4bc
00000010: 679e e13d 0aa0 90bd d679 55be 6718 d9bd
00000020: 8d92 d63d ea7e 3f3d c404 523e f5d2 893e
00000030: a875 1abe e2c0 debc 9d28 83bd 61fc 5c3d
00000040: 9aba 833c 9a05 5abd 8baf 063d 1d82 53bd
00000050: 6051 b03d 40a1 343d 5c87 ca3d 6785 853d
00000060: 18cf 1b3d dc12 8abd 2752 3a3e 09d9 2bbb
00000070: d681 8d3d d5de dabd 70a0 82bd 3c7d fcbc
00000080: 4c25 90bd 91d1 bfbc 72ba e6bd e95e a7bd
00000090: 7910 ef3c 0cb1 483c 96cb 683e 8343 1abd
000000a0: 5400 1c3e 37be 63be 6c27 babc 67e6 d13b
000000b0: 4459 e8bd 555e 22bd 171a 343d ceae d3bd
000000c0: 308d 67bd 74bb a3bd 002b bc3c 9306 e8bd
000000d0: 32d1 7f3e f21f 153e 3e8d 5bbd 7d94 dd3d
000000e0: 6809 3abc b982 31be e8ec e4bd e9df a6bd
000000f0: 9fc3 6bbc 18d4 ca3d 465e 273d ed1e 0bbc
00000100: ed26 75bb 8151 a33c d454 81bd 250b 5e3d
00000110: 9a07 683d fb3f a3bd e42e 99bc 581c 053d
00000120: 2d75 22be 8067 ba3d 2218 6e3d 4274 cf3c
00000130: 4928 ec3d 1ae0 e83b b15d 113d 0900 0bbd
00000140: 0fce a33d 4927 0fbd 93e1 a53c d9b8 cb3d
00000150: aaad 873d 24c6 1ebe c176 94bb 1175 643d
00000160: bec4 95bc f7b0 a5bc 699a d1bd 80b9 f53c
00000170: 3d40 743c 9b4e 14be e5a2 38bd eb8f 19bd
00000180: 200f 483c d5ad 093d fa73 013d e697 613e
00000190: 3ec8 8bbd 425b 0d3d a18d bd3d 2379 0e3d
000001a0: 3aa9 e83d 4b44 5ebe 144e fd3b d6be d53c
000001b0: 504a c4bb 38b0 0bbb 9330 85bd fde0 b7be
000001c0: 1449 553d 26f7 bdbc b727 24bd 51cb 693c
000001d0: 0b19 0e3e 9287 16be 6616 53be 4b50 443c
000001e0: 855f 813c 9396 d9bc a9c6 013e f9c8 0abe
000001f0: 7db5 863c 3ec6 773e d4e0 92bc 939e fa3d
00000200: f7fd c1be d621 313e 872b 0f3e 0eb5 e33d
00000210: fe32 333d f001 12be 0d14 303e 8c37 24be
00000220: 01f1 c73d f73b 913d 859b 643d e3d3 b0bd
00000230: 8128 3bbe 1d45 dabd 45b8 153e 29bd 64bd
00000240: 46f5 693d 6174 38bd 65b8 b63d ff1c bc3d
00000250: 2215 7cbd a33b 1ebe 0dcc 99bd f030 15be
00000260: bdd6 36be 693b 12bc bcd0 c03d 39c3 da3d
00000270: 502d 12bd 6fa0 9bbd e223 1cbe 6736 5bbc
00000280: 9a86 68be 9521 023d 9669 183c f13b 93bd
00000290: f31a 783d 0a2e aebd d01b 86bd d474 c63c
000002a0: 334a a33c e487 5e3d 42b7 4c3d ddd2 afbc
000002b0: fff9 29bd 60df 353e acb2 033d 292f bf3d
000002c0: e3a3 80bd f116 fa3d b433 30be 7acd 6cbc
000002d0: 2870 473d 431b 93bd 267a 2fbd 9b81 be3a
000002e0: 5f9f b23d ebe1 a33b ce60 9e3d 555b 85bd
000002f0: 5cb0 9dbb 80a8 01bd 0fec 313e e412 c7bc
00000300: 9b88 0cbd aa22 d63c a64e c53d 800d 3dbe
00000310: b07d 273c dcc7 09bd b737 2cbd f1b5 0bbd
00000320: 82a9 f53d 78c4 753d fe7d b2bd 7edf c1bd
00000330: c0b1 d33d f827 aebe 7916 77be f566 cf3c
00000340: eaa8 bdbc b0bb 2e3e 169e 51bb 342e 833d
00000350: e7a9 2e3d a18c b03d 3482 ed3d aedd c63c
00000360: 383d 173d e86d 2a3d fd01 18bd b0e1 023e
00000370: b185 033e 2973 43bd f970 ffbc 125e 263e
00000380: 93e3 7e3d 832d 10be e223 9d3d f728 d0bd
00000390: 86b9 e93d 5733 96bd 85a7 583d 2686 b6bc
000003a0: d003 8b3c 066e fdbc 75aa 303d d5a4 fabc
000003b0: 8f47 183e 7fb9 833d c933 963d 0152 993d
000003c0: f0cf b6bd 9c54 15bd 0175 d43d b5eb fcbc
000003d0: 530f 27be 94ea 033e 2818 19bd bc62 9bbc
000003e0: c79a 84bd e67f 813c e558 0d3d c735 82be
000003f0: 0d90 89bc 961f 6fbc 3437 ba3c 3a61 35bb
