subject-models/ada-delta/iainarmitage2023-05-23T09-36-33_iainarmitage-ada/embeddings_gs-4500.pt (torch, 921583 bytes, 168 tensors)

pre_vecs f4 [2, 768]
000000 52 62 2d bc 49 1a e6 bb 18 94 2f bb 06 a8 48 3b
       -0.010582523 -0.0070221764 -0.0026791152 0.0030617728
000010 a3 1e 07 bc 56 0b 4f ba 18 06 0a 3b ea 86 a4 3b
       -0.00824705 -0.00078981125 0.002106076 0.005020966
000020 da 40 86 39 97 70 72 3c 00 15 17 3d 34 c8 19 bc
       0.0002560679 0.014797351 0.03688526 -0.009386111
000030 ca a1 70 3b b0 59 a4 3b f1 09 2f bb 3a 11 98 bc
       0.0036717528 0.0050155744 -0.0026708806 -0.018562902
000040 32 ed 67 bc 48 69 6e b9 b5 30 f8 3b 17 e6 a8 3c
       -0.014155673 -0.00022736669 0.0075741657 0.020617528
000050 cc 04 1c 3c 72 b8 36 3c 78 f5 23 3c 49 7f 18 bb
       0.009522628 0.011152374 0.010007255 -0.0023269227
000060 fa e3 cc bb 09 4d 0d bb b2 e6 b7 bb 35 6b 8f 3c
       -0.006252763 -0.002156081 -0.005612218 0.017507175
000070 f4 6c b4 3a 34 b0 e0 3c 67 c3 17 3d 33 6a c1 3c
       0.0013765381 0.02742777 0.037051585 0.02361021
000080 39 5f 8c bc cf 07 4e 3c 5e 25 f0 bb 8b 12 0a 3d
       -0.01713525 0.012575104 -0.0073286733 0.03370909
000090 43 91 6a bc c8 6a 50 3c 05 fd e1 bb d4 2a 8d bc
       -0.01431686 0.012720771 -0.0068966174 -0.017232336
0000a0 03 5c 20 3c 1f b4 fe 3b 84 bc 21 3c 24 bd 2b 3c
       0.009787562 0.007772937 0.009871606 0.010482106
0000b0 1d d6 95 ba 34 15 06 bb 7c 60 6a 3c 9c ec 2b bc
       -0.0011431609 -0.0020459415 0.01430523 -0.010493424
0000c0 39 a2 3d bc f7 19 3a bb 3f 12 83 bb cd 01 1e bc
       -0.011574321 -0.0028396824 -0.003999978 -0.009643984
0000d0 46 a7 b7 3c da 8c 82 3b 83 9d 05 3b ae d5 61 3a
       0.02241863 0.003984076 0.0020388074 0.00086149096
0000e0 7a 02 a2 3c 88 29 10 3b 9f b0 e9 bb 41 55 93 bc
       0.019776572 0.002199741 -0.0071316506 -0.017984988
0000f0 89 52 2f bc 23 6f 2e bb 15 b0 c2 3c 8f d2 96 bc
       -0.01070083 -0.0026616536 0.023765603 -0.018410949
000100 9c 8f e0 bb 3e 39 da 3b 67 ce 8b 3b e9 67 0f 3d
       -0.006853057 0.006659656 0.0042665484 0.035011206
000110 8b cd 94 3a 46 fc 82 bc 1f ff 7d bc 07 3a 89 3c
       0.001135276 -0.015989434 -0.01550272 0.016751302
000120 cc 52 cd bb b0 19 a5 3b db 7d 8d 3c 0f d5 db 3c
       -0.0062659737 0.0050384626 0.017271927 0.026834993
000130 fb 76 17 3d 82 5d 8f 3b d9 e4 9a 3c f6 ab 06 3b
       0.036978703 0.0043751607 0.018907951 0.0020549274
000140 c7 80 98 bc 27 14 08 3c 9f 19 aa 3c 8d e2 75 3a
       -0.018616093 0.008305586 0.02076417 0.0009379767
000150 aa 1d 58 bc 0a 2d cb bb 78 6a 1e 3c 98 9e 00 bc
       -0.013190666 -0.0062004374 0.009668939 -0.007850312
000160 2e 71 90 3b 9e 7f 36 bc e2 ef 79 bc b6 ba 8e bc
       0.0044080233 -0.011138825 -0.015254946 -0.017423015
000170 27 32 51 3c 9c 05 c6 3b f3 9b c7 bc 09 8a 5e bb
       0.012768305 0.006043149 -0.024366355 -0.0033956787
000180 ae dc 81 3c d5 8a cd bc 96 39 2f bd d6 6d d6 3c
       0.015852299 -0.025090614 -0.042779528 0.02617542
000190 f8 5f e1 bb 65 9f cc bc a8 40 77 3c e9 51 23 bc
       -0.0068778954 -0.024978349 0.015091099 -0.009968259
0001a0 76 c2 6e bc b1 65 9a bb 98 53 2e 3c 78 1b ac 3b
       -0.01457273 -0.0047118296 0.0106400475 0.005252298
0001b0 28 5e 80 3c f6 50 25 3a 89 f6 25 3c 78 bc 56 bc
       0.015669897 0.00063063146 0.010129579 -0.013106458
0001c0 3c f3 9b bc a9 4b fa 3b e3 7a 87 3c 35 79 fd 39
       -0.019036882 0.007638414 0.01653809 0.00048346227
0001d0 e2 34 6e bc 76 38 33 3c 03 93 78 3b 09 19 ff bb
       -0.014538975 0.010938754 0.0037929423 -0.007784967
0001e0 53 b4 3f 3b 57 39 0f bc 2b 24 d7 3b 05 4f 62 bc
       0.0029251769 -0.008741698 0.006565591 -0.013812785
0001f0 6d 2f b8 3c 44 a3 4f 3c f2 eb cb 3b ce 61 bc bc
       0.022483552 0.012673203 0.006223195 -0.022995856
000200 15 37 e8 bc 96 0c 20 bc b2 ff 56 bc 39 07 89 3c
       -0.028346578 -0.009768626 -0.013122486 0.016727077
000210 05 83 17 bc 21 f8 95 3b 5f 66 8d 3c 44 3b 96 3c
       -0.009247546 0.0045766984 0.017260728 0.018338807
000220 52 25 04 3c b3 94 43 bb 87 ac 92 3c b2 7b 26 b9
       0.0080655385 -0.002984327 0.017904533 -0.00015877074
000230 d9 62 9e bc c1 0c 6f bc e4 33 ce bc 08 7a 6a 3c
       -0.019334244 -0.014590443 -0.025171228 0.014311321
000240 2e 94 f8 bc c0 ac a3 bc e9 f3 1b bc b8 0c 9d 3c
       -0.030344095 -0.019979835 -0.009518602 0.019171104
000250 a9 a4 63 bc 0b b9 0c ba 93 62 b9 bc e6 e3 ef 3b
       -0.0138942385 -0.000536815 -0.022630012 0.007320869
000260 d7 2a 46 3c 43 bd ae 3c 17 a8 1b ba 00 5e 8d 3c
       0.012095175 0.021330481 -0.0005937828 0.017256737
000270 55 ae 1b 3d d6 2a 07 bc 86 25 8e bc 1c f3 c3 3b
       0.038008053 -0.008249959 -0.017351877 0.0059799086
000280 8b 35 c4 3b 6d 98 6f 3a b2 5f b9 bb 35 e2 98 3c
       0.005987828 0.00091398397 -0.0056571597 0.018662551
000290 19 de 37 3c a3 3a ee bb 83 a7 c3 3c b1 ef 1c bd
       0.011222386 -0.0072701736 0.023883587 -0.038314525
0002a0 e5 7c 6d bc be 21 58 3b 5b 7d f1 bc 26 c8 bb 3c
       -0.014495109 0.0032979096 -0.02947872 0.022922587
0002b0 3e ea 00 3b 5d bb 8e 3c 63 f3 99 bc d4 46 c3 bb
       0.001967087 0.017423326 -0.018792814 -0.005959371
0002c0 1f 17 6d bc 5d c0 1c 3c 35 20 43 bc c7 1a ab 3b
       -0.0144708445 0.009567347 -0.011909534 0.005221698
0002d0 85 ea 04 3c 64 6e 4a bc 02 35 1d 3c 08 04 9b bb
       0.008112554 -0.012355421 0.009595158 -0.004730705
0002e0 6e 96 b3 3a 25 20 87 bc 94 42 41 3c e4 16 f4 bb
       0.0013701448 -0.01649482 0.011795659 -0.007449018
0002f0 ae 48 76 bc c1 5c 6e bc 39 9a 36 bd d0 36 b2 3a
       -0.015031977 -0.014548481 -0.044580672 0.0013596658
000300 11 31 89 3b 31 21 31 3a 25 26 2b bc dc 4a 0d 3d
       0.0041867574 0.000675696 -0.010446106 0.03449522
000310 34 28 c9 3b ac ba 5d 3c 84 fa 80 3c 77 d2 92 3c
       0.006138826 0.013533276 0.015744455 0.017922623
000320 55 47 3f 3c dc 97 7e bc ad 2d 35 3c 22 b3 10 bc
       0.011674722 -0.015539136 0.011058253 -0.008831771
000330 2a e6 b1 bc ba 65 02 bd e5 6c c6 3c 7e 04 d4 bb
       -0.021716196 -0.031835295 0.024221847 -0.006470262
000340 68 3e 4a bb 3b 5b 7b 3a 39 ba 29 3d 76 f2 f2 3b
       -0.003085995 0.00095884845 0.04143736 0.0074141575
000350 ee 2c 62 bc 60 90 00 3c 00 b6 4a 3b a0 3d 0d 3c
       -0.013804657 0.007846922 0.0030931234 0.00862065
000360 2b 43 35 bc 2e 39 85 3c b5 bc 8c bc 37 ec d3 bb
       -0.011063377 0.016262617 -0.017179826 -0.006467368
000370 71 ab 03 bd 57 b3 d0 bc 75 68 4e bb d2 1b da bb
       -0.03214592 -0.02547614 -0.0031495367 -0.0066561485
000380 0e 62 89 3c 7b 9c 2b bb 7f ab b4 bc 93 1b b1 3c
       0.016770389 -0.00261858 -0.022054432 0.021619594
000390 29 69 1d bc 75 c2 d7 bc 39 b3 f7 3b 4c 43 7c 3c
       -0.009607592 -0.026337842 0.007559207 0.015396904
0003a0 d2 f4 44 3c 87 74 d6 bb 52 75 4e 3c 9b 84 66 3b
       0.01202126 -0.006544653 0.0126012135 0.0035174254
0003b0 83 6a 0f 3d 47 11 86 bc fb 01 9c 3c 91 65 ee ba
       0.035013687 -0.01636566 0.019043913 -0.0018188228
0003c0 55 ec 30 3c a7 f7 e2 bb 1b 30 8d 3c 1b e0 ef bb
       0.010798533 -0.006926495 0.017234853 -0.0073204166
0003d0 27 9b 13 3c c8 fa 9f 3c 66 6f 73 3b 77 a8 91 3c
       0.009009159 0.019528762 0.0037145256 0.017780526
0003e0 8c ef c4 3c a2 59 39 bb ce 3a 9d bc f0 02 3c bc
       0.024040006 -0.0028282185 -0.01919308 -0.01147531
0003f0 9b b4 83 bc 41 6a 4b bc c9 62 74 bc 3d 28 09 3c
       -0.01607733 -0.01241547 -0.01491613 0.00837141

basis_rand_weights f4 [16, 5]
000000 42 f5 f7 3c 9b 67 11 3c 86 d7 8d bd cc 4b 35 3e
       0.030268315 0.008874799 -0.069258735 0.17704695
000010 fc 52 73 bd b1 52 10 3d a0 2c a2 bc f1 73 55 be
       -0.059405312 0.03523511 -0.01979667 -0.2084501
000020 68 5d af bc 77 b2 f1 3d fd a1 0d bc 3f 75 3e 3c
       -0.021406844 0.118016176 -0.008644578 0.011624633
000030 75 ad 0f 3d 25 1e 3f 3d d6 e7 79 bd 2e 33 b8 bc
       0.03507753 0.046659607 -0.06101211 -0.022485342
000040 5e d2 cf 3c 70 e4 02 be 3c f6 28 be a6 28 2a 3d
       0.025368866 -0.12782454 -0.16500181 0.04154267
000050 18 af 71 bd ec 4b 04 3d 9a 7f 68 bc a1 59 a5 3d
       -0.059004873 0.032298967 -0.014190579 0.08073736
000060 97 68 ea bd 98 90 97 bd 10 75 31 bd eb b3 d1 3d
       -0.1144573 -0.07400626 -0.04332453 0.10239395
000070 65 89 52 3d 8e 1d b4 bd e7 1c b3 bc 58 81 b9 bc
       0.05140056 -0.087946996 -0.021864368 -0.022644684
000080 42 c3 89 3c a9 0d d4 3d 70 65 53 bd 21 51 85 bd
       0.016816739 0.10354168 -0.05161041 -0.06509615
000090 a1 89 00 3d 76 31 28 be dc 8a 4c 3d 74 14 ae bd
       0.031381253 -0.16425118 0.049937114 -0.08499995
0000a0 f3 a1 20 be f4 f3 ac bd c9 76 6d 3e 56 b5 c3 3e
       -0.15686779 -0.08444968 0.23189844 0.38224286
0000b0 f9 82 c5 bd 22 5e 99 bd 34 9d 89 bc c1 97 2f 3e
       -0.09644122 -0.074886575 -0.016798593 0.17147733
0000c0 a8 a4 5b 3e bd 53 9f bd a7 64 0c be d1 a0 9a bd
       0.2144953 -0.07779644 -0.13710271 -0.075502045
0000d0 27 7a 89 3e be 17 b0 3e 57 cb 10 be 3e 84 83 bc
       0.26851007 0.34393114 -0.14140068 -0.016054269
0000e0 5a 9c 68 bd 9f 9a 48 be 23 c5 87 3e 38 42 b7 3c
       -0.056789733 -0.19590233 0.2651759 0.022370443
0000f0 54 4d b7 3c ae ab 0b 3d c0 c8 68 3d 48 13 9f 3e
       0.02237574 0.034099273 0.056832075 0.31069398
000100 23 30 96 bd ca c2 30 bd d2 3f ae 3c 90 e6 32 be
       -0.073334 -0.043154515 0.021270666 -0.17470765
000110 37 4f 99 3d db ae e1 bd 36 ce 85 bc fc 24 db b9
       0.07485812 -0.11019679 -0.01633368 -0.0004179849
000120 95 b9 2e be 84 79 02 3b 40 02 20 be 3d 8e 56 3d
       -0.17062981 0.0019908855 -0.15625858 0.052381743
000130 5d fd 89 bc 60 6e 1d be ef 18 a0 3e 78 13 24 bd
       -0.016844446 -0.15374136 0.31269023 -0.04005763

basis_vecs f4 [3, 768]
000000 4c 82 03 3c 03 81 14 bd e1 06 46 bc 4f d9 1e 3d
       0.008026671 -0.036255848 -0.012086601 0.03878146
000010 85 34 cb bc 58 42 64 3c 40 1c ae bc 78 15 13 ba
       -0.024805317 0.013931833 -0.021253705 -0.0005610804
000020 68 7f 0e 3d 93 36 f1 3c a5 63 82 3c ec 89 12 bd
       0.034789473 0.029444968 0.015916655 -0.035776064
000030 ba 06 f1 3c 7a f4 db 3b cc a8 3c ba 40 43 96 3c
       0.029422153 0.0067124935 -0.00071967836 0.018342614
000040 13 e0 94 bc c0 08 35 bc de a2 61 bb 39 94 89 bc
       -0.018173253 -0.011049449 -0.0034429352 -0.01679431
000050 3c 23 8b 3c 71 dd 2d 3d c4 22 ba 3c 48 6e 84 3b
       0.016984574 0.04244751 0.022721656 0.004041467
000060 82 8b 80 3d 45 73 14 3c 8a ff d9 3c e2 e7 85 3c
       0.06276609 0.0090606855 0.026611108 0.016345922
000070 53 92 6a bd 3a 6c cc 3c cf a8 04 3d 3c 88 81 3c
       -0.057268452 0.02495395 0.03238755 0.015812032
000080 00 6e d9 bb 29 e9 23 3d 58 d6 9d 3c f8 e3 e1 3d
       -0.0066354275 0.04001728 0.019267246 0.1102981
000090 a6 32 85 bc 05 9a cb 39 c5 3d f8 bc bb 99 85 3c
       -0.016259503 0.0003883393 -0.030302892 0.016308656
0000a0 ab 7b f1 3a a8 a9 1b 3d 38 8d 11 3d 9c 16 86 3b
       0.0018423697 0.038003594 0.035535067 0.0040920507
0000b0 7e 6a 25 3c 20 5d 92 bd 2a fd 20 bc 14 14 1d bc
       0.0100961905 -0.071466684 -0.009825984 -0.0095873065
0000c0 00 38 6c bb 22 27 57 3c 57 06 80 3c 63 4d 78 bc
       -0.003604412 0.013131889 0.015628023 -0.015155169
0000d0 d0 8f ab 3d 0f 5d a5 3c 4f 74 90 bd 4e 83 e1 3c
       0.083770394 0.020185975 -0.07053434 0.027528431
0000e0 f8 a8 d7 3b 8c f0 00 3d 59 99 98 bb 43 43 fd 3c
       0.006581422 0.031479403 -0.0046569523 0.030915862
0000f0 ca b3 a0 3c 7c 89 51 3b 1b 40 1d bc 86 16 f2 bb
       0.01961698 0.0031972816 -0.0095978035 -0.007387939
000100 56 ec 2f 3d 56 9a eb bc 18 6e 12 3d b0 cf 95 3c
       0.042949997 -0.028760117 0.035749525 0.01828751
000110 5a 6a 45 3b 91 1a a5 bc 16 c4 a9 bb 3c 2e 82 3c
       0.0030123205 -0.02015427 -0.005180846 0.015891187
000120 18 4e a1 b9 e0 27 25 bd 2d f5 fe bc 58 36 c1 3b
       -0.00030766497 -0.04032123 -0.031122768 0.005896371
000130 76 39 f0 3a 01 28 ad bc 2d 85 c4 3c 38 27 05 3e
       0.0018327672 -0.02113724 0.023989284 0.13003242
000140 58 32 3f bc ec ad 89 bc 59 93 e8 3c 2a 0a 2d bd
       -0.011669718 -0.016806565 0.028390573 -0.04224602
000150 af 03 4e 3d f8 f9 96 bc 85 48 20 3d 6b 53 3d 3c
       0.05029648 -0.018429741 0.03913166 0.011555533
000160 ed 96 1b 3d 98 f7 56 bc da 49 dd bc 61 97 9f 3a
       0.03798573 -0.013120554 -0.027012754 0.0012175852
000170 a0 e7 66 3c f8 f9 2e bc 25 f3 3f bd 0b ac 0d bd
       0.01409331 -0.010679714 -0.04686274 -0.0345879
000180 24 47 b2 bc 4f 7a b3 ba 1a 80 39 bd a0 4d 0a 3a
       -0.021762438 -0.0013693067 -0.045288183 0.0005275849
000190 48 c6 29 3d 70 e0 a2 3a 1e a9 8c bc a0 5a 13 bd
       0.04144886 0.0012426507 -0.017170485 -0.0359751
0001a0 a7 1c 7b bc 3f 23 8c bc 9c f8 a9 3c 7f e0 f2 bc
       -0.0153266555 -0.01710665 0.020748429 -0.029648064
0001b0 14 6a d6 bc 08 ce 08 bd e9 a2 d9 bc 9e 60 f2 bb
       -0.026173629 -0.03339961 -0.02656694 -0.0073967716
0001c0 b3 aa 42 bb cb 4c 26 3d 02 a0 ae 3c c0 6d ee bc
       -0.0029703795 0.04060058 0.021316532 -0.029105067
0001d0 d2 30 47 3b 04 aa 69 3b b9 9d 44 3c 8a ef a8 bc
       0.003039409 0.0035654316 0.012000495 -0.020622034
0001e0 b2 af e3 3c 80 c3 10 bd bc 20 4a bc 58 f2 24 bc
       0.027793739 -0.035342693 -0.012336906 -0.010067545
0001f0 09 31 1d bc e2 24 f6 3c a7 ce eb bc 3e 9c a5 3b
       -0.00959421 0.030046884 -0.028785063 0.005054026
000200 97 8d ea bc 85 91 78 bc 4c ca 18 bc 6a 44 f7 3a
       -0.028631968 -0.015171413 -0.009325575 0.0018864993
000210 0a 9e 8f bc a4 09 4c 3b eb 3b d5 bb fd d7 a7 bc
       -0.017531414 0.0031133676 -0.006507387 -0.020488733
000220 97 9f 84 3c 91 b3 24 bc bc 31 88 3c 9c f7 d1 3c
       0.01618938 -0.010052578 0.016625278 0.025630765
000230 8d b1 2a bd c2 9c 25 3d 36 9e 5d 3d b8 6b 96 ba
       -0.041673232 0.0404327 0.05410596 -0.0011476194
000240 bf 74 13 3d 3c 1e 7b bd bf 41 27 3d a4 cc 82 3c
       0.03600001 -0.06130813 0.040834185 0.01596672
000250 0f ed 4a 3d 90 33 aa 3c 8d c4 88 bd f4 ef 0a bc
       0.049542483 0.02077654 -0.06678114 -0.008480061
000260 47 67 2f 3d 02 92 41 3d 88 5c 43 bc 01 ed cc 3c
       0.042823102 0.047258385 -0.011923917 0.025015356
000270 38 23 03 3c 36 3f 09 bd 7e 1e 43 3d 2e cd 01 3c
       0.008004002 -0.03350755 0.0476365 0.007922454
000280 64 85 ce ba 1d 48 36 bd 86 b8 81 3d 5d cb 2b 3c
       -0.0015756306 -0.044502366 0.06334023 0.010485497
000290 be 58 1b 3d 6d 96 69 3c 3c ce 7a 3c 9f 59 6b bd
       0.037926428 0.014257056 0.015307959 -0.057458516
0002a0 0e fc c6 3c ef cd 77 39 d4 2a ae bc a3 fa 75 3c
       0.02429011 0.00023632472 -0.021260656 0.01501337
0002b0 06 85 2f 3a e0 40 52 3d 46 73 a5 bc c3 66 02 bc
       0.0006695542 0.0513314 -0.020196568 -0.007959071
0002c0 89 30 bb bc c7 c6 f9 bc ad 35 a4 bb 2f 7f 9f 3c
       -0.022850292 -0.030490292 -0.0050112815 0.019469826
0002d0 e4 f7 50 3c bd e3 54 3d 7b 06 1f bb 38 bc 77 bc
       0.012754414 0.051975 -0.0024265337 -0.015120558
0002e0 79 33 3d bc c4 a1 75 3b d9 de 6b bc 57 12 81 bd
       -0.011547917 0.0037480453 -0.014396393 -0.06302326
0002f0 05 c9 25 bb d5 89 55 3c e2 a2 02 bc 2e a2 2a 3c
       -0.002529682 0.01303335 -0.007973405 0.010414643
000300 a0 2c a6 3c 03 33 2e bc 30 c7 50 bc 13 27 8d 3d
       0.02028495 -0.010632279 -0.0127428025 0.068922184
000310 38 9c 05 bc 52 80 bb 3c 6f bb 51 3c 5f 97 ad b9
       -0.008154921 0.022888336 0.012801035 -0.00033109912
000320 c5 8d 5e 3c 50 19 f5 bc 4a 18 9b 3b 3c 58 cf 3a
       0.013583605 -0.029919297 0.00473312 0.0015819143
000330 02 0e ee 3c 8c a2 df bc ad 0f 78 3d 32 6d 66 3c
       0.029059414 -0.027299188 0.060561825 0.01406412
000340 83 ec 47 3d a0 ac 87 3c bb c0 6b 3d d8 f0 27 bc
       0.04880954 0.016561806 0.05755685 -0.010250293
000350 d8 8a 85 3c b9 d5 07 bb df ee 96 bc 8a 38 a7 bc
       0.016301557 -0.0020726754 -0.01842445 -0.020412702
000360 02 1d 55 3c 48 05 42 3d 7f b3 34 3c 86 22 53 bd
       0.013007404 0.047368318 0.011029123 -0.051546596
000370 01 09 e3 ba 60 83 9c bd 65 08 bf 3c 40 25 80 bb
       -0.0017321409 -0.07642245 0.023319433 -0.0039106905
000380 fc 95 bc bc 3f 59 a7 3c 17 b8 7f bb 1d 4a 1f bd
       -0.023020737 0.020428298 -0.0039019638 -0.03888904
000390 51 38 47 bb 72 fa 54 b9 f2 a3 bf bc e3 38 43 bc
       -0.0030398557 -0.00020311194 -0.023393605 -0.011915418
0003a0 1c 28 c6 3c d3 7b 0d ba c6 e3 81 bc dd 29 94 bc
       0.024189048 -0.00053971744 -0.015855681 -0.018086368
0003b0 de ff 5d 3d d1 aa 0f bd 63 36 03 3d 32 9a dc bc
       0.054199092 -0.035075013 0.03203429 -0.026928995
0003c0 00 85 0c 3c 6f 55 2f bc c4 41 4a bc 58 0e 51 3c
       0.008576632 -0.010701521 -0.012344781 0.0127597675
0003d0 3b 05 60 3c 91 8b d0 3b c1 e3 01 bc 0b 16 56 bd
       0.013673122 0.006364294 -0.007927836 -0.052267116
0003e0 a2 1b 14 3d 57 3e 75 3c 78 67 e2 bc 2d 3d c4 bb
       0.036159165 0.014968476 -0.027637228 -0.005988738
0003f0 a8 ed 0e bd 68 99 ea bc 2d 3d 6a bd 2d d0 24 3d
       -0.034894615 -0.028637603 -0.057187248 0.040237594

basis_comm_weights f4 [1, 5]
000000 f8 22 44 3e 45 61 21 3f e0 d1 91 3e 08 c1 09 3f
       0.19153965 0.63039047 0.28480434 0.5381017
000010 74 8a fe 3d
       0.124287516

bias f4 [16, 768]
000000 bc cf 2b 3c 71 da 0d 3d 0c c7 21 3a 0d 3c 48 bc
       0.010486539 0.03463215 0.0006171323 -0.0122213485
000010 02 d1 77 bd 58 b6 0f 3c 70 e6 d8 bc bb 0a 07 3d
       -0.06050206 0.0087715015 -0.026477069 0.032969218
000020 de 15 c4 3b 3c 81 cc 3d b6 74 c1 3b 11 50 b6 3d
       0.005984052 0.09985587 0.0059038056 0.0890199
000030 af ce b0 bc 1e 5a 8b 3c 10 01 78 39 88 ac b0 bb
       -0.02158293 0.017010745 0.00023651519 -0.005391661
000040 77 1c 86 3c e0 01 5a 3c 5b 9c 03 bd d1 6d 8d 3c
       0.016370995 0.013306111 -0.032131534 0.017264279
000050 53 9c df 3c fa 8d 88 bc e5 d2 53 3c 09 1f a2 3c
       0.02729622 -0.016669262 0.012928699 0.01979019
000060 6e 46 f3 bc 6e 76 98 3d 02 30 97 bd 54 1f 1c 3d
       -0.02969667 0.07444464 -0.07382204 0.038115814
000070 69 8c 88 bd a7 75 0c 3d 64 e6 c2 bd 74 27 4a 3c
       -0.06667406 0.03429189 -0.095166 0.012338508
000080 2c a7 9f bd 50 9f 67 3c f1 07 78 bd 41 b3 a0 bd
       -0.077955574 0.014137104 -0.06055445 -0.0784669
000090 e2 b2 11 bd 69 f8 87 bc 0a e3 b2 3c d6 a8 f4 bc
       -0.035570987 -0.016597943 0.021836776 -0.029865663
0000a0 0f b4 bb 3a b4 31 77 bd 24 88 ca bc 31 83 4a bd
       0.0014320629 -0.060350135 -0.02472312 -0.04944152
0000b0 7d 36 68 bc 7e 7b 07 3c a7 45 be bc bd d4 49 3d
       -0.014173147 0.008269189 -0.023226572 0.04927515
0000c0 44 b3 2b 3c 0f 50 c9 3c 40 55 2c 3d 2a 19 26 bd
       0.010479752 0.024574308 0.04207349 -0.040551342
0000d0 35 78 e3 3b 54 d8 be bb 94 90 28 bb 8b f9 98 3c
       0.00694182 -0.005824128 -0.002572094 0.018673679
0000e0 60 1c 32 3d e5 e9 28 bd dc 98 36 3d 4b ae 03 bd
       0.04348409 -0.041238684 0.04457937 -0.03214864
0000f0 f0 51 3f bd 7b 51 48 3d 2c c7 86 bd 14 76 2e bc
       -0.046709 0.04890583 -0.06580958 -0.010648269
000100 db 5a 19 bc 29 b2 95 bc 03 a9 b9 3d 4f 7d 12 bc
       -0.009360041 -0.01827343 0.090654396 -0.008941009
000110 89 f1 af 3c 98 d2 46 3d 01 f5 87 bd bb 2b 0d bd
       0.021477478 0.04854068 -0.06638528 -0.034465533
000120 f0 af 59 bc a8 52 0a 3d 27 9f c4 bc 41 25 1c bd
       -0.013286576 0.033770233 -0.024001671 -0.038121466
000130 e0 6d 3d 3d 95 04 30 3d a1 15 6a 3c 8f b3 c9 bc
       0.046247363 0.04297312 0.014287383 -0.024621753
000140 c5 81 35 3d 78 56 57 3d 09 91 9f 3d be cd 1b 3d
       0.04431321 0.052572697 0.07791335 0.038038008
000150 7b cc bb 3c 88 e7 e9 bc 24 89 17 3a cb 78 d1 3b
       0.022924652 -0.028552786 0.00057806284 0.0063925735
000160 8f 9d 90 bb ac 6c da 3c 2a d8 b0 ba 08 2e a7 3d
       -0.0044133137 0.026663147 -0.0013492156 0.08163077
000170 0e 40 6c bc a7 7a 5f bd 23 4c a6 bd 2c 51 c2 3b
       -0.014419569 -0.05456033 -0.08119991 0.0059300866
000180 44 e4 c5 3c cb a7 1a bc bf d9 0b bd 5d 70 cb bc
       0.024156697 -0.009439419 -0.034143206 -0.024833852
000190 04 6e f0 3c 6e 81 f9 bb 44 fb f3 3b 94 2a a1 3d
       0.029349335 -0.007614306 0.0074457247 0.07869449
0001a0 33 89 bd 3d 71 3a 45 3a ba e4 2b 3d 5e 07 c1 3c
       0.09254684 0.0007523662 0.041966178 0.023563083
0001b0 ed 18 00 3d 7c 49 a4 bc 11 cd d4 3c 25 11 0e 3d
       0.03127377 -0.020054571 0.02597669 0.03468432
0001c0 eb fe c6 bd a4 a1 9d bc 19 2e dd bd 81 6c 08 bd
       -0.097165905 -0.019242115 -0.10799808 -0.033306602
0001d0 12 fd b3 bc ae 15 39 bd 45 fb 29 bd bc 9c 1a bc
       -0.02197126 -0.04518669 -0.041499395 -0.009436782
0001e0 9f 56 28 bc c1 06 da 3c 06 cb 05 bd 70 e1 60 ba
       -0.010274558 0.026614549 -0.03266432 -0.00085785147
0001f0 4c 6c 80 bd 99 c7 fc 39 7c 55 5e 3c 53 1b 98 3b
       -0.06270656 0.00048213897 0.013570186 0.004641929
000200 3b da 3c 3d 85 19 9e bc df b7 2b bc 71 e7 fc 3c
       0.04610656 -0.019299278 -0.01048085 0.030872079
000210 df ae 33 bd c9 ca b7 3c 7e be f3 3c 84 99 9d bc
       -0.043867942 0.022435563 0.02975392 -0.019238241
000220 82 5b 32 3d 8a aa e9 bc 43 02 21 3d 3a 20 ba ba
       0.0435443 -0.028523702 0.039308798 -0.0014200278
000230 3e 86 1b bd ab 70 a9 3b 87 4d 06 bd f9 99 e0 3c
       -0.03796982 0.005170902 -0.03278878 0.02741717
000240 ab fc 05 3d 1d 4b 85 3c e5 8e 01 3d 32 c4 34 3c
       0.032711666 0.016271168 0.031630415 0.011033105
000250 c3 a3 b6 3c 9c 01 9c bb 7d a8 7d 3d 1b 99 2c 3d
       0.022294885 -0.004760934 0.06192826 0.0421382
000260 2b 63 95 bc ca 6b 3e bd 01 21 ae bc d7 db e2 3c
       -0.018235764 -0.046489514 -0.021255972 0.027692718
000270 73 24 04 3d 02 da ec bc eb ac 5f bc 02 ea c8 3a
       0.032261323 -0.028912548 -0.013652067 0.0015328529
000280 bd e5 c7 3c 8a ab 0c 3d 8d ed 28 3c 57 fe 0c 3d
       0.02440154 0.03434328 0.010310543 0.034422245
000290 fc 70 2f 3c 44 f8 f0 bb 44 06 8c 3c b4 b1 67 bc
       0.01070809 -0.0073538143 0.017092831 -0.014141489
0002a0 75 fa b1 bc 68 e0 73 3d c4 5a a5 3c b5 94 7c bc
       -0.021725873 0.059540182 0.020184882 -0.015416314
0002b0 b4 d4 96 3d 30 17 7e 3d d0 28 86 bc 64 75 10 bd
       0.07364789 0.062033832 -0.016376883 -0.035268202
0002c0 75 7f 43 bd 0f b9 eb bc e5 b5 11 bd 36 a2 53 3d
       -0.047728974 -0.028774766 -0.03557386 0.05166837
0002d0 42 a2 bd bc 59 77 27 3c 5d a5 a0 3c b8 10 85 3d
       -0.02314866 0.010221326 0.019610101 0.064973295
0002e0 af 31 34 bd 4b 80 7b bc 2b a6 06 bc cb 5b 55 3d
       -0.043992694 -0.015350412 -0.0082183285 0.052089494
0002f0 34 7e 0e 3d a8 9c f0 bc 3c dc 94 bc d5 6a 41 3d
       0.034788325 -0.029371575 -0.018171422 0.047221024
000300 c1 8e 0c bc 65 be 19 bc c8 67 51 3d 1d 50 b7 b9
       -0.008578957 -0.0093837725 0.051124364 -0.0003496417
000310 3e b5 28 3d cd 51 cc 3c fc de f6 3c bb 57 88 3c
       0.04118847 0.02494135 0.030135624 0.016643396
000320 c0 bf 5d 3b 84 1a 93 3d 59 2c ba bc 29 c5 53 3c
       0.0033836216 0.07182792 -0.022726225 0.012925425
000330 2f e6 8f 3d f2 ef 06 bd 88 aa 05 3d 88 6a 89 3c
       0.07026326 -0.032943673 0.032633334 0.01677443
000340 77 1f 9c 3c bd f1 8c bc d7 2c 25 3d 2f fc 42 bc
       0.019057972 -0.017205114 0.040325966 -0.011900946
000350 1e ef 9c 3d af a2 a7 bd 14 20 e4 bb aa e7 66 3d
       0.076627955 -0.08185326 -0.006961832 0.056373276
000360 60 28 01 bd ad cb ea 3c 67 16 41 bb ca 82 59 3b
       -0.031532645 0.028661573 -0.0029462816 0.0033189529
000370 33 08 a7 bc 5d 76 a3 bc b2 44 2d bd 18 2e af 3c
       -0.020389652 -0.019953901 -0.04230184 0.021384284
000380 bb 21 52 3d 47 17 64 bd 58 4e 33 3c 63 8d 4f 3d
       0.0513017 -0.05568626 0.010943972 0.050671946
000390 16 4e df 3c 1f 28 23 bd df 38 39 bc 77 f8 44 bd
       0.027258914 -0.039833184 -0.011305063 -0.048088517
0003a0 e0 f1 67 3d d2 2f bd bc 38 6b 36 3c 72 fe 2a bc
       0.056627154 -0.023094092 0.011133961 -0.010436641
0003b0 64 89 38 bd 0f 16 47 bd bc 51 4d 3d e4 29 9c bb
       -0.0450529 -0.04860502 0.050126776 -0.004765736
0003c0 cb 9f 1a 3d 1e db 2c bb fb 1c 42 3d ec 4d fb 3a
       0.037750047 -0.0026375721 0.04739092 0.0019173003
0003d0 2d 65 e0 bc 74 fc 3d bd 4c 2c 49 bd 97 06 a1 bc
       -0.027391994 -0.046383336 -0.04911451 -0.019656463
0003e0 8d 65 54 bd 87 38 23 3d 66 e2 58 bd a7 76 0f 3d
       -0.05185466 0.03984883 -0.052950285 0.035025265
0003f0 d0 3b 00 bd 88 b0 3c 3b 4a 83 59 bd 3c 67 6b 3d
       -0.03130704 0.0028791744 -0.053103723 0.0574715

weight f4 [768]
000000 05 3c 7d 3f d2 1a 69 3f f3 23 74 3f b8 19 6c 3f
       0.9891971 0.9105655 0.95367354 0.92226744
000010 91 14 7d 3f 62 70 6f 3f 43 ea 85 3f 55 fa 69 3f
       0.98859507 0.9353086 1.0462116 0.913976
000020 63 06 79 3f cf 1e 9c 3f 76 83 7b 3f 28 7e 43 3f
       0.9727537 1.2196902 0.9824747 0.76364374
000030 4b d3 75 3f 12 48 75 3f bf 7f 78 3f 55 e0 77 3f
       0.9602553 0.95813096 0.97069925 0.9682668
000040 44 bb 6a 3f aa b2 83 3f 90 41 83 3f 91 cf 61 3f
       0.91691995 1.0288899 1.0254383 0.88207346
000050 0a 3c 84 3f f5 3d 77 3f 85 b9 84 3f 37 e0 5e 3f
       1.0330822 0.96578914 1.0369116 0.87060875
000060 b3 ab 6c 3f 03 13 8a 3f 6a bd 42 3f ac 99 86 3f
       0.9244949 1.0787052 0.7607027 1.0515647
000070 25 9b 90 3f 27 56 87 3f c9 e8 4d 3f 57 8f 83 3f
       1.1297346 1.0573167 0.80433327 1.0278119
000080 13 7b 90 3f 20 fb 81 3f 14 0e 60 3f c6 4e 67 3f
       1.1287559 1.0154762 0.8752148 0.90354574
000090 29 cd 8a 3f 8d 65 67 3f b3 c7 65 3f 23 60 69 3f
       1.084386 0.9038933 0.8975784 0.9116232
0000a0 77 b4 7b 3f 75 0d 5c 3f 6f c0 6f 3f 34 71 80 3f
       0.9832224 0.85958034 0.93653005 1.0034547
0000b0 5c 41 7b 3f d4 3f 7b 3f 3a 6a 7a 3f 9a 32 67 3f
       0.98146605 0.9814427 0.9781834 0.90311587
0000c0 6d 9f 75 3f 0a 7d 81 3f 43 b8 86 3f 84 56 81 3f
       0.9594639 1.0116284 1.0524982 1.0104527
0000d0 ec 52 88 3f be d3 73 3f 3a 44 83 3f a8 27 85 3f
       1.0650306 0.9524497 1.0255196 1.0402727
0000e0 b0 f4 81 3f b3 e8 6d 3f 29 27 88 3f fa 59 6e 3f
       1.0152798 0.92933196 1.0636951 0.93106043
0000f0 6f be 81 3f a1 55 82 3f f8 a8 90 3f 3c 16 7f 3f
       1.0136241 1.0182382 1.1301565 0.996433
000100 1d 54 71 3f 16 1d 7d 3f 27 13 9f 3f 6b 6f 81 3f
       0.9426897 0.98872507 1.242772 1.0112127
000110 e2 ee 85 3f 02 95 63 3f cb 36 8f 3f 18 e7 6d 3f
       1.0463526 0.8889924 1.1188596 0.92930746
000120 2f b3 6f 3f fb 01 6b 3f 97 bf 85 3f 91 4b 65 3f
       0.9363279 0.91799897 1.0449094 0.8956843
000130 b5 d0 87 3f f7 bd 83 3f 2e 21 7b 3f c1 a3 5f 3f
       1.0610567 1.0292348 0.98097503 0.87359244
000140 be 30 6a 3f 45 11 66 3f 22 e9 96 3f f2 7a 62 3f
       0.91480625 0.898701 1.1789896 0.8846885
000150 8d d6 87 3f eb 3c 68 3f cb ef 6c 3f be 1e 79 3f
       1.0612351 0.90717953 0.92553395 0.97312534
000160 d0 5e 6b 3f d1 b4 6f 3f ee 82 79 3f 3b 5e 93 3f
       0.9194155 0.9363528 0.9746541 1.1513132
000170 0e 39 5f 3f d8 54 71 3f aa 69 96 3f 9a df 7d 3f
       0.87196434 0.94270086 1.1750996 0.99169314
000180 18 9b 7d 3f 7e b2 81 3f 54 9c 90 3f 42 a3 7c 3f
       0.9906478 1.0132596 1.1297708 0.9868661
000190 23 89 88 3f c2 1c 80 3f 85 04 76 3f 0f e8 4b 3f
       1.0666851 1.0008776 0.96100646 0.7965097
0001a0 c4 79 42 3f 3d 8b 6c 3f 3d a5 8d 3f a3 ba 6d 3f
       0.7596705 0.9239996 1.1066052 0.9286291
0001b0 c2 44 66 3f e1 5f 73 3f 47 5c 6b 3f ca e2 6e 3f
       0.89948666 0.95068175 0.9193768 0.933148
0001c0 23 14 81 3f cd 1a 6a 3f d3 b3 3f 3f c6 f6 87 3f
       1.008427 0.91447145 0.74883765 1.0622184
0001d0 98 80 72 3f ec 8b 81 3f 03 3d 85 3f 3b d6 88 3f
       0.9472747 1.0120826 1.0409244 1.0690378
0001e0 e2 be 6c 3f ef 16 70 3f 05 68 75 3f ac 51 85 3f
       0.92478764 0.93784994 0.95861846 1.0415549
0001f0 e7 13 84 3f bd 3e 80 3f 71 17 70 3f ed c9 6c 3f
       1.0318574 1.0019146 0.9378577 0.92495614
000200 ba f5 61 3f 4c 9c 82 3f 66 67 81 3f 01 90 81 3f
       0.88265574 1.0203948 1.010968 1.0122072
000210 1e 7b 7b 3f 6f 63 6e 3f 05 e4 84 3f 77 ae 83 3f
       0.98234737 0.93120474 1.0382086 1.0287617
000220 9b c3 85 3f 26 75 88 3f 02 cf 69 3f 7d a0 81 3f
       1.0450319 1.0660751 0.91331494 1.0127102
000230 b3 50 8a 3f 86 a2 7d 3f 76 8a 62 3f b3 f0 66 3f
       1.0805877 0.99076116 0.88492525 0.9021103
000240 76 46 84 3f 81 48 76 3f 8b 11 83 3f f4 2b 85 3f
       1.0334003 0.9620438 1.0239729 1.0404038
000250 63 68 82 3f 32 01 7c 3f 86 c5 56 3f 2f 9c 80 3f
       1.0188106 0.98439324 0.83895147 1.0047663
000260 fa ea 75 3f 35 89 5b 3f c4 5c 7c 3f 2d 07 85 3f
       0.9606167 0.85756236 0.9857905 1.0392815
000270 44 b9 87 3f 0a c3 8a 3f ae 1c 73 3f db 4d 7a 3f
       1.0603414 1.0840771 0.94965637 0.9777505
000280 c6 90 7b 3f fd 09 68 3f 62 48 78 3f 76 f8 88 3f
       0.9826778 0.9064024 0.9698545 1.0700824
000290 00 aa 82 3f ec 53 7a 3f c8 6d 82 3f 3f c4 83 3f
       1.020813 0.97784305 1.0189753 1.0294265
0002a0 66 03 77 3f fa ea 7f 3f ce 1e 65 3f 9a f4 72 3f
       0.9648956 0.9996792 0.8950013 0.9490448
0002b0 45 ff 8d 3f 68 02 97 3f af 63 7a 3f 0a a2 76 3f
       1.1093527 1.1797609 0.97808355 0.96341
0002c0 b3 c7 84 3f 5b 70 89 3f a5 c4 81 3f 7b 56 8f 3f
       1.0373443 1.0737413 1.0138136 1.1198267
0002d0 5b 7a 6d 3f f1 31 79 3f 16 0a 7c 3f 73 f5 5e 3f
       0.92764825 0.9734183 0.9845289 0.87093276
0002e0 f4 bd 82 3f 67 0c 7c 3f 3f c8 83 3f c6 4c 59 3f
       1.0214219 0.98456424 1.0295485 0.8488277
0002f0 2a 54 77 3f f4 b1 6f 3f d1 b0 81 3f d1 2e 8b 3f
       0.966128 0.9363091 1.0132085 1.0873662
000300 a7 5e 78 3f 36 46 80 3f 87 76 6e 3f d0 77 7c 3f
       0.9701943 1.0021427 0.9314961 0.9862032
000310 6b 69 8b 3f f7 02 89 3f 20 eb 83 3f f3 3a 6a 3f
       1.0891546 1.070403 1.030613 0.914962
000320 8b d1 83 3f ea e5 54 3f 9b 7d 6e 3f 31 b6 85 3f
       1.0298322 0.8316332 0.9316041 1.0446225
000330 38 05 93 3f 11 d7 89 3f ad bf 85 3f 3b 4d 77 3f
       1.1485968 1.0768758 1.044912 0.9660222
000340 ba 74 89 3f ba fc 6c 3f 24 22 8e 3f c5 d8 85 3f
       1.0738747 0.9257313 1.1104169 1.0456778
000350 7f f7 99 3f e2 51 8d 3f 8c ac 73 3f c6 f6 55 3f
       1.2028655 1.1040614 0.9518516 0.8357967
000360 a3 af 6a 3f a0 de 85 3f ee 6f 67 3f fe a8 86 3f
       0.9167425 1.0458565 0.90405166 1.0520322
000370 84 64 74 3f 34 b3 87 3f 70 7c 81 3f 56 62 54 3f
       0.95465875 1.0601563 1.01161 0.8296255
000380 1d 7d 63 3f 3c ed 83 3f d7 79 69 3f 4e 07 70 3f
       0.8886278 1.0306773 0.9120154 0.93761146
000390 8f c7 67 3f a3 5a 63 3f 70 a3 85 3f c8 e8 76 3f
       0.9053888 0.88810176 1.0440502 0.96448946
0003a0 b2 1f 8e 3f a9 f6 73 3f ae 37 71 3f ac bc 7c 3f
       1.1103423 0.9529825 0.94225585 0.9872539
0003b0 87 bc 5d 3f 5f 7d 8f 3f 1a 00 8e 3f e7 1e 7c 3f
       0.86615795 1.1210135 1.1093781 0.98484653
0003c0 d0 b3 86 3f fe d9 86 3f 3a fa 62 3f b8 b5 69 3f
       1.0523624 1.0535276 0.88663065 0.91292906
0003d0 90 99 65 3f 8e bf 5a 3f 9e 89 79 3f f0 11 8e 3f
       0.8968744 0.8544854 0.9747561 1.1099224
0003e0 38 7b 64 3f 4e 81 84 3f 17 25 8e 3f ab de 85 3f
       0.89250517 1.0351961 1.1105069 1.0458578
0003f0 94 07 80 3f b7 08 74 3f 6a 6d 8d 3f 76 a6 92 3f
       1.0002313 0.953258 1.1049016 1.145705

bias f4 [768]
000000 b2 9f e0 3c f7 24 97 3d 42 53 04 3c 40 3a c2 bc
       0.027419899 0.07380097 0.008076491 -0.023709416
000010 36 54 b9 bd 0a 9d 6c 3c b9 db 8a bd 76 0f 9e 3d
       -0.09049265 0.014441738 -0.0678019 0.07717793
000020 21 a6 ee 3c 96 05 70 3e 0a a9 07 3d 97 82 3a 3e
       0.02913195 0.23439631 0.033120193 0.18213879
000030 3a 93 06 bd 96 16 59 bc 17 f4 8e bc b8 18 22 bc
       -0.03285525 -0.013250014 -0.017450375 -0.009893589
000040 68 fe 29 3d 0b 85 59 3d 17 28 88 bd 47 34 0a 3c
       0.041502386 0.053105395 -0.066482715 0.008435315
000050 9d c5 f2 3c 78 09 2b bd 92 88 32 3d ef 03 30 3d
       0.029635245 -0.041757077 0.043587275 0.0429725
000060 4c b0 92 bd 14 d2 27 3e c2 48 47 be 9c 43 c6 3d
       -0.07162532 0.16388732 -0.19461349 0.09680864
000070 e0 6a fd bd d0 cb a6 3d 4d a0 65 be 4e 47 14 3d
       -0.123739004 0.08144343 -0.22424431 0.036200814
000080 0e 17 25 be f9 09 c5 3c 70 5a f3 bd 0a 20 42 be
       -0.16122076 0.024052607 -0.11882484 -0.18957534
000090 07 d8 c6 bd a8 46 8a bd 54 d1 af 3d 60 71 4c bd
       -0.09709173 -0.06751758 0.08584848 -0.04991281
0000a0 5e 6d 80 3c 47 f5 06 be 8f 9d 1c bd 5f 01 c3 bd
       0.01567715 -0.13179503 -0.038236197 -0.09521746
0000b0 9d 8e 19 bc 24 e9 83 3c 03 f4 90 bd cb 85 c4 3d
       -0.009372381 0.016102381 -0.070777915 0.095958315
0000c0 ef 86 4a bb 95 7a a3 3d 09 60 bc 3d 81 1d a9 bd
       -0.003090318 0.07982365 0.09198005 -0.082575805
0000d0 4f fa 82 3d 5e 80 d8 bc 64 3d e0 bc d9 87 6d 3d
       0.06395399 -0.026428398 -0.027373023 0.057990883
0000e0 f1 2a 79 3d 59 bf 9b bd 4c 67 0a 3e c2 04 35 bd
       0.060831968 -0.07604856 0.13515967 -0.04419399
0000f0 e5 0e 1b be ec 17 c5 3d a3 c9 1c be 81 ef 55 bc
       -0.151424 0.09623703 -0.15311293 -0.01305759
000100 57 f3 b4 3b 34 dd 38 bc e1 bf 6a 3e d4 87 c5 bc
       0.0055221724 -0.011283208 0.22924758 -0.02411262
000110 b6 8a cf 3d a5 24 df 3d b4 c6 21 be 35 a1 87 bd
       0.10133879 0.10895661 -0.15798455 -0.06622545
000120 2e a0 06 bd 52 a2 3d 3d 82 7b 94 bd 91 c9 bc bd
       -0.032867603 0.04629738 -0.0725012 -0.09218133
000130 7d 91 f8 3d bb 61 ae 3d 74 3a 89 3c 1d 5c ba bd
       0.12137125 0.08514734 0.016751505 -0.090996005
000140 73 74 ac 3d ca 82 db 3d b9 4e 35 3e 46 72 d3 3d
       0.084206484 0.107183054 0.17705812 0.1032453
000150 26 66 75 3d 56 ad 43 bd cf ae 0c bd 59 9e 0b 3b
       0.05991187 -0.047772728 -0.034346398 0.00213041
000160 e2 f7 7e bd da 64 81 3d 13 29 3b 3c 38 f4 41 3e
       -0.06224812 0.06318064 0.011423367 0.18940818
000170 22 5a 80 bd 71 75 02 be 43 19 3a be 51 fa 2f bc
       -0.062671915 -0.12740113 -0.18173699 -0.010740832
000180 08 a5 1c 3c 57 50 a7 bc f9 8b f3 bd 47 fc 53 bc
       0.009560831 -0.020424051 -0.11891932 -0.012938566
000190 30 b6 b5 3d 78 55 a9 bc 3e 7f c6 3c c7 ab 35 3e
       0.0887264 -0.020670637 0.024230596 0.17741309
0001a0 94 d0 65 3e 88 7e a8 3c ed 24 e7 3d ce fd 88 3d
       0.22442847 0.020568147 0.1128634 0.066890344
0001b0 6f 1f 8b 3d db 44 0f bd 7e 7a 8e 3d 26 3d 2a 3d
       0.06793105 -0.034977775 0.06956957 0.041562222
0001c0 ac 25 51 be 44 9e 10 bd ce 57 8e be f9 d0 c1 bd
       -0.20424527 -0.035307184 -0.27801365 -0.094636865
0001d0 f7 27 83 bd 5c 12 d7 bd e9 de 7c bd 0d 45 9f bd
       -0.06404107 -0.10501549 -0.06173602 -0.07776842
0001e0 6d 8d 0f bc f7 43 33 3d d4 ea ba bd 37 30 89 bb
       -0.008761746 0.04376599 -0.09126821 -0.004186656
0001f0 89 2a 0d be ba 96 32 3c 07 99 fd 3c 75 54 6c 3d
       -0.13785757 0.010900194 0.030956758 0.057697732
000200 8f 65 cf 3d 52 fa a2 bc af ff f8 bc 0d f6 a4 3d
       0.10126793 -0.019894753 -0.030395357 0.08054743
000210 b8 a5 dc bd e5 43 32 3d 04 57 be 3d 6b 88 6b bd
       -0.10773796 0.04352178 0.09293941 -0.057503145
000220 38 88 ef 3d b6 3f b4 bd a9 b1 c7 3d 8c 1b 26 3d
       0.116959035 -0.088012144 0.09750683 0.040553614
000230 cc a3 af bd 50 20 fa 3b 65 67 8f bd 9b af 10 3d
       -0.08576164 0.0076332465 -0.07002143 0.03532372
000240 cb b5 e6 3d b0 69 60 3d 48 5b 8f 3d 8f ea 7f 3d
       0.11265143 0.05478829 0.069998324 0.062479552
000250 80 e9 22 3d d2 e5 28 bb 2b 31 13 3e 3f 77 9d 3d
       0.039773464 -0.002577175 0.14374225 0.0768876
000260 f4 02 02 bd e1 44 f4 bd e3 ac 2b bc d0 1e 8b 3d
       -0.031741098 -0.119272 -0.010478231 0.067929864
000270 e7 93 9b 3d 34 25 ab bd 77 b6 a7 bc 6f 1d e4 bc
       0.075965695 -0.08356705 -0.020472748 -0.027846066
000280 7f 3e 1e 3d 7d ee 74 3d 57 45 59 3b 98 2a 07 3e
       0.03863382 0.059797753 0.0033152902 0.13199842
000290 e7 f4 ea 3c 1b 09 d4 bc 97 2c 96 3d 01 16 05 bd
       0.028681232 -0.025883248 0.073327236 -0.032491688
0002a0 75 48 9f bc b0 b1 16 3e 69 dd 35 3d 50 b4 1a bd
       -0.01944373 0.1471622 0.044400606 -0.037769616
0002b0 67 8b 3e 3e 16 5b 44 3e ae 3a 1f bd 8f 2e 88 bd
       0.18607865 0.19175372 -0.03887432 -0.06649505
0002c0 38 04 dc bd 67 da a6 bd da d8 80 bd 5c 29 f8 3d
       -0.10742992 -0.08147126 -0.06291361 0.12117264
0002d0 ed f5 2d bc d9 37 72 bc 66 79 6c 3d 46 4b 2f 3e
       -0.010617715 -0.014783823 0.057732962 0.17118558
0002e0 53 e7 fb bd 24 04 93 bc 48 9c 2c bd 7e 41 16 3e
       -0.12299981 -0.01794631 -0.04214123 0.14673421
0002f0 97 33 9a 3d 9d b4 ab bd a5 ec cf bc e5 98 d0 3d
       0.07529371 -0.083840586 -0.025381396 0.10185412
000300 3a 7f 84 3b 60 de 8b bd 98 fd ce 3d a8 bf 1e bc
       0.004043487 -0.06829524 0.10106963 -0.009689249
000310 db 76 0b 3e c2 a8 e0 3d 0d bd fe 3d a6 97 50 3d
       0.13619559 0.10969688 0.12438402 0.050925873
000320 bd 07 83 3d bc 5d 0b 3e e8 84 06 bd 84 61 61 3d
       0.0639796 0.13609976 -0.032841593 0.05502464
000330 cb 61 0f 3e e1 b9 a9 bd 73 62 8b 3d c9 01 e1 bb
       0.14002149 -0.08287407 0.06805887 -0.006866668
000340 e0 5e ab 3d fd 03 8c bd 2a 43 d8 3d 9d 86 9c bc
       0.08367705 -0.06836698 0.105596855 -0.019107157
000350 e9 79 4d 3e f8 56 42 be d7 3a 85 bc a2 ef e2 3d
       0.20066036 -0.18978488 -0.016263409 0.110808626
000360 0d 4e 9b bd 64 10 87 3d 0f 43 85 bc 53 ff 40 bd
       -0.075832464 0.06594923 -0.016267328 -0.047118496
000370 06 7f 8c bd 92 f3 82 bd c4 a9 a4 bd d1 d8 78 3d
       -0.06860165 -0.063941136 -0.08040193 0.060753647
000380 31 89 ef 3d 80 48 0b be de 16 6f 3d 41 8e 07 3e
       0.11696089 -0.13601875 0.058371417 0.1323786
000390 c6 bb a9 3d f9 ab ba bd ee 1e 61 bd 93 9c df bd
       0.08287768 -0.091148324 -0.054961137 -0.10918536
0003a0 eb 26 4d 3e 17 21 6e bd 05 89 49 3d d4 f6 74 bd
       0.20034377 -0.058137026 0.049202938 -0.059805706
0003b0 70 65 d4 bd 1e 8e e5 bd d6 87 c9 3d ef 51 a5 3a
       -0.1037091 -0.11208747 0.09840362 0.0012612919
0003c0 e5 56 8f 3d 60 89 95 3b 01 49 ee 3d 43 12 bb bc
       0.06998996 0.0045634955 0.11635018 -0.022835856
0003d0 7f 12 bf bd 6b 6b 35 be 26 f9 f2 bd 94 5a d4 bd
       -0.093297 -0.17716758 -0.118639275 -0.10368839
0003e0 4b 2c c1 bd ae 9d c3 3d 23 9a ed bd 77 fa e9 3d
       -0.09432276 0.095515594 -0.11601665 0.114247255
0003f0 00 71 c5 bc 77 c4 05 3d 86 93 da bd f3 31 21 3e
       -0.024101734 0.032658067 -0.10672669 0.1574171

weight f4 [768]
000000 bf ae 5c 3f 1c bc 6c 3f c2 37 7f 3f 97 a3 74 3f
       0.8620414 0.9247453 0.99694455 0.9556212
000010 80 aa 7d 3f a4 87 7a 3f 2f 47 97 3f c0 c4 6c 3f
       0.9908829 0.9786322 1.1818599 0.92487717
000020 92 83 89 3f bb f4 83 3f 42 a0 92 3f fd 91 4b 3f
       1.0743277 1.0309061 1.1455157 0.79519635
000030 1f 3d 43 3f 7d 1f 66 3f 9e 3d 7b 3f 34 94 86 3f
       0.7626514 0.898918 0.98140895 1.0513978
000040 a1 8b 82 3f fb 71 82 3f d4 43 86 3f 64 6c 88 3f
       1.0198861 1.0191034 1.048945 1.0658078
000050 cc c4 81 3f a9 3d 84 3f 90 02 7b 3f c9 fb 76 3f
       1.0138183 1.0331317 0.98050785 0.96477944
000060 d7 a5 75 3f db 79 8d 3f 81 49 6f 3f 43 68 7c 3f
       0.95956177 1.1052812 0.93471533 0.9859659
000070 e2 e0 64 3f eb 14 66 3f e1 db 50 3f 2f 4f 3c 3f
       0.89405644 0.8987567 0.8158551 0.73558325
000080 4a 80 61 3f 74 e9 6f 3f 9f 7e 96 3f cf d1 71 3f
       0.8808638 0.93715596 1.1757392 0.9446077
000090 87 c0 81 3f db 38 76 3f 74 65 63 3f 4f b2 86 3f
       1.013688 0.96180505 0.8882668 1.0523165
0000a0 8e 20 71 3f b4 d6 79 3f 70 67 87 3f d0 40 75 3f
       0.941903 0.97593236 1.0578442 0.9580202
0000b0 b9 b0 6c 3f 9e a9 6a 3f 06 7a 6d 3f 8c 39 79 3f
       0.9245716 0.91665065 0.9276432 0.97353435
0000c0 1b 02 7a 3f 76 a5 7e 3f 19 d0 59 3f df f0 81 3f
       0.9765946 0.99471223 0.85083157 1.0151633
0000d0 bc 06 79 3f 60 82 77 3f e3 0a 70 3f b7 e8 79 3f
       0.972759 0.9668331 0.9376661 0.9762072
0000e0 b9 2e 74 3f 48 bb 7b 3f da af 80 3f 60 be 54 3f
       0.95383793 0.98332644 1.0053666 0.8310299
0000f0 fa 77 79 3f 59 db 84 3f 00 d5 61 3f 8b df 74 3f
       0.97448695 1.037944 0.8821564 0.956536
000100 e5 5e 6f 3f 7c b2 73 3f 21 d2 81 3f b8 ea 7e 3f
       0.9350417 0.9519422 1.0142251 0.995769
000110 d3 e6 7b 3f 04 f4 7c 3f 69 11 81 3f e3 36 85 3f
       0.98399085 0.9880984 1.0083438 1.0407375
000120 e1 97 82 3f 48 b2 8d 3f c1 c5 7c 3f 28 30 82 3f
       1.02026 1.1070032 0.9873925 1.0170946
000130 1c 82 93 3f c9 ad 6d 3f 91 e5 8a 3f 5f 8e 32 3f
       1.1524081 0.928433 1.0851308 0.6974849
000140 bf 90 7c 3f c4 79 74 3f 05 8b 95 3f 47 40 2f 3f
       0.98658365 0.954983 1.168305 0.68457454
000150 57 b7 78 3f 7c f8 81 3f a8 06 5f 3f 48 8c 84 3f
       0.97154754 1.0153956 0.8711953 1.035531
000160 8c b7 7a 3f 7e d5 80 3f 2c 24 93 3f 81 e1 74 3f
       0.9793632 1.0065153 1.1495414 0.9565659
000170 10 3e 6b 3f 93 94 7e 3f 42 b5 80 3f dc 5f 77 3f
       0.91891575 0.99445456 1.0055315 0.96630645
000180 04 73 87 3f 2c 90 8f 3f af 65 80 3f 8f fe 7a 3f
       1.0581975 1.1215873 1.0031031 0.98044676
000190 82 5d 5b 3f c6 16 86 3f ca b5 70 3f 27 32 5a 3f
       0.85689557 1.04757 0.9402739 0.85232776
0001a0 92 a4 7a 3f 0e f5 83 3f 9b d3 8b 3f df 89 6d 3f
       0.97907364 1.030916 1.0923952 0.927885
0001b0 da 45 84 3f f9 9d 69 3f a3 1b 84 3f a2 a9 88 3f
       1.0333817 0.9125667 1.0320934 1.0676768
0001c0 8b 8b 80 3f 0f 0e 62 3f 2f 9c 85 3f a4 85 86 3f
       1.0042585 0.883027 1.0438288 1.0509534
0001d0 44 e4 82 3f 01 0a 87 3f 8a 60 81 3f 95 57 5e 3f
       1.0225911 1.0549928 1.0107586 0.8685239
0001e0 e4 87 82 3f b2 2b 80 3f b7 66 82 3f fa 51 71 3f
       1.019772 1.0013335 1.0187596 0.9426571
0001f0 32 38 79 3f f7 85 8e 3f e0 98 82 3f 8f ff 73 3f
       0.9735137 1.1134633 1.0202904 0.95311826
000200 45 a2 8e 3f 46 7d 83 3f 2b 96 76 3f ac 8e 82 3f
       1.1143271 1.0272605 0.9632289 1.019979
000210 13 cc 84 3f ca 62 81 3f bb 12 7d 3f a0 1a 69 3f
       1.0374779 1.0108273 0.98856705 0.9105625
000220 c2 9a 71 3f 53 45 62 3f c8 e7 81 3f 72 74 7e 3f
       0.94376767 0.8838703 1.0148859 0.9939643
000230 a7 a7 90 3f 68 9c 8a 3f a0 13 84 3f 9c 6c 6a 3f
       1.1301163 1.0828981 1.0318489 0.91571975
000240 88 86 80 3f d3 0a 79 3f 70 00 6f 3f 67 f3 6e 3f
       1.0041056 0.9728214 0.9336004 0.9334015
000250 63 11 59 3f 85 2b 82 3f cf 25 83 3f 3b f6 7e 3f
       0.84792155 1.0169531 1.0245913 0.9959447
000260 fd 0e 4f 3f 23 c2 7b 3f 5b fa 6a 3f e8 88 6e 3f
       0.80882245 0.98343104 0.9178826 0.9317765
000270 dc 5a 6d 3f f9 e7 64 3f 15 c9 50 3f 9c 4f 77 3f
       0.92716765 0.8941646 0.81556827 0.9660585
000280 90 70 82 3f 97 2f 6d 3f b6 e9 40 3f 7d 65 8a 3f
       1.0190601 0.9265074 0.75356615 1.0812222
000290 36 84 8b 3f a1 4e 7d 3f e5 45 77 3f 2d 13 8b 3f
       1.0899723 0.98948103 0.96591026 1.0865227
0002a0 2d 66 8c 3f 30 1c 89 3f 95 a2 6a 3f 6c ad 73 3f
       1.0968682 1.0711727 0.9165433 0.95186496
0002b0 5b 59 8a 3f db af 91 3f 26 b1 75 3f a7 14 5c 3f
       1.0808519 1.1381792 0.9597343 0.8596901
0002c0 e3 f0 8f 3f c6 2b 80 3f 49 62 82 3f a8 95 8f 3f
       1.1245388 1.0013359 1.0186244 1.1217546
0002d0 f9 ad 7a 3f 34 12 55 3f 62 66 74 3f e3 08 71 3f
       0.9792171 0.832309 0.95468724 0.94154185
0002e0 c1 df 84 3f 67 49 80 3f cc 89 74 3f 49 5a 67 3f
       1.0380784 1.0022401 0.9552276 0.9037214
0002f0 db 68 81 3f 3c b2 7a 3f 49 5d 84 3f 40 94 61 3f
       1.0110124 0.97928214 1.0340968 0.88116837
000300 df 64 87 3f 67 bc 85 3f d6 b3 6d 3f a7 e7 65 3f
       1.0577658 1.0448121 0.9285253 0.898066
000310 ff 35 84 3f e5 f8 68 3f 40 ea 80 3f f9 9a 75 3f
       1.0328978 0.9100478 1.0071487 0.95939595
000320 5d ae 8b 3f 88 d7 52 3f 7e 51 6b 3f 15 c1 7f 3f
       1.0912586 0.82360125 0.9192122 0.99903995
000330 90 b0 6c 3f 96 f5 8e 3f 76 0e 51 3f 4f bf 82 3f
       0.92456913 1.1168697 0.8166269 1.0214633
000340 99 e8 48 3f 9b af 7f 3f 1c 47 71 3f 37 87 78 3f
       0.78479916 0.9987733 0.9424913 0.9708132
000350 f2 7e 7a 3f f7 39 7c 3f ad 02 88 3f 8f 3f 56 3f
       0.97849953 0.9852595 1.0625817 0.8369073
000360 a0 6f 83 3f 41 57 80 3f d5 ab 7e 3f 8f 9b 5b 3f
       1.026844 1.0026628 0.99480945 0.8578424
000370 ed 90 77 3f 6a 34 86 3f 02 41 7b 3f 16 76 6b 3f
       0.96705514 1.0484746 0.9814607 0.9197706
000380 ee c8 5d 3f 7a 56 79 3f 57 6d 6d 3f e3 7a 8a 3f
       0.8663472 0.9739758 0.92744964 1.0818752
000390 84 f3 81 3f c5 54 71 3f bf dd 80 3f 7d 18 6d 3f
       1.015244 0.94269973 1.0067672 0.9261549
0003a0 81 19 7a 3f 35 6e 7a 3f cf d6 62 3f d1 d6 7a 3f
       0.97695166 0.9782441 0.8860902 0.97984034
0003b0 96 ce 7d 3f 0d 75 75 3f d7 58 68 3f 4c 6d 5b 3f
       0.9914335 0.9588173 0.9076056 0.8571365
0003c0 8f c8 7a 3f 17 df 80 3f 52 4e 68 3f ac e2 92 3f
       0.9796228 1.0068082 0.9074451 1.1475425
0003d0 18 f0 58 3f 2b 5b 85 3f ab 1d 83 3f eb 82 6a 3f
       0.84741354 1.0418447 1.0243429 0.91606015
0003e0 73 3c 36 3f 6a e9 87 3f 09 5b 6f 3f be 79 76 3f
       0.7118599 1.0618107 0.93498284 0.96279514
0003f0 33 92 6c 3f c2 c2 85 3f 62 8f 82 3f a2 fe 83 3f
       0.9241058 1.045006 1.0200007 1.0312083
