subject-models/ada-delta/lilbub2023-05-27T13-15-54_lilbub-ada/embeddings_gs-4500.pt (torch, 946028 bytes, 172 tensors)

pre_vecs f4 [2, 768]
0	0x3c0a191a	0.008428836
1	0xbc85d1c6	-0.01633538
2	0x3cc6e74c	0.024280213
3	0x3cb207c9	0.021732228
4	0x3d3abcbc	0.045590147
5	0xbc0e40aa	-0.008682409
6	0xbce0d35a	-0.02744453
7	0xbb1a55cf	-0.002354968
8	0x3c92411e	0.017853316
9	0x3cfb894c	0.030705117
10	0x3d413aa2	0.047175057
11	0x3d3b6a6f	0.0457558
12	0xbc8562de	-0.016282495
13	0xbc3137ac	-0.010816496
14	0x3c2dd0cd	0.010608864
15	0x3d76d9a1	0.06026614
16	0xbb2b6555	-0.0026152928
17	0xbca0f07e	-0.019645926
18	0xbc1cb3b1	-0.009564326
19	0x3c2a9aa9	0.01041285
20	0xbc06a464	-0.008217905
21	0x3b35b37f	0.0027725396
22	0x3bb9f1b4	0.005674565
23	0xbc8493c6	-0.016183745
24	0x3cd7d555	0.026346842
25	0xbc77ab31	-0.015116499
26	0xbbc5300b	-0.00601769
27	0x3c801f47	0.015639914
28	0xbd74a1c1	-0.059724573
29	0x3c02ae40	0.007976115
30	0xbc983f19	-0.018584775
31	0xba9ff0a4	-0.0012202454
32	0xbc964ce1	-0.018347206
33	0x3cbba9e9	0.022908168
34	0xbc5be097	-0.013420246
35	0x3d25d823	0.040489327
36	0xbcdf6490	-0.027269632
37	0x393f74b3	0.00018258653
38	0xbb906e69	-0.004407693
39	0x3c8f0d6b	0.017462453
40	0x3c3bf2e5	0.011471485
41	0xbba1386d	-0.0049200566
42	0x3d24099c	0.040048227
43	0x3b11cee4	0.002224856
44	0x3c406750	0.011743382
45	0xbcf40c8c	-0.029791139
46	0x3b87deea	0.0041464465
47	0xbc71d7a3	-0.014760884
48	0xbc3115d9	-0.010808432
49	0x3b704954	0.00366648
50	0xbbbf8a60	-0.005845353
51	0x3bad84f2	0.0052953893
52	0x3d2970b1	0.041367237
53	0x3c595056	0.0132637825
54	0xbcb490ab	-0.02204164
55	0x3b4adef0	0.0030955635
56	0x3cdefa6b	0.027219018
57	0x3cbc645f	0.02299708
58	0x3cd4da94	0.025983132
59	0x3cf9b1d9	0.030480312
60	0xbce3cd49	-0.027807849
61	0xbbe2d416	-0.0069222553
62	0x3b85b620	0.004080549
63	0xbc059290	-0.008152619
64	0x3cc5d61b	0.024149945
65	0xbb82ec14	-0.003995428
66	0x3c4d73ba	0.012539798
67	0xbaa2ba25	-0.0012415095
68	0x3b311d56	0.0027025542
69	0x3c40dc1d	0.011771229
70	0xbc94676a	-0.018115718
71	0xbbb404b1	-0.0054937233
72	0xbcaa4367	-0.020784093
73	0xbc8cc62f	-0.017184345
74	0x3b6319bd	0.0034652792
75	0x3d171540	0.0368855
76	0x3b9f0630	0.0048530325
77	0xb835864d	-4.327884e-05
78	0xbc4c3a3a	-0.012465054
79	0x3b6778f0	0.0035319887
80	0xbb8add1d	-0.0042377845
81	0xbbc2bf5b	-0.0059432215
82	0x3cc33bf5	0.0238323
83	0xbd0ea5e1	-0.034826163
84	0xbca59967	-0.02021475
85	0xbce9f024	-0.02855689
86	0x3d06a96b	0.032876413
87	0xbc00ef4f	-0.007869556
88	0x3c8ebe95	0.017424861
89	0xbb91abca	-0.0044455277
90	0xbd3f3a97	-0.046686735
91	0x3b8d7922	0.0043174187
92	0x3c9a29a3	0.018818682
93	0xba7ff872	-0.0009764499
94	0xbb6f3a32	-0.0036503193
95	0x3cacf6ac	0.021113716
96	0x3c94434f	0.018098501
97	0x3c0053e7	0.007832504
98	0x3c80209e	0.015640553
99	0x3d183eb6	0.03716918
100	0xbc4fc963	-0.012682292
101	0xbb780228	-0.0037843082
102	0x3c0b8e4f	0.008517816
103	0x3bdf8cbf	0.006822198
104	0x3babbf81	0.005241335
105	0x3c08253c	0.008309659
106	0xba9ff537	-0.0012203817
107	0xbc0e58aa	-0.008688131
108	0xbcf481bb	-0.029847017
109	0xbbe8e867	-0.0071077826
110	0x3bb3bef7	0.0054854113
111	0xbc8fee96	-0.017569821
112	0xbce8c790	-0.028415471
113	0xbbdd3a81	-0.006751359
114	0x3c543f83	0.0129545955
115	0xbd008fa1	-0.031386975
116	0xbc0707d8	-0.008241616
117	0x3c0ba49a	0.008523131
118	0x3c7a7175	0.015285839
119	0xbb7404c1	-0.003723428
120	0x3bb27ac8	0.0054467656
121	0x3c4033d8	0.0117311105
122	0x3b36ed2e	0.0027912366
123	0x3bdfc5c6	0.0068289964
124	0xbb058156	-0.002037128
125	0xbb6de21b	-0.00362981
126	0xbcb20332	-0.02173004
127	0xbb8f6175	-0.0043756315
128	0xbc2dc7c1	-0.010606707
129	0x3bf30608	0.0074164905
130	0xbcee326f	-0.029076783
131	0xbb707507	-0.0036690847
132	0x3c5b0f60	0.013370365
133	0xbcabbc3c	-0.02096378
134	0xbc97519e	-0.018471535
135	0xbd0991ca	-0.0335863
136	0x3c1e2e86	0.009654647
137	0xbc3ac65b	-0.011399831
138	0x3ccf7a59	0.025326895
139	0x3d21f281	0.03953791
140	0xbd459007	-0.04823306
141	0x3c548b59	0.012972676
142	0xbbca02a7	-0.006164867
143	0xbcc0c9cd	-0.023533726
144	0x3cd73800	0.02627182
145	0xbc92d550	-0.017923981
146	0x3c8fde68	0.017562106
147	0x3b911c6c	0.004428437
148	0x3a9b2b1a	0.0011838407
149	0xbb9d7f1c	-0.0048064124
150	0x3c158aa4	0.009127293
151	0x3babef5a	0.005247039
152	0xbc28b68c	-0.010297429
153	0x3c26e4fe	0.010186432
154	0x3c1879cc	0.009306382
155	0xbc2d0ac2	-0.010561647
156	0x3da8f1c0	0.08249235
157	0x3bb1e54e	0.0054289466
158	0xbc97306e	-0.01845571
159	0xbc50ea14	-0.012751121
160	0xbb9e5bd1	-0.0048327227
161	0x3d185b6c	0.03719656
162	0x3c945cce	0.018110659
163	0x3cb5a8cc	0.022175215
164	0x3ccb5027	0.024818493
165	0x3c4f94f3	0.01266979
166	0x3bd1bb1f	0.0064004804
167	0xbc30bb10	-0.010786787
168	0xbae1e3d3	-0.0017234035
169	0x3cd0f107	0.025505556
170	0x3b74f5ba	0.003737791
171	0x3cd14507	0.02554561
172	0xbcadff8a	-0.021240015
173	0x3b4ff3b4	0.0031730952
174	0x3b6eb74b	0.003642517
175	0x3ce34e58	0.027747318
176	0x3b1822bf	0.002321407
177	0xbcfdb3d5	-0.03096954
178	0xbc65e93a	-0.014032656
179	0x39ea27aa	0.0004466151
180	0x3c85b52b	0.01632174
181	0x3bca44a2	0.0061727325
182	0x3d3ca291	0.046053473
183	0xbc2d995e	-0.010595648
184	0x3d47a2d0	0.048739254
185	0xbd38c3f3	-0.045108747
186	0xbd2ac5ff	-0.04169273
187	0x3b4b4334	0.0031015398
188	0xbb358360	-0.0027696714
189	0x3d080b1a	0.033213712
190	0x3c551528	0.013005532
191	0x3d250829	0.040290985
192	0x3d02b091	0.031906668
193	0xbc819117	-0.015816255
194	0xbd00a188	-0.03140405
195	0x3cdd401b	0.027008107
196	0x3d178498	0.036991686
197	0x3d16468d	0.036688376
198	0xbc3cba44	-0.011519019
199	0xbbd70e60	-0.006562993
200	0xbd03ff40	-0.032225847
201	0x3c2d8d41	0.01059276
202	0xbb8c3b38	-0.0042795204
203	0xbc346b80	-0.011011958
204	0x3c3385e3	0.010957214
205	0x3b1dc091	0.0024071077
206	0x3bcfc393	0.006340453
207	0x3ca393f4	0.01996801
208	0x3c4f2bc9	0.012644717
209	0x3ca73e7b	0.020415535
210	0x3d8f8c25	0.07009152
211	0xbc90bcd5	-0.017668167
212	0x3c6d53d1	0.014485315
213	0xbc01cbce	-0.007922126
214	0xbca78019	-0.020446824
215	0xbacbb7f8	-0.0015542498
216	0x3cb36790	0.021899968
217	0x3d1b0d41	0.037854437
218	0x3d020af6	0.031748734
219	0xbc8434d3	-0.01613847
220	0xba0823f4	-0.0005193346
221	0xbcc8f8e9	-0.024532752
222	0xbd32501a	-0.043533422
223	0x3c8a1346	0.016854893
224	0x3c1db560	0.009625763
225	0xbc1fa99d	-0.009745029
226	0xbc31d62c	-0.010854285
227	0xbcbbaf95	-0.022910872
228	0x3b73473c	0.0037121316
229	0xbb042de2	-0.002016895
230	0x3cd127b2	0.025531624
231	0x3cd0106f	0.025398461
232	0x3b673616	0.003528004
233	0x3bd04c69	0.006356765
234	0x3c813bc1	0.015775563
235	0xbc35a9e1	-0.011087866
236	0xbb3b7c6a	-0.0028608092
237	0xbbb2be84	-0.00545484
238	0x3d2ec9d9	0.042672966
239	0xbc882c00	-0.016622543
240	0x3c1adf33	0.009452629
241	0x3cfa0dac	0.030524097
242	0xbc6603f6	-0.01403903
243	0x3c916211	0.017746957
244	0x3d1aaa65	0.037760157
245	0x3c48991e	0.012243537
246	0x3cdca72c	0.026935183
247	0xbd16def1	-0.036833707
248	0xbd0febd1	-0.035137
249	0x3c958e05	0.018256197
250	0xbcfbc6bb	-0.03073441
251	0x3cdf7a8a	0.02728011
252	0xbcf62df8	-0.030051216
253	0xbd12f89b	-0.03588162
254	0xbc2a89d7	-0.01040884
255	0x3cbd0a58	0.023076221

basis_rand_weights f4 [16, 5]
0	0x3bd640d3	0.0065384894
1	0x3cbede95	0.023299495
2	0x3cd083a8	0.025453404
3	0x3e641483	0.2227345
4	0xbd378c20	-0.044811368
5	0x3d8d4c2e	0.06899296
6	0xbcc3216e	-0.023819651
7	0xbdd7ce0b	-0.105373465
8	0xbdea40cd	-0.11438141
9	0x3d4e222b	0.050325554
10	0xbdd2d62c	-0.10294756
11	0x3d8a6e6b	0.06759342
12	0x3d2e5b10	0.042567313
13	0x3de64b6c	0.11244854
14	0xbd419afc	-0.047266945
15	0x3ca07310	0.019586116
16	0xbd2b6c4a	-0.04185132
17	0xbd22448a	-0.039616145
18	0xbdf6fe22	-0.12060191
19	0x3cf76fbc	0.030204646
20	0x3d3cdb69	0.046107683
21	0xbd8ba828	-0.06819183
22	0xbd3b734a	-0.045764245
23	0x3ced0ca1	0.028936686
24	0xbdc28d06	-0.09499554
25	0xbd03ae63	-0.03214873
26	0xbc85976d	-0.016307557
27	0xbd0249a5	-0.031808514
28	0x3ca088c1	0.01959646
29	0xbd7f2814	-0.06229408
30	0x3dc7cfdb	0.09756442
31	0xbde3aec5	-0.11117319
32	0xbd3ba97e	-0.045815937
33	0x3d5a0804	0.0532303
34	0xbdaab6e7	-0.08335667
35	0xbd6f4728	-0.05841747
36	0x3d4d2534	0.050084308
37	0xbe15c804	-0.14627081
38	0x3d9af8a5	0.075669564
39	0xbd7703a8	-0.06030622
40	0x3e604805	0.21902473
41	0xbe21c79b	-0.157988
42	0xbd432414	-0.04764183
43	0x3db704af	0.0893644
44	0xbdaf0da5	-0.08547524
45	0x3e58d9bf	0.21176814
46	0xbe1b35bc	-0.15157217
47	0xbd5d3b40	-0.054011583
48	0x3c9e7f84	0.019347914
49	0xbdaafe3d	-0.08349273
50	0x3e23c896	0.15994486
51	0xbdad63e5	-0.08466319
52	0x3d87d654	0.06632677
53	0x3e0ab8f3	0.13547115
54	0xbe207156	-0.15668234
55	0x3d212bbf	0.03934836
56	0xbd477365	-0.048694033
57	0xbe1b8814	-0.15188628
58	0x3e350e66	0.17681274
59	0xbc61bbb9	-0.013777667
60	0x3e49500d	0.19659443
61	0xbe43640d	-0.19081135
62	0x3d08ec62	0.033428557
63	0x3e7f06c9	0.24904932
64	0xbda22d4c	-0.07918796
65	0xbe2d8ac4	-0.16947466
66	0x3bea260c	0.007145649
67	0x3d3cdcf2	0.046109147
68	0x3e79467d	0.24343295
69	0xbc8cf067	-0.017204477
70	0x3d687167	0.056748774
71	0xbdbc0e5c	-0.09182426
72	0xbdefdfdf	-0.11712622
73	0x3d22ea70	0.03977436
74	0xbe576c3d	-0.21037383
75	0xbd4adb4c	-0.049525544
76	0x3d942113	0.07232871
77	0x3cf149b6	0.029454093
78	0x3ec29bd6	0.38009518
79	0xbd138f65	-0.036025424

basis_vecs f4 [3, 768]
0	0x3c5298cd	0.012853813
1	0xbb579d87	-0.003290029
2	0x3c2fd1e0	0.01073119
3	0x3c900d61	0.017584505
4	0x3c82f33e	0.015985128
5	0x3c5e1328	0.013554372
6	0xbc9660f9	-0.018356787
7	0xbbc73621	-0.0060794507
8	0x3c54b369	0.012982228
9	0x3c835964	0.016033836
10	0x3c1c8e79	0.0095554525
11	0x3cae0479	0.021242367
12	0xbc86021a	-0.016358424
13	0xbc5a2c2b	-0.0133161945
14	0xb98536a2	-0.0002540844
15	0x3d3bcee1	0.045851592
16	0x3cbb8531	0.022890659
17	0xbc003170	-0.007824287
18	0x3a97de08	0.0011586556
19	0x3c163158	0.009167038
20	0xba53c3e7	-0.0008078203
21	0xbd0c340c	-0.034229323
22	0x3c16d323	0.009205612
23	0x3c13b039	0.009014183
24	0x3bedb150	0.0072538033
25	0xbccce180	-0.02500987
26	0xbc787bde	-0.015166251
27	0x3d159ff5	0.0365295
28	0xbd62e89f	-0.055397626
29	0x3cbc69cc	0.022999667
30	0xbbed96a0	-0.007250622
31	0x3c1160d4	0.008873183
32	0xbc580c05	-0.013186459
33	0x3c164c2a	0.009173432
34	0xbbf5f292	-0.0075057233
35	0x3c87f0cc	0.016594313
36	0xbb376249	-0.0027982167
37	0x3b093456	0.0020935736
38	0x3c21ee13	0.0098834215
39	0x3c1a0232	0.0093999375
40	0x3c5665fd	0.013085839
41	0x3a857dd3	0.0010184593
42	0x3d29b35f	0.041430827
43	0x3bc2cef8	0.0059450828
44	0x3b26df1f	0.002546258
45	0xbcd9ca7d	-0.026585812
46	0x3c2673b3	0.010159421
47	0xbc07057c	-0.008241054
48	0x3cbcb26a	0.023034293
49	0x3c1fdbac	0.009756964
50	0xbbd807f8	-0.006592747
51	0xba0f2d47	-0.0005461764
52	0x3cc9f1ff	0.024651526
53	0x39b768a9	0.00034982458
54	0xbd09bb93	-0.03362615
55	0x3c80e3c0	0.0157336
56	0x3cedac01	0.029012682
57	0xbc1218fe	-0.008917091
58	0x3c768064	0.015045259
59	0x3b784d82	0.0037887995
60	0xbc840815	-0.016117135
61	0x3b60f385	0.0034324836
62	0xbbfbc112	-0.007682928
63	0xbc10b502	-0.008832218
64	0x3bfb0f0c	0.007661706
65	0x3b8aac0b	0.004231935
66	0x3cf8b486	0.030359518
67	0xbbaf70a8	-0.005354006
68	0x3ba927ce	0.005162216
69	0xbb60ef2d	-0.0034322247
70	0xbc5aad87	-0.013347036
71	0xbbe4ffcd	-0.0069885016
72	0x39fa345c	0.00047722727
73	0xbccfe5ec	-0.02537819
74	0x3ab2975c	0.0013625431
75	0x3d0b53c8	0.034015447
76	0x3ce2dc19	0.027692841
77	0xbaa24f26	-0.0012383207
78	0xbc03878b	-0.008027921
79	0x3b2df523	0.0026543818
80	0x3b9d744d	0.004805124
81	0x3ac06c21	0.0014680662
82	0x3cb9ad44	0.022665627
83	0xbc43b2b7	-0.011944464
84	0xbbd741c0	-0.0065691173
85	0xbc1e381a	-0.00965693
86	0x3aa18a4e	0.0012324543
87	0xbc39c8fa	-0.01133942
88	0x3ca3e3fc	0.020006172
89	0x3ad7e96b	0.0016472762
90	0xbc890b12	-0.016728912
91	0x3d184e0a	0.0371838
92	0x3cb9846d	0.022646153
93	0xbcc7ee0a	-0.024405498
94	0xbc6ad067	-0.014331914
95	0xbc6c1585	-0.0144094275
96	0xbc3b8c08	-0.01144696
97	0xbc99fa5b	-0.018796137
98	0xbc1b5387	-0.009480364
99	0x3cc501f7	0.024048788
100	0xbcb4e4b3	-0.022081709
101	0xbba51a29	-0.005038519
102	0xbbb948f3	-0.005654448
103	0xbabbf9c9	-0.001434141
104	0x3c507e1b	0.012725378
105	0xbc141387	-0.009037859
106	0x3ca121f9	0.01966952
107	0x3ad69e1c	0.0016374025
108	0xbc2b1f60	-0.010444492
109	0xbce65914	-0.028118648
110	0x3b789132	0.003792834
111	0xbcc9d795	-0.02463893
112	0xbcb7f91e	-0.022457656
113	0xbb16e4d6	-0.002302458
114	0x3d028cb1	0.031872455
115	0xbc97a6dd	-0.018512184
116	0xb9f188d6	-0.00046069053
117	0xbb13cf23	-0.0022553883
118	0x3b9a28cb	0.00470457
119	0xbcc006e5	-0.023440788
120	0x3c9d2506	0.019182693
121	0x3b4cfe86	0.0031279637
122	0xbc2c9eff	-0.0105359545
123	0xbb13582a	-0.002248297
124	0xbcc21445	-0.023691306
125	0x3b95d821	0.0045728837
126	0xbd23d2ee	-0.03999608
127	0x3b3ce371	0.002882209
128	0xba999e61	-0.0011720174
129	0xbb8e549c	-0.0043435823
130	0xbcc70bef	-0.024297683
131	0x3c1e3ff8	0.009658806
132	0xbcc32cad	-0.023825014
133	0xbd0a666b	-0.03378908
134	0xbc4d4005	-0.0125274705
135	0xbc933e42	-0.017974023
136	0x3c6f07a1	0.014589221
137	0xbca915cc	-0.020640276
138	0x3c6b51d1	0.014362768
139	0x3c463439	0.012097412
140	0xbd7a1499	-0.0610548
141	0xbc49546c	-0.012288194
142	0x3c9b003c	0.01892101
143	0xbb2e7620	-0.00266207
144	0x3c984f54	0.018592514
145	0xbcdc73e1	-0.026910724
146	0x3c9574f8	0.018244252
147	0x3c468f98	0.012119196
148	0x3c53b8fb	0.012922521
149	0x3c45d0f6	0.012073746
150	0xbba77052	-0.005109825
151	0xba24951a	-0.00062783214
152	0x3b8852cc	0.004160261
153	0xbada6a45	-0.0016663751
154	0x3ba67078	0.0050793253
155	0xbbbd31fb	-0.0057737804
156	0x3d45656d	0.04819243
157	0xbaef5287	-0.0018258848
158	0xbb7c3416	-0.0038483194
159	0x3a48477c	0.00076400465
160	0xbbf84246	-0.00757626
161	0x3c9b8517	0.01898436
162	0x3cfb1f04	0.030654438
163	0x3d0172a0	0.031603456
164	0x3cbd2722	0.023089949
165	0x3c22ec48	0.009944029
166	0xbc42d3d6	-0.011891326
167	0xbb7a2bd4	-0.0038173096
168	0xb8277846	-3.9927916e-05
169	0x3c684e49	0.014178821
170	0x3c8d8619	0.017275857
171	0x3b75dc97	0.0037515515
172	0xbbc6b7b5	-0.00606438
173	0x3c55b5af	0.013043805
174	0x3bca4dad	0.0061738105
175	0x3c1b2f9f	0.009471803
176	0xbc997244	-0.018731244
177	0xbceb2840	-0.028705716
178	0xbb567e2c	-0.0032729013
179	0x3bfb2438	0.0076642297
180	0x3c99f202	0.018792156
181	0x3c88136e	0.016610827
182	0x3ca29464	0.019846149
183	0x3a875301	0.001032442
184	0xbb42d449	-0.0029728583
185	0xbc8b5ea4	-0.017012902
186	0xbc636e0d	-0.013881219
187	0x3c42ef09	0.011897811
188	0xb92edc7d	-0.00016676071
189	0x3c938137	0.01800595
190	0x3cb30deb	0.021857223
191	0xbada674f	-0.0016662868
192	0x3c4382c1	0.01193303
193	0xba9be17b	-0.001189276
194	0xbd1009b7	-0.035165515
195	0x3cc7e8cb	0.024402997
196	0x3c3e19e4	0.0116028525
197	0x3d1c8753	0.038214993
198	0xbcb90917	-0.022587342
199	0x3bad829d	0.0052951113
200	0xbc2cc7da	-0.010545695
201	0xbc1c9b32	-0.009558486
202	0xbbe6d031	-0.0070438613
203	0xbaa8f054	-0.0012889006
204	0x3cca6a32	0.024708841
205	0xbc3b918f	-0.011448278
206	0x3c84d011	0.016212495
207	0x3c8841b9	0.016632902
208	0x3c80984a	0.015697617
209	0x3c93270e	0.017962959
210	0x3d144dfa	0.036207177
211	0xbccc984f	-0.02497497
212	0x3a957f1c	0.0011405679
213	0xbc62d1db	-0.013843979
214	0x3be02664	0.006840514
215	0x3cd853ae	0.02640709
216	0x3c442878	0.011972539
217	0x3cd74b17	0.026280923
218	0xbb3749b5	-0.0027967517
219	0xbc9eb406	-0.019372951
220	0xb8169bdd	-3.5907946e-05
221	0xbcf41b62	-0.029798213
222	0xbd2bc4c9	-0.041935716
223	0x3bb8b988	0.0056373514
224	0xbc02e59a	-0.007989312
225	0xbcaf14e2	-0.021372262
226	0x3c860756	0.01636092
227	0xbcbf5087	-0.023353828
228	0xbbb9b34f	-0.005667127
229	0xbb114ea0	-0.0022172108
230	0x3c7f722d	0.0155911865
231	0xbc4ec081	-0.012619139
232	0x3c4f68df	0.012659281
233	0xbc0d716a	-0.008632997
234	0x3bf8ac7e	0.007588922
235	0x3c401bec	0.011725407
236	0x3b9cf5db	0.0047900504
237	0x3c09fbe0	0.008421868
238	0x3ca340f5	0.019928435
239	0xbcd6693a	-0.026173223
240	0x3c799049	0.015232154
241	0x3b798e6e	0.003807928
242	0x3b86cdf0	0.004113905
243	0xbbcbb6bb	-0.0062168515
244	0x3cab485a	0.020908523
245	0x3c8335ed	0.016016925
246	0x3bd74485	0.0065694475
247	0xba8b02c8	-0.0010605687
248	0xbcc21b98	-0.023694798
249	0x3c7213dc	0.014775243
250	0xbcb4522e	-0.022011843
251	0x3b9df7c2	0.004820795
252	0xbb939e97	-0.0045049894
253	0xbc16a98e	-0.009195698
254	0xbc9bf245	-0.019036422
255	0x3c8768b0	0.016529411

basis_comm_weights f4 [1, 5]
0	0x3eb9487a	0.36188108
1	0x3f1786a2	0.5918981
2	0x3e1c2e5c	0.1525206
3	0x3ebd745e	0.37002844
4	0x3dd724d2	0.1050507

bias f4 [16, 768]
0	0xbaa80afc	-0.0012820656
1	0xbc6ba2b5	-0.014382054
2	0xbc942d90	-0.018088132
3	0x3d354d4e	0.044263177
4	0x3ce737aa	0.028224785
5	0xbcae0f67	-0.021247579
6	0x3cadd51f	0.021219788
7	0x3c4b1ba5	0.012396728
8	0xbcde377e	-0.02712607
9	0x3b37c377	0.002804009
10	0xbce41578	-0.027842268
11	0xbc2d3dcc	-0.010573816
12	0xbc5c8499	-0.013459348
13	0xbcdacfe0	-0.02671045
14	0xbc884970	-0.01663658
15	0xbb051ea9	-0.0020312464
16	0xbd7204b4	-0.059086516
17	0xbc13e9e6	-0.009027934
18	0x3ca9f39e	0.020746049
19	0x398e2805	0.00027114167
20	0x3c5be340	0.01342088
21	0x3af0483f	0.0018332078
22	0x3c84e4bc	0.01622235
23	0xbb4ec6e7	-0.003155166
24	0xbda24c1a	-0.079246715
25	0x3cf3ddc0	0.029768825
26	0xbdc0d9dc	-0.094165534
27	0xbcd580af	-0.026062338
28	0xbd8fcc3d	-0.07021377
29	0x391b5a0c	0.00014815497
30	0xbcea08c1	-0.028568627
31	0x3d55a0bb	0.052155238
32	0xbd7bd5df	-0.06148326
33	0x3b165afe	0.002294242
34	0xbc90bc8f	-0.017668037
35	0xbbb86e4d	-0.0056283833
36	0xbd0522f2	-0.03250403
37	0x3cdbd9a4	0.026837178
38	0x3d435e44	0.04769732
39	0x3c5401cd	0.012939882
40	0x3d429b9d	0.047511686
41	0xbcaa6616	-0.020800631
42	0x3cfb949d	0.030710513
43	0xbc774421	-0.015091927
44	0x3c551520	0.013005525
45	0xbc2ef98d	-0.010679615
46	0x3d2d806e	0.04235881
47	0xbcce81b8	-0.02520834
48	0x3d90c21c	0.070682734
49	0x3d8f77ba	0.07005258
50	0x3d046cb9	0.03233025
51	0xbd8ffcfb	-0.07030674
52	0x3c39cd30	0.011340424
53	0x3d074edd	0.033034194
54	0x3c9517a5	0.018199751
55	0x3d9fbd0d	0.077997304
56	0xbadbce04	-0.0016769771
57	0xbb3c636c	-0.0028745783
58	0xbc88c4d2	-0.016695414
59	0x3a279282	0.0006392376
60	0x3c37e6b1	0.011224435
61	0x3d0d20ce	0.034455113
62	0xbc106278	-0.008812539
63	0xbcbecae3	-0.023290103
64	0xbc0773a5	-0.008267318
65	0xbd18e49b	-0.03732739
66	0xbbf619fd	-0.0075104223
67	0xbcafce5f	-0.02146071
68	0x3d13cfb9	0.03608677
69	0x3d267dfd	0.040647496
70	0xbd367fbc	-0.04455541
71	0x3cbaa66b	0.022784432
72	0x3ba17e78	0.0049284063
73	0xbc694e94	-0.014239926
74	0xbd382b0a	-0.04496292
75	0xbae43c1c	-0.0017412934
76	0xbb45513b	-0.0030108232
77	0x3ca26c49	0.019827025
78	0x3d12e8dd	0.035866607
79	0xbc7caf0e	-0.015422596
80	0xbc21f11a	-0.009884143
81	0x3d92eaa4	0.071736604
82	0x3cf54c9d	0.029943759
83	0xbd2070ca	-0.039170064
84	0x3d7c706b	0.061630648
85	0x3bff9f98	0.0078010075
86	0x3bb00d8b	0.005372708
87	0xbc171eef	-0.009223684
88	0x3be49a83	0.006976427
89	0x3b54e70b	0.0032486345
90	0xba9c0bc0	-0.0011905357
91	0x3d738684	0.059454456
92	0x3d2b6588	0.041844875
93	0x3bdd9f73	0.0067633926
94	0x3c3e0aa3	0.011599216
95	0x3d023321	0.03178704
96	0x3c69c934	0.014269162
97	0xbc8357d9	-0.0160331
98	0xbd8338b6	-0.06407301
99	0x3c1b49e0	0.009478062
100	0x3c11ca64	0.008898351
101	0xbc63942c	-0.013890307
102	0xbb8361b2	-0.004009449
103	0x3d0c99ab	0.034326237
104	0x3c80af4f	0.015708594
105	0xbd52808d	-0.051392127
106	0x3b47ed26	0.0030506342
107	0xbd745aab	-0.05965678
108	0xbc1d30e1	-0.009594173
109	0x3ce26811	0.027637513
110	0x3bb8edaa	0.005643566
111	0xbbfd1752	-0.0077237273
112	0xbd5f206a	-0.05447427
113	0x3b33a58d	0.0027411908
114	0xbc7c271d	-0.015390185
115	0xbad18b4d	-0.001598695
116	0xbd0a4e70	-0.03376621
117	0xbc775846	-0.01509673
118	0xbcaf4d9c	-0.021399312
119	0xbcd5569a	-0.026042271
120	0x3c08fd39	0.008361154
121	0xbc537079	-0.012905234
122	0x3cb1a36d	0.021684373
123	0xbc93281e	-0.017963465
124	0xbcade58f	-0.021227626
125	0x3d821ccb	0.06353148
126	0xbc045c3a	-0.008078629
127	0xbbe445f1	-0.0069663455
128	0xbcd04ceb	-0.025427302
129	0x3b8fb1c0	0.004385203
130	0x3b56a027	0.0032749267
131	0x3c1aaede	0.009441106
132	0x3cc65ff3	0.024215674
133	0x3cbc65a4	0.022997685
134	0x3c9904a6	0.018678974
135	0xbcf9a6d6	-0.030475061
136	0x3c865b49	0.01640095
137	0x3babc650	0.0052421466
138	0x3d3ce385	0.046115417
139	0xbca95a59	-0.020672964
140	0xbcc6fb2d	-0.024289692
141	0xbccfae39	-0.02535163
142	0x3c74649b	0.014916564
143	0xbcd25e5c	-0.02567976
144	0xbcc34219	-0.023835229
145	0x3a98e551	0.0011665021
146	0x3ca50990	0.020146161
147	0xbc9eaddb	-0.01937001
148	0x3b909a41	0.0044129197
149	0x3cd30a64	0.02576179
150	0x3d02792c	0.03185384
151	0x3ae994f7	0.0017820884
152	0x3d5bf327	0.053698685
153	0x3b9e6f0e	0.004835016
154	0xbbf51120	-0.007478848
155	0x3c8e8a27	0.01739986
156	0x3d261935	0.040551383
157	0x3cce70a6	0.0252002
158	0x3c6dbb3e	0.014509974
159	0x3aa7b9f1	0.0012796504
160	0xbcc4df9f	-0.024032412
161	0xbd8488fa	-0.06471439
162	0x3a753657	0.00093541056
163	0x3d3d0167	0.046143916
164	0x3d42708a	0.047470607
165	0x3d39cf0e	0.04536348
166	0xbd877095	-0.0661327
167	0xbbad5bcb	-0.0052904836
168	0xbca3db79	-0.020002114
169	0xbc9f86f7	-0.019473536
170	0x3cee6cc2	0.029104594
171	0xbd136be7	-0.035991576
172	0xbc8c9737	-0.017161949
173	0x3cc6d1a7	0.024269892
174	0x3c03a8b5	0.008035828
175	0x3b193805	0.0023379338
176	0xbd136af5	-0.035990674
177	0x3d2ebafa	0.042658783
178	0xbd810fb6	-0.06301825
179	0x3d216d41	0.039410833
180	0xbc9e3ba4	-0.019315548
181	0xbcb4bb94	-0.0220621
182	0x3b371759	0.00279375
183	0x3b6f1bcb	0.0036485072
184	0xbc46f750	-0.012143925
185	0xbc076f04	-0.008266214
186	0x3ba802fb	0.0051273084
187	0x3cc20428	0.023683622
188	0xbb5db56b	-0.0033830057
189	0xbbc55bab	-0.0060228906
190	0xbca57c34	-0.020200826
191	0xbcbd9945	-0.023144374
192	0x3cc31464	0.023813434
193	0x3d5ad79d	0.05342828
194	0x3d4c1c2a	0.049831547
195	0xbc767c4f	-0.015044286
196	0x3ddafbda	0.10692568
197	0x3bc207be	0.005921333
198	0xbd186677	-0.037207093
199	0x3cd25644	0.0256759
200	0x3d97f4dd	0.07419751
201	0x3d075e74	0.033049062
202	0x3c0acbf0	0.008471474
203	0x3bfaac53	0.007649937
204	0xbc107d56	-0.008818945
205	0xbd30739a	-0.043078996
206	0x3b08d10c	0.0020876555
207	0x3c49610e	0.012291206
208	0x3d8d3d05	0.06896404
209	0x3c4d51ff	0.012531756
210	0xb998b401	-0.00029125813
211	0xbd45c4d2	-0.048283406
212	0x3c343aa5	0.01100031
213	0xbcd6f9da	-0.026242185
214	0xbcd57aeb	-0.026059588
215	0x3c96332b	0.018334946
216	0x3d1327f9	0.035926793
217	0x3d0da199	0.03457794
218	0x3d73b51e	0.0594989
219	0xbd06faa9	-0.032953892
220	0xbc40df4d	-0.011771989
221	0x3d53393a	0.051568247
222	0x3ce8eba1	0.02843267
223	0xbcbd1bf1	-0.023084613
224	0x3ce25479	0.02762817
225	0xbb0da919	-0.0021615683
226	0x3d1f6df9	0.038923237
227	0xbcf47b3e	-0.029843923
228	0x3d44cfc6	0.04804971
229	0x3d0e65eb	0.034765165
230	0xbcda0d4b	-0.026617667
231	0x3d0ee5c2	0.034887083
232	0x3d4fab44	0.05070044
233	0xbd06dfc1	-0.032928232
234	0x3c85dc72	0.016340468
235	0x3c31da6b	0.010855298
236	0x3c19b824	0.009382281
237	0x3cd6a768	0.026202872
238	0xbd053ced	-0.032528806
239	0xbcdadb7f	-0.026715992
240	0x3ca32904	0.019917019
241	0xbc9cf391	-0.01915911
242	0x3ce51200	0.027962685
243	0x3b915f5d	0.004436417
244	0x3d7b2b48	0.061320573
245	0x3bb027c6	0.005375835
246	0xbd5a2172	-0.053254552
247	0x3d169e56	0.036772095
248	0xbcc72b93	-0.02431277
249	0x3d093205	0.033494968
250	0x3c907c6d	0.017637456
251	0xbb39cb05	-0.002834977
252	0xbc80f74f	-0.015742926
253	0x3c8086cd	0.015689278
254	0x3d593bdf	0.053035613
255	0x3cf89ac0	0.030347228

weight f4 [768]
0	0x3f804c4d	1.0023285
1	0x3f81c0ca	1.013696
2	0x3f660761	0.8985501
3	0x3f822a3a	1.0169137
4	0x3f84084f	1.0315036
5	0x3f830373	1.0235428
6	0x3f643f70	0.891593
7	0x3f60f6c9	0.87876564
8	0x3f812dd0	1.0092106
9	0x3f7b57ad	0.9818066
10	0x3f7129f0	0.94204617
11	0x3f8203f0	1.0157452
12	0x3f73a695	0.9517606
13	0x3f74bd24	0.95601106
14	0x3f8314a7	1.0240678
15	0x3f811161	1.0083429
16	0x3f658768	0.8965974
17	0x3f83d5ee	1.0299661
18	0x3f74d7af	0.9564161
19	0x3f76c728	0.9639764
20	0x3f67f528	0.90608454
21	0x3f82189d	1.0163761
22	0x3f8358b1	1.0261441
23	0x3f7b0551	0.9805499
24	0x3f580597	0.8438353
25	0x3f671395	0.90264255
26	0x3f99e7aa	1.2023823
27	0x3f703a61	0.9383908
28	0x3f973a1d	1.181461
29	0x3f7dc5db	0.9913003
30	0x3f84a68f	1.036333
31	0x3f8d6c7b	1.1048731
32	0x3f8ab586	1.0836647
33	0x3f815096	1.0102718
34	0x3f85d7f6	1.0456531
35	0x3f788751	0.97081476
36	0x3f7bea21	0.9840413
37	0x3f7571ab	0.9587657
38	0x3f6549a5	0.895655
39	0x3f87b3d4	1.0601754
40	0x3f82099f	1.0159186
41	0x3f746040	0.95459366
42	0x3f89d1bd	1.0767132
43	0x3f7ef6ae	0.99595153
44	0x3f82c0be	1.021507
45	0x3f7cbd06	0.98725927
46	0x3f8108a3	1.0080761
47	0x3f782fb7	0.9694781
48	0x3f8f28d6	1.1184337
49	0x3f5dee7e	0.86692035
50	0x3f79f531	0.9763976
51	0x3f8c74ee	1.0973184
52	0x3f71ce41	0.94455343
53	0x3f7ea8a2	0.99476063
54	0x3f88bfbc	1.0683513
55	0x3fa01e27	1.2509202
56	0x3f7f4aa4	0.9972327
57	0x3f7dff8c	0.9921806
58	0x3f6b627c	0.9194715
59	0x3f7df857	0.9920706
60	0x3f7d0d8e	0.9884881
61	0x3f7342ea	0.9502398
62	0x3f810929	1.008092
63	0x3f79bd1c	0.97554183
64	0x3f7dd48a	0.99152434
65	0x3f742e02	0.953827
66	0x3f8c69b0	1.0969753
67	0x3f854551	1.0411779
68	0x3f7b1bdc	0.98089385
69	0x3f69a631	0.9126921
70	0x3f88f1d0	1.0698795
71	0x3f69bc63	0.9130308
72	0x3f6e05c4	0.9297755
73	0x3f7d7a13	0.99014395
74	0x3f88c6a8	1.0685625
75	0x3f816e1e	1.011173
76	0x3f7f8e9d	0.99826986
77	0x3f81b6c7	1.0133904
78	0x3f809f99	1.0048705
79	0x3f7da02b	0.9907252
80	0x3f7629fb	0.9615781
81	0x3f4d09af	0.800929
82	0x3f818d18	1.0121183
83	0x3f81723d	1.0112988
84	0x3f5c649c	0.8609102
85	0x3f5cfa5e	0.8631953
86	0x3f7848cf	0.969861
87	0x3f6aa27b	0.91654176
88	0x3f8ec895	1.1154963
89	0x3f79dad8	0.97599554
90	0x3f807c4e	1.0037935
91	0x3f8b2bdc	1.087276
92	0x3f8968e3	1.0735134
93	0x3f73c250	0.9521837
94	0x3f6ec084	0.93262506
95	0x3f8844b0	1.0645962
96	0x3f6a799c	0.9159181
97	0x3f72f12c	0.9489925
98	0x3f95bac0	1.1697617
99	0x3f83315f	1.0249442
100	0x3f8685f1	1.0509626
101	0x3f850dc7	1.039483
102	0x3f732220	0.94973946
103	0x3f850938	1.0393438
104	0x3f7f1994	0.99648404
105	0x3f75fc8e	0.9608849
106	0x3f7ff112	0.9997722
107	0x3f662b93	0.8991024
108	0x3f84e01d	1.0380894
109	0x3f6d5736	0.927112
110	0x3f81b861	1.0134393
111	0x3f6ffdfd	0.9374693
112	0x3f917e0f	1.1366595
113	0x3f7c1417	0.98468155
114	0x3f6df069	0.9294496
115	0x3f83bcf0	1.0292034
116	0x3f838235	1.0274111
117	0x3f80de94	1.0067925
118	0x3f630aef	0.8868856
119	0x3f8ac419	1.0841094
120	0x3f72d2c3	0.94852847
121	0x3f5eeb56	0.87077844
122	0x3f6d0b1f	0.92595094
123	0x3f7badd5	0.9831212
124	0x3f682671	0.90683657
125	0x3f90f888	1.1325846
126	0x3f86add7	1.0521802
127	0x3f6474ad	0.89240533
128	0x3f81abfd	1.0130612
129	0x3f6f55e5	0.9349044
130	0x3f742f90	0.95385075
131	0x3f7c8dcf	0.9865388
132	0x3f6d7a19	0.9276443
133	0x3f721b25	0.9457267
134	0x3f753e2f	0.9579801
135	0x3f824534	1.0177369
136	0x3f68694f	0.9078569
137	0x3f7880a9	0.9707132
138	0x3f876cd7	1.058009
139	0x3f776199	0.966333
140	0x3f8c2b81	1.0950776
141	0x3f818aa7	1.0120438
142	0x3f830486	1.0235755
143	0x3f8ac3a2	1.0840952
144	0x3f712308	0.9419408
145	0x3f736257	0.9507193
146	0x3f823b81	1.0174409
147	0x3f84b865	1.0368773
148	0x3f78bd3c	0.9716375
149	0x3f813f75	1.009749
150	0x3f80a552	1.0050452
151	0x3f76000b	0.96093816
152	0x3f8a7627	1.0817307
153	0x3f80e6b4	1.0070405
154	0x3f821625	1.0163008
155	0x3f7ead15	0.9948285
156	0x3f8c87b2	1.0978911
157	0x3f680205	0.9062808
158	0x3f700465	0.93756706
159	0x3f843fa4	1.0331922
160	0x3f684e4b	0.90744466
161	0x3f63b16b	0.88942593
162	0x3f6bda19	0.92129666
163	0x3f87431d	1.0567356
164	0x3f8e0d0c	1.1097732
165	0x3f83b337	1.0289067
166	0x3f5f73a6	0.8728584
167	0x3f6d88ee	0.92787063
168	0x3f7f12d4	0.99638104
169	0x3f712c94	0.94208646
170	0x3f856e87	1.0424355
171	0x3f631423	0.887026
172	0x3f725b9a	0.9467102
173	0x3f915ea4	1.1357007
174	0x3f768fa9	0.9631296
175	0x3f8d027b	1.1016382
176	0x3f88232b	1.0635732
177	0x3f5ee240	0.8706398
178	0x3f85eb4f	1.0462435
179	0x3f862b99	1.0482055
180	0x3f6ccd62	0.9250089
181	0x3f61e635	0.88241893
182	0x3f87267d	1.0558621
183	0x3f81ac2c	1.0130668
184	0x3f83162b	1.024114
185	0x3f806761	1.0031549
186	0x3f80eedf	1.0072898
187	0x3f7ea615	0.9947217
188	0x3f7b071d	0.9805773
189	0x3f7f1634	0.99643254
190	0x3f65eeec	0.8981769
191	0x3f68da3c	0.90958
192	0x3f85c7ec	1.0451636
193	0x3f6aa053	0.91650885
194	0x3f64a935	0.8932069
195	0x3f67ee4c	0.9059799
196	0x3f951cfc	1.164947
197	0x3f81b153	1.013224
198	0x3f8e6204	1.1123662
199	0x3f7308db	0.9493539
200	0x3f5df87f	0.867073
201	0x3f77fc75	0.96869594
202	0x3f6da44c	0.9282882
203	0x3f73a87f	0.9517898
204	0x3f8179a2	1.0115244
205	0x3f8d4eaa	1.1039631
206	0x3f79200b	0.9731452
207	0x3f8814ce	1.0631349
208	0x3f9f5c41	1.2450029
209	0x3f7e8e62	0.9943601
210	0x3f85812d	1.0430046
211	0x3f88ca56	1.0686748
212	0x3f6f4f99	0.9348083
213	0x3f7d6a3a	0.98990214
214	0x3f7e3479	0.99298817
215	0x3f85655d	1.0421559
216	0x3f833101	1.024933
217	0x3f8a1952	1.0788977
218	0x3f8f4f81	1.1196138
219	0x3f90485f	1.1272086
220	0x3f7ac444	0.9795573
221	0x3f569f01	0.8383637
222	0x3f6eb08d	0.93238145
223	0x3f7adc58	0.9799247
224	0x3f689e6b	0.90866727
225	0x3f76887d	0.96302015
226	0x3f755354	0.95830274
227	0x3f864eaa	1.0492756
228	0x3f64e9ff	0.8941955
229	0x3f70ec3e	0.94110477
230	0x3f68fbae	0.9100903
231	0x3f83857c	1.0275111
232	0x3f8a2e73	1.0795425
233	0x3f92d2fd	1.1470639
234	0x3f834798	1.0256224
235	0x3f75acfa	0.95967066
236	0x3f74d5fb	0.9563901
237	0x3f8d6517	1.1046475
238	0x3f67e288	0.90580034
239	0x3f87c8fe	1.0608213
240	0x3f87073e	1.0549085
241	0x3f6b534e	0.9192399
242	0x3f6e21d5	0.93020374
243	0x3f7eb9a0	0.9950199
244	0x3f88d881	1.0691072
245	0x3f794928	0.9737725
246	0x3f4ba11a	0.79542696
247	0x3f62008d	0.8828209
248	0x3f85b9b9	1.0447303
249	0x3f7de186	0.99172246
250	0x3f79a934	0.9752381
251	0x3f7e50f6	0.99342287
252	0x3f8111a2	1.0083506
253	0x3f69ba00	0.9129944
254	0x3f54750e	0.8299111
255	0x3f8ca4b5	1.0987765

bias f4 [768]
0	0xbb9f6585	-0.004864397
1	0xbd7ecb41	-0.062205557
2	0xbd2ed058	-0.04267916
3	0x3e144425	0.1447912
4	0x3d4d4584	0.050115123
5	0xbda23a1c	-0.0792124
6	0x3dc3ae8b	0.09554776
7	0x3d1ec5d4	0.038762882
8	0xbd258e1f	-0.04041874
9	0xbd00025a	-0.031252243
10	0xbd0b10a5	-0.03395142
11	0x3c32e205	0.010918145
12	0xbcd12579	-0.025530564
13	0xbda86f9a	-0.08224411
14	0xbb026334	-0.0019895555
15	0x3bd43519	0.0064760563
16	0xbdd3907b	-0.10330292
17	0xbd068b2c	-0.03284757
18	0x3d08aa0a	0.033365287
19	0xbc641ec0	-0.013923347
20	0x3d705551	0.058675114
21	0xbd1eac0f	-0.038738307
22	0x3cdd86f7	0.027041895
23	0x3c11c88b	0.008897911
24	0xbe2eb30e	-0.17060491
25	0x3da34eb7	0.07973998
26	0xbe65ec3d	-0.22453399
27	0xbd569704	-0.052390113
28	0xbe2ab62b	-0.16671054
29	0x3b48e2e3	0.0030652813
30	0xbd6109c7	-0.054940965
31	0x3e2a60d8	0.16638505
32	0xbe019b84	-0.12656981
33	0x3ccb9e9f	0.02485591
34	0xbd4a0db3	-0.04932947
35	0xbc00731b	-0.007839943
36	0xbcaee87e	-0.021351095
37	0x3d871275	0.06595317
38	0x3defd283	0.11710074
39	0x3d884bd7	0.0665509
40	0x3dadd930	0.08488691
41	0xbd316542	-0.043309458
42	0x3d9147ab	0.07093748
43	0x3c2d9c0d	0.010596287
44	0x3ce7b3ae	0.02828392
45	0xbd0f9ae6	-0.035059832
46	0x3e102db5	0.14079936
47	0xbd2a31db	-0.041551452
48	0x3e318e6b	0.17339484
49	0x3e3b4ae3	0.18290286
50	0x3d40be11	0.04705626
51	0xbe44b51a	-0.1920971
52	0x3db2aec2	0.08724739
53	0x3d867df0	0.065669894
54	0xbd74ae29	-0.059736405
55	0x3e8a838a	0.2705348
56	0xbc247589	-0.010037788
57	0xbd1f2efe	-0.038863175
58	0xbd443dbd	-0.04791044
59	0xbc2b6ded	-0.01046322
60	0xbbfac6d3	-0.007653096
61	0x3cb34c7a	0.021887053
62	0xbcb3f7cf	-0.02196875
63	0xbcf716ca	-0.030162234
64	0x3cff93f5	0.031198481
65	0xbdc5159c	-0.09623262
66	0x3dc408f7	0.095720224
67	0xbd878ec3	-0.066190265
68	0x3d98589d	0.07438777
69	0x3db37dfb	0.08764263
70	0xbdb661f8	-0.08905405
71	0xbbaa0149	-0.0051881415
72	0x3cd9ee75	0.026602963
73	0xbd9e4d4e	-0.077295884
74	0xbe09f4e0	-0.13472319
75	0x3c8381fb	0.01605319
76	0xbc48b037	-0.012249044
77	0x3d77eaa7	0.060526516
78	0x3df8d89a	0.121506885
79	0xbcb49866	-0.022045325
80	0xbc5cbd0b	-0.013472806
81	0x3e2a0928	0.16605055
82	0x3d2075f9	0.039175007
83	0xbd99a9f3	-0.07503118
84	0x3e11b26e	0.14228222
85	0xbd2fe5ed	-0.042943884
86	0x3cfd7a5e	0.030942138
87	0x3ca6a9d0	0.020344645
88	0x3dbe3077	0.09286588
89	0xbbe156b4	-0.006876791
90	0xbc849f8e	-0.016189363
91	0x3e0f78cf	0.14010929
92	0x3db1ba8b	0.086781584
93	0x3c299752	0.010351019
94	0x3d42a611	0.047521655
95	0x3dca207f	0.098694794
96	0x3caef0f7	0.021355135
97	0xbd0e95ab	-0.034810703
98	0xbe37c2b8	-0.17945373
99	0x3d128516	0.035771452
100	0xbbd3af38	-0.0064600967
101	0xbd43eca9	-0.04783312
102	0xbd024670	-0.031805456
103	0x3d8738a1	0.06602598
104	0xb9182249	-0.00014508622
105	0xbddd6872	-0.10810937
106	0x3c9dc137	0.019257171
107	0xbe00d8f9	-0.12582768
108	0xbd2fb689	-0.04289869
109	0x3d8197a2	0.0632775
110	0xbc7bbb11	-0.015364424
111	0xbd4c6f32	-0.04991073
112	0xbdbba75d	-0.091627814
113	0x3cb4a729	0.022052364
114	0xbd1b904f	-0.03797942
115	0xbd22a6ed	-0.039709974
116	0xbdaa6f8a	-0.08322056
117	0xbcc5f50e	-0.024164703
118	0xbdaf6a75	-0.08565227
119	0xbdd356ee	-0.10319315
120	0x3d237075	0.03990217
121	0xbdd8a681	-0.10578633
122	0x3d23975c	0.03993927
123	0xbd812609	-0.06306083
124	0xbd6dfc29	-0.058101807
125	0x3e158b72	0.14603975
126	0xbd683730	-0.056693256
127	0xbbc49e9b	-0.0060003526
128	0x3bb71df9	0.00558829
129	0xbcf60054	-0.030029453
130	0x3cdbd482	0.02683473
131	0x3d0b16b1	0.033957187
132	0x3d4a7b51	0.04943401
133	0x3d420039	0.047363494
134	0x3db6bd50	0.08922827
135	0xbd28b118	-0.041184515
136	0xbd5e5b12	-0.05428607
137	0x3d2f34b2	0.042774864
138	0x3dc5d263	0.09659269
139	0xbbcf2681	-0.0063217287
140	0xbdb1f1f5	-0.08688728
141	0xbd80f580	-0.062968254
142	0x3d32f1ef	0.043687757
143	0xbdeb5a2b	-0.114918076
144	0xbd3cb331	-0.046069328
145	0xb97cd862	-0.00024113202
146	0x3d4ca560	0.0499624
147	0xbd692622	-0.056921132
148	0x3c39ff10	0.011352316
149	0x3d4a81a4	0.04944004
150	0x3daf5301	0.085607536
151	0x3c92a06e	0.017898764
152	0x3e1b4cb7	0.15165983
153	0xbcbe536b	-0.023233136
154	0xbd5c2193	-0.053742956
155	0x3d519329	0.051165733
156	0x3dc3595c	0.09538528
157	0x3d364db3	0.044507693
158	0x3da71469	0.0815819
159	0xbd0fc36f	-0.03509849
160	0xbc253d44	-0.010085408
161	0xbdf7a2e5	-0.120916165
162	0xbd1b0dfe	-0.03785514
163	0x3dc75ef6	0.09734909
164	0x3dea9dd3	0.11455884
165	0x3df7d69a	0.12101479
166	0xbe14399a	-0.14475098
167	0xbd33a5e8	-0.043859392
168	0xbc49e0b8	-0.0123216435
169	0xbcfcd30b	-0.030862352
170	0x3d2c465d	0.04205929
171	0xbddaa815	-0.1067659
172	0xbcae9739	-0.021312343
173	0x3e14f2f4	0.14545804
174	0x3d80d581	0.06290723
175	0x3dd0bafe	0.10191916
176	0xbdc89745	-0.097944774
177	0x3db5c63f	0.08875703
178	0xbdcd5574	-0.100260645
179	0x3da2ac90	0.0794307
180	0xbd465ae7	-0.048426535
181	0xbd8c5c02	-0.068534866
182	0x3d39ca53	0.045358967
183	0x3cc26646	0.023730408
184	0x3d2fd260	0.04292524
185	0xbcb5b615	-0.02218155
186	0x3c0245ed	0.007951242
187	0x3daadf49	0.083433695
188	0xbc1bad26	-0.009501731
189	0x3cac417b	0.021027317
190	0xbd911245	-0.07083563
191	0xbdc10359	-0.09424467
192	0x3d21eb4b	0.039531033
193	0x3db85f01	0.090024956
194	0x3de8c16d	0.11365018
195	0xbd664df7	-0.056226697
196	0x3e5fa85a	0.21841565
197	0x3ccb648b	0.024828216
198	0xbe0b8612	-0.13625363
199	0x3d80ffb9	0.06298775
200	0x3e093e01	0.13402559
201	0x3db5353c	0.08848044
202	0xbce0ba60	-0.02743262
203	0x3c797290	0.015225068
204	0x3ca1f9fc	0.019772522
205	0xbde359c7	-0.11101108
206	0x3cd9042d	0.026491249
207	0x3da7cf83	0.081938766
208	0x3e75b67d	0.23995395
209	0x3cae7369	0.021295266
210	0x3d41f8b1	0.04735631
211	0xbe22131b	-0.158276
212	0x3d205075	0.03913923
213	0xbd13755f	-0.036000606
214	0xbc352472	-0.0110560525
215	0x3d0296f5	0.031882245
216	0x3d66d596	0.056356035
217	0x3daeaccd	0.08529053
218	0x3e0d6a39	0.13810052
219	0xbe054c74	-0.13017446
220	0xbb79b613	-0.003810291
221	0x3df6edcc	0.12057075
222	0x3d119c74	0.035549596
223	0xbd0a2466	-0.03372612
224	0x3d845740	0.06461954
225	0x3c2861f9	0.010277265
226	0x3d24350c	0.040089652
227	0xbd30ff43	-0.043212187
228	0x3de9e4d9	0.11420602
229	0x3da6f74e	0.081526384
230	0xbd8bf5c4	-0.068339854
231	0x3db2fe7b	0.087399445
232	0x3ddd7717	0.1081373
233	0xbe128db6	-0.14311871
234	0x3d326ccb	0.043560784
235	0x3d98bcc5	0.0745788
236	0x3cf09b72	0.029370997
237	0x3d3d82b3	0.046267223
238	0xbd8e9894	-0.06962696
239	0xbd840550	-0.06446326
240	0x3d68365e	0.056692474
241	0xbd957a54	-0.07298723
242	0x3d952c70	0.072838664
243	0x3d06cbeb	0.032909315
244	0x3e264585	0.16237457
245	0x3c67c74b	0.014146636
246	0xbe2ba602	-0.16762546
247	0x3e04fabc	0.12986273
248	0xbdbfbdb9	-0.093623586
249	0x3db5c5fa	0.08875652
250	0xbb750d17	-0.0037391835
251	0x3d817cb6	0.06322615
252	0xbd1149e8	-0.035470873
253	0x3d5dddfc	0.05416678
254	0x3e13186f	0.1436479
255	0x3dbd5585	0.09244827

weight f4 [768]
0	0x3f6f18c5	0.9339717
1	0x3f80ceb7	1.0063084
2	0x3f74c7c4	0.9561732
3	0x3f80720a	1.0034802
4	0x3f55eb2d	0.83561975
5	0x3f73a438	0.9517245
6	0x3f8f8d8b	1.121507
7	0x3f8d391b	1.1033052
8	0x3f749fc6	0.95556295
9	0x3f6ffd57	0.9374594
10	0x3f72b252	0.94803345
11	0x3f9322d3	1.1495003
12	0x3f80f47c	1.0074611
13	0x3f6b8024	0.919924
14	0x3f7dc4d1	0.99128443
15	0x3f8cb642	1.0993121
16	0x3f7f312d	0.9968441
17	0x3f7db68a	0.9910666
18	0x3f75e6a9	0.96055084
19	0x3f853d0c	1.0409255
20	0x3f7cada1	0.98702437
21	0x3f76ecef	0.9645528
22	0x3f60a43c	0.877506
23	0x3f806f1f	1.0033911
24	0x3f69d9fb	0.91348237
25	0x3f820d08	1.0160227
26	0x3f6f65c9	0.93514687
27	0x3f683826	0.90710676
28	0x3f44e851	0.76916987
29	0x3f7efdd6	0.9960607
30	0x3f5d0326	0.8633293
31	0x3f8fb253	1.1226295
32	0x3f7f83ac	0.9981029
33	0x3f634b88	0.88787127
34	0x3f657e19	0.89645535
35	0x3f816c0e	1.0111101
36	0x3f659a60	0.8968868
37	0x3f80d29d	1.0064274
38	0x3f7ca995	0.9869626
39	0x3f4149fd	0.7550352
40	0x3f8721fc	1.0557246
41	0x3f7e6d3e	0.9938544
42	0x3f8417db	1.031978
43	0x3f810b59	1.0081588
44	0x3f70eca5	0.9411109
45	0x3f8c1bb9	1.094596
46	0x3f82d9b2	1.0222685
47	0x3f89e066	1.0771606
48	0x3f835db8	1.0262976
49	0x3f87d7fc	1.0612788
50	0x3f81c394	1.0137811
51	0x3f82a39d	1.0206181
52	0x3f936fea	1.1518528
53	0x3f7967c4	0.9742396
54	0x3f706d07	0.9391636
55	0x3f853441	1.0406572
56	0x3f802347	1.0010766
57	0x3f7a3fbc	0.977535
58	0x3f907708	1.1286325
59	0x3f80c587	1.006028
60	0x3f6c4dcb	0.923062
61	0x3f805d9b	1.0028566
62	0x3f776f3a	0.96654093
63	0x3f873b34	1.0564942
64	0x3f6f2c99	0.93427426
65	0x3f7d5020	0.98950386
66	0x3f8701b1	1.0547391
67	0x3f796282	0.97415936
68	0x3f791fde	0.9731425
69	0x3f870c94	1.0550714
70	0x3f91fc07	1.1405038
71	0x3f663824	0.89929414
72	0x3f91d6d5	1.1393687
73	0x3f7c896d	0.98647195
74	0x3f6a97fe	0.9163817
75	0x3f59e09f	0.8510837
76	0x3f840130	1.0312862
77	0x3f8546f9	1.0412284
78	0x3f88dc35	1.0692202
79	0x3f73e752	0.9527484
80	0x3f6effc3	0.9335901
81	0x3f6dbf61	0.92870146
82	0x3f849b19	1.0359832
83	0x3f779ee0	0.967268
84	0x3f753e5f	0.95798296
85	0x3f78846c	0.9707706
86	0x3f719a60	0.9437618
87	0x3f8dae87	1.1068887
88	0x3f52cb94	0.82341886
89	0x3f5de0a1	0.8667088
90	0x3f71a74f	0.9439592
91	0x3f80015f	1.0000418
92	0x3f6c62d9	0.9233833
93	0x3f947425	1.1597944
94	0x3f847b06	1.0350044
95	0x3f79f7f0	0.9764395
96	0x3f7f1497	0.9964079
97	0x3f70488f	0.93860716
98	0x3f80063f	1.0001906
99	0x3f7f33f9	0.9968868
100	0x3f951cea	1.1649449
101	0x3f9ab9bd	1.2087933
102	0x3f76a497	0.96344894
103	0x3f87cf02	1.0610049
104	0x3fa428b4	1.2824922
105	0x3f706dcf	0.93917555
106	0x3f6b58a2	0.9193212
107	0x3f48320f	0.78201383
108	0x3f4f2473	0.8091499
109	0x3f892282	1.0713656
110	0x3f80a643	1.0050739
111	0x3f861f68	1.0478334
112	0x3f822721	1.0168191
113	0x3f731fe7	0.94970554
114	0x3f6b124e	0.91824806
115	0x3f7f2b8a	0.9967581
116	0x3f8e81d9	1.1133376
117	0x3f690281	0.91019446
118	0x3f991ee2	1.196255
119	0x3f82fc7d	1.0233303
120	0x3f6cc152	0.92482483
121	0x3f82d061	1.0219842
122	0x3f7dac3a	0.9909092
123	0x3f7a2af0	0.9772177
124	0x3f8529bc	1.0403361
125	0x3f76b6f5	0.9637292
126	0x3f71482f	0.9425077
127	0x3f893f3d	1.0722424
128	0x3f550f13	0.83226126
129	0x3f7da0f0	0.99073696
130	0x3f6ee9e9	0.9332567
131	0x3f8573ed	1.0426003
132	0x3f7eccc0	0.99531174
133	0x3f56f993	0.8397457
134	0x3f8039d8	1.0017653
135	0x3f94b256	1.1616924
136	0x3f869c70	1.0516491
137	0x3f7bbc32	0.9833404
138	0x3f85321e	1.040592
139	0x3f7e465e	0.9932612
140	0x3f843b38	1.0330572
141	0x3f7a3664	0.97739244
142	0x3f83b2db	1.0288957
143	0x3f7854b1	0.9700423
144	0x3f7df4b4	0.9920151
145	0x3f7999cd	0.97500306
146	0x3f887126	1.065953
147	0x3f6dadd0	0.9284334
148	0x3f6f9583	0.9358751
149	0x3f681164	0.90651536
150	0x3f8920cb	1.0713133
151	0x3f7974ee	0.97444046
152	0x3f8c453e	1.0958631
153	0x3f7d4e97	0.98948044
154	0x3f80f356	1.007426
155	0x3f799f4b	0.97508687
156	0x3f954447	1.1661462
157	0x3f8a9afa	1.0828545
158	0x3f976207	1.182679
159	0x3f86edcd	1.0541321
160	0x3f772b99	0.965509
161	0x3f9079bc	1.128715
162	0x3f8448f6	1.0334766
163	0x3f7755fb	0.9661557
164	0x3f8027ad	1.0012108
165	0x3f8106b4	1.0080171
166	0x3f73c46e	0.952216
167	0x3f897b62	1.0740778
168	0x3f742ff2	0.9538566
169	0x3f708884	0.93958306
170	0x3f91b370	1.1382885
171	0x3f65c2e7	0.8975052
172	0x3f841537	1.0318974
173	0x3f7dc295	0.99125034
174	0x3f6d58e2	0.9271375
175	0x3f660f16	0.8986677
176	0x3f6230af	0.88355535
177	0x3f6d24a9	0.92634064
178	0x3f8786d2	1.0588019
179	0x3f8f2ed8	1.118617
180	0x3f80c8c0	1.0061264
181	0x3f740b42	0.9532968
182	0x3f3ab7dc	0.729368
183	0x3f8343bf	1.025505
184	0x3f520596	0.82039773
185	0x3f88fbe2	1.0701869
186	0x3f600110	0.8750162
187	0x3f7cdbf4	0.9877312
188	0x3f79e169	0.97609574
189	0x3f5cb7dc	0.8621805
190	0x3f8a0e2c	1.0785575
191	0x3f976e31	1.1830503
192	0x3f6f5882	0.9349443
193	0x3f83c04b	1.0293058
194	0x3f2b8d96	0.6701292
195	0x3f694de9	0.91134506
196	0x3f75e4e4	0.96052384
197	0x3f57ef29	0.84349304
198	0x3f73a071	0.9516669
199	0x3f84564f	1.0338839
200	0x3f62d74f	0.88609785
201	0x3f86286e	1.0481088
202	0x3f9433e2	1.1578333
203	0x3f6a8442	0.9160806
204	0x3f817cdd	1.011623
205	0x3f6c0b71	0.9220496
206	0x3f780191	0.9687739
207	0x3f8792af	1.0591639
208	0x3f778627	0.96689075
209	0x3f8a5a22	1.0808756
210	0x3f6ecd12	0.9328166
211	0x3f84b583	1.0367893
212	0x3f80db4f	1.0066928
213	0x3f819adb	1.0125383
214	0x3f7619de	0.9613322
215	0x3f86029c	1.0469546
216	0x3f8c5134	1.0962281
217	0x3f84979b	1.0358766
218	0x3f6d9788	0.92809343
219	0x3f8a939a	1.0826294
220	0x3f730233	0.9492523
221	0x3f5c7050	0.86108875
222	0x3f8dc00f	1.1074237
223	0x3f6eff44	0.93358254
224	0x3f7d3ae6	0.98917997
225	0x3f95369f	1.1657294
226	0x3f6805f4	0.90634084
227	0x3f82dc86	1.0223548
228	0x3f8f1da3	1.118092
229	0x3f65b4bd	0.8972891
230	0x3f64d4f7	0.8938746
231	0x3f712492	0.94196427
232	0x3f70e4d4	0.94099164
233	0x3f8875d7	1.0660962
234	0x3f8cfea0	1.1015205
235	0x3f8539ff	1.0408324
236	0x3f82aea1	1.0209543
237	0x3f79bc7c	0.9755323
238	0x3f7fa87b	0.99866456
239	0x3f83fc3a	1.0311348
240	0x3f7bf52c	0.9842098
241	0x3f8cc40c	1.0997329
242	0x3f82cfec	1.0219703
243	0x3f6ee311	0.93315226
244	0x3f69acb4	0.9127915
245	0x3f8286b8	1.0197363
246	0x3f693319	0.91093594
247	0x3f6f85d7	0.935636
248	0x3f7e0de9	0.99239975
249	0x3f729c2e	0.9476956
250	0x3f85ab2e	1.0442865
251	0x3f5caf70	0.86205196
252	0x3f813af0	1.0096111
253	0x3f76eb22	0.96452534
254	0x3f8ed7ff	1.1159667
255	0x3f8af690	1.0856495

bias f4 [768]
0	0xbd9c99f0	-0.07646549
1	0x3c4fdc4d	0.012686801
2	0xb825c500	-3.9522536e-05
3	0x3c976032	0.018478487
4	0xbe33591f	-0.17514466
5	0xbd9f8c05	-0.077903785
6	0xbe0fcb8f	-0.14042495
7	0x3e55bac6	0.2087203
8	0xbd0d08ef	-0.034432348
9	0xbd70f52d	-0.058827568
10	0xbd6c8831	-0.05774707
11	0x3e06ad76	0.13152108
12	0xbdcb2432	-0.09919013
13	0xbdfdf75a	-0.12400694
14	0x3da68d39	0.08132405
15	0x3dbf960c	0.09354791
16	0xbd348e96	-0.044081293
17	0x3c78084b	0.015138696
18	0xbb332fab	-0.0027341645
19	0x3cfd2688	0.030902162
20	0x3c4075c1	0.011746825
21	0x3da0ede4	0.07857874
22	0xbdb4a263	-0.08820035
23	0xbdc52f4b	-0.09628161
24	0xbdac8995	-0.08424679
25	0xbd511f7d	-0.05105542
26	0x3d5a1d45	0.05325057
27	0xbdb0825e	-0.086186156
28	0x3e5de528	0.21669447
29	0x3d277b59	0.040889118
30	0x3e0f059e	0.13966987
31	0x3e5987fa	0.21243277
32	0x3c7bbaa5	0.015364324
33	0xbdfcefeb	-0.12350448
34	0x3da6a6b9	0.081372686
35	0xbd356d43	-0.044293653
36	0x3e17f907	0.1484109
37	0x3ac0a5d1	0.0014697855
38	0x3e1641a3	0.14673476
39	0xbe66e7cf	-0.22549365
40	0x3d87a657	0.06623524
41	0x3d76c2dd	0.06024443
42	0x3cb8be0a	0.022551555
43	0x3c461bd3	0.012091595
44	0xbd4be60d	-0.04977994
45	0xbdf59246	-0.1199079
46	0xbe1273fd	-0.14302059
47	0xbda7ed9e	-0.08199619
48	0x3dd2ddd2	0.10296215
49	0xbd6e2f6c	-0.058150694
50	0x3cd31f49	0.025771754
51	0xbdd8327b	-0.105565034
52	0x3e001c09	0.12510695
53	0xbd24b720	-0.040213704
54	0x3d33e43a	0.043918826
55	0x3d3fce9e	0.046827905
56	0x3c67e89c	0.0141545795
57	0xbdcad4e4	-0.09903887
58	0x3dde8747	0.10865646
59	0x3ce5e83f	0.028064845
60	0x3dd591bf	0.104281895
61	0xbcc91e67	-0.02455063
62	0x3d6d89b2	0.057992645
63	0x3d69b9ee	0.057062082
64	0xbd40239d	-0.046908963
65	0xbd76da5d	-0.06026684
66	0x3d8a34ab	0.06748327
67	0xbd8ece26	-0.069729134
68	0x3d2b9bdd	0.04189669
69	0x3df0a88d	0.117508985
70	0xbe1026c0	-0.14077282
71	0x3d9b09b7	0.07570212
72	0xbe24446e	-0.16041729
73	0x3c9526e2	0.018207017
74	0x3e0300d1	0.1279328
75	0xbe0f928e	-0.1402075
76	0xbd1e27a4	-0.038612023
77	0x3dde0110	0.108400464
78	0xbdab9a38	-0.08379024
79	0xbcb23dfe	-0.021758076
80	0xbdc98e09	-0.09841544
81	0x3d429fa0	0.04751551
82	0xbbe084bd	-0.006851761
83	0x3c56d31b	0.013111855
84	0xbc296922	-0.010340007
85	0x3dee0c26	0.11623411
86	0xbd9ba528	-0.075998604
87	0x3e18f478	0.14937007
88	0xbe306fae	-0.17230102
89	0x3db63d02	0.08898355
90	0x3d69cbfc	0.0570793
91	0xbc1cbdd4	-0.009566743
92	0xbdacd52e	-0.08439098
93	0xbe6b3a7d	-0.2297153
94	0xbe7b02e0	-0.24512815
95	0xbd35e20b	-0.044405024
96	0xbe65722d	-0.22406836
97	0xbd3fef2c	-0.04685895
98	0xbd3439d4	-0.04400046
99	0x3a4174bb	0.000737976
100	0xbe05e39c	-0.13075107
101	0xbe7f6c2a	-0.24943605
102	0xbdd5698b	-0.10420521
103	0x3dbf7a0d	0.09349451
104	0x3e8f522f	0.2799239
105	0x3bde60a3	0.0067864223
106	0xbda958ba	-0.082688764
107	0xbea1dbf9	-0.31613138
108	0x3e4111a3	0.18854384
109	0xbda929de	-0.08259939
110	0xbe3dfdcd	-0.18553849
111	0x3d95f321	0.07321764
112	0xbd578a6a	-0.052622236
113	0x3ccf04d3	0.025270855
114	0xbd75bcc2	-0.059994467
115	0x399877a8	0.0002908085
116	0xbe507a2c	-0.20359105
117	0xbcd27922	-0.025692526
118	0x3e60c894	0.21951514
119	0xbceb4376	-0.028718691
120	0x3d48b118	0.048997015
121	0x3d07c464	0.033146277
122	0x3d123ca4	0.035702363
123	0x3d6784bb	0.056523066
124	0xbd91b465	-0.07114486
125	0xbc5b0699	-0.013368272
126	0x3d57c194	0.052674845
127	0xbc97894c	-0.018498085
128	0xbe2fb7ba	-0.1715993
129	0xbc8d3fe5	-0.017242381
130	0x3d8b25af	0.06794297
131	0x3e610698	0.21975172
132	0x3cc9f2d8	0.02465193
133	0x3e1916ec	0.1495015
134	0x3b3f45e6	0.002918595
135	0xbe73362e	-0.23751137
136	0x3e01d675	0.12679465
137	0x3d047383	0.032336723
138	0x3d64c973	0.05585618
139	0xbc88f9a7	-0.016720606
140	0xbcb3b4e7	-0.021936847
141	0xbc316ae5	-0.010828708
142	0x3e17bd91	0.14818408
143	0x3c50a6c4	0.0127350725
144	0xbcb2b811	-0.021816285
145	0x3e28c469	0.16481175
146	0x3db824a0	0.08991361
147	0x3db827b0	0.08991945
148	0xbe02b44c	-0.1276409
149	0xbdb8c90f	-0.09022724
150	0x3e32e793	0.17471151
151	0xbdbd7091	-0.09249986
152	0x3dd83965	0.10557822
153	0x3d56a44e	0.052402787
154	0x3d28c545	0.041203756
155	0xbcf48446	-0.02984823
156	0x3e0e8b6b	0.13920371
157	0xbd910f4f	-0.07082998
158	0xbe8bbfa1	-0.2729464
159	0xbd97dc81	-0.07415105
160	0xbe1f0333	-0.15528564
161	0x3e13a8b1	0.1441982
162	0x3cb0e2f9	0.021592604
163	0x3d5ed8bf	0.054405924
164	0x3b3cbde7	0.0028799714
165	0xbd365830	-0.044517696
166	0xbd579423	-0.05263151
167	0xbe120003	-0.14257817
168	0xbd313307	-0.043261554
169	0xbd68c927	-0.05683246
170	0x3df1c144	0.118044406
171	0xbd9acb5a	-0.075583175
172	0xbd0969b6	-0.03354808
173	0xbc8d8925	-0.01727731
174	0x3d94bbc0	0.07262373
175	0xbdb79005	-0.089630164
176	0x3dba54a3	0.090981744
177	0x3d7331a1	0.0593735
178	0xbd4a9a3a	-0.04946349
179	0x3db5115d	0.088412024
180	0xbc7653a9	-0.015034595
181	0xbdfbe1bb	-0.12298914
182	0xbe7c921d	-0.24665113
183	0xbc941908	-0.018078342
184	0xbe237aa8	-0.15964758
185	0xbd2ee779	-0.04270122
186	0x3e10ca6e	0.14139721
187	0xbc7705f7	-0.015077106
188	0xbba5ac05	-0.0050559067
189	0xbe147ae4	-0.14500004
190	0x3ddf6778	0.10908407
191	0x3e807394	0.2508818
192	0xbd85cfed	-0.06533799
193	0xbd18484f	-0.037178334
194	0x3e964378	0.2934835
195	0xbdaaf763	-0.083479665
196	0xbd23e358	-0.040011734
197	0xbdfea653	-0.124340676
198	0x3d5fd1ff	0.054643627
199	0xbcca4d0e	-0.024694946
200	0xbc850c25	-0.016241143
201	0x3d136325	0.035983223
202	0xbe14fa15	-0.14548524
203	0xbdd61988	-0.104540884
204	0x3c244a10	0.0100274235
205	0x3d4f8638	0.05066511
206	0xbd372a5c	-0.04471813
207	0x3dd96100	0.106142044
208	0xbcb4f80f	-0.02209094
209	0x3da10c44	0.078636676
210	0xbd7e014a	-0.062012948
211	0xbd846b24	-0.06465748
212	0x3d817ba6	0.06322412
213	0x3cb69b33	0.022290802
214	0x3e033c5a	0.12815991
215	0x3dde4441	0.10852862
216	0xbc460293	-0.012085575
217	0x3d110116	0.035401426
218	0xbd88b985	-0.0667601
219	0xbdd148e7	-0.10218983
220	0xbcf4866f	-0.02984926
221	0x3ddc5f6f	0.1076039
222	0xbdcfe39e	-0.101508364
223	0xbddcb55f	-0.10776781
224	0x3dcfe6af	0.10151421
225	0xbe51dd56	-0.20494589
226	0x3dc58be9	0.09645826
227	0x3bc9f4d6	0.00616322
228	0xbe21ad96	-0.15788874
229	0x3db54624	0.08851269
230	0xbdcf92eb	-0.10135444
231	0xbdd803eb	-0.10547622
232	0xbcc2f779	-0.023799645
233	0xbd905464	-0.07047346
234	0x3e07968e	0.13241026
235	0xbe871b70	-0.2638812
236	0x3d843304	0.06455043
237	0xbc5b377e	-0.01337993
238	0xbc2504c7	-0.01007194
239	0xbce150de	-0.02750438
240	0x3c416993	0.011804956
241	0x3e036c50	0.12834287
242	0xbd0d778c	-0.034537837
243	0xbd735d9b	-0.05941544
244	0xbe035687	-0.12825976
245	0x3d088c8a	0.033337153
246	0xbdb28af0	-0.087179065
247	0x3d2ec5d5	0.042669136
248	0xbdd1bf0d	-0.10241518
249	0xbd654384	-0.05597259
250	0xbd02d4f5	-0.031941373
251	0xbdd342cb	-0.10315474
252	0xbcb908d1	-0.022587212
253	0x3d70bda4	0.058774605
254	0xbddc0ba4	-0.10744408
255	0x3da8c11d	0.082399584
