subject-models/ada-0626/lilbub2023-06-26T10-21-13_lilbub-ada/embeddings_gs-4500.pt (torch, 836552 bytes, 168 tensors)

pre_vecs f4 [2, 768]
000000 21 cf f3 ba 99 f7 59 bb 49 c6 83 3a c1 f1 0f 3c
       -0.0018601158 -0.0033259152 0.00100536 0.008785666
000010 cb 16 ad 3c 20 2f 17 bc ef 24 bf bc df b4 4d 3a
       0.021129033 -0.009227544 -0.023333041 0.0007847081
000020 6d 95 59 3c 06 f7 e9 3c 35 5a 3f 3d 4c 88 d9 3c
       0.013280255 0.028560173 0.046716888 0.02655425
000030 8c e9 23 bb 1e 7b 41 3b bf ed b3 3c 3c 20 96 3c
       -0.002501103 0.0029522846 0.021963952 0.018325917
000040 da 8d 04 bd bf f7 6a bc ed a5 51 bc c0 8c b1 3b
       -0.032361843 -0.014341294 -0.012795907 0.00541839
000050 40 73 5b bb 8a 00 e7 3c d9 1d 49 3c d1 72 bb bc
       -0.0033485442 0.0281985 0.012275183 -0.022881897
000060 e2 f0 c6 3c 4e e5 b5 ba a0 7c 4e 3a c1 9d 15 bc
       0.024284784 -0.0013877542 0.0007876847 -0.00913185
000070 83 60 e7 bc 1c 2e 01 ba 2e 81 7b bc ff 1c 7c bb
       -0.028244263 -0.00049278303 -0.015350623 -0.0038469431
000080 81 7b 32 bc b9 e3 d9 3c 45 ff a7 39 94 b5 5d 3d
       -0.010893703 0.026597844 0.00032042913 0.054128245
000090 77 84 f2 bc 1c 2b 03 bb b9 ca e4 bc d7 41 85 3c
       -0.02960418 -0.002001471 -0.027928697 0.016266746
0000a0 9d e6 fa ba a6 a5 80 b9 2c 6d df 3c 27 1a ba 3b
       -0.0019142214 -0.0002453748 0.027273737 0.005679387
0000b0 3d d2 5b 3c 06 b3 89 bc c9 90 26 ba 07 af 5b bc
       0.013416824 -0.016808998 -0.0006353972 -0.013408429
0000c0 ec fd 05 bd 25 ef bf bb 20 9d 11 3b 51 fb 86 bb
       -0.032712862 -0.0058573657 0.0022218898 -0.0041193147
0000d0 2b 70 c2 3c 2d 0a 64 3c 56 02 10 bc 33 48 2f bb
       0.023735126 0.013918442 -0.008789619 -0.0026745915
0000e0 fb 52 e4 3b 0f 01 b8 3c 8c 82 be 3b 14 7e 44 3c
       0.0069679 0.022461442 0.0058139022 0.01199295
0000f0 8a 64 ec bc e7 88 ed bb 8e 53 20 3c fa 3a 76 3b
       -0.028856535 -0.007248986 0.009785546 0.0037571774
000100 ad 26 ae 3c 9a 3e ae bb 0b 5e ba bc 83 cd f7 bb
       0.021258676 -0.0053175213 -0.022749921 -0.0075623407
000110 33 a7 12 3c d3 1f 94 3c d7 84 7d bc e4 be f6 3a
       0.008950996 0.018081581 -0.015473566 0.00188252
000120 db ab 88 bc e0 49 c9 bb 3b e3 cf bb 9f 5a e2 3b
       -0.01668351 -0.00614284 -0.0063442267 0.0069077755
000130 7b b7 c6 bb 06 87 92 bc a7 01 9f bc db 56 8b 3c
       -0.006064353 -0.01788665 -0.019409968 0.01700919
000140 0a c0 ee bc da 28 e0 3b 2c da 1e 3c 6e ba 2b bd
       -0.029144306 0.0068408074 0.009695571 -0.04192584
000150 a8 17 4a bc 75 51 99 bc 72 6c 14 3d d1 cd 6b 3b
       -0.012334742 -0.0187156 0.036236234 0.003598083
000160 8a 45 cd 3b e9 79 85 38 10 11 19 bd b7 12 b2 bc
       0.006264393 6.364642e-05 -0.037369788 -0.02173744
000170 5e b7 4b 3c c7 d8 95 3c f6 2d 51 3c c9 67 15 3d
       0.012433855 0.018291844 0.012767306 0.03647593
000180 1a f0 a8 3c c8 28 81 3c c3 09 21 3c 0f af 63 3c
       0.020622302 0.015766516 0.0098289875 0.013896718
000190 ce fe 2b ba 5c af b4 bb 8b ab 43 3c cb 39 11 3c
       -0.0006561101 -0.0055140685 0.0119427545 0.008863877
0001a0 90 ec 91 bb da d8 0a 3c a1 8e 06 bc 67 95 77 bb
       -0.0044532493 0.008474553 -0.008212716 -0.003777826
0001b0 94 0b 40 bc 0b 98 6f 3c e3 30 8d bb 25 d0 09 bc
       -0.01172151 0.014623652 -0.0043088063 -0.008411442
0001c0 a5 87 bc bc b7 4b c7 bb 8f 18 4b 3a fb b7 c4 bc
       -0.0230139 -0.006082024 0.0007747495 -0.02401351
0001d0 bc 35 c0 b8 6c de 26 3c 57 a7 9a 3c 1c 77 87 39
       -9.165282e-05 0.010184865 0.018878622 0.0002583795
0001e0 a7 51 0e bc 47 c5 f2 3b f1 c6 df 3b 9a 92 17 3c
       -0.00868646 0.007408771 0.0068291356 0.009251261
0001f0 f5 ad 8c 3b e1 f3 a4 bb 8c a7 a6 3b d2 2c 13 bc
       0.004293198 -0.0050339554 0.005085891 -0.008982854
000200 ca 3e bb bc a8 ac 52 3c cb 70 ac bb d9 a4 8c bc
       -0.022857089 0.012858547 -0.0052624694 -0.01716845
000210 1e 14 a9 3c 2d b8 2b bc 93 69 42 bc 96 f8 8c bc
       0.020639475 -0.010480923 -0.011865991 -0.017208379
000220 68 24 76 bb b3 eb fc 39 89 45 25 3b b9 e5 db 3c
       -0.003755832 0.00048240795 0.0025218448 0.026842939
000230 4a 8c 62 bc 6a 31 ac 3c b7 f7 90 bc 8d 57 77 bc
       -0.013827393 0.021019656 -0.017696245 -0.015096557
000240 9b 28 84 3c 97 00 dd 3a f0 99 85 3b 94 9b 5c bc
       0.016132643 0.0016861138 0.0040771887 -0.013464827
000250 20 f1 b1 3b e0 72 5d bc c8 70 28 3b ca 4e a9 3a
       0.0054303557 -0.013516158 0.0025701988 0.0012917158
000260 04 7a 51 bc 5b ae cc 3c 27 7c 3b 3c d1 a3 89 ba
       -0.012785438 0.024985483 0.011443174 -0.0010501092
000270 9c 3b 18 3d c1 4f 8e bb 12 08 74 bc 73 22 33 39
       0.037166223 -0.0043430035 -0.014894502 0.00017083604
000280 c0 23 59 bb 6f 64 f8 3c d8 a9 1d bc 7f 2a de 3b
       -0.003313288 0.030321328 -0.009623013 0.0067799683
000290 3c cb 49 3c ed b8 c8 b9 fc c8 13 3c 70 3b 91 bc
       0.012316521 -0.00038284753 0.009020086 -0.017728537
0002a0 30 1d 0b bb be 8e 8b 3c 59 15 55 3c c2 fe e4 3c
       -0.0021227114 0.017035838 0.013005578 0.02795351
0002b0 d8 26 34 ba 81 88 67 bc 6f 75 d9 bb f7 5f aa 3c
       -0.0006872243 -0.014131666 -0.0066363136 0.020797713
0002c0 cc 5f 4e 3c a4 ea d5 bb 9a 75 69 bc cc 15 44 3c
       0.012596082 -0.0065282155 -0.01424923 0.011968087
0002d0 1e 49 a0 bb 0c 40 06 3c ee 29 1a 3d de 7e fb 3b
       -0.0048915287 0.008193981 0.037637644 0.007675036
0002e0 01 e3 32 3d c1 8f 6b bc 61 e9 32 bd 6a eb ad bc
       0.04367352 -0.014377535 -0.0436796 -0.021230418
0002f0 d4 46 19 bc 2d e3 54 3c 67 18 0d 3b b2 ae 45 3d
       -0.009355266 0.012993616 0.0021529438 0.048262306
000300 f5 0d d5 3c 7d 38 9d bc ca 2d 80 bb a4 5d 79 3c
       0.026007632 -0.019191975 -0.0039117085 0.01522008
000310 34 d2 b7 3c 09 32 aa 3c 64 de 36 3c 2a 2c 78 bc
       0.0224391 0.020775812 0.0111614205 -0.015147248
000320 6b 1f fc ba 4f f4 bb 3c 5f 5d 1d bc b8 2c 37 bc
       -0.0019235438 0.022943644 -0.009604781 -0.011180095
000330 18 8f d3 3b e4 86 85 3c 60 e9 81 b9 7f 49 22 3c
       0.006456267 0.016299672 -0.00024778675 0.009905218
000340 7d d1 bd ba 52 ad 25 39 c0 9e 71 3d 9c 32 62 3c
       -0.0014481988 0.00015800193 0.058989286 0.0138060115
000350 2d 20 30 3c b2 53 15 3c 7c b1 d5 bc 97 73 95 bc
       0.010749859 0.009114193 -0.026085608 -0.018243594
000360 ce 2e 84 3c c7 d1 8c 3c 97 80 04 3d 53 dd 2c bc
       0.0161356 0.017189873 0.032349195 -0.010550815
000370 0b 8f 3c 3b 8b ca 1a bc aa b8 0b bc 38 24 5a 3c
       0.0028771784 -0.009447704 -0.008527914 0.013314299
000380 f8 ec ac 3c 39 0e 87 3a cd 6d a3 bc f8 3b d9 bb
       0.02110909 0.0010303921 -0.019949818 -0.0066294633
000390 49 97 ad 3b b7 6d 6a bb be fc 70 3c 63 5b b3 3c
       0.0052975756 -0.0035770962 0.014708696 0.021894163
0003a0 c0 fb d2 bb 30 8f a7 ba a9 eb fc 3c 17 0e b5 bc
       -0.0064387023 -0.0012783762 0.03087409 -0.022101445
0003b0 29 98 a9 bc b5 4c d0 ba b6 18 28 3d d5 4a a1 b9
       -0.020702438 -0.0015892001 0.04103919 -0.00030764067
0003c0 6a aa 92 3b 57 4c 95 3c 9f 1e 97 bc f8 58 e6 3c
       0.0044758813 0.018224878 -0.018447218 0.028118595
0003d0 0a 8f 24 3d e1 07 20 3c c2 20 00 3d 02 14 1f bd
       0.040175475 0.0097675035 0.03128124 -0.03883744
0003e0 dc ce 46 bc 13 4c be 3c fe 0c 15 bb 0b e2 5e 3c
       -0.01213428 0.023229634 -0.002274334 0.0136036975
0003f0 69 0e b9 bc b8 30 91 bc 74 a5 1b 3a b2 ec 51 3c
       -0.02258988 -0.017723426 0.0005937435 0.01281278

basis_rand_weights f4 [16, 5]
000000 2a ca 20 bd 6f 62 dc b9 05 42 69 bd 30 42 e0 3b
       -0.0392553 -0.0004203501 -0.056947727 0.0068438277
000010 17 45 6d be d0 d8 e0 3b 05 78 5d 3b 7f 4c 00 3e
       -0.23170887 0.0068617836 0.003379346 0.12529181
000020 c4 a5 da bc ca f0 97 3d e0 d4 84 bd 11 28 29 3d
       -0.026690371 0.07418974 -0.06485915 0.041297976
000030 ed 13 1a 3d ea 84 1a 3e 5a fd b3 3d 82 f9 26 bc
       0.03761666 0.15089765 0.08788557 -0.010191323
000040 6d 85 15 bc c8 9e df bc f8 20 aa bc 36 7a 4c 3d
       -0.0091260495 -0.027297392 -0.020767674 0.049921237
000050 f8 56 b5 3d c5 b6 2b bd f3 03 1c be d1 da ae 3d
       0.088544786 -0.04192235 -0.15235882 0.0853783
000060 ad d5 03 bb 77 ea 41 3b c0 5c fe ba f1 cf 58 3e
       -0.0020116374 0.0029589215 -0.0019406304 0.21173073
000070 84 0a 00 3e cd ed e1 ba 30 82 90 bd a3 b2 9f 3d
       0.12504011 -0.0017237008 -0.07056081 0.07797744
000080 79 38 87 3d 21 b9 f4 bc f3 9e 4f bd 04 ce 34 bd
       0.06602568 -0.029873433 -0.050688695 -0.044141784
000090 d8 7a d7 3c d5 e9 69 3e 13 32 fc bd 8c 2e ac bd
       0.026303694 0.22843106 -0.123142384 -0.084073156
0000a0 2a a5 11 bd 27 83 aa bc 57 83 d2 3d e3 48 d3 3d
       -0.035557903 -0.020814491 0.10278957 0.103166364
0000b0 c4 97 a0 bd 2c ab c4 bd 4f f3 84 3c e3 04 55 3e
       -0.07841447 -0.09602961 0.0162293 0.20802645
0000c0 0e 23 93 bd b4 b5 e4 bd d7 fd 86 bd 6e 07 b7 3c
       -0.071844205 -0.111674696 -0.06591385 0.02234241
0000d0 c6 8c f2 3d 72 a1 00 3e 0e cc 85 3d a1 1c 11 bd
       0.11843257 0.12561586 0.06533061 -0.035427693
0000e0 0c bf 39 bc 37 d1 b9 3e c1 b8 50 bc 12 72 0d be
       -0.011337053 0.3629243 -0.012739361 -0.13813046
0000f0 ea b9 6d bc c2 e1 81 3c cc 0e 00 3e cb 1c b2 3d
       -0.014509657 0.01585472 0.12505645 0.08696898
000100 75 80 b4 3d 9f 7b 85 bc d8 bd 48 3d 2e ed 24 3d
       0.08813564 -0.016294299 0.049009174 0.040265255
000110 4c ad 76 3d 61 1c d2 bd 1a 62 a0 bc 4d 7f a0 bd
       0.060223863 -0.10259319 -0.019578028 -0.07836781
000120 6f bb b2 3a 4d ef 33 3d 4c b5 ea 3c 01 f4 9c 3c
       0.0013636182 0.043929387 0.028650902 0.019159319
000130 51 66 e1 3c a2 ca 0e 3d ce 2b 26 bd 38 aa 4b bd
       0.027514609 0.034861214 -0.04056912 -0.04972288

basis_vecs f4 [3, 768]
000000 b6 ac 5d 3b 89 71 87 3c 1e 0c 0a bd 8b 42 45 bc
       0.0033824868 0.01653363 -0.033702962 -0.012039791
000010 9e d1 d3 bc c6 17 80 3d d2 9b 90 3c 07 87 f0 3b
       -0.02585679 0.062545344 0.017652426 0.0073403153
000020 f9 20 20 3c 45 e8 43 3d 16 29 e5 3c 74 54 a0 3b
       0.009773486 0.04782893 0.027973693 0.00489288
000030 c7 90 42 3c e3 25 4d 3d 74 15 db 3c 8e 43 72 3d
       0.011875338 0.05008496 0.026743628 0.059146456
000040 b4 81 78 3a b2 8d 4a bc ca 3d 0a bd 00 f9 dc 3c
       0.00094797765 -0.012362884 -0.033750333 0.026974201
000050 78 46 d9 bc cd 9b 83 3b 0a 02 32 3d 77 39 33 bd
       -0.02652286 0.0040163756 0.043458976 -0.043755975
000060 48 d8 c2 3c cd f5 e7 bc 39 f4 e1 bc e6 85 3d 3d
       0.023784772 -0.02831545 -0.027582275 0.046270274
000070 c4 36 8c bd ce 38 cd 3c 64 ad 34 bd 29 bf ac 3c
       -0.06846383 0.0250515 -0.04411067 0.021087246
000080 d1 39 f1 bb 51 aa 4f 3d 0b c9 a7 bc 94 40 07 3e
       -0.0073616286 0.050699536 -0.020481607 0.13208228
000090 a8 0b 67 bb b8 43 ce 3c 61 cc 3c bd 85 21 44 3d
       -0.003525475 0.025178775 -0.04609335 0.04788353
0000a0 13 01 f1 bc ba ac 06 3d 04 25 3e 3d 14 96 f3 bc
       -0.029419458 0.03287957 0.04642202 -0.029734649
0000b0 9a 9d a4 3c f5 dc 06 bd d6 6e 95 bc 9e c9 19 3a
       0.020094682 -0.032925565 -0.018241327 0.000586653
0000c0 ae 7d 42 bd 61 7e ed 3b 96 c1 8c 3c 2e 7c f8 bc
       -0.04748314 0.0072477316 0.017182153 -0.030332651
0000d0 5d 2b 7c 3d 04 30 bd bb df 04 8f bd e6 21 79 3d
       0.061564792 -0.005773546 -0.06983351 0.060823344
0000e0 62 db cb 3b a2 ed f4 bb 1a bb ff 3c 68 c3 10 bc
       0.006221221 -0.007474617 0.031217147 -0.008835651
0000f0 b4 6f 21 bd c5 62 ef 3b 05 8e 58 3b 49 fd 9e 3c
       -0.03941317 0.0073054754 0.0033043635 0.019407885
000100 8d 73 52 3d e4 40 a1 bc 7a 96 9a bb 6b dd 12 bc
       0.05137973 -0.019684263 -0.0047176452 -0.008963923
000110 dd 82 45 bc d4 99 4d 3c 7f 3e 1a bd f1 9f 6e 3c
       -0.012055126 0.0125488825 -0.037657257 0.0145645
000120 96 6b ce bb 9b 4d bd 3b db 21 bd bc ea 4e 69 3d
       -0.0062994463 0.0057770736 -0.023087433 0.056960024
000130 3d b3 18 3d 92 2a 4f 3b 4e 54 20 bd e1 10 72 3d
       0.03728031 0.0031611067 -0.0391429 0.05909813
000140 2c d7 87 bb 7f 2b fc bc 0e 50 e5 3c 39 95 7a bd
       -0.0041455235 -0.03078246 0.027992275 -0.061177466
000150 4b c4 9f bc 98 2e 05 3c dc 56 1d 3d ac a9 7d 3c
       -0.01950278 0.008128785 0.038412914 0.015482347
000160 00 37 75 3c b2 fb ff bb ec 22 0e bd a3 7b a4 3c
       0.014966726 -0.007811987 -0.034701273 0.020078486
000170 92 4d 02 3c 8d 07 09 bd b7 56 a1 3b b3 e9 db bb
       0.0079530645 -0.033454467 0.0049236673 -0.0067112087
000180 3d 9b db bc a7 47 4d bc fc 38 ea bc 2b 2e 06 3d
       -0.026807422 -0.01252929 -0.028591625 0.032758873
000190 41 6f 02 bd d1 4f 20 bd 91 69 b7 bc e6 95 3a bc
       -0.03184438 -0.03913862 -0.022389205 -0.011388278
0001a0 b9 cb 96 3c df f4 97 3c 95 8b 4d 3d 08 c3 e5 3b
       0.01840769 0.01854938 0.050181944 0.007011775
0001b0 13 c3 9f 3c 5f c2 1a bd ad 7c 06 bc b5 88 2a 3c
       0.019502198 -0.037783023 -0.008208436 0.01040857
0001c0 1e 61 5d bd a2 57 f2 bc 94 53 a3 3c 5e 8b 14 bd
       -0.054047696 -0.029582802 0.019937314 -0.036265723
0001d0 24 2f ab 3b 91 80 24 3c e5 09 0a 3d 42 65 ee bc
       0.0052241255 0.010040418 0.033700842 -0.029101018
0001e0 c2 92 17 3d 18 ed cf 3c d5 2a d6 bc 15 ff a6 3c
       0.037005194 0.02538161 -0.02614347 0.020385304
0001f0 28 28 94 bd 40 b2 09 3d de 74 02 bd 99 47 94 bc
       -0.07234222 0.033617258 -0.031849734 -0.018100547
000200 56 aa 19 bd 29 72 03 bd 56 cd 89 38 e8 2b 8f 3b
       -0.03751596 -0.032091293 6.570916e-05 0.0043692477
000210 20 4f 02 bd 24 bf c5 bc 32 80 24 bd 69 88 8c ba
       -0.03181374 -0.024138995 -0.04016132 -0.0010721806
000220 e4 eb 76 bc fb af 1d 3c cf 50 c6 bc c1 a0 1b bc
       -0.015070889 0.009624477 -0.024208454 -0.009498776
000230 22 7e ac bd 22 cb 35 3c ba cf 73 3d 95 8d bc bc
       -0.084224954 0.011095794 0.059524275 -0.02301673
000240 50 6e 52 3d aa 56 12 bc 7b 98 4e 3d 08 69 aa bc
       0.051374733 -0.008931795 0.050438385 -0.020802036
000250 26 2a 02 3d c8 7e 80 3a 1e 5a 43 bd d0 ac b6 39
       0.031778477 0.0009803409 -0.047693364 0.000348425
000260 97 17 0a 3d c3 86 f3 3c a8 3a 92 3d dc 73 10 3d
       0.033713903 0.029727345 0.07140094 0.035266742
000270 c1 c5 41 3d df e8 b8 bc 64 08 95 3c 8a c2 c1 bc
       0.047307733 -0.02257198 0.018192478 -0.023652334
000280 4c 5f be 3c 76 dc aa 3d 80 60 6b 3c 0c c1 a3 3c
       0.0232388 0.08342831 0.014366269 0.019989513
000290 3a 7d 23 3d 2c 7f c1 3b f8 db c4 3c d4 de 7a bd
       0.039914347 0.0059050526 0.02403067 -0.06124766
0002a0 14 a7 3a 3d e8 a3 cf bb 70 33 a6 3d 4d 28 d2 3b
       0.045569494 -0.006336678 0.0811528 0.0064134956
0002b0 71 36 8e 3c c0 82 0f 3c 46 55 70 bc bd a0 49 3d
       0.017359944 0.008759201 -0.014668768 0.049225558
0002c0 40 27 32 bd dd 91 a2 bd 1b 3d 02 bc 21 fa 91 3d
       -0.043494463 -0.079379775 -0.007949139 0.071277864
0002d0 25 b7 96 3c 5a 11 39 3d c8 3c cd 3d 01 d0 92 3c
       0.018397877 0.045182563 0.10021359 0.01792145
0002e0 43 0b 56 3c 43 da da 3c 74 41 64 bc 62 79 30 bd
       0.013064208 0.026715403 -0.013931621 -0.04308451
0002f0 15 ea f3 bb 3a f4 bd bc 6f 20 a9 bc 1c 79 6d 3d
       -0.0074436762 -0.023187745 -0.020645348 0.057976827
000300 9d b0 12 3d 96 11 4c bd ff 02 43 bc c4 c0 3c 3d
       0.035812963 -0.04982146 -0.01190257 0.046082273
000310 57 02 aa 3c 9d ff 5f 3d ea d3 e3 3c 8e b1 ca bb
       0.020753069 0.05468713 0.02781101 -0.006185717
000320 c4 e1 3c 3d d3 44 00 3d c6 cf 65 bd c4 cf e0 bc
       0.046113744 0.031315636 -0.05610635 -0.02744282
000330 17 22 5b 3d df 50 de bc ee 6c 79 3c 88 ee 9b 3b
       0.053499307 -0.027138172 0.015223725 0.0047586598
000340 a3 84 56 3d 21 4e f5 3b 77 0b b9 3d 36 e9 76 bc
       0.052372586 0.0074861203 0.0903539 -0.01507025
000350 9a cc 44 bc ab d8 c5 3c 8c 2e 90 bc 24 8a 7c bc
       -0.012011671 0.024151167 -0.01760032 -0.015413795
000360 29 a0 93 bb 37 07 82 3d 0d b0 95 3b 60 b3 e9 bc
       -0.0045051766 0.06349032 0.004568106 -0.028527915
000370 58 b7 fd 3a 33 97 81 bd 1c 8f 8d bc f7 57 33 3c
       0.0019357009 -0.06327667 -0.017280154 0.010946265
000380 fa b7 e2 bc 63 3d 2c 3c 98 f7 9d 3c 43 67 01 bd
       -0.027675617 0.010512683 0.019283101 -0.03159262
000390 13 f1 c3 bc 36 65 0a 3c f5 a5 25 3c ce df a8 3c
       -0.023918664 0.008446982 0.010110368 0.02061453
0003a0 e9 06 58 3d 90 0b c7 bc 35 2e cf 3c 4d 76 55 bb
       0.052740965 -0.024297506 0.025290588 -0.0032571733
0003b0 c4 53 9c 3b d3 61 1b 3b 0b 4e 63 3d fb 12 9a bd
       0.004770728 0.002370943 0.05549435 -0.075231515
0003c0 c4 19 83 3d c7 11 6e bc 81 de 7a bc b1 02 cb 3c
       0.06401399 -0.014530606 -0.015311838 0.024781557
0003d0 fd 90 03 3d a0 b5 32 3d 87 c2 cf 3b 13 e6 42 bd
       0.032120693 0.043630242 0.006340328 -0.047582697
0003e0 d0 43 1a 3c 7b c0 04 3d dd 9c 10 bc 34 fe 09 3d
       0.009415582 0.032410126 -0.008826462 0.033689693
0003f0 c2 3e 8f bc d7 c2 81 bc b3 8b f4 bc c5 f6 73 3d
       -0.01748598 -0.015839977 -0.02985177 0.05956151

basis_comm_weights f4 [1, 5]
000000 e9 a8 58 3e e0 2e 33 3f e8 7b dd 3e 14 24 6a 3e
       0.21158184 0.699934 0.43258595 0.22865325
000010 a0 e6 fd 3d
       0.12397504

bias f4 [16, 768]
000000 7c 31 18 bc 03 b2 23 bd 4b 45 3f bd 3b f1 86 3d
       -0.009289142 -0.039964687 -0.046696942 0.0658898
000010 d6 3f e5 3c 8d 5b a8 3b bc 1b 62 3c 52 b5 28 bd
       0.02798454 0.005137867 0.013800558 -0.041188546
000020 b8 72 07 3c 05 b0 b0 3c 38 3a b5 3c 05 56 df ba
       0.008267097 0.021568308 0.022122487 -0.0017039186
000030 33 79 95 3a 01 d8 86 bd 1d ab 7c bd a1 9c 93 3c
       0.0011403918 -0.06584168 -0.061686624 0.018019022
000040 3e c5 f9 39 2b 6c dd 3b b2 f4 29 bd 3e 31 c6 3c
       0.00047639938 0.0067572794 -0.041493125 0.024193402
000050 fe d6 60 3c b1 72 41 bc f9 c0 e5 bc 1b 7d 95 ba
       0.013723133 -0.01180713 -0.028046118 -0.0011405082
000060 c7 f9 f9 bc bb 5b 56 bc 1f 8f b2 bd 88 92 e1 3c
       -0.03051461 -0.013083394 -0.087187044 0.027535692
000070 ab 6e 5f bd 09 f2 fb 3b 58 98 33 3d 53 fe 92 3c
       -0.0545489 0.007688765 0.04384646 0.017943537
000080 c5 c2 30 bd 89 24 30 bd 0e d8 3c bd 28 0a 4d bd
       -0.043154497 -0.043003593 -0.046104483 -0.050058514
000090 5c 7c a9 bc d5 c0 bb 3c df 03 30 3b cf 0c 25 bc
       -0.020689182 0.022919098 0.0026857776 -0.010073855
0000a0 8e 08 2c 3d 28 5c 31 bd fb e4 a8 3c 01 d4 e5 3b
       0.042000346 -0.043300778 0.020616999 0.007013798
0000b0 2f 9e 23 3c d1 63 8b bc a6 02 87 3d bf fd 47 3a
       0.009986444 -0.01701537 0.06592302 0.00076290587
0000c0 f2 c9 a4 3c f9 87 82 3c c5 c7 29 bc 8c fc 13 bd
       0.020115826 0.015933977 -0.01036257 -0.03612952
0000d0 d4 6c 84 bc aa 6c 07 bc 59 12 e1 bc d8 33 a5 3d
       -0.016165175 -0.008265654 -0.02747457 0.08066529
0000e0 ce 6f a0 3c 50 ce 6e bc ec da b1 3c 7e d7 ba bc
       0.019584563 -0.014575556 0.021710835 -0.022807833
0000f0 c7 0d e4 bc 8b 06 13 3c fd c1 ff 3b 3b a2 9c bc
       -0.0278386 0.008973728 0.0078051076 -0.019120326
000100 c4 05 4b bd 52 58 00 bd 8f 68 1e bb 58 52 b5 bc
       -0.049566045 -0.03133423 -0.0024171208 -0.022133991
000110 5c 51 a1 bb f9 0f 0c 3c 7c e0 9b bc f7 98 79 3c
       -0.004923029 0.00854873 -0.01902794 0.015234224
000120 58 0c b3 3c c0 4d 63 bd b1 c1 a9 bc 42 0c c7 bc
       0.021856472 -0.05549407 -0.020722242 -0.024297837
000130 9d 2a 9f bc 13 38 5c bc b5 37 b3 3c cb 45 06 bd
       -0.0194295 -0.0134411035 0.02187715 -0.032781404
000140 20 eb 22 3c 67 56 5b 3d f6 82 3e 3c f4 af a9 3c
       0.0099437535 0.053549197 0.011627903 0.020713784
000150 76 ed e0 3b f5 33 49 3c b2 b2 a4 3c 91 d0 0e 3c
       0.006864245 0.012280454 0.02010474 0.008716718
000160 d7 b3 8f bc 6d 7d 93 3c 7b 91 2b bd d0 c3 bd 3c
       -0.017541809 0.018004144 -0.041886788 0.02316466
000170 c2 31 28 3c fc 7b d0 bb 05 fe 46 bc 78 7a 01 bd
       0.010265769 -0.0063624363 -0.012145524 -0.031610936
000180 41 f0 d1 bc 71 f7 e1 3c f5 7e 45 bd 0f de 9a 3c
       -0.025627257 0.02758381 -0.04821678 0.018904714
000190 b7 3a 53 3d 08 c5 c2 3b 77 e1 6a 3b 9b c7 c7 ba
       0.051569667 0.005943898 0.0035839954 -0.0015241982
0001a0 93 23 0c 3c 13 02 84 bd 33 57 86 3d ca cf 64 bd
       0.008553403 -0.06445708 0.06559601 -0.055862226
0001b0 f0 4c 9e bd 19 5c 15 3d 12 00 98 3a 54 03 a2 bc
       -0.077295184 0.036464784 0.0011596701 -0.019776978
0001c0 89 22 04 bd 10 f2 a9 bc 4e 49 6f 3c 5a 64 cc 3c
       -0.032259498 -0.020745307 0.01460488 0.024950195
0001d0 2e 6e 5a bd 02 0d 3b bc 06 df 53 bc 41 39 35 bd
       -0.05332773 -0.0114166755 -0.012931591 -0.044244055
0001e0 a2 79 96 bb 38 7b 15 bd a3 4c be bc ba 4d 9e bc
       -0.0045921365 -0.036494464 -0.023229903 -0.019324172
0001f0 b8 2f f5 bc a0 22 42 bc 8c 55 d1 bc af 88 b9 3d
       -0.02992998 -0.011849076 -0.025553487 0.090592735
000200 db 81 c9 bc fc 4b 93 bc 75 64 9b 3c 32 cf da 3c
       -0.024598053 -0.017980568 0.0189688 0.026710127
000210 46 c2 6a bc fd e7 ca 3b 1d f9 61 bc 1e 68 4f ba
       -0.014328545 0.006192206 -0.013792303 -0.0007911938
000220 b4 3e 60 3d f8 e4 ad 3b 40 8f fd 3c bd de 34 3d
       0.0547473 0.005306836 0.030952096 0.044157732
000230 5d 24 40 bc b8 5c ca 3c 23 09 04 bd d5 db b7 bc
       -0.01172742 0.024702415 -0.032235276 -0.022443691
000240 5c 26 6e ba 2c 5c 32 3b e4 72 86 3a 82 b5 8e 3d
       -0.00090846955 0.0027215583 0.0010257629 0.069682136
000250 56 52 03 bc be 65 d7 3c 60 fa 00 3d 0f fd 84 bc
       -0.008015236 0.026293632 0.031488776 -0.016233949
000260 4f 1b ca 3c d8 fc 30 3d 6a da 46 bd b6 ad 2f 3d
       0.024671225 0.04320988 -0.04854814 0.042890273
000270 fa 55 1c 3d 88 9d e0 3a 87 84 0c b7 ef 1a e2 bc
       0.03816793 0.0017136792 -8.375507e-06 -0.027600734
000280 fd e5 99 bd 14 1a 77 bd d6 1a d8 3b dc 89 91 3d
       -0.0751457 -0.060327604 0.006594996 0.07106373
000290 a0 32 07 bc 37 3f 82 3c 9e 6a 45 bc 2a 69 88 bd
       -0.008251816 0.015899284 -0.012049345 -0.066606835
0002a0 cb 27 bb bc 76 29 36 3d fe 25 43 3d ec cf 48 bd
       -0.022846123 0.044473134 0.047643654 -0.049026415
0002b0 c0 21 4c bc b0 b4 b8 3b 0f da 44 3a 07 17 11 3c
       -0.0124592185 0.005636774 0.00075093 0.008855588
0002c0 df 61 94 bb d4 22 25 3d 72 bd 34 bd 9f 8f 9b 3c
       -0.0045282687 0.040316418 -0.04412598 0.018989382
0002d0 9e 37 68 3a b8 3c 05 3d 93 91 a7 3c 16 52 8f 3c
       0.0008858385 0.03252861 0.020455157 0.017495196
0002e0 1d de a8 bc 9b 77 f0 3c de 23 d9 3c 92 d1 94 3c
       -0.020613724 0.029353907 0.02650636 0.018166337
0002f0 12 6d e4 3c 5f 72 51 bd 96 09 84 3c cb 42 c2 bc
       0.02788404 -0.051134463 0.016117852 -0.02371349
000300 2e 63 3e 3c 8d 37 76 3c 51 66 31 bc 55 e3 6f 3c
       0.011620326 0.015027893 -0.010827617 0.0146416025
000310 d5 46 2e 3d 44 49 1b 3c eb f0 f4 3b 5c 0e 08 3d
       0.04254802 0.009477917 0.0074750087 0.03321682
000320 b8 01 8e 3c 28 ee 13 3d bd 92 f1 bc 2a d0 9e bc
       0.017334804 0.036115795 -0.029488916 -0.01938637
000330 9b 34 4b bc c9 26 8c bd 8a e3 45 3c 7a a3 ba 3c
       -0.012402679 -0.06843335 0.012078175 0.02278303
000340 21 33 5e 3d eb 60 4a bd cd d4 94 3c 54 87 8a bd
       0.05424798 -0.049408834 0.018167878 -0.06764093
000350 18 96 5d 3d 40 1b 82 bc b3 34 6f 3c 17 d7 e1 3b
       0.05409822 -0.015882134 0.014599967 0.006892096
000360 3b 6a 1c 3d 0d 30 1d 3c 4a 69 90 3d 66 20 30 bd
       0.038187247 0.009593976 0.07051332 -0.042999648
000370 ee b3 fe 3c f8 1f f2 3b 52 27 8f 3b ad b1 b1 3c
       0.031091657 0.007389065 0.004368701 0.021691168
000380 af b1 89 bc 4f 37 e0 3c 1c 61 89 3c c4 00 90 bc
       -0.016808359 0.027370123 0.016769938 -0.01757849
000390 1f 2a d3 3b 8f c3 f7 bc ba c0 70 bd c0 90 ab bc
       0.00644423 -0.030244617 -0.05877755 -0.020943046
0003a0 90 e1 55 3d 41 d5 2a bd 17 64 df 3b 06 0a 09 bd
       0.052217066 -0.04170728 0.0068173516 -0.033456825
0003b0 44 62 7d 3c 46 91 a0 bb cd 7c 32 bb 02 10 35 3c
       0.015465323 -0.0049001304 -0.0027235032 0.01105118
0003c0 03 88 1c 3c a5 ed 31 bc 9c f5 a1 3d d3 38 88 3b
       0.009553912 -0.0108598815 0.079081744 0.0041571646
0003d0 b0 c3 be 3d c1 f1 52 3c 70 4c e2 bc 57 f3 a3 3c
       0.09314668 0.012875021 -0.027624339 0.020013494
0003e0 69 4d 9c bb de 70 0b 3d f2 39 40 bb 63 8f c5 3c
       -0.00476997 0.034043185 -0.0029331413 0.024116224
0003f0 6a 45 3d bc fb 88 95 3c 22 da 40 3c 81 4b bf bc
       -0.011552194 0.018253794 0.011770757 -0.023351433

weight f4 [768]
000000 9d dd 77 3f 48 b4 73 3f f5 a8 8f 3f bc b2 5d 3f
       0.9682253 0.9519696 1.1223437 0.8660085
000010 e4 bb 79 3f 0c d1 7a 3f c2 a3 71 3f 08 5c 86 3f
       0.97552323 0.9797523 0.943905 1.0496836
000020 76 af 6a 3f 64 0f 86 3f 8d 31 84 3f 64 f8 7f 3f
       0.9167398 1.0473447 1.0327622 0.9998839
000030 c3 90 82 3f 9a c9 4f 3f 4d f8 57 3f 4f 13 8a 3f
       1.0200428 0.81166995 0.8436325 1.0787143
000040 43 87 6f 3f 7e 86 73 3f e1 5e 86 3f 9b db 87 3f
       0.9356577 0.95127094 1.0497705 1.0613893
000050 5c 55 77 3f 94 d8 75 3f 0f 47 69 3f eb d4 7e 3f
       0.96614623 0.96033597 0.9112405 0.9954364
000060 1d d8 67 3f 86 45 71 3f 4c ff 96 3f 80 e6 8f 3f
       0.9056414 0.9424671 1.179666 1.1242218
000070 c7 8c 90 3f 52 06 7f 3f 3e 10 62 3f ce 0a 80 3f
       1.1292962 0.9961902 0.88306034 1.0003297
000080 98 c3 87 3f 27 be 5e 3f f2 91 8a 3f af b1 7e 3f
       1.0606565 0.870089 1.0825789 0.99489874
000090 29 d0 82 3f 4f 50 88 3f ab 98 72 3f 43 55 78 3f
       1.0219775 1.0649508 0.947642 0.970051
0000a0 7f 74 82 3f a8 8b 68 3f dd a9 87 3f 41 12 57 3f
       1.0191802 0.908381 1.0598713 0.8401223
0000b0 03 2e 86 3f ef 30 7e 3f 78 c4 5a 3f 4e c3 87 3f
       1.0482792 0.99293417 0.8545604 1.0606477
0000c0 2e be 64 3f 8c b5 7c 3f 01 d3 71 3f e1 b3 6e 3f
       0.8935269 0.9871452 0.9446259 0.93243223
0000d0 77 96 81 3f 81 79 81 3f fd 96 87 3f 89 cf 92 3f
       1.0124043 1.0115205 1.0592953 1.1469585
0000e0 70 23 78 3f 38 1e 78 3f b3 bc 80 3f ca f0 70 3f
       0.96929073 0.9692111 1.0057586 0.94117415
0000f0 d7 55 90 3f 92 98 82 3f 87 c5 7c 3f 1b f4 71 3f
       1.1276196 1.0202811 0.987389 0.945131
000100 e2 f4 70 3f 6a d8 66 3f 34 2d 6d 3f 69 58 70 3f
       0.9412366 0.9017397 0.926471 0.93884903
000110 12 04 80 3f 14 31 70 3f 15 ed 80 3f 0d 20 86 3f
       1.0001242 0.9382489 1.0072352 1.0478531
000120 ff 2a 7e 3f 47 a6 6c 3f 81 1b 8d 3f b9 3e 61 3f
       0.99284357 0.9244122 1.1024019 0.8798633
000130 b8 9b 80 3f b4 22 77 3f d1 01 72 3f 00 a3 6b 3f
       1.0047522 0.9653733 0.9453402 0.92045593
000140 a6 c8 83 3f 5f 9b 52 3f 00 e1 81 3f 6f 13 5d 3f
       1.0295608 0.8226833 1.014679 0.8635778
000150 79 cc 80 3f e2 75 78 3f 64 fd 8b 3f 38 01 6c 3f
       1.00624 0.97054875 1.0936704 0.9218936
000160 10 ad 5f 3f fe c6 6a 3f a9 bf 87 3f 20 4c 7b 3f
       0.8737345 0.9170989 1.0605365 0.9816303
000170 8d 29 7c 3f 6b 09 74 3f 04 28 86 3f 87 20 70 3f
       0.985009 0.9532687 1.0480962 0.9379963
000180 99 d8 6c 3f b8 3d 72 3f d5 cf 8f 3f 4e bd 81 3f
       0.92518 0.94625425 1.12353 1.0135896
000190 fd 10 4a 3f 13 9a 80 3f ca ae 82 3f d6 5a 78 3f
       0.7893217 1.004702 1.0209591 0.97013605
0001a0 0e a1 83 3f 98 71 4e 3f 03 5f 9b 3f ad 06 73 3f
       1.0283525 0.8064208 1.213837 0.9493206
0001b0 55 60 95 3f 81 2f 79 3f 10 cc 72 3f ed d0 7c 3f
       1.1670023 0.9733811 0.94842625 0.98756295
0001c0 31 38 8c 3f 62 bc 8b 3f 73 c8 81 3f 71 31 81 3f
       1.0954648 1.0916865 1.0139297 1.0093213
0001d0 df bf 61 3f 82 ff 7b 3f b0 0b 81 3f 9d 92 88 3f
       0.881834 0.9843675 1.0081692 1.0669743
0001e0 03 4d 70 3f 69 b9 5d 3f 9f 3a 85 3f 9e a0 81 3f
       0.9386751 0.8661104 1.0408515 1.0127141
0001f0 8a 23 84 3f 39 d4 83 3f c2 48 84 3f 73 01 4d 3f
       1.0323346 1.029914 1.0334704 0.80080336
000200 b9 31 81 3f 53 f3 84 3f 8e 50 7e 3f 5c 74 89 3f
       1.0093299 1.0386757 0.99341667 1.0738635
000210 bc ed 71 3f 33 e0 80 3f 93 cd 82 3f d1 cd 7f 3f
       0.9450338 1.006842 1.0218986 0.99923426
000220 49 50 71 3f c6 a6 85 3f 98 b2 82 3f 12 35 62 3f
       0.9426313 1.044152 1.0210752 0.8836223
000230 d5 ea 7f 3f 9a df 84 3f 90 ba 70 3f bf 23 8b 3f
       0.999677 1.0380738 0.9403467 1.0870284
000240 7b 15 82 3f fc e8 78 3f 6b 35 7e 3f 78 f8 5c 3f
       1.0162805 0.97230506 0.9930026 0.86316633
000250 76 f2 7f 3f 08 6b 76 3f 52 10 64 3f 2c 1d 82 3f
       0.9997934 0.96257067 0.890874 1.0165153
000260 ad ab 92 3f 63 5b 90 3f 02 93 62 3f cb 85 94 3f
       1.1458641 1.1277889 0.88505566 1.160333
000270 2a 49 8e 3f cb 40 7c 3f f0 7e 80 3f 42 2e 7d 3f
       1.1116078 0.98536366 1.0038738 0.9889871
000280 d5 71 66 3f 5c 32 52 3f ab 38 7a 3f 5e 6c 95 3f
       0.90017444 0.8210809 0.9774272 1.1673696
000290 e2 95 7c 3f 16 5c 83 3f 57 26 71 3f 20 4c 94 3f
       0.98666203 1.0262477 0.94199127 1.1585732
0002a0 f9 39 76 3f 85 a3 5b 3f b7 c5 8f 3f de 15 73 3f
       0.9618221 0.85796386 1.1232213 0.9495524
0002b0 60 ab 69 3f 1f 35 84 3f 00 a7 7c 3f cb 7f 8c 3f
       0.9127712 1.0328711 0.9869232 1.0976499
0002c0 03 51 89 3f c5 8c 69 3f 8e f5 8d 3f 36 b3 8a 3f
       1.0727848 0.9123042 1.1090562 1.0835941
0002d0 07 9c 71 3f 65 28 83 3f 06 82 8e 3f 92 b0 83 3f
       0.94378704 1.0246702 1.113343 1.028826
0002e0 8d 08 76 3f 4e a1 84 3f bc 62 73 3f 91 15 7c 3f
       0.961068 1.0361726 0.9507253 0.9847041
0002f0 38 e5 6c 3f 17 a3 84 3f b8 82 7d 3f 1e 2e 62 3f
       0.9253726 1.0362271 0.99027586 0.8835162
000300 0f 59 87 3f ce 48 76 3f b5 0a 7f 3f c4 27 86 3f
       1.0574054 0.9620484 0.9962571 1.0480886
000310 03 45 83 3f d5 f5 87 3f 39 27 7b 3f 59 a9 6c 3f
       1.0255436 1.0621897 0.98106724 0.92445904
000320 e8 e8 83 3f a8 29 8b 3f 61 ba 80 3f c1 c1 81 3f
       1.0305452 1.0872087 1.0056878 1.0137254
000330 e3 2a 81 3f ee 81 99 3f 30 af 7b 3f e0 37 87 3f
       1.0091213 1.1992776 0.9831419 1.0563927
000340 11 2f 8c 3f 08 9f 85 3f 71 75 8b 3f fd 66 65 3f
       1.0951864 1.0439157 1.0895215 0.8961027
000350 97 ed 81 3f d8 cc 76 3f 9b c2 74 3f 9d 88 75 3f
       1.0150632 0.96406317 0.95609444 0.9591158
000360 e9 0f 6d 3f fd f1 82 3f 6c fd 93 3f c2 b3 93 3f
       0.926024 1.0230099 1.1561713 1.1539233
000370 94 48 76 3f a6 2e 6f 3f 2b 0b 67 3f 1d 26 87 3f
       0.96204495 0.93430555 0.90251416 1.0558506
000380 5e 75 83 3f 2e 36 6f 3f fc 22 77 3f c9 45 85 3f
       1.0270193 0.93442047 0.96537757 1.0411922
000390 8e 9a 79 3f f1 5d 88 3f 75 1a 5f 3f c0 e4 78 3f
       0.97501457 1.0653669 0.87149745 0.97224045
0003a0 e9 48 94 3f 8a ac 85 3f f3 28 74 3f be 9c 89 3f
       1.158475 1.044328 0.95374984 1.0750959
0003b0 22 c9 71 3f a3 aa 73 3f c7 32 80 3f 7a 57 81 3f
       0.9444753 0.95182246 1.0015496 1.0104821
0003c0 87 5d 83 3f f6 18 77 3f 9d 43 50 3f 42 28 81 3f
       1.0262917 0.9652246 0.8135317 1.0090411
0003d0 93 f7 8e 3f 11 8c 7f 3f ed 65 6c 3f 31 49 77 3f
       1.1169304 0.998231 0.92343026 0.96596056
0003e0 12 f2 7b 3f dc 91 8c 3f 3c 49 75 3f ce 27 8a 3f
       0.98416245 1.0982013 0.9581487 1.0793397
0003f0 33 7a 86 3f 40 91 6c 3f b2 df 70 3f 1a 66 74 3f
       1.0506042 0.92409134 0.9409133 0.95468295

bias f4 [768]
000000 f9 4b 7c bd af 80 14 be 27 c0 02 be 39 a0 1c 3e
       -0.06159589 -0.14502214 -0.12768613 0.15295495
000010 84 ee 22 3d 9f 83 f4 3b 27 4b 9b 3d b1 91 04 be
       0.039778247 0.0074619795 0.075826935 -0.12946202
000020 c6 5e 12 3d bf 07 4a 3d fe e2 7b 3d de 7d 98 3c
       0.035734914 0.049323794 0.061495773 0.018614706
000030 e4 5e a7 3c 85 6f 37 be 68 76 2b be 5f 91 a5 3d
       0.02043099 -0.17913635 -0.16744387 0.08084368
000040 5c d7 b3 bc 9a 49 7a 3d 4c f2 a0 bd e1 fc d2 3c
       -0.021953277 0.06110535 -0.078587145 0.025755348
000050 87 73 a9 3b f6 ae 7b bd df fd 93 bd 76 4f cd bb
       0.0051712426 -0.061446153 -0.072261564 -0.006265576
000060 63 e0 a6 bd c6 18 32 bd 2d ea 53 be 3c f2 e9 3d
       -0.08148267 -0.043480657 -0.206948 0.11423156
000070 4b 7b f1 bd 84 c4 5f 3a 76 c9 c2 3d d7 73 72 3d
       -0.117910944 0.0008536058 0.09511082 0.059192505
000080 93 dc f8 bd 91 6d fd bd 25 2e ae bd 88 b9 d4 bd
       -0.12151446 -0.12374414 -0.08504895 -0.1038695
000090 b8 78 4b bd 44 11 aa 3d 22 53 7f 3c 68 ae ee bc
       -0.049675673 0.083040744 0.015583785 -0.029135898
0000a0 6d d4 06 3e cd 44 77 bd 2e 52 80 3d ea e1 92 3c
       0.13166972 -0.060368348 0.062656745 0.01792999
0000b0 c3 8e 33 3d 71 31 86 bd f9 1f 1f 3e ab a0 55 bb
       0.04383732 -0.06552399 0.1553954 -0.0032596986
0000c0 2f b3 d4 3d b7 8f a1 3c 1b 15 33 bd d7 5d 1b be
       0.10385739 0.019721849 -0.0437213 -0.15172516
0000d0 2a 3c 8b 3c e0 a7 b2 bc e9 02 53 bd 35 26 17 3e
       0.016996462 -0.021808565 -0.051516447 0.14760669
0000e0 9f d0 bf 3d d3 f1 39 bd a5 9b 18 3d c4 dd 87 bd
       0.09365963 -0.045396637 0.03725781 -0.06634095
0000f0 9d 55 da bd 3d 4e fb 3c ad b2 bb 3c d7 87 1c bd
       -0.10660861 0.030676955 0.022912348 -0.038215484
000100 e5 b7 67 bd 8f f2 da bd a4 56 89 bd 02 68 98 bd
       -0.05657186 -0.10690796 -0.067059785 -0.07441713
000110 42 11 18 bd b2 6e 63 3d 9b 18 9e bc 96 87 2a 3d
       -0.037125833 0.05552549 -0.019298842 0.04163321
000120 41 a3 98 3c 71 40 f4 bd ac 2d 86 bc d3 2b fa bd
       0.018632533 -0.11926354 -0.0163792 -0.1221539
000130 66 33 ec bc 0b 39 56 bd eb 71 57 3d 90 7e a4 bd
       -0.028833102 -0.052300494 0.052598875 -0.080319524
000140 6f 4b 83 3d b6 3c 0e 3e 75 c3 6f 3c 4d ba d9 3d
       0.06410872 0.13890347 0.014634003 0.10631237
000150 29 54 68 3b 56 b7 26 3c 53 de 90 3d 44 40 23 3d
       0.0035450554 0.010175547 0.07073655 0.03985621
000160 f4 23 e2 bd ac 32 94 3d d5 6a a0 bd 67 05 2e 3d
       -0.11042014 0.072362274 -0.078328766 0.04248562
000170 ee 6e 47 3d 18 fa 7d bc d9 7a 92 bd 29 a9 8c bd
       0.048689775 -0.0155015215 -0.071523376 -0.06868202
000180 48 0f b2 bd 3b 91 4e 3d f9 4d dd bd 1c d4 29 3d
       -0.08694321 0.05043147 -0.10805888 0.04146205
000190 f4 06 d8 3d 4b 92 96 bc e9 0c 03 bd 84 f3 f8 3c
       0.10548201 -0.018380305 -0.031994734 0.030389555
0001a0 9c 78 d7 3c 4c c3 2a be 84 b8 3c 3e a0 3f d6 bd
       0.026302628 -0.16676062 0.18429762 -0.10461354
0001b0 32 3e 36 be 39 47 e6 3d 1a 29 07 3d a7 d9 a6 bc
       -0.17797163 0.112440534 0.032998182 -0.020367457
0001c0 e5 eb 7c bd 34 1f 90 bd a7 b8 33 3c 4d 82 b1 3c
       -0.061748404 -0.070372015 0.0109693175 0.021668578
0001d0 5a cb ef bd 4c 99 d2 bc f1 d2 dc 3b da 15 86 bd
       -0.11708708 -0.025707863 0.0067390134 -0.065471366
0001e0 06 9d 92 bc d2 96 dd bd 90 3d 49 bc eb ca 50 bd
       -0.01789714 -0.10819782 -0.012282744 -0.050974768
0001f0 f0 4f 94 bd c3 0b 8f 3c f2 83 9f bd d6 a3 45 3e
       -0.07241809 0.017461663 -0.077888384 0.1930078
000200 a2 61 96 bd c2 09 2a bd 8d 4e 19 3d 0a bc a6 3d
       -0.07342841 -0.041513212 0.037428427 0.08141334
000210 a8 6f 46 3b 50 4b e9 bb 66 a1 8f bd 88 b4 e1 bc
       0.0030278955 -0.0071195737 -0.07013206 -0.027551904
000220 fa 41 0b 3e a0 98 45 bd 48 8a 76 3d e8 0b 06 3e
       0.13599387 -0.048241258 0.06019047 0.1309048
000230 41 37 1a bc 6b 47 88 3d 3a 56 12 bd 92 d7 f7 bd
       -0.009412588 0.06654247 -0.035726763 -0.12101664
000240 26 7e 2a 3c db 47 c8 3c 41 b0 65 bb 69 58 20 3e
       0.010406053 0.024448326 -0.0035047682 0.15658726
000250 a0 4b a8 bc b6 e3 39 3d b1 9e be 3d f4 d9 74 bd
       -0.020543873 0.045383178 0.09307612 -0.05977817
000260 f1 4f 14 3e 51 06 ce 3d 64 c1 d6 bd 46 7b e6 3d
       0.1448362 0.100597985 -0.10486105 0.11253981
000270 01 b8 e1 3d 1f a5 90 3c 16 53 7e bc 43 49 8f bd
       0.11021424 0.01765686 -0.015522739 -0.069963954
000280 c0 88 50 be d7 b4 2d be 6d 21 6a bb 8d 19 1e 3e
       -0.20364666 -0.16963516 -0.003572549 0.15439434
000290 cf 15 92 bc 7b 0c 08 3d ce aa 83 bd 13 be 1a be
       -0.017832665 0.033215027 -0.06429063 -0.1511157
0002a0 a7 91 2a bd 5c 99 f1 3d f1 85 ff 3d e2 a7 46 be
       -0.04164281 0.11796829 0.12476719 -0.1939998
0002b0 2c a9 73 bc cc 59 a6 3c d2 45 fc bb d8 aa 9c 3d
       -0.014871877 0.02030649 -0.007698753 0.07649773
0002c0 19 67 a1 bd a4 8e 9f 3d 99 5f 36 be 86 1c 4b 3d
       -0.078809924 0.077908784 -0.17809905 0.04958775
0002d0 77 ee 03 bd 54 ae c5 3d da 52 b3 3d ca 46 34 3d
       -0.03220984 0.09652391 0.08756037 0.044012822
0002e0 9d 3c 65 bd b0 69 94 3c ca 10 6c 3d c0 d7 e8 3d
       -0.05596601 0.018116802 0.0576332 0.11369276
0002f0 6c 61 9e 3d 83 eb e3 bd 9a 43 a7 3c 08 96 c4 bd
       0.077334255 -0.11128905 0.020417977 -0.09598929
000300 ae 2b 84 3d 79 2a b2 3c da 4c bb bb 4a 50 08 3d
       0.06453644 0.021748768 -0.0057159485 0.033279695
000310 80 c7 c2 3d 11 55 4b 3d c0 c6 be 3c 65 8b a2 3d
       0.09510708 0.049641673 0.02328813 0.07936744
000320 37 f4 9f 3d f9 bf cb 3d 02 52 ac bc 8a d4 08 bd
       0.07810252 0.09948725 -0.021035198 -0.033405818
000330 70 3c 20 bc c9 15 3e be 77 10 25 3d 4e 2e 8e 3d
       -0.009780034 -0.18562998 0.040298905 0.06942426
000340 89 d9 be 3d d8 34 02 be 9d 0d ac 3d 7f e2 1b be
       0.09318835 -0.12715471 0.08401034 -0.1522312
000350 71 34 c3 3d 08 88 99 bd 65 ef 0b 3d f2 f3 2b 3b
       0.09531487 -0.07496649 0.03416385 0.0026237932
000360 be d6 2c 3d 56 bd b5 3c fe 7a 42 3e d9 93 1c be
       0.04219698 0.022185009 0.1899223 -0.15290774
000370 57 a3 7c 3d f8 58 2a 3d 93 2f 61 3d 24 2b 87 3d
       0.06167921 0.041588753 0.05497701 0.06600025
000380 2b 18 00 bd 23 6e b5 3d 2f f1 8c 3d 76 05 7d bd
       -0.03127305 0.088588975 0.068819396 -0.061772786
000390 ec af 35 3d 48 6f 8a bd 35 99 1f be d4 72 53 bc
       0.044357225 -0.067595065 -0.15585788 -0.012905795
0003a0 b0 18 3b 3e ff 13 b0 bd fc ec 40 3d 12 9e ce bd
       0.18271136 -0.08597564 0.047101006 -0.10088743
0003b0 6e 78 fc 3c b9 dd 28 bc 2e 76 50 3a 90 a6 38 3a
       0.030819144 -0.010306769 0.00079521805 0.0007043863
0003c0 5f 45 ed 3c 71 26 b6 bc af 1b 31 3e 93 9e b0 3c
       0.028963743 -0.022235127 0.17295717 0.02155999
0003d0 62 41 7a 3e 47 96 2f 3c c1 cd a5 bd d9 b2 35 3d
       0.24439004 0.010716981 -0.08095885 0.044360016
0003e0 28 37 84 bc 67 96 9c 3d 2b ec ce 3c 2a f2 ab 3d
       -0.016139582 0.076458745 0.025259098 0.083957985
0003f0 70 ed 82 bd d1 5f 6e 3d 65 8b 6d 3d 9a 6a 23 bd
       -0.06392944 0.058196846 0.057994265 -0.039896585

weight f4 [768]
000000 2c 78 3b 3f 6f 9a 6a 3f 97 2c 79 3f ef 5d 82 3f
       0.7323024 0.91641897 0.97333664 1.0184916
000010 ec 20 78 3f 5e eb 77 3f 32 9f 71 3f 30 80 79 3f
       0.96925235 0.96843517 0.9438354 0.97461224
000020 8c 5c 84 3f ea ac 86 3f ba dd 7e 3f 11 c5 89 3f
       1.0340743 1.0521519 0.9955708 1.0763265
000030 a8 81 81 3f 32 46 62 3f 3c 81 59 3f c9 99 7f 3f
       1.0117693 0.8838836 0.8496282 0.9984403
000040 b7 01 76 3f df d8 73 3f 3e f3 8d 3f e7 85 77 3f
       0.96096367 0.95252794 1.1089857 0.96688694
000050 a6 46 93 3f e9 1f 83 3f 82 35 97 3f cf f7 81 3f
       1.1505935 1.0244113 1.1813204 1.015375
000060 e4 77 6a 3f c1 f7 71 3f 1f 9c 71 3f d1 ad 71 3f
       0.9158919 0.9451867 0.94378847 0.9440585
000070 00 d9 51 3f b3 ce 7c 3f cb f4 5a 3f a6 63 80 3f
       0.8197174 0.987529 0.85529774 1.003041
000080 56 12 7f 3f f4 7b 86 3f 1a 1e 63 3f ad e1 78 3f
       0.99637353 1.0506577 0.88717806 0.97219354
000090 43 fd 71 3f ac 7b 81 3f 12 94 7e 3f 8f b0 54 3f
       0.9452707 1.0115867 0.9944469 0.8308191
0000a0 b0 3c 80 3f ee b7 74 3f 47 ff 86 3f 73 84 7c 3f
       1.001852 0.95593154 1.0546654 0.986396
0000b0 51 e2 87 3f 21 ce 85 3f f5 bb 81 3f 2d 95 6d 3f
       1.0615941 1.045353 1.0135485 0.9280575
0000c0 65 ed 4a 3f e5 5a 84 3f 33 c6 86 3f c5 7f 6d 3f
       0.79268485 1.0340239 1.0529236 0.92773086
0000d0 58 c5 87 3f a2 01 80 3f bd 95 8f 3f 2c de 8b 3f
       1.06071 1.0000498 1.1217571 1.0927176
0000e0 be 6e 78 3f 4d df 74 3f 07 bd 7d 3f e9 ab 6e 3f
       0.9704398 0.9565323 0.9911656 0.93231064
0000f0 da 18 77 3f 1a cf 7c 3f f9 0a 85 3f 9a 26 90 3f
       0.96522295 0.9875351 1.0393974 1.126178
000100 01 6f 65 3f 6a c3 77 3f 96 33 80 3f 09 77 88 3f
       0.89622504 0.96782553 1.0015743 1.0661327
000110 de 81 7e 3f 2e 12 7a 3f e5 b3 81 3f 8e 0f 83 3f
       0.9941691 0.9768399 1.0133024 1.0239122
000120 60 48 8a 3f 4e e1 86 3f 6e 2a 84 3f 08 e1 5e 3f
       1.0803337 1.0537508 1.0325449 0.8706212
000130 79 b7 86 3f 00 9c 79 3f 56 47 82 3f db fa 6f 3f
       1.0524741 0.9750366 1.017802 0.9374215
000140 ff df 76 3f ae 3a 81 3f 72 7f 70 3f 21 d7 87 3f
       0.9643554 1.0096033 0.93944466 1.0612527
000150 50 27 88 3f 3f f5 75 3f 0d f4 6f 3f f3 3f 77 3f
       1.0636997 0.9607734 0.93731767 0.96581954
000160 17 54 69 3f f2 8d 86 3f 00 eb 7e 3f 9c f2 80 3f
       0.91143936 1.0512068 0.9957733 1.0074039
000170 4e 41 6a 3f c6 10 8b 3f 48 12 72 3f ec b0 75 3f
       0.915059 1.0864494 0.94559145 0.95973086
000180 49 2d 70 3f a3 c5 81 3f 16 7d 74 3f 22 ce 81 3f
       0.938191 1.0138439 0.95503366 1.0141032
000190 a0 cf 80 3f ea 88 91 3f 58 ef 83 3f 56 6d 74 3f
       1.0063362 1.1369908 1.0307417 0.95479333
0001a0 06 b0 93 3f 8b 8c 72 3f aa 46 91 3f 0a ad 72 3f
       1.1538093 0.947457 1.134969 0.94795287
0001b0 bf 68 7a 3f 3a 8e 81 3f a2 7e 87 3f 2c 62 59 3f
       0.9781608 1.0121529 1.058552 0.84915423
0001c0 66 a1 62 3f 8f 86 8a 3f 91 7c 3f 3f ba 93 81 3f
       0.88527524 1.0822314 0.7479945 1.0123208
0001d0 67 51 8a 3f 39 18 7b 3f 5b d1 7d 3f 9f c8 64 3f
       1.0806092 0.98083836 0.99147576 0.89368623
0001e0 b6 d6 8b 3f 42 e3 62 3f 00 a6 7d 3f 06 ea 7a 3f
       1.09249 0.8862802 0.9908142 0.9801334
0001f0 ef 52 7d 3f f8 89 78 3f 26 4e 90 3f db c9 5d 3f
       0.9895467 0.97085524 1.1273849 0.8663613
000200 12 f3 92 3f 1b 75 6c 3f 75 b6 80 3f bb d0 7f 3f
       1.1480429 0.9236619 1.0055681 0.9992787
000210 05 4c 74 3f ee d3 71 3f 75 d2 5f 3f d8 16 74 3f
       0.95428497 0.94464004 0.87430507 0.95347357
000220 8f 4d 5d 3f e9 61 75 3f 41 76 81 3f 0d 28 96 3f
       0.8644647 0.95852524 1.0114213 1.1730973
000230 43 4b 67 3f 73 f0 6b 3f 24 dc 78 3f 33 10 81 3f
       0.90349215 0.9216377 0.9721091 1.0083069
000240 18 5a 84 3f 5c 18 76 3f f4 69 8d 3f be 34 6d 3f
       1.0339994 0.9613092 1.1047959 0.92658603
000250 1f 8e 6d 3f 54 4c 70 3f 8e 39 85 3f 31 13 7b 3f
       0.92794985 0.9386647 1.0408189 0.9807616
000260 e7 1c 89 3f de 93 82 3f 42 52 80 3f b8 1d 97 3f
       1.0711945 1.0201375 1.0025103 1.1805944
000270 5f 60 82 3f 91 f8 80 3f 78 a7 66 3f 83 b9 67 3f
       1.018566 1.0075856 0.9009929 0.90517443
000280 bc db 62 3f 9a 13 5d 3f 2a 79 82 3f 5b c1 87 3f
       0.8861654 0.86358035 1.0193226 1.0605882
000290 e5 8e 6e 3f 15 b0 83 3f e5 cd 7b 3f 76 06 62 3f
       0.9318679 1.0288111 0.98361045 0.8829111
0002a0 83 47 80 3f 5a df 6e 3f 95 6d 85 3f 46 7d 78 3f
       1.0021824 0.9330956 1.0424067 0.9706615
0002b0 64 d6 76 3f 27 d3 76 3f 67 d4 62 3f 0e 17 81 3f
       0.96420884 0.9641594 0.8860535 1.0085161
0002c0 4e a3 68 3f ec 28 70 3f d8 34 84 3f 89 ef 84 3f
       0.90874183 0.9381244 1.0328627 1.03856
0002d0 7b 76 85 3f 3c 06 7b 3f fb e6 6e 3f 3d 4f 94 3f
       1.0426782 0.9805639 0.933212 1.1586682
0002e0 1c b9 84 3f 70 2b 79 3f 84 5d 84 3f 38 13 84 3f
       1.0368991 0.97331905 1.0341039 1.0318365
0002f0 46 be 8c 3f c3 75 7f 3f a2 73 87 3f a7 71 80 3f
       1.0995567 0.99789065 1.0582163 1.0034684
000300 94 bb 7d 3f 93 2c 87 3f 51 72 62 3f 85 8f 88 3f
       0.99114347 1.0560478 0.88455683 1.0668799
000310 bd cd 68 3f 2e 97 86 3f 7c aa 82 3f 7f 9c 7f 3f
       0.9093893 1.0514886 1.0208278 0.9984817
000320 5f 16 6a 3f 0d d2 82 3f 3e 7c 9a 3f 9b 44 6a 3f
       0.91440386 1.0220352 1.2069166 0.91510934
000330 6e 5e 86 3f f4 26 87 3f e0 e4 70 3f 92 d3 87 3f
       1.0497568 1.0558763 0.94099236 1.0611441
000340 f7 bc 80 3f 6d 03 80 3f 70 4f 80 3f 9a 0d 80 3f
       1.0057667 1.0001045 1.0024242 1.0004151
000350 44 e8 82 3f b9 70 77 3f 6b 36 80 3f cd 51 42 3f
       1.0227132 0.96656376 1.0016607 0.7590607
000360 e8 57 74 3f f5 4d 80 3f e4 57 8b 3f fc 67 92 3f
       0.95446634 1.0023791 1.0886197 1.1437984
000370 e0 58 7e 3f b8 23 6d 3f 40 1d 77 3f 0b 8d 72 3f
       0.9935436 0.9263263 0.96529007 0.94746464
000380 3a b0 6e 3f cd 05 97 3f d5 83 6d 3f d8 d3 64 3f
       0.9323765 1.1798645 0.92779285 0.8938575
000390 02 22 90 3f bb 96 76 3f 89 ec 7c 3f 99 ef 7d 3f
       1.1260378 0.96323746 0.98798424 0.9919372
0003a0 bf 24 87 3f 6f 06 7e 3f 70 46 73 3f 15 97 90 3f
       1.0558089 0.99228567 0.95029354 1.1296107
0003b0 05 c9 80 3f 5e 8d 76 3f fe a1 8a 3f 90 d1 7a 3f
       1.0061346 0.9630946 1.0830686 0.97976017
0003c0 0e 5d 7f 3f 51 8f 7d 3f 57 d3 74 3f 89 c6 7f 3f
       0.99751365 0.9904681 0.9563498 0.99912316
0003d0 b2 17 84 3f 4a 95 4f 3f d0 42 6f 3f 64 06 70 3f
       1.0319731 0.8108717 0.9346132 0.9375975
0003e0 63 46 82 3f 46 7d 86 3f ed ee 86 3f 1e f4 6e 3f
       1.017773 1.050698 1.0541664 0.93341243
0003f0 ba ca 80 3f 25 2e 7d 3f ec 54 7b 3f e6 cb 6f 3f
       1.0061867 0.98898536 0.98176455 0.936705
