ablations/static-layerwise/donnieyen2023-05-29T14-45-28_donnieyen-static-layerwise/embeddings_gs-4500.pt (torch, 943527 bytes, 172 tensors)

pre_vecs f4 [2, 768]
00000000: 8cef 81bc 18a5 36bc b455 86b9 dc8e c33c
00000010: b608 dcbb 17fe 963c 05c2 e6bc 07ca 06bc
00000020: 1d6e 7dbc 226d 4b3b 0da2 fa3a 61be 33bd
00000030: 12f3 e9bb 3e4d f839 dc79 0b3b e3e4 d53c
00000040: 92f5 8d3c e8f7 b93c 1bb6 e5bc 58b8 c5bb
00000050: c970 3b3c 29fc d33c 38ac dc3c 49cd 67bc
00000060: f694 8a3c 9bf6 d8bc 0d5d 153c f205 9b3a
00000070: c7c0 68bd 411f 863b d5fc 9c3c 0a0c a63c
00000080: 7b3e 2b3a e3d0 15bc e4e2 a13c e450 ab3d
00000090: f300 d3bc 974e 883c b71e 4abd 381a a33b
000000a0: 5cb4 da3c e384 85bb 84ea eeba 2afd f0bc
000000b0: 12c9 f9ba 6331 92bc a283 b03c 1db9 1fbc
000000c0: 241b 09bd 7dca 66bd 8777 873b a0e0 b43b
000000d0: 60ea 923a 227c fc3a cbaf 66bd fe77 9039
000000e0: 9039 893c 6905 383c 8aa4 323d 3d92 2bbb
000000f0: d9ce 3d3a 7b7b 8d3c 068a dc3c 766a ca37
00000100: e621 5a3c bfdc 41bc a64c e93c 223c 923c
00000110: f1b4 083d 1f90 2c3b 19df d3bb 4ef8 22bd
00000120: 7c7a f83b 8e02 00bc 75cc 2dbc dbb2 973c
00000130: 474d 70bc ad10 35bc 12fb ed3b a552 dd3c
00000140: cd29 a83b 67ed d43b af0f f83b 1d66 98bc
00000150: a8db fe3b 7cda 9ebb 24ef 793b 5322 b53b
00000160: 8405 dc3c 8865 d4bc 59c4 f5bb 6cae 2c3d
00000170: a2e6 0b3d 4d52 7cbc e452 e3bc 9027 603b
00000180: f39a 9b3b 4e8d f9bb 1384 c539 c757 183d
00000190: b2b4 d5bc e65f 823c 4008 553c 23f6 0e3b
000001a0: 4fe7 bfbc 1cbe 0bbc 8bb1 1d3d 3f2a ff3a
000001b0: 780e 0ebd 1440 d8bc f82d 3db9 16ca ac3a
000001c0: 4821 aeba 8cc9 bd3b 9480 b03c fd8f cabc
000001d0: 6c89 31bd 74f4 2bbc 5130 01bc 9817 a0bc
000001e0: 3646 ed3c 0fa5 70ba 97c8 c4bb f964 0ebc
000001f0: 02d9 13bd 33d0 7c3c c23a 76bd 443d 32bc
00000200: a5ce 93bc 3c3d 11bd fe72 22bc 0330 793c
00000210: a9a0 c2bc 4f3d 52bb e6c0 8c3a 65dd 943c
00000220: 50e7 80bc 1701 60bd 911f 063d 32ba 43bc
00000230: a271 85bd 3224 43bc c365 5bbc 3b87 74bc
00000240: 83ab b03c 80a4 71bc 7607 603c 292c 6c3b
00000250: 30cd 9f3b a40c 9e3c 3fc6 1fbb 9752 b73c
00000260: 5bd0 fabc 1e03 833c ee13 debc 15b0 d73c
00000270: ca62 9c3c 13be 083c 086c 4ebc 708a 90bb
00000280: f856 8b3c 5948 6a3c a714 8f3d e465 d33c
00000290: 155b 76b9 3ec0 d7bb bd8f e3bb ee8d e2bc
000002a0: 6e05 873c 1163 593c d8d4 09bd 0778 ab3c
000002b0: 6336 fb3b 1609 653c b0dd 6838 0d64 543c
000002c0: 6b76 50bd 583f 11bd 59fe ccbb 5745 f23c
000002d0: 274d 3ebc 3d48 833c 8388 2f3d cfa3 a1bc
000002e0: 6a67 5d3b 38af c53b 8845 853b 62c2 193c
000002f0: 8dc8 903b 1c31 d43c 37c3 003a 6c45 0f3c
00000300: 815d a239 24ee ecbc 79a4 b4bc 3dc2 503c
00000310: 53eb 293d 6a27 053d 6401 ed3c 75da 563c
00000320: 76e3 493c 8a84 c0bb 9f40 d6bc 8846 26bc
00000330: 0193 1d3c 9c9d 04bd 8346 1c3d c2eb 4bbc
00000340: a671 0d3c 2fd5 193d 2590 7c3d 6797 883b
00000350: aa22 8a3c 1e0b 8ebb b42c a7bc c577 debc
00000360: 2b84 c83c 9480 6b3d 2f23 b9bb b441 3abc
00000370: 64e4 d13c 86e7 01bd 7dd7 68bc e4c7 f13b
00000380: db94 c2bc 7062 6dbc f6e8 a0bb 0e7e 573c
00000390: 7c00 433d c94a 193c 1e7c c53c cb68 5dbc
000003a0: c325 303b 4951 a4bc e022 c53c febe d83a
000003b0: cf6e b43a 3d69 dcbb b9bb 3f3d c580 9fbc
000003c0: c83e 1c3c 3e2d 1e3c 49b7 cebb 3c35 da3c
000003d0: 94ff 4839 fb4a 3dbb c2e3 a1bc aa83 cfbc
000003e0: e1b1 0f3d 9eb4 c13c a3e2 bfbb 2771 093d
000003f0: 8690 0cbd 51ce cebc 4e9f 3abc 91ec c33c
-0.015861295 -0.01114776 -0.00025622325 0.023871832 -0.0067149056 0.018431706 -0.028168688 -0.008226878
-0.015468148 0.003104039 0.0019121781 -0.04388273 -0.007139572 0.00047359796 0.002128235 0.026110118
0.017329011 0.022701219 -0.028040936 -0.0060339384 0.011440464 0.025877075 0.026937589 -0.014148065
0.016916733 -0.026484778 0.009116423 0.0011827333 -0.05682447 0.004093081 0.019163528 0.020269413
0.00065324426 -0.009144041 0.01976151 0.08365038 -0.025757289 0.016639037 -0.0493457 0.0049774908
0.02669733 -0.004074679 -0.001822785 -0.029417593 -0.0019057116 -0.017845815 0.021547142 -0.009748724
-0.03347315 -0.05634545 0.004134122 0.0055199414 0.0011208765 0.0019263069 -0.056319993 0.00027555221
0.01675108 0.011231759 0.043613948 -0.0026179694 0.00072406005 0.017270794 0.026921283 2.4129851e-05
0.013313746 -0.011832415 0.028478932 0.01785094 0.033375684 0.002633102 -0.0064658043 -0.039787583
0.0075829607 -0.007813109 -0.010607828 0.018517902 -0.014666862 -0.011051339 0.007262596 0.027016947
0.005131936 0.006498027 0.007570229 -0.018603379 0.00777765 -0.0048478227 0.0038136924 0.0055277734
0.026858099 -0.02592732 -0.007500213 0.04215853 0.034155495 -0.015400481 -0.027749486 0.0034203269
0.004748696 -0.007615722 0.0003767317 0.037193086 -0.026087139 0.015914869 0.013002455 0.002181419
-0.023425726 -0.008529212 0.038499396 0.0019467546 -0.034681767 -0.026397742 -0.0001804157 0.0013182785
-0.0013285065 0.0057918485 0.021545686 -0.024726862 -0.043343946 -0.010495294 -0.007885055 -0.0195425
0.028964143 -0.0009179869 -0.0060053575 -0.008691066 -0.036095627 0.015430498 -0.06011463 -0.010878865
-0.018042872 -0.03545879 -0.009915112 0.015209201 -0.02375825 -0.003208 0.001073864 0.018171975
-0.015735298 -0.05468854 0.032744948 -0.011946248 -0.06515814 -0.011910485 -0.013390961 -0.01492482
0.021566158 -0.0147486925 0.013673654 0.0036037064 0.004876755 0.019293137 -0.0024379638 0.02237825
-0.03061693 0.015992697 -0.027109113 0.02632908 0.019090075 0.0083460985 -0.012598999 -0.0044110343
0.017009243 0.014299476 0.06986361 0.025805421 -0.00023494319 -0.0065841964 -0.006944625 -0.027655568
0.016482081 0.013268248 -0.03365025 0.020931257 0.0076663955 0.013979217 5.5519573e-05 0.012963307
-0.050894182 -0.0354608 -0.0062559065 0.02957408 -0.011615074 0.016025657 0.042854797 -0.01973143
0.0033783563 0.0060328506 0.0040671267 0.009384723 0.0044184388 0.025902323 0.0004911902 0.008744579
0.00030968714 -0.028922148 -0.022051083 0.0127416225 0.04148419 0.03250829 0.028931327 0.013113608
0.012322297 -0.005875175 -0.02615386 -0.010148652 0.009617568 -0.03237687 0.038153183 -0.012446346
0.008633053 0.037556823 0.061660904 0.004168439 0.016862232 -0.0043348214 -0.020407058 -0.02715672
0.024477085 0.05749567 -0.005649946 -0.011368204 0.0256216 -0.03171494 -0.014211533 0.007378565
-0.02375262 -0.014488801 -0.0049105836 0.013152612 0.047607884 0.009356209 0.024107035 -0.013513754
0.0026877976 -0.020058291 0.024064481 0.0016536412 0.0013765934 -0.0067264126 0.046809886 -0.019470582
0.009536453 0.009654341 -0.0063084704 0.026636712 0.00019168697 -0.0028883803 -0.019761924 -0.025331337
0.035081748 0.023645695 -0.0058558746 0.033555176 -0.034317516 -0.025244864 -0.01139052 0.023916515

basis_rand_weights f4 [16, 5]
00000000: 11d2 923c 2c0d b33c d4dd ed3c 28e8 b23d
00000010: c10d 9d3b 9c76 e43b fdbb 183d b9e3 f4bd
00000020: 23f2 93bd c69b cc3d 40c7 a73c 570e 873c
00000030: 7fc8 9ebc 1d8e 94bd 502a cebc 52e8 05bd
00000040: beaf e53c e3a0 afbd 42f9 fdbd ac28 a33d
00000050: f175 ae3c d341 79bc 8516 b0bd ae3f 88bd
00000060: abab 02be a3bf fcbc 89c0 8bbc 1ac3 09ba
00000070: cffc af3c 768c a5bc 18b0 0dbc a08d a1bc
00000080: 1ffc d63c 94f9 1c3d 4b99 2bbd 1b17 71bd
00000090: bcf3 053d 6bae fdbd b7ca 733d 9013 063d
000000a0: e46c 2dbd 64ba 173d dc0f a23d edd7 753e
000000b0: 8c27 f5bc 20d0 bebc b120 7d3d 5521 6d3d
000000c0: f9f9 cb3d c131 b33b a9b4 27bd d26d b03c
000000d0: bf24 343e 4452 843e 2f2b 8ebd 4de1 583b
000000e0: b22f 2fbd 6a4d 46be 4b2b 003e 5670 0a3e
000000f0: 926c 123b 5484 6b3d 279c 133d ac9b 5a3e
00000100: 8394 5b3d b764 70bd 1767 4bbd 67c4 6e3c
00000110: a04f 393e fc8a c0bc 30b1 473d c1ed 8bbd
00000120: 6681 04be 85d0 b6bc a1ec 57be 4b3a d83c
00000130: 08de e53c 9fdc 15bb a63a 9a3e 15af 873c
0.017922433 0.021856867 0.02903644 0.087356865 0.0047928994 0.006972147 0.037288655 -0.11957497
-0.07223918 0.09990649 0.020480752 0.01648633 -0.019382713 -0.072536685 -0.02516666 -0.03269226
0.028037902 -0.085756086 -0.12401058 0.07966742 0.021296473 -0.015213448 -0.08598045 -0.06652771
-0.12760799 -0.030853098 -0.017059581 -0.00052552077 0.021482853 -0.020208579 -0.008647941 -0.019720852
0.026243268 0.038323954 -0.04189424 -0.058859926 0.032703146 -0.12386783 0.059519496 0.0327335
-0.042340174 0.03704299 0.07913181 0.2400815 -0.029926084 -0.023292601 0.061798755 0.057893116
0.09959788 0.0054685776 -0.040943775 0.021536741 0.17592143 0.25844014 -0.0694183 0.0033093274
-0.042770095 -0.19365469 0.12516515 0.13519415 0.0022342545 0.057499245 0.03603759 0.21348447
0.05360843 -0.0586898 -0.04965886 0.014573193 0.18096781 -0.023503773 0.048752964 -0.06832457
-0.12939987 -0.022316227 -0.2108636 0.026394984 0.028059974 -0.0022867096 0.3012287 0.016562978

basis_vecs f4 [3, 768]
00000000: 8a29 183c 155b 79bb 1b91 793c f9aa c7bb
00000010: 4844 553c 1c7e 313d 2e21 013a 5349 aaba
00000020: 6d5b 05bc 1c94 00bb 1762 513c 8dda cabc
00000030: 0662 903b 0f14 fc3c e2ad a9bb db28 083d
00000040: bdbd d73c 1030 113d 81a4 c2bb f1b9 38bc
00000050: da1e cc3c 7407 783c eb18 933c 60fa 5b3c
00000060: 7a8b 163d c6d1 1dbd 10b7 42bc a79c 4ebc
00000070: 71a4 b4bd 92f7 243d fef2 9b3c 6d62 153d
00000080: 5692 e0bb 7197 033b 3f5a 493c 1b70 ad3d
00000090: 8dea 84bc 1aeb 2dbc ce7f ddbc 6c0e ffbb
000000a0: 0e16 e43c f73b 10bc ec6b 3e3b e8e8 d8bc
000000b0: ae38 0b3c 5cb8 d8bc f9b3 223c e202 7e3b
000000c0: bed3 92bc e0a5 17bd 10bb 3fbb 31f6 8d3a
000000d0: 03e9 4b3c 6bf9 1a3c 645a 03bd 58fa 013d
000000e0: ec53 a83c 82d3 1b3d c465 3f3d 0756 2c3c
000000f0: 6120 d4bc 4196 493c 0d57 e03c b582 483c
00000100: 4580 d13c f793 b0bc fbfd 523d d95e c1bc
00000110: c83a ae3c b59d 8bbc ba0d 2dbc 5689 a9bc
00000120: 6538 083d a877 80bc 94d1 ff3b 2076 173d
00000130: 3b7d 7b3b 5bbe bb3c c14f 3fba 57e9 753d
00000140: bfb3 8b3c 8604 163c 0970 42bc f1b3 5dbb
00000150: b96c b13c e8a5 1ebd 8921 733c 9187 9ebc
00000160: ae1d a33c a1af ddbc a04c 2abc f5e6 0e3d
00000170: 6a87 0d3d b5ec 9abb 3845 72bb 0d81 d6bc
00000180: a131 543b 577f df3b 6e4f 5fba 3b96 2a3d
00000190: c723 24bc afda fb3b a91a 483d 6c67 3e3c
000001a0: fa29 08bc 3e07 5abb a116 573d c3f4 b83b
000001b0: 2683 f2bc e756 04bd e9dd 9a3b f8e3 83bb
000001c0: c3f7 0cbd 060f 2a3b 3898 0abc 3111 34bd
000001d0: fdd8 0ebc a627 07bd d048 013d 0403 68bc
000001e0: f3c9 373c 8d90 483c 6fdb b7bc 39e4 3e3c
000001f0: e8a0 20bd 7761 173d 7189 9abd 1778 913c
00000200: 9525 1bbc 43eb dcbc fd6f a4bc 1177 7dbc
00000210: 2a1d 8ebc c030 1dbc 4243 dfbc 555b 593c
00000220: 5dca 2e3b d20c febc a0f6 393d 1bf6 933b
00000230: 737c 28bd 6aa9 57bc f798 3b3c 256d cdbc
00000240: 15bc f23c 7437 09bd 4bba b73c 88f4 103d
00000250: 7fe9 a9bb 2209 973b c4ba e2bc 4a4c bbbb
00000260: 7efa 523b 50d4 3c3c 6f94 2ebb fdd1 c63c
00000270: d224 f83a f1db 3dbb 1973 1d3c c4bd 453c
00000280: 54dd a23c 61ee 88bc 3c6c 863d 4756 793c
00000290: f181 743c decc 093a 9efb 76bc 85de 0fbd
000002a0: 8de6 1d3c 3b89 bb3c 2875 56bd c81a 6cba
000002b0: 47fa 323c e089 083d f5d5 6e3a 5a93 20bc
000002c0: 578b 46bd b267 33bc a0e2 313b de73 033d
000002d0: ae21 0d3d 37c0 f23c 558f 0c3d aa70 02bd
000002e0: fd04 27bc 4ae1 1f3a 2f21 223c eab8 0dbc
000002f0: 23e2 65bc c60a 873c cdaf 273c 5e00 66ba
00000300: cd5a e9bb 0480 1abd 22a9 13bd 8a61 d93c
00000310: f991 1e3d 87bb 3d3d 5ee1 453d 7575 ef3c
00000320: 2e5d 9c3c 7282 14bc a974 71bc 2af9 d9b9
00000330: e6d1 f33c c451 5dbd bb23 723d 9d98 99bc
00000340: d3d8 913c 05c4 ec3c 78c0 623d ccca d3bb
00000350: 8315 053c 7bca 7abc 150e 4fbc 0161 123c
00000360: 7731 273d 9b49 8a3d 1d4e adbc 8cc1 b3bc
00000370: 9b53 8a3c a4e1 9cbd 00e9 9bbc 7b7f a23c
00000380: 6d25 06bd 5264 debc 56b9 99bc 48c2 3dbc
00000390: 770d 5c3c 2bb7 603c 54e1 78bb 95f9 27bd
000003a0: 541c bd3b f3af fdbb 7af3 a93c 699a 803b
000003b0: 4112 a9bc b84f a3bc 5261 cc3c aeec 33bd
000003c0: 95b1 703c 78e1 93bb d3d6 28bc 48e3 a5bb
000003d0: 1fcb bbbb 8b13 4bbc 6f67 2ebc e05d 2ebd
000003e0: 1a20 413d 9fda 4d3c ebb7 09bc b071 c93a
000003f0: f00d 17bd 9159 573b 6eec 98bc d8af 093d
0.009287247 -0.0038048674 0.01523235 -0.0060933796 0.013016768 0.043333158 0.00049259036 -0.0012991823
-0.008139473 -0.001961953 0.012779734 -0.024762416 0.0044062166 0.030771283 -0.005178199 0.033242088
0.026335591 0.035446227 -0.0059400206 -0.011274801 0.024917055 0.015138496 0.017956218 0.013426393
0.03675411 -0.038530134 -0.011884466 -0.012610591 -0.08820427 0.040275164 0.019036766 0.03647082
-0.006853382 0.002007928 0.012289583 0.08468648 -0.016225124 -0.010615135 -0.027038481 -0.0077837016
0.027842548 -0.008803359 0.0029056026 -0.026478246 0.0084974 -0.026455097 0.009930604 0.0038759043
-0.017923232 -0.037023425 -0.0029255785 0.0010830817 0.012445691 0.00945888 -0.032068625 0.031732887
0.02054783 0.038043506 0.04672791 0.010518557 -0.025894346 0.01230389 0.027385259 0.012238194
0.025573859 -0.02155493 0.051511746 -0.023604797 0.021268263 -0.017042974 -0.010562355 -0.02069537
0.033256907 -0.015682057 0.007806966 0.036977887 0.0038374204 0.022917917 -0.0007297956 0.060036983
0.017053483 0.009156352 -0.011867532 -0.0033829177 0.021658288 -0.03873244 0.014839538 -0.019351752
0.019911613 -0.027061285 -0.010394245 0.034888227 0.03455297 -0.0047279247 -0.0036967527 -0.026184583
0.0032378214 0.0068206 -0.0008518611 0.041647177 -0.010018296 0.007685981 0.04885355 0.011621337
-0.008310789 -0.0033268477 0.052511815 0.0056444122 -0.029603552 -0.03230944 0.004726161 -0.0040249787
-0.03441597 0.0025948896 -0.008459143 -0.043961708 -0.008718726 -0.032996796 0.03156358 -0.014160875
0.011217582 0.012241495 -0.022443501 0.011651092 -0.039215952 0.036958184 -0.07545746 0.017757459
-0.0094694095 -0.02696765 -0.020072931 -0.015470282 -0.01734789 -0.009594142 -0.02725375 0.013266404
0.002667091 -0.031011973 0.045401216 0.004515422 -0.04113431 -0.01316295 0.011450044 -0.025076458
0.0296307 -0.03350015 0.022427699 0.035389453 -0.0051853056 0.004609243 -0.027676947 -0.0057158815
0.0032192762 0.011525229 -0.0026638766 0.024270052 0.0018931872 -0.0028970207 0.009609961 0.012069169
0.019880928 -0.01671523 0.06563613 0.015218324 0.014923559 0.0005256663 -0.015074639 -0.03512432
0.009637487 0.022892585 -0.052357823 -0.0009006676 0.010923929 0.033334613 0.00091108616 -0.009800756
-0.04847273 -0.010950016 0.0027143136 0.03209292 0.034455948 0.02963267 0.03431638 -0.031845726
-0.01019406 0.00060989393 0.009895607 -0.008650044 -0.014030966 0.01648463 0.010234785 -0.00087738584
-0.00712142 -0.03771974 -0.03604997 0.026535768 0.03871343 0.046321418 0.04831063 0.029230813
0.0190874 -0.009064304 -0.014737287 -0.00041575107 0.029763173 -0.054033056 0.059116106 -0.01874953
0.017803585 0.028902063 0.055359334 -0.0064633843 0.008122805 -0.015307064 -0.012637635 0.00893426
0.040818658 0.067523204 -0.021155411 -0.021942876 0.01688557 -0.07660225 -0.019032001 0.019836178
-0.032750536 -0.027147446 -0.018765133 -0.011581965 0.013430945 0.013715546 -0.0037976103 -0.041009504
0.0057711992 -0.007741922 0.020745981 0.003924657 -0.020638587 -0.019935474 0.02494875 -0.043926887
0.014690776 -0.004512962 -0.010305124 -0.0050624944 -0.005731001 -0.012394796 -0.010644778 -0.042569995
0.047149755 0.01256433 -0.008405666 0.0015368965 -0.036878526 0.0032859782 -0.018667426 0.033614963

basis_comm_weights f4 [1, 5]
00000000: 714d 9b3e 73d2 303f fb8b 473e 139d 9a3e
00000010: 14e0 8b3e
0.3033252 0.6907112 0.19486992 0.30197963 0.27319396

bias f4 [16, 768]
00000000: 1273 8a3d fdb8 863d aadd b43c d13e 933c
00000010: 915a 483a e0a5 e6bc 9435 32bd f119 7c3d
00000020: 469a 243d e4d9 ef3b d49b 1bbd ad10 fb3d
00000030: 1845 6f3c 2fe2 7dbd 5de5 b1bb d0dd 68bd
00000040: 34d8 eabc 89a5 f7bc 3f8b f73c 7e08 7ebc
00000050: d6f1 f63c c117 9bbd 90e4 223d c881 76bd
00000060: 3cf0 a93d 1480 303d 1e02 aabd f071 0a3d
00000070: 42f1 00be 26f9 2e3d f6fd 9abc 7e50 00bc
00000080: 2517 e4bc 3652 113c d2f8 f7bb 52d6 2bbd
00000090: ccb5 00bd 288d 8d3b 40a2 c6bb 42bb 3cbd
000000a0: a494 233c 9dcd a13b c1c2 733d 91f0 cabc
000000b0: cf38 16bd dde8 373d 15f3 8e3c d741 bc3c
000000c0: 188e 88bc e603 3f3d 58a3 3c3d d3da 14bd
000000d0: 3470 3f3d fa41 a8bc 5ac1 a53b 9b3f c63c
000000e0: 2a5b 573c bcca 0cbd 325c 2c3d d1ec 99bc
000000f0: 02cc 473d 4d5d 883d 2c7b 953c 14a0 1fbd
00000100: af18 3fbb 6d52 9cbc b73e 973d 12dd fc3c
00000110: f32b c23d 1d99 02bd ff56 8fbd 5149 48bc
00000120: d9bd e33c 3bc9 7b3d d7b4 88bc 2590 203c
00000130: 62f7 703d 5300 8e3d f411 8b3d c916 2cbd
00000140: d574 a83c 2368 c23d 632e 173d ddf9 36bd
00000150: 0224 1a3d a604 2bbd 2050 63bd 2630 ea3c
00000160: 81dc 093c 58cd 343d 9118 6fbd f4b5 803d
00000170: 403a e9bc ae4f ccbc 7e69 11bd ed12 8bbc
00000180: 806d 3b3c ab3f 5b3c 1e8f 93bc 95c7 c3bb
00000190: d4f8 cb3d 6477 4fbc 829c ea3c 0865 333d
000001a0: ba67 18bd 2c97 e8bd d197 a63d d0a2 53bc
000001b0: 84c4 96bc eafc 7fbc 9202 94bc 5a06 65bc
000001c0: a110 8bbd 7432 0b3d bab2 47bd ad71 34bd
000001d0: 0e8b 30bd 7abc a13b 2621 c13b ec46 b93c
000001e0: de46 723d cef9 43b9 0c47 973b 2d1f 86bc
000001f0: 08de 1cbd dcab 62bd 3d6b a0bb 7a50 893b
00000200: 7a21 f63c b42a ebbc 1bd1 903c a3ae b03c
00000210: a763 65bd 3fe2 adbc 9b5d ba3a 1781 06bc
00000220: 4a1d 30bd a474 2e3d 8d30 893d e1a1 cdbc
00000230: 484d e4bc a44b 063d 3885 efbc 8402 9f3c
00000240: c9a5 2d3c 619c 5e3d 03d0 c33d 5e80 e7bc
00000250: 663e 423d 9e9f 50bb ab0c 47bc b960 993c
00000260: b621 143d 5af0 413d bb42 89bd a79d 3b3d
00000270: 68f2 1b3c aee8 2f3b e074 693d 7efb c6bc
00000280: b68f ca3b 4de0 50bb c9f4 aa3d ff2c 923c
00000290: 0826 8e3d 3076 e9bd f43c 1dbd 4b72 1fbd
000002a0: 9cf8 bdbc dac0 973d ca8c 393d cf76 3f3d
000002b0: 50fd af3d edda 2abd 5f25 123d 69fa e8bd
000002c0: 92ad 573d c0f6 22bd 2ad4 50bd fbae 6a3d
000002d0: 9b8b bebc cd6f 343d 2d43 f33c e7c0 ff3d
000002e0: 493b 0abd 64a1 4abd 7f83 b8bc b8b0 2e3d
000002f0: d52c 5dbd a0ae 93bc f9d7 81bd b46e 93bd
00000300: 2d40 8e3c 509e be3a 1458 79bb b3ba 0fbd
00000310: be75 4cbc d7d3 583d 034a 1dbd 83ce 143d
00000320: 30b0 593d 3d21 74bc a6bb dd3b 609b d1bc
00000330: e87a 9dbc 06d6 30bb ce52 cf3d bdf8 5abc
00000340: 137a 833d 3392 41bc 2f8c 4b3d 70da a2bc
00000350: 3b8e 92bc 55f8 08bd b45e 76bd fe62 44bd
00000360: 5c51 4dbc 61dc 45bd 1a76 9a3c 55f5 77bd
00000370: 5911 aebc 27fb d5bc 735b cdbb 24ce 0bbc
00000380: d74b dfbc 0ad8 6cbd cb4b 863c 809e b83c
00000390: a2f5 e93d 71de 053d 0735 023c a2a2 83bd
000003a0: ebb5 a23b 2394 043d ead5 c73d a208 1a3c
000003b0: ac76 933c e9e9 cebd 4cdc 0abc 49d6 63bc
000003c0: 9e84 0a3d 10ee 0ebd 0b59 2bbd dfa8 a53d
000003d0: dc7f 533d d228 a8bc 54f9 e4bc 834e 76bc
000003e0: a8ad b3bd 244d 3abb d10b 563c d1fd 81bd
000003f0: 57e9 fd3b d05d 063d b0ca f6bb 5b42 9b3d
0.06760229 0.065782525 0.022078354 0.01797429 0.000764289 -0.028155267 -0.043508127 0.061548177
0.04018619 0.0073196758 -0.037990406 0.1225904 0.014603876 -0.061983284 -0.0054289536 -0.056852162
-0.028667547 -0.0302303 0.030217765 -0.015504954 0.030144613 -0.0757289 0.039768755 -0.060182363
0.08297774 0.043090895 -0.08301185 0.033800066 -0.12592033 0.042718075 -0.018919926 -0.007831691
-0.027843067 0.008869698 -0.0075675035 -0.04195244 -0.031423375 0.0043198057 -0.006061822 -0.04607702
0.009984169 0.004937841 0.059511904 -0.024772914 -0.03667527 0.04489981 0.017449895 0.022980614
-0.016669318 0.046634577 0.046054214 -0.0363415 0.046737865 -0.020539273 0.0050584497 0.024200251
0.013144294 -0.03437303 0.04208011 -0.01878968 0.04877854 0.06658421 0.01824721 -0.03897102
-0.0029159 -0.019082272 0.07385009 0.030867133 0.09481039 -0.0318843 -0.06999015 -0.012224511
0.027800487 0.061471205 -0.016687794 0.009799992 0.058829673 0.069336556 0.06790534 -0.042013917
0.020563522 0.09492519 0.036909472 -0.044671882 0.037631996 -0.04175248 -0.055496335 0.028587412
0.008414389 0.044141144 -0.058373038 0.06284705 -0.028470159 -0.024940338 -0.035500996 -0.016976798
0.011439681 0.013381879 -0.01801258 -0.0059747198 0.099595696 -0.012662742 0.028639082 0.043797523
-0.037208296 -0.11356959 0.081344254 -0.0129172355 -0.018404253 -0.015624264 -0.018067632 -0.013978565
-0.06790281 0.033983663 -0.04875443 -0.044053722 -0.043101363 0.0049357982 0.005893844 0.022616826
0.059149615 -0.00018689709 0.0046166237 -0.016372288 -0.038297683 -0.05533968 -0.0048955963 0.0041905018
0.03004526 -0.028706886 0.017677834 0.021567648 -0.05600324 -0.021226047 0.001421857 -0.008209488
-0.042996682 0.042591706 0.066987135 -0.025101604 -0.027868882 0.03278698 -0.029238328 0.01941038
0.010598608 0.054348353 0.095611595 -0.028259452 0.04742279 -0.003183342 -0.012149016 0.018722879
0.03616496 0.047348358 -0.06702181 0.045804646 0.009518243 0.0026841569 0.056996226 -0.024289843
0.0061816825 -0.0031871975 0.0834747 0.017843721 0.06940848 -0.113994956 -0.038388208 -0.038927358
-0.023189835 0.074098304 0.045300283 0.046744164 0.085932374 -0.04171269 0.03568017 -0.11375887
0.052655764 -0.0397861 -0.050983585 0.05729578 -0.023259928 0.044051934 0.029695118 0.12487965
-0.033747945 -0.04947032 -0.02252364 0.042649 -0.053997833 -0.018027604 -0.06340022 -0.07198849
0.017364586 0.001454303 -0.0038046883 -0.03509016 -0.012479244 0.0529364 -0.03840066 0.036329757
0.05314654 -0.014900503 0.006766754 -0.025586784 -0.019223645 -0.0026983037 0.101232156 -0.013364968
0.06419768 -0.011814642 0.049694236 -0.01987955 -0.017890086 -0.033439953 -0.06014891 -0.04794597
-0.012531605 -0.048305873 0.018855143 -0.0605367 -0.021248506 -0.026120735 -0.006267005 -0.0085330345
-0.027257843 -0.05782322 0.016393563 0.022536516 0.11423804 0.03268284 0.007947213 -0.06427504
0.004965534 0.032367837 0.09757598 0.009401472 0.018000923 -0.101032086 -0.008475374 -0.01390607
0.03381788 -0.034895003 -0.041832965 0.0808885 0.051635608 -0.020527277 -0.02795092 -0.015033367
-0.08773357 -0.0028427327 0.013064341 -0.0634724 0.0077487635 0.03280431 -0.0075314865 0.07581016

weight f4 [768]
00000000: 0b90 633f 2716 743f 7923 813f beeb 6f3f
00000010: afaf 773f 1674 6d3f 3de6 863f f26a 873f
00000020: bab4 8e3f da17 7b3f 52ae 703f 7eed 4e3f
00000030: 858a 643f c9d9 663f dde8 793f 5085 6c3f
00000040: 1145 6e3f cb65 713f fc65 753f e5d7 7b3f
00000050: 3c0b 833f eca9 543f cc0c 893f b7ad 633f
00000060: 305a 923f d716 683f efd1 8a3f 5ec9 673f
00000070: f83c 9a3f 0feb 833f 7252 703f 1344 733f
00000080: bdc9 873f d702 723f 251e 763f f259 803f
00000090: 4d4e 8a3f f1be 6d3f 68df 803f dcf7 783f
000000a0: 1e6b 7c3f cc8a 433f 5357 813f 7982 873f
000000b0: abb9 793f 5840 6a3f 3600 803f 6dde 6a3f
000000c0: ab3f 803f 752f 6b3f fde9 713f 15f5 723f
000000d0: 0793 6c3f 9711 5d3f 58b6 793f 23ce 813f
000000e0: f1ea 813f f09f 653f b4d9 873f 2f45 743f
000000f0: 4a78 753f 4cbd 863f ece1 803f 1e8b 573f
00000100: 8531 7d3f 78ab 873f c10b 8f3f 7e2d 6f3f
00000110: c28c 953f 8306 7b3f 131b 893f 831e 763f
00000120: f1b2 7d3f aea0 683f bffe 633f ff01 7c3f
00000130: b6a0 783f 8acb 4e3f 66e0 6e3f 0db9 5f3f
00000140: ec5b 8d3f a7a3 833f 37e3 823f f06f 823f
00000150: 50c1 803f 46e4 893f 5c19 673f 209c 683f
00000160: 9aff 803f dc8b 773f 71c0 893f 2764 8b3f
00000170: 8ae4 693f 7f99 6b3f 78da 703f 9d6f 813f
00000180: bc2e 743f a34b 6c3f 48b7 743f d248 803f
00000190: 5f8d 613f ee42 863f 8d66 843f aa77 783f
000001a0: 1e07 803f 69c8 873f 3f0d 933f 9df6 753f
000001b0: e37d 8b3f 8dff 833f 02f5 7a3f 45e0 843f
000001c0: 1ab2 853f 01ca 763f 4ed7 643f 8062 853f
000001d0: c939 793f 1e4c 833f 1c9e 803f a744 6f3f
000001e0: e38b 813f cb66 6f3f 3581 843f 5759 6e3f
000001f0: 0b27 8a3f ab08 653f 2ee3 7f3f a6d1 8a3f
00000200: f95f 6e3f 087e 813f 1928 6c3f a6d8 733f
00000210: 5d38 853f 8561 833f 3ae5 7a3f c2f6 773f
00000220: 1f00 703f 4854 6c3f 0a96 8c3f 1aae 793f
00000230: 0417 853f f5b9 783f a940 743f c029 703f
00000240: 1205 7a3f a483 6b3f 1bb8 943f 5e72 703f
00000250: 1515 8a3f 8746 7d3f a1fb 7f3f f225 6a3f
00000260: 7c99 853f 59b7 8a3f 7253 6c3f 8915 883f
00000270: 6685 843f df8c 783f 39fa 863f e39e 6e3f
00000280: dcd2 793f b867 6d3f 7759 963f 588c 7d3f
00000290: be00 883f bff1 633f 7ec4 843f c659 883f
000002a0: 2a39 723f 11a7 8f3f 5d91 6a3f e9f8 843f
000002b0: 7063 873f 77f9 753f 4e0b 823f cae1 5b3f
000002c0: ae7d 5c3f 2e2d 8b3f f6a1 843f 21e5 883f
000002d0: b08e 703f f567 893f e726 833f a771 3d3f
000002e0: 8905 843f 3072 763f afe8 7a3f b946 633f
000002f0: 881a 8b3f 3272 743f 0cf3 683f 7889 603f
00000300: 137a 803f 3e03 7f3f 8628 793f bb0c 713f
00000310: 1764 773f b5c1 8b3f 14e1 6e3f cc94 7d3f
00000320: 225d 883f c84f 783f ab1d 803f 461a 7a3f
00000330: 3884 763f b56e 7c3f 553b 973f 204b 883f
00000340: 5d0a 893f 36bb 7a3f cc89 873f dcfd 713f
00000350: b6f5 7f3f 9c1a 863f 7c5c 8f3f a138 8d3f
00000360: bec2 763f 50bd 6a3f 4bcc 663f 865e 883f
00000370: 058b 773f 6a58 833f 1396 703f 8244 713f
00000380: 457a 833f 9652 873f b941 673f 68d9 773f
00000390: 0054 503f 6d59 7f3f 6d21 653f 8793 8b3f
000003a0: 6aa0 733f 0926 653f b11f 8e3f 59de 763f
000003b0: c34d 6f3f 8dc8 8e3f 3b02 723f 2123 873f
000003c0: 5cfc 843f aa0b 803f 5cab 873f e546 843f
000003d0: 9a1f 6f3f 87b9 7f3f 1e53 843f d051 833f
000003e0: 29f1 563f 8350 753f 752e 7a3f 9429 643f
000003f0: 9610 793f e827 753f 2881 833f 54ec 843f
0.8889167 0.953463 1.008895 0.9371909 0.96752447 0.9275526 1.0539013 1.0579512
1.1148903 0.9808327 0.9401599 0.80831134 0.89273864 0.90176064 0.97620946 0.9239092
0.93074137 0.9429595 0.9585874 0.98376304 1.0237803 0.8307178 1.070703 0.8893694
1.1433773 0.9065985 1.0845317 0.90541637 1.2049856 1.0306109 0.938758 0.9502575
1.0608441 0.94535583 0.96139747 1.0027449 1.0805146 0.9286948 1.0068178 0.97253203
0.9860095 0.7638366 1.0104774 1.0586692 0.9754893 0.9150443 1.0000064 0.91745645
1.001943 0.9186929 0.9449766 0.94905216 0.92411846 0.86354965 0.9754386 1.0141033
1.0149823 0.8969717 1.0613313 0.95418066 0.9588667 1.0526519 1.0068946 0.8419665
0.98903686 1.0599203 1.1175462 0.9342879 1.1683581 0.9805681 1.0711387 0.9614031
0.9910117 0.9087018 0.89060587 0.98440546 0.97120225 0.80779326 0.93311155 0.8739174
1.1043677 1.0284318 1.022559 1.0190411 1.0058994 1.0772789 0.9027307 0.9086323
1.0078003 0.96697783 1.0761853 1.0889939 0.9136435 0.9203109 0.94083357 1.0112187
0.9538381 0.9230291 0.95592165 1.0022223 0.8810634 1.0489175 1.0343796 0.9705759
1.0002172 1.0608035 1.1488417 0.96079427 1.0897793 1.0312363 0.980301 1.0380942
1.0444977 0.96401983 0.8939103 1.0420685 0.973538 1.0257604 1.0048251 0.9346413
1.0120815 0.93516225 1.0351931 0.9310507 1.0793165 0.8946635 0.99956024 1.084523
0.9311519 1.0116587 0.92248684 0.95252454 1.0407826 1.0264136 0.9800602 0.968609
0.93750185 0.92316103 1.0983288 0.9753128 1.0397649 0.9715875 0.95411164 0.93813705
0.97663987 0.9199774 1.1618685 0.9392451 1.0787684 0.9893574 0.9999333 0.9146415
1.0437465 1.0837203 0.9231483 1.0631572 1.035321 0.9708995 1.0545112 0.9321119
0.9758737 0.9273639 1.1746053 0.9904227 1.0625226 0.8904075 1.0372465 1.0652397
0.94618475 1.122286 0.91628057 1.0388461 1.0577221 0.9608378 1.01597 0.858914
0.8612927 1.0873163 1.0361927 1.0694925 0.93967724 1.073485 1.0246247 0.74001545
1.0314189 0.96267986 0.98011297 0.8877979 1.0867472 0.9548675 0.9099586 0.8770976
1.0037254 0.9961432 0.9732746 0.9416005 0.966371 1.091849 0.9331219 0.9905517
1.0653422 0.96996737 1.0009054 0.9769634 0.962955 0.98606426 1.1814982 1.0647926
1.0706288 0.9794191 1.0588927 0.94527984 0.999843 1.047687 1.1200099 1.1032907
0.96390903 0.9169512 0.90155476 1.0653846 0.966965 1.0261357 0.93978995 0.9424516
1.0271689 1.0572078 0.9033466 0.9681611 0.81378174 0.9974583 0.8950413 1.0904397
0.9516665 0.8951116 1.1103421 0.96433026 0.9347803 1.1154953 0.94534653 1.0557595
1.0389514 1.000356 1.059917 1.0334135 0.93407595 0.9989247 1.0337865 1.0259342
0.8396173 0.95825976 0.9772714 0.89125943 0.97290933 0.9576402 1.027379 1.0384622

bias f4 [768]
00000000: 4184 fc3d 330c c13d debf 173d 9b10 1a3d
00000010: 20e0 44bb 85bb 4fbd 2c98 a3bd ca61 db3d
00000020: c292 a33d d891 cc3b a1ec 4cbd 3d88 5a3e
00000030: 3244 ac3c 15b7 f9bd d9e8 1dbc 01f8 aebd
00000040: 1f60 8fbd 0c2e 46bd 0fb0 3e3d 7209 debc
00000050: 30e1 673d b2ca 06be 83a9 c23d fe1d d0bd
00000060: 1bd3 163e 8548 9e3d 4899 00be 2495 ab3c
00000070: 560c 45be b6b8 903d 4e41 fbbc ce85 19bd
00000080: 3840 29bd e2f1 d63c 5aa9 043b 1244 8fbd
00000090: 76ce 7dbd 5d06 963c 3e0b a7bc 3eeb 86bd
000000a0: 4417 963b 1b26 0bbc 1dbf b03d 3bec 40bd
000000b0: ef77 76bd 074d 9f3d 28be f33c e6f1 5c3d
000000c0: 2037 51bc 5061 9f3d 6c2f 983d 1e30 53bd
000000d0: 93ed b13d b4a9 27bd f08d 843c 5790 133d
000000e0: da1a 86ba 033c 84bd b181 b13d 04fe 05bd
000000f0: 38ab 9c3d 6dc5 ea3d 6a5a ba3c b183 6bbd
00000100: 1566 b9bb 0039 10bd fa1a ed3d 9f4f 483d
00000110: 0428 353e 4bf4 69bd 5b16 c4bd c122 aabc
00000120: 74b2 3b3d 8e15 b13d 8f60 d2bc 6f31 c73c
00000130: 1fc5 d03d 78a2 003e 6275 d33d 2de1 cdbd
00000140: 1bde 2a3b 8489 083e 51dc 793d 037c a1bd
00000150: a7fa 7d3d 7e79 9fbd fc00 d5bd 4c6b 793d
00000160: 619e 2a3c ac71 9c3d b648 bdbd bae4 f23d
00000170: f413 6bbd a1a0 1ebd 4cb3 75bd 8ff2 0ebd
00000180: b224 fd3b a2ae 283d 84a0 10bd 37ab f43b
00000190: 8f04 3b3e 6b6e f6bc 6e01 403d 2775 b33d
000001a0: 09d3 31bd ac00 5cbe 7bfa 083e 5cfb babc
000001b0: 73c7 e7bc faed 2cbd 4bdd 4abd 2547 6cbd
000001c0: a4ad bbbd da0c 8c3d 9adc 93bd 7de9 9ebd
000001d0: 3ed2 60bd 9b4e 3a3c 1cb1 333b 3185 c43c
000001e0: dbc8 e73d bb78 4f3c cd15 b9bc 466b 0fbc
000001f0: ae33 88bd 94a3 a1bd 90bb 9fbc 89cd 283d
00000200: 684d 363d a6dc 2fbd 84d4 cb3c a021 003d
00000210: 1d5e cebd fe48 3abc 850f c53c 7ae7 3bbc
00000220: 23df 84bd e269 6b3d e894 e63d ae3d c3bc
00000230: 682d 53bd c252 5d3d 4651 58bd cc34 133d
00000240: 18bd d83c ec71 b33d 1ff7 2a3e e786 1fbd
00000250: 850c 9b3d 80d9 e83c 58d7 b9bc 9032 ff3c
00000260: 5190 713d f128 ad3d 33c2 02be 8f60 a43d
00000270: 7605 c33c 622f f03a 99ea c33d a614 5abd
00000280: 048e a63b f2b7 c7bc 4c53 0c3e 05fe 013c
00000290: 75fa 023e 3889 4bbe 3848 97bd c71b 46bd
000002a0: 6380 87bc d00c 033e ef43 793d 5ea9 9c3d
000002b0: 2147 2a3e 2894 1bbd c2e3 663d 56e2 34be
000002c0: 3de3 d43d 5695 6abd bac4 89bd 34fd bb3d
000002d0: fb40 c5bc 60dc 823d a9b9 3e3d b1da 3b3e
000002e0: bf36 57bd aa24 64bd 1431 65bd 23e7 ae3d
000002f0: 9929 c8bd 4cbb 22bd 3e38 e7bd d52d f3bd
00000300: 53e4 173d b205 703c 518b 11bc f267 85bd
00000310: 6386 96bc 5604 b83d bf58 6bbd 1d34 533d
00000320: 5cd2 d43d a88f a4bc dc91 9c3c 76b6 28bd
00000330: d3fd 55bc 7ee2 ebbb 5aea 123e 0624 49bd
00000340: 4d80 df3d 67aa 2cbc 0fb1 903d 3141 24bc
00000350: 451e 92bc 9a7c 80bd d012 cebd b913 c0bd
00000360: ca13 d5bc 3154 99bd 182f 763d 215f b3bd
00000370: 1e50 eebc 70b9 4cbd caf5 2dbc b6b4 b3bb
00000380: 8d96 1abd ce04 b4bd 5da5 e43c b853 5d3d
00000390: d2c9 4a3e ddbb 953d 2729 a93a 80c4 cebd
000003a0: 5777 9c3c 45b4 883d ff37 233e b991 ad39
000003b0: 7e65 033d 5b80 36be c3fb 0fbd ab7f 52bd
000003c0: d5af 5f3d ae05 7dbd f884 81bd 0045 0b3e
000003d0: 8329 a23d ad10 a8bc 08ef 70bd e91e 1fbd
000003e0: 850d 18be 5991 ab3c 79db 3b3c 292f c2bd
000003f0: 78ad 9b3c 0c51 413d b2f7 07bd 3a3b 093e
0.12329913 0.09426155 0.037048213 0.037613492 -0.0030040815 -0.050715942 -0.07988009 0.10712011
0.07986976 0.006242972 -0.050030354 0.21341033 0.021028612 -0.12193123 -0.009638035 -0.08543397
-0.070007555 -0.048383757 0.04655462 -0.027104113 0.05661124 -0.1316326 0.09504988 -0.101619706
0.14728968 0.07728676 -0.12558472 0.02094514 -0.19242987 0.07066481 -0.030670788 -0.03748112
-0.04132101 0.026238386 0.0020242543 -0.06995405 -0.061964475 0.018313581 -0.020391103 -0.06587838
0.00458041 -0.008492972 0.08630202 -0.047100287 -0.06017297 0.07778364 0.02975376 0.05394163
-0.0127694905 0.07782233 0.0743092 -0.05155956 0.08687892 -0.040933326 0.016180962 0.036026325
-0.0010231391 -0.06456759 0.08667315 -0.03271295 0.07649845 0.11463437 0.02274819 -0.057498638
-0.005657921 -0.03521061 0.11577411 0.048904058 0.17691046 -0.05711774 -0.095745765 -0.020768525
0.045824483 0.08646689 -0.025680808 0.024315564 0.10193848 0.12561977 0.10325123 -0.100527145
0.0026072327 0.13333708 0.061001126 -0.078849815 0.06200662 -0.07786845 -0.104005784 0.060893342
0.010413737 0.07638869 -0.09242384 0.118600324 -0.057392076 -0.038727406 -0.059985444 -0.03489929
0.0077253217 0.041182168 -0.03530933 0.0074666995 0.18263458 -0.030081948 0.046876363 0.087625794
-0.04341415 -0.21484631 0.133768 -0.022824936 -0.028293347 -0.04221914 -0.049527448 -0.057685036
-0.09163979 0.06838389 -0.07219811 -0.07759378 -0.054888003 0.01137128 0.0027418798 0.023989292
0.11317607 0.012663062 -0.022593403 -0.008753603 -0.06650482 -0.07892528 -0.019498616 0.04121164
0.044507414 -0.042935036 0.024881609 0.031282067 -0.100765444 -0.011369942 0.024055252 -0.0114687625
-0.064878725 0.057474025 0.1125887 -0.023833122 -0.051556975 0.054034002 -0.052811883 0.035939023
0.026457354 0.08761963 0.16695832 -0.038947012 0.07570747 0.028424025 -0.022685692 0.03115204
0.05897552 0.084550746 -0.12769394 0.080262296 0.023806315 0.0018324668 0.0956623 -0.053242348
0.0050828476 -0.024379704 0.1370365 0.007934098 0.12790854 -0.19876564 -0.073868215 -0.048366334
-0.016540712 0.12797856 0.060855802 0.07649492 0.16628696 -0.03798309 0.05636955 -0.17664465
0.10394905 -0.057271324 -0.06726976 0.09179154 -0.024078837 0.063896894 0.046563778 0.18345143
-0.052542444 -0.055699028 -0.055955008 0.085401796 -0.09773559 -0.0397294 -0.11290024 -0.11873976
0.03708298 0.014649795 -0.008883313 -0.065139666 -0.018374627 0.08985202 -0.05745768 0.05156337
0.10391685 -0.020088032 0.01911252 -0.041189633 -0.013061005 -0.007198631 0.1434721 -0.04910662
0.10913143 -0.010538674 0.07065021 -0.0100253085 -0.0178367 -0.06273766 -0.10062182 -0.09378762
-0.026010413 -0.07486761 0.060103506 -0.08758379 -0.029090937 -0.049981534 -0.010617683 -0.005484189
-0.037741233 -0.08789979 0.027910883 0.05403492 0.19803551 0.07311223 0.0012905941 -0.10096073
0.019099874 0.06675009 0.1593933 0.00033105703 0.032079212 -0.17822401 -0.035152208 -0.051391285
0.054611046 -0.061772995 -0.0632419 0.1360054 0.07918074 -0.020515764 -0.058821708 -0.038847838
-0.14848907 0.02094333 0.011465901 -0.09481651 0.019003615 0.047196433 -0.033195205 0.134015

weight f4 [768]
00000000: e38c 6e3f d346 723f 4212 613f f9c1 773f
00000010: 353e 703f 363b 5a3f ffb9 953f b5b3 7c3f
00000020: f7fd 833f 55de 5f3f 253a 8c3f ed8c 483f
00000030: eead 7d3f c694 6c3f 2df4 823f 93c7 5c3f
00000040: 6ca9 803f b38d 713f 8368 803f e3af 5f3f
00000050: 4c17 933f f53b 863f 0ecb 863f 2c5d 753f
00000060: 671d 743f c67e 813f e73a 773f 8a0f 823f
00000070: 6b23 693f b34c 6f3f ce6a 723f 5021 6c3f
00000080: 2ca2 893f 9100 833f 7ab7 853f fe1b 7d3f
00000090: bd5e 7e3f 045c 793f c4ff 683f a83c 6c3f
000000a0: 2fc0 803f e07f 6c3f ac75 7c3f d90f 7f3f
000000b0: 3efe 723f 4eb9 823f 789a 803f da41 703f
000000c0: c7f1 443f b13b 843f e875 803f f00d 793f
000000d0: 6f33 713f 6018 8c3f faf7 833f 79de 883f
000000e0: 72ce 753f 3b2b 5a3f ca02 8c3f b754 723f
000000f0: e05e 6c3f f26f 813f d8cf 823f 835b 803f
00000100: d305 7a3f d2fe 833f 070d 893f fbff 8c3f
00000110: 0097 873f 956e 703f bc28 8d3f 6c99 8a3f
00000120: 6c3c 493f 498b 673f 808b 6e3f e4b1 7a3f
00000130: f907 843f 9f6b 813f 8f7e 723f 4982 5a3f
00000140: 0ca5 863f c87b 823f 75ca 803f b9cb 8d3f
00000150: 9b2d 8d3f a00a 843f 94c3 6e3f aadb 813f
00000160: 235b 833f a660 643f f1a3 943f bee3 853f
00000170: 747c 863f 5f30 763f 2499 723f d7f2 7b3f
00000180: 3074 823f dd68 893f 7564 7a3f a9ee 623f
00000190: 602c 873f ffcc 833f cdcb 873f 9d28 853f
000001a0: 422e 853f 627e 823f 7609 8c3f 389d 853f
000001b0: 852a 823f 83cd 803f cc93 783f f19d 8d3f
000001c0: 2eaa 773f b979 743f 11ef 873f 026c 673f
000001d0: bada 6e3f bdfc 6b3f d6ac 533f 8ec7 613f
000001e0: 2ce3 833f 13ea 753f 9219 633f c5b9 813f
000001f0: c16a 7f3f 9285 7c3f 1895 923f 3c24 7c3f
00000200: 7454 8b3f 6ff3 813f 2390 803f 5c65 503f
00000210: dde4 773f 3efb 683f a12a 653f 09dd 6f3f
00000220: d25d 7c3f a1da 813f 6465 733f 73e8 823f
00000230: cebf 6f3f d905 793f 6890 8c3f d965 773f
00000240: 8122 813f 07bb 9a3f 9cac 783f 406f 853f
00000250: 791a 913f ffed 663f 6e70 8a3f 28b4 803f
00000260: 10b5 813f b69a 8d3f 195c 753f b2d5 8e3f
00000270: ce97 853f 717b 823f 8161 643f ac2d 8e3f
00000280: 2b0c 663f e1a6 7b3f d23d 713f 098b 8f3f
00000290: bedb 8b3f b479 613f 838d 933f ab8a 813f
000002a0: 900d 5f3f c22b 883f 043f 6d3f d6e8 783f
000002b0: 102b 803f d416 883f 3398 6d3f 37f5 7c3f
000002c0: 25a9 7a3f 2e5e 803f 9b27 833f ec04 713f
000002d0: 6906 7c3f 095e 703f 6ee2 773f dc4c 823f
000002e0: 8d17 6b3f 0b66 8d3f fda5 863f 9cdb 933f
000002f0: 9646 5b3f cddb 563f e6b4 783f 1ab0 7b3f
00000300: 5525 8a3f ee6b 793f 5a49 643f cab7 883f
00000310: 4231 873f 9abe 713f 1fd1 803f ea3c 813f
00000320: 9f7b 893f a99d 7f3f e4ae 8d3f 6e30 7b3f
00000330: 9e79 753f a24f 953f 2976 473f 12f2 883f
00000340: a488 623f 3ede 933f 301e 7f3f 8b66 863f
00000350: c208 8b3f 0ddd 823f 5971 873f 83a1 893f
00000360: 259f 803f a62c 893f afcb 8a3f 3a58 843f
00000370: 7de4 833f a3a9 803f c022 733f cb2f 893f
00000380: 126d 623f 7a5b 6a3f 71d5 7b3f 5840 803f
00000390: ca99 723f a0fd 833f 924e 823f 3178 7d3f
000003a0: 8118 923f a975 843f 0dad 843f 422e 873f
000003b0: adc0 703f c711 6b3f 189e 5f3f db40 7b3f
000003c0: e44c 813f b50c 703f 8d75 873f af90 823f
000003d0: 6bbb 6e3f f707 5d3f 5bfc 863f 39ed 763f
000003e0: d0f8 6c3f f348 703f 4751 773f 5daf 803f
000003f0: b435 883f 03df 923f cbd3 853f c96c 6e3f
0.93183726 0.9463932 0.87918484 0.96780354 0.9384492 0.852466 1.1697387 0.9871171
1.0311879 0.87448627 1.0955244 0.78340036 0.9909352 0.9241451 1.0230767 0.86242026
1.0051703 0.9435684 1.0031894 0.87377757 1.1491485 1.0487047 1.0530717 0.95845294
0.95357364 1.0116813 0.9657425 1.0160992 0.9106967 0.9347641 0.9469422 0.9223833
1.0752616 1.0234548 1.0446618 0.9887084 0.9936331 0.9740603 0.9101527 0.92280054
1.005865 0.9238262 0.98617053 0.99633557 0.9491919 1.02128 1.004714 0.9385048
0.7693142 1.0330716 1.0035982 0.9728689 0.94219106 1.0944939 1.0310051 1.0692893
0.96018136 0.85222214 1.0938351 0.94660515 0.9233227 1.0112288 1.0219679 1.0027927
0.9766514 1.031214 1.0707101 1.1015619 1.0592957 0.93918735 1.1028056 1.0828071
0.7860782 0.9044691 0.9318161 0.9792769 1.0314933 1.0110968 0.94724363 0.8535505
1.0519118 1.0194025 1.0061785 1.1077796 1.1029543 1.0315742 0.9326718 1.0145161
1.0262188 0.89209974 1.1612531 1.0460126 1.050673 0.9616756 0.94764924 0.9841742
1.0191708 1.0735127 0.97809535 0.88645416 1.0560417 1.0296935 1.060907 1.0403019
1.0404742 1.0194819 1.0940387 1.0438604 1.0169226 1.0062717 0.9710052 1.1063825
0.9674405 0.95498234 1.0619832 0.9039918 0.933025 0.92182523 0.826856 0.8819512
1.0303702 0.96060294 0.8871089 1.0134817 0.9977227 0.9864131 1.145175 0.9849279
1.0885148 1.0152415 1.0043987 0.8140466 0.9683359 0.91008365 0.8951817 0.9369665
0.9858066 1.0144845 0.95076585 1.0227188 0.93652046 0.9727455 1.0981569 0.9663978
1.0088655 1.2088326 0.9713838 1.0424576 1.1336204 0.90206903 1.0815561 1.0054979
1.0133381 1.1062839 0.95843655 1.1158965 1.0436952 1.0193921 0.8921128 1.1107688
0.89862317 0.9830151 0.94234955 1.1214305 1.0926435 0.8807633 1.1527561 1.0120443
0.8713007 1.0638354 0.9267428 0.9723028 1.0013142 1.0631967 0.9281036 0.9881167
0.97914344 1.0028741 1.0246462 0.94148135 0.9844728 0.93893486 0.9682988 1.0179706
0.9183281 1.1046766 1.0519406 1.1551394 0.8565458 0.8392914 0.9715103 0.98315585
1.0792643 0.9743031 0.89174426 1.0681088 1.0561907 0.9443146 1.0063819 1.0096714
1.0740851 0.99849945 1.1068997 0.9812077 0.958887 1.1664927 0.77914673 1.0698874
0.8848975 1.1552198 0.9965544 1.0500044 1.0862048 1.0223709 1.0581466 1.0752414
1.0048567 1.0716751 1.0843409 1.0339425 1.0304104 1.0051769 0.949749 1.071771
0.8844768 0.9154583 0.9837256 1.0019636 0.94765913 1.0311775 1.0180228 0.9901152
1.1413728 1.0348407 1.0365311 1.0560992 0.94044 0.91824 0.87350607 0.98145837
1.010159 0.9376939 1.0582749 1.0200404 0.9325473 0.8634028 1.0545763 0.96455723
0.9256716 0.9386131 0.96608394 1.0053517 1.0641389 1.1474308 1.0455259 0.9313474

bias f4 [768]
00000000: 50f9 be3d b377 1bbe 4044 c4bd 2d46 ea3c
00000010: aef0 323c 50bc 1cbe e3e4 3dbe 0ad9 253b
00000020: 7e1f 523d 1da9 ea3d a2cd 1d3e 7adc 5c3e
00000030: e857 8fbd f82e 1cbe dc2e 133e 13ea 03be
00000040: 5d9f 543c 0a17 d7bc 15d5 17bb 1274 bf3d
00000050: 4e46 053e 8c72 8d3d 872e 443d b612 313c
00000060: 6241 d0bc fee9 4dbc a7f1 d63c 909b e93a
00000070: c538 823d 7b4e 9abd 71aa 09bc f487 80bd
00000080: e080 d4bd 38c4 883d 6d0a 203d 8e7c f53c
00000090: a413 97bc 0822 debc 1f98 a63d 7fde 95bd
000000a0: 4a5f 54bb 80bf 2bbd 81a8 163d 6738 ffbb
000000b0: a9a2 68bd 0e3a e0bc 2253 103e e791 033d
000000c0: f831 a33e 515f 82bd 6b13 ddbc f22e 3fbd
000000d0: 01f0 f63b 70bc 033e 45a6 37bd 8045 7b3d
000000e0: 098a 11bc eb1d 36be 1ffa e13d 0abc 90bd
000000f0: ab83 1e3d b8e3 88bb 7b47 ae3c 2097 d03c
00000100: 9109 98bb ce34 4dbd 39a8 bc3d 5d0e cdbd
00000110: 2b49 a93d 4694 a63d 177b 1bbe 8802 c2bd
00000120: b5bc 27be e3fc ab3d 93e3 113d b76d 623c
00000130: 26c0 143d 293f 00bd 507f e3bc c1ed 05be
00000140: 52f6 643c 8deb 70bc 8de5 2b3d 3acc edbd
00000150: 2338 5d3e b3bd 82bc 8092 f9bc def2 35bd
00000160: 63c5 2c3d acdb 9f3d c6ce 05be 4dfe b23d
00000170: 9576 943d 5384 c9bd 134c d6bc 9c24 76bc
00000180: 413b 2abd e751 b9bd 4cbb f8bc ea54 e0bd
00000190: da44 04be 1150 6abc 9484 a03d 0ae1 bdbc
000001a0: ce8d debd dc5b 1fbe 9b98 bc3d bf8e a73d
000001b0: aa57 98bd c514 233a a4de 95bd c945 0abe
000001c0: 5598 c33d 42c9 28be 5116 643d 734a c03d
000001d0: 7496 283e 5a86 ecbc 1006 76be 1996 df3d
000001e0: d9c5 793d d90c af3c 36a1 d23d d41c 9dbd
000001f0: cb7c 2abc 1673 acbc 9f67 07be a79d 753c
00000200: 0810 a2bd acff 5abc a7b4 00bd de10 4a3e
00000210: f666 143c aeda a7bd 8e66 b63d 3dce 4bbd
00000220: 1b57 a8bc ec0d 55bc 27bc 1cbd 8783 c5bc
00000230: adc4 633d 95de a33d ba8a db3d f15a 1b3d
00000240: 7975 853c c389 5fbe aaa1 23b9 8cf7 413d
00000250: 0653 0b3e cb49 6c3d d19f b9bd 822c 953b
00000260: 18d9 c3ba 15c8 ed3d cc41 c23d fede fe3d
00000270: cf9b 563d 1c34 6a3c 33a2 94bd 53a3 093d
00000280: b92e bdbd aff8 053d f1fd 52bd 1a80 0b3e
00000290: 315d 593e acb3 07be e79d 0fbe daa5 a03b
000002a0: 8a3b febd ef67 8c3d 8cd2 853d c935 5ebc
000002b0: d6a6 983d c344 ba3d bff3 2cbd 29f2 733d
000002c0: 7fe3 c8bc e5a4 03bc c069 11be ceab 62bd
000002d0: e3f0 e03d 4366 01bd 3f47 29bd 4702 0dbd
000002e0: a33a 3b3e b4f5 5abe 810f e1bc a824 ffbd
000002f0: da3b 643d 5800 1dbe 4d85 ab3b d814 efbb
00000300: 6b23 0e3e 04a6 7bbc 0b52 a23d be42 823d
00000310: 1f5e 6e3d b495 10bd f966 a33c 521e 34bd
00000320: 3823 b93d cb11 033c 6cd6 74bd d2a6 eb3c
00000330: 708a 62bd b76e 1cbe e686 3ebe 1ae4 b4bd
00000340: 6f90 b3bd d5f3 103e b665 20bc cca0 9d3d
00000350: 8626 e63d 1b1d 0bbd a0ec c9bd 4e73 e6bd
00000360: 76a4 bf3c 12a8 7e3d 2cb2 aabd e2fa edbc
00000370: 4345 513d 3073 1f3c 8591 8a3d 66f4 8f3d
00000380: 7727 e33d b97c da3d e99b 1e3c 834c 15be
00000390: 4632 3a3c 9a00 3a3d e365 8abd 3fe5 51bb
000003a0: 27de 593e d5a6 81bd c706 e23d 6b3f 973d
000003b0: 92b3 4f3d b0f9 b23d ed48 cabd 48dc 903c
000003c0: cf9d 953b dbd0 67bd b32c 2cbd 1b18 a73d
000003d0: 8db4 983d d2a1 e53d 9d6d b9bd 773b 4e3d
000003e0: 3743 8abd 2c19 2c3d 3f3b d33c 2fa5 be3c
000003f0: 38cf 7cbd 8221 36be b21c 78bd b4c0 83bc
0.09324896 -0.1518238 -0.0958333 0.028597916 0.01092164 -0.1530621 -0.18544345 0.0025306367
0.051299565 0.11458037 0.15410474 0.2156848 -0.06999189 -0.15252292 0.14373344 -0.12882261
0.012977448 -0.026256103 -0.0023167778 0.093483105 0.130151 0.06906614 0.047895934 0.010807684
-0.025421802 -0.012567995 0.026238276 0.001782285 0.06358484 -0.075345 -0.008402453 -0.06275931
-0.103761435 0.06678051 0.039072443 0.029966619 -0.018441983 -0.027115837 0.081344835 -0.073178284
-0.003240543 -0.041930676 0.03678179 -0.007788706 -0.05679575 -0.027371433 0.14094213 0.032121565
0.3187406 -0.063658364 -0.026986798 -0.04667563 0.007535935 0.12864852 -0.0448363 0.061345577
-0.008883008 -0.1778485 0.11034035 -0.070671156 0.038699787 -0.004177537 0.021274319 0.025462687
-0.0046398123 -0.050099187 0.092117734 -0.10012505 0.08265909 0.0813375 -0.15183674 -0.09473139
-0.1638058 0.08397844 0.035617422 0.013820103 0.03631606 -0.031310234 -0.027770668 -0.13078977
0.013974743 -0.014704597 0.041966964 -0.11611219 0.21603446 -0.015959596 -0.030465364 -0.04442107
0.04218043 0.07805571 -0.13067159 0.0873991 0.0724918 -0.09839692 -0.026159322 -0.015023377
-0.041560415 -0.09048825 -0.030362748 -0.10953696 -0.1291689 -0.014301316 0.07837787 -0.023178596
-0.10866891 -0.15562385 0.09208795 0.081815235 -0.074385956 0.00062210514 -0.07317856 -0.13503183
0.095505394 -0.16483024 0.055685345 0.093892 0.16463643 -0.028872658 -0.2402575 0.10917301
0.060979698 0.02136843 0.10284655 -0.07671514 -0.0104057295 -0.021050971 -0.13223122 0.0149912005
-0.07913214 -0.013366621 -0.031422284 0.19732997 0.009057751 -0.08196007 0.089062795 -0.04975723
-0.020549348 -0.0130038075 -0.038265374 -0.024110569 0.055607487 0.080014385 0.10719819 0.037928525
0.016291367 -0.21829896 -0.00015605116 0.04735522 0.1360589 0.057687562 -0.09063686 0.004552425
-0.0014942018 0.11610428 0.09485206 0.12444876 0.052394684 0.01429465 -0.072574995 0.033603024
-0.09237427 0.032707866 -0.05151171 0.13623086 0.21226956 -0.13252133 -0.14025079 0.0049025835
-0.124137 0.06855761 0.06534299 -0.013562628 0.074536964 0.090951465 -0.042224642 0.059557114
-0.024522541 -0.008034919 -0.14200497 -0.055339627 0.109834455 -0.031591665 -0.04132771 -0.034426
0.18284087 -0.21382791 -0.027473213 -0.124581635 0.05572114 -0.15332162 0.0052343966 -0.007296186
0.13880698 -0.015359405 0.07925805 0.06360386 0.05819523 -0.035299018 0.019946562 -0.04397423
0.090399206 0.007999848 -0.0597748 0.02876607 -0.055307806 -0.1527661 -0.18606147 -0.088325694
-0.08767783 0.14155515 -0.009789875 0.07696685 0.112378165 -0.033963304 -0.09859586 -0.112524614
0.02339385 0.062172003 -0.08334765 -0.029050294 0.051091444 0.009732053 0.06766037 0.07029037
0.11091512 0.1066832 0.009680727 -0.14579968 0.011364525 0.04541073 -0.067577146 -0.003202751
0.2127615 -0.06330649 0.11036449 0.07385143 0.05070836 0.0873903 -0.09877191 0.017683163
0.0045659314 -0.056595664 -0.042034816 0.08158895 0.07456312 0.112125054 -0.0905411 0.05034968
-0.067511015 0.042016193 0.025785087 0.023272125 -0.061721057 -0.1778622 -0.06057424 -0.016083099
