subject-models/ada-delta/sandraoh2023-05-27T14-45-22_sandraoh-ada/embeddings_gs-4500.pt (torch, 946028 bytes, 172 tensors)

pre_vecs f4 [2, 768]
000000 a2 59 e6 bc ac f4 cc bb d8 a6 fa bb 64 f2 b8 3c
       -0.028118912 -0.006254753 -0.007649284 0.022576518
000010 4b f6 95 bc af 20 a3 bb f9 fd 78 bc 96 4b 0c bc
       -0.018305918 -0.0049782614 -0.015197271 -0.008562943
000020 9d 2c 90 bc b5 a5 9a 3a 3c d9 63 bb df 6d 8c bc
       -0.017599398 0.0011798652 -0.0034766933 -0.017142234
000030 c0 d1 63 bc 4b 53 31 bc ce ed 9d 3b 21 3b b3 3c
       -0.013904989 -0.010823081 0.0048196083 0.02187878
000040 87 30 73 3b 5e cd df ba dd 84 e6 bc 95 40 f0 3b
       0.0037107782 -0.0017074754 -0.028139526 0.0073319175
000050 ea 69 c2 bb 2a c6 7f 3c 9d e8 4c bb 41 1a a7 bc
       -0.005933036 0.015611211 -0.0031266578 -0.020398261
000060 5c fe d9 3b d0 f9 29 bb b1 2f 61 3c 63 63 c3 3a
       0.0066526365 -0.0025936253 0.013744281 0.0014906939
000070 c8 99 17 3b d9 db f0 ba 4e f5 d8 3c 9f 1a d2 3c
       0.0023132432 -0.0018376067 0.026484158 0.02564746
000080 d9 5b 54 bc a5 76 45 3a dc 6b 4c 3b f5 76 02 3d
       -0.012961351 0.0007532633 0.003119222 0.031851728
000090 c2 86 1c bb 89 0b a8 3c 54 d2 25 bd b3 df 79 3c
       -0.0023884033 0.020513313 -0.040483788 0.015251088
0000a0 fe 27 ed 3c 01 0c 8d 3b 39 58 cf ba ac b5 61 bb
       0.028949734 0.0043044095 -0.0015819139 -0.003444056
0000b0 ad ef 74 bc bd 84 e8 3b 9d 7e 96 ba 23 b6 a6 ba
       -0.014949721 0.0070959018 -0.0011481825 -0.0012719076
0000c0 8e c0 d7 bc d4 2d a6 bc c0 4f b3 3c 3c 6d 9a 3c
       -0.026336934 -0.020285524 0.021888614 0.018850915
0000d0 65 88 6f 3a 19 ef c3 bb 7c e5 0b bd c9 c2 ba bb
       0.0009137451 -0.0059794304 -0.0341544 -0.0056994897
0000e0 a3 f3 4f 3c b7 6d 08 bc eb fd 0f 3d ea 3b 23 3a
       0.012692365 -0.008326939 0.035154264 0.00062268844
0000f0 13 fb c7 bb 47 67 14 3c 83 60 83 3b a0 5d c2 3b
       -0.0061029284 0.009057826 0.004009308 0.005931571
000100 37 98 41 ba c8 87 96 bb ff a0 b5 3a 38 a3 b8 3c
       -0.00073850475 -0.004593823 0.0013857185 0.022538766
000110 8d 72 6d 3c 88 3c 28 3c 73 1e 21 bc bf 40 7c bc
       0.014492643 0.010268338 -0.00983392 -0.015396296
000120 d9 95 4d ba 0d ae 2e 3b c1 e0 33 bb 73 3c bc 3b
       -0.00078424584 0.0026654035 -0.0027447196 0.005744511
000130 c8 35 2c bc ec ed 88 3a aa aa d1 3b e5 2e 9e bb
       -0.010510869 0.0010446883 0.0063985186 -0.0048273676
000140 aa 5a 77 ba 42 94 39 3b c3 6f 75 3c 80 86 cd bc
       -0.0009435812 0.0028317128 0.014980259 -0.025088549
000150 4f b9 3a 3a 4b 14 59 3c 39 fb 0b bc 2f 28 0e 3c
       0.000712295 0.013249467 -0.008543783 0.008676573
000160 9a b0 c5 3c cf da a6 bc 4d 55 a2 3c 53 50 ef 3b
       0.024132062 -0.020368008 0.019816065 0.0073032766
000170 2c 5a 00 3b b3 98 73 bb 4d 43 8e bc fc fa 0e 3c
       0.0019584997 -0.0037169873 -0.017366076 0.0087268315
000180 ad f5 83 3b da 22 af ba 8f 77 df b9 60 29 1c 3c
       0.0040270896 -0.0013361827 -0.00042622953 0.009531349
000190 8f c6 88 bc 50 5c a6 3c e1 63 25 bc 87 36 c4 3a
       -0.016696243 0.02030769 -0.010094614 0.0014969864
0001a0 8e f2 9e bc 4a 74 72 b9 b8 62 ac bb 8b bc 3b 3b
       -0.019402768 -0.0002312224 -0.0052607916 0.0028646316
0001b0 95 6f 69 bc 3e d1 94 bb 81 25 81 3c 2b 71 b5 3b
       -0.014247795 -0.004541545 0.015764954 0.0055371723
0001c0 20 ae fc ba 79 50 ef 3b a4 9a 60 3c 94 4b 0a 3c
       -0.0019277968 0.0073032943 0.013708744 0.008440871
0001d0 29 ea 28 bd 7a de 07 3c 87 ea b9 bc 0d 7d 90 bb
       -0.041238938 0.008292789 -0.02269484 -0.0044094385
0001e0 bb 82 34 3c f5 e1 14 bc ef 8f 58 3c 58 85 a6 bc
       0.011017497 -0.0090870755 0.01321791 -0.020327255
0001f0 d9 1e 8d bc 01 0b 44 3b 75 7b f4 ba 02 5f b0 ba
       -0.017226623 0.0029913785 -0.0018652516 -0.0013456049
000200 79 af 76 bc 5e 83 74 bc 63 c4 59 ba 51 41 cb 3c
       -0.015056484 -0.0149238985 -0.0008307157 0.024811419
000210 3c c1 bc bc ba 91 44 3c ec f4 57 3c 35 04 1e 3c
       -0.02304136 0.011997635 0.0131809525 0.009644558
000220 7a a8 d0 bc 6e 47 2c bd 87 0d 4b bb 8a ea 57 bc
       -0.02547096 -0.04206031 -0.0030983405 -0.013178477
000230 13 cc 55 bd f3 53 9c bb 56 89 ff 38 59 dc df 3b
       -0.052196573 -0.0047707497 0.00012184928 0.0068316874
000240 5f 5f b5 3a 12 e1 36 bc 79 0b fe 3c 9f 43 3f bc
       0.0013837627 -0.011162059 0.03101133 -0.011673837
000250 14 6b 4f 3c 50 61 9d 3c 8e 47 92 3c 94 26 dd 3c
       0.012659807 0.019211441 0.017856386 0.026995935
000260 0c b1 fd bc 0e ac 16 3c 11 87 da bc 32 aa 1a 3d
       -0.030968212 0.0091962945 -0.026675733 0.037759967
000270 0e 93 32 3c c8 0d 77 3c d5 32 9b bc c8 64 a0 bc
       0.010899318 0.015078969 -0.018945137 -0.019579306
000280 b0 d1 88 3c 40 9d 17 3c 3a f6 ef 3c 5b 56 8a 3c
       0.01670155 0.0092538 0.029292215 0.01688688
000290 b9 a7 b2 b9 5b cc 14 bc d3 1e 03 bc 3c 73 b4 b8
       -0.0003407577 -0.009081925 -0.008002955 -8.604533e-05
0002a0 27 25 4e 3c 8b 80 9a 3a d7 2a 38 bc 47 33 5e 3b
       0.0125821 0.0011787576 -0.011240683 0.0033905075
0002b0 b2 f1 d8 3b c4 a7 33 3a bb 8e 6e 3c 7e cd b5 3c
       0.006620609 0.0006853307 0.014560397 0.022192713
0002c0 c4 5d b6 bc 96 61 e1 bc 44 b7 29 bc a0 4b 9e ba
       -0.022261508 -0.027512353 -0.010358635 -0.0012076981
0002d0 5b 72 8d bc 96 ee 1a 3c 30 f9 dc 3c 48 66 02 bb
       -0.017266443 0.009456297 0.02697429 -0.001989739
0002e0 97 bc 6c bb 63 1c 95 3c 95 b5 b3 38 37 26 b7 3c
       -0.003612315 0.018202012 8.5692074e-05 0.02235709
0002f0 b1 57 2e 3c 92 ce ed 3b fc 47 22 bb 23 29 39 3c
       0.010641024 0.007257291 -0.0024762144 0.011301312
000300 7f 55 e5 bb b5 b8 01 3a 52 e4 80 bc c6 83 a2 3b
       -0.0069987173 0.0004948483 -0.015733872 0.0049595563
000310 02 58 9e 3c f4 b9 a3 3c d3 33 8b 3c 81 93 9f bb
       0.019329075 0.01998613 0.016992485 -0.0048698788
000320 bf 8f eb bb ec 84 b9 bb 2b 0b bd bc 41 bc 1f 3c
       -0.0071887667 -0.0056615975 -0.023076614 0.009749473
000330 45 fd ed bb 70 43 55 bc 46 11 ad 3c ce af bd 3a
       -0.007262858 -0.013016567 0.0211264 0.001447195
000340 6e 1a d8 3b c2 a6 89 3c b1 f8 e2 3c 80 0c ea bb
       0.0065949475 0.01680315 0.027706476 -0.0071426034
000350 61 04 8a 3c cf 86 a3 3b 37 92 29 bc 5f b9 13 bd
       0.016847791 0.0049904357 -0.010349802 -0.036065456
000360 4a df a9 ba f8 40 02 3d 8a d9 c5 3b e2 ce 1a bb
       -0.0012960222 0.03180024 0.0060378956 -0.0023621847
000370 3a e9 bd 3c ae d3 61 3a 56 74 bf ba d8 85 18 3c
       0.0231825 0.00086146116 -0.0014606814 0.009309255
000380 9c cc ed bb c9 6c a2 bc 1b 98 6c 3a 96 42 aa 3c
       -0.0072570574 -0.019827263 0.0009025351 0.020783704
000390 49 6c 22 3d a9 f6 fc bb 0b 36 c9 3c 27 cc 98 3c
       0.03965405 -0.007719834 0.024561903 0.018652035
0003a0 4d cb 99 3b 3e 3e c3 bc 1e 13 84 3c 18 3c 68 bb
       0.004693425 -0.02383339 0.016122397 -0.003543621
0003b0 43 10 1b 3c ce df 52 bc e1 83 0e 3d 72 ed eb 3b
       0.009464326 -0.012870742 0.03479374 0.0071999365
0003c0 e1 71 01 3c 04 00 47 3c 53 7c 33 3c d2 cc ee 3c
       0.007900686 0.012146 0.010954934 0.0291504
0003d0 07 38 41 bc 72 e1 f5 bb 41 19 8d bb 1f ab 15 bb
       -0.011793143 -0.007503682 -0.004305989 -0.0022837592
0003e0 3b 21 16 3c 9f 7e 14 3d 7f fd a4 bb db fb 07 3d
       0.009163196 0.036253568 -0.005035102 0.033199172
0003f0 75 54 27 bc ec b7 1b bd b0 8e 4a bc 36 07 a9 3c
       -0.010213007 -0.0380172 -0.012363121 0.020633321

basis_rand_weights f4 [16, 5]
000000 7d 23 cc 3d 92 95 89 bd e5 93 a4 bd 22 62 15 3e
       0.09967706 -0.067179814 -0.08036021 0.14588216
000010 ec ab d0 bd 27 57 c3 3d 94 14 17 bd a1 44 90 be
       -0.101890415 0.09538107 -0.03688486 -0.2817736
000020 0f b3 f6 bd a6 2c 29 3d a7 75 51 3d a2 9b 82 bd
       -0.120458715 0.041302346 0.051137593 -0.06377341
000030 ab ca 24 bd f5 13 e0 3c 11 90 e4 3b ed cc e9 3c
       -0.04023234 0.027353266 0.006975182 0.028540099
000040 59 54 9f bd 16 a4 3a be ed 71 26 be c0 84 0e 3e
       -0.0777976 -0.18226656 -0.16254397 0.13917828
000050 28 c7 18 3c 58 6a 96 bd 8f d5 0f bd eb 7c 95 3d
       0.009324826 -0.07344502 -0.035115775 0.07299217
000060 21 8c e7 bc 13 b6 d9 bd 74 bb d9 ba a0 38 80 3d
       -0.02826506 -0.10630431 -0.0016611652 0.062608
000070 39 53 34 3d 66 57 a4 3d cf 41 7a 3d 90 93 9d bd
       0.04402468 0.080244824 0.061097916 -0.07694161
000080 1c 78 90 bd 6d 8d 1d 3c f8 f9 12 bd bb 7a b9 3d
       -0.07054159 0.009616238 -0.03588292 0.09056612
000090 27 24 09 be c8 65 0a be 49 c4 0b 3d a1 ad 64 3a
       -0.13392697 -0.13515389 0.03412274 0.00087233825
0000a0 68 24 b9 bd 52 5e e3 3c e4 a7 db 3d b2 07 a4 3e
       -0.09040147 0.027754936 0.10725382 0.3203712
0000b0 de b8 05 3e a1 c8 d5 bd 4f cd 00 3d 83 92 4a 3e
       0.13058802 -0.104386576 0.031445798 0.19782452
0000c0 51 94 2d 3e d9 2b 14 3e ff 26 ec bd 89 58 12 bd
       0.1695111 0.14469852 -0.115308754 -0.035728965
0000d0 25 2b 82 3e 91 a4 b1 3e 7d f5 77 3d 5a 18 20 bc
       0.25423542 0.34695867 0.06053685 -0.009771431
0000e0 dd 4d 1d bd 73 0b 89 be 5f 86 ac 3d 76 05 41 3e
       -0.038404334 -0.26766548 0.08424067 0.1884974
0000f0 ac 29 30 3e 1a 3c f7 bd 74 22 c1 bd 09 03 44 3e
       0.17203397 -0.1207201 -0.094303995 0.19141783
000100 ea c3 5e bc 0e 44 a5 bc 15 48 6f bb 32 3e f6 bd
       -0.013596514 -0.020174053 -0.003651147 -0.120235816
000110 5a 63 d9 3d 12 39 16 be bf aa 3a 3d 16 02 67 bd
       0.10614653 -0.14670208 0.045572992 -0.056398474
000120 5e 5d 58 be c5 7a 94 bc 8c 50 8e be 76 12 2f 3e
       -0.21129367 -0.018124947 -0.27795827 0.17096886
000130 48 c6 d1 bd b9 7d 40 be 40 05 45 3e 4e 46 dd bd
       -0.10242897 -0.1879796 0.19240284 -0.10804425

basis_vecs f4 [3, 768]
000000 c1 80 f7 bc 6d d8 b0 bc c2 b5 e1 bb b2 87 46 3a
       -0.030212762 -0.021587575 -0.0068881223 0.0007573321
000010 50 b1 b8 bc 46 94 6c 3b d1 ef b7 bb d9 c4 e5 bc
       -0.022545487 0.003609912 -0.005613305 -0.028047966
000020 d8 43 99 bb eb 09 b9 3c 3e 9b 21 3b 54 f3 98 3b
       -0.004677277 0.022587737 0.0024659182 0.004667679
000030 eb 83 3b 3c 84 20 dc 39 8c 56 d0 bb 0e c4 f7 3c
       0.011445026 0.00041985896 -0.0063579734 0.030244853
000040 5f 9d c5 bb 63 3f bb 3b fb 88 e8 bb 10 a6 15 3b
       -0.006030723 0.0057143434 -0.0070964075 0.0022834577
000050 16 33 67 bc f1 5c d3 bc 6d ea 5d 3b a1 93 65 bc
       -0.014111301 -0.025801154 0.0033861652 -0.014012248
000060 e0 c9 51 3a 29 69 4f 3c e3 cf a2 bb b8 12 b1 3c
       0.0008002799 0.0126593495 -0.0049686297 0.021615371
000070 95 ed e8 bc ca ea b0 3b b2 52 0c 3d 6a 7e f8 3c
       -0.0284336 0.005399083 0.034258552 0.030333716
000080 f6 a8 a5 3a e2 d5 68 3c 64 f0 09 3c b9 57 6a 3d
       0.0012638855 0.01421115 0.00841913 0.057212565
000090 93 d6 f8 3c 15 23 a2 3c 9a 53 af bc 02 fe fb 3b
       0.030375754 0.019792119 -0.021402169 0.007690192
0000a0 d5 3a 15 3d a1 b7 b8 bb 7c b7 d0 3b 6d bb eb 3c
       0.03643306 -0.0056371246 0.0063695293 0.028775895
0000b0 90 b1 30 bc 62 62 6f bb f5 0f 97 3c 9f bb d6 3c
       -0.010784522 -0.0036527147 0.018440226 0.026212512
0000c0 1c 66 9b bb 0d bc 03 bc 2e 76 f5 3c 2c 95 85 3b
       -0.004742397 -0.00804044 0.029963579 0.0040766206
0000d0 6e cf 8d 3c f7 91 47 3a 65 bf 5f bd 87 60 90 3b
       0.017310824 0.0007612998 -0.054625887 0.004406038
0000e0 11 27 0b 3c 2c d8 c2 3b 00 d1 56 3d 9d c5 19 3d
       0.008493201 0.00594618 0.05244541 0.037541974
0000f0 f3 88 70 bc 00 38 b9 bb b4 f0 15 3d c7 98 30 3b
       -0.014681089 -0.0056524277 0.036606506 0.002694653
000100 c8 3f 17 3d 16 03 14 3c 8e 4f 23 3c b5 60 17 bd
       0.03692606 0.009033939 0.009967698 -0.03695746
000110 b2 0e b7 bc dd 97 5b bb e3 1c ce ba e6 a3 92 ba
       -0.022345874 -0.0033507266 -0.0015725162 -0.0011187762
000120 f0 ab 74 bb 1e ba b9 3c 2d c5 90 3b cb 74 2a 3c
       -0.0037333928 0.022671755 0.0044180364 0.010403822
000130 b6 bb 87 bc f1 b9 9b 3b 70 67 8f bb da 42 de 3c
       -0.016569 0.0047523906 -0.0043763444 0.027131487
000140 56 94 d5 bb ba f4 09 3b c5 3b 3b bb d9 aa 48 bc
       -0.006517927 0.002105041 -0.002856956 -0.0122477645
000150 a7 db 0f 3c 7b 15 45 bc 01 e6 b3 bb 98 4a 89 bc
       0.008780397 -0.012029047 -0.005490065 -0.016759202
000160 fe e0 12 3c ed b3 fe ba 80 f4 17 3b 26 2f 55 3c
       0.008964775 -0.0019432284 0.0023186505 0.013011729
000170 d3 e6 d5 ba da e1 ae 3c 97 a3 b2 bc 1c 7f 41 bb
       -0.0016319401 0.021347929 -0.021806521 -0.0029525226
000180 12 e8 23 bd ae 3d a1 bb e7 a9 f8 3b fb 14 c8 3c
       -0.04001624 -0.004920683 0.0075886133 0.024424067
000190 37 5f 2e bc e9 88 de 3b 06 74 76 bc af 47 66 39
       -0.010642818 0.0067912233 -0.015042311 0.00021961213
0001a0 82 7f aa ba 75 f1 91 3a be 19 75 3c 67 14 07 3c
       -0.0013007971 0.0011134582 0.014959751 0.00824461
0001b0 02 63 41 bc d4 a4 b1 bc bf b1 46 3d 3c ce 9a bb
       -0.01180339 -0.021685041 0.048509356 -0.004724292
0001c0 45 4e 95 ba ca b9 3c 3c ef 6e ca bb 37 95 5a 3a
       -0.0011391124 0.011518905 -0.006177775 0.0008338275
0001d0 11 57 e1 bc 35 ed d2 3b be 56 9a 3b 80 fd 08 3d
       -0.027507337 0.0064369687 0.0047100475 0.03344488
0001e0 c3 d0 7d bc bd 16 9c bc 8f 0e c0 bc 7b 56 d5 bc
       -0.015491667 -0.019053811 -0.023444442 -0.026042214
0001f0 da f4 ba bc 1a c1 88 3b f1 c8 a3 bc 75 6b 5a 3c
       -0.022821832 0.00417341 -0.019993277 0.013331284
000200 15 15 61 3c 99 26 b0 3c 4c 95 8e bc c9 d0 ae 3c
       0.0137379365 0.02150278 -0.017405175 0.02133979
000210 72 65 08 bd 9e ff 1e 3c 0b 8b 43 3b b0 b2 be bc
       -0.03329987 0.009704499 0.0029837515 -0.023278564
000220 95 b2 52 bb e6 7f d3 bb 81 b0 aa bb 33 07 ec 3c
       -0.00321499 -0.0064544557 -0.005209029 0.028812027
000230 3e c7 d5 bc 3c 39 92 3c c5 9a 17 3d 72 45 1a bb
       -0.026095983 0.017849557 0.037012834 -0.0023539928
000240 51 d2 01 3c 44 af 7b bc f0 48 02 3d 2a 62 02 3d
       0.0079236785 -0.015361611 0.03180784 0.031831898
000250 15 ed e0 3c cd df 93 bb 44 1f 0b bd 09 7c 69 3c
       0.0274568 -0.004512763 -0.033965364 0.014250764
000260 6b d5 b4 3c a6 83 e5 3b 90 09 c4 bc fa ff d9 3c
       0.022074422 0.007004219 -0.023930341 0.026611317
000270 e0 97 f7 3b ab 3f 10 3c 66 39 74 3b 19 e4 16 3c
       0.0075559467 0.008804242 0.0037265657 0.009209656
000280 77 8d 03 3c 5f ac e6 3b c0 26 20 3d b0 cc 0e 3d
       0.008029333 0.007039591 0.039099455 0.034863174
000290 b1 fb 85 3a e5 a7 a3 bb d6 60 d9 bb 53 10 7e 3b
       0.0010222105 -0.00499438 -0.006633858 0.0038767054
0002a0 11 f9 a1 3c e7 57 9a 3c 8b cf fc ba fe f8 73 3c
       0.019772084 0.018840743 -0.0019287927 0.014890907
0002b0 7f c7 cb 3b 8d b6 ac 3c 89 57 46 3d 60 58 05 3d
       0.00621885 0.02108314 0.048423324 0.032554984
0002c0 cc 3b 03 bc 92 32 e1 bb d9 98 d6 3c 17 cc 52 bc
       -0.008009862 -0.0068724835 0.02619593 -0.012866042
0002d0 dd ba 80 3c 65 29 04 3d b6 2d 6d 3c 0f 94 a4 3c
       0.015714103 0.03226604 0.01447623 0.020090131
0002e0 a7 cb e7 bb 76 5f 8f 3b 73 15 07 bb 4f 73 e6 bc
       -0.007073838 0.0043753935 -0.002061215 -0.028131155
0002f0 b7 1d 82 bc 42 92 fb bb bc 6c 51 bc 57 4f da 39
       -0.01588331 -0.0076773474 -0.012782272 0.00041639313
000300 6a 4c c5 3c fa 6d 36 bc 95 d7 53 bc df 09 b8 3c
       0.024084289 -0.011134619 -0.012929817 0.022465644
000310 22 02 9c bc 83 7e 93 3c fe 0d 62 3d 60 96 20 bc
       -0.019043986 0.018004661 0.055189125 -0.009801477
000320 de 43 e5 bb d1 f5 d8 bc 37 c4 1c bc 01 04 cd 39
       -0.006996616 -0.026484402 -0.009568266 0.0003910363
000330 a7 17 28 3d 88 f7 cd bb fc da 0e 3d cc dd e7 3b
       0.04103818 -0.0062856115 0.03487681 0.007076001
000340 5b 05 d8 3c 19 46 79 bb 13 d1 b0 3c 10 1d 92 bc
       0.026369741 -0.0038036166 0.02158407 -0.017836124
000350 b7 e6 bf 3b fe e7 63 3a c4 73 3d bb dc c2 b5 3a
       0.005856361 0.00086939323 -0.0028908113 0.0013867277
000360 46 a3 4b 3b 66 ca 6f 3d ef 40 99 bc 24 6d 96 bb
       0.003107266 0.05854263 -0.01870772 -0.0045906473
000370 55 de 29 3c ea 63 10 bd d4 64 83 3b 92 97 b4 bb
       0.0103679495 -0.035251535 0.0040098224 -0.0055112327
000380 20 43 1f bc fe 7a 18 3b c2 03 75 bc 73 19 2a 3d
       -0.009720594 0.0023266668 -0.014954509 0.041528177
000390 13 9a 78 bb 40 db ad 3c a1 06 b3 3b 41 e4 f9 3c
       -0.0037933632 0.02122271 0.0054634367 0.030504348
0003a0 ea 3f a2 3c 27 cb b8 3b c9 c6 3e bc 04 88 67 3b
       0.019805867 0.005639452 -0.011644074 0.0035328874
0003b0 9f e3 aa 3c e7 2c b0 bc 58 5e c2 3c ae 36 0b bd
       0.020860491 -0.021505786 0.023726627 -0.033987693
0003c0 33 4a 1a 3c d0 05 7a bc 25 e0 40 3b ec d5 2d 3c
       0.009417105 -0.015260175 0.0029430476 0.010610085
0003d0 ce 3a 85 3b 42 06 6b 3c 9c fe 03 bc 43 15 e0 bc
       0.004065848 0.014344754 -0.008056309 -0.027353888
0003e0 ce 1d 96 bc d0 c3 bf 3c e6 73 d9 bc 56 62 fb b9
       -0.018324759 0.0234088 -0.026544522 -0.00047947717
0003f0 77 0c 8f bc 09 54 90 bc 4a 02 55 bd 7f f5 8e 3c
       -0.017461998 -0.017618196 -0.052004136 0.017451046

basis_comm_weights f4 [1, 5]
000000 2f a1 95 3e 4a b4 08 3f 2f e8 18 3e 0f f4 c4 3e
       0.29224536 0.534001 0.14932321 0.38467452
000010 5d 35 cb 3e
       0.3968915

bias f4 [16, 768]
000000 22 97 2e bc 2b 6d d2 bc 25 31 e8 bc 12 dd a7 bc
       -0.01065615 -0.025686821 -0.028343746 -0.020491157
000010 41 4e 9e 3c 89 d8 82 3c c1 51 d7 3a 97 22 1f 3d
       0.019324424 0.015972393 0.0016427563 0.038851347
000020 73 d8 14 bd 05 f6 e4 bc 19 e5 47 bd 63 f5 36 3c
       -0.036339235 -0.027949343 -0.04880247 0.011166903
000030 0a b8 b1 3a 0b ca 80 3b 87 29 7d bc 58 0e 25 bd
       0.0013558876 0.0039303354 -0.015451795 -0.040296882
000040 3a ad 03 bd 53 8d b1 bb 0a 76 17 bd 84 92 f9 ba
       -0.032147624 -0.0054184585 -0.036977805 -0.0019040857
000050 10 52 34 3c d1 b1 a7 3b a9 77 4c bc 0d a7 ac b8
       0.011005893 0.005117633 -0.012479701 -8.232715e-05
000060 c0 a3 c9 ba 3a c6 b2 bc d2 24 30 bd b5 52 75 bd
       -0.0015383884 -0.021823037 -0.043003865 -0.05989333
000070 47 f7 48 bd 3e 86 8c 3c 47 a0 82 3c e5 0a 22 3c
       -0.049063947 0.017153855 0.015945567 0.009890293
000080 e1 90 04 bd 72 1a da ba 61 1a 6a bc 4e 40 e4 bc
       -0.03236473 -0.0016639961 -0.014288516 -0.027862694
000090 f6 be f4 3b e7 5c 84 bc 12 36 2e bc 94 bb cb bc
       0.0074690534 -0.01615758 -0.010633009 -0.024869718
0000a0 a4 96 b9 bb 8a 83 03 3d 94 f5 78 3c d2 f8 58 3c
       -0.0056637097 0.032107867 0.015195269 0.013242917
0000b0 f8 7d 95 3b 64 4b 7d 3d 44 df 14 bc e2 2c 86 bc
       0.004562136 0.061839476 -0.009086434 -0.016378824
0000c0 4f f4 52 3d 36 ef b4 3c 2a 7c f0 bc 97 5b 83 bd
       0.051502522 0.02208672 -0.029356081 -0.06413954
0000d0 c2 71 97 bd 20 de 8e bb a1 64 c8 3b 67 b6 a5 3d
       -0.073947445 -0.0043599755 0.0061155115 0.08091431
0000e0 64 3a 76 bc a7 15 9d bd 9a 31 48 b9 94 b8 1c 3d
       -0.01502857 -0.076701455 -0.00019091964 0.038261965
0000f0 03 96 c7 3b cc af 77 3c 2b 1b 3f bd 15 59 0c bd
       0.006090881 0.015117597 -0.04665677 -0.034264643
000100 96 33 c8 bc d4 03 34 bd 4f d2 4f b9 72 b3 0b bc
       -0.02443866 -0.043948963 -0.00019819404 -0.00852667
000110 25 5e 4e 3c a6 7b e2 3c 38 d6 8d bc b9 e9 a7 bc
       0.012595688 0.02764685 -0.017314062 -0.02049719
000120 a1 76 78 bc c6 30 26 bd 5c 0e 8e bd a8 92 40 bd
       -0.015165002 -0.040573858 -0.069363326 -0.047014862
000130 01 50 7c bc 1c 41 7b 3d 57 4b 9e bc 0e af ae bc
       -0.015399934 0.06134139 -0.019323034 -0.021323707
000140 3d da d5 3c e1 df 22 bc 53 33 b5 3d cf 0a 0d 3d
       0.02610504 -0.009941072 0.0884768 0.034434136
000150 5d 76 fc 3b 84 42 43 3d d3 f4 30 bc e2 c7 2b 3b
       0.0077045397 0.047670856 -0.010800558 0.0026211669
000160 cf df 35 3d 20 3b 4a 3d 12 c6 3f bb e3 82 d7 3c
       0.044402894 0.049372792 -0.0029262346 0.026307529
000170 f0 27 16 bd df 91 07 bd 84 73 2b 3d 16 81 85 3d
       -0.03665918 -0.033098098 0.04185821 0.06518762
000180 44 ac 2c 3d ad 59 a4 bb 46 93 9d bd 7c bb 0b ba
       0.042156473 -0.005015573 -0.07694106 -0.00053303665
000190 d1 39 00 3d 16 95 ce bc e5 26 be bb 81 85 76 3c
       0.031305138 -0.025217574 -0.0058029764 0.015046478
0001a0 93 fa 24 bc ec 9b 15 bd a6 d9 64 3d 5e a5 8e ba
       -0.010069507 -0.03652565 0.05587163 -0.0010883023
0001b0 b3 72 27 bc aa 35 69 bc 6b ec 6d 3c f0 50 2a bd
       -0.0102202175 -0.014233986 0.0145216985 -0.041581094
0001c0 ae 2f 91 3c 7f b8 d0 3b 24 3d 0d 3d 12 6a cd bc
       0.01772293 0.00636965 0.034482136 -0.025074992
0001d0 64 f6 cc 3c 89 11 93 3d 6c 74 99 bc 14 4c 9d bd
       0.025019832 0.07181079 -0.018732272 -0.076805264
0001e0 eb fb 02 3d 7b e9 1a bb 41 f8 d2 3c 40 b0 53 bd
       0.03197853 -0.00236377 0.025753142 -0.051681757
0001f0 8f 7d b4 bc ad 87 07 bb d6 f3 6e 3d 99 97 66 3c
       -0.022032527 -0.0020680234 0.05833801 0.01407423
000200 93 2c 8f bc e8 74 bf 3c bb 3b 90 bc c8 c2 88 3d
       -0.01747731 0.023371175 -0.017606607 0.066777766
000210 09 f0 a6 3d a3 05 ce bc e0 39 8e ba 82 7a 83 bc
       0.08151252 -0.025149172 -0.0010850988 -0.016049627
000220 af e6 01 3d 32 8a 41 3c 83 c3 07 3d d4 ca d4 3c
       0.031714138 0.0118127335 0.03314544 0.025975622
000230 ab 3a 73 bb 93 d8 31 3c 6d 24 63 bc 78 e3 38 bd
       -0.0037113826 0.010854858 -0.013863665 -0.045138806
000240 fc cd bd 3b c6 a5 7e bc 52 d7 2b 3c d9 99 f6 3c
       0.0057923775 -0.015542453 0.010488348 0.030102657
000250 6e 15 a1 3c 63 87 a0 b9 25 62 7b 3d db 83 0d 3d
       0.019663539 -0.0003061845 0.061372895 0.034549575
000260 3c 91 86 3d 72 78 83 3d c0 dd da 3b eb 88 74 3d
       0.0657067 0.064194575 0.0066792667 0.059700888
000270 4a 25 eb 3c 00 15 8d bc fe d8 10 3d 62 b9 00 3d
       0.028704304 -0.017221928 0.03536319 0.031426795
000280 6b de be 3b 9b e4 44 3b f9 d5 95 3a 51 62 af 3d
       0.005824854 0.0030043486 0.0011431567 0.08563674
000290 d3 94 39 3d f3 80 24 3d 04 b0 12 bd e4 6e 5c 3d
       0.045307945 0.040162038 -0.035812393 0.05381669
0002a0 c0 8e f4 bc 5a fb 70 3c 64 cb 1d bd 28 57 47 bd
       -0.029853225 0.014708364 -0.038524047 -0.048667103
0002b0 23 27 53 bc 45 52 10 3d 9b bc 6f 3d 5e d3 90 3b
       -0.012887749 0.03523471 0.058529478 0.004419728
0002c0 f1 21 03 3b 4d 58 b2 bc 46 96 a5 3c 0c 95 08 3c
       0.0020009244 -0.02177062 0.020213258 0.008336317
0002d0 18 ff dc 3c cc 3c 19 3d bf 04 33 3c 03 53 2c 3d
       0.026977107 0.037411496 0.0109264245 0.042071354
0002e0 df 34 ca 3c 8a 07 15 3c 0b dc 79 3c 68 c4 af 3d
       0.024683414 0.009096036 0.015250216 0.085823834
0002f0 13 e7 a3 bb a2 ff d6 3c 64 4b 12 3d ad 0a 52 bd
       -0.0050019114 0.026244942 0.03571643 -0.051279712
000300 94 66 55 3d a7 48 b7 bd f4 f8 94 3b 06 f4 1a 3c
       0.05209978 -0.08949404 0.004546279 0.009457594
000310 5c f7 69 39 99 00 6e bd ba 5c e6 bc cb f2 44 3c
       0.0002231276 -0.05810604 -0.028120387 0.012020777
000320 0b da f1 3c 2f c8 da 3a c6 eb 98 3d 12 ff 09 3d
       0.029522916 0.001669174 0.07466845 0.03369052
000330 4a ed 5a bb 98 79 58 bc 11 1a 19 bc 43 06 5a bc
       -0.0033405595 -0.013212584 -0.009344594 -0.013307157
000340 04 fa 78 3b a7 3b 33 3d 13 9b e1 3c 75 6a 90 bc
       0.0037990818 0.04375806 0.027539765 -0.017628888
000350 8f 76 2a 3d d0 9b 34 3c 0b 08 25 3c 8f 72 9f bd
       0.041616973 0.011023477 0.010072718 -0.07785522
000360 2c bb e9 3c 68 db a0 bb 4c cc 1e bd aa 64 35 bd
       0.028531633 -0.0049089678 -0.03876905 -0.044285454
000370 77 1f 25 bc d5 c2 36 bd fd d1 cb bb 6e 69 de 3c
       -0.010078303 -0.0446194 -0.006220101 0.027149882
000380 0b 86 25 bd 5f 9b 12 bd f9 f4 8e 3c 52 c5 9e 3c
       -0.040411036 -0.035792705 0.017450796 0.019381199
000390 e0 c0 8d 3b d9 0d 48 bd 70 3d 25 3d 1d 2b f6 bc
       0.004325971 -0.04884133 0.040341794 -0.030049855
0003a0 73 35 80 bb 00 ee 60 bd 0e 77 35 bc 3d c6 a6 bc
       -0.0039126216 -0.054914474 -0.011075748 -0.0203582
0003b0 ab 87 5d 3c 4e 0b 8a 3c d9 42 6b bc 17 8a 32 3a
       0.013521115 0.016851094 -0.014359199 0.0006810738
0003c0 ba 3a a7 3c 63 43 fe bc d1 36 1f bc 67 b1 8f 3d
       0.020413745 -0.031037992 -0.009717659 0.07016259
0003d0 a6 c3 32 3d 91 1a 82 bc 91 1f 03 bc a2 da d8 3c
       0.043643616 -0.015881808 -0.0080031315 0.02647144
0003e0 a4 ce c3 ba f3 76 09 3d a2 c4 a3 3c 78 67 41 3d
       -0.0014938903 0.033560704 0.019991223 0.047217816
0003f0 19 41 8b bc a6 4a 9b bc b3 7d 8b 3d cf 53 d0 bc
       -0.016998814 -0.018956494 0.068110846 -0.025430588

weight f4 [768]
000000 e7 98 69 3f 3d 62 81 3f 4b 49 51 3f 14 42 81 3f
       0.91248935 1.0108105 0.8175246 1.009829
000010 dc 3c 66 3f db 03 78 3f da 8d 77 3f a6 1e 66 3f
       0.89936614 0.9688088 0.96700823 0.89890516
000020 1b 33 88 3f 1a ac 77 3f f2 3b 81 3f f3 23 7f 3f
       1.0640596 0.9674698 1.0096419 0.9966423
000030 c4 a7 7a 3f b4 45 83 3f c3 d4 81 3f 8f 14 70 3f
       0.9791224 1.0255647 1.0143055 0.9378137
000040 b4 40 7e 3f 62 ed 80 3f 8f b2 84 3f 87 69 68 3f
       0.9931748 1.0072443 1.0366992 0.9078602
000050 77 f9 77 3f ae 6a 82 3f 01 08 78 3f 61 34 7a 3f
       0.9686503 1.0188806 0.96887213 0.97736174
000060 0b 0c 81 3f 66 20 7c 3f 50 85 70 3f 04 40 61 3f
       1.00818 0.98486936 0.9395342 0.87988305
000070 0f 3d 90 3f e4 05 7e 3f d0 82 81 3f ba cd 85 3f
       1.1268634 0.9922774 1.0118046 1.0453408
000080 f1 77 86 3f 8d 33 7b 3f 02 73 7e 3f 8d 21 7d 3f
       1.0505353 0.98125535 0.9939424 0.9887932
000090 ad c9 7b 3f 1d 17 77 3f a8 7c 70 3f dc 9f 6d 3f
       0.9835461 0.96519643 0.9394021 0.9282205
0000a0 91 f0 7d 3f d8 dd 84 3f fd fb 73 3f 4f ca 79 3f
       0.991952 1.0380201 0.9530638 0.97574323
0000b0 35 63 7c 3f 65 f7 6b 3f 6e de 79 3f bf 09 72 3f
       0.9858888 0.9217437 0.97605026 0.9454612
0000c0 33 c7 75 3f c3 90 81 3f 95 12 71 3f 32 5d 6c 3f
       0.9600708 1.0122303 0.9416898 0.92329705
0000d0 f0 fe 69 3f 0f a7 7c 3f 96 09 80 3f 72 57 89 3f
       0.9140463 0.9869241 1.0002925 1.0729811
0000e0 2a 98 75 3f 88 88 61 3f 30 41 80 3f bf 40 87 3f
       0.9593531 0.88098955 1.0019894 1.0566634
0000f0 7b 6a 6f 3f 89 fa 7d 3f 4c 15 60 3f 24 b2 71 3f
       0.9352185 0.9921041 0.87532496 0.94412446
000100 71 95 62 3f 13 cd 85 3f a5 05 81 3f 16 43 85 3f
       0.8850928 1.0453209 1.0079848 1.0411098
000110 57 b6 72 3f 20 2c 85 3f 4a ec 7f 3f 18 08 86 3f
       0.9480948 1.0404091 0.99969923 1.047122
000120 0e 93 74 3f 92 24 7c 3f 59 75 5b 3f cd bf 5d 3f
       0.9553689 0.984933 0.85725933 0.8662079
000130 24 94 6d 3f e9 7f 89 3f 12 87 82 3f 0c 11 71 3f
       0.9280417 1.074216 1.019747 0.94166636
000140 13 ae 6f 3f d8 15 7a 3f 6b 5e 94 3f b4 ee 60 3f
       0.9362499 0.9768958 1.1591314 0.8786423
000150 3c b3 72 3f 3b 2f 63 3f 0c 35 85 3f e0 7b 77 3f
       0.9480474 0.8874394 1.0406814 0.96673393
000160 40 72 8a 3f 74 dc 63 3f 7e 20 74 3f a6 c6 89 3f
       1.0816116 0.8900826 0.9536208 1.0763748
000170 52 80 8e 3f d1 55 80 3f 3f cc 75 3f f8 ee 87 3f
       1.113291 1.0026189 0.9601478 1.0619802
000180 63 d5 5e 3f d1 56 72 3f cf ee 87 3f bb 20 82 3f
       0.8704435 0.9466372 1.0619754 1.0166239
000190 7a 14 75 3f a5 20 6e 3f 08 b5 83 3f 74 25 7c 3f
       0.9573437 0.9301856 1.0289621 0.9849465
0001a0 96 22 78 3f 77 ae 8b 3f 9f ad 90 3f fe bb 7a 3f
       0.96927774 1.0912617 1.1302985 0.97943103
0001b0 2b 7c 80 3f 03 3e 81 3f ed ee 87 3f 86 91 86 3f
       1.0037893 1.009705 1.0619789 1.051316
0001c0 b4 55 6c 3f 3a ea 80 3f 5b c0 85 3f 41 3a 75 3f
       0.9231827 1.007148 1.0449327 0.95792013
0001d0 9f 89 80 3f 52 31 7d 3f e4 d5 80 3f 8a 80 3f 3f
       1.0041999 0.9890338 1.0065274 0.7480551
0001e0 70 50 76 3f ce fd 7c 3f 40 f1 6f 3f 96 ca 8a 3f
       0.9621649 0.98824775 0.93727493 1.0843074
0001f0 47 f9 83 3f 79 2e 7f 3f c9 a0 5e 3f 5f 2a 82 3f
       1.0310448 0.99680287 0.8696409 1.0169181
000200 a1 1e 84 3f bd 70 77 3f 71 01 77 3f 4e e6 98 3f
       1.0321847 0.966564 0.96486574 1.1945283
000210 e8 6a 49 3f 60 31 74 3f 2e 54 62 3f 5f 75 81 3f
       0.7867875 0.9538784 0.884097 1.0113944
000220 da 5d 6d 3f 88 4f 70 3f 86 44 8a 3f 76 f1 81 3f
       0.9272133 0.93871355 1.0802162 1.0151813
000230 ee 95 72 3f 02 09 84 3f 88 85 71 3f 68 d5 79 3f
       0.94760025 1.0315249 0.9434438 0.9759126
000240 1f 22 7d 3f 2a d0 80 3f 98 c1 86 3f 67 69 8c 3f
       0.9888019 1.0063527 1.052783 1.0969666
000250 3c ac 90 3f bb 40 71 3f 87 44 6e 3f 22 17 87 3f
       1.1302562 0.94239396 0.93073314 1.0553935
000260 06 3d 87 3f 23 df 8c 3f 73 66 82 3f e7 27 8a 3f
       1.0565498 1.1005596 1.0187515 1.0793427
000270 cd 61 8a 3f f1 24 72 3f 60 b0 6e 3f 56 c0 76 3f
       1.0811096 0.9458762 0.93237877 0.9638723
000280 5e 1f 7b 3f 2e aa 81 3f f7 b1 83 3f ae 92 94 3f
       0.9809474 1.013006 1.0288686 1.1607263
000290 c2 c4 7e 3f 00 1d 7d 3f 69 4e 8a 3f 21 2d 6c 3f
       0.9951898 0.98872375 1.0805179 0.9225636
0002a0 44 f5 78 3f 79 e5 82 3f b8 aa 85 3f e5 96 78 3f
       0.97249246 1.022628 1.0442724 0.97105247
0002b0 bb 58 6b 3f 5b 39 8a 3f b8 a1 96 3f 1d 93 7f 3f
       0.91932267 1.0798753 1.1768103 0.9983385
0002c0 5a 96 7c 3f 78 63 89 3f e4 21 87 3f 6d 8d 79 3f
       0.9866692 1.073348 1.0557218 0.97481424
0002d0 38 f4 79 3f ab 82 8b 3f d0 c4 83 3f b1 bc 62 3f
       0.97638273 1.0899252 1.0294437 0.8856917
0002e0 40 a8 79 3f c8 cd 7e 3f 67 01 83 3f 2d 7e 8b 3f
       0.97522354 0.9953275 1.0234803 1.0897881
0002f0 9c 52 7c 3f db ce 7b 3f a9 50 6c 3f f5 bb 86 3f
       0.9856355 0.9836251 0.9231058 1.052611
000300 cf b9 6a 3f bb 6c 8a 3f a7 09 84 3f 9c ae 80 3f
       0.9168977 1.0814432 1.0315446 1.0053287
000310 8c 27 84 3f 3f 1c 48 3f e8 76 6a 3f 0b 82 75 3f
       1.0324569 0.781681 0.91587687 0.95901555
000320 dd 96 71 3f 9c 37 78 3f fb 6a 60 3f 64 60 83 3f
       0.94370824 0.96959853 0.8766324 1.0263791
000330 05 c8 76 3f 29 36 7f 3f 8c a7 78 3f db 09 83 3f
       0.96398956 0.99692017 0.97130656 1.0237383
000340 c8 3e 7e 3f c6 55 80 3f 42 34 86 3f 66 13 70 3f
       0.99314547 1.0026176 1.0484698 0.937796
000350 75 57 87 3f 57 3f 71 3f 24 66 81 3f ec 7a 9a 3f
       1.0573565 0.94237274 1.0109296 1.2068763
000360 0b 82 81 3f 5c 4c 82 3f 05 36 86 3f 1a 70 8a 3f
       1.0117811 1.0179553 1.0485235 1.0815461
000370 2b 84 7e 3f b5 1d 8a 3f 17 ac 79 3f 4c 67 86 3f
       0.9942042 1.0790316 0.97528213 1.0500274
000380 f8 27 71 3f e0 69 86 3f 54 d5 5e 3f 53 f0 7d 3f
       0.9420161 1.050106 0.8704426 0.9919483
000390 d4 5e 80 3f b2 ba 61 3f 3c f0 84 3f f0 5d 7e 3f
       1.0028939 0.881755 1.0385814 0.9936209
0003a0 0f 77 84 3f 01 ec 88 3f 6d 27 77 3f 84 4f 7c 3f
       1.0348834 1.0697023 0.96544534 0.9855883
0003b0 1c 5c 88 3f 79 64 74 3f 91 32 6d 3f 9b 85 8a 3f
       1.065311 0.9546581 0.92655283 1.0822023
0003c0 51 54 81 3f 3c 81 6d 3f b1 18 80 3f 61 37 8c 3f
       1.0103856 0.9277532 1.0007535 1.09544
0003d0 10 4f 8c 3f 1d 3d 75 3f d9 62 75 3f 52 f9 6d 3f
       1.0961628 0.95796376 0.95853955 0.9295856
0003e0 ae e4 7d 3f 00 4e 8c 3f 38 29 73 3f 3b a5 8c 3f
       0.9917706 1.0961304 0.9498477 1.0987924
0003f0 88 99 83 3f b5 4f 84 3f ba 95 45 3f db 6d 6b 3f
       1.0281229 1.0336825 0.7718159 0.919645

bias f4 [768]
000000 18 de dd bc 3b 34 de bc 2b b3 b7 bd 7d c9 07 bd
       -0.027083442 -0.027124515 -0.089697205 -0.03315114
000010 18 c6 42 3d 58 ca 93 3c 72 82 3a bb 81 7b 7a 3d
       0.0475522 0.018040821 -0.00284591 0.06115294
000020 95 b0 67 bc 0f 56 53 bd fa d4 cc bd 79 a3 0f 3d
       -0.0141412215 -0.051595744 -0.100015596 0.03506801
000030 16 ca 37 bb df 61 35 3c 62 9d 4b bd 96 33 5c bd
       -0.0028044037 0.011070698 -0.04971064 -0.053760134
000040 fc d2 6c bd b3 5e 24 3b ed 2e 9f bd 11 ec 76 bb
       -0.057818398 0.002508086 -0.07772622 -0.0037677328
000050 99 0f 06 3d e4 28 a1 3c 15 eb e1 bc 32 30 d2 38
       0.03272972 0.019672818 -0.027577916 0.000100225574
000060 65 bb 21 bc f3 be 91 bd bb 96 8c bd 56 71 f1 bd
       -0.0098713385 -0.07116499 -0.06864687 -0.11789195
000070 3b 1f f7 bd 69 5d 0a 3d b9 d7 e1 3c ab 5e 74 3d
       -0.120665036 0.03378049 0.027568685 0.059660595
000080 dc ba 89 bd ba e9 f8 bb 89 b7 0c bd 16 ee 92 bd
       -0.06725094 -0.0075962218 -0.03435472 -0.071743175
000090 8c f2 65 3c 3a 6e 01 bd de 18 67 bb f5 52 10 bd
       0.014034878 -0.03159926 -0.0035262625 -0.035235364
0000a0 58 fb 82 ba b9 33 75 3d 8e 11 c2 3c 5b e9 43 3d
       -0.0009993119 0.05986378 0.023690011 0.047829967
0000b0 81 0c 0b bb c8 63 12 3e de d4 0a bb 60 78 d9 bc
       -0.002121717 0.14295876 -0.0021184008 -0.026546657
0000c0 e7 1a 04 3e 4c 7c 2d 3d 49 83 9a bd 63 49 eb bd
       0.12900887 0.042354867 -0.07544572 -0.11488607
0000d0 19 8d 00 be 00 53 0b bd e4 20 05 3a 8d 92 01 3e
       -0.12553824 -0.0340147 0.00050784484 0.12653561
0000e0 2e c2 05 bd 4d ec f9 bd 47 9b 9b 3b 36 13 a5 3d
       -0.032655887 -0.12203274 0.004748735 0.08060305
0000f0 39 ad 6f 3a e6 42 74 3c ab c2 04 be 19 6d ce bd
       0.00091429387 0.014908528 -0.12964885 -0.100794025
000100 7a 00 2a bd 09 96 06 be 34 39 27 bd 58 34 ec bc
       -0.04150436 -0.13143171 -0.040826038 -0.028833553
000110 79 21 c9 3c 7b b3 8b 3d ab c0 50 bd 6a 88 6c bd
       0.024552094 0.068213426 -0.050964992 -0.057747282
000120 b0 2d 04 bd 55 ba a2 bd c0 0e 0d be 1d 7f b1 bd
       -0.032270133 -0.07945696 -0.13775158 -0.08666823
000130 3d 31 f7 bc 66 00 de 3d 43 36 26 bd c2 a9 b9 bd
       -0.030174846 0.1083992 -0.04057909 -0.09065582
000140 f5 b7 40 3d 70 f7 0b bc 69 ca 51 3e 21 47 3f 3d
       0.047050435 -0.00854288 0.2048737 0.046698693
000150 cb 8c 72 3c b4 86 ce 3d d1 60 ee bc 9d a1 3f 3b
       0.0148040755 0.10084286 -0.0290989 0.0029240616
000160 7e b8 04 3e 52 b0 18 3e a1 89 ee bb 70 af 50 3d
       0.12961003 0.14911011 -0.0072795902 0.05094856
000170 ae a9 ba bd b8 d1 61 bd 00 7f 89 3d 03 74 05 3e
       -0.09114395 -0.055131644 0.067136765 0.13032536
000180 fd 7b c7 3d 86 f8 1c 3d 67 3f 0d be e4 16 85 ba
       0.09740446 0.038322948 -0.13793717 -0.0010153917
000190 34 9d 57 3d 8e 2d 74 bd 7f 2a 99 bc 80 fb 6c 3c
       0.052640155 -0.059613757 -0.018697022 0.014464259
0001a0 26 cb a0 bc b8 a3 af bd cd 83 fb 3d 96 63 5d bb
       -0.019628119 -0.08576149 0.122809984 -0.0033781282
0001b0 55 9d 51 3b 57 58 97 bd 67 4c 43 3d 78 2f 80 bd
       0.0031984646 -0.07389896 0.047680285 -0.06259054
0001c0 39 2e 1f 3d ba 6b b0 bc e8 63 81 3d eb 48 07 bd
       0.03886244 -0.021535743 0.06317884 -0.033028524
0001d0 3f 8c bf 3b 7b bb 1e 3e 91 19 78 3b a8 4b 4c be
       0.005845576 0.15501206 0.0037857036 -0.19950736
0001e0 53 a5 34 3d 09 f1 e0 bb 42 47 25 3d 25 25 b7 bd
       0.044102978 -0.006864671 0.04035116 -0.08942632
0001f0 47 64 59 bd e1 21 00 bb 0a a3 ba 3d 03 03 f3 3c
       -0.053074148 -0.0019551443 0.091131285 0.029664522
000200 a5 08 2d bd 16 37 52 3d 8e 5b 55 bd 64 4d 27 3e
       -0.042244572 0.051322065 -0.052089266 0.16338116
000210 8c bb 1f 3e 1d 6e 3c bd d6 13 a3 3c 0b 4a 25 bd
       0.15598887 -0.04600345 0.01990692 -0.040353816
000220 43 a3 5e 3d 27 38 90 3d d1 3c 91 3d 61 79 af 3d
       0.054354917 0.0704196 0.07091678 0.08568073
000230 90 e1 49 3d c7 4e 0c 3d 07 17 1d bd 86 ad fd bd
       0.04928738 0.034254815 -0.03835204 -0.123866126
000240 86 e3 80 3c 0f 2e b4 bc 41 d5 1f 3d fb 2a f6 3d
       0.015733492 -0.021994619 0.039021734 0.120199166
000250 a2 0d 11 3d e0 30 7c bc 2d fd 0e 3e 7b 6d 8c 3d
       0.035413392 -0.015392512 0.13963766 0.06856819
000260 9d 60 38 3e 90 a7 fa 3d 6d e8 87 3c 70 a4 ba 3d
       0.18005605 0.12238991 0.016590321 0.09113395
000270 42 7d be 3d a7 e5 71 bd e7 1f af 3d d1 17 3f 3d
       0.09301235 -0.059056904 0.08551007 0.046653572
000280 e8 ab 07 3c 32 14 9c 3c a6 bc d5 3c 88 7b 2b 3e
       0.008280732 0.019052599 0.026090931 0.16746342
000290 c9 f8 92 3d 35 24 e6 3d d2 c5 a7 bd bd 27 b5 3d
       0.07176358 0.11237375 -0.08192028 0.0884547
0002a0 a5 aa 08 bd 18 15 68 3d e1 b4 c2 bd 23 27 bc bd
       -0.033365864 0.05666074 -0.09507156 -0.09187152
0002b0 2b 1b bb bc b2 96 b8 3d 62 0e 15 3e cf 3f 95 3c
       -0.022840103 0.09013118 0.14556268 0.018218903
0002c0 17 f5 94 3b e3 3a 98 bd 9a e2 85 3d 97 3e 96 3c
       0.0045458185 -0.07433107 0.065373614 0.018340392
0002d0 6e ac 4f 3d 3a bd ba 3d 71 40 1b 3d a8 3e bc 3d
       0.05070155 0.09118123 0.037903253 0.09191638
0002e0 44 4f 0e 3d b1 e5 42 3b 3f 4b 32 3d 65 38 2e 3e
       0.034743562 0.0029738958 0.04352879 0.170137
0002f0 9c 49 18 3b 92 a6 02 3d 5d 00 9e 3d 9f 2e c5 bd
       0.0023237234 0.031897135 0.07714913 -0.09628033
000300 2b 54 dd 3d 23 17 48 be 4a c8 e0 bc 4f e1 08 3d
       0.108070694 -0.19540076 -0.027439255 0.033417996
000310 65 9d 10 bd a4 12 30 be 5c 4c 6f bd e0 f2 15 3b
       -0.035306353 -0.17194611 -0.05842243 0.002288036
000320 93 da 43 3d 4d a2 03 3b 00 e1 0c 3e 56 0a 98 3d
       0.04781587 0.0020085752 0.13757706 0.074238464
000330 dc 3d 92 bc 3e 1b 1a bc 15 cd 50 bc 29 68 37 3b
       -0.017851762 -0.009405909 -0.012744208 0.0027985668
000340 94 cb 44 3c 2d da 5e 3d 9c 90 39 3d c5 29 02 bd
       0.012011427 0.054407287 0.045303926 -0.031778116
000350 7d 4e 9d 3d 3c a6 18 3d 2d b9 95 3c 96 e2 35 be
       0.07680986 0.03726791 0.018276775 -0.17762217
000360 62 9b 46 3d a9 18 ea 3c 0f ab 95 bd 39 33 cd bd
       0.04848803 0.028576212 -0.073080175 -0.100195356
000370 2b 85 51 bb f4 5c 95 bd 08 7c 18 bc 82 2e 44 3d
       -0.0031970243 -0.0729312 -0.009306915 0.047895916
000380 19 e7 94 bd 58 6d 88 bd 3c a1 0a 3d eb b2 0d 3d
       -0.07270641 -0.06661481 0.03384517 0.034594458
000390 cb c6 ae bb 74 88 d8 bd 92 f3 b4 3d 1d 52 67 bd
       -0.0053337566 -0.10572901 0.0883552 -0.056474794
0003a0 4d 92 2a 3d 4a 8d 06 be f0 3d 00 bd 15 c7 88 bd
       0.04164343 -0.13139835 -0.03130907 -0.06678597
0003b0 7b 5f 9a 3d 00 60 0c 3d 0a 1b f7 bc d9 3a 9c bd
       0.07537743 0.03427124 -0.03016426 -0.07628412
0003c0 ce e5 e8 3c af f1 59 bd 09 09 98 bc 87 5f 03 3e
       0.028429892 -0.053209003 -0.018558996 0.1282941
0003d0 fe 50 d9 3d a1 c7 90 bc 24 e3 d9 bc d7 eb 4d 3d
       0.10611151 -0.017673315 -0.026597567 0.050273743
0003e0 a0 f2 89 3b 5e a5 76 3d 2c 74 66 3d b9 07 c9 3d
       0.0042098314 0.0602163 0.056263134 0.09815926
0003f0 44 8f 2f bd dc af 31 bd b8 16 f9 3d 4a 04 32 bd
       -0.042861238 -0.043380603 0.121625364 -0.04346112

weight f4 [768]
000000 0c c4 7b 3f 71 42 89 3f ec 02 87 3f 5e 9c 83 3f
       0.9834602 1.0723401 1.0547767 1.0282094
000010 e3 bb 71 3f 6a aa 84 3f b7 74 82 3f c4 a4 62 3f
       0.9442732 1.0364506 1.0191869 0.8853266
000020 14 14 70 3f 6e c2 80 3f 9d f0 82 3f 1e b6 74 3f
       0.93780637 1.0059335 1.0229679 0.9559039
000030 04 4c 90 3f bf 84 74 3f 85 c9 85 3f 05 60 69 3f
       1.1273198 0.95515054 1.0452124 0.9116214
000040 35 10 6c 3f 28 8f 87 3f 2c 75 7d 3f cb 24 8d 3f
       0.9221223 1.0590563 0.99006915 1.1026853
000050 3a 42 6c 3f ec 71 82 3f 97 33 8c 3f 31 22 7e 3f
       0.92288554 1.0191016 1.0953244 0.9927092
000060 60 8f 78 3f 4a d0 70 3f f4 9f 6b 3f ad 38 80 3f
       0.9709377 0.94067824 0.92040944 1.0017296
000070 cb ad 54 3f 6b 6b 78 3f b6 20 86 3f 4a a4 8d 3f
       0.8307769 0.97038907 1.0478733 1.1065762
000080 16 e5 91 3f ef 36 68 3f 71 c0 7f 3f c9 24 79 3f
       1.1398036 0.9070882 0.9990302 0.97321755
000090 2f 8f 51 3f e1 3c 81 3f b3 81 82 3f 95 49 78 3f
       0.81859106 1.0096704 1.0195831 0.9698728
0000a0 71 5b 81 3f 9d dd 62 3f 51 c6 86 3f 84 b0 7b 3f
       1.0106031 0.88619405 1.0529271 0.98316216
0000b0 17 d1 74 3f 37 fe 75 3f 4e a1 76 3f 79 1a 55 3f
       0.95631546 0.96091026 0.9633988 0.8324352
0000c0 18 8b 71 3f e0 aa 7e 3f 62 4d 72 3f 2e 06 78 3f
       0.94352865 0.99479485 0.94649327 0.9688443
0000d0 e4 96 70 3f 01 99 7b 3f 2f 56 5e 3f a8 38 8c 3f
       0.9398024 0.9828034 0.86850256 1.095479
0000e0 2f 80 81 3f 8d 3d 8b 3f 93 4f 83 3f 82 c7 82 3f
       1.0117244 1.0878159 1.0258659 1.0217135
0000f0 0d 98 70 3f 55 b4 8c 3f 8f 6d 8d 3f 18 15 78 3f
       0.9398201 1.0992533 1.104906 0.96907187
000100 fe 2c 80 3f 0a 1d 7a 3f cd b2 6b 3f e3 16 55 3f
       1.001373 0.9770056 0.92069703 0.8323805
000110 a6 62 82 3f ba 70 83 3f 9b f8 8d 3f b6 31 76 3f
       1.0186355 1.0268776 1.1091493 0.961696
000120 10 17 7e 3f 29 dd 7b 3f 7a f4 94 3f 62 43 5b 3f
       0.9925394 0.9838434 1.1637108 0.85649693
000130 9e 0f 4e 3f 2b 49 90 3f c4 00 83 3f 92 0d 71 3f
       0.8049258 1.1272329 1.0234609 0.9416133
000140 d1 ad 7c 3f d6 2a 7d 3f 4d 58 5f 3f d5 2b 87 3f
       0.9870272 0.9889349 0.8724411 1.0560251
000150 07 60 69 3f a1 63 6e 3f 43 ed 83 3f 85 df 85 3f
       0.9116215 0.9312077 1.0306782 1.0458838
000160 be 3d 64 3f 10 a1 82 3f 4d 8a 7b 3f 4d 88 7f 3f
       0.8915671 1.0205402 0.98257905 0.99817353
000170 ae bf 60 3f a5 1a 85 3f e1 ca 63 3f 21 ff 74 3f
       0.8779248 1.0398756 0.88981444 0.95701796
000180 91 d5 59 3f 55 9e 84 3f af 80 7c 3f 17 24 91 3f
       0.850915 1.0360819 0.98633856 1.1339139
000190 24 4d 95 3f a2 24 7a 3f 44 21 8b 3f bb 96 95 3f
       1.1664166 0.9771215 1.0869527 1.1686624
0001a0 46 f0 4f 3f 0b c1 8d 3f 06 96 51 3f 2f 42 83 3f
       0.81226003 1.1074537 0.8186954 1.0254573
0001b0 fe 8f 85 3f c4 97 70 3f 3c b3 78 3f be bb 89 3f
       1.0434568 0.93981576 0.9714849 1.0760419
0001c0 2a 50 89 3f 05 4c 6e 3f 3f 25 80 3f ea 42 84 3f
       1.0727589 0.93084747 1.0011367 1.033292
0001d0 9b 31 6a 3f 9b 7d 7d 3f 36 3c 78 3f 64 61 80 3f
       0.9148194 0.99019784 0.96966875 1.0029721
0001e0 f5 d2 7e 3f 5c 49 7f 3f b3 28 84 3f 78 82 7c 3f
       0.99540645 0.9972131 1.032492 0.9863658
0001f0 d9 ff 89 3f b7 8e 8e 3f 3d 32 96 3f 95 1d 84 3f
       1.0781204 1.1137303 1.1734082 1.0321528
000200 60 4a 94 3f a3 de 75 3f e3 e0 88 3f 41 2a 8f 3f
       1.1585197 0.9604284 1.069363 1.118477
000210 3d 8a 5e 3f 59 33 7f 3f 5c dc 6a 3f 75 44 77 3f
       0.86929685 0.99687725 0.9174249 0.9658883
000220 35 cb 67 3f 62 1a 84 3f 95 0e 83 3f 32 27 7e 3f
       0.90544444 1.0320551 1.0238825 0.9927856
000230 50 5c 88 3f a2 7a 66 3f 4b f1 7c 3f 57 93 6c 3f
       1.0653172 0.9003087 0.98805684 0.9241232
000240 f9 67 8d 3f b9 bf 87 3f 0d 70 93 3f a3 25 6d 3f
       1.1047355 1.0605384 1.151857 0.92635554
000250 22 0a 77 3f a0 1f 7b 3f 40 29 86 3f 46 4b 76 3f
       0.96499836 0.9809513 1.0481339 0.9620861
000260 35 ef 6e 3f c2 f5 6e 3f 1f 02 79 3f 6d 77 86 3f
       0.9333375 0.93343747 0.9726886 1.0505196
000270 04 c9 7e 3f 8a 68 80 3f 2d d9 68 3f 25 a9 82 3f
       0.99525476 1.0031903 0.90956384 1.0207869
000280 67 50 71 3f b2 73 72 3f 01 cd 83 3f de 04 58 3f
       0.9426331 0.9470779 1.0296937 0.84382427
000290 d4 d7 78 3f 41 f2 51 3f 14 36 8a 3f d5 8f 76 3f
       0.9720433 0.82010275 1.0797753 0.9631322
0002a0 aa ed 82 3f 6c d6 85 3f 0b 98 7e 3f 52 40 6d 3f
       1.0228779 1.0456061 0.9945075 0.9267627
0002b0 7c c1 6a 3f 33 68 87 3f e7 a2 5a 3f 15 68 7c 3f
       0.91701484 1.0578674 0.8540482 0.98596317
0002c0 72 95 84 3f b5 1b 6b 3f 2e 3c 67 3f 2c e7 75 3f
       1.0358107 0.9183915 0.903262 0.96055865
0002d0 8e 4a 8d 3f 38 36 5a 3f 48 cf 71 3f 11 c4 6c 3f
       1.1038377 0.8523898 0.9445691 0.92486674
0002e0 e3 7f 93 3f 80 e7 71 3f 1a 41 89 3f 5b 47 7b 3f
       1.1523403 0.94493866 1.0722992 0.98155755
0002f0 c9 85 6b 3f 6b 08 78 3f f9 d1 77 3f 36 d7 7a 3f
       0.92001015 0.96887845 0.9680477 0.97984636
000300 3d 09 6e 3f 8c 11 7e 3f f4 16 6c 3f d4 bc 66 3f
       0.92982846 0.99245524 0.92222524 0.9013188
000310 ac e4 84 3f 7c c9 8e 3f 69 50 6e 3f eb 77 7d 3f
       1.0382285 1.1155238 0.93091446 0.99011105
000320 74 4f 6a 3f e0 13 81 3f 93 a6 82 3f eb e0 76 3f
       0.91527486 1.008419 1.0207084 0.9643695
000330 b3 59 6b 3f 36 20 93 3f ef fd 35 3f 97 82 7a 3f
       0.91933745 1.1494205 0.71090597 0.97855514
000340 32 c9 60 3f ac bb 81 3f 7f f1 82 3f 97 f7 73 3f
       0.87807 1.0135398 1.0229949 0.9529967
000350 20 11 78 3f fc 78 7e 3f f0 07 74 3f 00 f3 5e 3f
       0.9690113 0.9940336 0.9532461 0.8708954
000360 47 dd 86 3f 10 dc 9c 3f 1e 3a 85 3f 56 68 61 3f
       1.0536278 1.2254658 1.0408361 0.8804983
000370 e7 e6 79 3f 94 1a 7f 3f b9 6c 90 3f 51 34 8e 3f
       0.97617954 0.9964993 1.128318 1.1109716
000380 14 f1 73 3f 68 c2 8b 3f c2 8a 84 3f 7f 3d 7d 3f
       0.9528973 1.0918703 1.0354846 0.9892196
000390 5a f7 80 3f 8d ec 70 3f 90 f3 80 3f 09 7d 79 3f
       1.0075486 0.9411095 1.0074329 0.97456414
0003a0 62 d1 87 3f 76 68 8b 3f e2 35 84 3f 85 08 81 3f
       1.0610774 1.0891254 1.0328944 1.0080725
0003b0 dc b3 7e 3f c5 a1 85 3f e7 bb 82 3f d2 c9 8a 3f
       0.99493194 1.0439993 1.0213593 1.0842841
0003c0 64 96 73 3f c1 32 7e 3f ec 00 6f 3f 96 05 75 3f
       0.9515135 0.99296194 0.9336078 0.9571165
0003d0 09 0a 70 3f 13 4f 6d 3f d6 6e 6b 3f 78 51 71 3f
       0.9376531 0.9269878 0.91966 0.94264936
0003e0 ed 57 6f 3f 8b 48 77 3f 7c ee 8b 3f 41 1e 66 3f
       0.9349354 0.96595067 1.0932155 0.89889914
0003f0 96 09 7e 3f 26 dd 88 3f 31 ff 84 3f fe ff 87 3f
       0.99233377 1.0692489 1.0390378 1.0624998
