subject-models/ada-0626/jiffpom2023-06-26T15-25-48_jiffpom-ada/embeddings_gs-4500.pt (torch, 834159 bytes, 168 tensors)

pre_vecs f4 [2, 768]
00000000: aadb ac3c a4ff 15bc ab83 983c 4870 7d3c
00000010: 72b8 753c 0dc8 373c 53fc fcbc db4e 8ebc
00000020: 54cf a0bc bca2 5eba c391 ab3c 8afe 693d
00000030: 3852 563b 31a5 813c a4ac bfbc 8071 0f3d
00000040: 0c3c b13a 7fc3 94bc 9a98 4c38 c8c9 0a3d
00000050: eb38 003b d724 4dbd 1f60 283c 6f22 0cbc
00000060: 5c2b a8bc 1d89 79bc f5f7 30bd d28a 7cba
00000070: be33 a3bc dedc ccbc cb27 c8bc 41ce 583b
00000080: 6614 a3bc d110 0a3d be80 d53a 2577 233d
00000090: a9e6 19bc d4a4 a53c dd91 243c 9c6c 253d
000000a0: 9ef4 c03c 157c f83c 47c6 313c 48b1 6e3a
000000b0: 8a85 a2bc 20c8 4abd cbf8 323d 02b2 c3bb
000000c0: 0d75 2ebc 71a6 afbc d1a5 babc 367e ccbc
000000d0: 06e0 f23a b892 edbc a585 09bd cc62 4a3c
000000e0: 4b0d 58bc 4e02 f2bb d88b cf3c 2dbc 413c
000000f0: b2bb 48bd db8a c1bc 0ca1 143d 08ae 373c
00000100: cb6a 563d 29c0 c2bc ff7d 333d e123 85bc
00000110: 1315 ca3a 7bf9 1b3c 9841 dfbc 3b02 ee3c
00000120: fbd7 a0bc f01c 58bc f456 15bd cf37 003c
00000130: 7114 cabc 3e4d 303d 4937 26bd 9b54 43bc
00000140: aa98 e03c 1a55 63bc 4703 97bb bfaf 10bc
00000150: 117a 9fbc 5603 743a 089e f13c 437d 063d
00000160: b1dd e03c 3867 a3bc 6b2c 99bc 3e4e 973c
00000170: d7d2 d1bb 2655 20bd 11bb 11ba 9fee e1bb
00000180: 2a1f f2ba 17cc 23ba 1233 5dbd 9835 d23c
00000190: 1bbf 20bc 3a9d 283c 1ece ec3b b5a1 473b
000001a0: 8e4d 6fbc 65bf e6bc 446d c33c c268 9c3c
000001b0: cc99 1abb d9f7 f9bc 2ba5 033c 260f 39bc
000001c0: 728e 053c 8b4a a5bc 3722 913c e2ef 923c
000001d0: c62e e6bb f9a3 08bc 7764 3cbc 2a06 8dbc
000001e0: 774e 003d 0e08 fcbc 1057 12bd 0f6c 27bc
000001f0: 6c25 41bd e919 893a 8b92 3ebd 91b8 9bbb
00000200: 33a6 d3bc 287e 7fbc dccb 03bd 6817 0c3d
00000210: 605d e8bb c3bd 15bb e642 17bd 4e92 1c3c
00000220: 6147 48b9 98b3 efbb 5a60 d63a 2aba 5a3c
00000230: 6390 42bd 03c2 ba3b 420d 173d 3dc9 cdbc
00000240: b76b abbc 249f 4cbd aa39 1f3d 19aa 603c
00000250: e2c6 fabb bc85 ce3b 233f 53bd 3b95 bfbb
00000260: d1a2 ee3c 480e 293d 2f9c 0e3c d30c e8ba
00000270: b2b7 1a3d e208 48bc dfe1 99bc 7eb1 dc3c
00000280: be5a 6cbc 7625 393d 5fb0 9c3d 17b6 433d
00000290: 2c6d 4c3c ad7a e63c 9116 8ebc e09e fabc
000002a0: 3470 dc3c f631 c63c 3cc1 a83b 0232 9a3c
000002b0: 7b61 6ebc d772 7f3c a80c 47bb 4b67 273d
000002c0: 91a5 09bd 5ddc a8bc ad28 173d b75b 063d
000002d0: 686e bb3c ebba 5b3d b300 573d 93f3 1c3b
000002e0: 471c 68ba ff19 d1bc c892 0ebc 597b 14bc
000002f0: 6639 5a3b 1c94 003d c097 a5bc a02b 37bc
00000300: 56b2 523c 4a6c 253a 56de 6fbd 0329 2b3d
00000310: 75df a53c f7a9 7d3d fd06 b9bc 76bc 84bb
00000320: 4c24 803b 95d3 d9bb dcf1 08bd 2ce9 6a3d
00000330: 89df e73c d9ea 08bd a784 033c 9931 2cbb
00000340: f15b c23c 759a 903c c110 203d 0cff f2ba
00000350: 758b a7bc 4b1e d4bb 4b19 c8bb c179 c03b
00000360: 8195 3abb 3c01 0e3d d092 60bb 84c1 623c
00000370: e17f d7bc 6eb8 2ebd 3fde 4ebd 35c9 b53c
00000380: 3eea d4bc 479c 4bbc 7fd0 af3b 0126 853c
00000390: aa99 b1bb 8df3 c83c e4e1 8fbc 42c9 4b3c
000003a0: 2e12 613c 2186 13bb 1bf0 eb3c 07ad 88bb
000003b0: 0f19 aa3a 706b dcbc c347 a03c 7913 f7bc
000003c0: 5c2a 2cbb 20d3 8bbc bb59 cebb f476 b13c
000003d0: b2aa 103c 1492 73bc 00e9 993c 74a6 bcbc
000003e0: 3b48 e93b bd30 1b3d 5c9c 3abc 88ff 033d
000003f0: ecc9 09bd ca69 08bc c7ed 52ba 31cc fbba
0.021100838 -0.009155188 0.018617472 0.0154686645 0.0149975885 0.011217129 -0.030882036 -0.017371586
-0.019630112 -0.0008492877 0.020943528 0.057127513 0.0032702815 0.01582584 -0.023397751 0.03502035
0.0013521924 -0.018159626 4.877951e-05 0.03388384 0.0019565176 -0.05008396 0.010276823 -0.0085531315
-0.020528488 -0.015230444 -0.04320522 -0.0009633723 -0.019922134 -0.025007661 -0.024433037 0.0033081921
-0.019907188 0.033707444 0.0016288979 0.039908547 -0.009393373 0.020220198 0.010044542 0.04038678
0.023554143 0.030332604 0.010850496 0.00091053965 -0.019839067 -0.04950726 0.0436943 -0.005972148
-0.010648024 -0.02144167 -0.022784146 -0.024962526 0.0018529899 -0.029000625 -0.03357472 0.012352657
-0.013186763 -0.0073855286 0.025335237 0.01182465 -0.049007125 -0.023625782 0.0362864 0.011210926
0.05234794 -0.02377327 0.04382133 -0.01625246 0.0015417658 0.00951993 -0.027252957 0.029053798
-0.019634238 -0.013190493 -0.036459878 0.007825806 -0.02466795 0.043042414 -0.040580068 -0.011922027
0.027416546 -0.01387527 -0.004608545 -0.008830964 -0.019467385 0.00093083584 0.0294943 0.032834303
0.02744946 -0.01994668 -0.018697938 0.018469926 -0.006403308 -0.039143704 -0.0005559186 -0.006894901
-0.0018472422 -0.00062483683 -0.054003783 0.025660321 -0.009811188 0.010291392 0.0072267195 0.0030461375
-0.014605893 -0.028167436 0.023855813 0.019092921 -0.0023590205 -0.03051369 0.008034985 -0.011295116
0.008151637 -0.020177146 0.01771651 0.01793665 -0.007024619 -0.008339875 -0.011498562 -0.017214853
0.03132483 -0.03076556 -0.03572756 -0.010218634 -0.04715483 0.0010459992 -0.046526473 -0.0047522266
-0.025836086 -0.015594043 -0.032176837 0.03420201 -0.0070912093 -0.0022848703 -0.036929034 0.009556366
-0.00019100077 -0.0073151104 0.0016355619 0.013350049 -0.04750098 0.0056993975 0.036877878 -0.025120372
-0.020925386 -0.049956456 0.038873352 0.013712429 -0.007653103 0.0063025635 -0.051573884 -0.005846647
0.029130371 0.041273385 0.008704229 -0.0017704017 0.03777284 -0.012209149 -0.018784462 0.026940104
-0.0144259315 0.04520174 0.076508276 0.047781076 0.0124772005 0.028134668 -0.017344745 -0.030593336
0.026908971 0.024193745 0.0051499885 0.018822674 -0.014549608 0.015591345 -0.0030372534 0.040869992
-0.033605162 -0.02061289 0.036904026 0.03280231 0.022879794 0.053645056 0.0524909 0.0023948892
-0.00088543113 -0.025525091 -0.008701988 -0.0090626115 0.0033298372 0.031391248 -0.020213962 -0.011179835
0.012859901 0.0006310387 -0.058561645 0.04178716 0.020248154 0.06192967 -0.02258634 -0.0040507866
0.003910577 -0.006647537 -0.03343378 0.057351276 0.028304832 -0.033427093 0.008027232 -0.002627468
0.023725482 0.017651776 0.039078478 -0.0018539145 -0.02045224 -0.0064733378 -0.006106531 0.005873889
-0.002847046 0.034669146 -0.0034267195 0.013840083 -0.026306095 -0.042656355 -0.05050492 0.02219067
-0.025990602 -0.012427396 0.005365431 0.016253473 -0.0054199295 0.024530197 -0.017563768 0.01243812
0.0137372445 -0.0022510367 0.028801015 -0.004171017 0.0012977439 -0.026906699 0.019565469 -0.030160652
-0.0026270365 -0.017068446 -0.006297318 0.021663167 0.008829759 -0.014866371 0.01878786 -0.02302859
0.0071192062 0.037888277 -0.011389818 0.032226115 -0.033639833 -0.008326003 -0.0008046296 -0.0019210634

basis_rand_weights f4 [16, 5]
00000000: bd63 63bd 0c61 f6bb 5728 b0bd e2f6 303d
00000010: 5e64 33be d878 2f3d 488e 77bc 89ff 383d
00000020: 312e 0abd 98e3 b93d 2e72 283d 23c7 81bd
00000030: 958c e2bc f385 fa3d 86a6 173e 6a22 773d
00000040: 320d 61bd 8049 29be 97da 00be d64f 8b3d
00000050: 81ef 943c 9970 77bd e7b0 5ebd eb73 583e
00000060: 507a 3c3d c381 f73d ce44 5fbe c6da 0b3e
00000070: 1385 ec3d 4366 973c c4e7 52bd aa34 a6bc
00000080: 51cf 0f3e a099 fa3d e545 dfbc 5437 f93d
00000090: 1e33 0bbe abc5 aa3d b52d 25bd 59e5 fcbd
000000a0: 690b 143e 97d9 3cbe efe0 05bd 1a62 c63d
000000b0: d110 08be f2eb 70bd e23c 6abd 99e5 4d3e
000000c0: 90aa f13d 7359 70bd f634 073e c158 34be
000000d0: 979e 6fbc bcbd c2bc 5985 963d 0436 4b3d
000000e0: cfa6 1fbd a7f0 653e 21d9 8b3b 92bf c1bd
000000f0: 71c3 0fbd 9781 5dbd 6c0b 203e 4133 2c3e
00000100: e157 823d 97ab 0cbd bef5 6c3d e701 773d
00000110: 92a1 e53d 1500 e4bd c193 a53d b78d e2bd
00000120: 29b0 bebc 2f42 d8bd 9b91 9abe b7f1 aa3d
00000130: 5435 debc d662 31bd 88e8 64be 7061 13bd
-0.05551504 -0.007518893 -0.08601444 0.043204196 -0.17518756 0.042839855 -0.015109606 0.045165572
-0.033735458 0.09076613 0.041124515 -0.063368104 -0.027654925 0.1223258 0.14809617 0.060335554
-0.054944225 -0.16531944 -0.12583385 0.06802337 0.01818061 -0.060410116 -0.054367926 0.21137969
0.046015084 0.12085297 -0.2180359 0.13657674 0.115488194 0.01848138 -0.05149056 -0.020288784
0.14043929 0.12236333 -0.027255008 0.12168756 -0.13593718 0.083384834 -0.040326793 -0.12348432
0.14457478 -0.18442379 -0.032685217 0.0968668 -0.13287665 -0.058818765 -0.05718697 0.20107116
0.1180011 -0.058679055 0.13203797 -0.17611982 -0.014625213 -0.023772113 0.07349653 0.04961206
-0.03897744 0.22455083 0.004267827 -0.09460367 -0.035098497 -0.054078665 0.15629357 0.16816427
0.06364418 -0.03434333 0.057851546 0.06030455 0.11212458 -0.11132828 0.080848224 -0.11062186
-0.02327736 -0.105594985 -0.30189213 0.08346885 -0.027125038 -0.043307148 -0.22354329 -0.035981596

basis_vecs f4 [3, 768]
00000000: 49cf 82bb d476 ccbc f9c6 b33c 828e 073d
00000010: f02e f839 205e b73b 125d dbbc 9ea0 ebbc
00000020: 2f0c d3bc 24a1 9ab9 838f ff3c 5676 313d
00000030: 95af 323b 75b3 833a 3812 56bd 5473 183d
00000040: 2bbe 05bb 0908 cbbb 74dc 15bd be95 a33c
00000050: 4116 c1ba a80c 96bc 53ba 303b f455 d0bc
00000060: a643 e5bb 1b34 bfbc 7a7f 7fbd 26cc 2b3d
00000070: 8136 83bd 9396 d0bc f840 6bbc a8d8 61bc
00000080: e5a6 4dbd 1d02 d83c 8bb3 a03c 0727 8e3c
00000090: 9c3d fdbc 19f5 1c3c 2c08 9b3c 9869 813c
000000a0: 7a59 af3c 599d 3a3b addd 5d3c db30 563c
000000b0: 2cc7 1dbc 3b90 7abd d8eb 5e3d aa17 423c
000000c0: a0d6 013c 8bc0 0a3b cf6e d13b da9f 713c
000000d0: 362b 7b3c 73c0 c8bb d64b 7bbd 1561 a43c
000000e0: 9e5e d6bc 1250 adbb e1d6 c13c c6e9 1bbc
000000f0: c9ab 57bd 1718 62bc a856 103c 388f 8fb9
00000100: f316 303d b547 61bc 4e82 383d 9718 c1bc
00000110: 6f7c f53b ae7e 0b3d 7345 6cbc 46b6 1f3d
00000120: 5ff0 90bc c26b 4dba 535b f13a a9cc 243d
00000130: 7d97 d73b c146 f33c 34d0 febc a184 373c
00000140: 056a 153d b27d 2abc ef7f c33b 7abb c0bc
00000150: cba1 cfbb 95c8 f63c 2a9e fa3c 7133 583c
00000160: ae28 523d ae69 eabc 0109 f6bc 247d 873c
00000170: 5472 863c ad6e 83bd d8ec cd3b 1cda cebc
00000180: e540 4cbb 8755 583b 13ae 87bd 29b7 843d
00000190: 4faa b0bc eafe d43b 0194 8b3c 60ce 133c
000001a0: 25fd 2dbc a1c8 d4bc 36fd d43c 3284 963c
000001b0: de73 aa3a 1307 18bd 295e f03c 283f e8bc
000001c0: d0eb 67bc c7ba 8abc fe79 a03c 9786 13bb
000001d0: 1614 18bc b1de 54bc ea3d a9bb eb72 183b
000001e0: 52d8 da3c 5dbf 7ebb 4aea 0ebd f84d f0bc
000001f0: df7c 3fbd aa09 df3c 41e6 81bd f1e7 343c
00000200: 6123 84bc 76d7 2bbc c1d3 58bd f125 9d3c
00000210: 4acf 4ebc d15b 8bbc 64f9 7bbc fffc ee3c
00000220: 0944 f23b 6631 59bc 108d 2e3c 408e 30bc
00000230: e1e1 56bd b980 a03c b5c5 ac3c ba7e c9bc
00000240: ab0e 6c3c ef2b a4bd ac1c ec3c 10dc a33c
00000250: d661 d9bb 32d7 fe3c d304 8dbd 2fa4 a0bb
00000260: 2c67 2e3c 224f 013c c955 3cba 4381 253c
00000270: df8c 443d 36d1 9bbc 83ef 1b3b ebb5 1e3c
00000280: 8d24 093c 06f0 083d 29a6 b13d 8ea0 373d
00000290: 69e4 d73c b8e7 c23c 2996 4dbc f79d ecbc
000002a0: fb1d 923c 3538 9b3c 4624 c83b 109c 713c
000002b0: 8d31 b9b9 9a8c d1bb ecc5 e0bc 9878 8f3c
000002c0: 0221 2dbd 88ec 4dbd 2c94 113d 1600 073d
000002d0: 4cfb 1d3d e4cb 623d 03cc 3e3d 8cb8 083b
000002e0: 91d0 473c 8c07 babc 9bdc 15bc 336a 663c
000002f0: 47f4 d0bc 3eac e43c adda c8bc 3f87 203c
00000300: 7255 083c 27d5 bebc 3eb1 3dbd 773c ce3c
00000310: a927 d13c 9959 2d3d 38d9 08bc f196 bc3c
00000320: 1ad9 1dbd ebf8 80bc c9a7 24bc 48c4 233c
00000330: 19d3 713d f9c7 a0bc f297 623c 5862 323b
00000340: 730f 0b3d 989e 043d 3f7d 7f3d e75c fabc
00000350: e3be 59bc ec8d 6b3b 02b0 943b 40dc 293c
00000360: 1819 beba 35b2 813d d73d d8bc 1360 1dbd
00000370: 6c7d e3bc e4ed 9abd b499 86bd 522a 253d
00000380: 3187 65bc 79bc 2e3b 1735 6ebc 78ed b13c
00000390: d5b7 883c f79b 2b3d 86da 4abc ffaa 7cba
000003a0: fe4d 773c eb78 7ebb c840 0a3d 55db 99bb
000003b0: 8956 033d 7b6a 19bc de54 923c e3fd 07bd
000003c0: ad5e 353d 343a e0bc d9c1 6bbc caae 393d
000003d0: f8d3 d93c 7c28 4a3a dcee 353b 369d 17bd
000003e0: cbd0 a03b f7ee 683d 1ff4 ccbc 28e8 2e3d
000003f0: 6df4 24bd 173e a13b f109 f2ba e1d2 9b3c
-0.0039919955 -0.024959005 0.021945463 0.03309489 0.00047337217 0.0055959374 -0.026777778 -0.028763112
-0.025762646 -0.00029493228 0.031196361 0.043325745 0.00272653 0.0010047989 -0.05226347 0.03721936
-0.0020407538 -0.006196026 -0.036587194 0.019968864 -0.0014731364 -0.018316582 0.0026966527 -0.02543161
-0.0069965897 -0.023340276 -0.06237743 0.041942738 -0.0640688 -0.025462424 -0.0143587515 -0.013784565
-0.05020799 0.026368195 0.019616863 0.017352594 -0.030913167 0.00957992 0.018924795 0.015797421
0.02140497 0.0028475134 0.013541621 0.0130731715 -0.009630006 -0.061172705 0.054424137 0.011846462
0.007924706 0.0021171893 0.0063913832 0.014747584 0.0153301265 -0.0061264574 -0.06135162 0.020065824
-0.026168164 -0.005289086 0.023662033 -0.009516185 -0.05265406 -0.013799689 0.008809723 -0.00027381792
0.042990636 -0.013750006 0.045046143 -0.023571296 0.0074916403 0.034056358 -0.014420855 0.03899219
-0.017692743 -0.00078361866 0.0018414058 0.04023424 0.006579338 0.029696824 -0.031105138 0.011201055
0.03647806 -0.010405945 0.0059661786 -0.023526896 -0.006336426 0.030124942 0.030592997 0.013195858
0.051308326 -0.028614845 -0.03003359 0.016539164 0.016411938 -0.06417594 0.0062843375 -0.025250487
-0.003116661 0.0033009963 -0.06624999 0.064802475 -0.021565584 0.0065001147 0.017038347 0.009021372
-0.010619436 -0.025974574 0.025999647 0.018373583 0.0013004502 -0.03711612 0.029341774 -0.028350428
-0.014155343 -0.016934766 0.01958942 -0.0022510642 -0.009282133 -0.012992547 -0.0051648514 0.0023261856
0.026714478 -0.0038871386 -0.034891404 -0.029334053 -0.046749946 0.027226288 -0.063427456 0.011041627
-0.016130151 -0.010488382 -0.05293632 0.019183131 -0.012622664 -0.017011555 -0.015379284 0.029173372
0.0073933643 -0.013256406 0.010653749 -0.010776103 -0.05246151 0.01959263 0.021090368 -0.02459656
0.014407794 -0.08016192 0.028822266 0.020002395 -0.0066339774 0.031108472 -0.06885686 -0.0049023847
0.010644715 0.007892402 -0.0007184414 0.010101619 0.047985908 -0.019020658 0.0023793883 0.009686927
0.008370531 0.03343203 0.08674271 0.04483085 0.026354032 0.023792133 -0.012548008 -0.028883917
0.017836561 0.0189477 0.0061078398 0.014746681 -0.00035322868 -0.006394935 -0.027438127 0.017513558
-0.042267807 -0.050274402 0.0355417 0.032959066 0.038569734 0.055370227 0.04658128 0.0020861952
0.012195722 -0.022708677 -0.009146835 0.014063406 -0.025507106 0.027914163 -0.024518335 0.00979787
0.008321153 -0.023294998 -0.04631161 0.025175316 0.025531607 0.042321775 -0.00835257 0.023021193
-0.038537122 -0.015743693 -0.010049769 0.009995528 0.05903921 -0.019626604 0.013830172 0.0027219262
0.03395028 0.03237781 0.062375303 -0.030561877 -0.01329014 0.0035942746 0.0045375833 0.010367453
-0.0014503328 0.063328184 -0.026396675 -0.0384217 -0.027769767 -0.07564905 -0.06572285 0.040323563
-0.014009283 0.0026662631 -0.014539025 0.02171968 0.01668922 0.041896787 -0.012381202 -0.00096385175
0.015094278 -0.0038829397 0.033753186 -0.004695336 0.03206495 -0.009363766 0.017862733 -0.03320111
0.044279743 -0.027371503 -0.014389479 0.045332707 0.026590332 0.0007711721 0.002776078 -0.037015162
0.0049077026 0.05686852 -0.02501875 0.04270187 -0.040272165 0.0049207318 -0.0018466098 0.019021453

basis_comm_weights f4 [1, 5]
00000000: 4e07 103f 6086 513e 7a33 a33e efc8 c13e
00000010: 94b5 153e
0.56261146 0.20461416 0.3187521 0.37848613 0.14620048

bias f4 [16, 768]
00000000: ee40 4f3c 4d0b 95bc aa2e bbbb cb51 153d
00000010: e574 0ebc 4a86 7039 2369 033c 3ac1 0f3d
00000020: 3da0 61bb 7352 1b3d aec8 7a3b 54a4 f33c
00000030: 08c9 4a3c f0d6 60bc b99a afbc e4ac 03bd
00000040: b8e1 88bd fa94 8fbc 717a afbb 0dcf c83c
00000050: 7214 dc3c b61a 33bc 4465 d13c d1d7 603c
00000060: b356 ef3c 33cd 9d3b d66a fbbc b3e8 22bc
00000070: c3b1 38bd 069d 2ebc 04c8 07bc 5c9e 873c
00000080: 143c c8bb 9ea1 7ebc f3c2 b0bc 7e7a bbbb
00000090: 500a babb 4541 bbba cd3c 633d 8c5c 42bd
000000a0: e59b d83c 5dc3 c6bc 9fbb e6bc 6ff4 b6ba
000000b0: 2955 e0bc 86b1 eeb9 b63d bc3b acbd e0bc
000000c0: 86a2 41bd a181 373d 25a7 4b3d a5bb 38bd
000000d0: f2a1 61bc 392e 96bb b10c 033c a042 073d
000000e0: a799 a93b 7c17 423d 91b6 283d bbac 9b3b
000000f0: 9d0c 83bb 2ea0 643c a333 5ebd 6682 05bd
00000100: 4919 803c b7c9 a4bc 852e 5e3d 1199 8b3c
00000110: 74c1 6fbc efb1 533d 3d5f 4fbd 32cf 2a3d
00000120: 1525 b53b 8bea 263b 13ae 8cbc b2c3 193d
00000130: 5b3c 143d c51d 313b 866c 623c d5a0 55bc
00000140: b7a0 233d ab6c bd39 e70e 3b3d d80b b6ba
00000150: 32dd 94bc 1512 adbd 5337 28bc 6c18 03b9
00000160: 919d 09bd bb76 663d cac7 b33c 1527 573c
00000170: 1d81 083d 7ff4 c0bc 13c3 dabc 419a 83bc
00000180: cc56 433d ab25 e6bb c0db bcbb b983 cc3c
00000190: a3a1 683c 917c bbbb 605e 0c3d fa74 3a3d
000001a0: 2a94 f13b 065f 103c c756 103b 8abc 073d
000001b0: 58e6 a6bc 4673 363c 766b 58bb c18b 7b3b
000001c0: 1b0e 923c adba 82bb 5399 b63c de20 22bd
000001d0: ff96 f9bc 0b58 e13c 5026 e33c f27b 51bb
000001e0: e04b 9fbb b925 79bd d8bf 113d 73fe 9f3b
000001f0: 42de 743d 1c62 633c 4296 91bd bf71 ebbc
00000200: 4e2a 803b cd99 60bc 654a 51bc 4aa6 51bc
00000210: 796a 063d c0d5 0e3d f9fa e33b 3422 6e3c
00000220: 562b ecbc 4561 0f3c 3b14 ad3c 3ab1 f3b7
00000230: af3a ae3c 4266 87bd 8635 4abd b83b 43bc
00000240: b1ae c8bc 0b74 573d f768 fe3c 89b7 9bbc
00000250: 31ea fe3c d90c c1bc b6a4 5e3c a3dd 533c
00000260: bef5 e33c 51c0 543c 32d0 45bb 58dd 133d
00000270: 1a4b 073c d0f3 4b3c af89 333d 8e87 38bd
00000280: 6f6e 173c afd4 1fbd 94ad 3a3d 4951 4f3d
00000290: 57e8 373c 241d ef3c 3025 35b9 39b5 2e3c
000002a0: b78c 50bc 85da 9b3c b19c f2ba 8b34 fbbc
000002b0: 4703 77bb cbf2 203d 9369 06bc 14ac f63b
000002c0: 34c4 693a 064a 1abc 0f30 febc 0853 50bd
000002d0: 5d05 7dbd 03b4 27bd 1180 8e3b 6c93 803d
000002e0: d975 00bd 055a 1ebc 4175 16bc eeb1 153c
000002f0: de23 27bd eea1 a03b 111b 2e3b 485c 643c
00000300: cea3 773d 3b9a 01bd 1efc 403d 5598 1f3d
00000310: 2b56 303d a021 3eba 4324 513c 3c51 0d3d
00000320: 5f70 3dbc d018 5f3d c8f2 ae3a 90b2 173d
00000330: 51b5 5ebc aa8a 0fbb c829 563c b804 5bbb
00000340: cf8e 7d3d e269 da3c c9fa 12ba bac1 80bc
00000350: 5a10 893d 46e9 0a3d b8b7 833c 2c79 a9bc
00000360: ec96 173d cc48 2f3d 24d5 45bc 6b4d 2f3d
00000370: 97b5 25bc 75f6 1e3d 4fbc 98bc bdff 93bc
00000380: 64f0 31bc b14d 61bb 8191 5e3c 2933 d4ba
00000390: 4ff6 2f3d ee21 b0bc 511c 9bbc 2d53 9abc
000003a0: 9fa6 a53c f203 f1bc aef1 87bc 54da 02bd
000003b0: a847 d3bc 1d5f debb 9952 9bbc cb6a ccbc
000003c0: b6b2 713a 3e3c ccbb d55e ecbb 2140 b33b
000003d0: cdac b5bc 1d5a 09bd f834 8e3d 72ec 8c38
000003e0: 973f 82bc a93c 893c ac67 a53c 4551 80bc
000003f0: 1483 1fbd a51f 56bb e368 4c3c a9e2 5c3d
0.012649758 -0.018193865 -0.00571235 0.036454957 -0.008694862 0.0002293821 0.008020672 0.035096385
-0.0034427785 0.037920427 0.0038266587 0.029741444 0.012377031 -0.01372312 -0.021436082 -0.032147303
-0.066836774 -0.017527092 -0.0053551723 0.024512792 0.026865218 -0.010931661 0.025560983 0.01372333
0.029216146 0.0048157214 -0.030690592 -0.009943175 -0.0450914 -0.0106575545 -0.008287434 0.016555004
-0.0061106775 -0.015541462 -0.021577334 -0.0057213893 -0.005677499 -0.001428642 0.055477906 -0.04745154
0.026441524 -0.024263078 -0.028165637 -0.0013958345 -0.027384358 -0.00045527163 0.005744661 -0.027434193
-0.047274135 0.044801358 0.04971995 -0.045100827 -0.013771521 -0.004583147 0.007998631 0.033022523
0.0051757875 0.047385678 0.041189734 0.0047508157 -0.0039993064 0.013954205 -0.054248463 -0.03259506
0.015637057 -0.020115716 0.054243583 0.017040761 -0.014633525 0.051683363 -0.050627936 0.041701503
0.005528102 0.0025469388 -0.017172849 0.037540145 0.036190372 0.00270258 0.013819819 -0.013038834
0.03994819 0.00036129853 0.04566851 -0.0013889028 -0.01817188 -0.084507145 -0.010267097 -0.00012502231
-0.033597533 0.056265574 0.021945853 0.0131318765 0.033326257 -0.023554085 -0.026704347 -0.016064765
0.047690198 -0.0070235333 -0.005763501 0.024965154 0.014198693 -0.0057216366 0.03426969 0.045521714
0.007372399 0.008811718 0.002202438 0.03313879 -0.020373508 0.011135882 -0.0033023036 0.003838286
0.017828992 -0.0039895386 0.022289908 -0.039582126 -0.030467508 0.027507802 0.02772823 -0.0031964746
-0.00486134 -0.06082699 0.035583347 0.0048826276 0.059782274 0.013878372 -0.071087375 -0.028740762
0.003911293 -0.013708544 -0.012774085 -0.012795994 0.032816384 0.034871817 0.0069574085 0.014534522
-0.028829258 0.008751218 0.02112781 -2.9050385e-05 0.021268217 -0.06611301 -0.04936745 -0.0119160935
-0.024497362 0.0526009 0.03105591 -0.019008415 0.03111753 -0.023565697 0.013589075 0.01293126
0.02782714 0.012985305 -0.0030183909 0.03609976 0.008257652 0.012448266 0.043832477 -0.04505115
0.009242638 -0.03902119 0.045575693 0.05061463 0.011224828 0.0291887 -0.00017275359 0.010663324
-0.0127288615 0.019025097 -0.0018509832 -0.030664703 -0.0037691162 0.039294045 -0.008203882 0.0075278375
0.0008917481 -0.009417063 -0.031028775 -0.050860435 -0.061772693 -0.040943157 0.004348763 0.062781185
-0.03136239 -0.009665017 -0.009183229 0.00913666 -0.04080569 0.004902116 0.0026566426 0.013938017
0.06045895 -0.031641226 0.047115438 0.038963635 0.043050926 -0.00072529353 0.012764993 0.0345013
-0.011562436 0.054467022 0.0013347501 0.037035525 -0.013593034 -0.0021902719 0.013071485 -0.003341956
0.06190377 0.026661817 -0.0005606828 -0.015717376 0.06692572 0.033913873 0.016078815 -0.020687662
0.037009165 0.042794034 -0.0120747425 0.04279844 -0.010114095 0.03880926 -0.01864448 -0.018066281
-0.010860536 -0.0034378583 0.0135844955 -0.0016189563 0.042959508 -0.021500554 -0.0189344 -0.01883849
0.020221053 -0.029420827 -0.016594734 -0.031946495 -0.025791004 -0.0067862407 -0.018960284 -0.024953267
0.00092200504 -0.0062327674 -0.0072134533 0.0054702912 -0.022177124 -0.033533204 0.06943697 6.7197616e-05
-0.015899463 0.016752558 0.020191036 -0.015663752 -0.038943365 -0.003267267 0.012476179 0.053927097

weight f4 [768]
00000000: a206 803f c495 7c3f 30c8 7f3f 6d3a 8b3f
00000010: 7c85 803f 1bf8 6f3f 5929 683f 8367 733f
00000020: 573b 783f 8071 613f f168 723f 82cd 913f
00000030: c3a3 723f fa26 813f eac1 813f a2b8 713f
00000040: ff71 833f 0ef2 873f 9b88 663f c764 813f
00000050: fbe9 6d3f 0f78 833f e806 753f 5d26 723f
00000060: 2ed6 843f 07e8 783f 8034 913f 806d 7c3f
00000070: faea 863f d280 853f 296c 833f a139 693f
00000080: 7da4 763f f2fb 783f 5463 6b3f 61f5 7a3f
00000090: c026 7f3f 3dd0 813f 10e7 8f3f 35c5 6b3f
000000a0: 77fb 883f 9212 7f3f e32d 703f 4aaa 753f
000000b0: a118 883f d580 803f 0f79 6d3f 729b 813f
000000c0: adce 813f bc7f 4d3f 8cf0 803f 4a3f 893f
000000d0: 07cb 793f 7a51 803f 7b4e 7c3f 7e7c 893f
000000e0: b355 7c3f 3f40 8b3f e22a 853f 4b48 823f
000000f0: b788 7e3f efe9 713f 3870 583f 5ace 623f
00000100: 468d 873f 4ef2 813f f90f 9a3f 6dd4 623f
00000110: d91b 713f a443 943f 801e 8d3f c68b 8b3f
00000120: 94da 7b3f 824b 703f a662 853f a3c0 843f
00000130: 8d9e 863f bbc1 813f 74bc 803f e76f 7b3f
00000140: a7cd 693f 6650 803f c694 6e3f c5b2 7f3f
00000150: 601d 813f 1e54 773f 8196 733f 4142 833f
00000160: 6070 783f ef2f 5a3f 3645 803f 3f9f 7f3f
00000170: 05a0 6f3f 210c 803f b04a 803f 54ee 813f
00000180: 9158 863f 5451 803f b7be 863f cc98 8b3f
00000190: 0d95 703f 8da0 7e3f f1f5 903f 5897 803f
000001a0: 5084 6e3f 06eb 813f eb81 863f 4d87 803f
000001b0: 9e8d 823f 5e88 7e3f faa1 6f3f 5a47 873f
000001c0: 1ecb 853f d05c 7c3f b618 883f 0bd3 6f3f
000001d0: 43fe 7f3f 91c3 703f 7c32 793f acef 6e3f
000001e0: 59ea 763f 67ab 893f cb8e 763f 3617 753f
000001f0: e7cd 533f 388a 833f cd8d 9b3f 9b5e 603f
00000200: 6b33 883f 8422 783f c543 7c3f e38b 7e3f
00000210: ff83 5c3f fa84 613f 548e 783f 654a 7e3f
00000220: 36f2 613f 1331 843f 6d30 633f f9f5 723f
00000230: 9b33 823f 803c 803f b663 603f d5a5 893f
00000240: f86e 6c3f 4a10 623f be1c 833f 92b0 7a3f
00000250: 7158 873f 4f6a 593f 7331 713f ffe7 7d3f
00000260: adf1 863f 67b7 7e3f 6ab0 733f c272 883f
00000270: 4d94 833f 4d9c 793f 1e82 723f 4161 533f
00000280: a76e 743f 3250 653f 19b3 8c3f e424 8d3f
00000290: f177 7f3f f51e 893f be99 783f 2a1d 773f
000002a0: d5e9 7a3f 28cc 813f a50f 723f ed31 7a3f
000002b0: e04d 7e3f 2032 813f d523 873f 7286 813f
000002c0: 0ca0 7d3f a55b 813f fae5 6f3f 7895 683f
000002d0: 8bdd 6d3f 688a 553f f1fb 863f b6c6 913f
000002e0: 5c61 563f d59a 813f 2e7f 813f 7df1 763f
000002f0: b2bc 8b3f f318 7e3f ffb7 803f 8201 793f
00000300: 27be 883f 8d0c 823f b9ea 683f f9c4 8d3f
00000310: 3ad4 923f 6f51 833f fa59 6a3f e247 803f
00000320: 128c 773f 15d8 663f 316e 843f 984b 883f
00000330: 5953 7e3f a958 853f a57a 763f 4427 7e3f
00000340: 334d 883f ab0e 653f 1161 743f 708c 853f
00000350: 8100 873f 6ac5 7f3f 486a 843f 6081 733f
00000360: 2ef9 643f d5e8 8b3f 10ec 823f 7d4e 573f
00000370: 2950 843f 053f 683f 0739 8a3f 5174 733f
00000380: 6fd4 7e3f 9a4e 7a3f 7aa2 7c3f 5458 6e3f
00000390: d151 753f a891 703f a7e9 823f f6cb 763f
000003a0: 05cd 8a3f 87b7 893f e25f 6e3f bc0b 7f3f
000003b0: 1196 813f df6b 853f 224d 7d3f 6087 8d3f
000003c0: b616 723f 0d0b 6f3f 72e2 823f ee1f 713f
000003d0: 2e3a 573f cbf9 883f bb0d 923f d15a 7e3f
000003e0: 8edd 6c3f b5b9 823f aa22 6f3f 5e2d 6d3f
000003f0: 8c31 923f 22e3 753f c7b5 783f 7031 903f
1.0002024 0.98666024 0.99914837 1.0877205 1.0040736 0.93737954 0.9068809 0.9507982
0.96965545 0.8806381 0.9469138 1.1390841 0.9478113 1.009002 1.0137303 0.9442235
1.0269164 1.0620744 0.90052193 1.010888 0.9293515 1.0271014 0.95713663 0.9458979
1.0377862 0.97229046 1.1344147 0.98604584 1.0540459 1.0429938 1.0267383 0.9110356
0.9634474 0.9725944 0.9194844 0.9803067 0.996685 1.0141674 1.124239 0.9209779
1.0701741 0.9963771 0.9382002 0.95962965 1.0632516 1.0039316 0.92762846 1.0125563
1.0141197 0.8027303 1.0073409 1.0722439 0.9757542 1.0024865 0.9855725 1.0741117
0.98568267 1.0878981 1.0403712 1.0178312 0.9942736 0.9449758 0.8454623 0.8859612
1.0589988 1.015207 1.2036124 0.88605386 0.9418312 1.1583142 1.1024933 1.090203
0.983804 0.93865216 1.042073 1.0371288 1.0517136 1.0137247 1.0057511 0.98217624
0.91329426 1.0024536 0.9319576 0.99882156 1.008709 0.9661273 0.95151526 1.0254594
0.9704647 0.8522939 1.0021122 0.99852365 0.93603545 1.0003701 1.0022793 1.0150857
1.0495778 1.0024819 1.0526952 1.0906005 0.93977433 0.9946373 1.1325055 1.0046186
0.9317064 1.0149848 1.0508398 1.004129 1.0199468 0.9942683 0.9360653 1.056865
1.0452611 0.9857912 1.0632541 0.936814 0.9999735 0.9404841 0.9734266 0.9333446
0.96451336 1.0755433 0.96311635 0.9573854 0.8273606 1.0276556 1.2152649 0.87644356
1.0640692 0.96927667 0.9854091 0.994322 0.8613891 0.8809353 0.97092175 0.9933227
0.8826021 1.0327476 0.88745767 0.94906574 1.0171999 1.0018463 0.87652147 1.0753733
0.92356825 0.88306105 1.0243146 0.97925675 1.0573865 0.8492784 0.9421608 0.9918212
1.0542504 0.994986 0.9519106 1.0660021 1.0279633 0.9750412 0.94729793 0.8257027
0.9548134 0.89575493 1.0992156 1.1026883 0.9979239 1.0712572 0.9710959 0.96528876
0.9801305 1.0140429 0.9455512 0.9773243 0.9933758 1.0093422 1.055781 1.0119154
0.9907234 1.0106093 0.9371029 0.9085307 0.9291617 0.83414316 1.0545636 1.1388767
0.8374231 1.0125376 1.0116937 0.9646223 1.091696 0.9925682 1.0056151 0.97267926
1.068303 1.016008 0.9098316 1.1075736 1.1471016 1.0259227 0.91543543 1.0021937
0.96698105 0.90173465 1.0346128 1.0648069 0.9934593 1.0417682 0.9628089 0.99278665
1.0648559 0.89475507 0.9546061 1.0433483 1.0547029 0.99910605 1.0344934 0.95119286
0.8944272 1.093043 1.022829 0.8410414 1.0336963 0.9072116 1.0798653 0.9509936
0.995429 0.97776186 0.9868542 0.9310353 0.95827967 0.93972254 1.0227555 0.9640497
1.0843817 1.0759133 0.93115056 0.9962728 1.0123922 1.0423545 0.9894582 1.1056938
0.94565904 0.9337624 1.0225356 0.94189346 0.8407315 1.0701231 1.141044 0.99357325
0.92525566 1.0212923 0.9341227 0.9264735 1.142137 0.960497 0.9715237 1.1265087

bias f4 [768]
00000000: 521e 173d 7df1 35bd ce73 8dbc 39e7 353d
00000010: bca2 7dbc 026e c9bc 33d1 ae3d 5b19 df3d
00000020: 9bf9 44bc 918a ab3d 1593 453d ac62 0f3e
00000030: 0645 aa3c c8e4 a9bc 99f6 ecbc daed 9abd
00000040: ed49 37be 3b2c a7bd 3d01 38bc 7b60 883d
00000050: 0975 af3d 7908 1fbd 2ae4 5a3b c034 2f3d
00000060: bbb8 8f3d efb1 5cba d739 f5bd 4d66 0dbc
00000070: b6f3 adbd 0413 4fbd 87b6 03bd f859 8dbb
00000080: 5b15 4b3b d518 65bc cdab 61bc eb9e 9dbc
00000090: 959d 28bc e506 0e3c 5c92 083e 5260 9ebd
000000a0: 43c2 d13d 3429 afbc 2cd0 49bd 7df0 d5bc
000000b0: 101e cfbd 0835 4dbb 1e33 093c 81af 5bbd
000000c0: 8d8a d2bd ca96 2b3e 0682 113e 933d fabd
000000d0: 753c 5ebd ee92 78bd 92f4 ba3c 9ee9 b23d
000000e0: 7ed6 ed3c 7085 e23d ce9c 873d 8064 f53c
000000f0: 979a 16bc 82ef b53c ce5b 2abe c373 b4bd
00000100: 534d 553d ab47 60bd 4e16 423e 590f cd3c
00000110: 8fb6 2cbb 6fc1 483e 0510 06be 37fd 963d
00000120: ffa8 303c 1c8f 433d 8a81 92bd e632 783d
00000130: 4f0a 9f3d 13ed a93c d8ac 99bc bd07 87bd
00000140: 6f43 103e 021f be3c 991b e73d e20d 0bbd
00000150: 0dcc a3bc 6d58 42be 3447 713a ba18 17bc
00000160: 036f 12bd f1ae ed3d f50c 873d 46a8 86bc
00000170: 85e0 973d 5207 a2bc 1716 6fbd e1f8 35bd
00000180: 5b73 ea3d 1b4f 23bd 4e85 10bd 6a8c b23d
00000190: 20f3 223d 233e 9fbd 2f2c 9c3d 8048 b53d
000001a0: f2d5 103c 9c04 7fbb dbf2 733d 1aaa a33d
000001b0: 1904 45bd fbd6 c2bb 3755 7b3c 25ea 37bd
000001c0: 73c0 2abc e8f2 db3b 8408 533d d844 ffbd
000001d0: a9f9 4dbd 3af7 e73c 2285 843d f03f 0cbc
000001e0: 3110 17bd 636c 06be 2419 0e3d 8e75 783c
000001f0: caba 043e b464 833d 98b8 43be 6711 98bd
00000200: 9593 a9bc 8438 113b fab5 b2bc 7ad9 fa3c
00000210: a5a7 d83d 420d de3d 38da a93c 1e1c bf3c
00000220: 2fda a6bd 29b2 8cbc 1320 803c 5803 fc3c
00000230: cf1f cbbb 0c5d 46be c160 93bd 845f a8bd
00000240: 656e 57bd 380f c33d f9e0 7d3d c5eb 0ebd
00000250: d1e3 fd3d 0b83 23bd ce6e a93c 5944 aa3c
00000260: 930e 823d eaaa 2d3c a6a7 cbbc 1e23 d53d
00000270: 5642 ae3c c5ab e5b9 b72c c43d c598 1bbe
00000280: 12a1 3c3d 8a9d cfbd c36e a73d 88d7 e43d
00000290: 3216 393c 6c30 9c3d f509 1b3d dc25 b73c
000002a0: 342e 43bb b792 e13c 5251 86bc 8bac 4fbd
000002b0: ecca b83c 7e3c d53d 5db3 c5bc e803 2f3d
000002c0: cfe3 0abc 026a 33bc 996f 87bd 7fc0 83bd
000002d0: ab84 00be ee32 0fbe 2318 343d 38a7 273e
000002e0: 77a3 d9bd f2c2 95bb f11b d0bc 0817 be3c
000002f0: 7eab b8bd 712f d8bc 59cc d9bc e448 8fbc
00000300: 546c b33d ffe0 6cbd df26 a93d 928e 013e
00000310: 42c1 093e 0a84 023d a7cc 4b3d bbbb 833d
00000320: 9390 26bd c769 a53d c19c 20bd cd62 a63d
00000330: 46da f4ba 1389 4fbd bba2 a13c 8706 823c
00000340: 88a7 cb3d 088b 823d 2575 2bba 8f14 76bd
00000350: e10a 453e 988e 7d3d c07b 9b3d f82b d2bc
00000360: 0632 fe3c 396e cc3d c260 b0bc f51b ca3d
00000370: 7f54 37bd 43a9 c83d 95e5 abbd 0c97 24bd
00000380: 6ed6 cebc 8228 e73c 1c14 8abb b1a4 e5ba
00000390: 12d8 bd3d a183 1bbd a755 19bd 1e11 86bd
000003a0: ae84 a03d 4be7 97bd 5455 3cbd 715a 97bd
000003b0: 16b9 b6bd c983 3dbd 49e6 8dbc c6e9 e0bd
000003c0: 89a6 e3bc 4664 9ebc e4cc e43c 5bfe 8c38
000003d0: 69bf 6dbd 6751 0abe c5cb 353e a3da 18bb
000003e0: b326 78bd dec6 543d e1f4 053d 904e 67bd
000003f0: d5fc f6bd e316 3ebd 4893 a03d 2b85 b43d
0.03689415 -0.044419754 -0.017267134 0.044409964 -0.015480693 -0.024588589 0.08535995 0.10893508
-0.012022401 0.08376039 0.04823597 0.14002484 0.020784866 -0.020738974 -0.02892618 -0.07564898
-0.17899294 -0.08162733 -0.011230764 0.06659027 0.085672446 -0.03882644 0.0033400157 0.042774916
0.070176564 -0.0008418848 -0.11973923 -0.008630347 -0.0849375 -0.050555244 -0.032156494 -0.0043137036
0.003098807 -0.013982971 -0.013773871 -0.019240817 -0.010291477 0.008668636 0.13337082 -0.077332154
0.102421306 -0.021381952 -0.049270794 -0.02611565 -0.10113156 -0.0031312127 0.008374004 -0.05363417
-0.10280333 0.1675674 0.14209756 -0.122187756 -0.054256875 -0.060686998 0.022821698 0.08735965
0.029032942 0.110606074 0.06621705 0.029955149 -0.0091921305 0.022208933 -0.16636583 -0.08811142
0.052075695 -0.054755848 0.18953821 0.025031732 -0.002635393 0.19605039 -0.13092048 0.07372516
0.010782479 0.0477439 -0.07153614 0.060595416 0.07765638 0.020742929 -0.018759176 -0.06593273
0.14088224 0.023208145 0.11284561 -0.033948787 -0.01999476 -0.18979044 0.00092040305 -0.009222204
-0.0357504 0.11605633 0.06594268 -0.01643766 0.074158706 -0.019778881 -0.058370676 -0.044426803
0.114477836 -0.039870363 -0.03528338 0.08718188 0.039782643 -0.077755235 0.07625615 0.08851719
0.008840071 -0.003891266 0.059557777 0.07991429 -0.04809961 -0.005946038 0.015340141 -0.044901032
-0.01042186 0.0067123063 0.051521793 -0.12464303 -0.050286923 0.028316129 0.064707056 -0.008560166
-0.036880676 -0.13127284 0.034691945 0.015164746 0.1296188 0.06415692 -0.19113386 -0.07425194
-0.020700255 0.002215893 -0.021815289 0.030621279 0.10578851 0.108423725 0.020733938 0.023328837
-0.08147084 -0.017174797 0.015640294 0.030763313 -0.0061988602 -0.19371432 -0.07196189 -0.08221343
-0.052595515 0.09524387 0.06198213 -0.034892816 0.12396968 -0.039919894 0.020682719 0.020784544
0.06350436 0.010599831 -0.024860214 0.10407089 0.021271866 -0.00043806262 0.09578841 -0.15194996
0.046052046 -0.1013747 0.08175423 0.11173922 0.011296796 0.07626423 0.037851293 0.02235692
-0.0029782178 0.02753578 -0.016396198 -0.05070166 0.022557698 0.104119286 -0.024133379 0.042728335
-0.008477165 -0.010950567 -0.066130824 -0.064332 -0.12550609 -0.13984272 0.04396833 0.16372383
-0.106268816 -0.0045703584 -0.025403949 0.023204342 -0.090170845 -0.02638981 -0.026586698 -0.017490812
0.08760896 -0.05783176 0.08259367 0.12652043 0.13452628 0.031864204 0.04975572 0.06432291
-0.04066522 0.08076816 -0.039211992 0.081243135 -0.0018680773 -0.050667834 0.019730916 0.015872253
0.099440634 0.06374174 -0.0006540588 -0.0600782 0.19242431 0.061903566 0.07591963 -0.025655732
0.031029712 0.09981961 -0.021530513 0.09868614 -0.044758316 0.09797909 -0.08393399 -0.040183112
-0.025248732 0.028217558 -0.004213823 -0.0017520395 0.09269728 -0.037967328 -0.0374352 -0.065462336
0.07837807 -0.074171625 -0.045979813 -0.07390297 -0.08922021 -0.04626826 -0.017321723 -0.10982089
-0.027789371 -0.019334923 0.02792973 6.7230976e-05 -0.05804387 -0.13507615 0.17753513 -0.0023323677
-0.06058378 0.051947467 0.032704238 -0.056471407 -0.12059943 -0.046408545 0.07840592 0.08814462

weight f4 [768]
00000000: 5390 853f bd9e 743f d1d2 623f ee70 623f
00000010: 9fd7 713f 5a5f 883f c195 873f 6327 6c3f
00000020: 86aa 7a3f c491 653f bb4f 893f fdeb 853f
00000030: 66a8 7b3f b5c4 7b3f c602 863f 8b66 913f
00000040: 2dd8 663f f10b 653f 180b 6a3f 6808 753f
00000050: e9ad 7e3f d0fc 723f 725c 7b3f f0c7 773f
00000060: 9d18 793f 4cb3 773f 09e6 893f 9efc 8a3f
00000070: 1701 693f be15 9a3f 7b92 853f 3be4 833f
00000080: 51d8 8d3f 0009 843f d40e 883f 24bc 823f
00000090: 1d7b 773f 7fed 5d3f 45e4 793f 2200 7b3f
000000a0: ca26 803f 11d1 7f3f 0b13 7c3f 93a1 763f
000000b0: 1234 643f fde3 873f 4f70 673f 3e80 853f
000000c0: 90b5 893f a5ec 733f 90a5 6a3f fa56 883f
000000d0: a4ea 5c3f 11d1 733f 6f94 8c3f 4c26 7e3f
000000e0: 36db 623f c4a5 6a3f 7108 893f fb8e 903f
000000f0: 2a26 983f 3ad7 6c3f fff8 6e3f cf43 883f
00000100: 32f7 893f c0f7 633f 39be 783f a7c8 843f
00000110: 80c5 833f 8140 7d3f 0d24 913f 66d9 9c3f
00000120: 6c59 8a3f 8d5c 6e3f 3fb4 873f e9b7 743f
00000130: 62a4 723f 0908 6f3f 4b39 863f fb56 723f
00000140: e787 813f 765f 893f 3508 813f c956 8b3f
00000150: 0a1f 643f 8450 803f e164 853f b98a 833f
00000160: 18c8 723f 40b1 803f 6499 803f 2c08 733f
00000170: b887 773f b5e7 8f3f 891a 7c3f 0f71 823f
00000180: b6cb 893f 31b9 823f 9ae3 7e3f 11e2 953f
00000190: b454 8a3f be59 843f b008 7e3f de9e 6c3f
000001a0: fd6e 793f 3aa6 6a3f 538a 6b3f ef56 6f3f
000001b0: 6ec8 693f 9553 833f 97bf 7c3f aed5 8f3f
000001c0: d164 803f 6477 8e3f 8fce 813f 74d3 663f
000001d0: f789 7a3f 26ae 813f a32d 813f d85d 6f3f
000001e0: 3dfd 763f aa56 843f 1b8c 583f ec72 6b3f
000001f0: 593f 863f 2734 863f 82d5 813f 246f 7b3f
00000200: 047e 8d3f 09ca 653f 0020 7b3f 07b5 883f
00000210: 5f1f 743f 6492 753f 7dbc 823f 644e 663f
00000220: 5ed8 773f aac7 723f 37bb 783f 6697 763f
00000230: bcfe 783f 5bb9 7c3f 7f41 903f 949e 523f
00000240: 0ab2 783f ca72 823f fca8 5d3f 0649 823f
00000250: 41ef 6f3f ef4b 803f ecc8 6c3f 2f58 7e3f
00000260: aca1 773f 21f3 8a3f aaf1 723f 3ff6 933f
00000270: 5418 583f c19d 843f 9285 6f3f 9daa 6d3f
00000280: 837e 713f f06e 873f ce4c 673f ea34 6c3f
00000290: ef65 8e3f 0d94 6b3f c02e 773f 85bd 883f
000002a0: 8ec7 5e3f 19e0 853f b2b8 8c3f 056c 683f
000002b0: 830d 783f 2403 7f3f 10fc 8b3f ba91 803f
000002c0: 1cde 913f 0a16 783f 8581 773f 01ae 7b3f
000002d0: 9889 6b3f 2215 843f f1a9 663f 8b54 833f
000002e0: 38c2 733f fb91 733f 6e20 673f 2fd9 6c3f
000002f0: 5882 793f c98e 863f 82bb 783f aa13 813f
00000300: bf25 783f 200b 7d3f c582 863f a30a 6c3f
00000310: 49cd 7c3f 4c00 8b3f e527 8f3f b5d8 803f
00000320: db9c 743f 5c50 743f 6522 803f 44ee 833f
00000330: 8222 803f f533 793f 95b3 793f 38e9 7e3f
00000340: 73e0 8e3f e272 6e3f 270a 573f e816 673f
00000350: 5fc7 733f c32e 813f 8aa7 633f 2305 8e3f
00000360: 082d 643f 2106 853f 2af7 863f 78f4 683f
00000370: 0523 823f 97fd 613f e292 6d3f 9b34 503f
00000380: 93d6 743f 5dfd 8a3f 5b83 6d3f 3537 793f
00000390: a05c 7e3f d0d3 7d3f 8e2c 813f 7935 853f
000003a0: ed7d 733f ef52 7e3f 5054 873f 8d84 7b3f
000003b0: 40f7 803f 63bb 7f3f b540 813f fd70 8f3f
000003c0: 8213 7d3f 42ad 763f 6b05 7b3f 740b 853f
000003d0: fa56 783f 261a 693f c3ab 6a3f 42c4 613f
000003e0: c5e9 803f 6ee6 873f 924a 813f 3f08 583f
000003f0: 0a1f 8e3f 0955 693f 6441 803f 0d32 873f
1.0434669 0.95554715 0.8860293 0.8845357 0.94469637 1.0654099 1.0592576 0.922476
0.9791645 0.89675546 1.0727457 1.0462643 0.9830383 0.98347026 1.0469596 1.1359419
0.9017361 0.89471346 0.9142318 0.9571595 0.99484116 0.9491701 0.98187935 0.96789455
0.9730318 0.9675796 1.0773326 1.0858343 0.9101729 1.2037885 1.0435327 1.0304025
1.108164 1.0315247 1.0629525 1.0213666 0.9667223 0.86690515 0.97613937 0.9804708
1.0011837 0.99928385 0.9846656 0.9634029 0.89141953 1.0616452 0.90405744 1.0429761
1.0758533 0.95282966 0.9165888 1.0651543 0.86295533 0.95240885 1.0982798 0.99277186
0.8861574 0.9165919 1.0705701 1.1293634 1.1886647 0.9251591 0.9334869 1.0645694
1.0778563 0.8904991 0.97165257 1.0373734 1.0294647 0.9892655 1.1339127 1.2253845
1.0808539 0.9310997 1.0601882 0.95593125 0.9478208 0.93371636 1.0486234 0.9466397
1.0119599 1.0732257 1.008063 1.088586 0.8910986 1.0024571 1.0421411 1.027671
0.9483657 1.0054092 1.0046811 0.94934344 0.96691465 1.1242586 0.9847799 1.0190753
1.0765293 1.0212766 0.9956604 1.1709615 1.0807099 1.0339887 0.99232006 0.9242991
0.9743498 0.9165989 0.9200794 0.93492025 0.91321456 1.0259882 0.9872984 1.1237085
1.0030767 1.1130185 1.0141162 0.901664 0.9786677 1.0131271 1.0092052 0.9350257
0.9648016 1.0338948 0.84588784 0.9197223 1.0488082 1.0484666 1.0143282 0.9821646
1.1054082 0.89761406 0.98095703 1.0680245 0.9536037 0.959265 1.0213772 0.89963365
0.96814525 0.94835913 0.9716067 0.96324766 0.97263694 0.9872033 1.1269988 0.8227322
0.97146666 1.0191281 0.86585975 1.0178535 0.9372445 1.0023173 0.9249408 0.9935331
0.96731067 1.0855447 0.949 1.1559523 0.8441212 1.0360643 0.9356319 0.9283846
0.94333667 1.058073 0.9035157 0.9226824 1.1124858 0.9202278 0.9655571 1.0682837
0.87023246 1.0459014 1.0993865 0.90789825 0.9689562 0.9961417 1.0936298 1.0044472
1.1395907 0.9690863 0.96682006 0.98312384 0.92006826 1.0318949 0.9010306 1.0260175
0.9521823 0.95144624 0.9028386 0.92518896 0.97464514 1.0512325 0.97161114 1.0084126
0.96932596 0.988451 1.0508658 0.9220373 0.9875074 1.0859466 1.118405 1.0066134
0.9555184 0.9543512 1.0010496 1.0307088 1.0010531 0.97344905 0.97539645 0.99574614
1.1162246 0.9314405 0.83999866 0.9026933 0.9522609 1.0092396 0.8892752 1.1095318
0.8913121 1.0392495 1.0544178 0.9099803 1.0166937 0.8827757 0.9280225 0.8133027
0.95639914 1.085857 0.9277856 0.97349864 0.99360085 0.99151325 1.0091722 1.0406944
0.9511402 0.99345297 1.0572605 0.9824913 1.0075455 0.99895304 1.0097872 1.1206356
0.9885789 0.9635812 0.9805514 1.039412 0.97007716 0.91055524 0.9166834 0.8819009
1.0071341 1.0617197 1.0100882 0.8438758 1.1103222 0.9114538 1.0019956 1.0562149

bias f4 [768]
00000000: f9ac b6bd 77e8 5b3d a892 1dbe 2a7d b2bd
00000010: 7d3f 2abd e046 db3d 57df 28bd 1261 c73c
00000020: 6f84 ae3d f728 d13d 9268 303e 8e10 223d
00000030: bef0 0abe 4ab2 8e3c d640 f5bc b4c7 0c3e
00000040: 5bd1 d13d 5c6e b33d 52e1 9b3d 101d e7bc
00000050: f5e3 3f3d 6421 313d c1de db3d 9879 b13c
00000060: 0a5c 50bd 9c44 cd3b c941 94bd 4fe6 a93d
00000070: 37b7 b23d 4883 34be 61c0 e6bd 448b 0d3d
00000080: 1847 d0bd 839c 7bbc bf09 af3d 2064 b7bd
00000090: ed7b 913d 24c7 16be 56a3 403d f0aa 80bc
000000a0: b68b 103c f61a bd3c 951a 593d 4da3 6f3d
000000b0: f90d a23d 99cc 44bd 1537 edbd 3aec 73bd
000000c0: 30eb ffbd d075 083c ee82 32bd acf5 9abd
000000d0: 6a44 83bd ba69 963d 9644 a6bd 8966 a1bb
000000e0: a660 333d d677 babd 4008 b53d 5d5d 353e
000000f0: c1db 3abe 5974 493e 94fe 82bd 7b3b 943d
00000100: 1468 9f3d 3283 bd3d 32cd cbbc 1549 77bd
00000110: 6a71 8bbd b70f debc aa18 12be 2423 503e
00000120: b3e7 dfbd b809 b23d f364 8abd bcde 0ebd
00000130: 852b 4fbd 7d58 72bd 4c52 68bd 74b0 efbc
00000140: 51de 383d 2b96 a0bd 8ac6 023d f644 c5bd
00000150: c4a5 d53d 4c13 d3bd 9278 a23c 19d5 bd3c
00000160: b274 91bd b405 08bd ad79 6b3d b1bf 56bd
00000170: 9115 993d 5287 11be 561b 013d 7aed 2dbd
00000180: b84d d93d 6688 34bd 0da5 48bc 0b35 283e
00000190: ddb2 44be 5bec febd 3019 edbb 9970 02be
000001a0: 13d9 f63c e495 ac3d 2e7f 61bd 3f61 14be
000001b0: bcd6 483e 22e9 68bc de81 b93d 9561 efbd
000001c0: d86d bebd 2144 d2bd dbe3 153d 86ca 15be
000001d0: 521e e2bd bfe8 03bd 6385 853c 3945 103d
000001e0: e5d3 4cbc 911d 5abd 68a0 0a3e 1808 013e
000001f0: 2fc0 6abd 012a 663d 543e 29bc 0eb9 1b3c
00000200: 5497 d4bd ebe5 f23d 486b 1a3c 384b b73d
00000210: 978b fb3b fc29 4a3d d069 22bd 9300 eabd
00000220: 1bf4 1f3c 3ffa b13c e9ad e63d d81b 2f3b
00000230: 752f ae3c 541a 2ebe ca24 5a3d 9af5 413e
00000240: 9662 163c ddfc 17bd ac98 1dbe 867c 71bd
00000250: 6c99 7dbd e88a 323d 569b 8d3d fe10 14bc
00000260: a16d 53bd 2f2c 9f3d 30d9 b3bc 5905 383e
00000270: 4f45 26be a8af 133c cef5 2a3d 9fa5 c2bd
00000280: e144 913d bb0a 663d 0abc 9fbd e05c 8abd
00000290: bbea df3d a9d2 8cbd ceb8 563d ab80 89bd
000002a0: 0e83 03be af1a af3d 3695 b83d 606c 9fbd
000002b0: bda7 6d3d cd07 a3bc c7ce 0bbe cad1 e43c
000002c0: af26 e7bd 2607 083d f120 a9bc 011f 6a3c
000002d0: 5af6 cbbd 1449 1e3d 0f15 d9bd 0c33 0f3d
000002e0: fe7a 87bd 4d48 173d d4f3 d63d 7487 a23d
000002f0: 6f4e d73c abce 703d 4a6f cd3d 5520 383d
00000300: 48c2 f3bc 32d4 cbbd 8368 5abd 92b4 89bd
00000310: 471e b63b 06ed d33d 248c 37be 1bb7 403d
00000320: e781 c4bd d075 733d 9068 debb 876c d23c
00000330: ec7f 21bc 1a5c b43c f3b0 a23c c961 ad3b
00000340: a423 c63d 0c8f 893b 066d fcbd cd51 e33d
00000350: 9e36 c4bd 6b4e a3bd 4a6a a3bd ac61 3b3e
00000360: cdbb 22be d481 1e3d bb11 26bd 3e9b 8d3d
00000370: d179 08bd c233 a53d 217e 813d 88f9 24be
00000380: 4754 1dbd 9389 dfbd cd99 8f3d 2217 5fbc
00000390: af51 ad3d 4fc4 963c b499 4abd 458e a43d
000003a0: 83aa 12bd 1f0b eb3c fce6 693d ce93 03bd
000003b0: ce3a dcbc 7ad5 3fbd af46 563d 5876 d2bd
000003c0: 0ea9 203d c79a 053e 6c77 60bd a568 3a3d
000003d0: a3a1 2ebe f1e6 093e 00d7 ecbd f5bc 043e
000003e0: 6767 343d 3951 533d b20f 8bbd 4884 f6bd
000003f0: 8c9e d0bd 1392 41bd b6d0 19be fc3d e7bc
-0.08919711 0.053688493 -0.15387976 -0.087152794 -0.041564453 0.10706878 -0.04122862 0.024338279
0.085213535 0.102128915 0.1722739 0.03956657 -0.13568398 0.017419 -0.029938143 0.13748056
0.102450095 0.08761284 0.07611336 -0.0282121 0.046848256 0.043244734 0.10735846 0.021664426
-0.050869025 0.0062642824 -0.0723911 0.08295881 0.08726352 -0.17628205 -0.11267162 0.034556642
-0.1016981 -0.0153571395 0.08546781 -0.08954644 0.07103715 -0.14724404 0.04703077 -0.01570651
0.008822372 0.023084145 0.053003866 0.058505345 0.07912821 -0.048046682 -0.11582772 -0.059551455
-0.1249603 0.00832887 -0.043581896 -0.075663894 -0.06409533 0.073443845 -0.081185505 -0.004925553
0.043793343 -0.09104888 0.08839464 0.17711397 -0.18247892 0.1967329 -0.06396213 0.072379075
0.07783523 0.09253539 -0.024878118 -0.06037243 -0.068087414 -0.027107103 -0.14267221 0.20325905
-0.10932865 0.0869326 -0.06757536 -0.034880385 -0.050578613 -0.05916642 -0.05671911 -0.029258944
0.045133892 -0.07841142 0.031927623 -0.09632294 0.10432008 -0.10306415 0.019832883 0.023172902
-0.07102336 -0.033208564 0.057489086 -0.052428905 0.074748166 -0.14211777 0.03152021 -0.042462803
0.10610527 -0.044075392 -0.012246382 0.16426484 -0.19208856 -0.12447425 -0.0072356686 -0.12738265
0.030132806 0.08427027 -0.05505293 -0.14490221 0.19613165 -0.014215739 0.09057973 -0.11688534
-0.09298295 -0.10266901 0.036594253 -0.14628038 -0.110409394 -0.032204386 0.016298955 0.035222266
-0.0125016915 -0.053250853 0.13537753 0.12600744 -0.057312187 0.0561924 -0.010329802 0.00950457
-0.10380426 0.118602596 0.009424992 0.08949894 0.0076765525 0.049356446 -0.039651692 -0.11425891
0.009762789 0.021725772 0.112636395 0.0026719477 0.021262864 -0.17002231 0.05325774 0.18941346
0.009178778 -0.037106384 -0.15390271 -0.058956645 -0.061913893 0.043589503 0.069143936 -0.009037254
-0.051618222 0.07772099 -0.021954149 0.1797079 -0.16237377 0.009014048 0.041738324 -0.09504246
0.07093216 0.056162577 -0.077995375 -0.06755996 0.10933443 -0.06876118 0.052422337 -0.067139946
-0.12842962 0.08550011 0.09012835 -0.07784343 0.058021296 -0.01990118 -0.13653098 0.027932066
-0.11286675 0.033209942 -0.02064559 0.0142896185 -0.09959097 0.03864391 -0.1059972 0.03496079
-0.06615256 0.036934186 0.10495725 0.07935992 0.026282517 0.058790844 0.10030992 0.04495271
-0.029755726 -0.099525824 -0.053322326 -0.06723894 0.0055578086 0.10347943 -0.17924553 0.047049623
-0.095950894 0.059438527 -0.006787367 0.025686515 -0.009857159 0.022016574 0.019859767 0.005291198
0.09674767 0.0041979607 -0.12325482 0.11099587 -0.0958073 -0.079739414 -0.079792574 0.18298978
-0.15891953 0.038698032 -0.040544253 0.06914376 -0.0333193 0.08066513 0.06322885 -0.16110814
-0.03841045 -0.10914912 0.07011757 -0.013616355 0.084628455 0.018404154 -0.04946299 0.08034948
-0.035807144 0.028691826 0.05710505 -0.03212338 -0.026883509 -0.046834446 0.052313503 -0.102764785
0.039223723 0.13047324 -0.05480139 0.045509953 -0.17053847 0.13467003 -0.115644455 0.12962706
0.044043925 0.05159113 -0.06790103 -0.120369494 -0.101864904 -0.047258448 -0.15021023 -0.028227799
