subject-models/ada-0629/sandraoh2023-06-29T10-56-23_sandraoh-ada/embeddings_gs-4500.pt (torch, 836552 bytes, 168 tensors)

pre_vecs f4 [2, 768]
00000000: ea31 8fbc 6235 7dbb bfcd 1a3c d704 fa3c
00000010: df63 96bc 142a b63a c437 8dbc 0c36 5dbc
00000020: 4784 96bc b354 303c 5c1f 1e3a 98f4 dfbc
00000030: 3f96 96bc ab0c 01bc 12d1 983b 12c5 a03c
00000040: 7e1f 043c 1a14 193c 18e5 d8bc 0659 5a3c
00000050: b556 ccba d5db 653c 14a3 3ebb f8de c0bc
00000060: 00b9 393b 7155 67bb d62e 753c bf04 033c
00000070: ca79 113c 00ba f6bb 1cd1 563c 34f3 6c3c
00000080: 5bcd 5d3b 24f5 bf3a 13f6 123c 16b7 e43c
00000090: 0d47 3ebc f23d 113c 6c99 ddbc 40f1 bdbb
000000a0: 608c 7c3c d3ce ae3a ddf6 25bb e967 76bb
000000b0: c4db 56bb 35c3 0d3c 17ca 2c3a 05d4 80bb
000000c0: 44df ebbc fa6a 38bc 88fd da3c a2af 553a
000000d0: daaa a4bb 124f 563b ac05 e5bc 94cd 29bc
000000e0: ac02 103c ff05 763a 8bb3 ca3c b8d7 7dbc
000000f0: c99c 22bb 15b4 333c 7df8 f93b 0afb e7bb
00000100: dfe8 3b3c 693e 26bc f264 17b9 6138 d93c
00000110: 50f2 c83c fb41 1a3c c746 f8ba 06ca f2bc
00000120: 6828 52bb df82 2cbc d8d2 febb 4c6b 003c
00000130: d3d7 a9bb 5a54 78b9 a5f1 873c 1aae 8dbb
00000140: ef0b 8abc dab8 873b a153 b73c 5828 d2bc
00000150: 056c c43b 072f 0c3c f40c 703b 3c5f 963c
00000160: 84f6 c73c 1ecc aabc 29f3 1d3b 8495 1f3c
00000170: dcf1 893b 925f 0e3a 109b c4bc 2b24 243c
00000180: 8fad 9dba 8296 4bb9 38ea 363c 2d49 ca3c
00000190: 5280 a8bc 4147 693c f645 1abc 926e 83bb
000001a0: 54db b8bc 68af 823a 2ef3 6ebc cab3 0a3c
000001b0: 3a80 03bc dc80 7bbc 3e71 153c c4ed 08bb
000001c0: 1796 02bc ebd6 a43b 5684 d63c 4867 553a
000001d0: a1f7 cebc e7f9 503a 64cd a8bc 0fa0 90bb
000001e0: 9f74 5d3c eb84 d239 0201 603c a989 85bc
000001f0: 508e 92bc 9303 a9bb 67a5 58bc fb46 1fbc
00000200: a58f ebbb a1f0 babc d85d d63a 0d72 fc3b
00000210: 2846 adbc a344 263c aa70 a93b 38fa 763c
00000220: 4cae c4bc da3e 32bd 1055 1d3c 2a82 1abc
00000230: b247 3abd b107 b53b 5310 39bc daed a83b
00000240: 7438 753c c894 c5bb e2a8 cb3c 5b1b 093c
00000250: b2f3 1d3c 67d8 6dbb 636b bb3c c9df 013d
00000260: f4cc 87bc b849 04bb fc69 fabc 963f d83c
00000270: 256c c33c a4f5 033c 8d73 59bc ab38 b6bc
00000280: b606 843b 8c05 9f3c 0856 6d3c cb09 7e3c
00000290: dd5a 12bc f398 c6bb da3b 9dbb 6222 5bbc
000002a0: e51a 5c3b a5a6 ff3b a5e1 2b3b 6a53 3d3c
000002b0: cfc2 273b 779c 7f3b f4c4 ac3c 1092 733c
000002c0: 3219 8cbc 0a1e a3bc 308b d6bb 5528 7b3c
000002d0: 8f80 bdbc c866 593c 5b37 cd3b 5c59 23bb
000002e0: 9fc6 25bb f1d7 543c 7894 f23a 5e7d a33c
000002f0: 7bfc cf3a b001 3e3c 1a68 903a 6902 473c
00000300: 9f99 b33b 5a48 6abc ef07 f6bb f205 c43b
00000310: 8526 d13c ab05 3e3c f1e2 973b 23fd 19bb
00000320: 3bef 98bb 602e 0a3c f1fe f5bc b62a 4e3c
00000330: c1c7 73bc fd52 1fba 814b 3b3c 3ab0 e63b
00000340: 0c11 103c f927 393c e8b2 be3c 1c24 de3b
00000350: d1d5 033c 2774 bb3b c46a 0ebc 10a3 04bd
00000360: 58d2 c038 23fa e23c 9b97 eebb 078a 793b
00000370: e359 eb3c cd51 41bb ebfe c63b 018f 193b
00000380: 8dbb 4bbc 6a9a 70bc 529e 1e3b b1bb f63b
00000390: 3e01 113d 2bf8 abbb ba35 043d 48e7 293c
000003a0: 7737 4cbc 5940 04bd 3872 ed3c c9d4 01bc
000003b0: 7267 dd3b 00b3 bdbb 1bb7 d03c d7e9 2e3c
000003c0: 05fb 6ebb e989 6b3c 6555 bfb9 0793 cb3c
000003d0: a2e5 44bc 7b1e 12bc 9b6c 073b 3cf9 773b
000003e0: 359b 753c 29b2 353c 28de 47bc c631 ab3c
000003f0: 0962 ffbb 37d3 04bd d462 97ba 3878 4a3c
-0.017479856 -0.0038636555 0.009448468 0.030519886 -0.01835817 0.0013898038 -0.017238505 -0.013501655
-0.018373622 0.010762381 0.00060318946 -0.027338311 -0.01838219 -0.007876555 0.004663595 0.01962522
0.008064149 0.0093431715 -0.026476428 0.013326889 -0.0015589806 0.014029463 -0.0029088901 -0.02354382
0.0028339028 -0.003529873 0.01496478 0.007996737 0.008879134 -0.007529497 0.013111379 0.014462281
0.0033844325 0.0014645201 0.0089698015 0.027919333 -0.0116136195 0.008864867 -0.027050696 -0.0057965815
0.015414327 0.0013336785 -0.0025324144 -0.0037598556 -0.00327848 0.008652498 0.0006591393 -0.0039315247
-0.028792985 -0.011255974 0.026732221 0.00081514765 -0.00502525 0.0032700938 -0.027956806 -0.010363955
0.0087896995 0.0009385049 0.024743816 -0.015493326 -0.002481269 0.010968228 0.007628499 -0.0070794867
0.011469095 -0.010146716 -0.00014438087 0.026516141 0.024529606 0.009415145 -0.0018941992 -0.029637348
-0.003206754 -0.010529249 -0.0077765994 0.007838082 -0.005183199 -0.00023682546 0.016594717 -0.004323733
-0.016851394 0.004141909 0.022378745 -0.025654003 0.0059943222 0.008556134 0.0036628814 0.018355958
0.02440954 -0.020849284 0.0024101234 0.009740237 0.00420974 0.0005431111 -0.02399972 0.010018389
-0.0012029874 -0.00019415657 0.011164241 0.024693096 -0.020569 0.01423818 -0.009416094 -0.0040109837
-0.022565521 0.0009970488 -0.014584346 0.008465717 -0.008026177 -0.015350547 0.009121237 -0.0020893672
-0.0079703545 0.005030503 0.02618615 0.0008140695 -0.025264563 0.00079718087 -0.02060575 -0.0044136117
0.013516574 0.00040153353 0.013672115 -0.016300993 -0.017890126 -0.005157897 -0.013223029 -0.009721513
-0.0071887546 -0.022819819 0.0016354872 0.0077040256 -0.021151617 0.0101482 0.0051709013 0.015074305
-0.024008892 -0.04351697 0.0096028 -0.009430448 -0.04547853 0.0055245985 -0.011295396 0.0051553072
0.014967073 -0.006029699 0.024860803 0.008368338 0.009640621 -0.0036292316 0.022878354 0.03170756
-0.016577221 -0.0020185541 -0.030568115 0.026397508 0.023855278 0.008054171 -0.013272178 -0.022243818
0.0040291203 0.019411825 0.0144858435 0.0155052645 -0.008932796 -0.0060607134 -0.0047983946 -0.013374897
0.0033585366 0.007801848 0.0026227024 0.011555532 0.0025598293 0.0039003172 0.021090008 0.014866367
-0.017101858 -0.019911785 -0.006547354 0.01532944 -0.02313259 0.013269134 0.0062627024 -0.0024925089
-0.002529539 0.012990938 0.0018507382 0.01995724 0.0015868092 0.011597082 0.0011017353 0.012146571
0.0054809595 -0.0142994765 -0.00750827 0.005982154 0.025531063 0.011598031 0.004635208 -0.0023496829
-0.0046671904 0.008433908 -0.030028792 0.012583425 -0.014879168 -0.0006077735 0.011431576 0.007040051
0.008793127 0.011301034 0.023278669 0.006779207 0.008046583 0.0057206335 -0.008692447 -0.03238207
9.194453e-05 0.027707165 -0.0072812564 0.0038076655 0.028729385 -0.002949822 0.006072869 0.0023431184
-0.012434852 -0.014685253 0.0024203253 0.007529699 0.035401575 -0.00524809 0.0322778 0.010370083
-0.012464396 -0.03228793 0.028985128 -0.007924267 0.0067567164 -0.0057891607 0.025477936 0.010675869
-0.0036465537 0.014376142 -0.00036493983 0.024850382 -0.012017639 -0.0089184 0.00206641 0.0037837764
0.0149906175 0.01108984 -0.012198962 0.020897757 -0.007793669 -0.032427993 -0.0011549839 0.012357764

basis_rand_weights f4 [16, 5]
00000000: f4d0 053d 3360 7ebd f22f d1bd 2606 7dbc
00000010: 5a7b 4cbe f809 a83d 5ed5 b23c c20f 5abc
00000020: 0659 f6bd c3eb 37bb 52ab 4a3d c26b 88bd
00000030: c2c8 cc3d e0fa 593d fb0d a83d d5c1 d93c
00000040: 75cc 18bd fbe8 bdbd 2e29 d0bd a8cf 703d
00000050: 051a 9d3d 5aee c7bd 4ef3 4dbd e8ae 0a3e
00000060: d710 7e3d f40d 9c3d 8c15 8abd 8637 643e
00000070: 5f13 833d d2f8 1bbd 68e5 763d c781 3ebd
00000080: 8a45 353d e7e6 a5bc 364b 893b f760 173d
00000090: 6fd3 f2bd 09f5 803e c35d 7abd 4cb6 c4bd
000000a0: 7692 f1bd 4be3 02bd 2505 f83d 896a aa3e
000000b0: d855 cfbd 5f34 07be 6320 debc 508d b63e
000000c0: c5a4 883d 90b4 c1bd f1e2 b83d 95aa f6bd
000000d0: 8d5b e03d 3413 c03d 9fcc 6e3d e3cb 203d
000000e0: 9a06 3ebd 1ba6 983e 367f 63bd 5662 fdbd
000000f0: d4ff 0b3e 3fa0 fcbd d7a7 b13d a560 603c
00000100: 3d61 2ebd 9c95 c4bd 5007 aa3d d825 5b3d
00000110: fcb8 4c3e 6215 00bd e13d 683d 08b2 53bd
00000120: 00b0 9bbd 4d45 85bd deb7 13be b4b4 dfbd
00000130: b283 f13d c8da b73d f32f f53b af96 be3d
0.032669976 -0.06210346 -0.10214223 -0.01544336 -0.1996893 0.082050264 0.021830257 -0.013309421
-0.120286986 -0.002806411 0.04947979 -0.06661178 0.09999229 0.05321777 0.082057916 0.026581684
-0.03730436 -0.09272953 -0.101641044 0.058791786 0.076709785 -0.09762259 -0.05028086 0.13543284
0.06202778 0.07619849 -0.06742391 0.22286806 0.06400179 -0.03807909 0.060277373 -0.046510484
0.04425577 -0.020251704 0.004189874 0.036957707 -0.11856734 0.25186947 -0.061124574 -0.09605083
-0.11795513 -0.031955045 0.12110356 0.33284405 -0.10123795 -0.13203572 -0.027115053 0.35654688
0.06672052 -0.09458268 0.09027661 -0.12044255 0.10954962 0.09378663 0.05830061 0.03925694
-0.046393014 0.29814228 -0.05554124 -0.12372272 0.1367181 -0.12335252 0.08674591 0.013694917
-0.042573202 -0.09598848 0.08302176 0.053502887 0.19992441 -0.031270392 0.056699637 -0.051683456
-0.07601929 -0.06507359 -0.14425609 -0.10923138 0.11792697 0.08977276 0.0074825226 0.09306084

basis_vecs f4 [3, 768]
00000000: 74a1 62ba cf3f 7c3c 3f68 163d 1b7c c73c
00000010: fa00 1bbd be96 93bc 0f51 f8bc b0b8 62bd
00000020: 725a a2bc 4c85 8f3d 4d03 813b 8fc9 c83c
00000030: 4eda c2bc 1c42 9ebc c8e2 abbc 275f 573d
00000040: 793c 61bc 162d 2b3c 1c6d adbc 5d12 e83c
00000050: cbfe 84bc 18a4 a2bc 2b53 26bd 5040 adbc
00000060: 258d a53c 69d3 4f3c 0978 4bbb 950d 493d
00000070: 23e1 67bd 90a2 4c3c 8b62 343b d2d7 353d
00000080: b439 4abd 0145 a23c fc59 8b3c b3cf 993d
00000090: 8dc0 bf3c ebf3 86bc 3685 42bd 5053 823c
000000a0: a3ad 1c3d 6639 133c 10a3 c83c 2b8e c23c
000000b0: 0826 76bc 19da f6bc 5ece c3bc 3eda 893c
000000c0: be0a e5bb abcc adbb 7d5a 263d 3f2f c2bc
000000d0: a065 433c c751 283d 94be 86bd 20ef 833c
000000e0: 870d f6bb 6123 1f3c e29e 3c3d 789e 8abb
000000f0: defc 40bd 05ca 063d bbde b53c e683 a0bc
00000100: 7860 7d3d 2d00 5abc 0cbb 363d 3406 6bbd
00000110: e1a9 8c3c a215 cd3c 962a cf3c 3c1b 70bc
00000120: 3ca5 9ebb 0085 c1bc 4b80 493c 787f 343d
00000130: 23c7 b03c 8386 0f3b 92dd d3bb d96f b038
00000140: 910c d2bc 3fe8 9c3c 31c4 243d 1021 a7bb
00000150: 3589 763d 5947 6abd 9aa8 553d 732a 143c
00000160: cc34 aa3c cb83 613b d72e bfbc a746 523d
00000170: ac05 fe3c 8d16 7b3b 1186 73bd eed4 28bd
00000180: 1764 d7bc c9a8 73bc 3295 b8ba 73b0 6f3d
00000190: 5438 76bc 745b 6a3c e9e8 33bc e56b edbb
000001a0: 90ef ab3a 00f3 1abd 3fa5 e63b 59a2 cf3c
000001b0: 4510 1c3b b719 bbbc a601 953d 985a b3bc
000001c0: f999 00bd cc9e d4bc f91f 8e3c 202e a13c
000001d0: 76d1 92bc 279c a7bc 12d3 a0bc bd7c 193d
000001e0: 8d39 2abc fed7 9f3c 3d39 08bb 1c15 cebc
000001f0: a2de 85bd 39c3 843a b8d7 84bd 5e0b 963b
00000200: 32f7 54bd 364d 903b f353 20bd bac6 103c
00000210: 691d 6dbd d387 d0b9 149f ecbc 086e a83a
00000220: 096f 8ebc 2733 debb 832a 053d 5198 023d
00000230: 1164 99bd a1d4 1f3d d922 053d f21c 48bc
00000240: 7cb3 0b3d 308c 75bc 3c65 413d d04c 903d
00000250: be11 0d3d c0e3 3abd d42f 80bd dd95 c23c
00000260: b33b 4d3d 8999 ad3b ab8f e9bc 6940 153d
00000270: 17e8 2d3d f3c1 86bc baaa f13b 9a9e 633c
00000280: b991 3d3d a443 e43c a472 973c d827 9a3c
00000290: aa54 a7bc 809e 343a c9a6 4abd 612d fabb
000002a0: f2ed 88bb ca4a 1e3d 663d c0bc 5e46 443a
000002b0: e2d3 033c 498e ccbb 81a8 493d f679 573c
000002c0: 20dc d5bc 9282 d0bc e8d0 393d 851f 313d
000002d0: c1cf 143d 2dc2 303d a80e 14bc 0c60 cbbc
000002e0: d4aa b9bc 5efc 87bc 10dc f03c 6c79 c8bc
000002f0: 5925 3bbd e05c b2ba c062 08bc d08e a23c
00000300: 6115 263c 8553 50bd 210b 0abd b4aa 483d
00000310: e872 0aba 27bc a93d afe3 363d f2ad 873c
00000320: bf2f 92bc 2b44 d63b 1dc5 d4bc b3d9 4b3d
00000330: 5aa7 253d 70ca 9fbc 39b7 3c3d ca82 9fbc
00000340: 6429 503d 36a2 973c 3a0d 673d b73d 9a3a
00000350: 9556 203a 4ece 12bd b6ad 163c 873b ddbc
00000360: dd29 d43c 78c3 a83d c928 23bd b070 bc3b
00000370: 0504 fd3c f75d 1fbd a7e6 b63c 2a08 143d
00000380: f6b2 72bb 09a8 edbc 877f a0bc 2351 a33b
00000390: b4eb e1bc 4255 dc3c aab6 4a3c 7533 943c
000003a0: 8e07 dc3c 7788 87ba 0963 913c b5e5 593b
000003b0: 7755 fe3c e995 8ebd e4a6 bb3c 7d77 6fbd
000003c0: d954 6839 08d4 70bb 63a0 a03c 895f b6bc
000003d0: 1dde fcbc 0982 1c3b d833 6d3c 98df b53b
000003e0: ceff 663c 3b0e d63b 91b4 40bd 20cd 803b
000003f0: f7d3 6f3b d5cd ffbc 2951 6abd 330b 323d
-0.0008645274 0.0153960725 0.03672051 0.02435117 -0.03784273 -0.018016215 -0.03031209 -0.055351913
-0.019818518 0.07007846 0.003937161 0.024510173 -0.023785736 -0.019318633 -0.020982161 0.05258098
-0.013747328 0.010447761 -0.021170191 0.028329069 -0.016234776 -0.019853637 -0.04060666 -0.02114883
0.020208905 0.012684681 -0.0031046888 0.04908522 -0.05661119 0.01248993 0.0027524556 0.044395275
-0.049371436 0.019808294 0.017010681 0.075103186 0.023407245 -0.016473731 -0.04749032 0.015908867
0.03825153 0.008985853 0.024491817 0.023749432 -0.015023716 -0.030133294 -0.023902114 0.016827699
-0.006989806 -0.0053039393 0.04061364 -0.02370417 0.011926085 0.041093614 -0.06579319 0.016105235
-0.007508937 0.009713025 0.04604996 -0.0042303167 -0.047116153 0.032907505 0.022200933 -0.019594144
0.061859578 -0.013305706 0.044611976 -0.057378963 0.017170848 0.02503473 0.025288861 -0.014654931
-0.004841475 -0.02362299 0.012298654 0.044066876 0.02157933 0.0021900244 -0.006465622 8.413167e-05
-0.025640758 0.019153712 0.040226165 -0.005100377 0.060189445 -0.05719695 0.052162744 0.009043324
0.020777129 0.003441083 -0.023337765 0.05133691 0.031008564 0.0038313002 -0.059454028 -0.04121869
-0.026292844 -0.0148717845 -0.001408255 0.058517884 -0.015028078 0.014304031 -0.010980823 -0.007245528
0.001311766 -0.0378294 0.007038742 0.025345968 0.0023813408 -0.02283941 0.07275705 -0.021893784
-0.03139684 -0.025954627 0.01734923 0.019675314 -0.017922144 -0.020460201 -0.019631896 0.037472475
-0.010389698 0.019512173 -0.002078607 -0.02515655 -0.065366045 0.0010128982 -0.064864576 0.004578992
-0.051993556 0.0044037355 -0.03914256 0.008836443 -0.057889376 -0.00039774048 -0.028884448 0.0012850175
-0.01738693 -0.006781 0.032511245 0.03188354 -0.07489789 0.039021138 0.032503936 -0.012213932
0.034106717 -0.014987037 0.047215685 0.07045901 0.03444075 -0.045627356 -0.062591225 0.023753101
0.05010576 0.005297844 -0.028510889 0.03643838 0.042457666 -0.016449904 0.0073750885 0.013892794
0.04628155 0.027864285 0.018487282 0.018817827 -0.020426113 0.00068900734 -0.049475465 -0.007634804
-0.004178756 0.038645543 -0.023466777 0.0007487292 0.008046122 -0.0062425476 0.049232963 0.013151636
-0.02610594 -0.025452886 0.045365244 0.04324295 0.036330942 0.04315393 -0.009036697 -0.024826072
-0.022664465 -0.01659983 0.029401809 -0.024471961 -0.045689914 -0.0013608001 -0.008324325 0.019843489
0.010136933 -0.0508609 -0.03370202 0.04899092 -0.00052814046 0.0828784 0.04465073 0.016562436
-0.017845033 0.006538888 -0.025972897 0.04976816 0.040442802 -0.01950571 0.046073172 -0.019471545
0.050820723 0.018509965 0.0564091 0.001176766 0.00061164174 -0.03584128 0.009196689 -0.027005924
0.025898868 0.08240408 -0.039833818 0.005750738 0.030885706 -0.03890797 0.02232678 0.0361406
-0.0037032939 -0.02901079 -0.01959206 0.0049840375 -0.027578212 0.026896123 0.012372652 0.018090943
0.026859071 -0.0010340352 0.017747419 0.0033248488 0.031046612 -0.06962187 0.022906728 -0.058463562
0.00022156852 -0.0036747474 0.019607728 -0.022262352 -0.03086763 0.0023881218 0.014477693 0.005550336
0.0140990745 0.006532458 -0.0470472 0.003930703 0.0036594847 -0.031226078 -0.057206307 0.04346771

basis_comm_weights f4 [1, 5]
00000000: 77e3 8c3e f32f ff3e 9b00 f93e 4e87 aa3e
00000010: d265 1d3e
0.27517292 0.4984127 0.48633274 0.33306354 0.15370873

bias f4 [16, 768]
00000000: 5092 573c 0590 70bd 54fd e5bc 101d bb3c
00000010: 921e 473b b8b5 683d dbc9 95bc e595 9a3b
00000020: bbc0 9b3c 0c15 3fbc 371e 06bd e475 f53c
00000030: 3c42 ec3b c7b5 f0bb ac1b 163a 413b 47b9
00000040: cb4f d8bc 3b45 133d 578c 983c fa4a 243c
00000050: b7f7 75bb 73c9 2b3a d801 3bbd 8f5c 06bd
00000060: 7605 a5bc cbd5 9ebd 620d 9ebd 3e16 b3bc
00000070: 3b78 203c db39 233d ac16 033c b839 46bc
00000080: 76d1 40bc 7db6 75bb 52b2 2abd e15e d33c
00000090: 68a5 bc3c c906 adbc 0744 2d3c f3bb afbc
000000a0: bc46 0b3d 8430 363d 161b 883d bcb0 c839
000000b0: 9774 cd3c a1c5 353d 69fc 603c c0ad ea3b
000000c0: dfab a33c af51 2b3c c436 04bc b8db 53bd
000000d0: 8d4e 28bd fea6 33bd fed4 64bc 72bb 023d
000000e0: f0b4 8bbc 544b 8dbd f894 bc3b 9418 563d
000000f0: 628a 67bd 31e6 c63a d37f b2bc 730b c73c
00000100: 34a4 32ba c9ee 12bd 49f9 503c c76e 2a3c
00000110: 7e76 f83b d6e8 e73c 521c 43bd 8feb 5dbd
00000120: 4050 163d 6cff 19bd ca0e abbc 08d3 e1bb
00000130: d9bc 1bbd 6ee0 803c ab4b cdbc bc33 be3c
00000140: a5d5 353c 117a 8ebb 2b09 b8bb a2da dd3b
00000150: bcb1 993b ad62 f13b 13a7 52ba d486 053d
00000160: 091e c63c 7a5c 503c 18bf 463c be13 5f3d
00000170: 1d15 b5bc 146f 26bd 30c8 803d d7bd 2c3d
00000180: 0e45 b13c 0b84 713a 03bf b0b9 9329 82bc
00000190: 3eb7 133d 9547 62bd 3482 a2bc 5908 5bbc
000001a0: 80c7 dfbc 51d3 e33b 923d cc3b 6d78 8d3c
000001b0: 28cc c33c 5af7 583b aa42 503b 8f0a efbc
000001c0: 9010 b03c 01e1 833c f514 0e3d dc32 77bb
000001d0: 1462 9f3c 6a9c 873d 8f3e b1bd 7524 4fbd
000001e0: ef9c b73c 4e48 023c 8a1e 8b3d 7825 c7bc
000001f0: 2967 8cbd fb60 cfbb 19cd 523d e6d9 5d3d
00000200: 874b 443d 21f8 a6bb 3107 cb3b 7554 953c
00000210: 32c1 903c 2b29 90bb bd87 003d 010d 5b3c
00000220: 4bda f63c ec7b edbc 38ae be3c 9ca6 113d
00000230: 86aa 18bd cc17 7c3c 6de6 ecba ce8f 89bc
00000240: 0207 333c 3609 52bc 9393 4b3d be1f 003d
00000250: 3224 e33b a3d3 90bc c547 233d 5914 58bc
00000260: 67f2 4c3d 13b4 bbbc eb7a e5bc caf9 2b3d
00000270: d39d 263d 1d71 15bc 9748 9d38 f5c3 2e3d
00000280: 6042 f3bb abc8 7ebc 9af0 843b b43f ac3d
00000290: b37c 323d d14d 92bc fafc 98bd f210 da3c
000002a0: 2350 cbbc ef94 5c3d b0a6 bd3c 2959 a73c
000002b0: 4f29 723d 7742 af3c 899e efbb f1c2 223d
000002c0: 0d09 4e3c 7a43 49bd f3cf 9f3c e104 873c
000002d0: 4bd1 803d 021e 3c3c e940 0c3d 046a edbb
000002e0: 2a36 4e3d bda0 e9b8 2d06 443a 8db1 b53c
000002f0: e714 ccbc c26a f03b 664c 4ebc 2cc6 99bd
00000300: fe68 863d a6f7 afbd f2c0 f4bc 7171 14bd
00000310: fc03 30bb 6880 9ebc a0b6 e33b b7ae 33bc
00000320: f67e 903c d8af 17bd c691 3a3c ca15 3cbd
00000330: 2149 373c 8a57 44bd 99c0 6d3c 6ce5 203c
00000340: 51f6 efbc ba0e 853d 00ec 103d b65d aaba
00000350: c236 c5bc ec8e f2bc 26df 3e3d c84f 79bd
00000360: 3992 3d3b 7550 173c 05ca 37bd 1328 40bd
00000370: 1598 1a3d 87a3 51bd fb47 b4bb 1891 e33c
00000380: a186 c23a e331 67bd 2ece 163b 3aa1 8b3b
00000390: 1a60 9cbb 77bf a4b9 1a71 eb3c 7bcf 23bd
000003a0: 266c 923c 9c9a 62bc eb9f 5ebc 8783 e23b
000003b0: ff23 13bc 2be6 a5bc 2066 ae3c 0add b43c
000003c0: d83d 8b3c 14eb 15bd 7294 babc 61cc 983c
000003d0: 17ad a93c ae78 8f3c b852 9f3a cf6a d93b
000003e0: 9238 8bbd c02b 553c 1d86 85bd e855 843c
000003f0: 0df8 8cbd 6d9c 203d 3995 263d ba5f 3cbc
0.013157442 -0.058731098 -0.028074898 0.022841007 0.0030383212 0.056813926 -0.018284729 0.004717576
0.0190128 -0.011662733 -0.03274366 0.029963441 0.007210044 -0.0073458883 0.00057261693 -0.00019000193
-0.026405236 0.035954695 0.018621607 0.010027641 -0.0037531683 0.00065531506 -0.045656055 -0.032803115
-0.020144206 -0.077556215 -0.07717396 -0.021861192 0.00979429 0.039850097 0.008001011 -0.012098722
-0.011768689 -0.0037492805 -0.041673966 0.025802078 0.02302809 -0.0211214 0.010575301 -0.021451926
0.034003004 0.04447986 0.06645791 0.0003827865 0.025080008 0.044377927 0.013732054 0.007161826
0.019979415 0.010456487 -0.008069698 -0.051723212 -0.041090537 -0.043860428 -0.013966797 0.031917043
-0.017054051 -0.06899133 0.005755063 0.052269533 -0.056528457 0.0015174804 -0.021789467 0.024297452
-0.00068146293 -0.035872255 0.012754747 0.010402388 0.0075824847 0.028309267 -0.04763443 -0.054179724
0.036697626 -0.037597105 -0.020881075 -0.006891612 -0.038021896 0.015732016 -0.025060495 0.023218028
0.0110983 -0.0043480475 -0.0056163273 0.006770448 0.004690377 0.0073664994 -0.000803576 0.032599285
0.024184244 0.012717361 0.012130521 0.054462187 -0.022104794 -0.040633276 0.06288183 0.042173233
0.021639373 0.00092130963 -0.0003371165 -0.015888965 0.036063425 -0.055244047 -0.019837476 -0.013368689
-0.027316809 0.006952681 0.0062329257 0.017269338 0.02390106 0.0033106417 0.0031778016 -0.02917984
0.021492273 0.016098501 0.034687955 -0.0037719524 0.019455947 0.066216305 -0.0865451 -0.050571878
0.022413699 0.007951809 0.06792934 -0.024309859 -0.06855614 -0.0063286996 0.051465128 0.054162882
0.04792359 -0.0050954972 0.0061959256 0.018228749 0.017670248 -0.004399439 0.03137945 0.0133698
0.030133387 -0.028989755 0.023276433 0.03555928 -0.037272 0.015386533 -0.0018074043 -0.016792204
0.010926964 -0.012819579 0.049701285 0.03128027 0.006931805 -0.017679041 0.039863367 -0.013188445
0.05003586 -0.022913015 -0.028012713 0.041986264 0.040677857 -0.009121207 7.499864e-05 0.042667348
-0.007423684 -0.015550773 0.0040570023 0.08410588 0.043575954 -0.017859371 -0.074701265 0.026619408
-0.024818486 0.05385297 0.023150772 0.020428257 0.059121426 0.021393998 -0.0073126 0.03973669
0.0125754 -0.049136616 0.019508338 0.016481819 0.062899195 0.011481764 0.03424159 -0.007245304
0.050344624 -0.000111402456 0.0007477727 0.02217939 -0.02491231 0.0073369453 -0.012591457 -0.075085014
0.065629944 -0.08592157 -0.02987716 -0.036241 -0.0026857844 -0.019348338 0.006949261 -0.010966948
0.017638665 -0.037032932 0.011387294 -0.045919217 0.011186869 -0.047935046 0.014511251 0.009820323
-0.029292258 0.064969495 0.035381317 -0.0012997899 -0.024073962 -0.029609166 0.04659953 -0.0608671
0.0028926267 0.009235491 -0.044870395 -0.046913218 0.037742693 -0.051181342 -0.005501745 0.027779147
0.0014841148 -0.05644406 0.0023011076 0.004261163 -0.0047721984 -0.0003142317 0.028740454 -0.03999279
0.017873835 -0.013830807 -0.013587932 0.006912652 -0.00898075 -0.020251354 0.021288931 0.022078056
0.016997263 -0.03660114 -0.022775862 0.018652143 0.020712418 0.0175136 0.0012155389 0.006635047
-0.06797899 0.013010919 -0.06519721 0.016154245 -0.068832494 0.03921168 0.040669654 -0.011497432

weight f4 [768]
00000000: b4ed 683f 0fb1 663f 67ea 713f 7255 723f
00000010: c61f 773f 9b49 783f 34f7 7c3f fbb3 783f
00000020: 50a4 753f e9fd 6f3f 36ff 7e3f f5ba 8c3f
00000030: 2e5f 793f 92a2 6a3f 8d99 823f 7fe6 703f
00000040: 4781 743f a0b0 843f 2dc4 783f 4cde 7c3f
00000050: 8417 813f 32c6 7f3f f1fd 8c3f 5ffd 873f
00000060: 6861 853f acd9 5b3f a8fd 833f 8fe1 763f
00000070: e033 7d3f 721d 883f af90 813f 4ec1 7d3f
00000080: e8fc 813f b248 6e3f fe8f 713f e41d 773f
00000090: 3fdc 853f 6638 813f 49fc 773f de85 783f
000000a0: 20cb 893f dfad 843f 747e 953f b84f 6b3f
000000b0: 2ff5 7c3f dbc8 5a3f 6e31 673f 3b6e 6f3f
000000c0: d6c1 703f 1f8c 783f 41b9 6e3f ec8e 803f
000000d0: ee60 7b3f c158 533f 6de7 863f 6967 7e3f
000000e0: 3189 663f 2b76 7f3f 235b 823f a34d 813f
000000f0: 0abf 8c3f c050 7c3f 2ed0 6f3f ac6e 763f
00000100: d7e5 773f bd14 8b3f c133 853f 9564 763f
00000110: c173 7c3f 7416 893f 1352 843f d928 8a3f
00000120: 0b57 6e3f 4554 873f da68 793f 98d0 783f
00000130: 3802 853f c867 883f e0af 773f 7833 7c3f
00000140: 1637 7a3f bdb2 7d3f c5fa 703f 18e1 783f
00000150: 42fa 823f 140b 6a3f 9666 723f 3048 813f
00000160: 9b3e 883f 1b05 7e3f c80f 713f c29d 943f
00000170: 51a4 543f 4a0e 7f3f a4e7 493f 0576 683f
00000180: 0d99 6d3f a261 7b3f da56 803f b8b1 7d3f
00000190: 1d1a 6b3f 7e87 6d3f 87fa 7c3f 1182 823f
000001a0: 04a0 7e3f 9a29 803f 181a 7f3f 50de 803f
000001b0: a3d9 603f b953 723f b905 873f b935 863f
000001c0: 2137 6c3f cd4e 803f f668 853f 22a8 7a3f
000001d0: 7d59 6a3f a9c8 823f 2a59 903f 9ec0 633f
000001e0: 3030 7a3f 19b5 6e3f 82c7 803f c048 803f
000001f0: 22e0 8f3f 108f 713f b8a9 613f 2ae1 743f
00000200: bd0c 523f f0bb 6d3f c4ad 7b3f d40e 803f
00000210: dd6b 503f e423 7c3f 8dc2 753f ed34 733f
00000220: b90b 6d3f 249f 863f 60b6 853f c048 783f
00000230: da12 883f 1864 7f3f eec1 823f 8c93 723f
00000240: 61ff 833f d814 813f 1df2 8d3f 6260 883f
00000250: aedb 813f 69dd 763f b500 6c3f 0245 743f
00000260: 1342 8a3f b7f9 843f 5125 733f 4e7e 8a3f
00000270: b4ec 8c3f 37d8 6d3f 23a7 833f a72d 863f
00000280: 3ae2 783f 87c1 713f 68f5 773f 886c 943f
00000290: fb33 723f 67bf 7a3f d56f 913f 7a12 693f
000002a0: ec02 7e3f 7815 953f e3c1 7e3f 3163 743f
000002b0: a589 6b3f 3737 7e3f bea4 773f 8f32 863f
000002c0: cc69 7d3f d941 8c3f 8f94 843f 9412 883f
000002d0: 274f 913f 05a2 813f 9d32 6c3f 58f6 823f
000002e0: 89da 623f aeaa 7f3f 06a8 683f 6835 7f3f
000002f0: 8fb2 893f d60a 7b3f 1e12 683f d96b 8d3f
00000300: beba 7e3f cdeb 863f dc4c 8c3f 8828 6b3f
00000310: 05a6 803f 1bfa 753f 4950 843f 2b56 7b3f
00000320: 42f8 633f 00fc 803f 0782 713f 5485 613f
00000330: ba7c 7c3f bc24 8b3f 4cf2 823f 1a60 703f
00000340: 44df 703f 1c80 8b3f 66d0 863f 4037 753f
00000350: 6e58 793f 6521 8a3f b1bb 813f 5351 903f
00000360: d2c8 793f b016 813f dc65 893f 3f53 703f
00000370: e3ce 883f 6dc9 873f d643 723f 617f 8e3f
00000380: e103 6d3f d519 903f 4067 703f a309 803f
00000390: bd9e 743f c3c4 753f ab92 853f b0da 793f
000003a0: 3c7f 873f dcfb 743f e9c2 7a3f e5ed 843f
000003b0: f741 803f dfc4 823f 6ce3 7d3f f697 6e3f
000003c0: df01 733f 650d 673f 2f97 7d3f 3634 753f
000003d0: 8c2d 743f dc2a 6c3f ba1b 763f 7362 633f
000003e0: 66af 5b3f b4c1 853f c5f1 8d3f 4066 823f
000003f0: e011 8d3f 9d64 6f3f 8b2d 7a3f c008 7e3f
0.90987706 0.9011392 0.94498295 0.9466163 0.9653286 0.96987313 0.988147 0.9714963
0.95953846 0.9374681 0.9960817 1.0994555 0.9741086 0.9165431 1.020311 0.9410171
0.9550976 1.0366402 0.9717434 0.987767 1.0085301 0.999118 1.1014997 1.0624198
1.0420351 0.85879016 1.0311785 0.96437925 0.9890728 1.0633986 1.0122279 0.99123085
1.0155306 0.93079674 0.9436034 0.96529984 1.0457839 1.0095336 0.9686933 0.97079265
1.0765114 1.0365561 1.1679215 0.91918516 0.9881162 0.8546273 0.903098 0.93527573
0.9404577 0.9708881 0.93251425 1.0043616 0.9819478 0.825573 1.0539376 0.9937654
0.9005309 0.99789685 1.0184063 1.0101818 1.09958 0.98560715 0.9367703 0.9626262
0.9683508 1.0865704 1.0406419 0.96247226 0.98614126 1.0709977 1.0337547 1.0793716
0.9310157 1.0572592 0.97425616 0.9719329 1.0391302 1.0656672 0.9675274 0.98516035
0.97740304 0.9910086 0.94132644 0.97218466 1.0232623 0.91423154 0.94687784 1.0100155
1.0644106 0.9922654 0.94164705 1.1610644 0.83063227 0.9963118 0.7886908 0.90805084
0.9281166 0.9819585 1.0026505 0.990993 0.9183672 0.9278487 0.98819774 1.0195943
0.99462914 1.0012696 0.9964919 1.0067844 0.8783209 0.94659 1.0548621 1.0485145
0.9227162 1.0024048 1.0422657 0.979128 0.915428 1.0217487 1.1277211 0.88965786
0.9772978 0.93245083 1.0060885 1.0022202 1.1240275 0.9435892 0.88149595 0.95656073
0.8205069 0.92864895 0.9831202 1.0004525 0.81414586 0.98492265 0.95999986 0.95002633
0.9259601 1.0517316 1.0446281 0.9698601 1.0630753 0.99762106 1.0215433 0.9475639
1.031231 1.0084486 1.1089512 1.0654414 1.0145166 0.96431595 0.9218858 0.954178
1.0801414 1.0388707 0.94978815 1.0819795 1.1009736 0.9290804 1.0285381 1.0482682
0.97220194 0.94435924 0.96858835 1.1595621 0.94610566 0.97948307 1.1362253 0.9104382
0.9922321 1.1647177 0.995146 0.95463854 0.92006904 0.99303 0.9673575 1.0484179
0.9898956 1.0957595 1.0357836 1.063067 1.135228 1.012757 0.9226473 1.0231428
0.8861471 0.9986981 0.90881383 0.99690866 1.0757617 0.9806341 0.90652645 1.1048537
0.99503696 1.0540711 1.0960956 0.9185872 1.0050665 0.96084756 1.0337001 0.98178357
0.89050686 1.0076904 0.9433903 0.8809407 0.9862782 1.0870585 1.0230193 0.9389664
0.94090676 1.0898471 1.0532348 0.9578743 0.9740056 1.0791441 1.0135404 1.1274818
0.9757205 1.0085049 1.073421 0.93877023 1.0688137 1.0608345 0.9463476 1.1132623
0.92584044 1.1257883 0.93907547 1.0002941 0.95554715 0.9600336 1.0435385 0.97599316
1.0585704 0.95696807 0.9795366 1.03851 1.0020131 1.021633 0.99175143 0.93200624
0.9492473 0.90254813 0.9905881 0.9578279 0.95382 0.922529 0.9613606 0.88822097
0.8581451 1.0449739 1.1089407 1.0187454 1.102108 0.935129 0.97725743 0.992321

bias f4 [768]
00000000: 970b 5f3c 53b9 f1bd 2362 9fbd 4a4f bf3c
00000010: 7b89 0d3c a2b2 cb3d b26d 07bc 0650 8b3c
00000020: 67e4 ad3c e14f 15bd bb48 97bd f207 023e
00000030: 332a ac3b 84be 55bc e024 40bc a41d 31bd
00000040: 8a9f a1bd f570 883d ba64 213d c341 64bc
00000050: 8499 03bd 6f15 b13b 5b96 b0bd 525c 8cbd
00000060: 12ce 66bd 601d 11be b7f0 0dbe 267b 063b
00000070: 5d9c 12bc 143e 313d 7512 643c 5195 2fbb
00000080: dc80 33bd 6caf 91bc 2053 a7bd 0246 5a3d
00000090: 5bb9 7c3d 09d3 23bd 3ba5 633c d058 a9bc
000000a0: 0fa9 a73d e381 cb3d 91cc 113e c980 703c
000000b0: 8078 b53c 8855 b13d 9768 c33c fb33 3b3c
000000c0: 0d70 1e3d 09ce 533d 0661 51bb 0019 e9bd
000000d0: 6fac a4bd 8f67 9ebd 4bc4 4abd 621e ea3d
000000e0: 0342 23bd 1b8c bebd 99aa c23c ec11 ba3d
000000f0: a80b cdbd 469c b5ba c5a6 57bd 2af0 633d
00000100: 4552 fabb d9da 97bd f56f 6e3d d655 ea3c
00000110: 8e35 ad3c ddd4 a03d 4f9e d0bd cffc b7bd
00000120: be93 c43d 8c70 9ebd 76b7 efbc 5321 2bbc
00000130: 5150 ecbd 504d 123d 016e 64bd 7ef0 453d
00000140: b2df 0d3c bdda 3abb 92ca af3c d078 4d3b
00000150: 27e7 2e3c d575 aa3c 789a 91bc a971 da3d
00000160: 081f a73d 01c1 d43c 6c99 013d bb6d 053e
00000170: 2247 39bd 3c63 11bd 2e01 f73d f898 4a3d
00000180: 6692 443d 7407 1a3b 3f28 7c3c 4bcc 8bbc
00000190: da39 933d 8218 cebd 3bc0 dbbc 1b11 12bd
000001a0: 2384 45bd d15d ce3c a375 a13c 899b a83c
000001b0: 4903 6c3d 4a86 663a 12f5 1f3d 38c7 92bd
000001c0: d62e f33c 1d74 793c 6a57 813d 3b96 3cbb
000001d0: 6546 743d b898 fc3d 2856 21be bff3 bbbd
000001e0: c858 213d c089 963c 583e 143e 6064 b2bb
000001f0: abc6 0abe b8f0 d6bc 5925 c93d 9f93 d03d
00000200: 0990 1c3e 77a5 4a3d b709 903b 5adc 583d
00000210: 4a05 983c 57d2 b5bc 5471 703d 9c1f 683d
00000220: d5eb 543d b717 8dbd 8bf6 243d cc8b ea3d
00000230: 798b 8bbd fe60 9a3a 485c d6bc 47cf 02bd
00000240: 4103 eb3c 7703 20bc f1cc e23d 7fb1 8c3d
00000250: db15 ef3c 8615 fa3c bd3c d43d 9637 4ebc
00000260: 80a2 a03d 3ce5 353b c3d0 fdbd b0fb c83d
00000270: 785d de3d d069 2bbd 7b7a 22bc 15d2 bc3d
00000280: 7d56 a2bc 65cd fbbc 3060 37bc ed3b 2c3e
00000290: dee6 a03d 094d 1dbd b303 febd 92c7 713d
000002a0: 1b24 62bc 15d7 273e 8a6a 843c 300d cc3c
000002b0: da81 d43d 4c6a 0d3d 1845 b53b 347d 5b3d
000002c0: 9220 413c 3ef6 dfbd bf27 373d 9880 703d
000002d0: bcb1 113e 8e6b 913c 7924 523d c2e7 a0bc
000002e0: 50c6 933d 1cc0 87bb e7d0 e3bb 8cca 193d
000002f0: b628 b7bd 7f0f 353c e0ae 82bc 65c0 23be
00000300: 222b 063e ec68 2dbe a434 d3bd a9bb 9dbd
00000310: ac88 28bc 0f55 d8bc 78c6 203d 1156 fdbc
00000320: 40fc 813c e991 2dbd 1f00 5c3c 3b92 c4bd
00000330: 747e b73c 7b94 06be c25c c63c fc39 ff3c
00000340: ef93 bdbc 2afc c53d eebc 683d 96de 48bc
00000350: a73f f3bc 512c 7dbd 91f4 a53d 1698 06be
00000360: d6db 8ebc 055a ef3c efcb 98bd 04a2 c4bd
00000370: 35c6 873d 2c68 fbbd d40e b1bb 5649 873d
00000380: 5ebd e83a 134c f5bd 7a4d 8fbc b2ca 8a3b
00000390: 78f8 73bc 4b59 173b 8427 513d f5cd 49bd
000003a0: c5a4 173d 5036 60bc 7cd6 493b 1842 0cbc
000003b0: 78eb 12bc e44a 18bd f369 003d 4b89 743d
000003c0: a917 a73c 5f4c 56bd e085 a3bc 9fe5 233d
000003d0: 0c30 9b3d 2521 3f3d 6adb 89bc 3605 0d3c
000003e0: b52c 2abe f24a 3d3c 7848 f6bd 3274 283d
000003f0: cd38 04be 9a38 a53d c86e 2b3d 3e24 f1bb
0.013613603 -0.11802926 -0.0778239 0.023353238 0.008638735 0.09946181 -0.0082658995 0.017005932
0.021227075 -0.03645313 -0.07386919 0.12698343 0.005254054 -0.013045911 -0.011727542 -0.043241158
-0.07891758 0.0666217 0.0394027 -0.013931694 -0.032128826 0.0054041664 -0.08622428 -0.06853546
-0.056348868 -0.14171362 -0.13861357 0.002052018 -0.008948413 0.043272093 0.013920416 -0.002679188
-0.04382406 -0.017783843 -0.08170152 0.05328942 0.061700206 -0.03999618 0.0138943745 -0.020672232
0.08186542 0.09936883 0.14238192 0.014679142 0.022152185 0.08658892 0.023853583 0.011425967
0.03868108 0.051710162 -0.00319487 -0.113817215 -0.080407016 -0.07734596 -0.049503606 0.11431576
-0.039857876 -0.09304067 0.023762988 0.090854496 -0.10011989 -0.0013855777 -0.05264928 0.05564896
-0.007639202 -0.07414789 0.05821224 0.028605383 0.0211437 0.078531004 -0.10186445 -0.08983766
0.09598492 -0.0773631 -0.029262286 -0.010444957 -0.11538757 0.035718262 -0.05576897 0.048325054
0.00865929 -0.0028511726 0.021458898 0.0031352527 0.010675228 0.02080814 -0.017773852 0.1066621
0.081602156 0.025970938 0.031640455 0.1303014 -0.045233853 -0.035495028 0.12060772 0.04946229
0.04799118 0.0023502978 0.015390455 -0.017065188 0.07188769 -0.10063268 -0.026825061 -0.035660844
-0.04822172 0.02519122 0.019709414 0.020581977 0.05762032 0.00087938143 0.039052077 -0.07166904
0.029685419 0.0152254375 0.06315501 -0.0028776068 0.059637446 0.12333816 -0.15755522 -0.0917735
0.03939131 0.018376231 0.14476907 -0.0054440945 -0.13552348 -0.02623783 0.098215766 0.101844065
0.1528932 0.049474206 0.0043956893 0.05294452 0.01855721 -0.022195024 0.058701828 0.05667077
0.05198272 -0.06889289 0.040274184 0.114524454 -0.06813712 0.0011778174 -0.02616705 -0.031935956
0.028688075 -0.009766451 0.11074246 0.06869792 0.029185226 0.030527841 0.103631474 -0.012586495
0.078434944 0.0027755043 -0.12393334 0.098136306 0.108576715 -0.041848958 -0.009916897 0.092197575
-0.019816631 -0.030737588 -0.0111923665 0.16819735 0.078565344 -0.038403545 -0.12403049 0.059028216
-0.0138025535 0.16390641 0.016164083 0.024908632 0.1037633 0.0345252 0.0055319183 0.0535862
0.0117875505 -0.10935639 0.04471564 0.058716387 0.14227957 0.017751481 0.051304314 -0.01964176
0.072155595 -0.0041427743 -0.0069523933 0.03754668 -0.08943312 0.011051058 -0.015952528 -0.15991361
0.13102391 -0.16934556 -0.10312775 -0.07701809 -0.010286491 -0.026407747 0.039251775 -0.030924829
0.015867352 -0.04237548 0.013427763 -0.09598204 0.022399165 -0.13142578 0.024214152 0.031155579
-0.02314183 0.09667237 0.056820802 -0.0122601 -0.029693438 -0.06180984 0.08103288 -0.13143954
-0.01743881 0.02921773 -0.07460772 -0.096012145 0.06629602 -0.122757286 -0.005403379 0.066057846
0.0017756631 -0.11977401 -0.017492998 0.004235589 -0.014890783 0.0023093994 0.051063076 -0.04926868
0.03702237 -0.013684824 0.0030798009 -0.00856068 -0.008967273 -0.037180796 0.03135104 0.059701245
0.020397024 -0.052318927 -0.019961298 0.040013906 0.075775236 0.04666247 -0.016828258 0.008607199
-0.16618617 0.011553513 -0.12025541 0.041126437 -0.12912293 0.080674365 0.041853696 -0.0073590567

weight f4 [768]
00000000: f800 733f 9014 853f 0457 7d3f 9486 6c3f
00000010: eec3 9c3f a738 763f 73ce 893f ab9e 6a3f
00000020: 6d7a 5c3f bc5f 983f 785d 773f 871b 813f
00000030: c748 6f3f 10cc 713f 2e24 853f f558 713f
00000040: 60ca 813f f899 893f e0cd 823f 3ca4 6f3f
00000050: 9dd6 863f 07fc 5f3f 6a83 533f 9f0b 873f
00000060: 2fc9 713f cb7e 6c3f b9eb 7e3f 9709 7c3f
00000070: b133 793f e63f 783f 8f3e 703f c25a 953f
00000080: a735 793f c577 833f 46f2 7e3f c71a 803f
00000090: ab30 6e3f 969f 873f 82ec 6c3f d205 633f
000000a0: cd67 873f 772a 783f 8e97 773f 7e93 813f
000000b0: 4c82 793f a51d 823f ba27 863f 6d12 883f
000000c0: c8b8 7b3f e1e8 843f 9aa0 833f 4151 803f
000000d0: e877 813f e067 8d3f 5c5a 783f a8d9 753f
000000e0: c468 853f 7f6b 833f 781c 743f 7623 853f
000000f0: eeca 663f 2e04 803f ef79 893f c7b5 793f
00000100: 4799 893f ddc3 763f f940 753f 8735 4e3f
00000110: 7559 833f 050b 8a3f 108d 783f 1023 703f
00000120: e628 7c3f 861f 6f3f b422 8a3f babc 753f
00000130: 489c 743f 7ede 7c3f 0888 6d3f f11e 7d3f
00000140: b2ff 623f 42c9 6d3f 0988 7b3f d90d 943f
00000150: 7be3 7e3f 6c84 923f ba4c 573f 6ce7 7d3f
00000160: 0cfe 793f ab3b 7f3f fa67 753f 1a95 863f
00000170: baa8 893f b419 833f 3df9 663f fcef 803f
00000180: fef9 6b3f 539b 4f3f c0f6 7b3f 71b9 943f
00000190: 606b 8c3f ec1f 873f 3a0e 7c3f 4775 733f
000001a0: 56d5 6f3f 1287 733f 1a2f 6d3f dda6 833f
000001b0: e501 873f b74d 643f 5d32 673f 701c 933f
000001c0: 832a 823f 61f2 7f3f 9633 903f 4739 803f
000001d0: 3fcb 6a3f fb5f 733f 622e 763f 3732 853f
000001e0: 9ba4 7d3f 010b 843f e1ac 733f e750 893f
000001f0: 3ee1 7f3f 5ce6 813f beb4 a33f 6a75 723f
00000200: 4c01 6b3f cc09 7a3f 1bbc 803f 7ca8 883f
00000210: d38e 523f e2fd 6b3f 8120 783f 19be 823f
00000220: 0e50 6b3f 259b 773f a8fd 863f 4fdd 643f
00000230: 528e 723f 1d70 773f da42 783f 82e5 773f
00000240: 6021 6b3f 1369 783f b4ae 813f b651 6b3f
00000250: 17e2 7f3f 23f1 823f 8298 813f f574 7e3f
00000260: 07f5 7b3f 9a6b 7e3f 4678 803f c8e6 663f
00000270: 9bd4 853f 30b9 7a3f 8b9b 783f 6198 843f
00000280: 86f6 6c3f c855 893f a0a9 763f 95ae 833f
00000290: 8746 723f 746c 7c3f 559d 603f 6daa 663f
000002a0: 68c9 873f f7ad 893f c917 663f f8ad 693f
000002b0: f193 843f a70e 863f 537e 8f3f 1e06 853f
000002c0: 0594 633f 049e 773f 6b83 583f a253 963f
000002d0: bd7d 853f 6d42 883f d090 7c3f 079c 7e3f
000002e0: b411 853f 4405 823f 7ce7 7d3f eeb2 753f
000002f0: 52eb 693f cec4 673f 0434 6a3f ea2b 743f
00000300: 3941 873f af30 7b3f 8b34 5e3f 8f6c 6d3f
00000310: bb14 773f 1b00 793f de4e 6f3f 3a5a 7d3f
00000320: 51db 6c3f 4a1c 8d3f ea59 8c3f 0d60 6b3f
00000330: 4b4c 863f d5aa 8b3f 3050 683f 483d 803f
00000340: ad47 813f 7da6 6f3f 107a 5f3f 12e4 783f
00000350: 8dac 753f a53a 7a3f 6e63 7f3f b20b 7f3f
00000360: 966b 823f 9e31 843f cd93 873f 6403 823f
00000370: 6a5c 653f 76a4 853f 1642 613f 01b7 5e3f
00000380: fb09 803f f92c 733f 4b65 833f f588 8d3f
00000390: 3267 893f df70 713f 7bcd 7e3f c35b 7f3f
000003a0: 2344 873f 144d 653f b8d7 8b3f 8d2e 783f
000003b0: 2e80 723f 3d93 643f ccfd 883f c48d 813f
000003c0: 5885 7b3f 499e 763f 6943 743f b7fa 793f
000003d0: 8f3f 723f 525b 6a3f 0616 7a3f ef39 853f
000003e0: 1a47 583f 33b3 693f ee91 8a3f 9e3b 543f
000003f0: 9754 7a3f bd34 783f d9de 613f 345b 803f
0.94923353 1.03969 0.989609 0.9239285 1.2247293 0.96180195 1.0766128 0.9164836
0.86124307 1.1904216 0.96626997 1.0086526 0.93470424 0.94452 1.0401666 0.9427636
1.0139885 1.0750113 1.0219078 0.93609977 1.0534245 0.8749394 0.82622397 1.0550421
0.94447607 0.9238097 0.99578434 0.9845213 0.973445 0.969725 0.93845457 1.1668322
0.9734749 1.0270926 0.9958843 1.0008172 0.9304301 1.0595577 0.9254838 0.88680756
1.0578552 0.96939796 0.9671563 1.0123136 0.9746444 1.0165297 1.0480874 1.0630623
0.9832883 1.0383569 1.0283387 1.0024797 1.0114717 1.1047325 0.9701288 0.9603524
1.0422597 1.026718 0.9535594 1.0401447 0.90153396 1.0001276 1.0740336 0.97542995
1.0749902 0.96392614 0.95802265 0.80550426 1.0261675 1.0784613 0.97090244 0.938035
0.98499906 0.93407476 1.079184 0.959911 0.95550966 0.98776996 0.9278569 0.9887534
0.8867141 0.9288522 0.9825445 1.1566726 0.9956586 1.1446662 0.8410145 0.99181247
0.9765327 0.9970042 0.9586178 1.0514252 1.0754616 1.0242219 0.9022406 1.0073237
0.9217833 0.8109638 0.98423386 1.1619092 1.0970268 1.0556617 0.9845921 0.95100826
0.936849 0.95127976 0.92649996 1.0285298 1.0547453 0.89181083 0.90311223 1.1493053
1.0169224 0.99979216 1.1265743 1.001748 0.9171638 0.9506833 0.96164525 1.0405949
0.99079293 1.0315858 0.9518567 1.0727814 0.9995307 1.0148425 1.2789533 0.9471041
0.91798854 0.976712 1.0057405 1.0676417 0.8224918 0.9218427 0.969246 1.0214263
0.9191903 0.96721107 1.054616 0.8940019 0.94748414 0.96655446 0.9697701 0.96834576
0.918478 0.9703533 1.013144 0.91921556 0.9995436 1.0229839 1.0124667 0.9939721
0.9842076 0.99382937 1.0036705 0.90195894 1.0455507 0.97938824 0.9711234 1.0359002
0.92563665 1.0729303 0.9635258 1.0287653 0.94638866 0.98602986 0.8774007 0.901038
1.0608339 1.0756215 0.89880043 0.9128108 1.0357648 1.0473222 1.1210426 1.0392492
0.88897735 0.9672549 0.8457553 1.1744273 1.0428997 1.0645272 0.98658466 0.9945683
1.0396028 1.0157857 0.9918134 0.9597615 0.91374695 0.90534675 0.9148562 0.9537951
1.0566779 0.9812116 0.86798924 0.9274377 0.9651601 0.97265786 0.93479717 0.989658
0.9252215 1.1024258 1.096494 0.91943437 1.0492033 1.0911509 0.90747356 1.0018702
1.0099999 0.93613416 0.8729563 0.9722301 0.95966417 0.97745734 0.9976109 0.9962722
1.0189083 1.0327642 1.059198 1.0157285 0.8959414 1.0440814 0.87991464 0.8699799
1.0003046 0.949905 1.0265287 1.1057421 1.0734618 0.9431285 0.9953229 0.9974939
1.0567669 0.89570737 1.0925207 0.9694603 0.94726837 0.8928717 1.0702453 1.0121388
0.9825034 0.96335274 0.9541536 0.97648185 0.9462823 0.91545594 0.97689855 1.0408305
0.8448349 0.9128906 1.0825784 0.8290347 0.97785324 0.9695547 0.88230664 1.0027833

bias f4 [768]
00000000: 1730 c5bc 9aea 5a3d 1bed 3dbd a402 d0bd
00000010: 00ce 40be b5fa 21bb ae1b a1bd 195b 3c3d
00000020: ceea 023e 9db5 163e 7443 6a3c a91e a7bb
00000030: 33f2 6f3c 1a8d 0bbc 5737 eabc 4303 21bc
00000040: 522d bebc e9b8 bc3d 852e 0cbd f4d8 82bd
00000050: 9a87 1d3d f096 1fbe f9ef 113e d4cc 49bd
00000060: bc0f fc3d 95ae 6ebd 52e0 07bc b412 eebc
00000070: ee75 d9ba 90ca 8b3d 0e92 69bd f4a0 263e
00000080: b36c 253d 30db 503c c95b be3c 3beb cbbd
00000090: efb5 7ebd a427 b6bd 4e05 bc3d 2196 73bd
000000a0: c140 6a3d fa68 fbbc 2a93 89bc 4167 26bd
000000b0: e821 213d f44d 803c 8ef6 9abd b0d7 0ebe
000000c0: 1528 4a3b d5fe a8bd 180f 6c3d 37e8 0b38
000000d0: de73 443d 3f7a a63d d181 d73c 377d 8abc
000000e0: a875 89bc 3942 1ebe d159 37bd b9e6 053e
000000f0: 80bf d73d ab65 793c f439 5c3e 0a02 9b3c
00000100: c382 d83d f4ce d33b 3fdd 61bd e830 2d3e
00000110: d57f ad3d 999a a33d 0eed c3bd ad0e 8a3d
00000120: 7560 c4bd 413c b03d 89c0 e83d 9a31 8cbd
00000130: 8467 d53d 2d2d b53d 408f 09be c25b a1bd
00000140: ed07 d23d d03a 5abd be80 92bc 04ae 1abe
00000150: cd06 fe3b 0685 2abe 1302 46be 5565 da3d
00000160: b3f0 97bc 938e d5bc 4cd2 f63c 6574 453d
00000170: 5daa 873d 0abc c3bd bb07 e13d 2e6a 2fbd
00000180: 22f0 823d 026b 4c3e 6801 8bbd b903 033e
00000190: 60d4 14be 7d14 b43d f3b7 65bc b468 cd3c
000001a0: 9f62 543d aa8e 023d 4b49 1bbd 3ccf f73c
000001b0: 1063 e5bd b334 593d 4df4 08bd 411a 4ebe
000001c0: b624 223c 0c4e 333c 0606 1c3e ad2f a93c
000001d0: 7e16 973d 1c4f 00be f008 043d f220 223d
000001e0: 1be9 d93d 3dcb b63d 2fe2 ca3d 6e8e 9ebd
000001f0: 1490 2cbc e842 b63d 5d32 85be 0218 d4bd
00000200: 5a27 963d 2d63 76bc f580 fdbc 69e9 a73d
00000210: 3455 223e 33ba 913d 7d80 b23d f77a 80bd
00000220: edce ad3d 9a96 a93d a68b 943d 9889 3dbe
00000230: 90ee 543d 10bb e9bc 091a f6bb c67d 5f3d
00000240: c15b 60bd 4ebc 0c3c 727c 03bc ff63 7ebd
00000250: 255e fcbc 929d 4bbd f02a 14bc e3e6 2c3d
00000260: 15ab e13c 272e 3bbd f573 c2bd be23 b3bd
00000270: 779b 683d 033d 55bd 195b 4cbd a010 903d
00000280: e7c3 7dbd a947 a13d a4f3 c2bc fe2e 2c3d
00000290: 0fde f73c 8b76 073c e8cc ac3d 06f8 db3d
000002a0: fe1b c0bd 74de c13d f3c0 f63d cedd 23be
000002b0: 7e39 81bd d0f1 8f3d acb8 573d e64f 413d
000002c0: af40 003e 932e 453d 486a 0fbe 0fc4 2d3e
000002d0: 3a80 fe3c d0da 8e3d e482 003d 02fd 073d
000002e0: 819b 17bd 65ee efbc fc2b 013e 94f8 42be
000002f0: e1bb ba3d cebc 03be 8028 3a3e 2264 e43c
00000300: 4844 d13d 38dd 9a3b 3f05 033e 847f 94bd
00000310: 13ef af3c 6878 8bbc 8b13 88bd 744d a03d
00000320: 2f34 a03d bfd6 5abe 5adb 0cbe fbf1 90bd
00000330: 401c 5b3d 1dad c4bd 4f52 bdbd e50c 37bd
00000340: 14b2 2f3d 5296 99bc 85c6 eebd e3ec 2f3d
00000350: 6856 42bd 3f49 153d eaa3 b5bd 1224 b6b9
00000360: f9b2 503d 8a36 483d f1e6 81bd 1095 ac3d
00000370: c8b8 d7bd c27c 8dbd 4c75 6ebd 5ec6 a4bd
00000380: df96 9b3c a1c1 083d 6fc9 1abd ade4 17be
00000390: 491f e1bd 24ee 94bc 11c1 c4bb 43a4 0abd
000003a0: f2d0 853d 7667 bfbd 86fc 053e 272f 5dbd
000003b0: 07d0 95bd fbb2 a93d d8e6 933d bb30 dcbc
000003c0: 1868 f03c 2ebd 8abd a57a 9fbc 3414 e33d
000003d0: 6e4c f9bd fa4f eebd debf 19bd f3ec 4c3c
000003e0: faf8 32be 328b 10bd 4508 b2bd dc26 5ebe
000003f0: b8a3 e1bc f001 023d 6a80 d73d 3297 a03a
-0.024070783 0.05344639 -0.0463687 -0.10156754 -0.18828583 -0.0024716083 -0.078666076 0.045985315
0.12784883 0.14717717 0.014298309 -0.0051000905 0.014645147 -0.008517528 -0.028590841 -0.009827438
-0.02321497 0.09214956 -0.034224052 -0.06389037 0.038459398 -0.15584922 0.14251699 -0.049267605
0.123076886 -0.058271963 -0.008293228 -0.029061653 -0.0016590932 0.06825745 -0.057024054 0.16272336
0.040386867 0.012747571 0.023237126 -0.09956976 -0.062185224 -0.088942796 0.09180699 -0.059469346
0.05719066 -0.030689705 -0.016793806 -0.040625814 0.039338976 0.015662171 -0.07566558 -0.13949466
0.0030846645 -0.0825173 0.057631582 3.335645e-05 0.047962062 0.08128785 0.026307018 -0.01690541
-0.016779736 -0.1545495 -0.04476339 0.13076295 0.105345726 0.015221993 0.21506482 0.01892187
0.10571816 0.0064638797 -0.055142637 0.16913188 0.08471648 0.079884715 -0.09566699 0.067410804
-0.0958871 0.086052425 0.11364848 -0.06845398 0.10420135 0.08846507 -0.13433552 -0.078788295
0.10255418 -0.053278744 -0.017883655 -0.15105444 0.0077522756 -0.16652307 -0.19336729 0.10663859
-0.018547392 -0.026068961 0.030129574 0.048206706 0.06624291 -0.0955735 0.109878026 -0.04282587
0.06393458 0.19962695 -0.067873776 0.12794389 -0.1453414 0.0879297 -0.014020908 0.02507434
0.051851865 0.031874336 -0.037911694 0.030250184 -0.11200535 0.053028774 -0.03343611 -0.20127203
0.009896448 0.010943901 0.15236673 0.020652616 0.07377337 -0.12530178 0.032235086 0.0395822
0.106401645 0.089254834 0.09906422 -0.0774201 -0.010532398 0.0889948 -0.26014987 -0.103561416
0.073317245 -0.015038294 -0.03094528 0.08198816 0.15852815 0.07115593 0.087159134 -0.06273454
0.084867336 0.08280678 0.07253198 -0.18509519 0.051985323 -0.028531581 -0.007510428 0.054563306
-0.054775003 0.008589817 -0.008025276 -0.062107082 -0.03080661 -0.049710818 -0.00904344 0.04221238
0.027547399 -0.04569831 -0.09494773 -0.08747052 0.056788888 -0.05206014 -0.049891565 0.07034421
-0.061954405 0.07874996 -0.023797818 0.042037003 0.030257253 0.008268009 0.0843752 0.10740666
-0.09380339 0.09466258 0.12048521 -0.1600258 -0.06309794 0.07028544 0.05266635 0.047195338
0.12524675 0.04814012 -0.14005387 0.16969322 0.031067003 0.06975329 0.031374827 0.03320027
-0.037013534 -0.02928848 0.12614435 -0.19040138 0.09117866 -0.12864992 0.18179512 0.027879778
0.10218102 0.0047260784 0.1279497 -0.07250884 0.021476304 -0.017025188 -0.066443525 0.07827273
0.07822453 -0.21370982 -0.13755551 -0.07077404 0.05349374 -0.09603331 -0.09244215 -0.04469003
0.042894438 -0.018748436 -0.11658958 0.042950522 -0.047445685 0.036446806 -0.08869155 -0.0003474062
0.05095193 0.048880138 -0.06342877 0.08426869 -0.10533291 -0.06908561 -0.05821733 -0.08045648
0.01899284 0.033387784 -0.03778976 -0.14833327 -0.10992295 -0.01817996 -0.0060044606 -0.03384806
0.06533994 -0.093459055 0.13084611 -0.054000046 -0.07315069 0.08286091 0.07221764 -0.026878705
0.02934651 -0.067743644 -0.019467661 0.11087838 -0.12172781 -0.11636348 -0.037536494 0.012507665
-0.1747779 -0.035288997 -0.086929835 -0.21694511 -0.027543887 0.03174013 0.1052254 0.0012252091
