subject-models/ada-delta/jaychou2023-05-27T14-43-50_jaychou-ada/embeddings_gs-4500.pt (torch, 943527 bytes, 172 tensors)

pre_vecs f4 [2, 768]
0	0xbcf0fd76	-0.029417735
1	0xbc8a2e1f	-0.016867695
2	0x3c9d8d1a	0.019232322
3	0x3c892766	0.01674242
4	0xbb5fb019	-0.0034132062
5	0x3bd4dc23	0.006495969
6	0xbcd86e9c	-0.02641993
7	0xba8078e7	-0.0009801657
8	0x3ba5fb7c	0.0050653797
9	0xbbe73166	-0.0070554493
10	0x3bb1ef04	0.005430104
11	0xbd041c22	-0.032253392
12	0xbbf89432	-0.0075860256
13	0xbcaef6f7	-0.021357996
14	0x3c5309bf	0.012880742
15	0x3d1ecc3b	0.038768988
16	0x3ba790dd	0.0051137046
17	0xbbe095e6	-0.006853807
18	0xbd408cae	-0.047009163
19	0x3ce3d97b	0.027813664
20	0xbb24f438	-0.002516998
21	0x3c5d0e8f	0.013492241
22	0x3c82b794	0.015956677
23	0xbcb2509d	-0.021766955
24	0xba65acdc	-0.0008761415
25	0xba4ce1d4	-0.00078156334
26	0x3be5e2fc	0.007015584
27	0x3ca16026	0.019699167
28	0xbc9faf7f	-0.019492863
29	0x3b849747	0.004046354
30	0x3c1e6a06	0.009668833
31	0x3ca91de2	0.020644132
32	0xbbdb5106	-0.0066930084
33	0x3c0b1d25	0.008490835
34	0xbb37146a	-0.0027935752
35	0x3d2297e3	0.03969563
36	0xbc179d14	-0.009253759
37	0x3c90f1fc	0.017693512
38	0xbd135f99	-0.03597984
39	0xbb41e6ea	-0.0029587098
40	0x3cd24dea	0.025671918
41	0xbc1d0d0c	-0.00958563
42	0xbbb2b860	-0.005454108
43	0xbbc6dce1	-0.0060688113
44	0x3c0b2fa6	0.008495247
45	0xbc832e39	-0.016013252
46	0xbafc807d	-0.0019264367
47	0xbc32cff0	-0.010913834
48	0xbcec9e93	-0.028884208
49	0xb9a2df99	-0.0003106564
50	0xbbc355c7	-0.005961153
51	0x3ccb18d6	0.024792116
52	0x3a54b84d	0.0008114621
53	0xbc3cfe57	-0.011535249
54	0xbd017425	-0.031604905
55	0xbbb9af3a	-0.0056666406
56	0x3ca17898	0.019710824
57	0x3bb8bc67	0.0056376937
58	0x3cc9787b	0.024593582
59	0xbc661956	-0.0140441265
60	0xbc34796c	-0.011015277
61	0x3bb8ccd0	0.00563965
62	0x3c5e41de	0.013565509
63	0xbc8ba279	-0.017045246
64	0xbc40ff31	-0.011779592
65	0x3b5802e9	0.003296072
66	0x3c414293	0.011795658
67	0x3c859169	0.016304689
68	0x3cdc91a7	0.026924921
69	0x3aa64f79	0.001268848
70	0xbb142b3f	-0.0022608784
71	0x3bf80240	0.0075686276
72	0xbc492cfa	-0.01227879
73	0x3b35da15	0.0027748395
74	0xbc0ed84c	-0.008718561
75	0x3c013b05	0.0078876065
76	0xbc74a060	-0.0149308145
77	0xbcca5359	-0.024697946
78	0x3b9ffe5f	0.0048826183
79	0xbac61af0	-0.0015114229
80	0xb9bea001	-0.00036358836
81	0x3c67729c	0.014126446
82	0x3c9b899b	0.018986514
83	0xbd191b12	-0.037379332
84	0xbc831b24	-0.016004153
85	0xbb8ba664	-0.0042617787
86	0xbbc15851	-0.0059004207
87	0x3cc0734f	0.023492483
88	0x3d143b64	0.03618945
89	0xbc8d8b75	-0.017278412
90	0x3a9aec6e	0.0011819729
91	0x3c70953b	0.014684017
92	0x3c69af3c	0.014262971
93	0xbc8c69f0	-0.017140359
94	0xbbe1588f	-0.006877012
95	0x3c8b2615	0.016985932
96	0x3b55a842	0.003260151
97	0x3be26f4e	0.006910241
98	0xbc0e4634	-0.00868373
99	0x3c6c7f46	0.014434641
100	0xbcc5023e	-0.02404892
101	0x3cccc39f	0.024995623
102	0x3b0d22f5	0.0021535729
103	0xbc493b20	-0.012282163
104	0xbcc9649a	-0.024584103
105	0xbb92c408	-0.004478935
106	0x3bcf60b3	0.006328666
107	0xbaf8d5e9	-0.0018984649
108	0xbbd45427	-0.0064797583
109	0xbd00d2cc	-0.03145103
110	0x3c9fe4c7	0.01951827
111	0xbba36285	-0.0049861097
112	0x3b7792a0	0.0037776604
113	0xbb9a8fd5	-0.004716853
114	0x3c6d9678	0.014501207
115	0xbc2e98eb	-0.010656576
116	0xbd1adb23	-0.03780664
117	0x3bbcbe51	0.005759992
118	0xbc86231b	-0.016374161
119	0x3c0deb77	0.008662096
120	0x3c48c60c	0.012254249
121	0x3a397b8d	0.00070756004
122	0x3c15ffe8	0.009155251
123	0xbc011485	-0.007878427
124	0xbd210d5d	-0.039319385
125	0xbc51c497	-0.012803218
126	0xbccf6878	-0.02531837
127	0xbcb0415f	-0.021515546
128	0xbb44275b	-0.0029930684
129	0xbcb56b07	-0.022145761
130	0xbb31ab29	-0.0027110076
131	0x3cda0eb8	0.026618347
132	0xbd023484	-0.031788364
133	0x3900536b	0.00012238107
134	0xbc3fa5b7	-0.011697224
135	0x3cb021d9	0.021500515
136	0x3a035b8a	0.0005010894
137	0xbd69aa1f	-0.057047006
138	0xbaf910c7	-0.0019002192
139	0xbc24d108	-0.010059603
140	0xbd3f030c	-0.046633765
141	0xbcaba3dc	-0.020952158
142	0xbc5a1a95	-0.013312002
143	0x3c043948	0.008070298
144	0x3bca2842	0.00616935
145	0xbb93a235	-0.0045054206
146	0x3c753dbd	0.014968333
147	0xbb7d3b2f	-0.0038640012
148	0x3b5366a9	0.0032257235
149	0x3ce49ec9	0.027907746
150	0x3cbcafbe	0.02303302
151	0x3c47db1c	0.012198236
152	0xbd29cb40	-0.0414536
153	0xbbc818fe	-0.006106495
154	0xbd0ff5d9	-0.035146568
155	0x3cc79727	0.024364067
156	0x3cd05bd7	0.025434418
157	0x3c2477f1	0.010038362
158	0xbc537926	-0.012907302
159	0xbc6cf6c9	-0.014463135
160	0x3c0baef7	0.008525602
161	0x3ceb6b5d	0.028737718
162	0x3d67013c	0.05639766
163	0x3d009e93	0.03140123
164	0x3bcf12f0	0.006319396
165	0xbcb2ed7b	-0.021841755
166	0xbcbf2041	-0.02333081
167	0xbcbef76e	-0.023311343
168	0x3c2f6884	0.010706071
169	0xb9cd21e0	-0.00039125886
170	0xba2db001	-0.0006625653
171	0xbc0da5b4	-0.008645464
172	0x3b8b73e3	0.004255758
173	0xba881527	-0.001038228
174	0x3c48b1e9	0.012249448
175	0x3c828fc0	0.015937686
176	0xbd078bd6	-0.033092342
177	0xbd125dd4	-0.035734013
178	0xbc6c352d	-0.014416975
179	0x3cbcd231	0.023049446
180	0xbd34a091	-0.04409844
181	0x3b8c42a1	0.0042804037
182	0x3d03f915	0.032219965
183	0xbc3ec20b	-0.011642943
184	0x3b77a8af	0.0037789752
185	0x3ba5f730	0.0050648674
186	0xbc21213a	-0.009834582
187	0x3c35d41c	0.011097934
188	0x3b3b1e5d	0.0028552033
189	0x3d052fc2	0.03251625
190	0x3a82bdcf	0.000997478
191	0x3c3cff4f	0.01153548
192	0x3c6b8ebc	0.014377292
193	0xbc81d1f6	-0.015847187
194	0xbbbc26a7	-0.0057419124
195	0x3c3aa546	0.011391943
196	0x3cd569db	0.026051452
197	0x3c98822b	0.018616756
198	0x3bca8b7f	0.00618118
199	0xbbc1f41a	-0.0059189918
200	0xbc117cd0	-0.008879855
201	0x3c3c296b	0.011484484
202	0xbc92e457	-0.017931147
203	0xbc878902	-0.016544823
204	0xbc969363	-0.018380826
205	0x3c3ef26e	0.011654479
206	0x3c62afcb	0.013835858
207	0xbad195ad	-0.0015990041
208	0x3ca105f9	0.019656168
209	0x3c9d29ab	0.019184908
210	0x3d39cac9	0.045359407
211	0xbc334773	-0.010942328
212	0x3c9b89e3	0.018986648
213	0xbbc7375c	-0.0060795974
214	0xbc910176	-0.017700892
215	0xbd058c9c	-0.0326048
216	0x3c9b2de2	0.018942777
217	0x3d513ff8	0.051086396
218	0x3bea1c5b	0.0071444935
219	0xbc42772d	-0.011869234
220	0x3c9753ac	0.018472515
221	0xbc6f94bc	-0.014622863
222	0xbcfb5382	-0.030679468
223	0x3bf08ac4	0.007340761
224	0xbbc7d0a7	-0.0060978713
225	0xbd10733e	-0.035266154
226	0x3b713079	0.0036802574
227	0x3b17f456	0.0023186407
228	0x3cc92520	0.024553835
229	0x3b9575d3	0.004561165
230	0x3d104ffe	0.035232536
231	0xbb3c467c	-0.0028728535
232	0xbbc874b7	-0.006117429
233	0xbd4bb247	-0.049730565
234	0x3d2aaed5	0.04167064
235	0xb9dc12ae	-0.00041975587
236	0x3c5cea38	0.0134835765
237	0xba172719	-0.0005766019
238	0x3d2322c4	0.039828077
239	0xbbc28abe	-0.0059369495
240	0x3c1e74cd	0.009671402
241	0x3b3c278c	0.0028710095
242	0xbc5e1cb5	-0.013556649
243	0x3d0901f1	0.033449117
244	0xbb9a3d61	-0.004707024
245	0xbc8b9f6d	-0.017043794
246	0xbbcbc53f	-0.006218582
247	0xbc708e9f	-0.014682441
248	0x3ce4b9c2	0.027920607
249	0x3cdf8ca8	0.02728875
250	0xbcb55ea1	-0.02213985
251	0x3cd1eabb	0.025624624
252	0xbca00d1a	-0.019537497
253	0xbd5d7acc	-0.054072186
254	0xbc3dd3bb	-0.011586125
255	0x3cdbb9b5	0.02682195

basis_rand_weights f4 [16, 5]
0	0xbb23f2ae	-0.0025016475
1	0x3d54ce24	0.051954404
2	0x3c8ecaf9	0.01743077
3	0x3e143b01	0.14475633
4	0xbcfee8dd	-0.031116897
5	0x3d054d46	0.032544397
6	0xbc5a41ba	-0.0133213345
7	0xbdd18963	-0.102312826
8	0xbd86eaf7	-0.06587785
9	0x3dcaf7ad	0.09910522
10	0xbc2e904f	-0.010654523
11	0x3ca9d0ef	0.02072951
12	0x3cd16302	0.025559906
13	0x3d849e68	0.06475526
14	0x3d68c81e	0.05683147
15	0xbdb92428	-0.090400994
16	0x3d74efad	0.059798885
17	0x3d21dce2	0.03951729
18	0xbd3e6759	-0.04648528
19	0x3e1e03f1	0.15431191
20	0xbba21d3e	-0.0049473336
21	0xbdb5b1ab	-0.08871778
22	0xbd3ed4ec	-0.046589777
23	0x3dba4163	0.09094503
24	0xbd899b1c	-0.06719038
25	0x3dbcf498	0.0922634
26	0xbdf4d756	-0.119551346
27	0xbd50b80d	-0.050956775
28	0xbdb8d203	-0.090244316
29	0xbd4894ac	-0.04896991
30	0x3db24c90	0.087060094
31	0xbe3da123	-0.185185
32	0xbd08aefa	-0.033369996
33	0x3d8e65de	0.069530234
34	0xbd744da9	-0.059644375
35	0x3d33aa88	0.043863803
36	0xbddf3f2a	-0.109007195
37	0xbe1c9b22	-0.15293553
38	0x3d994fd3	0.074859284
39	0xbd4d6bbc	-0.05015157
40	0x3c8ec36d	0.01742717
41	0xbe013233	-0.12616806
42	0x3bdb37c8	0.0066899993
43	0x3e8a3310	0.26992083
44	0xbd6d7061	-0.0579685
45	0x3dd7b7bd	0.10533092
46	0xbe46e650	-0.19423795
47	0x3bac4e27	0.00525834
48	0x3d9f3e44	0.07775548
49	0xbd7605bf	-0.060064074
50	0x3d7e9942	0.062157877
51	0xbe2c33cd	-0.16816635
52	0x3d6e68e0	0.058205485
53	0x3e13ae89	0.14422049
54	0xbe593055	-0.21209843
55	0xbca082b5	-0.019593576
56	0xbdf237f9	-0.11827082
57	0xbe2b5206	-0.16730508
58	0x3e665281	0.2249241
59	0x3e1862fe	0.14881513
60	0x3dbef468	0.093239605
61	0xbdc4a5de	-0.09601949
62	0x3c825beb	0.01591297
63	0x3e6f7de2	0.23387864
64	0xbda2db2e	-0.079519615
65	0xbdfbdbf4	-0.12297812
66	0x3b94fdae	0.0045468425
67	0x3c45ef7b	0.012081022
68	0x3e57dd3f	0.21080492
69	0x3d164a09	0.0366917
70	0xbd7b7ba8	-0.061397225
71	0x3d5be0ac	0.05368106
72	0xbd99bef8	-0.075071275
73	0x3d0d5e73	0.034513902
74	0xbe302fdb	-0.17205755
75	0x3b8cf096	0.004301141
76	0x3d19f535	0.037587363
77	0xbdfbdca0	-0.1229794
78	0x3e9c7352	0.30556732
79	0x3d77fb77	0.06054255

basis_vecs f4 [3, 768]
0	0xbc002405	-0.007821088
1	0x3aaf35b6	0.0013367448
2	0x3cb06dc9	0.021536725
3	0xbbcb2abf	-0.006200164
4	0x3c1f46c1	0.009721459
5	0x36feab1a	7.5897087e-06
6	0xbc92ec67	-0.017934991
7	0xbb0e4b68	-0.0021712426
8	0x3cc5c671	0.024142476
9	0xbbc381ea	-0.0059664147
10	0x3bbe44a3	0.005806522
11	0x3a6afef0	0.000896438
12	0xbb62afa7	-0.003458956
13	0xbcc5fd76	-0.024168711
14	0xbc1ca081	-0.0095597515
15	0x3d00a423	0.031406533
16	0xbb2ee3bd	-0.0026686036
17	0xbc7598d6	-0.014990052
18	0xbd04449a	-0.032291986
19	0x3c8a7847	0.016903056
20	0x3c0c1e02	0.008552076
21	0xbc4ad442	-0.012379708
22	0x3af54947	0.0018713855
23	0x3b9f91f2	0.004869693
24	0x3aeefe26	0.0018233701
25	0xbc2e8c3d	-0.010653553
26	0xbc351c5b	-0.011054124
27	0x3ce0a217	0.02742104
28	0xbceb2f5e	-0.02870911
29	0x3cbfd562	0.023417179
30	0xbc505706	-0.0127160605
31	0x3c7342d6	0.014847478
32	0xbc69611c	-0.014244344
33	0x3c511ead	0.012763661
34	0xbc34a086	-0.0110246
35	0x3cb6f848	0.022335187
36	0xbbfaddcc	-0.007655835
37	0x3b5bcbd2	0.0033538234
38	0x3a316fd6	0.0006768679
39	0xbb76e8de	-0.003767542
40	0x3bff4994	0.0077907536
41	0xbc355a27	-0.011068857
42	0x3bb6b9fc	0.0055763703
43	0xbc0ac03a	-0.008468682
44	0x3cd87195	0.026421348
45	0xbd1742ad	-0.03692882
46	0x3b8f6364	0.004375862
47	0xbc26e0b0	-0.010185406
48	0x3b8f6dcd	0.004377103
49	0x3baab0f0	0.005209081
50	0xbc830664	-0.015994258
51	0x3c92b24e	0.017907288
52	0x3b60b11a	0.0034285248
53	0xbc793875	-0.015211214
54	0x3b01e112	0.001981799
55	0x3bb43526	0.0054995
56	0x3bcfb0c1	0.0063382094
57	0x3b7e48b6	0.0038800663
58	0x3b078fe2	0.0020685126
59	0x3a18271a	0.00058041664
60	0xbcc54129	-0.024078922
61	0xbb66a5a2	-0.003519394
62	0x3c359ea2	0.011085184
63	0xbc5833b7	-0.0131959235
64	0xbaba5015	-0.001421454
65	0xbbf0448e	-0.007332391
66	0x3ca91bc7	0.020643128
67	0xbc9625df	-0.018328605
68	0x3c975a1f	0.01847559
69	0xbb961d2b	-0.004581114
70	0xbb1bb0c4	-0.0023756484
71	0x3ccde164	0.025131889
72	0xba053cb5	-0.00050825934
73	0x3a680caa	0.0008851985
74	0xba39f0ee	-0.0007093091
75	0x3b43ced4	0.0029877918
76	0xbac5c7fd	-0.0015089508
77	0xbc316af8	-0.010828726
78	0xbbdbd0cb	-0.0067082397
79	0x3b20f39f	0.0024559272
80	0x3c78fce0	0.015197009
81	0xbb5403c3	-0.0032350875
82	0x3c3ddca8	0.011588253
83	0xbcbf45f1	-0.02334878
84	0x3ac3b5b8	0.0014931476
85	0xbc77ff1d	-0.015136507
86	0x3aa4cd14	0.0012573325
87	0x3c12a7f0	0.008951172
88	0x3d0dabc1	0.034587625
89	0xbb5e04e5	-0.003387743
90	0xbc95db93	-0.018293178
91	0x3c999322	0.018746916
92	0x3c8b06da	0.01697104
93	0xbc4e1bae	-0.012579842
94	0x3c7a5cc1	0.015280903
95	0x3902ce27	0.00012474564
96	0x3bab652c	0.0052305665
97	0x3c83564e	0.016032364
98	0xbc9238d1	-0.017849358
99	0x3c969fdf	0.01838678
100	0xbbadd1e4	-0.005304562
101	0x3ca690ea	0.020332772
102	0x3c13b23c	0.009014662
103	0x3bd100ba	0.0063782604
104	0xbb9d3060	-0.0047970265
105	0xbc4ab88d	-0.012373102
106	0x3c801ec5	0.015639672
107	0x3aca7b25	0.0015448077
108	0xbbf4e490	-0.007473536
109	0xbcc84f69	-0.024451928
110	0x3ccf0c5d	0.02527445
111	0xbc3a8bd9	-0.011385881
112	0xbc83fad7	-0.01611082
113	0xbcd4c5eb	-0.02597328
114	0x3bcfe470	0.0063443705
115	0xbcda6154	-0.026657738
116	0xba8a9d5f	-0.0010575465
117	0xbcd0e994	-0.025502004
118	0x3c1b1d13	0.009467381
119	0x3c900680	0.017581224
120	0x3c4cf056	0.012508472
121	0x3c08174f	0.008306338
122	0xbb62a213	-0.0034581467
123	0xbbbfe07e	-0.005855619
124	0xbca4fde4	-0.020140596
125	0x3a411be1	0.000736652
126	0xbc5b7411	-0.013394372
127	0xbbb381f6	-0.005478139
128	0x3aec1f49	0.0018014695
129	0xbc258a0f	-0.0101037165
130	0xbb4df9eb	-0.003142948
131	0x3c83c100	0.01608324
132	0xbc881fd6	-0.016616743
133	0xbbde414f	-0.0067826877
134	0xbcd984d6	-0.026552599
135	0x3bc74777	0.0060815173
136	0x3c84dbc0	0.016218066
137	0xbc54f14f	-0.012996986
138	0x3bd6c217	0.006553899
139	0x3c979e92	0.01850823
140	0xbcd79955	-0.026318232
141	0xbc06382f	-0.008192106
142	0x3c750429	0.014954605
143	0x3b441191	0.0029917697
144	0xbb30442f	-0.002689611
145	0xbc783dd5	-0.015151461
146	0xbbc196d7	-0.005907874
147	0x3c0b7a53	0.008513051
148	0xb9d4ecad	-0.00040612128
149	0x3c819103	0.015816217
150	0xbc5c293b	-0.0134375645
151	0xbbb35a4e	-0.0054734116
152	0xbc65e01a	-0.014030481
153	0xbb8d8a93	-0.004319498
154	0xbb960000	-0.0045776367
155	0x3b645765	0.003484213
156	0x3c774ca5	0.015093957
157	0x3acd2d90	0.0015653837
158	0x3b18d3c0	0.0023319572
159	0xba43e904	-0.00074733817
160	0x3c11886e	0.008882625
161	0x3c651377	0.013981692
162	0x3d218d2a	0.039441265
163	0x3d0e0160	0.03466928
164	0x3c93724f	0.017998843
165	0xbcd065d3	-0.025439179
166	0xbd03f1a7	-0.03221288
167	0xbc15dbf4	-0.009146679
168	0xbc903862	-0.01760501
169	0xbb48b1cf	-0.003062356
170	0x3b181090	0.0023203231
171	0xbc1b839e	-0.009491829
172	0x3c5613ce	0.013066245
173	0x3bc9916a	0.006151368
174	0x3b159ede	0.0022830288
175	0xbc18620a	-0.009300718
176	0xbce69bcd	-0.028150463
177	0xbcb77a7e	-0.022397276
178	0xbbb9ceb4	-0.005670393
179	0x3cc46760	0.023975074
180	0xbc7551db	-0.014973129
181	0xbb322bc3	-0.0027186729
182	0x3c7fba7c	0.015608426
183	0xbbe46ebe	-0.0069712093
184	0x3b815e30	0.0039479956
185	0xbb9eaef1	-0.004842632
186	0xbb50c893	-0.0031857833
187	0xba1b807e	-0.00059319276
188	0xbc1a5857	-0.009420476
189	0x3c38e286	0.011284476
190	0xbae18bd6	-0.0017207812
191	0x3c0adbca	0.008475253
192	0x3c550d7a	0.013003701
193	0xbca9df1b	-0.020736268
194	0x3b434fa4	0.0029802108
195	0x3c0f779c	0.008756544
196	0x3c8d8928	0.017277315
197	0x3cadf4e5	0.021234939
198	0xbbe40989	-0.0069591445
199	0x3b765271	0.003758576
200	0xbba72387	-0.0051006707
201	0xbbdcde85	-0.0067403936
202	0xbb85fe18	-0.004089128
203	0xbc6449dc	-0.013933625
204	0xbb8e316f	-0.004339389
205	0xbbb4e24a	-0.00552014
206	0x3c59c70f	0.013292088
207	0xbbbca0ab	-0.005756458
208	0x3c090630	0.008363292
209	0x3cceaddf	0.025229393
210	0x3d4638ff	0.0483942
211	0xbc3daf2c	-0.011577409
212	0x3c09ebd2	0.00841804
213	0xbc1475a8	-0.009061255
214	0xbc543c39	-0.012953811
215	0xbb1b6ed2	-0.0023717177
216	0x3ccb9b5a	0.02485435
217	0x3d0045f7	0.031316724
218	0xbb8f221e	-0.0043680808
219	0xbca497e9	-0.020091968
220	0x3bcc6c4b	0.0062384955
221	0xbcbdde47	-0.02317728
222	0xbcc7494f	-0.024326948
223	0x3be7a6eb	0.0070694587
224	0xbbdd54eb	-0.006754508
225	0xbceea52f	-0.0291315
226	0x3a53829e	0.00080684747
227	0xbcc3e9e2	-0.023915235
228	0xbbd40f8c	-0.00647158
229	0x3ca1b924	0.019741602
230	0xbc1398a4	-0.00900856
231	0xbc1a6191	-0.009422676
232	0x3be02f72	0.0068415934
233	0xbcf9d74a	-0.030498166
234	0x3d17523b	0.036943655
235	0x3bc1fb25	0.0059198313
236	0x3c06fa0f	0.00823833
237	0xbc1a6683	-0.009423855
238	0x3cb8459a	0.022494126
239	0xbcb4063f	-0.021975635
240	0x3c3e0799	0.011598491
241	0xbc980929	-0.018559055
242	0xbc7aa73b	-0.01529866
243	0x3c37439f	0.011185556
244	0xbac632cc	-0.001512134
245	0x39e0bbe9	0.00042864613
246	0xbc3741e3	-0.011185142
247	0xbc676e0e	-0.01412536
248	0x3caf0f9e	0.021369752
249	0x3caa588a	0.020794172
250	0xbca65ad5	-0.020306984
251	0x3987fc99	0.00025937406
252	0xbcae3ee5	-0.021270225
253	0xbcfb1404	-0.030649193
254	0xbce5e0ca	-0.02806129
255	0x3ccb2f53	0.02480284

basis_comm_weights f4 [1, 5]
0	0x3ec26e8e	0.37974972
1	0x3edf0189	0.4355586
2	0x3df65831	0.1202854
3	0x3ed8e9c0	0.42365837
4	0x3e5cdc8f	0.21568511

bias f4 [16, 768]
0	0x3c42b5c8	0.01188416
1	0xbb9aba57	-0.0047219205
2	0xbc849909	-0.016186254
3	0xbd063de6	-0.032773875
4	0xbc4a159f	-0.012334256
5	0x3b914982	0.0044338116
6	0xbd822a1b	-0.06355687
7	0x3d1a43e9	0.03766242
8	0x3bacb626	0.005270737
9	0xbcfcdad0	-0.030866057
10	0xbd31bdf2	-0.043394037
11	0xb9999558	-0.00029293704
12	0xbc7338a8	-0.014845051
13	0xbcac22c5	-0.021012673
14	0xbc81a98f	-0.015827922
15	0xbb52d0c6	-0.0032167896
16	0xbdd788fb	-0.10524174
17	0x3d053b2a	0.032527126
18	0x3c1fd190	0.009754553
19	0xbce9a043	-0.028518802
20	0x3b2cad74	0.0026348503
21	0xbc458bbc	-0.012057241
22	0x3c191229	0.009342709
23	0xbd687bf3	-0.056758832
24	0xbd574277	-0.05255362
25	0x3d92899f	0.071551554
26	0xbbdc15e4	-0.0067164768
27	0xbcab5ae5	-0.020917365
28	0xbdb5a3fa	-0.08869167
29	0xbc39753e	-0.011319457
30	0x3c94cf6f	0.018165318
31	0xbbd83c8f	-0.006599016
32	0xbd490045	-0.049072523
33	0x3c04b2a6	0.008099234
34	0xbd752d99	-0.05985794
35	0x3a85020f	0.0010147708
36	0xbd6dddbb	-0.058072787
37	0xbc9c49f5	-0.019078234
38	0xbcaa0e67	-0.02075882
39	0x3c1cfc30	0.009581611
40	0x3c38138e	0.011235131
41	0x3a78e15b	0.000949403
42	0xba638288	-0.00086788135
43	0xbcddea25	-0.027089188
44	0x3c775a54	0.0150972195
45	0x3d8b1e22	0.06792857
46	0x3ce6d52b	0.028177818
47	0xbd150957	-0.03638586
48	0x3c431650	0.011907175
49	0xbd07b54e	-0.03313189
50	0x3d8a7c9c	0.067620486
51	0xbc94525c	-0.018105678
52	0x3c2f13a4	0.010685835
53	0xbc854ba3	-0.016271418
54	0x3d410591	0.04712445
55	0x3c113d7f	0.0088647595
56	0x3d14fe65	0.036375422
57	0xbc8a88fe	-0.016911026
58	0xbcda8469	-0.026674466
59	0x3d068a8a	0.032846965
60	0xbc7e74fa	-0.015530819
61	0x3c0ea703	0.008706811
62	0x3bd2d1f4	0.00643372
63	0x3c3c118f	0.011478796
64	0x3ba44b32	0.005013847
65	0x3ca19625	0.019724915
66	0x3c291920	0.010320932
67	0xbcb18568	-0.021670058
68	0xbc8ba111	-0.017044576
69	0xbcfdfaa8	-0.031003311
70	0xbc571855	-0.01312836
71	0xbb5f92c0	-0.003411457
72	0xbc34adf1	-0.011027799
73	0x3c5b868f	0.0133987805
74	0xbb004924	-0.0019574845
75	0x3ca75625	0.02042682
76	0x3cd624a1	0.026140513
77	0x3cdd2ea8	0.026999786
78	0x3c2e494f	0.010637595
79	0xbb6eced4	-0.0036439197
80	0xbc49b84c	-0.012312006
81	0x3d02d3b8	0.031940192
82	0x3cab4ef0	0.020911664
83	0x3b30a02b	0.0026950936
84	0xbc3b20a6	-0.011421358
85	0xbcbe869b	-0.023257544
86	0x3c3e840c	0.011628162
87	0xbcb8efd7	-0.022575302
88	0xbc6276c7	-0.013822264
89	0xbc9df7b7	-0.019283159
90	0xbd311633	-0.04323406
91	0x3c7f179a	0.015569592
92	0x3d526a49	0.051370893
93	0xbcfa4cae	-0.030554142
94	0xbd2f141d	-0.04274379
95	0xba524e9c	-0.0008022578
96	0x3d092af7	0.03348824
97	0x3c9a95c5	0.018870244
98	0x3aba47e4	0.0014212099
99	0xbd44f267	-0.048082735
100	0x3cf7f4b4	0.03026805
101	0xbadf3176	-0.001702829
102	0x3aeac426	0.001791124
103	0x3d5cf771	0.053946916
104	0xbc122669	-0.0089202905
105	0x3aabb946	0.001310148
106	0x3cf30dc2	0.029669646
107	0x3c6c5c73	0.0144263385
108	0x3cb3cb3a	0.021947492
109	0xbcbcf3a8	-0.023065403
110	0x3ca9c120	0.020721972
111	0xb9feaead	-0.000485768
112	0xbc639472	-0.013890373
113	0x3bb9949d	0.005663468
114	0x3d9e8599	0.077403255
115	0xbd81943d	-0.06327102
116	0xbd673b95	-0.056453306
117	0x3d4de122	0.05026353
118	0x3cc40135	0.023926357
119	0xbcf35d1f	-0.02970749
120	0x3c6eaf49	0.014568158
121	0x3d888a84	0.06667045
122	0xbd8e8a6c	-0.069599956
123	0xbae31653	-0.0017325379
124	0xbd09c740	-0.033637285
125	0xbd1d3607	-0.038381603
126	0xbd26c3ad	-0.040713955
127	0x3cfed5fd	0.031107897
128	0xbd278534	-0.040898517
129	0x3b206717	0.0024475509
130	0x3cecd980	0.028912306
131	0x3d4b8740	0.04968953
132	0x3b09a3cd	0.0021002174
133	0x3cd8ade9	0.026450114
134	0xbd7d6bb4	-0.06187029
135	0xbd574584	-0.05255653
136	0xbd264448	-0.04059246
137	0x3d3d7c91	0.046261374
138	0x3bdd94e7	0.0067621353
139	0xbcd3de29	-0.02586277
140	0xbcdf88ec	-0.02728697
141	0x3ce334e6	0.027735185
142	0x3d220f9a	0.03956566
143	0x3d20ab65	0.039225955
144	0x3ae33dd5	0.0017337153
145	0x3d50603e	0.050873034
146	0x3c8e737e	0.017389055
147	0x3cdcc675	0.0269501
148	0x3d8523f0	0.06500995
149	0xbcafc741	-0.021457316
150	0xb7051f0f	-7.934649e-06
151	0xbd383510	-0.04497248
152	0x3d13720d	0.03599744
153	0xbb79f7eb	-0.0038142155
154	0xbd27b979	-0.040948365
155	0xbc214261	-0.009842486
156	0xbd46d043	-0.048538458
157	0xbc88e03d	-0.016708488
158	0xbc972672	-0.01845095
159	0xbd024145	-0.031800527
160	0x3b99624e	0.0046809083
161	0x3d5a18a6	0.053246163
162	0x3d8a58a2	0.067551866
163	0x3d0c4a4f	0.034250554
164	0x3d095896	0.033531748
165	0x3d0e3656	0.034719788
166	0xbd0300de	-0.03198325
167	0xbd95f2d4	-0.073217064
168	0xbc1eba6f	-0.009688004
169	0x3d8ac10f	0.06775104
170	0x3c8f2bd9	0.017476963
171	0xbd4dfb67	-0.050288584
172	0x3cbc3d59	0.022978472
173	0xb9076e3f	-0.00012915673
174	0x3a9b8afd	0.0011866983
175	0x3c9aaa29	0.018879967
176	0xbb8894a3	-0.0041681095
177	0xbd7ddd55	-0.061978657
178	0x3c91c3b1	0.017793508
179	0x3bcfca3d	0.0063412474
180	0x3d724bb4	0.059154227
181	0x3bc04b7f	0.005868375
182	0xbd0ee715	-0.034888346
183	0x3ca8ff59	0.020629572
184	0xbd95eb9d	-0.0732033
185	0xbc06ba35	-0.008223106
186	0xbb0351e2	-0.002003782
187	0x3d6c7e41	0.057737593
188	0xbd5f33e4	-0.054492846
189	0x3cab5f5b	0.020919492
190	0x3d5cb9e3	0.053888213
191	0x3b76cd07	0.0037658827
192	0xbc0b0fd2	-0.008487659
193	0xbcb1e211	-0.021714242
194	0x3d744bec	0.059642717
195	0xbc27f378	-0.010250919
196	0x3d881738	0.066450536
197	0xbd2d3739	-0.042288993
198	0x3cc41f15	0.023940602
199	0x3c1a4f76	0.009418359
200	0x3d9b857d	0.0759382
201	0xbc6ffa26	-0.014647042
202	0xbb2f2fce	-0.0026731375
203	0xbba3e15e	-0.005001231
204	0xbcaf1de8	-0.021376565
205	0xbd0486e5	-0.032355208
206	0x3d489e2f	0.04897898
207	0xbd089289	-0.03334287
208	0x3b9b03a1	0.004730657
209	0xbc9dbd62	-0.019255344
210	0xbce2fcb0	-0.027708381
211	0x3d2c0693	0.041998457
212	0xbb4e57cf	-0.0031485443
213	0x3caa04d5	0.020754257
214	0x3c5c9ea6	0.013465559
215	0xbd85f282	-0.06540395
216	0xbcb799cf	-0.022412209
217	0x3a6719c2	0.0008815789
218	0x3c7a5a67	0.015280343
219	0xbb378221	-0.0028001147
220	0xbd8c48e3	-0.068498395
221	0x3d67cffc	0.056594834
222	0xbcf6db90	-0.030133992
223	0x3a908679	0.0011026404
224	0xbd348fd6	-0.044082485
225	0xbc2467d8	-0.010034524
226	0x3d0851f2	0.033281274
227	0x3c823648	0.015895024
228	0x3b9d1d35	0.0047947415
229	0x3d6d8afd	0.057993878
230	0x3c8943a5	0.016755888
231	0x3c4b82c4	0.012421314
232	0xbaf39a28	-0.0018585371
233	0xbafd2c60	-0.0019315593
234	0xbbdba0bc	-0.0067025106
235	0xbd2af440	-0.04173684
236	0x3cd8e2ef	0.026475398
237	0xbc721edf	-0.014777868
238	0xbba11738	-0.004916098
239	0xbd40ca42	-0.047067888
240	0x3c607966	0.013700819
241	0xbd094210	-0.033510268
242	0xbaaa9e3e	-0.001301713
243	0x3d280b50	0.041026413
244	0x3d3943c3	0.04523064
245	0x3c8dea06	0.017323505
246	0xba9a339d	-0.001176465
247	0x3c656255	0.014000495
248	0xbcfde945	-0.03099502
249	0x3b114a39	0.0022169484
250	0x3d1ae6c9	0.03781775
251	0xbd8edb5f	-0.069754355
252	0x3ce408a3	0.02783615
253	0x3b19e4af	0.0023482253
254	0xbb5420ea	-0.003236825
255	0x3d0b1ce0	0.033963084

weight f4 [768]
0	0x3f6dab6b	0.9283969
1	0x3f7ae962	0.98012364
2	0x3f75f5f4	0.9607842
3	0x3f861bf9	1.0477287
4	0x3f7f47d4	0.99718976
5	0x3f83fcf7	1.0311574
6	0x3f9584bc	1.1681132
7	0x3f88abbc	1.0677409
8	0x3f7f767f	0.99790186
9	0x3f717439	0.94317967
10	0x3f6d5fc2	0.9272424
11	0x3f79db46	0.9760021
12	0x3f7f312d	0.9968441
13	0x3f8a4227	1.0801438
14	0x3f804f27	1.0024155
15	0x3f73b90a	0.9520422
16	0x3f48fa71	0.78507143
17	0x3f7bc1c2	0.98342526
18	0x3f735d2a	0.9506403
19	0x3f74eeb7	0.9567675
20	0x3f804ec6	1.002404
21	0x3f6d0d45	0.9259837
22	0x3f806a88	1.0032511
23	0x3f7847d6	0.9698461
24	0x3f655117	0.8957686
25	0x3f57b07a	0.84253657
26	0x3f7d7e4c	0.9902084
27	0x3f7b5089	0.9816976
28	0x3f96eb9d	1.1790653
29	0x3f7f8529	0.9981256
30	0x3f66eaa3	0.9020178
31	0x3f7c964f	0.9866685
32	0x3f8e39b9	1.1111366
33	0x3f80ba1a	1.0056794
34	0x3f8566d2	1.0422003
35	0x3f80a0b7	1.0049046
36	0x3f7db878	0.991096
37	0x3f733c08	0.95013475
38	0x3f8d6f38	1.1049566
39	0x3f7f408f	0.99707884
40	0x3f7e0878	0.9923167
41	0x3f820905	1.0159003
42	0x3f78914d	0.9709671
43	0x3f821c3a	1.0164864
44	0x3f89b34c	1.0757842
45	0x3f5bb05b	0.8581597
46	0x3f69c791	0.9132014
47	0x3f86eb8f	1.0540637
48	0x3f826d96	1.0189693
49	0x3f736754	0.9507954
50	0x3f5d1f1b	0.8637559
51	0x3f64dd1c	0.89399886
52	0x3f5fb71f	0.87388796
53	0x3f7d0b2a	0.9884516
54	0x3f64a76d	0.8931797
55	0x3f80bb6b	1.0057195
56	0x3f84862a	1.0353444
57	0x3f82df9d	1.0224491
58	0x3f70ae89	0.9401632
59	0x3f8aa199	1.0830566
60	0x3f8c4bb9	1.0960609
61	0x3f82f512	1.023104
62	0x3f83044c	1.0235686
63	0x3f78bff6	0.9716791
64	0x3f7c41ac	0.9853771
65	0x3f738deb	0.95138425
66	0x3f7b8fac	0.982661
67	0x3f83e1cc	1.0303283
68	0x3f792830	0.97326946
69	0x3f8b1b9d	1.0867802
70	0x3f862618	1.0480375
71	0x3f7530ce	0.95777595
72	0x3f8038a4	1.0017285
73	0x3f6f087d	0.9337233
74	0x3f69128a	0.91043913
75	0x3f798d2b	0.9748103
76	0x3f7cec5b	0.9879815
77	0x3f74f793	0.9569027
78	0x3f729e57	0.9477286
79	0x3f69c8db	0.91322106
80	0x3f690468	0.9102235
81	0x3f7ffc46	0.99994314
82	0x3f8b75f3	1.089537
83	0x3f789fdf	0.97118944
84	0x3f74e8d5	0.95667773
85	0x3f87fde7	1.062436
86	0x3f737988	0.95107317
87	0x3f7c61e7	0.9858689
88	0x3f7e67b9	0.9937702
89	0x3f8091b7	1.0044469
90	0x3f88cb08	1.068696
91	0x3f884042	1.064461
92	0x3f893800	1.0720215
93	0x3f8d2f13	1.1029991
94	0x3f614fc0	0.88012314
95	0x3f83f2fd	1.0308529
96	0x3f8a5357	1.0806683
97	0x3f6b5067	0.9191956
98	0x3f6892ce	0.90849006
99	0x3f691da7	0.9106087
100	0x3f767ccc	0.96284175
101	0x3f846a75	1.0344988
102	0x3f68689f	0.9078464
103	0x3f718d1c	0.9435594
104	0x3f89e4b3	1.0772918
105	0x3f848c0f	1.0355242
106	0x3f86abeb	1.0521215
107	0x3f7fe5b3	0.9995987
108	0x3f7fb09b	0.99878854
109	0x3f80fcb6	1.0077121
110	0x3f83fbab	1.0311178
111	0x3f784aeb	0.96989316
112	0x3f7101c1	0.941433
113	0x3f801792	1.0007193
114	0x3f9bb155	1.2163492
115	0x3f8c6fc8	1.0971613
116	0x3f874d94	1.057055
117	0x3f64818f	0.8926019
118	0x3f818118	1.0117521
119	0x3f691c33	0.91058654
120	0x3f7f6811	0.9976817
121	0x3f89d80c	1.0769057
122	0x3f8ae4ab	1.0851034
123	0x3f87b2bc	1.060142
124	0x3f848329	1.0352527
125	0x3f6d2c00	0.92645264
126	0x3f8be25f	1.0928458
127	0x3f6a9848	0.9163861
128	0x3f78b321	0.9714833
129	0x3f807369	1.003522
130	0x3f68088d	0.9063805
131	0x3f80c850	1.006113
132	0x3f78c549	0.97176033
133	0x3f82aecc	1.0209594
134	0x3f939292	1.1529105
135	0x3f6b5429	0.91925293
136	0x3f67a52d	0.90486413
137	0x3f6343c6	0.8877529
138	0x3f841d4b	1.032144
139	0x3f7118f1	0.9417868
140	0x3f881554	1.0631509
141	0x3f6623c4	0.89898324
142	0x3f6ea6fc	0.9322355
143	0x3f6f1542	0.9339181
144	0x3f78bd87	0.97164196
145	0x3f5e0ca6	0.8673805
146	0x3f7228b8	0.9459338
147	0x3f8adb44	1.0848165
148	0x3f8304ba	1.0235817
149	0x3f81e13f	1.0146865
150	0x3f7e9ee7	0.99461216
151	0x3f87f4f8	1.0621634
152	0x3f75cc47	0.9601483
153	0x3f7ce7f4	0.9879143
154	0x3f8e6083	1.1123203
155	0x3f71182f	0.94177526
156	0x3f51674b	0.8179824
157	0x3f5bb527	0.8582329
158	0x3f76d1db	0.96413964
159	0x3f5c5a51	0.8607531
160	0x3f6c1443	0.92218417
161	0x3f8975cf	1.0739077
162	0x3f8e5e6d	1.1122566
163	0x3f8e5af5	1.1121508
164	0x3f83a241	1.0283891
165	0x3f652483	0.8950884
166	0x3f8b0d48	1.0863428
167	0x3f8a1c36	1.0789859
168	0x3f830be9	1.023801
169	0x3f86540a	1.0494397
170	0x3f797048	0.9743695
171	0x3f88a21c	1.0674472
172	0x3f693baa	0.91106665
173	0x3f8609ff	1.04718
174	0x3f70e3ae	0.9409741
175	0x3f8579f6	1.0427845
176	0x3f6d8bf0	0.9279165
177	0x3f8d0bad	1.1019188
178	0x3f7f25d8	0.9966712
179	0x3f819f39	1.0126716
180	0x3f68a2b9	0.90873295
181	0x3f8179c2	1.0115283
182	0x3f686558	0.9077964
183	0x3f71d21c	0.94461226
184	0x3f90e484	1.1319737
185	0x3f7f0611	0.9961863
186	0x3f73c6e2	0.95225346
187	0x3f8617fb	1.0476068
188	0x3f7f322f	0.9968595
189	0x3f865c42	1.0496905
190	0x3f8edefc	1.11618
191	0x3f7ce1fc	0.98782325
192	0x3f81bbfc	1.0135493
193	0x3f84f891	1.0388356
194	0x3f792c9d	0.973337
195	0x3f8619c4	1.0476613
196	0x3f9bff1e	1.218723
197	0x3f6599d8	0.8968787
198	0x3f6b49b1	0.9190932
199	0x3f78522a	0.9700037
200	0x3f8ee5ce	1.1163881
201	0x3f82c7e9	1.0217258
202	0x3f7c45e7	0.9854416
203	0x3f6c1867	0.92224735
204	0x3f6b8fe8	0.9201646
205	0x3f73e553	0.95271796
206	0x3f83e708	1.030488
207	0x3f850da0	1.0394783
208	0x3f80dd14	1.0067468
209	0x3f70068b	0.93759984
210	0x3f739351	0.9514666
211	0x3f4b06a3	0.79307
212	0x3f832f94	1.0248895
213	0x3f679fac	0.90478015
214	0x3f55aae9	0.83463913
215	0x3f87e821	1.0617715
216	0x3f75100e	0.9572762
217	0x3f808cd5	1.0042979
218	0x3f6ae27d	0.91751844
219	0x3f859a36	1.0437686
220	0x3f576e57	0.8415274
221	0x3f564f90	0.8371515
222	0x3f8d9d6f	1.106367
223	0x3f6ee5f9	0.9331966
224	0x3f82d438	1.0221014
225	0x3f8b3985	1.0876929
226	0x3f8796c0	1.059288
227	0x3f7cda61	0.9877072
228	0x3f69bef3	0.9130699
229	0x3f91a9d0	1.1379948
230	0x3f6f4380	0.9346237
231	0x3f806a03	1.0032352
232	0x3f6bc569	0.920981
233	0x3f80befd	1.0058285
234	0x3f75d9f2	0.96035683
235	0x3f62a95f	0.8853969
236	0x3f6afb3f	0.9178962
237	0x3f7514c0	0.95734787
238	0x3f7dd811	0.99157816
239	0x3f9c009b	1.2187685
240	0x3f84ed6e	1.0384958
241	0x3f814a53	1.0100807
242	0x3f7659d1	0.962308
243	0x3f77d6e1	0.96812254
244	0x3f87fc9a	1.0623963
245	0x3f76bd21	0.9638234
246	0x3f84e890	1.0383472
247	0x3f7e8b56	0.9943136
248	0x3f7562b6	0.95853746
249	0x3f8257d2	1.0183051
250	0x3f626a7f	0.8844375
251	0x3f523683	0.8211443
252	0x3f79b738	0.97545195
253	0x3f781746	0.9691051
254	0x3f7b780d	0.9823006
255	0x3f89903a	1.074714

bias f4 [768]
0	0x3d4b394d	0.049615193
1	0x3c6ead84	0.014567737
2	0xbd93c2fa	-0.07214923
3	0xbdc59e8e	-0.096493825
4	0x3ceec128	0.029144838
5	0x3beedc88	0.007289473
6	0xbe3c948e	-0.18416044
7	0x3dbb5b02	0.09148218
8	0x3c0ab9f8	0.00846719
9	0xbd94d7f7	-0.072677545
10	0xbdd16899	-0.102250285
11	0x3c39013b	0.011291797
12	0xbcbe0b08	-0.02319862
13	0xbd2e60f3	-0.042572927
14	0x3b76326d	0.0037566677
15	0xbc36bf8d	-0.011154068
16	0xbe751eb7	-0.23937498
17	0x3d112424	0.035434857
18	0x3d0a8c43	0.03382517
19	0xbd8865ba	-0.06660028
20	0x3d3cb046	0.046066545
21	0x3c027f94	0.007964987
22	0x3d3d9451	0.046284024
23	0xbdf23e3e	-0.11828278
24	0xbddd8ca7	-0.10817843
25	0x3e2c50a0	0.16827631
26	0xbbaddb84	-0.0053057093
27	0xbc3dfe00	-0.011596203
28	0xbe37e038	-0.17956626
29	0xbc2de9b2	-0.010614799
30	0x3d29b7b8	0.041434973
31	0x3b089e5f	0.002084635
32	0xbdbb99b4	-0.09160176
33	0x3d004aab	0.03132121
34	0xbdd41171	-0.10354889
35	0xbc256bbf	-0.010096489
36	0xbe173605	-0.147667
37	0xbd8d0bfd	-0.06887052
38	0xbd945a5b	-0.072437964
39	0x3d0bb9d8	0.03411278
40	0x3c39faed	0.011351329
41	0x3b6f7c3b	0.0036542553
42	0xbbb4803b	-0.0055084503
43	0xbd8279b3	-0.063708685
44	0x3d91a5dc	0.07111713
45	0x3e0e49f7	0.13895403
46	0x3da42066	0.08013992
47	0xbdca68ce	-0.09883271
48	0xbc2cd039	-0.010547691
49	0xbd7237de	-0.05913531
50	0x3e117003	0.14202885
51	0xbd7f47d4	-0.06232436
52	0x3db2233c	0.08698127
53	0xbc398f23	-0.01132563
54	0x3de23245	0.110447444
55	0x3c201275	0.0097700255
56	0x3d36b9b4	0.044610694
57	0xbcb7b9b6	-0.022427421
58	0xbd60df1c	-0.054900274
59	0x3dc69037	0.096954755
60	0xbd8c9bbe	-0.06865643
61	0x3d39843f	0.045292135
62	0x3ce18dae	0.027533378
63	0x3c679096	0.014133593
64	0xbc3d03b3	-0.0115365265
65	0x3d401b28	0.0469009
66	0xba8dc094	-0.0010814839
67	0xbc8aaf84	-0.016929395
68	0xbc8049a8	-0.015660122
69	0xbdb125fb	-0.08649822
70	0xbd789ac6	-0.06069448
71	0xbcdc50e6	-0.026894044
72	0xbb387dfe	-0.002815127
73	0x3d55caf3	0.0521955
74	0xbcc1283a	-0.023578752
75	0xbc1bc22b	-0.0095067425
76	0x3d21ecf9	0.039532635
77	0x3d39feda	0.04540906
78	0x3cf3aeba	0.029746402
79	0x3d7bc3de	0.06146609
80	0xbd89bc25	-0.06725339
81	0x3dbd09d8	0.09230393
82	0x3d9b0471	0.075692065
83	0x3c3341dc	0.010940995
84	0xbabce043	-0.0014410097
85	0xbda7991e	-0.08183502
86	0x3d354e87	0.044264343
87	0xbcfd3c0d	-0.030912424
88	0xbc8ffa1a	-0.017575312
89	0xbcc17112	-0.023613486
90	0xbdb6d6cb	-0.08927687
91	0x3da4c275	0.08044902
92	0x3dfd4518	0.12366694
93	0xbdae1bd9	-0.08501405
94	0xbe080613	-0.13283567
95	0xbd89c065	-0.067261495
96	0x3df54b23	0.11977222
97	0x3d477e8f	0.04870468
98	0x3d5e4781	0.05426741
99	0xbdbd3d22	-0.09240176
100	0x3cf0e2a3	0.029404944
101	0xbd600e25	-0.05470099
102	0xbcf4bf6f	-0.029876439
103	0x3e12acc3	0.14323716
104	0xbd8f3ac5	-0.06993631
105	0xbc88c132	-0.016693685
106	0x3d9abc9d	0.075555064
107	0x3ccf481c	0.02530294
108	0x3cf72895	0.030170718
109	0xbc931189	-0.017952697
110	0x3d5af687	0.053457763
111	0x3d154f2e	0.036452465
112	0xbd684f88	-0.056716472
113	0xbc0e62c5	-0.008690541
114	0x3e5b22d3	0.21400003
115	0xbdc48d5d	-0.095972754
116	0xbdea4747	-0.11439376
117	0x3dd34b4e	0.103170976
118	0x3d558a6b	0.05213396
119	0xbd6df1b8	-0.05809185
120	0x3d323d63	0.043515574
121	0x3dfb26d0	0.12263262
122	0xbe12af42	-0.14324668
123	0xbc90f8d7	-0.017696781
124	0xbd83ae48	-0.06429726
125	0xbdd47d30	-0.1037544
126	0xbdd07a89	-0.10179622
127	0x3da21c83	0.079155944
128	0xbdf7e302	-0.12103845
129	0xbbdfa0e9	-0.006824602
130	0x3dc58998	0.096453846
131	0x3e06fb8a	0.13181892
132	0x3cc816ac	0.024424873
133	0x3dbe5c5a	0.092949584
134	0xbe14070a	-0.1445581
135	0xbdc943b2	-0.09827365
136	0xbdd9cdc2	-0.10634948
137	0x3db72513	0.08942618
138	0x3d0ad68c	0.033896014
139	0xbcdabdab	-0.026701769
140	0xbd83e606	-0.06440358
141	0x3dcf9119	0.10135097
142	0x3da0e292	0.07855715
143	0x3de119ca	0.10991247
144	0x3b61cbc0	0.003445372
145	0x3e05d508	0.13069546
146	0x3d0d8ce4	0.034558192
147	0x3dd3eb3a	0.103476
148	0x3e255ed1	0.16149451
149	0xbd443f03	-0.047911655
150	0x3cbb7940	0.022884965
151	0xbe08ba37	-0.13352285
152	0x3db438a9	0.087998696
153	0x3c815b8a	0.01579072
154	0xbdd3e53d	-0.10346458
155	0xbd194014	-0.037414625
156	0xbe246a0f	-0.16056083
157	0xbd8840cb	-0.06652983
158	0xbd160894	-0.036629274
159	0xbdeb8c2f	-0.11501347
160	0x3cc9e2d3	0.024644291
161	0x3dbdde15	0.092708744
162	0x3df5c185	0.119998015
163	0x3dfaf8e5	0.12254504
164	0x3d4ee021	0.050506715
165	0x3deb06e2	0.11475922
166	0xbd3d0267	-0.04614487
167	0xbe4a66ae	-0.19765732
168	0xbac8e407	-0.0015326747
169	0x3e63075d	0.22170778
170	0x3d98491e	0.07435821
171	0xbdabfc09	-0.08397681
172	0x3d7b13b9	0.061298106
173	0x3cd495a9	0.02595027
174	0x3c54e606	0.012994295
175	0x3d040c48	0.032238275
176	0xbd3d0293	-0.046145033
177	0xbe09c1dc	-0.13452858
178	0xbb8ef16d	-0.0043622763
179	0x3c8a0a1b	0.016850522
180	0x3db4942b	0.08817323
181	0x3ad5bf59	0.0016307636
182	0xbd8ab24e	-0.0677229
183	0x3da00c73	0.078148745
184	0xbe676246	-0.22596082
185	0x3ba471ef	0.0050184648
186	0xbd2eb942	-0.042657144
187	0x3dcca546	0.09992461
188	0xbdf06d55	-0.117396034
189	0x3d6a69da	0.057229854
190	0x3e0914a8	0.13386786
191	0xbd0324bb	-0.03201745
192	0xba712bc1	-0.000919994
193	0xbd673350	-0.05644542
194	0x3dd8ec16	0.10591905
195	0x3d586008	0.052825958
196	0x3e3f414b	0.18677251
197	0xbdc5c777	-0.096571855
198	0x3dbd9e2d	0.09258685
199	0x3ceb5307	0.028726114
200	0x3e654e81	0.22393228
201	0xbca8a08a	-0.020584363
202	0x3bd5c2e6	0.006523478
203	0x3d02a0fb	0.031891804
204	0xbd814b7d	-0.06313226
205	0xbd850315	-0.064947285
206	0x3dbf692d	0.093462326
207	0xbd9ec460	-0.07752299
208	0x3c1b1d81	0.0094674835
209	0xbbe30741	-0.006928355
210	0xbd2afec6	-0.041746877
211	0x3e1ba53b	0.15199749
212	0x3d30d591	0.043172423
213	0x3d8d0a2b	0.06886705
214	0x3d9a47f6	0.07533257
215	0xbdea816b	-0.11450466
216	0xbd19208b	-0.03738455
217	0x3b49a2ff	0.003076732
218	0x3d716aee	0.058939867
219	0xbd1411d6	-0.036149822
220	0xbe110f42	-0.14165977
221	0x3e1cf1ef	0.15326665
222	0xbdcb35b0	-0.099223495
223	0x39732a16	0.00023189964
224	0xbde7ca4a	-0.113178805
225	0xbdc65535	-0.09684221
226	0x3dced8b7	0.10099929
227	0x3d11cd00	0.035595894
228	0x3d200afd	0.03907298
229	0x3e11b1e8	0.14228022
230	0x3d020d53	0.03175099
231	0x3ca4918d	0.020088935
232	0xbd0a5653	-0.03377373
233	0xbc2d4b4d	-0.010577035
234	0xbca6f3ca	-0.02037992
235	0xbdb75eef	-0.08953654
236	0x3cd97301	0.026544096
237	0xbd0019f0	-0.031274736
238	0xbc9ef031	-0.019401642
239	0xbe60389e	-0.21896598
240	0x3d75f4c4	0.06004788
241	0xbd70cfc8	-0.058791906
242	0x3c232a03	0.009958747
243	0x3dc6333c	0.09677741
244	0x3dcd79d2	0.10033001
245	0x3d15de22	0.036588795
246	0xbcaa4cd7	-0.020788593
247	0x3bb34149	0.005470429
248	0xbcbf2367	-0.02333231
249	0x3d32e0dc	0.043671474
250	0x3ddbe552	0.10737099
251	0xbe2ea5c1	-0.17055418
252	0x3d042526	0.03226199
253	0x3cc82fc8	0.024436846
254	0x3cb01b3d	0.021497363
255	0x3d9ac33e	0.07556771

weight f4 [768]
0	0x3f90ae89	1.1303264
1	0x3f7f72a6	0.99784315
2	0x3f757e30	0.9589567
3	0x3f718ec2	0.94358456
4	0x3f66e186	0.9018787
5	0x3f74b89e	0.95594203
6	0x3f7955e2	0.9739667
7	0x3f76ae40	0.96359634
8	0x3f761941	0.96132284
9	0x3f7faaac	0.998698
10	0x3f7af9d2	0.98037446
11	0x3f818104	1.0117497
12	0x3f6a9af1	0.9164267
13	0x3f7de6de	0.991804
14	0x3f8d4f40	1.103981
15	0x3f6b2ddd	0.91866857
16	0x3f6238b0	0.8836775
17	0x3f7473b7	0.95489067
18	0x3f80d54e	1.0065095
19	0x3f8b8f2f	1.0903071
20	0x3f873a01	1.0564576
21	0x3f788016	0.97070444
22	0x3f7007bf	0.9376182
23	0x3f82cb9e	1.0218389
24	0x3f8492f7	1.035735
25	0x3f7acf89	0.97972924
26	0x3f3fbd29	0.7489801
27	0x3f77eaeb	0.9684283
28	0x3f7fa14a	0.9985548
29	0x3f7eb0a7	0.994883
30	0x3f81aefc	1.0131526
31	0x3f4ba670	0.7955084
32	0x3f7f7fb8	0.9980426
33	0x3f807fb7	1.0038975
34	0x3f85775a	1.0427048
35	0x3f7ed6a7	0.99546283
36	0x3f7e4265	0.9932006
37	0x3f87b2d6	1.0601451
38	0x3f868c38	1.0511541
39	0x3f6d3526	0.92659223
40	0x3f80ca91	1.0061818
41	0x3f821b92	1.0164664
42	0x3f81ac50	1.0130711
43	0x3f73d68a	0.95249236
44	0x3f88e629	1.0695239
45	0x3f97fe38	1.1874456
46	0x3f84bf19	1.0370818
47	0x3f74705f	0.95483965
48	0x3f6e1062	0.9299375
49	0x3f81b2fa	1.0132744
50	0x3f880ebb	1.0629495
51	0x3f6eb2ab	0.93241376
52	0x3f77d50f	0.96809477
53	0x3f7b3edb	0.98142785
54	0x3f823474	1.0172257
55	0x3f6b3ff5	0.91894466
56	0x3f6ece52	0.9328357
57	0x3f856e94	1.0424371
58	0x3f851dd5	1.0399729
59	0x3f567c92	0.8378383
60	0x3f8423fe	1.0323484
61	0x3f8c78dd	1.0974385
62	0x3f848662	1.035351
63	0x3f8890ee	1.0669229
64	0x3f8242d1	1.0176641
65	0x3f7249c7	0.94643825
66	0x3f593b31	0.84855944
67	0x3f907c92	1.1288016
68	0x3f7ad3d4	0.97979474
69	0x3f7757ec	0.96618533
70	0x3f81c651	1.0138646
71	0x3f698a20	0.9122639
72	0x3f87833d	1.0586926
73	0x3f797125	0.9743827
74	0x3f785817	0.97009414
75	0x3f8ac239	1.0840522
76	0x3f921af6	1.1414478
77	0x3f73b362	0.9519559
78	0x3f955d22	1.1669047
79	0x3f72d600	0.9485779
80	0x3f843a3a	1.0330269
81	0x3f660ebd	0.8986624
82	0x3f82de08	1.0224009
83	0x3f684164	0.9072478
84	0x3f7b8263	0.9824583
85	0x3f7a2382	0.9771043
86	0x3f67a697	0.9048857
87	0x3f825f10	1.0185261
88	0x3f3a6e0c	0.7282417
89	0x3f6b05cb	0.91805714
90	0x3f8d530d	1.104097
91	0x3f803ae4	1.0017972
92	0x3f868e5e	1.0512197
93	0x3f855b64	1.0418515
94	0x3f81f101	1.0151674
95	0x3f80f9ab	1.0076193
96	0x3f7a5842	0.9779092
97	0x3f7b09ff	0.9806213
98	0x3f87af8b	1.0600446
99	0x3f8da879	1.1067039
100	0x3f9949ce	1.1975648
101	0x3f63fa26	0.8905357
102	0x3f6794d9	0.904615
103	0x3f71c201	0.9443665
104	0x3f83df5e	1.0302541
105	0x3f5d9b7a	0.86565363
106	0x3f851fea	1.0400364
107	0x3f769388	0.96318865
108	0x3f76a25f	0.9634151
109	0x3f83803a	1.0273507
110	0x3f7cc7b0	0.987422
111	0x3f758e5c	0.9592035
112	0x3f704ca8	0.9386697
113	0x3f870506	1.0548408
114	0x3f91674d	1.135965
115	0x3f809de4	1.0048184
116	0x3f822ee8	1.0170565
117	0x3f6638fe	0.89930713
118	0x3f83ea98	1.0305967
119	0x3f8012ff	1.0005797
120	0x3f831cb6	1.0243137
121	0x3f815f34	1.0107179
122	0x3f83a765	1.028546
123	0x3f815c5d	1.0106312
124	0x3f7a827b	0.9785535
125	0x3f81c90c	1.013948
126	0x3f60c5b4	0.8780167
127	0x3f734c23	0.9503805
128	0x3f79d26b	0.975867
129	0x3f77d06e	0.96802413
130	0x3f7ea57b	0.99471253
131	0x3f6dcd1f	0.92891115
132	0x3f81d94f	1.0144442
133	0x3f84bed7	1.037074
134	0x3f67efbd	0.90600187
135	0x3f75e8a4	0.96058106
136	0x3f72be35	0.9482148
137	0x3f760080	0.9609451
138	0x3f9962ec	1.1983314
139	0x3f748edc	0.95530486
140	0x3f790e4e	0.9728745
141	0x3f8473b1	1.0347806
142	0x3f7d4f23	0.9894888
143	0x3f7e4f7e	0.99340045
144	0x3f89073a	1.070533
145	0x3f517975	0.81825954
146	0x3f6e3fd1	0.93066126
147	0x3f87693b	1.0578989
148	0x3f8d6bfa	1.1048577
149	0x3f804913	1.00223
150	0x3f86f2c4	1.0542836
151	0x3f5de36f	0.8667516
152	0x3f7f3c2c	0.9970119
153	0x3f8480f0	1.0351849
154	0x3f737013	0.95092887
155	0x3f91fa2b	1.140447
156	0x3f8760f2	1.057646
157	0x3f844ba6	1.0335586
158	0x3f7ecd8f	0.9953241
159	0x3f76ea4a	0.96451247
160	0x3f7b95a5	0.98275214
161	0x3f659461	0.89679533
162	0x3f7f6176	0.9975809
163	0x3f74c82c	0.9561794
164	0x3f94f7f0	1.1638165
165	0x3f5f4a1a	0.87222445
166	0x3f7c1b47	0.9847912
167	0x3fa6e803	1.3039554
168	0x3f718fa1	0.94359785
169	0x3f893fcd	1.0722595
170	0x3f712011	0.94189554
171	0x3f81fce2	1.0155299
172	0x3f716211	0.9429026
173	0x3f87d3c2	1.0611498
174	0x3f75ab06	0.95964086
175	0x3f7665c6	0.96249044
176	0x3f691579	0.9104839
177	0x3f655f86	0.8959888
178	0x3f81a3ea	1.0128148
179	0x3f84ba22	1.0369303
180	0x3f593bdc	0.84856963
181	0x3f756979	0.95864064
182	0x3f7e50a4	0.993418
183	0x3f8c2876	1.0949848
184	0x3f7ea5a6	0.9947151
185	0x3f745819	0.95446926
186	0x3f756a9c	0.958658
187	0x3f74193c	0.95351005
188	0x3f7ea1d0	0.99465656
189	0x3f7d57f7	0.9896235
190	0x3f82f5de	1.0231283
191	0x3f7d2ca4	0.9889624
192	0x3f920568	1.14079
193	0x3f614d8e	0.88008964
194	0x3f7babd5	0.9830907
195	0x3f6f221c	0.9341142
196	0x3f57de7b	0.84323853
197	0x3f8ad7ce	1.0847108
198	0x3f68fb6d	0.91008645
199	0x3f71454c	0.94246364
200	0x3f8a7b35	1.081885
201	0x3f8101ea	1.0078709
202	0x3f854e73	1.0414566
203	0x3f848d2b	1.0355581
204	0x3f5c2f56	0.8600973
205	0x3f589aaf	0.8461103
206	0x3f7493ba	0.9553791
207	0x3f7c1fd0	0.9848604
208	0x3f857a35	1.042792
209	0x3f781700	0.96910095
210	0x3f5f831b	0.87309426
211	0x3f8c069a	1.0939515
212	0x3f8fea4f	1.124338
213	0x3f7d0f4e	0.9885148
214	0x3f71e3b7	0.9448809
215	0x3f53dc74	0.8275826
216	0x3f9a7937	1.2068242
217	0x3f8649e3	1.0491298
218	0x3f888209	1.0664684
219	0x3f87ac83	1.0599521
220	0x3f520190	0.82033634
221	0x3f7c0cb9	0.98456913
222	0x3f82eb36	1.0228031
223	0x3f814870	1.0100231
224	0x3f82859b	1.0197023
225	0x3f7a0f61	0.97679716
226	0x3f71fe2d	0.94528466
227	0x3f674df6	0.90353334
228	0x3f7d3724	0.9891226
229	0x3f980b78	1.18785
230	0x3f75e6c7	0.96055263
231	0x3f80da27	1.0066575
232	0x3f8c0d0e	1.0941484
233	0x3f7cfe20	0.98825264
234	0x3f7acd2e	0.9796933
235	0x3f62f8f8	0.88661146
236	0x3f5a54dd	0.8528574
237	0x3f831873	1.0241836
238	0x3f8f9e7a	1.1220238
239	0x3f80e5f2	1.0070174
240	0x3f5c8795	0.8614438
241	0x3f71530a	0.9426733
242	0x3f6e190b	0.9300696
243	0x3f796425	0.97418433
244	0x3f681da5	0.90670234
245	0x3f6af9ff	0.91787714
246	0x3f6c68e6	0.9234756
247	0x3f713ee4	0.9423659
248	0x3f64422c	0.8916347
249	0x3f80994c	1.0046782
250	0x3f6bf1a9	0.9216562
251	0x3f80bc1b	1.0057405
252	0x3f8d6c72	1.104872
253	0x3f8a70b8	1.0815649
254	0x3f595814	0.8490002
255	0x3f65e42b	0.8980128

bias f4 [768]
0	0xbde88cdb	-0.11354991
1	0xbccb5ca4	-0.024824448
2	0xbd0ec87b	-0.03485916
3	0x3dcfa45b	0.1013877
4	0xbdb7b597	-0.089701824
5	0x3b904211	0.004402407
6	0x3cffbab9	0.031216966
7	0xbccadc43	-0.024763232
8	0x3aa3925e	0.0012479534
9	0x3d8b67e4	0.06806925
10	0xbd43a525	-0.047764916
11	0x3d456df4	0.048200563
12	0x3d7f3b38	0.062312335
13	0xbc61ff64	-0.0137938
14	0x3e09cc13	0.13456754
15	0xbd98f1b1	-0.07467974
16	0xbdbf2088	-0.09332377
17	0x3d259b94	0.040431574
18	0xbc653ed6	-0.013992032
19	0x3dc28c93	0.09499469
20	0x3dc8b692	0.098004475
21	0x3dad5faf	0.08465516
22	0xbd48bcd6	-0.049008213
23	0xbdaee625	-0.0853999
24	0x3d4e28dc	0.050331935
25	0xbc30d259	-0.010792338
26	0x3e91aeda	0.28453714
27	0x3c17d0a9	0.009266057
28	0xbb911235	-0.0044272193
29	0xbd27d637	-0.040975776
30	0xbcf49e14	-0.029860534
31	0xbe581baa	-0.21104303
32	0xbc375232	-0.0111890305
33	0xbd7ed056	-0.062210403
34	0xbd83b12d	-0.06430278
35	0xbd28f16f	-0.041245874
36	0xbda8cd62	-0.08242299
37	0xbd9d58ff	-0.0768299
38	0xbdb45aef	-0.08806407
39	0xbdb8a4cc	-0.090158075
40	0x3d0fe87b	0.03513382
41	0x3d7a1b36	0.061061107
42	0x3dacc71d	0.08436415
43	0x3cc3b4c4	0.023889907
44	0x3d8ee009	0.06976325
45	0xbe062bdb	-0.13102667
46	0xbca72b52	-0.020406399
47	0x3d23866e	0.039923124
48	0x3dd0d80f	0.1019746
49	0xbc086e95	-0.008327146
50	0xbd6d25d7	-0.057897415
51	0xbd2fb99d	-0.042901624
52	0x3d2526fd	0.040320385
53	0xbdfea223	-0.12433269
54	0xbc4e2028	-0.012580909
55	0xbdd32c69	-0.10311205
56	0x3d1e3bca	0.038631238
57	0xbd9d7c22	-0.07689692
58	0x3d5f0f4a	0.05445794
59	0xbe1a642b	-0.15077274
60	0xbcc896a9	-0.024485903
61	0x3e1e1b3c	0.15440077
62	0x3d51d9e4	0.051233187
63	0xbd807619	-0.06272525
64	0x3d83e2db	0.064397536
65	0x3d79bd17	0.060971346
66	0xbdd9f2d3	-0.10642018
67	0xbdb829c3	-0.089923404
68	0xbc95cbd1	-0.018285664
69	0x3c205eb7	0.009788207
70	0xbca2bd91	-0.019865783
71	0xbd916534	-0.07099381
72	0xbd865c6e	-0.06560598
73	0x3d2a196c	0.04152815
74	0xbd98d801	-0.074630745
75	0x3dc4c6e2	0.096082464
76	0x3e0d4d1f	0.1379895
77	0x3cd5e2ec	0.026109181
78	0xbe58d223	-0.21173911
79	0xbc8efc47	-0.01745428
80	0x3c8f3f0d	0.01748612
81	0xbdbe017b	-0.09277626
82	0x3d4db147	0.050217893
83	0x3d9bb49e	0.07602809
84	0x3d3fd42c	0.046833202
85	0xbc5defd4	-0.013545949
86	0x3dedf2b6	0.11618559
87	0x3ca46aa3	0.02007038
88	0xbe868c29	-0.2627881
89	0x3d9ae43c	0.075630635
90	0xbdea98ec	-0.11454949
91	0xbc53f1c4	-0.012936059
92	0x3cbd21e1	0.023087444
93	0xbd161824	-0.036644116
94	0x3d70e069	0.058807764
95	0xbbfd1cfc	-0.0077244025
96	0x3dcb02ef	0.09912669
97	0xbdebaf97	-0.115081005
98	0xbda9b412	-0.08286299
99	0x3dc882e2	0.09790589
100	0xbe37d253	-0.17951326
101	0xbe15cb41	-0.14628316
102	0xbcb3c628	-0.021945074
103	0xbd48c020	-0.04901135
104	0xbd241437	-0.04005834
105	0x3e087c1e	0.13328597
106	0x3c765007	0.015033728
107	0xbc8324bf	-0.016008733
108	0x3d20d831	0.039268676
109	0xbcecf1c4	-0.028923877
110	0x3c0bf6c7	0.008542723
111	0xbc185629	-0.009297886
112	0xbd9a1d65	-0.07525138
113	0xbd849725	-0.06474141
114	0x3e28b658	0.16475809
115	0xbaafa110	-0.0013399441
116	0xbd6ee545	-0.058324117
117	0x3da6ce2f	0.08144795
118	0xbe3ee018	-0.18640172
119	0xbb0107c4	-0.0019688467
120	0x3d1be478	0.03805968
121	0x3d5dacb8	0.054119796
122	0xbd4b3f3b	-0.04962085
123	0xbdd541e4	-0.10412958
124	0x3aa507a5	0.0012590779
125	0xbcadcccc	-0.021215819
126	0x3debbb9f	0.11510395
127	0x3d4a58fc	0.04940127
128	0x3ccc2f15	0.024924794
129	0x3cd3b2f7	0.025842173
130	0x3af2bc94	0.0018519335
131	0x3d5e2980	0.054238796
132	0xbbd3a1a9	-0.0064584804
133	0x3d58aaf0	0.052897394
134	0x3db629ca	0.088946894
135	0x3c7fbe2a	0.0156093035
136	0xbd74f4a4	-0.05980362
137	0x3d23272a	0.03983227
138	0x3e41029b	0.1884865
139	0xbdb7dd3c	-0.08977744
140	0x3cf021c1	0.02931297
141	0xbd553e79	-0.05206153
142	0x3bb3c991	0.005486675
143	0x3d0700ca	0.032959737
144	0x3e1ded53	0.15422563
145	0x3e4193a4	0.18903977
146	0x3d875a51	0.06609023
147	0x3e0e8567	0.13918076
148	0x3e7b9911	0.24570109
149	0xbc6e313a	-0.014538104
150	0x3d8fa074	0.07013026
151	0x3e25a338	0.16175544
152	0xbe31df23	-0.17370276
153	0x3d6c2ecd	0.05766182
154	0x3c78074c	0.015138458
155	0x3def39e5	0.116809644
156	0x3d868728	0.06568748
157	0xbe5e1a41	-0.21689703
158	0xbaa2d4ca	-0.0012423035
159	0xbceecc1f	-0.029150067
160	0xbd28b33b	-0.041186552
161	0xbda33b28	-0.079702675
162	0xbc26139c	-0.010136511
163	0xbd11cc4a	-0.035595216
164	0x3e0f812c	0.14014119
165	0x3de090bf	0.10965108
166	0x3c811669	0.015757756
167	0xbe9eddb5	-0.31028524
168	0xbcfe40ca	-0.031036753
169	0x3e0166d0	0.12636876
170	0x3e465a7e	0.19370458
171	0x3ca73f29	0.02041586
172	0xbc27874c	-0.010225128
173	0x3dbce71d	0.09223769
174	0x3d071096	0.032974802
175	0xbd74622a	-0.05966393
176	0x3d9f1d93	0.07769313
177	0x3d85ed87	0.06539445
178	0xbd9e6779	-0.077345796
179	0x3d3a641c	0.045505628
180	0x3e0f1a56	0.1397489
181	0xbd010b0d	-0.03150468
182	0xbbb06a0a	-0.0053837346
183	0xbdef2e8b	-0.11678799
184	0xbc68dfdb	-0.014213528
185	0x3ca3e6ff	0.020007608
186	0xbd0988d2	-0.033577748
187	0xbd75c62d	-0.06000345
188	0x3b3ca268	0.0028783325
189	0xbb512194	-0.0031910883
190	0x3dcafa12	0.099109784
191	0x3e18d029	0.14923157
192	0x3e2f8939	0.1714219
193	0x3da44649	0.08021218
194	0xbc202113	-0.0097735105
195	0xbc7510da	-0.014957631
196	0xbe03cf42	-0.12872031
197	0x3dab28b0	0.0835737
198	0x3cacb46d	0.021082127
199	0x3d20fa9f	0.03930151
200	0x3e0649ad	0.13114043
201	0x3e109764	0.14120251
202	0xbd4a00a6	-0.049317025
203	0xbe158101	-0.14599992
204	0xbdf4efff	-0.11959838
205	0xbe0a0683	-0.13479047
206	0xbd9fb3db	-0.077979766
207	0xbbf935b0	-0.007605277
208	0x3d40eb76	0.047099553
209	0xbd5fbbf2	-0.054622598
210	0xbdf56dab	-0.11983808
211	0xbdb645b0	-0.089000106
212	0x3e0f60f8	0.14001834
213	0x3d68302a	0.056686558
214	0x3cd62b28	0.026143625
215	0x3dba83f1	0.09107197
216	0x3e4fb7bf	0.20284937
217	0x3d68f377	0.05687281
218	0xbda11e1d	-0.07867072
219	0xbd5b741c	-0.053577527
220	0xbe3acb20	-0.18241549
221	0x3b829e00	0.00398612
222	0xbcd6eaa7	-0.026234938
223	0x3d2b34af	0.04179829
224	0xbd3d3e3a	-0.046201922
225	0x3c8fbd0f	0.017546205
226	0xbd6bcd21	-0.057568673
227	0x3c679569	0.014134743
228	0xbbc3e077	-0.005977686
229	0x3e3c916a	0.18414846
230	0xbdf3440c	-0.11878213
231	0xbc023123	-0.007946285
232	0x3dda2bdb	0.10652896
233	0x3c098173	0.0083926795
234	0xbc0856a3	-0.008321437
235	0xbc685d28	-0.014182366
236	0x3e498101	0.19678117
237	0xbd085d78	-0.033292264
238	0x3dde1193	0.10843196
239	0xbb42539c	-0.0029651886
240	0xbe11e731	-0.14248349
241	0x3de6cbb5	0.11269323
242	0x3d5f9120	0.05458176
243	0xbdcadf8a	-0.09905918
244	0xbd894ec9	-0.0670448
245	0x3de4c286	0.11169915
246	0x3bb7f898	0.0056143515
247	0x3d4c410c	0.04986672
248	0xbdd815e0	-0.10551047
249	0xbc54d4d8	-0.012990199
250	0x3d98d652	0.07462753
251	0xbc1492fe	-0.009068249
252	0xbde1abed	-0.1101912
253	0xbda7733e	-0.081762776
254	0x3e23574f	0.15951274
255	0xbdc128f6	-0.09431641
