ablations/ada-nodelta/jaychou2023-05-24T15-35-51_jaychou-ada/embeddings_gs-4500.pt (torch, 921583 bytes, 168 tensors)

pre_vecs f4 [2, 768]
0	0xbc888e17	-0.016669316
1	0xbb95f41a	-0.0045762183
2	0xbb8e8b7b	-0.0043501235
3	0x3d12ee81	0.035871986
4	0xbc0c047c	-0.008545991
5	0x3c50909b	0.012729789
6	0xbc6f9df2	-0.014625059
7	0xba7c944e	-0.0009635136
8	0xba9fdd5a	-0.0012196705
9	0x3ca1effd	0.019767756
10	0xbb105f19	-0.002202934
11	0xbd1e5eeb	-0.03866474
12	0xbbfbf884	-0.0076895375
13	0xbc0b6a63	-0.008509251
14	0x3c5ab18f	0.013347997
15	0x3cab1c17	0.020887418
16	0x3940440d	0.00018335898
17	0xbbba7c32	-0.0056910748
18	0xbd1afc35	-0.03783818
19	0x3c80bf80	0.015716314
20	0xbbd53e84	-0.0065076966
21	0x3caf0801	0.021366121
22	0x3c930b80	0.01794982
23	0xbce6f86a	-0.028194625
24	0x3b4facf0	0.0031688772
25	0xbc3df8f5	-0.0115950005
26	0x3c661e74	0.0140453465
27	0x3c0a3a08	0.008436687
28	0xbb7cfc5b	-0.0038602564
29	0xbb0efc00	-0.0021817684
30	0x3ca4d8f0	0.020122975
31	0x3c67219b	0.014107133
32	0xbba23623	-0.0049503013
33	0x3c29ff8d	0.010375869
34	0x3c3f3241	0.011669696
35	0x3d94b23b	0.07260557
36	0xbcaa8ec6	-0.020820033
37	0x3ccf237d	0.025285477
38	0xbcdff45b	-0.027338197
39	0x3c1fcd9d	0.009753612
40	0x3c3c37d6	0.011487922
41	0x3b5b4ec2	0.0033463691
42	0xbbde580e	-0.0067853993
43	0xbc50e987	-0.01275099
44	0xbc0ebd11	-0.008712069
45	0xba8b9588	-0.0010649422
46	0x3c036cca	0.008021543
47	0xbc0eca73	-0.00871526
48	0xbd075af5	-0.033045728
49	0xbc714f80	-0.014728427
50	0x3cb4961c	0.022044234
51	0x3c710f44	0.014713112
52	0xbc2364d0	-0.009972766
53	0xbbc6dfe8	-0.006069172
54	0xbcae96b3	-0.021312093
55	0x3aa9da78	0.0012958786
56	0x3c9b8c60	0.018987834
57	0x3bcbbafc	0.0062173586
58	0x3c943a68	0.018094257
59	0x3b446be4	0.0029971534
60	0xbacbd8c4	-0.0015552272
61	0x3c25766b	0.010099034
62	0x3c6b64a5	0.014367257
63	0xbc7961fe	-0.015221117
64	0x3c24c1fa	0.010056013
65	0xbc1fd4aa	-0.009755293
66	0x3c1933c9	0.009350725
67	0x3d038042	0.032104738
68	0x3c3e2a66	0.011606788
69	0x3c402025	0.011726414
70	0xbc38a779	-0.011270397
71	0xbc0b6c5b	-0.008509721
72	0x3b23b12b	0.0024977427
73	0x3b4cbfe6	0.003124231
74	0xbc525add	-0.012839046
75	0x3976034b	0.00023461615
76	0xbc1833ae	-0.009289665
77	0xbc44fb55	-0.012022813
78	0x3beb7693	0.007185766
79	0x3c260c9c	0.010134842
80	0x3919593f	0.00014624464
81	0x3c7a2cc1	0.015269459
82	0x3becebf2	0.0072302753
83	0xbd41d44b	-0.0473216
84	0xba58c0e3	-0.00082684885
85	0xbbbe24b5	-0.0058027157
86	0xb8cc4d4a	-9.741874e-05
87	0xbc361fd5	-0.011115988
88	0x3cb8971b	0.02253299
89	0xbcbfb096	-0.023399632
90	0x3bab27ef	0.0052232663
91	0x3ca4dd7d	0.020125145
92	0x3c8cf2f5	0.017205695
93	0xbbd7d576	-0.006586726
94	0xbc38d19b	-0.011280443
95	0x3c5df313	0.013546723
96	0x3c63f0c8	0.013912387
97	0x3b72172d	0.0036940083
98	0xbc03d7ef	-0.008047088
99	0x3c0d8e01	0.008639813
100	0xbcddabbb	-0.027059427
101	0x3baaab59	0.0052084145
102	0xbba178df	-0.004927739
103	0x3b09159d	0.0020917424
104	0xbc06c59e	-0.008225827
105	0xbc250aa4	-0.010073338
106	0x3bcd6737	0.0062684077
107	0x3c2cf384	0.0105561055
108	0xbbf0fcbf	-0.0073543484
109	0xbc9a2cb1	-0.018820139
110	0x3bbd7dd6	0.005782823
111	0xbbe994ec	-0.0071283486
112	0x3bc4985b	0.0059996075
113	0x3a56f19c	0.0008199455
114	0x3bc24692	0.005928823
115	0x3bc29296	0.0059378846
116	0xbd2a0516	-0.041508757
117	0x3c4dd15c	0.012562122
118	0xbcb2557c	-0.021769278
119	0x3ad3b90d	0.0016153172
120	0x3cbcc409	0.023042696
121	0xbc486c9e	-0.012232928
122	0x3c9a8465	0.018861959
123	0x3aea03ac	0.0017853878
124	0xbcae8b71	-0.021306725
125	0xbc155cc3	-0.009116354
126	0x3a14e0ce	0.00056792505
127	0xbc9c3c75	-0.019071797
128	0xba5cc626	-0.00084218604
129	0xbcb6e96e	-0.022328105
130	0xbbd4e674	-0.0064971987
131	0x3c850a2b	0.0162402
132	0xbce97696	-0.028498929
133	0x3b8e2a51	0.0043385406
134	0x3c2d0f20	0.010562688
135	0x3c47a3fa	0.012185091
136	0xbcd0796c	-0.025448523
137	0xbd28f1de	-0.041246288
138	0x3b406a9f	0.0029360426
139	0xbc12f784	-0.008970145
140	0xbd229f47	-0.03970268
141	0xbb0f693a	-0.0021882788
142	0xbc577f94	-0.013152976
143	0xbc4c785f	-0.012479871
144	0x3bcf8e15	0.006334076
145	0xbaaf60a9	-0.0013380247
146	0x3c1c5ac5	0.0095431255
147	0xbbf5c32c	-0.007500073
148	0x3c5a64c6	0.01332969
149	0x3c491b4b	0.012274574
150	0x3c1f03dc	0.00970551
151	0x3c808fb6	0.015693527
152	0xbc944098	-0.018097207
153	0x3c57e8eb	0.013178091
154	0xbc72a500	-0.014809847
155	0x3ca98ab5	0.020696023
156	0x3cb9f913	0.022701776
157	0x3cbf02db	0.023316791
158	0xbbc09874	-0.005877549
159	0xbbe3effd	-0.006956099
160	0x3c4871d3	0.012234169
161	0x3cd085fe	0.025454517
162	0x3d17d8c2	0.03707195
163	0x3ca483bf	0.020082353
164	0x3c08b22d	0.008343262
165	0xbc402655	-0.011727889
166	0x3c022b28	0.00794486
167	0xbc9bafe8	-0.019004777
168	0x3c876ed3	0.016532337
169	0xba06c2ab	-0.0005140702
170	0xbc0470f0	-0.008083567
171	0xba08065d	-0.00051889365
172	0xbb83ee95	-0.004026244
173	0xbbfab897	-0.0076513994
174	0x3cb319ae	0.021862831
175	0x3c4737d2	0.012159305
176	0xbccbbc94	-0.024870194
177	0xbc888d4d	-0.01666894
178	0xbb865c14	-0.004100332
179	0x3c7f9b59	0.015601003
180	0xbcdc2752	-0.026874218
181	0x3c1a34b0	0.009411976
182	0x3ce2e0ce	0.027695086
183	0x3c19b744	0.009382073
184	0xbb0309d5	-0.0019994874
185	0xbb210da6	-0.0024574785
186	0xbc7f1a66	-0.015570259
187	0x3c40f79a	0.011777783
188	0xbabd6772	-0.0014450385
189	0x3c982c51	0.01857582
190	0xbb0b4141	-0.002124861
191	0x3c563cb3	0.013075995
192	0x3c0c7485	0.008572702
193	0xbc179c72	-0.009253608
194	0xbc7cfe0a	-0.015441427
195	0x3b9d6882	0.004803718
196	0x3c93f375	0.018060425
197	0x3c392dec	0.011302453
198	0x3c54ab03	0.0129802255
199	0xbc5bc460	-0.013413519
200	0x3c53c2ed	0.012924892
201	0x3b8094c5	0.0039239847
202	0xbcbf8150	-0.02337709
203	0xbc11f599	-0.008908653
204	0xbc2f42bf	-0.010697066
205	0xba8bd9c3	-0.0010669756
206	0x3c52965c	0.012853231
207	0xbb465529	-0.0030263162
208	0x3bc2f418	0.0059495084
209	0x3c3a8e23	0.011386427
210	0x3d06aa76	0.032877408
211	0x3b922bc6	0.0044607846
212	0x3c80001a	0.015625048
213	0xbbb23cc5	-0.005439373
214	0xbc72dd78	-0.01482331
215	0xbc93c51e	-0.018038329
216	0x3c571c4f	0.013129308
217	0x3d3b0c3a	0.045665957
218	0xbb102211	-0.0021992961
219	0x3be2f799	0.0069264886
220	0x3ccabbec	0.024747811
221	0xbbaa31cc	-0.0051939245
222	0x3b13cac6	0.0022551282
223	0xbbd43073	-0.006475502
224	0xbae75fef	-0.0017652492
225	0x3b8598a6	0.004077035
226	0x3b7e5ec1	0.0038813802
227	0x3b32284b	0.002718466
228	0x3d0b9791	0.034080092
229	0x3b6bae2e	0.0035961973
230	0x3d25efe8	0.040511996
231	0x3b8013e4	0.003908621
232	0xbc1c1023	-0.009525332
233	0xbcd1b41f	-0.025598584
234	0x3c562390	0.013070002
235	0xbbfac09a	-0.0076523544
236	0xbaa8ee71	-0.0012888444
237	0x3c264bab	0.010149877
238	0x3d0115e0	0.031515002
239	0xbc0d785f	-0.008634656
240	0x3c3d2757	0.011545024
241	0x3c2a11d0	0.010380223
242	0x3adc5b9d	0.0016811971
243	0x3cfaad9e	0.030600365
244	0xbc83d4aa	-0.016092617
245	0xbc2ca668	-0.010537721
246	0xbb7a4024	-0.0038185203
247	0xbc777ec4	-0.015105907
248	0x3b2a964b	0.0026029523
249	0x3ca28d01	0.019842627
250	0xbc1f1c64	-0.009711359
251	0x3d18ef7d	0.03733777
252	0xbc0b546f	-0.008504017
253	0xbd1806f1	-0.037115995
254	0xbc664fc0	-0.0140571
255	0x3c9c20c5	0.019058594

basis_rand_weights f4 [16, 5]
0	0x3c3725b6	0.011178425
1	0x3d9678cf	0.07347261
2	0x39f6f0e6	0.0004710026
3	0x3d84025d	0.06445763
4	0xbe0134b7	-0.12617765
5	0x3bb8d765	0.0056409114
6	0x3cdc0cd3	0.026861584
7	0xbdc0e5e7	-0.094188504
8	0xbdcb4b20	-0.09926438
9	0x3ded8d15	0.11599175
10	0xba2fd9e6	-0.00067081896
11	0x3a5cc4a1	0.0008421634
12	0x3d510eb3	0.05103941
13	0x3cdd4021	0.027008118
14	0xbc98f346	-0.01867069
15	0xbcdc650f	-0.026903657
16	0x3c9f7fd2	0.01947013
17	0xbd939a91	-0.072072156
18	0xbe2e9b77	-0.17051493
19	0x3dd0d042	0.10195972
20	0xbd1f9cae	-0.03896778
21	0x3a8c0cf9	0.0010685018
22	0xbd8e12b0	-0.06937158
23	0x3dacddc3	0.08440735
24	0xbd988198	-0.07446593
25	0xbd4f7900	-0.050652504
26	0xbc870b44	-0.016484864
27	0x3cc2a35c	0.023759536
28	0xbcb15878	-0.02164863
29	0xbd3f8c22	-0.0467645
30	0xbccc6616	-0.024951022
31	0xbd033e4c	-0.032041833
32	0xbc6979e7	-0.014250255
33	0x3ddd6384	0.10809997
34	0xbc6a940b	-0.014317523
35	0xbd8fa197	-0.07013243
36	0xbd834904	-0.06410411
37	0xbe02a04d	-0.12756462
38	0x3e45ec4a	0.19328418
39	0x3c215b17	0.009848378
40	0xbd8af7df	-0.06785559
41	0x3c8e16ea	0.01734491
42	0x3d3b7b9b	0.045772176
43	0x3e9d790b	0.3075641
44	0x3cc29bb9	0.023755895
45	0xbd2eb892	-0.04265649
46	0x3d4a0255	0.04931863
47	0x3dd38a8c	0.1032916
48	0x3d59d202	0.053178795
49	0x3c084f1e	0.008319644
50	0xbd92cc22	-0.071678415
51	0xbdb1ed4f	-0.08687841
52	0x3e5db670	0.21651626
53	0x3e9cfb91	0.3066068
54	0xbdd9f561	-0.106425054
55	0xbd4e619c	-0.050386056
56	0xbcc6a2b5	-0.024247507
57	0xbe209037	-0.15680014
58	0x3e3fd7eb	0.1873471
59	0x3dbf5322	0.09342028
60	0x3d042fb5	0.03227206
61	0x3d21a1e6	0.03946104
62	0x3d092cc5	0.03348996
63	0x3e508589	0.2036344
64	0x3b2711fe	0.0025492902
65	0xbd58408b	-0.052795928
66	0xbcbbbbca	-0.022916693
67	0xbb7e8831	-0.00388385
68	0x3dd8eccc	0.105920404
69	0xbda40286	-0.08008294
70	0xbd01fa64	-0.03173293
71	0x3d0b4679	0.034002755
72	0xbddfdbf0	-0.109306216
73	0xbc7b8eff	-0.015353917
74	0xbe615e4e	-0.2200863
75	0x3d4aa1c5	0.04947068
76	0xbb907452	-0.0044083977
77	0xbc6aced3	-0.014331537
78	0x3e95ab0d	0.29232064
79	0x3bfc0d6e	0.0076920306

basis_vecs f4 [3, 768]
0	0x3b8c3c36	0.0042796386
1	0xbb95ea25	-0.0045750313
2	0xbc046d8f	-0.008082761
3	0x3cdc37f0	0.026882142
4	0x3ccc57bb	0.024944177
5	0x3cdfb86d	0.02730962
6	0xbcd12633	-0.02553091
7	0x3c45cc6d	0.012072665
8	0x3c7a6b02	0.015284302
9	0x3d408f9f	0.047011968
10	0x39435d1f	0.0001863134
11	0xbc9d08c9	-0.019169228
12	0x3c278fcd	0.010227156
13	0xbbe19912	-0.0068847025
14	0x3c235863	0.0099698035
15	0x3d29daa9	0.041468296
16	0xbc9afd57	-0.01891963
17	0xbc5af2d0	-0.013363555
18	0xbd70e45c	-0.05881153
19	0x3cae3853	0.021267092
20	0x3b5aa25b	0.0033360932
21	0x3ca701a1	0.020386519
22	0x3cf4f406	0.029901516
23	0xbd02f348	-0.031970292
24	0x3cb4bf7f	0.022063969
25	0xbccf0db1	-0.025275083
26	0xbc69660c	-0.014245521
27	0x3cdc4e12	0.026892696
28	0xbd289c50	-0.041164696
29	0x3d2cbe7a	0.04217384
30	0xbb51e1f5	-0.003202555
31	0x39efc5be	0.00045732962
32	0xbd67ab78	-0.05656001
33	0x3d0e9275	0.03480764
34	0x3c745da2	0.014914902
35	0x3dd29304	0.10281947
36	0xbbda6c07	-0.00666571
37	0x3a4eaac6	0.00078837236
38	0xb8cb13b8	-9.683467e-05
39	0x3c1c15e5	0.009526704
40	0xbb063621	-0.002047904
41	0xbb9ddff1	-0.0048179557
42	0xbbf40acc	-0.007447576
43	0xbc9a6ad4	-0.018849768
44	0xbb77918e	-0.0037775966
45	0xbccc47c8	-0.024936572
46	0x3c901f9a	0.017593194
47	0xbbb3391c	-0.0054694545
48	0xba37c7c5	-0.0007010664
49	0x3c09fbd8	0.008421861
50	0x3c105b5d	0.008810845
51	0x3bca4c39	0.006173637
52	0xbbeaa27b	-0.0071604825
53	0x3a97e3fd	0.0011588332
54	0xbc7db622	-0.015485318
55	0x3d65ce29	0.056104813
56	0x3c604e07	0.013690478
57	0x3cc65daa	0.024214584
58	0x3c6e6d5b	0.01455244
59	0x3cba557c	0.02274584
60	0xbd107c97	-0.035275068
61	0x3c8388bc	0.016056411
62	0x3c398248	0.011322565
63	0xbcd86bbd	-0.026418561
64	0x3d49d0e2	0.04927147
65	0xbc6aae43	-0.014323774
66	0x3d22a026	0.03970351
67	0xbcb7ef3b	-0.022452941
68	0x3b6fe52a	0.0036605098
69	0xbc9637f1	-0.018337222
70	0xbb8f7815	-0.0043783286
71	0x3cd93061	0.026512327
72	0x3c4030af	0.011730357
73	0x3c1a10e1	0.009403438
74	0xbb0aeaaf	-0.0021197011
75	0x3c0c5600	0.008565426
76	0x3bb57c27	0.0055384818
77	0xbc877789	-0.016536491
78	0xbc4f414d	-0.012649846
79	0x3d27454a	0.040837564
80	0x3ce1323f	0.02748978
81	0x3c60104e	0.013675762
82	0x3c1495c6	0.009068912
83	0xbd5a0d82	-0.05323554
84	0x3c453b00	0.0120379925
85	0xbd400fa0	-0.0468899
86	0x3b534bb3	0.0032241165
87	0xbce440e9	-0.027862983
88	0x3c4255e0	0.0118612945
89	0xbc8ff51f	-0.017572938
90	0xbcf5c3f8	-0.030000672
91	0x3d28131a	0.04103384
92	0x3ceb70ee	0.028740373
93	0xbc6e8922	-0.014559062
94	0xb9ca4936	-0.0003858299
95	0xbcb140fc	-0.021637432
96	0x3bb59609	0.005541567
97	0x3c8edd4c	0.017439507
98	0xbd09ca7d	-0.033640373
99	0x3cf564a8	0.029955223
100	0xbc1d077a	-0.009584302
101	0x3983e1b2	0.00025154423
102	0x3c0f9fbd	0.008766112
103	0xbb3db9e8	-0.002894992
104	0xbb315442	-0.0027058278
105	0xbd5e4788	-0.054267436
106	0x3d338320	0.043826222
107	0x3c5add71	0.01335846
108	0xbc7b2a46	-0.015329903
109	0xbd4dc3c4	-0.050235525
110	0x3c86af45	0.016440997
111	0xbcf8b3cd	-0.030359173
112	0xbb7703b6	-0.003769142
113	0xbc89b958	-0.016812012
114	0xbc5dab3b	-0.013529594
115	0x3c1b9af5	0.009497394
116	0xbc0ab4b4	-0.008465935
117	0x3c2922f4	0.010323275
118	0xbbf793f8	-0.007555481
119	0x3b1f0293	0.002426301
120	0x3d3839eb	0.04497711
121	0x3c5a2573	0.013314593
122	0x3c8e0d52	0.017340336
123	0x3d01fca0	0.031735063
124	0xbccb36cc	-0.024806403
125	0xbc348734	-0.011018563
126	0x3bc7a8b4	0.006093109
127	0xbcd7136e	-0.026254382
128	0xbca63ed6	-0.020293634
129	0xbc89f914	-0.016842403
130	0xbd2bc01f	-0.041931268
131	0x3ae25f95	0.0017270917
132	0xbceb0e0d	-0.028693223
133	0xbb8f7106	-0.004377487
134	0xbca2292f	-0.019795028
135	0xbc8586d8	-0.01629965
136	0x3b87c03a	0.0041427882
137	0x3bd6071e	0.00653161
138	0x3ca221fb	0.019791594
139	0x3c782005	0.015144353
140	0xbd3197a9	-0.043357525
141	0x3c908c0c	0.017644905
142	0x3c086e89	0.008327135
143	0xbd3fa37e	-0.046786778
144	0x3c55a20d	0.013039124
145	0xbd05ff82	-0.032714374
146	0x3b437fd7	0.0029830837
147	0x3d522074	0.05130048
148	0x3d0532cd	0.03251915
149	0xbc1d37ca	-0.009595821
150	0xbd5d4154	-0.05401738
151	0xbb928af6	-0.004472132
152	0x3cd40490	0.025881082
153	0x3d102442	0.03519083
154	0x3c3ff21f	0.011715441
155	0xbc91bca2	-0.017790142
156	0x3c811794	0.015758313
157	0x3c4badf0	0.012431607
158	0x3c2f1eac	0.010688465
159	0x3b6e11af	0.0036326458
160	0x3ca1eee4	0.019767232
161	0x3c348aee	0.011019452
162	0x3d1dae60	0.038496375
163	0x3d2aaf1a	0.041670896
164	0x3d5c2c2b	0.05375306
165	0xbba6f6be	-0.005095332
166	0x3c8cc0df	0.017181812
167	0xbd0abd2c	-0.033871815
168	0xba7e6542	-0.00097044196
169	0x3ca8da21	0.020611824
170	0xbccdbcfa	-0.025114525
171	0xbb54891d	-0.0032430359
172	0xbc96fa3d	-0.01842987
173	0xbc30279e	-0.010751633
174	0x3d253993	0.04033811
175	0xbba05498	-0.004892897
176	0xbd157453	-0.03648789
177	0xbc54c1ee	-0.01298569
178	0x3b9a0085	0.004699769
179	0x3c9a950c	0.0188699
180	0xbbb18862	-0.0054178694
181	0x3c591311	0.013249175
182	0x3d1ed1af	0.03877419
183	0xba8c071b	-0.001068327
184	0xbb3fc2ab	-0.0029260318
185	0xbd12077f	-0.03565168
186	0xbc76ed1b	-0.015071179
187	0xbcb1c902	-0.021702293
188	0xbc6996f8	-0.014257185
189	0x3ba43d2a	0.005012174
190	0xbb78156c	-0.0037854565
191	0x3c4cd19e	0.0125011485
192	0x3d36a66b	0.044592302
193	0xbc8c0d55	-0.017096201
194	0xbc60fa47	-0.013731546
195	0x3bdf3ec5	0.0068129026
196	0x3cea89bc	0.02863013
197	0x3c90e33a	0.017686475
198	0x3c7f1c08	0.015570648
199	0x3ab94205	0.0014134055
200	0x3ccaa741	0.024737956
201	0xbcee4984	-0.02908779
202	0xbc63e119	-0.013908648
203	0x3b0a9a13	0.0021148964
204	0x3c28f8c4	0.010313217
205	0xbba5c5df	-0.0050589885
206	0x3d13b75c	0.036063537
207	0xbc99b602	-0.018763546
208	0x3c2e5f46	0.010642832
209	0x3cbf0996	0.02332
210	0x3d617f24	0.05505289
211	0x3be20745	0.0068978393
212	0x3c8c00de	0.017090257
213	0xbcadb201	-0.021203043
214	0xbce61c41	-0.028089644
215	0x3c1650e0	0.009174556
216	0x3d1f9023	0.03895582
217	0x3d7d19a9	0.06179205
218	0xbc055641	-0.00813824
219	0xbc4a6da1	-0.012355239
220	0x3c83becd	0.016082192
221	0xbd9c2c79	-0.0762567
222	0x3c4f5f07	0.012656934
223	0xbb98ef64	-0.0046672095
224	0x3c8f33fd	0.017480845
225	0x3bf4890e	0.0074626273
226	0x3c8bef6e	0.017081942
227	0xbc34be96	-0.011031767
228	0xbcfdbdca	-0.030974288
229	0x3c06090a	0.008180866
230	0x3b57d272	0.0032931832
231	0xbc3ab8b6	-0.011396578
232	0x3c646329	0.013939657
233	0xbb68011b	-0.003540105
234	0x3c15bd8c	0.00913943
235	0xbca0d42f	-0.019632427
236	0xbc10538e	-0.0088089835
237	0xbb98e537	-0.0046659964
238	0x3d122329	0.035678063
239	0xbd8235ea	-0.063579395
240	0x3d2d92ea	0.042376436
241	0xbc209c24	-0.009802852
242	0x3c9e185d	0.019298727
243	0x3cb4d0f1	0.022072287
244	0xbbad27ff	-0.005284309
245	0xbc6f8d09	-0.014621028
246	0x3bc4bb05	0.00600374
247	0xbb957bf9	-0.004561898
248	0xbc4e17e5	-0.012578939
249	0x3c8740f8	0.016510472
250	0xbd2e0d9a	-0.04249344
251	0x3d04fdca	0.032468595
252	0xbca6a959	-0.020344423
253	0xbcdb1651	-0.02674404
254	0xbd41f28e	-0.04735046
255	0x3d14eeab	0.036360424

basis_comm_weights f4 [1, 5]
0	0x3e6cae8b	0.23113458
1	0x3f2a138c	0.66436076
2	0x3e735438	0.23762596
3	0x3ee26ff4	0.44226038
4	0x3e822e8a	0.2542613

bias f4 [16, 768]
0	0x3d0e8a1c	0.03479968
1	0xbc45fac5	-0.012083714
2	0xbc85410c	-0.016266368
3	0x3ac78b88	0.0015224079
4	0xbceed771	-0.029155465
5	0x3cb5bf97	0.022186084
6	0xbd1cbb57	-0.0382646
7	0x3d67828f	0.056520995
8	0x3aa92e62	0.00129075
9	0x3d373bbe	0.04473471
10	0xbd2f29f2	-0.04276461
11	0x3c1f1d49	0.009711572
12	0xbd592143	-0.053010236
13	0xbd2427d4	-0.040077046
14	0x3d1d63da	0.038425304
15	0xbd8515f8	-0.06498331
16	0xbd0e49f7	-0.034738507
17	0xbc9ebc8f	-0.019377021
18	0xbcd104d9	-0.025515007
19	0x3b4ee7c1	0.0031571242
20	0xbc99ea47	-0.01878847
21	0xbb8c568e	-0.004282779
22	0x3c99bc8d	0.018766666
23	0x3b15bca5	0.0022848037
24	0xbd7c930f	-0.061663684
25	0x3dc2c79d	0.095107295
26	0xbd1352fa	-0.035967804
27	0xbd1077e2	-0.03527058
28	0xbd9165d5	-0.07099501
29	0x38d7d731	0.000102920814
30	0xbc20992a	-0.009802142
31	0x3d682a69	0.05668107
32	0xbcaabd94	-0.020842351
33	0xbce58822	-0.028019015
34	0xbd4e5952	-0.05037815
35	0x3d56b451	0.052418057
36	0xbd4c3b91	-0.049861494
37	0x3ad25057	0.0016045672
38	0xbcaffa75	-0.021481732
39	0x3c96f4af	0.018427221
40	0xbd0b9c67	-0.034084704
41	0xbc3931df	-0.011303394
42	0xbd3117b1	-0.043235485
43	0xbcd425e1	-0.025896968
44	0x3c0f2392	0.008736508
45	0x3d3576bb	0.044302683
46	0xbcf629ea	-0.030049283
47	0xbd87cf10	-0.06631291
48	0xbd2e4159	-0.04254279
49	0x3ca7e150	0.02049318
50	0x3da6e9b5	0.08150045
51	0x3b0aa8dc	0.0021157777
52	0x3b813203	0.0039427294
53	0xbd0d95b3	-0.034566592
54	0x3d3a3891	0.045464102
55	0x3c892699	0.016742038
56	0x3cb51300	0.022103786
57	0xbb951b0b	-0.004550343
58	0xbcfefdbd	-0.031126851
59	0xba92dcb8	-0.0011204695
60	0xbd02bf34	-0.031920627
61	0xbca1c078	-0.019745097
62	0xbaca1a3c	-0.0015419195
63	0xbcd1da3c	-0.025616758
64	0xbcbe1e9f	-0.02320796
65	0xbd47881f	-0.0487138
66	0x3c9622db	0.018327167
67	0xbbc7bf22	-0.006095783
68	0x3d0bdda1	0.03414691
69	0x3d1150a0	0.03547728
70	0xbda06994	-0.078326374
71	0x3c7ac6e1	0.0153062055
72	0xbc885cb4	-0.016645767
73	0xbd02803c	-0.031860575
74	0x3ce3c518	0.027803943
75	0x3c94c840	0.018161893
76	0x3d58835c	0.05285965
77	0x3c568c79	0.013095015
78	0xbc8dbe2e	-0.017302599
79	0xbc11c6c4	-0.008897487
80	0x3d53cb51	0.05170757
81	0x3b0270c8	0.0019903649
82	0x3d18930d	0.037249614
83	0xbc1de0fa	-0.009636158
84	0x3cbb9ff9	0.02290343
85	0xbd76899e	-0.060189836
86	0x3d86c93d	0.06581352
87	0xbbc4d8e1	-0.0060072993
88	0x3d1c4be1	0.0381583
89	0x3ba541b2	0.005043232
90	0x3bcc3540	0.006231934
91	0xbc9c3e0f	-0.01907256
92	0x3d94e563	0.072703145
93	0xbd714ea9	-0.058912907
94	0xbd26ab2d	-0.04069059
95	0xbc863184	-0.016381033
96	0x3d6e2994	0.05814512
97	0x3d7476f5	0.05968376
98	0xbd3d85a8	-0.046270043
99	0xbcd98e05	-0.026556978
100	0xb9669e0b	-0.00021993385
101	0xbb9af917	-0.004729401
102	0xbb084ac9	-0.0020796529
103	0x3d7421fb	0.05960272
104	0xbc3822bf	-0.011238753
105	0x3b1515b6	0.0022748536
106	0xbd38e2dc	-0.045138225
107	0x3d3c6394	0.045993403
108	0x3d15a31c	0.036532506
109	0xbc0c2cf6	-0.008555641
110	0x3ce19bd3	0.027540123
111	0x3d4091ee	0.04701417
112	0xbd414aaa	-0.047190346
113	0x3cdd8255	0.027039686
114	0x3d94fb8b	0.072745405
115	0xbbd6eacc	-0.0065587517
116	0xbd07ef02	-0.03318692
117	0xbcfde96a	-0.03099509
118	0x3be166b5	0.0068786987
119	0x3b9d7b14	0.004805932
120	0xbc8e54c3	-0.017374402
121	0x3d26fcbc	0.04076837
122	0xbcfb764b	-0.030696055
123	0x3cd03639	0.02541648
124	0xbd766869	-0.060158167
125	0x3cb76bb3	0.022390222
126	0xbd886f63	-0.0666187
127	0xbb9a7e30	-0.0047147498
128	0x3cb6f2c8	0.022332564
129	0x3b2f4cfe	0.0026748772
130	0xbd177528	-0.036976963
131	0x3d2b9b14	0.04189594
132	0x3c8c9bdc	0.017164163
133	0x3cc81b1e	0.024426993
134	0xbcc5f5d5	-0.024165073
135	0xbbd69a14	-0.0065491293
136	0xbd92d15b	-0.07168838
137	0x3d5b78c9	0.053581987
138	0xbc0d6ce5	-0.0086319195
139	0xbc1da22a	-0.009621182
140	0x3d0f8512	0.035039015
141	0x3b95d69f	0.004572704
142	0x3d3e8777	0.046515908
143	0xbcdafd17	-0.02673201
144	0xbd09f1fc	-0.03367804
145	0x3d53379c	0.051566705
146	0xbcf29660	-0.02961272
147	0x3d1d482e	0.038398914
148	0x3c36318a	0.0111202095
149	0x3a93804c	0.0011253445
150	0x3d29a8d9	0.04142079
151	0x3cec99cd	0.028881932
152	0x3caae841	0.0208627
153	0xbca7a54e	-0.020464566
154	0xbcd60c8a	-0.026129026
155	0x39dbdc94	0.0004193528
156	0x3bd5c31a	0.006523502
157	0xbb34bacd	-0.0027577162
158	0x3cfd5b80	0.03092742
159	0xbc6b8d0e	-0.014376892
160	0x3d0ee683	0.0348878
161	0x3cdba6b1	0.026812883
162	0x3d8d0215	0.06885163
163	0xbcda0a4c	-0.026616238
164	0x3bfde4b5	0.0077482113
165	0xbd33126d	-0.043718744
166	0xbd8d5d5a	-0.06902571
167	0xbdb079d4	-0.08616987
168	0xbba68838	-0.0050821565
169	0x3d8009eb	0.06251892
170	0x3da251aa	0.079257324
171	0xbc595d92	-0.013266938
172	0x3d931124	0.07181004
173	0xbc92ee4f	-0.0179359
174	0x3cb62682	0.022235159
175	0xbd083dfa	-0.03326223
176	0xbd5f5b68	-0.05453053
177	0xbd8c57af	-0.06852662
178	0x3d313727	0.043265488
179	0xbc4773c8	-0.0121736005
180	0xbbe5d096	-0.007013391
181	0xbcb2cf9d	-0.021827513
182	0x3c414b3a	0.011797721
183	0x3d29401d	0.04132091
184	0xbda07a5d	-0.07835839
185	0xbcde9f2c	-0.027175508
186	0x3be6ac9c	0.0070396196
187	0x3cf7b57d	0.030237908
188	0x3a9a721c	0.0011783275
189	0x3d89f289	0.06735713
190	0x3cbb1248	0.022835866
191	0xbc85058f	-0.016238002
192	0xbc82ed7b	-0.01598238
193	0xbd59ba82	-0.053156383
194	0x3b43a4e7	0.0029852928
195	0x3d27b202	0.040941246
196	0x3d0628c2	0.032753713
197	0x3d2d4924	0.04230608
198	0x3cb4c963	0.022068685
199	0xbca28fc1	-0.019843938
200	0x3da6d220	0.08145547
201	0x3cf7f8a4	0.030269928
202	0xbb8dd9c7	-0.0043289396
203	0x3c8e7f53	0.017394697
204	0xbaa56f2c	-0.0012621633
205	0xbc24ab68	-0.010050632
206	0x3d41fc9e	0.047360055
207	0xbd906a94	-0.07051578
208	0x3d1ae92a	0.03782002
209	0xbd46e0e2	-0.04855431
210	0xbc27d316	-0.010243198
211	0x3d201555	0.039082844
212	0x3cadaea9	0.021201449
213	0x3c45f7ab	0.012082974
214	0x3d1f33c5	0.03886773
215	0xbbccc388	-0.006248895
216	0xbccbdefa	-0.024886597
217	0x3c35a2fe	0.011086224
218	0x3cbc3283	0.022973305
219	0xbb913cfa	-0.004432318
220	0xbd1f1957	-0.038842525
221	0x3d316a67	0.043314364
222	0xbd906071	-0.07049645
223	0xbcdef348	-0.027215615
224	0x3c165c75	0.009177317
225	0xbd1cd398	-0.03828773
226	0xbb843d58	-0.004035633
227	0x3ce85c70	0.02836439
228	0x3c915764	0.017741866
229	0x3d5878cc	0.052849576
230	0xbd56cdc0	-0.052442312
231	0xbc7a7a6a	-0.015287975
232	0x3cdea8be	0.027180072
233	0xbd9b0a05	-0.075702704
234	0xbce5abbb	-0.028035989
235	0x3cc13daa	0.023588974
236	0x3cb21355	0.021737734
237	0xbd1cd2a8	-0.038286835
238	0xbd5d07ee	-0.05396264
239	0xbb612e5f	-0.0034359915
240	0x3c767f85	0.015045051
241	0xbc64603d	-0.013938961
242	0xbb32a713	-0.0027260229
243	0xbca4a4c3	-0.020098096
244	0xbca817c7	-0.02051915
245	0xbcf2afe1	-0.029624881
246	0xbd328f20	-0.043593526
247	0x3d6fa7a0	0.05850947
248	0xbc052ad9	-0.008127891
249	0xbcf7ebfb	-0.030263891
250	0x3ca02348	0.019548073
251	0x3c89c87c	0.016819231
252	0x3c46fa2b	0.012144606
253	0x3cb29124	0.021797724
254	0xbc679f1d	-0.014137057
255	0xbbe37e8d	-0.0069425763

weight f4 [768]
0	0x3f7d63ee	0.98980606
1	0x3f74a4bc	0.95563865
2	0x3f6f6737	0.9351687
3	0x3f861d25	1.0477644
4	0x3f768211	0.96292216
5	0x3f83e731	1.0304929
6	0x3f8ef166	1.1167419
7	0x3f869e14	1.0516992
8	0x3f7b67b5	0.9820512
9	0x3f868235	1.0508486
10	0x3f6ab055	0.9167531
11	0x3f73c991	0.9522944
12	0x3f5b4696	0.8565458
13	0x3f81d17f	1.0142058
14	0x3f7a6e33	0.978244
15	0x3f5ffe79	0.8749767
16	0x3f802852	1.0012305
17	0x3f7b9186	0.98268926
18	0x3f8ae5fa	1.0851433
19	0x3f815f4d	1.0107208
20	0x3f6b1b17	0.9183821
21	0x3f6bd586	0.92122686
22	0x3f847584	1.0348363
23	0x3f7f18eb	0.99647397
24	0x3f7a9a8d	0.97892076
25	0x3f4877cd	0.783078
26	0x3f875d26	1.0575302
27	0x3f68d096	0.90943277
28	0x3f91d746	1.1393821
29	0x3f7a889d	0.97864705
30	0x3f840f5c	1.0317187
31	0x3f890530	1.0704708
32	0x3f847183	1.0347141
33	0x3f6c3f56	0.9228414
34	0x3f60cc2d	0.8781155
35	0x3f8552d5	1.0415903
36	0x3f922cc9	1.1419917
37	0x3f7214ed	0.9456318
38	0x3f80558d	1.0026108
39	0x3f7beb43	0.98405856
40	0x3f67574b	0.90367573
41	0x3f7ce611	0.98788553
42	0x3f898f36	1.074683
43	0x3f8752b3	1.0572113
44	0x3f702618	0.93808126
45	0x3f5c311e	0.86012447
46	0x3f6199d4	0.8812535
47	0x3f8e2b0e	1.1106889
48	0x3f77ab8b	0.9674613
49	0x3f73656e	0.95076644
50	0x3f7d55e5	0.9895919
51	0x3f804e3e	1.0023878
52	0x3f750e0a	0.95724547
53	0x3f73de0c	0.9526069
54	0x3f6e01a9	0.92971283
55	0x3f85ad95	1.0443598
56	0x3f855133	1.0415405
57	0x3f6fcc33	0.9367096
58	0x3f74f23f	0.9568214
59	0x3f81c59e	1.0138433
60	0x3f8291a7	1.02007
61	0x3f787c7c	0.9706495
62	0x3f7ef923	0.995989
63	0x3f83cb89	1.0296489
64	0x3f77b402	0.96759045
65	0x3f8b9331	1.0904294
66	0x3f8b61ab	1.0889181
67	0x3f7844f5	0.9698022
68	0x3f81a79d	1.0129277
69	0x3f663896	0.89930093
70	0x3f795592	0.97396195
71	0x3f873e49	1.0565883
72	0x3f6a9ed9	0.9164863
73	0x3f700a34	0.9376557
74	0x3f7b9cda	0.9828621
75	0x3f837bfb	1.0272211
76	0x3f6b6a2d	0.91958886
77	0x3f6da9c1	0.9283715
78	0x3f81ac08	1.0130625
79	0x3f74e46e	0.95661056
80	0x3f8b8f3e	1.0903089
81	0x3f773992	0.9657222
82	0x3f8b838f	1.0899523
83	0x3f80e36e	1.0069406
84	0x3f848d40	1.0355606
85	0x3f8e0c0d	1.1097428
86	0x3f749bcd	0.95550233
87	0x3f8a17b4	1.0788484
88	0x3f8d9d93	1.1063713
89	0x3f6ad93e	0.91737735
90	0x3f767d7f	0.9628524
91	0x3f76b95b	0.9637658
92	0x3f8f0471	1.117323
93	0x3f7f2e51	0.9968005
94	0x3f75f923	0.9608328
95	0x3f85679e	1.0422246
96	0x3f957ec1	1.1679307
97	0x3f90bbb3	1.1307281
98	0x3f8dbdc9	1.1073543
99	0x3f749ed4	0.9555485
100	0x3f7fbf58	0.9990134
101	0x3f7b3124	0.9812186
102	0x3f8255a7	1.0182389
103	0x3f689d53	0.9086506
104	0x3f7b7e00	0.98239136
105	0x3f7c0b2c	0.98454547
106	0x3f648d5d	0.89278203
107	0x3f91be3f	1.1386184
108	0x3f6d87b6	0.92785203
109	0x3f812bb8	1.0091467
110	0x3f817a4e	1.011545
111	0x3f5b57cf	0.8568086
112	0x3f6cc25c	0.9248407
113	0x3f71c799	0.94445187
114	0x3f71e973	0.9449684
115	0x3f77453a	0.96590006
116	0x3f85a272	1.0440199
117	0x3f812694	1.0089898
118	0x3f800631	1.000189
119	0x3f823674	1.0172868
120	0x3f74c40f	0.9561166
121	0x3f873a78	1.0564718
122	0x3f82de7e	1.0224149
123	0x3f8282a3	1.0196117
124	0x3f917f4e	1.1366975
125	0x3f63ca17	0.8898024
126	0x3f8f72bd	1.120689
127	0x3f847b90	1.0350208
128	0x3f716625	0.94296485
129	0x3f74296e	0.95375717
130	0x3f836ca1	1.0267526
131	0x3f861800	1.0476074
132	0x3f6e9c5b	0.9320733
133	0x3f757b67	0.9589142
134	0x3f85aa66	1.0442626
135	0x3f74f61f	0.9568805
136	0x3f56587e	0.8372878
137	0x3f6411d5	0.8908971
138	0x3f69ce49	0.9133039
139	0x3f84f7e3	1.0388149
140	0x3f728c1a	0.9474503
141	0x3f8598e8	1.0437288
142	0x3f72d784	0.948601
143	0x3f84fd8a	1.0389874
144	0x3f6cc072	0.9248115
145	0x3f60d0b4	0.87818456
146	0x3f7322c7	0.9497494
147	0x3f84920e	1.0357072
148	0x3f843d2d	1.0331169
149	0x3f7adc9e	0.97992885
150	0x3f6af3fb	0.91778535
151	0x3f6853f3	0.90753096
152	0x3f801d8c	1.0009017
153	0x3f6f2d19	0.9342819
154	0x3f787c87	0.97065014
155	0x3f814e3c	1.0102
156	0x3f80855c	1.0040698
157	0x3f6f9751	0.93590266
158	0x3f84be95	1.0370661
159	0x3f71231f	0.94194216
160	0x3f83bf59	1.029277
161	0x3f679c6a	0.90473044
162	0x3f93e021	1.1552774
163	0x3f6fcd25	0.936724
164	0x3f7b00dc	0.98048186
165	0x3f71e623	0.94491786
166	0x3f523452	0.82111084
167	0x3f91e2d2	1.1397345
168	0x3f7fdafd	0.99943525
169	0x3f92f866	1.1482055
170	0x3f556764	0.83360887
171	0x3f834587	1.0255593
172	0x3f628020	0.88476753
173	0x3f80fcec	1.0077186
174	0x3f71d00a	0.9445807
175	0x3f6af6a1	0.91782576
176	0x3f92d8de	1.1472433
177	0x3f90bbed	1.130735
178	0x3f73bb55	0.9520772
179	0x3f7fef09	0.99974114
180	0x3f7dd679	0.99155384
181	0x3f62394a	0.88368666
182	0x3f8173ae	1.0113428
183	0x3f6e490e	0.9308022
184	0x3f92aa99	1.1458312
185	0x3f825488	1.0182047
186	0x3f80a5c4	1.0050588
187	0x3f85d8c4	1.0456777
188	0x3f793c3e	0.9735755
189	0x3f913a90	1.1345997
190	0x3f762e71	0.96164614
191	0x3f7b08ff	0.980606
192	0x3f78d6e3	0.9720289
193	0x3f864023	1.0488323
194	0x3f795b65	0.9740508
195	0x3f86d447	1.0533532
196	0x3f83d5a1	1.0299569
197	0x3f8ab313	1.0835899
198	0x3f85ed2d	1.0463005
199	0x3f77c21d	0.9678057
200	0x3f92589c	1.1433291
201	0x3f7a3a49	0.97745186
202	0x3f713a6a	0.9422976
203	0x3f7d8718	0.9903426
204	0x3f8007b8	1.0002356
205	0x3f85dea2	1.0458567
206	0x3f8c2d59	1.0951339
207	0x3f927d93	1.1444572
208	0x3f821011	1.0161153
209	0x3f77969f	0.96714205
210	0x3f7cd8ff	0.9876861
211	0x3f646ca4	0.8922827
212	0x3f864389	1.048936
213	0x3f799017	0.9748549
214	0x3f625884	0.88416314
215	0x3f7455a3	0.9544317
216	0x3f730b0f	0.9493875
217	0x3f83c230	1.0293636
218	0x3f615384	0.8801806
219	0x3f7f6ea4	0.997782
220	0x3f60aea6	0.8776649
221	0x3f5b57ba	0.85680735
222	0x3f5c27cc	0.85998225
223	0x3f778f83	0.96703357
224	0x3f7c6e5b	0.9860589
225	0x3f85bbab	1.0447897
226	0x3f813b5e	1.0096242
227	0x3f7b4d59	0.981649
228	0x3f66506b	0.8996646
229	0x3f8f605e	1.1201284
230	0x3f7381cf	0.9511995
231	0x3f83036b	1.0235418
232	0x3f80c48f	1.0059985
233	0x3f8f2a5b	1.1184801
234	0x3f648620	0.8926716
235	0x3f64b8e8	0.89344645
236	0x3f71f186	0.9450916
237	0x3f86385b	1.0485948
238	0x3f554acb	0.8331725
239	0x3f8835e4	1.0641446
240	0x3f829aab	1.0203451
241	0x3f7e7b90	0.9940729
242	0x3f83b31e	1.0289037
243	0x3f7d677d	0.98986036
244	0x3f768823	0.9630148
245	0x3f84c70c	1.0373244
246	0x3f7407e1	0.9532452
247	0x3f5eb715	0.8699811
248	0x3f7588b6	0.9591173
249	0x3f745eb6	0.9545702
250	0x3f797940	0.9745064
251	0x3f89d7ba	1.076896
252	0x3f783a41	0.9696389
253	0x3f759637	0.95932335
254	0x3f83369d	1.0251042
255	0x3f81824f	1.0117892

bias f4 [768]
0	0x3cd05267	0.025429917
1	0xbc59cc45	-0.013293331
2	0xbd42c9ad	-0.047555614
3	0xbd3897bd	-0.045066584
4	0xbd53dfdb	-0.051727157
5	0x3ca6e74b	0.020373961
6	0xbe054402	-0.13014224
7	0x3e1a530d	0.15070744
8	0xbbe285f3	-0.0069129406
9	0x3d929191	0.07156671
10	0xbdb7b9a8	-0.08970958
11	0x3cce429c	0.025178246
12	0xbde62561	-0.11237598
13	0xbd2ed95b	-0.042687755
14	0x3d84f9bf	0.06492948
15	0xbdec0f47	-0.115263514
16	0xbd86f355	-0.06589381
17	0xbdae128f	-0.084996335
18	0xbdae2c27	-0.08504515
19	0x3ca3d255	0.019997755
20	0x3c2d2cb1	0.010569737
21	0xbcf3d30a	-0.029763717
22	0x3d32fe7e	0.043699734
23	0xbcef296b	-0.029194554
24	0xbe1a6edc	-0.15081352
25	0x3e5cfc03	0.2158051
26	0xbdbc420d	-0.09192286
27	0xbda92f4c	-0.08260974
28	0xbe1b8dff	-0.15190886
29	0xbbfd03da	-0.0077214064
30	0xbd3d8aeb	-0.04627506
31	0x3e03b4fe	0.12862012
32	0xbd2855ba	-0.04109738
33	0xbd75bb09	-0.059992824
34	0xbde7a5a1	-0.11310888
35	0x3d9cadc5	0.076503314
36	0xbe05c1f3	-0.13062267
37	0xbd1acb91	-0.037791792
38	0xbd236eed	-0.03990071
39	0x3d677f52	0.056517906
40	0x3c782dc5	0.015147631
41	0xbd2b47f9	-0.041816685
42	0xbdbfb784	-0.09361175
43	0xbd8f5c2f	-0.070000045
44	0x3cc36072	0.0238497
45	0x3de8fbf5	0.11376182
46	0xbd22b828	-0.039726406
47	0xbdcb5b0c	-0.09929475
48	0xbd88024b	-0.06641062
49	0x3d611f70	0.05496162
50	0x3e418d19	0.1890148
51	0xbba6af31	-0.0050868024
52	0x3bed1486	0.0072351126
53	0xbd80009e	-0.06250118
54	0x3d9981d3	0.07495465
55	0x3d1d7a58	0.038446754
56	0x3bd0abe3	0.0063681467
57	0xbd5fb353	-0.054614376
58	0xbd425ad4	-0.0474499
59	0x3d13170b	0.035910647
60	0xbd26a46f	-0.04068416
61	0xbd454d5e	-0.048169486
62	0x3a9b1651	0.0011832212
63	0xbd5b0846	-0.053474687
64	0xbcd4ef69	-0.025993066
65	0xbdbfde6f	-0.09368598
66	0x3ceeab8f	0.02913454
67	0xb8f07eba	-0.000114676965
68	0x3d68d059	0.05683932
69	0x3d3d3883	0.046196472
70	0xbe0aac75	-0.1354235
71	0x3d425017	0.04743966
72	0xbc377634	-0.011197615
73	0xbd6ec0aa	-0.058289208
74	0x3d677bee	0.056514673
75	0x3d618a62	0.055063613
76	0x3e0016de	0.12508723
77	0x3d8f7e40	0.07006502
78	0xbcae7caa	-0.021299679
79	0xb9ed3b82	-0.000452485
80	0x3d93f163	0.07223775
81	0x3c136300	0.008995771
82	0x3dc193d3	0.09452023
83	0xbcf418b8	-0.029796943
84	0x3d622dfe	0.055219643
85	0xbdd8fbbe	-0.10594891
86	0x3e002eb1	0.12517811
87	0x3cf9ecb3	0.030508375
88	0x3dd72678	0.10505384
89	0x3b79c22e	0.0038110125
90	0x3bffd8a3	0.0078078075
91	0xbc794ce0	-0.015216082
92	0x3e0e8bae	0.13920471
93	0xbde4a619	-0.11164493
94	0xbda7e323	-0.0819762
95	0xbd83c5f4	-0.06434241
96	0x3e39afa1	0.18133403
97	0x3dea3cb7	0.11437362
98	0xbdca8b24	-0.0988982
99	0xbd35558a	-0.04427103
100	0x3ba61594	0.0050684903
101	0x3b8a864e	0.004227436
102	0xbcd6aa02	-0.026204113
103	0x3dfd8440	0.1237874
104	0xbcb6e2d1	-0.022324951
105	0xbadbd339	-0.0016771323
106	0xbdacfd53	-0.08446755
107	0x3dea508c	0.11441144
108	0x3d6eaa05	0.058267612
109	0xbaf92322	-0.0019007663
110	0x3d5b646d	0.05356257
111	0x3e05cf24	0.13067299
112	0xbdf28089	-0.118409224
113	0x3d749276	0.05970999
114	0x3e32f49c	0.17476124
115	0xbcbb718b	-0.02288129
116	0xbd971120	-0.07376313
117	0xbd5e6023	-0.054290902
118	0xbc1afe2f	-0.009460016
119	0x3c6d8930	0.01449804
120	0xbd03dc0e	-0.032192282
121	0x3d9fd1df	0.078037016
122	0xbd9ccfb1	-0.076568015
123	0x3cfdb5e1	0.030970516
124	0xbddfa21e	-0.10919593
125	0x3d8053b0	0.06265962
126	0xbe266b53	-0.16251878
127	0xbd2f2913	-0.04276378
128	0x3d21aec9	0.03947333
129	0xbb5ce449	-0.0033705404
130	0xbcc2aecd	-0.023764992
131	0x3dde3ccd	0.108514406
132	0x3d5da6d5	0.05411418
133	0x3d924e51	0.07143844
134	0xbd6ddcbf	-0.058071848
135	0xbcdc4b5c	-0.026891403
136	0xbe343bb2	-0.17600897
137	0x3de0c501	0.109750755
138	0xbca5840c	-0.020204566
139	0xbd410ea1	-0.04713309
140	0x3d4866ea	0.04892627
141	0x3d62b511	0.05534846
142	0x3dd5bebc	0.1043677
143	0xbd5ae222	-0.053438313
144	0xbd8feb65	-0.0702732
145	0x3df17b53	0.117911
146	0xbdbf2726	-0.09333639
147	0x3d34365d	0.043997157
148	0x3d00a028	0.031402737
149	0x3cc5768a	0.024104375
150	0x3dbc869d	0.09205363
151	0x3ca632e7	0.020287944
152	0x3cfa04ce	0.03051987
153	0xbd654d05	-0.055981655
154	0xbd799a93	-0.06093843
155	0x3caee539	0.021349536
156	0xbcb6a33f	-0.022294639
157	0xbd5d4d4f	-0.054028805
158	0x3d8cc9b8	0.06874412
159	0xbd79268e	-0.060827784
160	0x3ddd62ec	0.108098835
161	0x3d734847	0.0593951
162	0x3e0fab57	0.14030205
163	0xbd6cb803	-0.057792675
164	0x3c1d5ed9	0.009605133
165	0xbd8efd82	-0.069819465
166	0xbe23f4f2	-0.16011408
167	0xbe27a063	-0.16369776
168	0xbc003f94	-0.007827658
169	0x3e32bbc7	0.17454444
170	0x3e334ce2	0.17509797
171	0xbd5004b8	-0.05078575
172	0x3dd34c1c	0.10317251
173	0xbcac9e82	-0.021071676
174	0x3d8b7358	0.068091094
175	0xbd8f5ef1	-0.070005305
176	0xbe135870	-0.14389205
177	0xbe1c0106	-0.15234765
178	0x3d86c7d9	0.06581087
179	0x3bbcac21	0.005757824
180	0x3c1ce3fe	0.009575842
181	0xbd39c574	-0.04535432
182	0x3cc8043a	0.024416078
183	0x3d76fbfd	0.06029891
184	0xbe3b0187	-0.18262301
185	0xbd18002c	-0.03710954
186	0x3cdcd637	0.026957614
187	0x3da8ab86	0.082358405
188	0x3811a9f4	3.4728975e-05
189	0x3e1fd7e5	0.15609701
190	0x3d4afcd8	0.049557537
191	0xbc2e1928	-0.010626115
192	0xbd1d7998	-0.03844604
193	0xbdd60f40	-0.104521275
194	0x3c2cceda	0.010547364
195	0x3de8d03d	0.11367843
196	0x3dc59a81	0.0964861
197	0x3dcfad16	0.101404354
198	0x3d7a4370	0.06109947
199	0xbc606421	-0.013695748
200	0x3e3b0b0a	0.1826593
201	0x3d2adf4b	0.041716855
202	0xbd06266c	-0.032751486
203	0x3d232b52	0.039836235
204	0xbb2126c4	-0.0024589757
205	0x3d02c8c6	0.031929754
206	0x3d9b5386	0.0758429
207	0xbe2d17bf	-0.1690359
208	0x3d95f1f2	0.07321538
209	0xbda25f0f	-0.07928287
210	0xbbc5446b	-0.006020119
211	0x3deb4f3c	0.11489722
212	0x3d4494c4	0.047993436
213	0x3b5d8f22	0.0033807238
214	0x3dc14112	0.09436239
215	0x3c6249aa	0.013811508
216	0xbd3adc3d	-0.04562019
217	0x3cec8190	0.028870374
218	0x3dc08293	0.09399905
219	0xbbd07b2b	-0.006362339
220	0xbdd3e127	-0.10345679
221	0x3e01f55b	0.12691252
222	0xbdfd5a6d	-0.12370763
223	0xbc227aff	-0.00991702
224	0x3c776e0d	0.015101922
225	0xbdbb8471	-0.091561206
226	0x3c841b19	0.016126202
227	0x3d424516	0.047429167
228	0x3d2ddf51	0.0424493
229	0x3e03d68b	0.1287481
230	0xbd790060	-0.060791373
231	0xbc3bb64e	-0.011457039
232	0x3cc2e5e5	0.023791263
233	0xbe2c2ec5	-0.16814716
234	0xbd4702d0	-0.048586667
235	0x3cbeac8d	0.023275638
236	0x3d1e2b9b	0.038615804
237	0xbdcf16e4	-0.10111788
238	0xbe0595d2	-0.13045433
239	0xbd8bc80c	-0.06825265
240	0x3d0729d9	0.032998893
241	0xbd4c6728	-0.049903065
242	0xbcf388e5	-0.029728362
243	0x3a8a495d	0.0010550428
244	0xbd32f5fd	-0.043691624
245	0xbd651814	-0.055931166
246	0xbd603626	-0.05473914
247	0x3de842f3	0.113408946
248	0xbd044930	-0.03229636
249	0xbd5a0e1c	-0.053236112
250	0x3cd4d625	0.025981018
251	0x3d331000	0.04371643
252	0x3c06e10a	0.008232364
253	0x3d2a3de9	0.04156295
254	0xbd34ae01	-0.044111256
255	0x3b0e2778	0.0021691006

weight f4 [768]
0	0x3f82ac3e	1.0208814
1	0x3f7a6c72	0.97821724
2	0x3f812097	1.0088071
3	0x3f6b4247	0.91898006
4	0x3f69d52a	0.9134089
5	0x3f79bb20	0.97551155
6	0x3f9149ff	1.1350707
7	0x3f632dfe	0.88742054
8	0x3f8ad63d	1.084663
9	0x3f6b3341	0.9187508
10	0x3f8a63c5	1.0811697
11	0x3f62bbdd	0.88567907
12	0x3f89d7d4	1.076899
13	0x3f7c89df	0.98647875
14	0x3f6d1bb2	0.92620385
15	0x3f768e93	0.963113
16	0x3f745e20	0.95456123
17	0x3f71a825	0.94397193
18	0x3f6b7704	0.9197848
19	0x3f7fb322	0.9988271
20	0x3f88f720	1.0700417
21	0x3f798041	0.97461325
22	0x3f7a15d8	0.9768958
23	0x3f57ccb3	0.8429672
24	0x3f839b66	1.0281799
25	0x3f9614e6	1.1725128
26	0x3f71a0d3	0.94386023
27	0x3f87681a	1.0578644
28	0x3f5e3f12	0.8681499
29	0x3f754d39	0.9582096
30	0x3f84bf6e	1.037092
31	0x3f802de2	1.0014002
32	0x3f78a633	0.971286
33	0x3f52f212	0.8240062
34	0x3f7a7903	0.978409
35	0x3f7dbfc1	0.9912072
36	0x3f82d3dd	1.0220906
37	0x3f691feb	0.9106433
38	0x3f68281e	0.90686214
39	0x3f70b823	0.9403097
40	0x3f760069	0.96094376
41	0x3f7375c2	0.9510156
42	0x3f80c60c	1.0060439
43	0x3f5d0950	0.86342335
44	0x3f7bc57a	0.983482
45	0x3f851b11	1.0398885
46	0x3f7e8525	0.9942191
47	0x3f90f926	1.1326034
48	0x3f7bb07a	0.98316157
49	0x3f83414c	1.0254302
50	0x3f80a473	1.0050186
51	0x3f6f4b4f	0.93474287
52	0x3f673ba5	0.90325385
53	0x3f8038f0	1.0017376
54	0x3f77281a	0.96545565
55	0x3f878847	1.0588464
56	0x3f73bb0c	0.95207286
57	0x3f83c80d	1.0295426
58	0x3f72bf7d	0.9482344
59	0x3f55dd08	0.8354039
60	0x3f5df9e5	0.86709434
61	0x3f6dcff7	0.92895454
62	0x3f926c35	1.1439272
63	0x3f6b425d	0.9189814
64	0x3f857d23	1.0428814
65	0x3f827c36	1.0194156
66	0x3f7b4e51	0.98166376
67	0x3f72bda6	0.9482063
68	0x3f857cf0	1.0428753
69	0x3f835d6c	1.0262885
70	0x3f7fbfe4	0.99902177
71	0x3f8272cf	1.0191287
72	0x3f8fb59b	1.1227297
73	0x3f718a70	0.94351864
74	0x3f81f851	1.0153905
75	0x3f8f34c5	1.1187979
76	0x3f67e5f2	0.90585244
77	0x3f7e3fce	0.9931611
78	0x3f87f9d8	1.0623121
79	0x3f7533fc	0.95782447
80	0x3f91ca79	1.1389915
81	0x3f8953e5	1.0728728
82	0x3f8e65f4	1.1124864
83	0x3f834115	1.0254236
84	0x3f8a7aba	1.0818703
85	0x3f98302b	1.18897
86	0x3f875425	1.0572554
87	0x3f6b4962	0.9190885
88	0x3f7af0c9	0.9802366
89	0x3f62f883	0.8866045
90	0x3f8caaf4	1.0989671
91	0x3f902ca7	1.1263627
92	0x3f754944	0.9581492
93	0x3f76b170	0.963645
94	0x3f77856d	0.96687967
95	0x3f816442	1.0108721
96	0x3f693578	0.9109721
97	0x3f800480	1.0001373
98	0x3f8ae43c	1.0850902
99	0x3f8d5fe6	1.1044891
100	0x3f8cceb2	1.1000578
101	0x3f911bde	1.1336629
102	0x3f653834	0.89538884
103	0x3f5b22fd	0.8560026
104	0x3f7817e9	0.96911484
105	0x3f70ec38	0.9411044
106	0x3f8538b3	1.0407928
107	0x3f8c3cdf	1.0956076
108	0x3f8518c5	1.0398184
109	0x3f68d32c	0.9094722
110	0x3f899709	1.0749217
111	0x3f61a8e2	0.8814832
112	0x3f58080f	0.84387296
113	0x3f895149	1.0727931
114	0x3f755659	0.9583488
115	0x3f80cef3	1.0063156
116	0x3f7960d6	0.97413385
117	0x3f8021e7	1.0010346
118	0x3f729574	0.947593
119	0x3f8cd87c	1.1003566
120	0x3f827688	1.0192423
121	0x3f8a04ce	1.0782716
122	0x3f744056	0.9541067
123	0x3f481d26	0.78169477
124	0x3f757afe	0.95890796
125	0x3f70e323	0.94096583
126	0x3f6f3612	0.9344188
127	0x3f745c99	0.9545379
128	0x3f6f5e0e	0.9350289
129	0x3f77e6ae	0.96836364
130	0x3f5cca11	0.8624583
131	0x3f75496c	0.9581516
132	0x3f913464	1.1344113
133	0x3f7e4de0	0.9933758
134	0x3f7137bf	0.94225687
135	0x3f85a5fe	1.0441282
136	0x3f855ca7	1.04189
137	0x3f577ea2	0.841776
138	0x3f8bcce7	1.0921906
139	0x3f7c8f4c	0.98656154
140	0x3f94bce6	1.1620147
141	0x3f6c5fb7	0.9233355
142	0x3f725173	0.9465553
143	0x3f6146bf	0.87998575
144	0x3f85377d	1.0407559
145	0x3f856234	1.0420594
146	0x3f7f04d6	0.99616754
147	0x3f84964c	1.0358367
148	0x3f889865	1.0671507
149	0x3f7b9701	0.9827729
150	0x3f7d5202	0.9895326
151	0x3f82f07a	1.0229638
152	0x3f806159	1.0029708
153	0x3f856e3d	1.0424267
154	0x3f84dda3	1.0380138
155	0x3f788f75	0.970939
156	0x3f8be5bf	1.0929488
157	0x3f78b2e5	0.9714797
158	0x3f7a454a	0.97761977
159	0x3f82d3ac	1.0220847
160	0x3f798e9b	0.97483224
161	0x3f82cdee	1.0219095
162	0x3f87b681	1.0602571
163	0x3f78d3f1	0.97198397
164	0x3f72421d	0.9463213
165	0x3f8f256b	1.1183294
166	0x3f5ffbf9	0.87493855
167	0x3f887ef6	1.0663745
168	0x3f95b541	1.1695939
169	0x3f7bc5ba	0.9834858
170	0x3f5c2e03	0.8600771
171	0x3f8bd632	1.0924742
172	0x3f6b92cd	0.92020875
173	0x3f6f5be1	0.9349957
174	0x3f897a79	1.0740501
175	0x3f8dd21f	1.1079749
176	0x3f8a835c	1.0821338
177	0x3f84b30e	1.0367143
178	0x3f7a0808	0.97668505
179	0x3f69b063	0.9128477
180	0x3f40db59	0.753347
181	0x3f639e23	0.8891317
182	0x3f890d89	1.0707256
183	0x3f8115ea	1.0084813
184	0x3f89b3d3	1.0758003
185	0x3f8c76b2	1.0973723
186	0x3f84094b	1.0315336
187	0x3f639f61	0.8891507
188	0x3f88913b	1.0669321
189	0x3f7baecc	0.98313594
190	0x3f807521	1.0035745
191	0x3f883779	1.0641929
192	0x3f7349cb	0.95034474
193	0x3f7fe08c	0.99952006
194	0x3f797972	0.97450936
195	0x3f660afb	0.89860505
196	0x3f7db360	0.9910183
197	0x3f72fbcd	0.9491547
198	0x3f79f719	0.97642666
199	0x3f6d7863	0.9276182
200	0x3f7d66c7	0.9898495
201	0x3f6c8357	0.9238791
202	0x3f842d9a	1.0326416
203	0x3f6e016b	0.92970914
204	0x3f58159a	0.8440796
205	0x3f684c07	0.9074101
206	0x3f55cd14	0.8351605
207	0x3f7b2926	0.9810966
208	0x3f80ef1b	1.0072969
209	0x3f77b0f5	0.9675439
210	0x3f639aa8	0.8890786
211	0x3f6b14c4	0.9182856
212	0x3f803650	1.0016575
213	0x3f731a34	0.9496186
214	0x3f6bbe53	0.92087287
215	0x3f6c48bc	0.92298484
216	0x3f83d2ff	1.0298766
217	0x3f8f69df	1.1204184
218	0x3f9130ed	1.1343056
219	0x3f8bb39b	1.0914186
220	0x3f70ec17	0.94110245
221	0x3f67596c	0.9037082
222	0x3f701f6b	0.9379794
223	0x3f809f30	1.004858
224	0x3f82ced4	1.0219369
225	0x3f81e8fc	1.0149226
226	0x3f750730	0.9571409
227	0x3f880091	1.0625173
228	0x3f8459a9	1.0339862
229	0x3f89d207	1.076722
230	0x3f6dad8c	0.92842937
231	0x3f7bb4f4	0.9832299
232	0x3f8965ab	1.0734152
233	0x3f76521d	0.96219045
234	0x3f6ae07a	0.91748774
235	0x3f6dceec	0.9289386
236	0x3f699a21	0.9125081
237	0x3f7df775	0.99205714
238	0x3f9bfd4a	1.2186673
239	0x3f8c5929	1.096471
240	0x3f78a079	0.9711986
241	0x3f6b4e58	0.9191642
242	0x3f6b8ab0	0.92008495
243	0x3f8d5f4e	1.104471
244	0x3f706902	0.9391023
245	0x3f839ea0	1.0282784
246	0x3f7eb4d6	0.99494684
247	0x3f61c27c	0.88187385
248	0x3f60f2ca	0.87870467
249	0x3f842964	1.0325131
250	0x3f8d6ffb	1.1049799
251	0x3f747885	0.954964
252	0x3f74c984	0.9561999
253	0x3f6e66de	0.9312571
254	0x3f732889	0.94983727
255	0x3fa10361	1.2579156

bias f4 [768]
0	0xbd897c3e	-0.067131504
1	0x3bbed0d9	0.0058232364
2	0x3c68857d	0.014191982
3	0x3dfc9261	0.12332607
4	0xbdb3421a	-0.08752842
5	0xbcc443d0	-0.023958117
6	0xbe0a9975	-0.13535102
7	0xbdaab00a	-0.08334358
8	0x3da6d6fd	0.081464745
9	0xbdc05342	-0.0939088
10	0x3d9d3868	0.07676774
11	0x3dea1997	0.11430662
12	0x3d9091aa	0.07059033
13	0x3cbaceb6	0.022803646
14	0xbe03cb21	-0.12870456
15	0xbcc0f66c	-0.023555003
16	0xbd1638f9	-0.036675427
17	0x3dcbe1ff	0.09955215
18	0x3da0e039	0.07855267
19	0xbc71d2ba	-0.014759714
20	0x3d94f159	0.07272596
21	0xbc0973ad	-0.008389396
22	0x3c195b8d	0.009360206
23	0x3dd546a0	0.10413861
24	0x3d760d36	0.060071193
25	0xbe4009e7	-0.18753777
26	0x3d5bcba1	0.053660993
27	0x3d87b118	0.06625575
28	0x3de748f3	0.11293211
29	0xbd303a0a	-0.0430241
30	0xbceaf1d7	-0.028679771
31	0xbba2f766	-0.00497334
32	0x3cd9e7f8	0.02659987
33	0xbe111dbf	-0.14171503
34	0xbc9df915	-0.01928381
35	0xbd832cdd	-0.06405041
36	0xbd1e4b77	-0.038646188
37	0xbdb0b3cd	-0.08628044
38	0x3df8efc7	0.12155109
39	0xbe036182	-0.12830165
40	0x3c4ff7c4	0.012693349
41	0x3c77557d	0.015096066
42	0x3bbb41b5	0.00571462
43	0x3e09c28c	0.1345312
44	0xbca7eef0	-0.020499676
45	0xbcd939bb	-0.026516786
46	0xbb56d776	-0.0032782233
47	0xbe2bcfd0	-0.16778493
48	0x3cff5efd	0.031173224
49	0xbd8377df	-0.06419348
50	0x3cd72434	0.02626238
51	0xbca900d1	-0.020630272
52	0x3d9214a3	0.071328424
53	0xbd37f7ca	-0.044914044
54	0x3cb30bce	0.021856215
55	0x3d16ad87	0.036786582
56	0x3d75361a	0.05986605
57	0x3d282527	0.041051056
58	0xbd6ab23b	-0.05729888
59	0xbe0e8607	-0.13918315
60	0x3dc48090	0.09594834
61	0xbd777752	-0.060416527
62	0x3e0cf7cb	0.137664
63	0x3df23d06	0.118280455
64	0x3d6080e4	0.05481042
65	0xbd03d401	-0.032184605
66	0xbd3ed72f	-0.046591934
67	0x3c3509f6	0.011049738
68	0x3d95b2e1	0.07309509
69	0xbdc0d9ac	-0.094165176
70	0x3d3af073	0.045639466
71	0x3cb31ded	0.021864856
72	0xbe0f9442	-0.140214
73	0xbd5a158d	-0.05324321
74	0x3da2d83b	0.07951399
75	0x3dd09b30	0.1018585
76	0x3e00933c	0.12556165
77	0xbce47ee9	-0.027892547
78	0xbd7e7f92	-0.06213338
79	0x3cafbf9b	0.02145367
80	0x3e0cddcc	0.13756484
81	0x3d8cb2fe	0.068700776
82	0x3dd59a4f	0.10429823
83	0xbd133dbb	-0.035947543
84	0x3e14c407	0.14527903
85	0xbe23c263	-0.15992121
86	0xbdda0ae9	-0.10646612
87	0x3d9b6361	0.075873144
88	0xbc00955a	-0.007848108
89	0x3e4054f4	0.18782407
90	0xbdbe0bdf	-0.09279608
91	0x3e1289b8	0.14310348
92	0x39a32adc	0.00031121715
93	0xbd58bc24	-0.0529138
94	0xbd880b1e	-0.066427454
95	0xbd38f231	-0.045152847
96	0xbd384280	-0.044985294
97	0xbd4e72c3	-0.050402414
98	0xbd7892d4	-0.0606869
99	0x3de2e089	0.11077983
100	0xbdf069d0	-0.11738932
101	0xbe4bacf1	-0.1989019
102	0x3da13b80	0.07872677
103	0x3d7c5c24	0.06161131
104	0x3c8fdbec	0.017560922
105	0x3d7627f4	0.060096696
106	0x3ccfdd28	0.02537401
107	0x3d86b11f	0.06576752
108	0xbd2a4ad6	-0.041575275
109	0x3db72c71	0.089440234
110	0x3d3481d7	0.044069137
111	0x3dc68354	0.096930176
112	0xbe6704e5	-0.22560461
113	0xbda06c5a	-0.078331664
114	0x3db38b08	0.087667525
115	0xbb760b49	-0.0037543348
116	0x3d13fc15	0.036129076
117	0xbdbcf468	-0.09226304
118	0x3d45f0c8	0.04832533
119	0x3ddff99b	0.1093628
120	0x3c9717ca	0.01844396
121	0x3d903056	0.07040469
122	0x3db9764e	0.09055768
123	0xbe24824e	-0.16065332
124	0x3c25d36f	0.0101212105
125	0x3af4367a	0.0018631958
126	0x3dba78e4	0.09105089
127	0x3d22c6d6	0.039740406
128	0x3d18d161	0.037309054
129	0x3d739a8a	0.05947355
130	0x3e0f8f27	0.14019452
131	0xbd567c33	-0.05236454
132	0xbd8137c4	-0.063094646
133	0xbdb35c83	-0.087578796
134	0x3d94f942	0.07274105
135	0x39d0fa8f	0.00039859532
136	0x3d1fffb9	0.039062236
137	0x3e50464e	0.20339319
138	0x3dcd7557	0.100321464
139	0xbd177c23	-0.03698362
140	0xbe19595b	-0.14975493
141	0xbdbbb5db	-0.091655456
142	0xbd768be3	-0.060192
143	0x3dcc3b0e	0.09972201
144	0x3d33a947	0.043862607
145	0xbc1241ba	-0.008926803
146	0x3cca75fb	0.02471446
147	0x3d30414d	0.043031026
148	0x3da98349	0.08276994
149	0xbcf80658	-0.030276462
150	0x3d1a76ae	0.037710838
151	0x3bc2edeb	0.005948772
152	0x3c49a8d9	0.012308323
153	0x3cfc1568	0.030771926
154	0x3d27fc4b	0.04101209
155	0x3d51f855	0.05126222
156	0x3df0baf9	0.11754412
157	0xbd007ed8	-0.031370968
158	0xbd85c4db	-0.06531688
159	0x3d1132d6	0.03544887
160	0xbd96bcb8	-0.07360214
161	0xbda3a5dc	-0.079906195
162	0x3d3a3cf3	0.045468282
163	0xbcc259f0	-0.023724526
164	0xbd403dd7	-0.046933975
165	0x3e1aae1c	0.1510548
166	0xbda3921a	-0.07986851
167	0xbde526b9	-0.111890264
168	0x3e50b825	0.20382746
169	0xbc52292f	-0.012827202
170	0x3e19f9cb	0.15036695
171	0xbdbe121b	-0.09280797
172	0x3d920128	0.07129127
173	0x3d68c0be	0.05682444
174	0x3d45d55f	0.04829919
175	0x3d8cc7fb	0.06874081
176	0xbdab3601	-0.0835991
177	0xbd38a5f5	-0.045080144
178	0xbabb0cdb	-0.0014270799
179	0xbda81378	-0.08206838
180	0x3e952559	0.29130057
181	0xbd5a9e99	-0.053373907
182	0x3d5f4b41	0.054515127
183	0x3bd1a8ba	0.0063982876
184	0xbdad3368	-0.084570706
185	0xbe049de1	-0.12950851
186	0xbd573f83	-0.052550804
187	0xbdc9f35e	-0.09860872
188	0xbdee7e2f	-0.11645161
189	0xbb2cae44	-0.0026348988
190	0x3d9ecbb3	0.07753696
191	0x3da5a431	0.08087958
192	0xbd16294b	-0.036660474
193	0x3b154c6b	0.0022781144
194	0xbd372fd0	-0.044723332
195	0xbe308a09	-0.17240156
196	0x3cc8e8bc	0.024525039
197	0xbc4fa854	-0.01267441
198	0xbc693fd4	-0.014236409
199	0x3dcc36ae	0.09971367
200	0xbc8a4c3f	-0.01688206
201	0x3d1bcaaa	0.038035072
202	0xbe02fcf1	-0.12791802
203	0xbe14fb63	-0.14549021
204	0xbe1dbf30	-0.15404963
205	0xbdcfdb5b	-0.101492606
206	0xbe05d415	-0.13069184
207	0x3c8c7366	0.01714487
208	0x3cebf263	0.028802102
209	0xbca403b3	-0.020021295
210	0xbdbbcbae	-0.09169708
211	0x3dfacb65	0.12245826
212	0x3c400c51	0.011721686
213	0x3d2f574c	0.042807862
214	0x3d554c4f	0.052074727
215	0xbd3d25f4	-0.046178773
216	0x3d033f33	0.032042693
217	0x3dbf723d	0.09347961
218	0xbdf37fb2	-0.1188959
219	0xbda12200	-0.07867813
220	0xbd339e46	-0.043852113
221	0x3da69851	0.08134521
222	0xbd03d7c6	-0.0321882
223	0x3d2ae821	0.04172528
224	0x3d4e647d	0.0503888
225	0xbd204a48	-0.03913334
226	0xbd6bd917	-0.05758008
227	0xbde774af	-0.113015525
228	0xbd82c903	-0.06385996
229	0x3dea0774	0.11427203
230	0xbd49e805	-0.049293537
231	0x3c969f57	0.018386526
232	0x3dc01e63	0.09380796
233	0x3d051767	0.03249302
234	0xbd96ed09	-0.073694296
235	0x3d35da33	0.044397544
236	0x3d82b609	0.06382377
237	0xbd143253	-0.036180805
238	0x3e2c3bb3	0.16819648
239	0xbdb36d06	-0.08761029
240	0xbc9b74aa	-0.018976528
241	0x3e095e70	0.13414931
242	0x3d2c39aa	0.04204718
243	0x3dbc9610	0.0920831
244	0xbe30f7fc	-0.17282099
245	0xbd12da32	-0.03585262
246	0xbc1eb6be	-0.009687124
247	0x3dcf83b9	0.10132546
248	0xbe183fcb	-0.14868085
249	0x3c87a7e7	0.016559554
250	0xbe044e27	-0.12920438
251	0xbbb48f20	-0.005510226
252	0x3d0ca2db	0.034335
253	0x3d8cc7b1	0.068740256
254	0x3d3f6b10	0.046732962
255	0x3e60cfd8	0.21954286
