ablations/ada-nodelta/donnieyen2023-05-24T17-34-07_donnieyen-ada/embeddings_gs-4500.pt (torch, 921583 bytes, 168 tensors)

pre_vecs f4 [2, 768]
0	0xbca00c3a	-0.01953708
1	0xbbdee6ec	-0.0068024304
2	0x3b57d099	0.003293073
3	0x3d0547bb	0.03253911
4	0xbc99bdf1	-0.018767329
5	0x3ca6e09b	0.020370772
6	0xbc882b1a	-0.016622115
7	0xbc8c9896	-0.017162602
8	0xbc31788b	-0.010831962
9	0x3c3283d9	0.010895693
10	0x3bdde99d	0.0067722336
11	0xbcb52d95	-0.022116462
12	0xbb408f8c	-0.0029382436
13	0xbb38bd4e	-0.0028189006
14	0x3c10a46a	0.008828262
15	0x3c9b50c0	0.018959403
16	0xbbae08bf	-0.005311101
17	0x3c025df1	0.007956968
18	0xbd003378	-0.031299084
19	0x3bba1713	0.00567902
20	0xbab2aa9b	-0.0013631167
21	0x3ccaad2c	0.024740778
22	0x3c95975f	0.018260656
23	0xbc2a8b80	-0.010409236
24	0x3bfcc637	0.0077140587
25	0xbc3ef9ba	-0.011656219
26	0x3c865038	0.016395673
27	0x3ab2e22b	0.0013647726
28	0xbc8c8334	-0.017152406
29	0x3be285ca	0.0069129216
30	0x39ea851b	0.0004473113
31	0x3c9fdf39	0.01951562
32	0xbc5f63a6	-0.013634598
33	0x3c1a7e56	0.009429535
34	0x3cc220f2	0.02369735
35	0x3d876480	0.06610966
36	0xbca2751a	-0.019831229
37	0x3cd07a10	0.025448829
38	0xbd20865a	-0.039190628
39	0xba9825b3	-0.0011607915
40	0x3c4ad3a5	0.012379562
41	0xbb73ba7a	-0.0037190006
42	0x3bc16508	0.0059019364
43	0xbbfe4a8a	-0.0077603506
44	0xbc2a2b57	-0.01038631
45	0xbb217a1c	-0.0024639433
46	0x3bdc297e	0.0067188134
47	0xbcabfbb7	-0.02099405
48	0xbd19ce00	-0.037549973
49	0xbd0bdd71	-0.03414673
50	0x3b3dd12c	0.0028963787
51	0x3c6fce2d	0.0146365585
52	0xbc1d0169	-0.009582856
53	0xbc2ce0bb	-0.010551627
54	0xbd01a4c1	-0.031651262
55	0xbbdad71d	-0.0066784755
56	0x3c397a66	0.011320686
57	0xb85bf66f	-5.2443178e-05
58	0x3cd9f0e9	0.026604133
59	0x3c21b398	0.009869479
60	0x3a988a0e	0.0011637823
61	0x3b8edd64	0.004359888
62	0x3b98db6a	0.004664828
63	0xbbec6495	-0.0072141387
64	0x3c6ce856	0.01445969
65	0xbc214c58	-0.009844862
66	0x3ccdc43c	0.025117986
67	0x3cccf935	0.025021175
68	0x3ccb09df	0.02478498
69	0xbb26f21b	-0.0025473896
70	0xbc03a3d0	-0.008034661
71	0xbcbd48b5	-0.023105958
72	0xbb1d8b34	-0.002403927
73	0xbb07a629	-0.0020698404
74	0xbb517c7d	-0.003196507
75	0x3aa87bad	0.0012854241
76	0xbc3a8f24	-0.011386666
77	0xbb165ada	-0.0022942335
78	0x3c557c4d	0.013030124
79	0x3c584eb7	0.013202361
80	0x3ad559b2	0.0016277342
81	0x3b990f2b	0.0046709976
82	0x3c7b6410	0.015343681
83	0xbd0f8a24	-0.03504385
84	0x3abc0c65	0.0014346956
85	0x3a9b893e	0.0011866463
86	0x3c50f1b3	0.012752938
87	0x3b5affd0	0.0033416636
88	0x3c0a88dd	0.008455482
89	0xbc93b9a4	-0.018032856
90	0x3c08f435	0.008359005
91	0x3c95c04d	0.018280173
92	0x3c7acb92	0.015307324
93	0xbb524ba3	-0.003208854
94	0xbcab51c3	-0.02091301
95	0x3cde0e95	0.027106563
96	0xb991fed0	-0.00027846405
97	0x3c035a89	0.008017191
98	0x3ad92de4	0.0016569463
99	0xba6e34ac	-0.0009086828
100	0xbcbd8e7a	-0.023139227
101	0x3c01a263	0.007912251
102	0x3b926796	0.004467915
103	0xbc574b86	-0.013140565
104	0x3b68431f	0.0035440398
105	0xbc471436	-0.012150815
106	0x3c816cf6	0.015799027
107	0x3c6d8156	0.014496168
108	0xbcff7a66	-0.031186294
109	0xbc96dc4f	-0.018415598
110	0xb9e80bac	-0.00044259185
111	0x3b76b51a	0.0037644566
112	0x3c20336c	0.009777885
113	0x3b28b321	0.0025741535
114	0x3c6c9905	0.01444078
115	0xbc35741c	-0.011075046
116	0xbd3f2172	-0.046662755
117	0x3c190392	0.00933923
118	0xbc0f5320	-0.008747846
119	0x3c122430	0.008919761
120	0x3be6de09	0.0070455116
121	0xbbc46332	-0.0059932703
122	0x3baed68a	0.0053356336
123	0xbab2eebb	-0.001365147
124	0xbcebd386	-0.028787386
125	0x3b20187c	0.0024428656
126	0xbcc0e296	-0.023545545
127	0xbcb5836d	-0.022157395
128	0x3a9fac61	0.001218211
129	0xbc9430f7	-0.018089755
130	0x3b89b027	0.004201907
131	0x3c919a6d	0.017773831
132	0xbcf5dcd8	-0.030012533
133	0x3c2df720	0.010618001
134	0x3be5b51e	0.0070101162
135	0x3cd2b71c	0.025722079
136	0xbcd4fc53	-0.025999224
137	0xbd44cb16	-0.04804524
138	0x3bc91386	0.0061363606
139	0xbc9293b9	-0.017892705
140	0xbd511c49	-0.051052365
141	0x3b686ceb	0.003546531
142	0xba8a46cc	-0.0010549664
143	0xbc7ebb2b	-0.015547554
144	0x3c1072ab	0.0088164015
145	0xbbd1bd6c	-0.0064007547
146	0x3c4ebbf6	0.012618056
147	0xbc061265	-0.008183097
148	0x3c4a2c77	0.012339703
149	0x3c68eb2b	0.014216225
150	0x3c58a450	0.013222769
151	0x3c7834b9	0.015149289
152	0xbc5c588d	-0.0134488465
153	0x3c3450f4	0.011005629
154	0xbc3fc9eb	-0.011705856
155	0x3c7c6c7c	0.015406724
156	0x3c97976e	0.018504824
157	0x3cb52931	0.022114368
158	0xbbf4613f	-0.0074578817
159	0xbc8ffca6	-0.017576527
160	0x3b823593	0.0039736717
161	0x3cbc596f	0.022991864
162	0x3d28f6b3	0.041250896
163	0x3c3d2166	0.011543607
164	0xbbe33dc5	-0.0069348537
165	0xbc89ede1	-0.016837062
166	0xbbd0c050	-0.0063705817
167	0xbcaeda87	-0.021344436
168	0x3c842bd2	0.016134176
169	0x3c5d0398	0.013489626
170	0xbb3dd612	-0.0028966707
171	0x3ba74c30	0.005105518
172	0x3bfaaabc	0.0076497477
173	0xbc1f20bc	-0.009712394
174	0x3cd256fd	0.025676245
175	0xba6078d0	-0.00085629243
176	0xbccb8486	-0.024843466
177	0xbc8e44cb	-0.017366787
178	0xbc6a9dad	-0.014319819
179	0x3c806326	0.015672278
180	0xbca67da3	-0.02032358
181	0x3c393007	0.0113029545
182	0x3caa8dd9	0.020819591
183	0x3c19670e	0.009362949
184	0xbc1f04c4	-0.009705726
185	0xb9d2c68a	-0.00040202244
186	0xbc8c3526	-0.017115187
187	0xbbc1faa1	-0.00591977
188	0xbc417b68	-0.0118092075
189	0x3c91a3c5	0.017778287
190	0xbbdb02a3	-0.006683664
191	0x3c14a4c3	0.009072485
192	0x3c1ec92e	0.00969152
193	0xbbc869f7	-0.0061161476
194	0xbcd13c32	-0.025541399
195	0x3c41143a	0.011784608
196	0x3d02b0fb	0.031907063
197	0x3ca4e5f1	0.020129176
198	0x3c51432d	0.012772364
199	0xbc0e5991	-0.0086883465
200	0x3c7120ad	0.014717263
201	0x3b91e1d8	0.0044519715
202	0xbc834009	-0.016021745
203	0x37e788cc	2.7601047e-05
204	0xbc6f6c51	-0.014613227
205	0xbc4cec35	-0.012507488
206	0x3c11a2d8	0.008888923
207	0x3be8331c	0.007086171
208	0x3c13b48d	0.009015215
209	0x3b4b33fe	0.0031006332
210	0x3d0e38e7	0.034722235
211	0xbc1ec462	-0.009690376
212	0x3c44c155	0.012008985
213	0xbbc98b32	-0.0061506266
214	0xbcab48d7	-0.020908756
215	0xbca00936	-0.019535642
216	0x3c55d04e	0.013050152
217	0x3d7802d8	0.060549587
218	0xbb834c74	-0.0040069167
219	0xbc5a8e0a	-0.013339529
220	0x3ce0f89d	0.027462298
221	0x3b5692d9	0.0032741337
222	0xbb31b0bb	-0.0027113396
223	0xba84f6cf	-0.0010144355
224	0xbc0c68ce	-0.008569909
225	0x38d699cf	0.00010232964
226	0xbbe7f71d	-0.0070790187
227	0x3cdef540	0.027216554
228	0x3d12ab3b	0.03580783
229	0xbc46827c	-0.012116071
230	0x3d1495c9	0.03627566
231	0xbba3f67a	-0.0050037475
232	0xbb84ea16	-0.0040562255
233	0xbc39da53	-0.011343556
234	0x3bbeaf50	0.0058192387
235	0xbb5e9ad0	-0.0033966787
236	0x3b9ec628	0.0048453994
237	0x3c60f370	0.013729915
238	0x3d146f1c	0.036238775
239	0xbbbde13f	-0.0057946737
240	0x3c70eefb	0.014705415
241	0x3c046023	0.008079561
242	0x3ab4dcd0	0.0013798717
243	0x3d0e7e7d	0.034788597
244	0xb9de8854	-0.00042444712
245	0xbc8a2220	-0.016861975
246	0xbc0c2466	-0.0085536
247	0xbc453585	-0.012036686
248	0x3cab613d	0.02092039
249	0x3ce554cf	0.027994541
250	0xbbd8e359	-0.006618899
251	0x3d0504fd	0.03247546
252	0xbc86833b	-0.016419997
253	0xbd2c7035	-0.042099196
254	0xbc348456	-0.0110178795
255	0x3cef72cd	0.029229546

basis_rand_weights f4 [16, 5]
0	0x3cb2aa1f	0.021809636
1	0x3c7e12d9	0.015507423
2	0x3cdc07e9	0.02685924
3	0x3e243241	0.16034795
4	0xbd630892	-0.055428095
5	0x3c1a17bb	0.009405072
6	0x3c8a69bf	0.016896127
7	0xbdaee0f5	-0.08539001
8	0xbbd750b2	-0.006570899
9	0x3dd69c80	0.10479069
10	0x3b180a21	0.0023199397
11	0x3ce6c9f8	0.028172478
12	0x3c5cd596	0.013478657
13	0x3b9e4b79	0.0048307744
14	0xbd5e17f0	-0.054222047
15	0xbce6ddf6	-0.028182011
16	0x3d1e558a	0.038655795
17	0xbda9769c	-0.08274576
18	0xbe0906e0	-0.13381529
19	0x3c93754f	0.018000273
20	0xbd463b5f	-0.048396464
21	0x3d039dab	0.032132786
22	0xbd1060ef	-0.035248693
23	0x3d352d21	0.04423249
24	0xbdbbf8c3	-0.09178307
25	0xbd0ddd15	-0.03463467
26	0xbc528eb4	-0.012851406
27	0x3a1a8327	0.0005894177
28	0xbc1d9dcc	-0.009620141
29	0xbd5650ef	-0.052323278
30	0xbc9783a1	-0.018495383
31	0xbc010f01	-0.007877112
32	0xbb7c5540	-0.0038502961
33	0x3d50b55f	0.05095422
34	0xbd88c2d7	-0.06677788
35	0xbd00472f	-0.031317886
36	0x3ad3b32f	0.0016151423
37	0xbe09573c	-0.13412184
38	0x3d86bef0	0.06579387
39	0xbcbf479b	-0.023349574
40	0xbd9f674a	-0.07783373
41	0x3d2e2988	0.042520076
42	0x3db5b832	0.08873023
43	0x3e924d16	0.28574437
44	0xbd75f847	-0.06005123
45	0xbd7487dd	-0.05969988
46	0x3caacb90	0.02084902
47	0x3dd1e94b	0.10249575
48	0x3e386fdc	0.18011421
49	0xbab46c6c	-0.0013765222
50	0xbdd0c774	-0.10194293
51	0x3d3f01c6	0.04663255
52	0x3df0f758	0.11765927
53	0x3ea6dd85	0.3259088
54	0xbe0d3c5d	-0.13792558
55	0xbcb21969	-0.021740632
56	0xbd413bd4	-0.047176197
57	0xbe2cccd8	-0.16875017
58	0x3e4cdcf7	0.20006166
59	0x3dc489ec	0.09596619
60	0x3e324ccb	0.17412107
61	0xbdfc9e34	-0.12334862
62	0xbdfe2d06	-0.12410931
63	0x3d2eda11	0.042688433
64	0xbd9a8788	-0.07545382
65	0xbcb3645a	-0.021898437
66	0xbd66828b	-0.05627684
67	0xbd2f5d0b	-0.042813342
68	0x3d88849e	0.0666592
69	0xbd983e04	-0.074337035
70	0xbc90e9f5	-0.017689684
71	0xbc3269b7	-0.010889462
72	0xbdc9f190	-0.098605275
73	0x3d26dc66	0.040737532
74	0xbe4320d2	-0.19055489
75	0x3df8f97d	0.12156961
76	0xbd907679	-0.07053847
77	0xbde0fb74	-0.10985461
78	0x3e669975	0.22519477
79	0xbd36a0db	-0.044586997

basis_vecs f4 [3, 768]
0	0xbbc61eb2	-0.0060461396
1	0x3cbb4337	0.022859199
2	0x3bc8f88a	0.006133144
3	0xbc055314	-0.008137483
4	0x3ab49e21	0.0013780036
5	0x3d30d2e0	0.043169856
6	0xbba22eae	-0.0049494123
7	0xbcccee5f	-0.025016008
8	0x3b4c7357	0.0031196678
9	0x3ce24cf2	0.027624581
10	0x3cc1bcf7	0.023649676
11	0x3c10441e	0.008805303
12	0x3d0e416b	0.034730356
13	0x3c9b2d2f	0.018942444
14	0xbb2a4479	-0.0025980754
15	0x3c15a7fa	0.009134287
16	0xbc2538aa	-0.010084311
17	0x3d1e4122	0.038636334
18	0xbcf38ad5	-0.029729286
19	0x3c385f32	0.011253165
20	0xbc7addf0	-0.015311703
21	0x3ceb2615	0.028704682
22	0x3caaa50c	0.020830654
23	0x3cd92f80	0.026511908
24	0x3d03c5f5	0.03217121
25	0xbc8c38c6	-0.017116915
26	0x3c49bc74	0.012312997
27	0x3c3fff84	0.0117186345
28	0xbd8ac21f	-0.06775307
29	0x3d093e04	0.03350641
30	0xbc8ada49	-0.01694979
31	0x3c8f6ccd	0.017507935
32	0xbd285339	-0.041094992
33	0x3c80c06d	0.015716756
34	0x3b8ce921	0.004300252
35	0x3db8501e	0.08999656
36	0xbc6ff0e9	-0.01464484
37	0x3cca1e7f	0.024672745
38	0xbd321079	-0.04347274
39	0xbcf545c4	-0.029940493
40	0x3b5129e8	0.0031915847
41	0xbbbec0a5	-0.005821305
42	0xbb21014c	-0.0024567423
43	0xbc9d4e9b	-0.019202521
44	0xbb375bad	-0.0027978227
45	0xbcaa452d	-0.020784939
46	0x3a2d66c5	0.000661474
47	0xbce7d137	-0.028298004
48	0xbc6c5aba	-0.014425928
49	0xbd22092a	-0.03955952
50	0xbd5b286e	-0.053505354
51	0xbb8931fd	-0.0041868673
52	0xbba00b7b	-0.004884181
53	0xbb60d439	-0.0034306182
54	0xbce46373	-0.027879452
55	0x3cd739ae	0.026272621
56	0xbbb08aaa	-0.005387624
57	0x3cb72043	0.02235425
58	0x3cd389e9	0.025822597
59	0x3d1cd6d7	0.038290825
60	0xbcddce70	-0.027075976
61	0xbc881f22	-0.016616408
62	0xbc7f5ec7	-0.0155865615
63	0x3b99d8cb	0.004695033
64	0x3d2cf989	0.042230163
65	0xbc524c60	-0.012835592
66	0x3d8e46de	0.069471106
67	0xbca4b2e5	-0.020104835
68	0x3cbbbe38	0.022917852
69	0xbcadbff9	-0.021209704
70	0xbc12dfa6	-0.008964455
71	0xbb515198	-0.0031939503
72	0x3ba1cda9	0.0049378467
73	0xbb354449	-0.002765911
74	0x3b32bbe7	0.0027272643
75	0x3d26569c	0.04060994
76	0x3c680a19	0.014162564
77	0x3b923a25	0.004462498
78	0x3c371c69	0.011176207
79	0x3d159c6e	0.036526136
80	0xbb22b6c4	-0.0024828175
81	0xbc81ac57	-0.015829248
82	0x3c7b93b4	0.015355039
83	0xbd1924df	-0.03738868
84	0x3d3523a8	0.044223458
85	0xbd24e2e4	-0.040255442
86	0x3d16b270	0.036791265
87	0x3b308f00	0.0026940703
88	0xbcafc7b0	-0.021457523
89	0xbced0e50	-0.028937489
90	0xbc8f0888	-0.017460123
91	0x3bff6dfd	0.007795094
92	0x3b9f0623	0.0048530265
93	0xbbc93c63	-0.006141232
94	0xbc993424	-0.01870162
95	0xba040898	-0.0005036681
96	0xbccb661c	-0.024828963
97	0x3b947e8c	0.004531687
98	0x3804c3cb	3.16536e-05
99	0x3c366cec	0.011134367
100	0x3b84b5b9	0.0040499833
101	0xbc1288c7	-0.008943743
102	0x3ccc5c8e	0.024946477
103	0xbcf327d9	-0.029682087
104	0x3ccc468b	0.024935981
105	0xbd5c9490	-0.053852618
106	0x3d7874dc	0.06065832
107	0x3d18ccdf	0.037304755
108	0xbd35258c	-0.04422526
109	0xbc51bdef	-0.012801631
110	0x3c752aa0	0.014963776
111	0xbab9b36e	-0.0014167854
112	0x3c5f1af1	0.013617263
113	0xbc4a69a2	-0.012354286
114	0x3c2990dc	0.010349479
115	0xbd0c6ed8	-0.034285396
116	0xbc92aa70	-0.017903537
117	0xbcc1fe24	-0.023680754
118	0x3c700de9	0.014651754
119	0x3cabbc05	0.020963678
120	0xba6be27e	-0.00089982885
121	0xbadb9ca6	-0.0016755059
122	0x3aa947d7	0.0012915087
123	0x3c9b889e	0.018986043
124	0xbcd1b660	-0.025599658
125	0x3c113179	0.008861893
126	0xbd68047d	-0.056644905
127	0xbcc22165	-0.023697564
128	0xbc95a429	-0.018266754
129	0xbc053732	-0.008130835
130	0xbb7a8587	-0.003822656
131	0xbc812d68	-0.015768722
132	0xbceb44a7	-0.02871926
133	0x3c4609fb	0.0120873405
134	0xbc843e07	-0.016142858
135	0x3ce94ce6	0.02847905
136	0xbc0563b3	-0.008141446
137	0xbbd18cda	-0.0063949646
138	0x3ce343cc	0.027742289
139	0xbb1e03c7	-0.0024111138
140	0xbd631efd	-0.055449475
141	0x3d1b3b10	0.037898123
142	0x3c95579d	0.018230254
143	0xbd10e735	-0.035376746
144	0x3d03c21d	0.032167543
145	0xbcbaef71	-0.022819253
146	0x3ca91ed2	0.02064458
147	0x3ae6e7d9	0.0017616703
148	0x3c5b077d	0.013368485
149	0xbc7ac837	-0.015306524
150	0xbd02eb0c	-0.03196244
151	0x3bd0ba3d	0.0063698576
152	0x3cd689fd	0.026188845
153	0x3d0eb67d	0.034842003
154	0x3cdd9b11	0.02705148
155	0xbba92e38	-0.0051629804
156	0x3cf9f988	0.030514494
157	0x3c4e9d8d	0.012610805
158	0x3c40c926	0.0117667075
159	0x3b0318aa	0.0020003715
160	0x3c8a2d37	0.016867263
161	0x3ca7577f	0.020427464
162	0x3cff98f9	0.031200873
163	0x3ce5b119	0.028038548
164	0x3bbdefa1	0.0057963883
165	0xbc32f0aa	-0.010921637
166	0xbd10e049	-0.035370145
167	0xbc5caa98	-0.013468407
168	0x3ba2c3c4	0.0049671847
169	0x3ca92d46	0.02065147
170	0xbc3e3593	-0.011609453
171	0x3be0e0b1	0.006862723
172	0x3c24398b	0.010023485
173	0x3ba3f5e7	0.005003679
174	0x3d1c67fd	0.03818511
175	0xbd1ec529	-0.038762245
176	0xbcf7ac7f	-0.03023362
177	0xbb83b43a	-0.0040192874
178	0xbcb18e30	-0.021674246
179	0x3d357c48	0.044307977
180	0x3c45966d	0.01205979
181	0x3ce68b5b	0.028142622
182	0x3d0dca71	0.03461689
183	0xbb944928	-0.0045253225
184	0xbc4ccd82	-0.012500169
185	0xbc7071a3	-0.014675531
186	0xbd23382d	-0.039848495
187	0xbd3821b8	-0.04495403
188	0xbccd33c9	-0.025049107
189	0x3ca11b57	0.019666357
190	0xbc0fe092	-0.008781569
191	0x3c613eb7	0.013747863
192	0x3caef415	0.021356622
193	0xbc96a21a	-0.018387843
194	0xbd2f7e4e	-0.042845063
195	0x3cd90333	0.026490783
196	0x3d0d0af8	0.03443429
197	0x3d4878a9	0.048943195
198	0x3d5f578c	0.05452685
199	0x3c489c02	0.012244226
200	0x3d2d5b4a	0.04232339
201	0xbc23ab8d	-0.009989631
202	0xbc8c50c1	-0.01712835
203	0x3c01597e	0.007894872
204	0x3c2aebf3	0.010432231
205	0xbcba5c84	-0.022749193
206	0x3d23e394	0.040011957
207	0xbc4c0d93	-0.012454408
208	0x3c20284e	0.009775234
209	0x3c1317c1	0.008977831
210	0x3d8d930f	0.06912815
211	0xbc9713e5	-0.018442104
212	0x3c59d5b3	0.013295579
213	0xbced949a	-0.029001523
214	0x3c3babf7	0.011454574
215	0x3c2c9754	0.010534126
216	0x3d11046c	0.035404608
217	0x3d9b1bc8	0.07573658
218	0xbcac5bc6	-0.021039855
219	0xbc29abdb	-0.010355915
220	0x3ae8fea6	0.0017776086
221	0xbd0c46dc	-0.034247264
222	0x3aa99f93	0.0012941234
223	0xbc0e1efc	-0.008674379
224	0xbc84141e	-0.016122874
225	0x3cc21603	0.023692137
226	0xbc9f7e8a	-0.019469518
227	0x3c87f27d	0.01659512
228	0xbc873341	-0.016503932
229	0x3c40d019	0.011768364
230	0x3bbb2a2f	0.005711816
231	0xbd0bc55a	-0.034123756
232	0x3c4999e6	0.012304759
233	0x3c534ed3	0.012897211
234	0xbc324ebd	-0.0108830305
235	0xbbbe6e23	-0.005811469
236	0xbbc56397	-0.006023835
237	0x3c13de20	0.009025127
238	0x3cf5b2c9	0.029992478
239	0xbd260a10	-0.04053694
240	0x3cf1991e	0.029491957
241	0xbc40b7df	-0.011762588
242	0x3c81dce4	0.0158524
243	0x3cac143e	0.021005746
244	0x3bad4a39	0.005288389
245	0xbc489e0f	-0.012244715
246	0xba2e9c6c	-0.0006660882
247	0xbcd212b7	-0.02564369
248	0x3c8d4b6c	0.017247878
249	0x3c602da6	0.013682758
250	0xbd018269	-0.03161851
251	0x3a65cf83	0.00087665784
252	0xbcbbba52	-0.022915993
253	0xbd076e39	-0.0330641
254	0xbd15fb29	-0.036616478
255	0x3d242784	0.040076748

basis_comm_weights f4 [1, 5]
0	0x3e83dd34	0.25754702
1	0x3f3095ff	0.68978876
2	0x3e654c35	0.22392352
3	0x3ed5cd4b	0.4175819
4	0x3e3e06fb	0.1855735

bias f4 [16, 768]
0	0x3ce24da2	0.027624909
1	0xbcd94be9	-0.026525455
2	0x3ca3cf3c	0.019996278
3	0xbc3237a9	-0.010877528
4	0xbd1a8c9a	-0.037731744
5	0xbd3f2e28	-0.046674877
6	0xbd80f5a2	-0.06296851
7	0x3cd3ce7a	0.025855292
8	0x3ce2d44e	0.027689125
9	0x3d697e67	0.057005312
10	0xbd248282	-0.040163524
11	0x3d6dbf73	0.05804391
12	0xbd6b0791	-0.057380263
13	0x3c2f75c8	0.010709234
14	0xbcb35bff	-0.021894453
15	0x3ab424ac	0.0013743839
16	0xbb1315b3	-0.0022443354
17	0xbc50bf80	-0.01274097
18	0xbc4b420d	-0.012405884
19	0xbce144ea	-0.027498681
20	0x3d9e1526	0.077188775
21	0xbda68b92	-0.0813209
22	0x3d6ca62f	0.057775673
23	0xbc8b1bb1	-0.016980978
24	0x3d0a6a87	0.033793
25	0x3d6ed067	0.058304217
26	0xbda4e6d1	-0.08051837
27	0xbd2bf300	-0.04197979
28	0xbcc796ce	-0.024363901
29	0x3d3d94de	0.04628455
30	0xbc9c1ce5	-0.019056747
31	0xbd284453	-0.041080784
32	0xbd023a35	-0.03179379
33	0xbcda7561	-0.026667299
34	0xbd7c204a	-0.06155423
35	0x3b631c08	0.003465416
36	0xbc32d6ec	-0.010915499
37	0xbcfb8f14	-0.030707873
38	0x3d4e084d	0.050300885
39	0x3c03552a	0.00801591
40	0x3d00e48c	0.03146796
41	0xbd2655bc	-0.040609106
42	0x3c8902cf	0.016724972
43	0xbc3f3784	-0.011670951
44	0x3c89588a	0.016765852
45	0x3c2c0a94	0.010500569
46	0x3c4bccb1	0.012438939
47	0xbd3d7a9b	-0.046259504
48	0xbcd22622	-0.025652949
49	0x3d714011	0.05889899
50	0x3d133c2e	0.035946064
51	0xbb3ddab6	-0.0028969473
52	0xbd32161a	-0.04347811
53	0xbdbf9a63	-0.09355619
54	0x3c1f0cc3	0.0097076325
55	0x3da3a360	0.07990146
56	0x3d35f5f6	0.04442402
57	0x3a7000a9	0.0009155372
58	0x3d2a6b7b	0.041606408
59	0xbd0a27d9	-0.033729408
60	0xbc80aab1	-0.015706392
61	0x3a828f4e	0.0009960921
62	0xbd1a9e67	-0.03774872
63	0x3b82319b	0.0039731986
64	0xbbb8e98c	-0.0056430753
65	0x3ce297b2	0.027660225
66	0x3cf1cddb	0.029517105
67	0x3d544ab4	0.051829055
68	0x3d81bc10	0.06334698
69	0x39f3835f	0.0004644645
70	0x3caecbc9	0.021337407
71	0xbbf0d287	-0.0073493156
72	0xbcea6aaf	-0.028615324
73	0xbd07c4a2	-0.033146508
74	0xbc074af8	-0.00825762
75	0xbc8e2b5a	-0.017354656
76	0x3d8dad3f	0.0691781
77	0x3b18e532	0.002332997
78	0xbd3dfc01	-0.046382908
79	0xbd3603cf	-0.044437226
80	0xbcdee489	-0.027208583
81	0x3dc26e52	0.09493698
82	0x3d309674	0.043112233
83	0xbcace6e2	-0.021106187
84	0xbcab617e	-0.020920511
85	0xbd836905	-0.06416515
86	0xbbcb02a9	-0.0061953855
87	0x3beb1590	0.0071742013
88	0xbb2f52d4	-0.002675225
89	0xba876271	-0.001032902
90	0xbc7c92d5	-0.015415867
91	0x3c8273aa	0.015924294
92	0x3d2ee2d3	0.042696785
93	0xbc5773f5	-0.013150205
94	0xbd18ebac	-0.03733413
95	0xbd7029b7	-0.058633532
96	0xbbfe1705	-0.007754209
97	0x3c96e296	0.018418591
98	0xbd128a1f	-0.035776254
99	0x3d872974	0.065997034
100	0x3d5b6574	0.05356355
101	0x3d0e73c9	0.03477839
102	0xbd67d7ee	-0.05660241
103	0xbc38c6d0	-0.011277869
104	0xbda17248	-0.078831255
105	0xbd7d5f47	-0.06185844
106	0x3d3f3f51	0.046691243
107	0xbcf43678	-0.029811129
108	0x3d87b0bb	0.066255055
109	0xbd56dbf6	-0.052455865
110	0xbce3392b	-0.02773722
111	0xbdabbf1a	-0.08386059
112	0xbd52e3c8	-0.05148676
113	0x3d16a0f6	0.036774598
114	0xbd43143a	-0.04762671
115	0xbd9ebb64	-0.07750586
116	0xbcd70cee	-0.026251283
117	0x3ca09113	0.019600427
118	0xbccf4337	-0.025300605
119	0x39fc77ca	0.00048154435
120	0x3d19b7c9	0.037528787
121	0x3d0eb776	0.03484293
122	0x3c318cc5	0.010836785
123	0xbd4c11eb	-0.049821775
124	0xbc4654d8	-0.012105189
125	0x3d5ebee2	0.05438126
126	0xbbf83c66	-0.0075755594
127	0x3dd4fe5a	0.10400076
128	0x3d25fb0d	0.040522624
129	0xbcadc5fd	-0.021212572
130	0xbadfbd00	-0.0017069876
131	0x3d20d828	0.039268643
132	0xbd28391d	-0.041070092
133	0xbd1f725c	-0.03892742
134	0xbd4d4e2e	-0.050123386
135	0x3c401422	0.01172355
136	0x3ca05657	0.01957242
137	0x3d7edf0e	0.06222444
138	0x3d52c175	0.051454026
139	0x3c27c274	0.010239232
140	0xbcd07fd4	-0.025451578
141	0x3b3b0ab5	0.0028540317
142	0xbba37989	-0.0049888534
143	0x3d36e7b5	0.044654567
144	0x3b023ed2	0.001987387
145	0x3d0195e0	0.031637073
146	0xbce9bc64	-0.028532214
147	0x3ab79f11	0.0014009197
148	0xbce3e879	-0.027820813
149	0x3d73db40	0.059535265
150	0xbd159a96	-0.036524378
151	0x3d2f6d4c	0.042828843
152	0x3b155094	0.0022783624
153	0x3d67b318	0.05656728
154	0xbc8dedd5	-0.017325321
155	0x3d45c87c	0.0482869
156	0xbd3ca3ba	-0.04605458
157	0x3c4efb9f	0.012633233
158	0x3cbae5d9	0.022814678
159	0xbcdcec6d	-0.026968205
160	0x3c665603	0.014058593
161	0xbccc408e	-0.024933126
162	0x3cfe8628	0.03106983
163	0x3ca41d41	0.02003348
164	0x3cb63e54	0.022246517
165	0x3c365e6c	0.01113091
166	0xbaa80524	-0.0012818915
167	0xbd93011b	-0.07177945
168	0xbd59387f	-0.053032394
169	0x3d71d8d6	0.05904468
170	0x3d07d86e	0.033165388
171	0x3d1d2a6e	0.038370542
172	0x3db7d5b3	0.08976307
173	0x3c036e2b	0.008021872
174	0xbb95e213	-0.0045740693
175	0xbd3bfb91	-0.04589421
176	0x3afa96b6	0.0019118402
177	0xbc263295	-0.010143896
178	0xbb9e67d7	-0.004834156
179	0x3d0016d8	0.031271785
180	0x39cf1441	0.00039497207
181	0x3c6ef70b	0.014585267
182	0x3cef51e6	0.029213857
183	0x3db8a302	0.09015466
184	0xbd1a5c17	-0.03768548
185	0xbd50a045	-0.050934095
186	0x3d42f175	0.047593553
187	0x3ade5ef8	0.0016965559
188	0xbc5a28c3	-0.013315382
189	0xbbc259f5	-0.005931134
190	0xbcdd753c	-0.02703344
191	0xbb6c098c	-0.0036016433
192	0x3cfd95ca	0.030955214
193	0xbd172582	-0.036901005
194	0x3cf8b894	0.030361451
195	0xbb224d84	-0.0024765441
196	0xbb0baa5e	-0.0021311264
197	0x3c07bade	0.008284299
198	0xbcb4708e	-0.022026327
199	0x3dce8a87	0.10085016
200	0x3c9dfebc	0.019286506
201	0xbd6df567	-0.058095362
202	0x3bf15e8f	0.0073660086
203	0x3cb06aee	0.021535363
204	0xbd214c95	-0.039379675
205	0x3c6a69a0	0.0143074095
206	0x3c06a0fe	0.0082170945
207	0x3c7dcc73	0.015490639
208	0xbccb2732	-0.024798963
209	0x3d4ec832	0.05048389
210	0xba95a21e	-0.0011416113
211	0xbccec630	-0.025240988
212	0xbbb34003	-0.0054702773
213	0xbcb3c2db	-0.0219435
214	0x3cc4ff8a	0.024047632
215	0xbd64a29e	-0.055819146
216	0xbcb64dde	-0.022253927
217	0xbbfef04b	-0.00778011
218	0xbcb0825b	-0.021546533
219	0xbdd3aeba	-0.10336061
220	0xbd851a2c	-0.064991325
221	0xbd3f69f0	-0.04673189
222	0xbce5f7e7	-0.02807231
223	0x3ce00b57	0.027349157
224	0xbccbc969	-0.024876313
225	0xbdd82b42	-0.10555126
226	0x3d513c5c	0.051082954
227	0x3cd9f531	0.026606174
228	0x3b4a4cf2	0.0030868617
229	0x3cdbdb87	0.026838077
230	0x3c74eda2	0.014949234
231	0xbd10663e	-0.035253756
232	0x3c84286b	0.016132554
233	0xbd58797e	-0.05285024
234	0x3d358038	0.044311732
235	0x3c2211c2	0.009891929
236	0xbd0a8ffe	-0.033828728
237	0xbda19a3b	-0.07890745
238	0x3d2b944e	0.04188948
239	0xbc18f371	-0.009335385
240	0x3d6dafac	0.058028862
241	0xbd923763	-0.071394704
242	0xbd71e39d	-0.05905496
243	0x3d3fa052	0.046783753
244	0x3c6146b3	0.013749766
245	0x3c7ff7e4	0.015623067
246	0xbcd517bf	-0.0260123
247	0xbd600735	-0.054694373
248	0x3c3e07b2	0.011598514
249	0x3d8a7272	0.0676011
250	0x3cd9df3b	0.026595702
251	0xbb8f52e9	-0.0043738973
252	0xbcc22312	-0.023698363
253	0x3d274822	0.040840276
254	0xbd441377	-0.047870126
255	0x3d7b22b0	0.061312377

weight f4 [768]
0	0x3f80ef18	1.0072966
1	0x3f6aae73	0.9167244
2	0x3f72f33f	0.94902414
3	0x3f7c7c48	0.9862714
4	0x3f5ca253	0.8618519
5	0x3f65a5f3	0.89706343
6	0x3f8a5563	1.0807308
7	0x3f717cb7	0.94330925
8	0x3f7c0b6d	0.98454934
9	0x3f7de8e5	0.99183494
10	0x3f725938	0.94667387
11	0x3f695550	0.911458
12	0x3f58ef6b	0.8474032
13	0x3f840fd4	1.031733
14	0x3f73a4d1	0.95173365
15	0x3f77b22e	0.96756256
16	0x3f69512b	0.9113948
17	0x3f70470a	0.93858397
18	0x3f83067b	1.0236353
19	0x3f7b476e	0.9815587
20	0x3f7c7e18	0.98629904
21	0x3f4ca344	0.79936624
22	0x3f8fa436	1.1221988
23	0x3f73b216	0.9519361
24	0x3f89a38c	1.0753036
25	0x3f5d4f9a	0.8644959
26	0x3f4f1ca4	0.8090308
27	0x3f6b0774	0.9180825
28	0x3f87d73d	1.061256
29	0x3f89e13a	1.0771859
30	0x3f7322e7	0.9497513
31	0x3f6e7bfc	0.93157935
32	0x3f87138e	1.0552843
33	0x3f7a27d3	0.97717017
34	0x3f5e4347	0.8682141
35	0x3f80cc93	1.0062431
36	0x3f844331	1.0333005
37	0x3f65eefd	0.8981779
38	0x3f61f6e6	0.8826736
39	0x3f75b7fe	0.95983875
40	0x3f8280c9	1.0195552
41	0x3f87a690	1.0597706
42	0x3f6f5fbd	0.9350546
43	0x3f7d73ba	0.9900471
44	0x3f7f47f3	0.9971916
45	0x3f644205	0.8916324
46	0x3f654c98	0.8957
47	0x3f861241	1.0474321
48	0x3f7450b4	0.95435643
49	0x3f55a857	0.8345999
50	0x3f70980e	0.9398202
51	0x3f773df3	0.965789
52	0x3f862c88	1.048234
53	0x3f6499fe	0.89297473
54	0x3f6c3f5c	0.9228418
55	0x3f921549	1.1412746
56	0x3f648db1	0.89278704
57	0x3f73d8b6	0.9525255
58	0x3f85d2c1	1.0454942
59	0x3f66f6c1	0.90220267
60	0x3f8123fb	1.0089105
61	0x3f82e383	1.0225681
62	0x3f7734c2	0.9656488
63	0x3f7325de	0.94979656
64	0x3f7c69a5	0.985987
65	0x3f61bfab	0.8818309
66	0x3f8ca72b	1.0988516
67	0x3f6454b5	0.8919175
68	0x3f8f37e9	1.1188937
69	0x3f6d2fe3	0.92651194
70	0x3f742211	0.9536448
71	0x3f5bc804	0.85852075
72	0x3f866ba4	1.0501599
73	0x3f8265d1	1.0187322
74	0x3f81daaf	1.0144862
75	0x3f6e3e9e	0.93064296
76	0x3f8094b8	1.0045385
77	0x3f7c9f5d	0.9868067
78	0x3f6857bd	0.9075888
79	0x3f54007a	0.8281323
80	0x3f8420eb	1.0322546
81	0x3f5075cb	0.8142974
82	0x3f8fb2ec	1.1226478
83	0x3f79a966	0.97524107
84	0x3f71e6d0	0.94492817
85	0x3f8e86e9	1.1134921
86	0x3f6de725	0.92930824
87	0x3f7839cd	0.96963197
88	0x3f78604b	0.9702193
89	0x3f76fd15	0.9647992
90	0x3f830c2a	1.0238087
91	0x3f733a2b	0.9501063
92	0x3f7aef9e	0.98021877
93	0x3f806397	1.0030392
94	0x3f8293b6	1.0201328
95	0x3f63a459	0.8892265
96	0x3f7ed8bb	0.99549454
97	0x3f630e23	0.88693446
98	0x3f6b0285	0.9180072
99	0x3f8ab36e	1.0836008
100	0x3f7d7d92	0.9901973
101	0x3f6f0bc4	0.9337733
102	0x3f7b3b06	0.9813694
103	0x3f79bba4	0.9755194
104	0x3f71cd48	0.9445386
105	0x3f880197	1.0625485
106	0x3f9d5226	1.2290695
107	0x3f722800	0.94592285
108	0x3f668b52	0.90056336
109	0x3f822fab	1.0170797
110	0x3f7565b9	0.9585834
111	0x3f6a1b27	0.9144768
112	0x3f72e191	0.9487544
113	0x3f6b5a53	0.919347
114	0x3f812a50	1.0091038
115	0x3f8b3e35	1.0878359
116	0x3f80ccb9	1.0062476
117	0x3f5e52c2	0.8684503
118	0x3f6d6621	0.9273396
119	0x3f7ec736	0.9952272
120	0x3f7c25c0	0.984951
121	0x3f83526b	1.0259527
122	0x3f78ec1f	0.9723529
123	0x3f667a85	0.900307
124	0x3f86edd9	1.0541335
125	0x3f8f4987	1.1194314
126	0x3f830cbd	1.0238262
127	0x3f403b1e	0.75090206
128	0x3f80ff0a	1.0077832
129	0x3f6f8958	0.93568945
130	0x3f7ebf17	0.9951033
131	0x3f64b0df	0.89332384
132	0x3f8f2dbb	1.1185831
133	0x3f5e14c6	0.8675045
134	0x3f878786	1.0588233
135	0x3f8205d0	1.0158024
136	0x3f6d36c0	0.92661667
137	0x3f647cc4	0.8925288
138	0x3f884db7	1.0648717
139	0x3f78bc1e	0.97162044
140	0x3f872cf9	1.05606
141	0x3f7cf4d9	0.9881111
142	0x3f7c8c4e	0.9865159
143	0x3f71e73f	0.9449348
144	0x3f86a760	1.0519829
145	0x3f6a034b	0.91411275
146	0x3f7aa45b	0.97907037
147	0x3f655764	0.8958647
148	0x3f71e961	0.9449673
149	0x3f5b9c3f	0.8578529
150	0x3f86cee2	1.0531886
151	0x3f7c7c19	0.9862686
152	0x3f80d24f	1.0064181
153	0x3f8cfb28	1.1014147
154	0x3f7208b3	0.94544524
155	0x3f80decf	1.0067996
156	0x3f5ee22d	0.87063867
157	0x3f7ef087	0.99585766
158	0x3f86995b	1.051555
159	0x3f672bd9	0.9030128
160	0x3f786f46	0.9704479
161	0x3f5bedd4	0.8590977
162	0x3f896ae5	1.0735747
163	0x3f86185b	1.0476183
164	0x3f75f78b	0.96080846
165	0x3f7e63c3	0.99370974
166	0x3f7a37ca	0.9774138
167	0x3f8810fa	1.0630181
168	0x3f7d3a30	0.9891691
169	0x3f5d8776	0.8653482
170	0x3f67d3ea	0.9055773
171	0x3f80dd55	1.0067545
172	0x3f95f5bb	1.1715616
173	0x3f81ec79	1.0150291
174	0x3f6cc100	0.92481995
175	0x3f83900d	1.0278336
176	0x3f731220	0.9494953
177	0x3f821dd8	1.0165358
178	0x3f850bfd	1.0394284
179	0x3f8840dc	1.0644794
180	0x3f7514f2	0.95735085
181	0x3f624bf9	0.88397175
182	0x3f862bb9	1.0482093
183	0x3f598e47	0.84982723
184	0x3f896116	1.0732753
185	0x3f854311	1.0411092
186	0x3f598eab	0.8498332
187	0x3f7b7a78	0.9823375
188	0x3f7f6a58	0.9977164
189	0x3f7ee5d0	0.99569416
190	0x3f7e7d47	0.9940991
191	0x3f7a3a39	0.9774509
192	0x3f851531	1.0397092
193	0x3f81a4a3	1.0128368
194	0x3f6b342d	0.9187649
195	0x3f75eadf	0.9606151
196	0x3f7bdc25	0.9838279
197	0x3f8452d4	1.0337777
198	0x3f730f96	0.9494566
199	0x3f8443b8	1.0333166
200	0x3f820656	1.0158184
201	0x3f766e7a	0.96262324
202	0x3f758e6a	0.9592043
203	0x3f85bd66	1.0448425
204	0x3f5d8025	0.8652366
205	0x3f6c15e5	0.9222091
206	0x3f7e5633	0.9935028
207	0x3f730ef2	0.9494468
208	0x3f7a76cc	0.9783752
209	0x3f8b220d	1.0869766
210	0x3f799d70	0.97505856
211	0x3f6fa010	0.9360361
212	0x3f84ab14	1.0364709
213	0x3f815727	1.0104722
214	0x3f73602f	0.9506864
215	0x3f695daf	0.91158575
216	0x3f706be2	0.93914616
217	0x3f79f78a	0.9764334
218	0x3f5f0201	0.8711243
219	0x3f9635a6	1.1735122
220	0x3f62238b	0.88335484
221	0x3f873371	1.0562574
222	0x3f78638e	0.9702691
223	0x3f76e19a	0.9643799
224	0x3f820548	1.0157862
225	0x3f817ef6	1.011687
226	0x3f59d5d4	0.850919
227	0x3f6e72ef	0.93144125
228	0x3f75dcdc	0.9604013
229	0x3f83fba3	1.0311168
230	0x3f84909b	1.035663
231	0x3f82da23	1.022282
232	0x3f8bef11	1.0932332
233	0x3f8163ae	1.0108545
234	0x3f7f5df9	0.99752766
235	0x3f767eed	0.96287423
236	0x3f810f3f	1.0082778
237	0x3f76babe	0.96378696
238	0x3f86a59f	1.0519294
239	0x3f860b7d	1.0472256
240	0x3f9673f7	1.175414
241	0x3f7453ae	0.95440185
242	0x3f649573	0.8929054
243	0x3f8d98f0	1.1062298
244	0x3f7921da	0.9731728
245	0x3f757a65	0.95889884
246	0x3f7a8bb2	0.9786941
247	0x3f8cff54	1.101542
248	0x3f8477e0	1.0349083
249	0x3f7290e4	0.94752336
250	0x3f70f339	0.9412113
251	0x3f729a67	0.9476685
252	0x3f811c3a	1.0086739
253	0x3f680acd	0.9064148
254	0x3f866d8d	1.0502182
255	0x3f90f249	1.132394

bias f4 [768]
0	0x3d748431	0.05969638
1	0xbd458574	-0.048222974
2	0x3d92a20f	0.071598165
3	0xbd783db1	-0.06060571
4	0xbd7deb93	-0.06199224
5	0xbd9bf783	-0.076155685
6	0xbdf8e17b	-0.12152382
7	0x3cd75f7a	0.026290644
8	0x3d91a611	0.07111753
9	0x3e039c41	0.12852575
10	0xbd86fc7c	-0.06591126
11	0x3dfa3f75	0.12219135
12	0xbde7f5ad	-0.11326156
13	0x3cc60356	0.024171513
14	0xbd7d2b70	-0.061809003
15	0x3adc5c9f	0.0016812271
16	0xbc412354	-0.011788208
17	0xbcce4d2d	-0.025183285
18	0xbcdba059	-0.026809858
19	0xbd35158a	-0.044209994
20	0x3e3c4cdc	0.18388695
21	0xbe381f55	-0.17980702
22	0x3e01bc2f	0.12669443
23	0xb83e2a43	-4.533889e-05
24	0x3d6e2fad	0.058150936
25	0x3e09bbec	0.13450593
26	0xbe40a231	-0.18811871
27	0xbde40dee	-0.111354694
28	0xbd78fe26	-0.06078925
29	0x3e054085	0.13012893
30	0xbd0a2f8a	-0.033736743
31	0xbdcfe97a	-0.10151954
32	0xbd8db667	-0.06919556
33	0xbd444bef	-0.04792398
34	0xbdfdd301	-0.123937614
35	0x3aa5ffc9	0.0012664731
36	0xbd1a355e	-0.03764855
37	0xbda351e3	-0.07974603
38	0x3dc936ba	0.098248914
39	0x3cdf1eb7	0.027236326
40	0x3d9d035c	0.076666564
41	0xbda5f48e	-0.08103286
42	0x3d08908a	0.03334097
43	0xbb5745a4	-0.0032847906
44	0x3c91e7f7	0.017810805
45	0xbc5fa798	-0.013650797
46	0x3c411d2b	0.011786739
47	0xbd807e0e	-0.06274043
48	0xbd8a3f7d	-0.06750391
49	0x3dd391c7	0.10330539
50	0x3d4ff310	0.05076891
51	0xbae89895	-0.0017745668
52	0xbd6cb256	-0.057787262
53	0xbe2933a0	-0.165236
54	0x3d2d1940	0.04226041
55	0x3e3be9c9	0.183509
56	0x3dc17747	0.094465785
57	0xbb2a1c05	-0.0025956642
58	0x3d8e2edd	0.06942532
59	0xbda6fa55	-0.08153216
60	0xbd3a0874	-0.045418218
61	0xbc106c98	-0.008814953
62	0xbda16b2b	-0.07881769
63	0x3c69db56	0.014273485
64	0xbaaa258f	-0.0012981164
65	0x3d07d4db	0.03316198
66	0x3db41ca9	0.08794529
67	0x3de5b67f	0.11216449
68	0x3deed333	0.11661377
69	0xbc72391d	-0.014784125
70	0x3d4b2df9	0.04960439
71	0xb9098e79	-0.00013118413
72	0xbdbe061e	-0.092785105
73	0xbd6d8191	-0.057984892
74	0xbc2bb28d	-0.010479582
75	0xbd574005	-0.05255129
76	0x3e059289	0.1304418
77	0x3c328852	0.010896759
78	0xbd8a2d41	-0.06746913
79	0xbe18b6ef	-0.14913534
80	0xbd8ce1ae	-0.068789825
81	0x3e282531	0.16420437
82	0x3dd3b0d3	0.10336461
83	0xbd3f9df1	-0.046781484
84	0xbcea19f9	-0.028576838
85	0xbe100fcb	-0.14068525
86	0xbcc675c6	-0.02422608
87	0x3cdca97b	0.026936283
88	0xbc98ec7e	-0.018667456
89	0xbbaad773	-0.005213672
90	0xbcaada8a	-0.02085616
91	0x3d1d4b8f	0.038402136
92	0x3dbb11c5	0.09134249
93	0xbc6ab339	-0.014324957
94	0xbdbc1a1f	-0.0918467
95	0xbe17fe00	-0.14842987
96	0xbca0d981	-0.019634964
97	0x3c36b993	0.011152643
98	0xbdbda677	-0.09260266
99	0x3de72017	0.112854175
100	0x3ddf8568	0.10914117
101	0x3d4dbcae	0.050228767
102	0xbdd4f112	-0.10397543
103	0xbcbfcfe5	-0.023414562
104	0xbe1f8b81	-0.1558056
105	0xbdd931a0	-0.10605168
106	0x3de05ac5	0.10954813
107	0xbd6a199a	-0.05715332
108	0x3e128ff8	0.14312732
109	0xbde387ae	-0.11109863
110	0xbd29779e	-0.04137384
111	0xbe37447c	-0.17897218
112	0xbdd6b6b7	-0.10484069
113	0x3d8efa4a	0.069813326
114	0xbd9b2868	-0.07576066
115	0xbe1a0226	-0.15039882
116	0xbd7e3249	-0.062059674
117	0x3d6fe606	0.058568977
118	0xbd650972	-0.05591721
119	0xbc99aa9f	-0.018758116
120	0x3d5409cc	0.051767156
121	0x3d461761	0.04836214
122	0x3c934f7d	0.017982239
123	0xbd84d45e	-0.06485818
124	0xbd680f44	-0.056655183
125	0x3e24521c	0.16046947
126	0xbcff3a36	-0.031155687
127	0x3e62f340	0.22163105
128	0x3d781ce9	0.060574446
129	0xbd97be87	-0.07409387
130	0x3c546652	0.012963848
131	0x3dc5034d	0.0961977
132	0xbdb39d08	-0.08770186
133	0xbd7ca813	-0.061683726
134	0xbddf214c	-0.10895023
135	0x3c65a7de	0.014017073
136	0x3d517bb4	0.051143363
137	0x3df20e34	0.11819115
138	0x3da45536	0.08024065
139	0x3b2abfee	0.002605434
140	0xbd4ccbdf	-0.049999114
141	0xbb570d92	-0.0032814485
142	0xbb4ba07c	-0.0031070998
143	0x3d8b5360	0.06803012
144	0x3d679b70	0.05654472
145	0x3d55ab5b	0.05216537
146	0xbd276830	-0.040870845
147	0x3baaddaa	0.0052144127
148	0xbd8ed8af	-0.06974923
149	0x3e0ee945	0.13956173
150	0xbda00f0e	-0.078153715
151	0x3d43c295	0.04779299
152	0xbc035a17	-0.008017085
153	0x3de6292d	0.112383224
154	0xbd0a14a2	-0.033711083
155	0x3dcf40fa	0.10119815
156	0xbdfea707	-0.12434202
157	0x3c89d2bf	0.016824124
158	0x3d73ef4e	0.05955439
159	0xbd582526	-0.052769803
160	0x3cdaaa10	0.02669242
161	0xbbf1f509	-0.007383947
162	0x3d6c2b6b	0.057658594
163	0x3d7a9cea	0.0611848
164	0x3dd3e51c	0.103464335
165	0x3c5062af	0.0127188405
166	0x3cad55c1	0.021159055
167	0xbe004d1c	-0.12529415
168	0xbde45d3e	-0.11150597
169	0x3e2179a2	0.15769055
170	0x3d6cb6e7	0.057791617
171	0x3d9223cb	0.07135733
172	0x3e3f1f00	0.1866417
173	0x3cd1b731	0.025600048
174	0xbbb94f03	-0.005655171
175	0xbddf6dd4	-0.1090962
176	0x3cb6da99	0.022321032
177	0xbcae799e	-0.021298226
178	0xbd10782c	-0.035270855
179	0x3d818c61	0.06325603
180	0x3c1c7d67	0.009551383
181	0x3d4d3c5a	0.050106384
182	0x3d9db347	0.0770021
183	0x3e14d95b	0.1453604
184	0xbd8d2051	-0.068909295
185	0xbd9f8a97	-0.07790106
186	0x3db2d9b9	0.087329336
187	0xbc28d172	-0.010303842
188	0x3ba29ff1	0.004962914
189	0xbb4b7b79	-0.0031048937
190	0xbd44c04e	-0.04803496
191	0xbc1964ef	-0.009362443
192	0x3d5c324f	0.053758916
193	0xbd7b271b	-0.06131659
194	0x3d56e520	0.052464604
195	0xbbecdeca	-0.007228707
196	0x3bb9b3ba	0.005667177
197	0x3c4cb01e	0.0124931615
198	0xbced111c	-0.028938822
199	0x3e412e61	0.18865348
200	0x3d03345c	0.032032356
201	0xbddeb387	-0.10874086
202	0x3c5ac5a0	0.0133527815
203	0x3d358cd5	0.04432376
204	0xbdc193e4	-0.09452036
205	0x3c894391	0.016755851
206	0x3cb31eba	0.021865238
207	0x3d17d131	0.037064735
208	0xbd199edb	-0.037505012
209	0x3dcc2d90	0.09969628
210	0xbc6b6350	-0.01436694
211	0xbc97426b	-0.018464288
212	0x3ca0b02d	0.019615257
213	0xbc87eebb	-0.016593328
214	0x3d1d5813	0.038414072
215	0xbdeb9bd1	-0.11504329
216	0xbd2744ea	-0.040837206
217	0xbcf55138	-0.029945955
218	0xbd54c70d	-0.051947642
219	0xbe48f8a1	-0.19626094
220	0xbe151a83	-0.14560895
221	0xbdafe78e	-0.085890874
222	0xbd8492cd	-0.064733125
223	0x3d3fcf81	0.04682875
224	0xbd6e2bf8	-0.0581474
225	0xbe83aa84	-0.2571603
226	0x3db74c4a	0.08950098
227	0x3d8b59f9	0.0680427
228	0x3bb694a7	0.00557192
229	0x3d8a94a5	0.06766633
230	0x3c8db09d	0.01729613
231	0xbd8c96a1	-0.06864668
232	0x3d6da0fb	0.05801485
233	0xbde4a289	-0.111638136
234	0x3daa366e	0.08311163
235	0xbb34ce14	-0.0027588652
236	0xbd20927a	-0.03920219
237	0xbe13ba59	-0.14426555
238	0x3d94ca83	0.072651885
239	0xbd4b4299	-0.04962406
240	0x3e209910	0.15683389
241	0xbe22ba5b	-0.15891401
242	0xbdef8e1d	-0.11697028
243	0x3db77f72	0.08959855
244	0x3c941a9e	0.018079098
245	0x3cd1221f	0.025528966
246	0xbd0e1387	-0.03468659
247	0xbe07903f	-0.1323862
248	0x3d200115	0.039063532
249	0x3e0dca0e	0.13846609
250	0x3d82dc55	0.06389681
251	0xbc7c9348	-0.015415974
252	0xbd15fe72	-0.03661961
253	0x3dc1ff45	0.09472517
254	0xbdc625f2	-0.09675206
255	0x3dd203d5	0.10254637

weight f4 [768]
0	0x3f68711d	0.907976
1	0x3f772c75	0.9655221
2	0x3f8041b7	1.0020055
3	0x3f6f9214	0.9358227
4	0x3f80ae4a	1.0053189
5	0x3f588b2d	0.84587365
6	0x3f88b1c5	1.0679251
7	0x3f68f7df	0.9100322
8	0x3f82f992	1.0232413
9	0x3f806e45	1.0033652
10	0x3f90d5a1	1.1315194
11	0x3f621e17	0.88327163
12	0x3f605a92	0.876382
13	0x3f716219	0.9429031
14	0x3f705cf2	0.93891823
15	0x3f7f6111	0.99757487
16	0x3f765d16	0.9623579
17	0x3f83a484	1.0284581
18	0x3f80aeef	1.0053385
19	0x3f7bf143	0.9841501
20	0x3f68027e	0.906288
21	0x3f87fbae	1.0623682
22	0x3f80d0eb	1.0063757
23	0x3f6d9693	0.92807883
24	0x3f7614be	0.961254
25	0x3f88b0c2	1.0678942
26	0x3f8417ef	1.0319804
27	0x3f7938de	0.973524
28	0x3f74c766	0.9561676
29	0x3f752642	0.957615
30	0x3f70e3c8	0.94097567
31	0x3f6ea102	0.9321443
32	0x3f90c577	1.1310261
33	0x3f85a627	1.0441331
34	0x3f8504b7	1.0392064
35	0x3f80e20e	1.0068986
36	0x3f79cb33	0.9757568
37	0x3f6044f6	0.87605226
38	0x3f613bbe	0.87981784
39	0x3f8908b7	1.0705785
40	0x3f83a0f7	1.0283498
41	0x3f7dbbc1	0.99114615
42	0x3f87b9da	1.0603592
43	0x3f6e4f97	0.93090194
44	0x3f6e4d24	0.9308646
45	0x3f643200	0.89138794
46	0x3f768af7	0.96305794
47	0x3f7f263b	0.9966771
48	0x3f7cf560	0.9881191
49	0x3f80c70b	1.0060743
50	0x3f62aa37	0.8854098
51	0x3f791b6a	0.97307456
52	0x3f5d5ce2	0.8646985
53	0x3f86ecc7	1.0541009
54	0x3f8b833b	1.0899423
55	0x3f80e289	1.0069133
56	0x3f80b424	1.0054975
57	0x3f591ec0	0.84812546
58	0x3f949781	1.1608735
59	0x3f630106	0.88673437
60	0x3f808e55	1.0043436
61	0x3f87ac81	1.0599519
62	0x3f8f71d6	1.1206615
63	0x3f73ae0d	0.95187455
64	0x3f81e6fc	1.0148616
65	0x3f64a31e	0.893114
66	0x3f8dc5d4	1.1075997
67	0x3f821096	1.0161312
68	0x3f78ec48	0.97235537
69	0x3f741a98	0.9535308
70	0x3f76eaa5	0.9645179
71	0x3f746668	0.9546876
72	0x3f8fd96d	1.1238228
73	0x3f8d32a5	1.103108
74	0x3f8527c3	1.0402759
75	0x3f7df5fc	0.9920347
76	0x3f7f9476	0.9983591
77	0x3f842dd6	1.0326488
78	0x3f83112b	1.0239614
79	0x3f7bc89f	0.98353
80	0x3f6d3452	0.9265796
81	0x3f796f8f	0.9743585
82	0x3f9134cf	1.1344241
83	0x3f881f62	1.0634577
84	0x3f82b024	1.0210004
85	0x3f83151d	1.0240818
86	0x3f7df075	0.99195033
87	0x3f7bb001	0.98315436
88	0x3f7a530a	0.9778296
89	0x3f7e6084	0.9936602
90	0x3f6d8365	0.9277862
91	0x3f86078d	1.0471054
92	0x3f85aa9e	1.0442693
93	0x3f736fba	0.95092356
94	0x3f75fe6e	0.96091354
95	0x3f6e20ba	0.93018687
96	0x3f5e1a72	0.867591
97	0x3f8657eb	1.049558
98	0x3f7286a7	0.94736713
99	0x3f896d68	1.0736513
100	0x3f80f059	1.0073348
101	0x3f89fc24	1.0780072
102	0x3f6e8d3b	0.9318425
103	0x3f59ae07	0.8503117
104	0x3f827457	1.0191754
105	0x3f949744	1.1608663
106	0x3f9548f3	1.1662887
107	0x3f8b7aa0	1.0896797
108	0x3f818b2d	1.0120598
109	0x3f7a39ea	0.9774462
110	0x3f6c8684	0.92392755
111	0x3f5bb173	0.8581764
112	0x3f7c475a	0.98546374
113	0x3f8bc9a0	1.0920906
114	0x3f736457	0.9507498
115	0x3f4526a7	0.77012104
116	0x3f65d0ca	0.8977171
117	0x3f7fe9dd	0.9996622
118	0x3f7dec47	0.99188656
119	0x3f7cc65d	0.9874018
120	0x3f88f560	1.0699883
121	0x3f79748d	0.9744347
122	0x3f566e27	0.8376183
123	0x3f71aa6a	0.94400656
124	0x3f8dae87	1.1068887
125	0x3f831e1e	1.0243566
126	0x3f803153	1.0015053
127	0x3f656f92	0.8962337
128	0x3f4aa68f	0.791604
129	0x3f82156f	1.0162791
130	0x3f90f975	1.1326128
131	0x3f55fada	0.83585894
132	0x3f771404	0.96514916
133	0x3f59423e	0.848667
134	0x3f5fe1b4	0.8745377
135	0x3f6574ff	0.89631647
136	0x3f726694	0.9468777
137	0x3f6b5365	0.91924125
138	0x3f6e77c1	0.9315148
139	0x3f9387ac	1.1525779
140	0x3f7a21bf	0.9770774
141	0x3f7dfd65	0.99214774
142	0x3f96d4bc	1.1783671
143	0x3f73344e	0.95001686
144	0x3f824991	1.0178701
145	0x3fa2f6a7	1.2731522
146	0x3f82c73e	1.0217054
147	0x3f7af398	0.98027945
148	0x3f7a7af4	0.9784386
149	0x3f702157	0.9380087
150	0x3f824f64	1.0180478
151	0x3f6309fa	0.886871
152	0x3f57c8d1	0.84290797
153	0x3f90a54d	1.1300446
154	0x3f826cf2	1.0189497
155	0x3f82980a	1.0202649
156	0x3f77ce50	0.9679918
157	0x3f7c1e96	0.9848417
158	0x3f818c64	1.0120969
159	0x3f7a5ff7	0.9780268
160	0x3f634b79	0.8878704
161	0x3f83b9e0	1.02911
162	0x3f41df03	0.75730914
163	0x3f94f4b5	1.1637179
164	0x3f8557aa	1.0417378
165	0x3f893517	1.0719327
166	0x3f89a27f	1.0752715
167	0x3f93c1a6	1.1543472
168	0x3f7854d5	0.97004443
169	0x3f71a9f3	0.94399947
170	0x3f656e8a	0.89621794
171	0x3f787527	0.9705376
172	0x3f76ed8b	0.9645621
173	0x3f8d7b63	1.105328
174	0x3f6f9c89	0.9359823
175	0x3f6b45d5	0.9190343
176	0x3f6469be	0.8922385
177	0x3f773392	0.96563065
178	0x3f8bedc0	1.093193
179	0x3f74cd9b	0.9562623
180	0x3f62d1c8	0.8860135
181	0x3f71d3f1	0.9446402
182	0x3f59c573	0.8506691
183	0x3f6fe651	0.9371081
184	0x3f6e5a06	0.93106115
185	0x3f8470c3	1.0346912
186	0x3f6bb47e	0.92072284
187	0x3f84d2c7	1.0376824
188	0x3f747ae9	0.95500046
189	0x3f4cfbf4	0.8007195
190	0x3f80b544	1.0055318
191	0x3f6eab97	0.93230575
192	0x3f8451a5	1.0337416
193	0x3f6c292a	0.9225031
194	0x3f5c62b2	0.860881
195	0x3f800b77	1.0003499
196	0x3f670abb	0.9025075
197	0x3f609786	0.87731206
198	0x3f811bda	1.0086625
199	0x3f6dcf2e	0.92894256
200	0x3f8bbde7	1.0917329
201	0x3f81e271	1.014723
202	0x3f75d14c	0.96022487
203	0x3f6e4e9f	0.93088716
204	0x3f872fcf	1.0561465
205	0x3f8d7127	1.1050156
206	0x3f446577	0.76717323
207	0x3f86f938	1.0544806
208	0x3f834a78	1.0257101
209	0x3f75b389	0.95977074
210	0x3f768733	0.9630005
211	0x3f74262f	0.95370764
212	0x3f801322	1.0005839
213	0x3f66e157	0.9018759
214	0x3f72cd51	0.9484454
215	0x3f644ad1	0.8917666
216	0x3f87e867	1.0617799
217	0x3f81a193	1.0127434
218	0x3f64731d	0.8923815
219	0x3f8b10e8	1.0864534
220	0x3f810b20	1.008152
221	0x3f8575ad	1.0426537
222	0x3f6ccc00	0.9249878
223	0x3f673d49	0.9032789
224	0x3f785851	0.9700976
225	0x3f78b919	0.97157437
226	0x3f78fc38	0.97259855
227	0x3f69cd6f	0.9132909
228	0x3f7edda8	0.9955697
229	0x3f88d734	1.0690675
230	0x3f8358c3	1.0261463
231	0x3f8444f0	1.0333538
232	0x3f8fea2b	1.1243337
233	0x3f80d436	1.0064762
234	0x3f723405	0.94610626
235	0x3f7e2b21	0.9928456
236	0x3f596de2	0.8493329
237	0x3f70526a	0.93875754
238	0x3f7cef84	0.9880297
239	0x3f836f14	1.0268273
240	0x3f6b1a4a	0.9183699
241	0x3f6ce19a	0.9253174
242	0x3f7ad5c4	0.9798243
243	0x3f6d582a	0.9271265
244	0x3f827365	1.0191466
245	0x3f7a089b	0.9766938
246	0x3f7e5eea	0.9936358
247	0x3f7f34fc	0.9969022
248	0x3f5cfa99	0.8631988
249	0x3f84b647	1.0368127
250	0x3f7b9d57	0.98286957
251	0x3f6b18e1	0.9183484
252	0x3f849829	1.0358936
253	0x3f8b53b6	1.0884922
254	0x3f5dac1a	0.8659073
255	0x3f6ea37b	0.932182

bias f4 [768]
0	0x3e12b064	0.143251
1	0xbc74aebf	-0.014934241
2	0xbad35a83	-0.0016124997
3	0x3db52209	0.08844382
4	0x3da8283c	0.08210799
5	0xbdf81caa	-0.12114842
6	0xbde004dd	-0.109384276
7	0x3d49717b	0.04918049
8	0x3dab0ee3	0.08352449
9	0xbd48c122	-0.04901231
10	0x3e5b1ae6	0.2139698
11	0x3e10920c	0.14118212
12	0xbe8019c0	-0.25019646
13	0xbd27633f	-0.040866133
14	0xbd85d71b	-0.06535169
15	0xbc8cd1cb	-0.01718988
16	0x3d7a7288	0.06114438
17	0x3cff64c1	0.031175973
18	0xbbf8c08e	-0.0075913137
19	0xbe293010	-0.1652224
20	0x3dbdee92	0.09274019
21	0x3d85bee7	0.06530552
22	0x3c30a07e	0.010780452
23	0xbd392ba4	-0.045207635
24	0xbc70e312	-0.014702575
25	0xbd6bc2f9	-0.057558987
26	0x3ca803f0	0.02050969
27	0x3a53a85c	0.0008074099
28	0x3bc3c7c5	0.005974742
29	0x3c1496f8	0.009069197
30	0x3ca6310d	0.020287061
31	0xbd5f5947	-0.0545285
32	0xbdded6d1	-0.10880817
33	0xbdfdae1f	-0.123867266
34	0x3dbf4b43	0.09340527
35	0x3d10c92c	0.035348102
36	0xbbc77b9d	-0.006087734
37	0xbdd53d09	-0.10412032
38	0x3dcccb40	0.09999704
39	0xbd9aa967	-0.07551842
40	0x3df9b436	0.12192576
41	0x3c85f0e4	0.016350217
42	0x3e05225e	0.13001391
43	0x3db7c8f4	0.08973876
44	0x3d726da8	0.059186608
45	0x3dd8fa5f	0.105946295
46	0xbd46759a	-0.048451997
47	0xbb9d1a3a	-0.004794386
48	0x3e2a2b5e	0.16618106
49	0x3d22410f	0.039612826
50	0x3dbea7ff	0.093093865
51	0xbc385e27	-0.011252916
52	0x3e350e8d	0.17681332
53	0x3d9253a0	0.071448565
54	0xbda15162	-0.07876851
55	0x3c9afb81	0.018918755
56	0xbccffada	-0.02538817
57	0xbde07e16	-0.10961549
58	0x3e2eaaf8	0.17057407
59	0xbdd95ec0	-0.10613775
60	0x3ba8f54d	0.0051561953
61	0xbd5e198c	-0.054223582
62	0x3e376e9d	0.1791329
63	0xbb7e3048	-0.0038786102
64	0x3c8c099b	0.017094424
65	0xbd3865c4	-0.045018926
66	0x3ddf24b9	0.10895676
67	0xbd44ab2f	-0.048014816
68	0x3b37758e	0.0027993652
69	0xbc867b93	-0.016416347
70	0xbc5de3cf	-0.013543083
71	0x3a803338	0.0009780889
72	0xbe95537d	-0.2916526
73	0xbdd214f4	-0.10257903
74	0x3ce77d65	0.028258035
75	0xbc10ab46	-0.008829897
76	0x3dbb1feb	0.09136947
77	0x3d227f14	0.039671972
78	0x3d1daa61	0.038492564
79	0xbc8f362f	-0.017481891
80	0x3dd0a432	0.10187568
81	0x3d3889b8	0.045053214
82	0x3dc90400	0.09815216
83	0xbe0604e2	-0.130878
84	0x3c5654fe	0.013081787
85	0xbcb5b726	-0.022182059
86	0xbce26898	-0.027637765
87	0xbdaabe4d	-0.08337078
88	0x3c4fb180	0.012676597
89	0xbc8a6803	-0.0168953
90	0x3bcba1a8	0.0062143393
91	0x3d50a111	0.050934855
92	0x3e157823	0.1459661
93	0xbe3831b4	-0.1798771
94	0x3bab5ba2	0.0052294293
95	0xbdb16e7f	-0.086636536
96	0x3e03bbdd	0.12864633
97	0x3ac2fc61	0.001487624
98	0xbd1667eb	-0.036720198
99	0x3da66ce9	0.08126242
100	0xbd1529bb	-0.03641675
101	0xbdd1bddb	-0.1024129
102	0xbc6cc376	-0.014450898
103	0x3de9a503	0.114084266
104	0xbdcc1f95	-0.09966961
105	0xbe061ae0	-0.1309619
106	0x3dfd15da	0.123576835
107	0x3dbd8e00	0.092556
108	0xbe488575	-0.1958216
109	0xbc5fff19	-0.01367166
110	0xbda06ea8	-0.07833606
111	0xbde53e4f	-0.11193525
112	0x3d14584e	0.036217026
113	0xbe1f7836	-0.155732
114	0x3d8f8b2b	0.07008966
115	0x3e7be925	0.24600656
116	0x3e07d6e4	0.13265568
117	0xbcf4a994	-0.029866017
118	0xbc50f5e9	-0.012753942
119	0x3c5c63e9	0.013451555
120	0x3dc6a83f	0.09700059
121	0xbc8a4990	-0.01688078
122	0x3e0414dd	0.12898584
123	0xbda52ebd	-0.08065555
124	0xbdcab94f	-0.09898626
125	0x3d77c2fc	0.060488686
126	0xbc59ff07	-0.013305432
127	0x3d91037a	0.07080741
128	0xbe94d453	-0.2906824
129	0x3d9fa8e1	0.07795883
130	0x3e1a4902	0.15066913
131	0x3e4c87be	0.19973657
132	0x3d37d54a	0.044881143
133	0xbe0ca712	-0.13735607
134	0x3d8eb2fc	0.06967732
135	0xbdae1cf9	-0.0850162
136	0x3d835f2c	0.06414637
137	0x3daa030f	0.08301365
138	0x3a1c2143	0.0005955884
139	0xbe50446a	-0.20338598
140	0x3c5be3cb	0.013421009
141	0xbc0902c0	-0.008362472
142	0x3e23cebc	0.15996832
143	0x3cddc9c9	0.027073758
144	0x3ce05916	0.02738623
145	0xbe772bc4	-0.24137789
146	0x3c40692d	0.011743826
147	0x3de71254	0.11282793
148	0x3bf17a6d	0.0073693306
149	0x3cad79ba	0.021176208
150	0xbd6af659	-0.05736384
151	0xbe019ccd	-0.12657471
152	0xbdd9b384	-0.10629943
153	0x3e1651fd	0.14679714
154	0x3cbb85c7	0.022890938
155	0x3e664582	0.22487453
156	0xbc85933f	-0.016305564
157	0xbb64627c	-0.003484874
158	0x3d449e9f	0.048002835
159	0x3d82bf14	0.063841015
160	0xbdd44037	-0.103638105
161	0xbdbe3d5d	-0.09289048
162	0xbe4da75b	-0.20083372
163	0x3e136859	0.14395274
164	0x3e982fc3	0.2972394
165	0xbdc54e84	-0.09634116
166	0xbdc14502	-0.0943699
167	0xbe2a61fe	-0.16638944
168	0x3cde556d	0.027140344
169	0x3e22a5cc	0.15883559
170	0x3dc51a7a	0.09624191
171	0xbbbfdedf	-0.0058554257
172	0xbc1a9770	-0.00943552
173	0x3d9d52ed	0.076818325
174	0x3c61b8a2	0.01377693
175	0x3dd3f8a3	0.10350158
176	0x3dbfe3e5	0.09369639
177	0x3d92bf36	0.07165377
178	0xbdf1e3ae	-0.118110046
179	0xb976ca74	-0.00023535808
180	0x3db371ac	0.087619156
181	0xbd2d1e86	-0.042265438
182	0xbe21a2da	-0.15784779
183	0x3d8c92e6	0.06863956
184	0x3d9e5fd1	0.07733119
185	0xbda30e95	-0.07961766
186	0x3da70720	0.08155656
187	0xbe314ae6	-0.17313728
188	0xbcca4686	-0.024691831
189	0xbe5986da	-0.21242848
190	0xbd3154a6	-0.043293618
191	0xbd7501f1	-0.059816305
192	0x3d376555	0.044774372
193	0x3dc379fc	0.09544751
194	0x3e001d6b	0.12511222
195	0xba0011b3	-0.000488545
196	0xbd858041	-0.06518603
197	0xbdda9be3	-0.10674264
198	0x3b6e1320	0.0036327317
199	0xbd842c1d	-0.064537264
200	0x3dcb7be1	0.099357374
201	0x3d5ee445	0.054416914
202	0xbc6f6f86	-0.014613992
203	0xbd7b2c18	-0.061321348
204	0x3d5ede4f	0.05441123
205	0xbddb3cd0	-0.107049584
206	0xbe744274	-0.23853475
207	0xbd6851b1	-0.056718532
208	0xbde3b8e2	-0.11119248
209	0xbc349432	-0.011021661
210	0xbcd8d783	-0.026469951
211	0x3d8e9422	0.06961848
212	0x3bbf652b	0.0058409176
213	0x3db3863a	0.08765836
214	0x3cc06ae5	0.023488471
215	0xbd0ceb59	-0.034404133
216	0x3d6e1963	0.05812968
217	0x3c4a130b	0.012333642
218	0xbd2d8d3e	-0.042371027
219	0xbdf1380a	-0.11778267
220	0x3d229670	0.03969425
221	0xbd3d0745	-0.04614951
222	0x3d21ec8d	0.039532233
223	0xbd82c55c	-0.063852996
224	0x3de883fd	0.113533
225	0xbded8f21	-0.11599565
226	0x3d0efa8b	0.034906905
227	0xbe0138f2	-0.12619379
228	0x393e5de6	0.00018154792
229	0x3d9b5582	0.07584669
230	0x3dae45ee	0.08509432
231	0xbb474976	-0.0030408776
232	0x3db2edcc	0.087367624
233	0x3b5c4ddd	0.0033615746
234	0x3daed44a	0.08536585
235	0xbcd02a8a	-0.02541091
236	0x3dcb627f	0.09930896
237	0x3da317aa	0.07963498
238	0xbc276c65	-0.010218714
239	0xbcc7da5d	-0.024396116
240	0xbd8081ed	-0.062747814
241	0xbb9f1b58	-0.0048555546
242	0x3aee142b	0.001816397
243	0xbd3ea5f5	-0.046544988
244	0xbcd2de9a	-0.02574091
245	0x3dc028b7	0.09382766
246	0xbdfd4e63	-0.12368467
247	0xbc052530	-0.008126542
248	0xbe034c17	-0.12821995
249	0x3e4166c4	0.18886858
250	0x3b1b1ac8	0.0023667086
251	0xbda87240	-0.082249165
252	0xbd37e1e5	-0.044893164
253	0xbdc0c898	-0.0941326
254	0x3df65718	0.120283306
255	0xbc68a178	-0.014198653
