subject-models/ada-0626/ryangosling2023-06-26T10-20-58_ryangosling-ada/embeddings_gs-4500.pt (torch, 836552 bytes, 168 tensors)

pre_vecs f4 [2, 768]
-0.0013866528 0.021246266 0.007094345 -0.020191919 0.00010288851 0.024494579 -0.015536179 -0.010220831
-0.016709236 0.0074774832 0.036598276 0.014276597 -0.0024646877 0.0036889138 -0.007063131 0.010889528
-0.009850453 0.011953239 -0.009962874 0.01444621 0.0015720202 -0.021041157 0.005635506 -0.00905301
0.01707196 -0.007938425 0.006669784 -0.004665973 0.016818108 0.035822682 0.014727123 0.02613235
0.0002476357 0.00026407404 0.00044381976 0.015678909 -0.010199274 0.0020089045 -0.005878896 0.023130434
0.009548035 0.018282762 -0.0057173343 0.02395471 -0.011370526 -0.012022745 -0.0008415819 0.014629204
-0.03225448 -0.0064225243 -6.285173e-05 -0.006774547 0.00630052 -0.018595964 -0.029647725 -0.0076826047
0.006893827 0.006382185 0.022889696 -0.007398342 -0.021268299 0.022058984 0.0053568063 -0.0045265974
0.0015959125 0.01897378 0.03231583 0.0008335966 -0.03994539 -0.015221419 -0.026158134 -0.0036377818
-0.003181133 0.009441252 -0.00823124 0.012042448 -0.0074567273 0.01751164 -0.019759897 -0.012057164
0.006031714 -0.005100364 0.016823148 0.0003404999 -0.0070505096 -0.0062146583 0.03064703 0.024725256
-0.0011307368 -0.0053872406 -0.0007889651 0.0069679487 -0.020459915 -0.008850876 -0.014024309 0.006005026
0.0014118155 -0.0046875137 -0.025540717 -0.011264151 -0.0017669215 -0.017781708 0.014941279 -0.014453162
-0.007015973 -0.011267944 -0.00015750492 0.0083749825 0.0018620406 -0.034437846 -0.01798173 -0.030253164
-0.027590513 -0.0067475075 0.02548189 0.0036735097 -0.008955346 0.005509985 -0.017002737 -0.024601335
-0.013334822 0.00049011206 -0.014691362 -0.021483403 -0.011983404 7.671444e-05 0.0060101864 0.016659178
-0.015840625 0.015695265 0.00782855 0.0049780346 0.0329272 0.005602881 0.006249936 -0.0016954534
-0.021015652 -0.02877777 0.014375381 0.00037751906 -0.026124476 0.018304773 -0.011594976 -0.009684339
0.028073031 -0.0027882627 -0.0042129275 0.0051023504 0.019571396 0.0053493907 -0.007139422 0.0129723605
-0.009631938 -0.0087288115 0.011225624 -0.0008453953 0.013252721 -0.03808141 0.024291247 -0.003089247
0.013275186 0.008859341 -0.0015243039 -0.008866004 -0.009979106 -0.0042972844 -0.009759681 -0.0065932693
-0.023306176 0.003989168 0.014446213 0.014348118 -0.01173681 0.009640102 0.0062742527 0.019146942
0.002482392 0.013356145 0.025023358 0.0371951 -0.020109832 0.0105268825 -0.012469447 -0.0060105687
-0.011071351 -0.023134775 -0.00023503469 -0.009144767 -0.019951861 0.023027048 -0.015558646 0.009054124
-0.002159809 0.0032280304 0.021703908 0.017998792 0.05220484 -0.005697327 -0.011513532 0.0015833877
-0.00661236 -0.012172753 -0.015534512 0.005695137 -0.012792044 0.013488006 0.008668934 0.0029375786
-0.0008113834 -0.008035169 0.031747617 -0.0041421307 0.004026687 -0.0087681655 -0.0012582185 0.031223942
0.008620076 0.007943532 0.014639125 -0.021588786 0.005474292 -0.0071643405 -0.038657676 -0.014494355
-0.005428094 -0.020291029 0.006622829 0.034380697 0.011136087 -0.007888168 -0.012794339 0.0020327847
-0.0039436254 -0.0032791623 0.019898623 1.1131054e-05 0.020606386 0.004027437 0.019474722 0.009087405
-0.01231774 0.0031593044 0.012348756 -0.01833072 -0.0008123924 0.0079314755 -0.006618195 0.027461758
-0.0148211345 0.017639033 -0.03695065 -0.017610662 -0.0054768776 -0.014003134 0.0012976319 0.007559713
00000000: 59c0 b5ba a60c ae3c ae77 e83b 8669 a5bc
00000010: d9c5 d738 dba8 c83c 758b 7ebc 4675 27bc
00000020: cfe1 88bc ad05 f53b 13e8 153d 63e8 693c
00000030: 9986 21bb b4c1 713b d671 e7bb fe69 323c
00000040: cb63 21bc 85d7 433c 533b 23bc ccaf 6c3c
00000050: 3f0c ce3a 815e acbc 0daa b83b 1353 14bc
00000060: 7fda 8b3c 2b10 02bc 348e da3b 05e5 98bb
00000070: 21c6 893c ceba 123d 084a 713c 8313 d63c
00000080: 1ad5 8139 6b73 8a39 7bb0 e839 0e71 803c
00000090: db1a 27bc d3a7 033b c1a3 c0bb 097c bd3c
000000a0: 5d6f 1c3c bbc5 953c 7a58 bbbb ab3c c43c
000000b0: 714b 3abc 0cfb 44bc 9b9d 5cba 54af 6f3c
000000c0: 461d 04bd 0a74 d2bb 44cf 83b8 05fd ddbb
000000d0: 9874 ce3b 9056 98bc c9df f2bc 5cbe fbbb
000000e0: 9de5 e13b a621 d13b 2c83 bb3c ca6d f2bb
000000f0: db3a aebc 0bb5 b43c 2688 af3b da53 94bb
00000100: f02d d13a e76e 9b3c 9b5d 043d b985 5a3a
00000110: c79d 23bd 4263 79bc 9549 d6bc da67 6ebb
00000120: 8e7a 50bb 7baf 1a3c 53dc 06bc b04d 453c
00000130: 9057 f4bb 9274 8f3c 82df a1bc 698b 45bc
00000140: afa5 c53b f420 a7bb b3d0 893c 1f85 b239
00000150: f607 e7bb 55a4 cbbb 7b0f fb3c 9f8c ca3c
00000160: 3b35 94ba 7387 b0bb 8dd2 4eba 6453 e43b
00000170: 8d9b a7bc 4403 11bc 37c6 65bc cfc5 c43b
00000180: ab0c b93a b799 99bb c43a d1bc 468d 38bc
00000190: 0c98 e7ba f2aa 91bc 44cc 743c f5cc 6cbc
000001a0: 3fe6 e5bb 2f9d 38bc e827 25b9 3937 093c
000001b0: b70f f43a b30e 0dbd 6c4e 93bc 7cd5 f7bc
000001c0: 8005 e2bc 321a ddbb 66bf d03c 44bf 703b
000001d0: 72b9 12bc 1b8d b43b 5349 8bbc bd88 c9bc
000001e0: 4c7a 5abc dd7a 003a 0ab4 70bc f6fd afbc
000001f0: 0a56 44bc c0e1 a038 19f1 c43b d478 883c
00000200: 33c4 81bc 5b93 803c 5243 003c c81e a33b
00000210: acde 063d 5f98 b73b 43cc cc3b fa39 deba
00000220: 0429 acbc 5cbf ebbc b886 6b3c c0ed c539
00000230: ff02 d6bc e4f3 953c dbf8 3dbc 10ab 1ebc
00000240: 6af9 e53c 49bb 36bb 990c 8abb 9e31 a73b
00000250: 3154 a03c f149 af3b d0f1 e9bb 068a 543c
00000260: 47cf 1dbc 4a03 0fbc aeeb 373c 859d 5dba
00000270: f121 593c 41fb 1bbd 70fe c63c f774 4abb
00000280: 2a80 593c c526 113c 27cb c7ba b742 11bc
00000290: 677f 23bc 3cd0 8cbb 12e7 1fbc 5a0c d8bb
000002a0: 98ec bebc 91b7 823b cfaf 6c3c 5e14 6b3c
000002b0: c04b 40bc 85f1 1d3c 3f98 cd3b 0cda 9c3c
000002c0: a0af 223b bbd3 5a3c c9fd cc3c e459 183d
000002d0: 60bd a4bc f278 2c3c a74c 4cbc 4ef4 c4bb
000002e0: 9d64 35bc 2485 bdbc a573 76b9 efd3 15bc
000002f0: 1672 a3bc 38a3 bc3c b1e9 7ebc c057 143c
00000300: 958b 0dbb 5d8d 533b 65cc b13c 3472 933c
00000310: bed4 553d a5b0 babb 41a3 3cbc ad89 cf3a
00000320: 7fac d8bb 3a70 47bc 7784 7ebc 469e ba3b
00000330: b995 51bc ccfc 5c3c 2508 0e3c 6484 403b
00000340: 05b3 54ba f1a5 03bc ca09 023d b6ba 87bb
00000350: 4cf2 833b 5aa8 0fbc cfea a4ba 5ac9 ff3c
00000360: 383b 0d3c 9725 023c f1d8 6f3c f7da b0bc
00000370: b161 b33b d8c2 eabb 8357 1ebd bb79 6dbc
00000380: 27de b1bb 5f39 a6bc 5104 d93b c6d2 0c3d
00000390: 2274 363c 603d 01bc 599f 51bc 7838 053b
000003a0: 8739 81bb 37e7 56bb 7002 a33c 83bf 3a37
000003b0: b9ce a83c 97f8 833b 7489 9f3c 57e3 143c
000003c0: 59d0 49bc 550c 4f3b 7052 4a3c 4e2a 96bc
000003d0: bbf6 54ba 05f3 013c 72dd d8bb 7bf7 e03c
000003e0: 58d4 72bc bc7f 903c 9159 17bd 3c44 90bc
000003f0: 6177 b3bb 676d 65bc 4d15 aa3a 78b7 f73b

basis_rand_weights f4 [16, 5]
0.057119478 -0.11785737 -0.034580257 -0.071312614 -0.16158558 0.041181624 0.0009682003 0.089423716
-0.07424199 -0.03376051 0.04126978 -0.123314805 0.15148796 0.05976495 -0.0008992832 0.03449605
-0.10466697 -0.02867715 -0.113701664 -0.05344924 -0.11784578 -0.08203149 0.1800151 0.22832265
-0.044880103 0.17378588 -0.21985033 0.13352494 0.10851417 -0.055737622 0.030389147 -0.09521494
0.0987826 0.02534251 -0.042836886 0.01166248 -0.17719583 0.2262905 -0.04671968 -0.07256643
0.10096638 -0.19989988 0.01122098 0.116518475 -0.08814926 -0.13416815 -0.10752226 0.3714942
0.19652541 -0.06357717 0.013201293 -0.12970729 0.05842194 0.13613634 0.11638599 -0.046966914
-0.15416561 0.465151 -0.00961903 -0.099525645 0.046340905 -0.18830106 0.16161823 0.055058643
-0.03326335 -0.14957115 -0.011479634 0.2820018 0.12064765 -0.16029708 0.039892223 -0.08380372
0.012078814 -0.07219791 -0.115126945 0.059731282 0.005802415 0.07241906 -0.23837599 -0.05543644
00000000: 1df6 693d 345f f1bd 07a4 0dbd 590c 92bd
00000010: b176 25be 10ae 283d d2ce 7d3a c823 b73d
00000020: 2f0c 98bd 7648 0abd 800a 293d 798c fcbd
00000030: a91f 1b3e 18cc 743d e0bd 6bba bb4b 0d3d
00000040: a35b d6bd 58ec eabc 6bdc e8bd 97ed 5abd
00000050: 2159 f1bd 2000 a8bd e155 383e 6acd 693e
00000060: 33d4 37bd edf4 313e 7220 61be c3ba 083e
00000070: ad3c de3d 224d 64bd a9f2 f83c 0d00 c3bd
00000080: 884e ca3d 189b cf3c bb75 2fbd fd13 3f3c
00000090: d372 35be b2b8 673e 235d 3fbd b59d 94bd
000000a0: 76c7 ce3d 8eb2 4cbe 34d8 373c 3da1 ee3d
000000b0: 9987 b4bd 6063 09be a134 dcbd 7d34 be3e
000000c0: f53d 493e bf34 82bd 3c4a 583c fdd1 04be
000000d0: d84b 6f3d 5367 0b3e c75b ee3d 6160 40bd
000000e0: 97dd 1dbe 4628 ee3e 2399 1dbc 1ad4 cbbd
000000f0: f6cf 3d3d fed1 40be 407f 253e 2c85 613d
00000100: 273f 08bd 2e29 19be 1315 3cbc 8a62 903e
00000110: 1d16 f73d eb24 24be 0766 233d 49a1 abbd
00000120: 38e6 453c 7fdc 93bd adc7 ebbd caa8 743d
00000130: 2f22 be3b 7250 943d d618 74be 5211 63bd

basis_vecs f4 [3, 768]
-0.01710982 0.025240326 -0.0115223825 0.013614928 0.005438274 -0.009243479 -0.06745773 0.011144751
-0.0009838002 0.01414198 0.038469385 0.042740885 -0.0021117316 0.007173069 -0.03258464 0.11215637
0.002620524 0.010853247 -0.022961956 -0.009609823 0.020550985 -0.017508117 0.026349397 -0.031237716
0.020198338 -0.023654845 0.003887398 0.021364933 -0.0740443 0.05885575 -0.0034362029 0.019558718
-0.020757068 0.06876726 -0.00205381 0.021698218 0.0064685154 0.025743617 -0.008552482 0.022636272
0.030194245 0.03560183 0.020161781 -0.0073629 0.04594179 -0.097015195 -0.026173558 -0.012597638
-0.0066108005 0.016192654 -0.008574406 -0.0017416308 0.028285526 -0.024405815 -0.11910905 0.052808862
0.029776692 0.006471611 0.02609988 0.017573128 -0.062696904 0.030642897 0.000591703 -0.01744275
0.06842979 -0.00090131076 0.048120208 -0.034624636 -0.009197718 -0.043141454 -0.013200095 -0.022469187
0.00564365 -0.07517114 -0.018945811 0.01846049 0.026121782 0.0217751 0.008032102 0.025052866
0.00918867 0.02381274 0.11646884 -0.044881776 0.009452982 -0.03365088 0.04264398 0.040918916
0.00781971 -0.019484071 0.0009262333 0.05588901 -0.009124695 -0.027045988 -0.015810894 -0.0924905
-0.033020332 -0.06200441 -0.054251418 0.062352218 0.004141041 -0.011300853 0.024656216 -0.021816634
0.0011706227 -0.022772353 0.040785313 -0.013282712 -0.03530468 -0.054723304 -0.0013832859 -0.06843982
-0.022883872 -0.018511858 0.039025843 0.0031578802 -0.032362185 -0.024756527 -0.02533247 -0.010652322
0.019333905 0.0042435643 -0.007875074 -0.02048729 -0.07112522 -0.00026027198 -0.047909465 0.007599624
-0.030836632 -0.035086405 0.0070922817 0.065735534 -0.02160087 -0.008363056 -0.073787384 -0.024185434
0.0038430411 -0.05171345 0.016849488 -0.020876115 -0.06558811 0.04984931 0.004765178 -0.0073760212
0.06311296 -0.043820776 0.02744488 0.030311523 0.043989025 0.030554155 -0.046876896 0.027727362
0.053940915 0.03807452 -0.010234661 -0.0021720268 0.032141246 -0.031014904 0.020969704 0.039310608
0.0055877855 0.0031295775 0.043213937 0.026779264 0.034732472 -0.0027611346 -0.048122805 0.0045107165
-0.026825575 0.011595522 -0.04429916 0.0011782963 -0.014424527 0.04819301 0.03482896 0.009721709
-0.059749037 -0.06842804 0.041828617 0.053554513 0.022072013 0.06255642 0.020955218 -0.014234748
-0.016479315 -0.0071103363 -0.01366701 0.013084406 -0.018468264 0.042869046 0.001512743 -0.0029520385
0.03979248 -0.03610175 0.0076191444 0.02782427 0.014277467 0.067080565 0.052913517 0.0106301205
-0.0036252525 -0.031627193 -0.010786318 0.040276695 -0.027242975 -0.029996 0.025671484 -0.0035039103
0.024831861 0.022244582 0.085821204 -0.06605503 0.019839983 -0.014743513 0.01632477 -0.00556765
0.052411616 0.06930396 -0.033844408 -0.07061128 -0.027638491 -0.02859509 -0.035629828 0.05776884
-0.0074756537 -0.05074417 0.001028979 -3.305238e-06 -0.004750375 0.043592006 -0.0068945154 0.0075539574
0.004316625 -0.021898897 0.05264241 0.031178685 0.013955017 0.0040609636 0.03690919 -0.031819962
0.018759713 0.005464937 -0.005481462 0.011868052 0.055719677 -0.032340135 0.022028737 -0.04167726
0.035872392 0.03458925 -0.029028792 0.017049657 -0.040660914 0.012873307 -0.008164049 0.01768408
00000000: e529 8cbc cdc4 ce3c 60c8 3cbc 2611 5f3c
00000010: 8c33 b23b f671 17bc 4727 8abd 7998 363c
00000020: dbf2 80ba c3b3 673c 1392 1d3d 1111 2f3d
00000030: fa64 0abb 100c eb3b 7977 05bd 3db2 e53d
00000040: 19bd 2b3b d1d1 313c b61a bcbc 8572 1dbc
00000050: 8a5a a83c 2f6d 8fbc b1da d73c 3de6 ffbc
00000060: fc76 a53c cec7 c1bc b7c3 7e3b 8305 af3c
00000070: 8aa4 97bd ba12 713d eb31 61bb 9b39 a03c
00000080: ba0a aabc d9d5 8c3d 3799 06bb 76c0 b13c
00000090: d7f5 d33b 47e4 d23c b61f 0cbc b46f b93c
000000a0: ec59 f73c 39d3 113d 522a a53c 7b44 f1bb
000000b0: 752d 3c3d e7af c6bd ee69 d6bc 5366 4ebc
000000c0: 6a9f d8bb 75a6 843c aa7b 0cbc 6f47 e4ba
000000d0: 0cb7 e73c b4ee c7bc 72ef f3bd 1b4e 583d
000000e0: 40ee f33c cf0f d43b 6acf d53c 85f5 8f3c
000000f0: 3c67 80bd d006 fb3c 841c 1b3a 19e4 8ebc
00000100: eb24 8c3d f145 6cba b219 453d 90d2 0dbd
00000110: 07b2 16bc 18b5 30bd 3645 58bc 4d11 b8bc
00000120: 5eee b83b 54f3 99bd 3f34 9bbc 743a 973c
00000130: 59fd d53c b261 b23c 1499 033c ab3b cd3c
00000140: 138c 163c ef12 c33c 3787 ee3d f4d5 37bd
00000150: aee0 1a3c 81d5 09bd 74ab 2e3d 989a 273d
00000160: 3e1e 003c 0f9d 9fbc 77ce 723a e0eb 643d
00000170: bf7f 15bc 8c8f ddbc d985 81bc a96b bdbd
00000180: 5440 07bd 56f8 7dbd bc36 5ebd 0a65 7f3d
00000190: 92b1 873b 3727 39bc d5fb c93c ccb8 b2bc
000001a0: 946f 993a 168d babc 800e 273d bb9f 59bc
000001b0: a49b 10bd 8b25 60bd 5f4f b5ba 2d2a 8cbd
000001c0: f576 bbbc 2ea6 97bc 90d9 1f3d 70f4 4e3b
000001d0: 368e 04bd 33ce cabc 0a86 cfbc 1487 2ebc
000001e0: 2362 9e3c 990d 8b3b 7406 01bc f6d4 a7bc
000001f0: 19aa 91bd 1d75 88b9 b73c 44bd 4406 f93b
00000200: 1b9d fcbc c3b6 0fbd 5f66 e83b 5aa0 863d
00000210: 4ff4 b0bc 3305 09bc d71d 97bd 8820 c6bc
00000220: 88db 7b3b 7cd1 53bd f007 8a3c 6304 abbc
00000230: 0f53 86bd ca2e 4c3d 3625 9c3b 8db2 f1bb
00000240: 5e41 813d 6a7d 33bd 16d4 e03c df4f f83c
00000250: d62d 343d b54c fa3c fd01 40bd 7e24 e33c
00000260: 26f1 5c3d 07f4 1b3d 48af 27bc 9058 0ebb
00000270: 8aa6 033d f812 febc a8c8 ab3c 2904 213d
00000280: be19 b73b 9919 4d3b 1901 313d 3060 db3c
00000290: a343 0e3d 27f4 34bb 6b1c 45bd a2ce 933b
000002a0: 4fc1 dbbc 25fb 3d3c 0973 35bd 1071 9a3a
000002b0: da54 6cbc 0966 453d d0a8 0e3d ce47 1f3c
000002c0: 68bb 74bd 0024 8cbd 7c54 2b3d fa5b 5b3d
000002d0: 5ed0 b43c 951d 803d 47aa ab3c dc38 69bc
000002e0: a1ff 86bc d3fd e8bb 98eb 5fbc fa5f 563c
000002f0: c24a 97bc 7497 2f3d 3b47 c63a fd76 41bb
00000300: 71fd 223d 6edf 13bd 04aa f93b b9ef e33c
00000310: 09ec 693c 8961 893d d8bb 583d f529 2e3c
00000320: a595 6dbb 848b 01bd 19b9 30bc 2df9 243d
00000330: a92c dfbc 2cba f5bc 014d d23c dca1 65bb
00000340: 306c cb3c 453a b63c 07c3 af3d dc47 87bd
00000350: 7687 a23c c78e 71bc 86bb 853c d570 b6bb
00000360: 90ad 563d 3cef 8d3d 6fa0 0abd a69c 90bd
00000370: 1e6a e2bc 4040 eabc 95f0 11bd 059f 6c3d
00000380: 54f6 f4bb 1ed9 4fbd cede 863a 8ecf 5db6
00000390: 09a9 9bbb 888d 323d 63eb e1bb 3087 f73b
000003a0: 7a72 8d3b 5165 b3bc 919f 573d 716a ff3c
000003b0: 95a3 643c d511 853b 172e 173d a655 02bd
000003c0: f8ad 993c 3713 b33b d69d b3bb 3872 423c
000003d0: 513a 643d 1777 04bd 9c75 b43c c6b5 2abd
000003e0: eeee 123d 75ad 0d3d cacd edbc b9ab 8b3c
000003f0: 0f8c 26bd 90ea 523c 81c2 05bc 34de 903c

basis_comm_weights f4 [1, 5]
0.2759676 0.24709539 0.6291728 0.30791128 0.07011939
00000000: a04b 8d3e 9306 7d3e 7811 213f 8ca6 9d3e
00000010: c19a 8f3d

bias f4 [16, 768]
-0.0134029295 0.0035399 0.033779275 -0.0028154792 -0.048564848 0.009520254 -0.050513297 0.039484903
-0.0009124001 -0.020261502 0.014447667 0.032322917 -0.040173125 -0.039331574 -0.030215329 -0.035799146
-0.0046799257 -0.008652298 -0.0020674516 0.039112426 -0.023440644 -0.0062430683 0.023344392 -0.007769742
-0.006792682 -0.0032042891 -0.02409228 0.016135022 -0.022938583 -0.030491583 -0.02518458 0.046880715
-0.039422125 0.020612327 -0.021067021 -0.036279578 -0.026700925 0.0064217225 -0.015514673 0.00043202407
-0.0019913907 2.3591576e-05 -0.05040151 0.051350396 -0.013373999 -0.029556043 0.019274198 0.037286177
0.02133259 -0.0007882641 0.0082594305 -0.01574985 -0.009905116 0.014712104 0.020653088 0.03869354
0.0019436962 -0.012942095 0.018524824 0.012307067 -0.024007844 0.0058131143 0.0095427 0.0049632518
-0.01228555 0.03804177 0.015292472 -0.029055556 0.022859199 -0.013248585 0.025104882 -0.018933378
-0.031372298 0.0179073 0.020444699 -0.047375157 0.0139712095 -0.012372568 0.0127786575 -0.023422083
-0.0049094483 0.009431944 -0.032202348 0.013914211 0.035403743 -0.004777258 -0.051853877 -0.037294906
0.002077066 0.038160797 0.013956251 0.019538539 0.03196384 -0.07956212 0.0046633724 -0.044792496
0.022236299 0.002097195 0.030288069 0.029644176 -0.013284504 -0.014182468 -0.019058919 0.004772732
-0.0052097477 -0.036531143 0.0048486805 0.03222801 -0.032441176 -0.020166986 0.018587003 0.024335543
-0.044106916 0.0067981514 -0.011714175 0.0069345003 -0.013001781 -0.005032481 -0.029892586 -0.05121215
0.016657745 -0.05403651 -0.015529194 -0.011525433 -0.038201533 0.0085754385 -0.024623202 0.013405002
-0.03488295 -0.010982061 0.035105728 0.019960808 -0.021336656 0.058602728 0.011546204 -0.041028727
0.028025856 0.021402255 0.022397285 0.04259689 -0.030893143 0.04164732 0.010199222 0.016106894
0.004025761 0.040793255 -0.007418308 0.014568514 0.008488356 -0.00702857 -0.0031595598 -0.05537889
-0.033395827 0.00037229972 0.031050295 0.016091598 0.021587553 0.0146515425 0.01764066 -0.03401193
0.016425591 0.05718625 -0.0009190053 -0.009525505 0.03517549 -0.0059051164 -0.05785458 -0.04927028
-0.01942966 0.055522528 0.008741074 -0.004479278 -0.03816538 0.020819822 -0.025450382 0.043284256
0.02324366 0.022228345 -0.0676702 0.052723717 -0.028383946 -0.0029775621 -0.017037418 0.021737393
-0.035557672 0.008122089 0.030203365 0.0718257 0.0028056179 -0.00042224204 0.019594245 -0.0024389303
0.01740284 -0.0034557816 0.011412746 0.010279481 0.03330499 -0.0023362637 0.009458973 0.029594885
0.024831595 -0.0023277693 -0.011348811 -0.00015787038 0.06808039 -0.018694282 0.014527664 0.02469882
0.03625466 0.0026544149 0.0048774523 -0.015671715 0.0075456523 0.033164784 -0.023583442 -0.014754236
-0.05008868 -0.0203939 -0.015799256 0.011725443 -0.014918059 -0.009173261 -0.01056082 0.056513913
-0.013317655 -0.005682185 0.0266789 -0.020739995 0.05025295 0.018467188 0.046356566 0.021913972
0.030231219 0.024836546 0.034044866 -0.013267975 0.026025547 -0.03276826 0.02876631 -0.004209079
0.0028713963 -0.014867396 -0.034505587 -0.033406902 -0.03256895 -0.029409325 -0.022243582 0.010843837
0.050923735 -0.043711778 -0.010427763 -0.02676189 0.0006896349 -0.0108422665 0.019412788 0.030647023
00000000: f697 5bbc abfd 673b 235c 0a3d e783 38bb
00000010: efeb 46bd d7fa 1b3c 08e7 4ebd ecba 213d
00000020: 222e 6fba 73fb a5bc e8b5 6c3c 0965 043d
00000030: 938c 24bd 251a 21bd 2386 f7bc 20a2 12bd
00000040: 105a 99bb 5ec2 0dbc 157e 07bb 5a34 203d
00000050: 9806 c0bc a792 ccbb bd3c bf3c 5299 febb
00000060: 2695 debb 0dff 51bb 2c5d c5bc 982d 843c
00000070: b2e9 bbbc 7cc9 f9bc e44f cebc fe05 403d
00000080: 1879 21bd 2fdb a83c bf94 acbc e599 14bd
00000090: e6bb dabc 506d d23b 4131 7ebc 4a81 e239
000000a0: fe81 02bb 86e6 c537 d071 4ebd cb54 523d
000000b0: 9e1e 5bbc 841f f2bc ece4 9d3c 64b9 183d
000000c0: afc1 ae3c 82a3 4eba 9052 073c d405 81bc
000000d0: 1149 22bc 090b 713c aa30 a93c 1e7d 1e3d
000000e0: 9fc3 fe3a 150b 54bc 5fc1 973c 95a3 493c
000000f0: 19ac c4bc f07b be3b fc58 1c3c c6a2 a23b
00000100: 5549 49bc b0d1 1b3d 478d 7a3c eb05 eebc
00000110: 3743 bb3c 9810 59bc c1a8 cd3c 2c1a 9bbc
00000120: 3d80 00bd 54b2 923c a47b a73c 740c 42bd
00000130: 80e7 643c 50b6 4abc 935d 513c abdf bfbc
00000140: 70df a0bb 7188 1a3c 9ce6 03bd 6ef8 633c
00000150: 8403 113d 8b8a 9cbb bb64 54bd 8bc2 18bd
00000160: 631f 083b 7f4e 1c3d c2a8 643c 490f a03c
00000170: 84ec 023d 77f1 a2bd 34cf 983b 5678 37bd
00000180: e628 b63c 1871 093b af1e f83c 58d8 f23c
00000190: 40a7 59bc 955d 68bc 7321 9cbc 9464 9c3b
000001a0: 88b6 aabb aea1 15bd aee1 9e3b 8501 043d
000001b0: 0ae1 04bd 3c35 a5bc c543 983c 555b c73c
000001c0: 74a9 34bd 07c3 de3b d0ec 3fbc ce3a e33b
000001d0: 6c05 55bc 83e7 a4bb 4ce1 f4bc d5c3 51bd
000001e0: d375 883c 6355 5dbd 296e 7ebc 2bd5 3cbc
000001f0: 3679 1cbd ff7f 0c3c 99b6 c9bc a7a0 5b3c
00000200: 6de1 0ebd 1aee 33bc 06cb 0f3d d984 a33c
00000210: 36ca aebc 6a09 703d 4a2c 3d3c bd0d 28bd
00000220: 7b96 e53c c853 af3c 837a b73c 147a 2e3d
00000230: 9e13 fdbc 6196 2a3d a31a 273c 9bf2 833c
00000240: 88ea 833b d416 273d 4715 f3bb c7b0 6e3c
00000250: bf12 0b3c eb4f e6bb 9e10 4fbb fad4 62bd
00000260: 10ca 08bd 3931 c339 305d fe3c 87d2 833c
00000270: 61d8 b03c 060d 703c 2583 903c 1850 0bbd
00000280: f68e 863c 213c 6a3d 67e9 70ba dd10 1cbc
00000290: 2d14 103d b57f c1bb edf8 6cbd a2cf 49bd
000002a0: f32a 9fbc 976b 633d b936 0f3c e8c6 92bb
000002b0: 4d53 1cbd 558e aa3c 527d d0bc d54a 313d
000002c0: 7d69 be3c 3818 b63c ac96 8abd d3f4 573d
000002d0: 7385 e8bc 3423 43bb 0e92 8bbc 9e12 b23c
000002e0: eca4 11bd 8312 053c 0c6d f73c 5a19 933d
000002f0: 75de 373b 5e60 ddb9 1c84 a03c 76d6 1fbb
00000300: 6790 8e3c 657a 62bb 87fc 3a3c 456b 283c
00000310: d06a 083d 001c 19bb cff9 1a3c f970 f23c
00000320: a16b cb3c 7d8d 18bb 5df0 39bc 028a 25b9
00000330: bb6d 8b3d c024 99bc 7005 6e3c 2e55 ca3c
00000340: c47f 143d b1f5 2d3b 09d3 9f3b f861 80bc
00000350: 8541 f73b ccd7 073d 1032 c1bc c0bb 71bc
00000360: ca29 4dbd 1c11 a7bc 716d 81bc 131c 403c
00000370: e06a 74bc 724b 16bc 4a07 2dbc 227b 673d
00000380: 4b32 5abc 9f31 babb b58d da3c ece6 a9bc
00000390: 0ad6 4d3d 8048 973c 62e0 3d3d ee84 b33c
000003a0: 76a7 f73c 0376 cb3c a172 0b3d ec61 59bc
000003b0: 8733 d53c 0338 06bd 53a7 eb3c 50ec 89bb
000003c0: 092e 3c3b 6196 73bc bb55 0dbd add5 08bd
000003d0: 0567 05bd d3eb f0bc 2c38 b6bc 59aa 313c
000003e0: 6895 503d 1f0b 33bd 35d9 2abc c03b dbbc
000003f0: 9dc8 343a c3a3 31bc 9107 9f3c 770f fb3c

weight f4 [768]
0.9299927 0.9768559 0.90008116 0.9681509 0.9754029 0.93066937 1.2534684 0.9586243
1.0349892 0.89516604 1.0298856 1.096665 0.96316564 1.0607744 1.0476463 0.9008152
0.9912396 0.93529606 1.0110166 0.9447939 0.99023855 0.9131036 1.1041371 0.9924527
0.91267467 0.9809105 1.0204653 0.9565506 1.0439649 0.91263247 0.984042 1.0845747
1.1051078 1.085017 1.0281336 0.99828297 0.8915383 0.9624011 1.0398495 0.97049093
1.0435898 1.0096647 0.8726449 0.84511405 0.9776739 1.102808 0.9442254 0.87134373
0.9029109 0.99046624 0.91594476 0.9130479 0.92244303 0.96511036 0.9062442 1.1182908
1.0114387 0.98800135 1.0164983 1.00883 1.1099776 1.0176388 0.9491657 0.9745423
0.9833399 0.90257525 1.0383049 1.0261153 0.9001629 1.019394 0.9094553 0.95308906
0.9734823 0.93531805 0.9224131 0.84929734 0.93353975 0.946896 1.0129755 0.92963165
1.0406404 0.98869985 0.95007074 0.9199759 1.0421629 1.0025537 0.75706315 0.9351402
1.0140092 0.88928485 0.98350084 1.0878483 0.8526104 1.15834 0.8792292 1.123559
0.9296365 0.9627093 0.8262143 1.1083221 0.9980456 0.98854816 1.0200751 1.0008942
0.9766607 1.0591395 0.966664 0.9374183 1.0050232 1.0828242 0.9475229 0.8618562
1.0329068 0.9384214 0.9465938 0.93814844 1.0459586 0.8886767 0.99730223 1.228765
0.9758704 0.9092355 1.0344512 0.9125309 1.0596355 0.92099047 1.0819577 0.8487381
1.0508587 1.0423429 0.91582906 1.0654956 0.9545355 1.0983852 0.93490493 0.93896174
0.970351 0.97264564 1.060219 0.9712559 1.0618004 1.1001793 0.9477868 0.887791
1.0162979 0.84983844 0.9912879 1.0515511 1.0005622 0.9816765 0.98461556 0.83140075
0.8880864 1.028721 1.0019697 0.9285155 1.0290996 1.021506 1.0095323 0.93447727
1.0252358 0.8710188 0.99515563 0.99177194 1.0789127 0.9517718 1.0744991 1.0596186
1.0788027 1.107701 1.0285252 0.8973639 1.024982 1.0010093 0.90247476 0.8686034
0.9011382 0.93618053 0.81444615 1.1096303 0.85772324 0.98259693 0.9561929 0.9311901
1.0846841 0.9371139 0.92712426 1.1483109 0.9500139 1.0650293 0.94514304 0.9190026
0.99014103 0.94091713 0.9301275 0.9515946 1.1065688 0.9799552 0.9629938 0.91979086
0.9467783 1.0493348 1.0633932 0.9545898 0.92006826 0.96270376 0.96327513 0.9339122
1.082624 1.0364553 1.0129426 0.94313425 0.98348504 0.82726294 0.9903718 0.9387054
0.8862874 0.89098436 0.99406546 0.99557406 0.90863234 1.0024511 0.9881953 1.0917199
0.90075636 1.0234162 1.0483539 0.9036826 0.93769807 1.0602596 1.0552648 1.0366184
1.0197384 0.9145351 1.0517923 0.8780684 1.0108718 1.0675857 1.0880927 1.0620245
0.9425152 0.96415585 0.89140195 0.9231271 0.8568598 1.0418622 0.9538538 0.94627774
1.1027185 0.8791936 1.0260673 0.9362569 1.0082655 0.98896044 1.0393205 1.0325481
00000000: 0014 6e3f 3a13 7a3f b86b 663f bdd8 773f
00000010: 01b4 793f 5940 6e3f a771 a03f 6768 753f
00000020: 877a 843f 9a29 653f 4bd3 833f 855f 8c3f
00000030: 0692 763f 75c7 873f 4619 863f d39b 663f
00000040: e1c1 7d3f 906f 6f3f fe68 813f 03de 713f
00000050: 4680 7d3f 28c1 693f 5d54 8d3f 6111 7e3f
00000060: 0ca5 693f f31c 7b3f 9b9e 823f 80e0 743f
00000070: a4a0 853f 48a2 693f 2dea 7b3f 58d3 8a3f
00000080: 2c74 8d3f d6e1 8a3f e299 833f 798f 7f3f
00000090: db3b 643f eb5f 763f ca19 853f 1872 783f
000000a0: 5a94 853f b13c 813f a865 5f3f 6559 583f
000000b0: d648 7a3f d028 8d3f c1b8 713f 6210 5f3f
000000c0: 2b25 673f 328f 7d3f 5b7b 6a3f 82bd 693f
000000d0: 3a25 6c3f 7911 773f 9fff 673f 2724 8f3f
000000e0: d376 813f a8ed 7c3f 9e1c 823f 5721 813f
000000f0: bf13 8e3f fd41 823f 86fc 723f 9b7b 793f
00000100: 2abc 7b3f 2c0f 673f 2de7 843f bf57 833f
00000110: 1371 663f 817b 823f 10d2 683f a5fd 733f
00000120: 2336 793f 0171 6f3f 4423 6c3f 8d6b 593f
00000130: 76fc 6e3f c767 723f 2ea9 813f 57fc 6d3f
00000140: b433 853f 6f1b 7d3f d637 733f 8a83 6b3f
00000150: 9865 853f ae53 803f e4ce 413f 5965 6f3f
00000160: 0ecb 813f 2ca8 633f b6c6 7b3f 9d3e 8b3f
00000170: ad44 5a3f 7c44 943f 2a15 613f c8d0 8f3f
00000180: a8fc 6d3f 1e74 763f c882 533f 80dd 8d3f
00000190: eb7f 7f3f 7e11 7d3f d291 823f 4d1d 803f
000001a0: 7006 7a3f e291 873f 4b77 773f a5fa 6f3f
000001b0: 9aa4 803f fc99 8a3f dc90 723f 9ca2 5c3f
000001c0: 4a36 843f 633c 703f f953 723f 7f2a 703f
000001d0: f9e1 853f 5180 633f 334f 7f3f 2c48 9d3f
000001e0: a4d2 793f a8c3 683f e668 843f a09b 693f
000001f0: 23a2 873f 08c6 6b3f 977d 8a3f e646 593f
00000200: 8a82 863f 7e6b 853f c673 6a3f 2962 883f
00000210: 705c 743f e397 8c3f ee55 6f3f cc5f 703f
00000220: ec68 783f 4eff 783f 42b5 873f 3aa4 783f
00000230: 13e9 873f add2 8c3f 28a2 723f 4546 633f
00000240: 0d16 823f 038f 593f 0bc5 7d3f 3a99 863f
00000250: 6c12 803f 274f 7b3f c40f 7c3f aed6 543f
00000260: a159 633f 21ad 833f 8b40 803f 31b3 6d3f
00000270: 89b9 833f b5c0 823f 5b38 813f e739 6f3f
00000280: ed3a 833f 17fb 5e3f 85c2 7e3f c4e4 7d3f
00000290: d019 8a3f 51a7 733f 3089 893f 95a1 873f
000002a0: 3516 8a3f 25c9 8d3f b7a6 833f a4b9 653f
000002b0: 9c32 833f 1321 803f 9608 673f cb5c 5e3f
000002c0: feb0 663f 87a9 6f3f 8b7f 503f 5e08 8e3f
000002d0: c093 5b3f 798b 7b3f 0fc9 743f 7962 6e3f
000002e0: eed6 8a3f b2e6 6f3f 0458 6d3f dafb 923f
000002f0: 1c34 733f e152 883f e5f4 713f c143 6b3f
00000300: e279 7d3f f2df 703f d61c 6e3f b49b 733f
00000310: 0ca4 8d3f 58de 7a3f c386 763f 6a77 6b3f
00000320: 1060 723f 9a50 863f 451d 883f ff5f 743f
00000330: 9889 6b3f c173 763f 3399 763f df14 6f3f
00000340: 6c93 8a3f 91aa 843f 1aa8 813f 3f71 713f
00000350: adc5 7b3f 81c7 533f 0289 7d3f ff4e 703f
00000360: bbe3 623f 8d17 643f 137b 7e3f f1dd 7e3f
00000370: 219c 683f 5150 803f 5efa 7c3f 7abd 8b3f
00000380: f897 663f 4dff 823f 7630 863f be57 673f
00000390: fb0c 703f 96b6 873f eb12 873f e9af 843f
000003a0: ca86 823f f91e 6a3f 21a1 863f 17c9 603f
000003b0: 3f64 813f a6a6 883f 9f46 8b3f 6bf0 873f
000003c0: ad48 713f ebd2 763f eb32 643f 0f52 6c3f
000003d0: 2a5b 5b3f be5b 853f c32f 743f 423f 723f
000003e0: e125 8d3f d512 613f 2c56 833f 88ae 6f3f
000003f0: d80e 813f 832c 7d3f 7408 853f 892a 843f

bias f4 [768]
-0.029684858 0.0013476769 0.07852454 -0.021436555 -0.12749383 0.0051719607 -0.22731045 0.17523421
-0.020719497 -0.025457526 0.08083308 0.10139346 -0.06966326 -0.1274155 -0.11480038 -0.07744298
-0.026194964 -0.07916641 -0.054770563 0.062559605 -0.0024283468 0.0004970906 0.122630104 -0.0147034535
-0.034451086 -0.041720074 -0.123210005 0.027583638 -0.05907731 -0.074863836 -0.08642358 0.1706707
-0.12709314 0.09662227 -0.05116924 -0.12361799 -0.09666375 -0.034804698 -0.07296404 -0.018181132
0.035997648 0.022795571 -0.12982856 0.17907321 -0.024481215 -0.09402805 0.044326086 0.117362194
0.05634918 0.0150566 0.05215136 -0.027949665 -0.03200412 0.013056816 0.07998697 0.17362526
0.053483855 -0.015905207 0.040336646 0.053529464 -0.09919369 0.011536752 0.011008857 0.027134992
0.0053007677 0.12388091 0.041991208 -0.05461633 0.07302646 -0.055237513 0.036159255 -0.03465153
-0.059797972 0.045592364 0.06625959 -0.15694194 -0.0063364264 -0.012087566 -0.005763988 -0.1313351
-0.035774507 0.029360902 -0.024053562 0.03247757 0.059886668 -0.028980114 -0.11799865 -0.05968129
0.043825164 0.11125547 0.0077368864 0.083295725 0.08181668 -0.21979907 0.0048718546 -0.16553009
0.11036689 0.008617567 0.13602516 0.10309733 -0.019931288 -0.07571406 -0.07142137 -0.010167
-0.036254846 -0.07737556 0.0013045844 0.059499845 -0.10177437 -0.09824247 0.060325842 0.10324001
-0.13733177 0.022125972 -0.037954103 0.04612583 -0.070331596 -0.048542794 -0.055951063 -0.23352538
0.020905448 -0.15079245 -0.058909275 -0.019517578 -0.0724986 -0.008159587 -0.0682584 0.009251673
-0.10033232 -0.062153503 0.11790075 0.07908252 -0.116793044 0.15454803 0.05667354 -0.09634978
0.0710907 0.03209675 0.13526654 0.15049985 -0.08455317 0.10830974 0.082022026 0.023027735
0.021898478 0.1135904 0.02858175 0.08832846 0.04417499 0.052056145 0.003164344 -0.1417213
-0.11156331 0.023118444 0.079861455 0.04875925 0.048809532 -0.00089480734 0.07624591 -0.046473045
0.07604289 0.1345145 0.024256915 -0.00022612023 0.124463975 -0.0018945031 -0.11553604 -0.115701206
-0.08882237 0.20518607 0.09046265 -0.014573793 -0.04886986 0.06321739 -0.10657045 0.13866961
0.06058576 0.05205286 -0.16696285 0.11603044 -0.08140206 -0.023265205 0.03439786 0.049146738
-0.14285652 0.05111838 0.074770324 0.20862485 0.04814001 0.07326514 0.06584103 -0.019361177
0.0418152 -0.02021121 0.049479824 -0.025756247 0.18264493 -0.009577695 0.052698802 0.08087787
0.07957191 -0.043020263 -0.05718163 -0.034481786 0.15401272 -0.029398212 0.036562957 0.061222583
0.113777936 0.050506897 0.026179142 0.014790098 0.012411787 0.07459754 -0.06085125 -0.04823968
-0.09355881 -0.051944986 -0.026376763 -0.029324492 -0.06670884 -0.01266903 -0.026317209 0.15672298
-0.03863632 -0.04724724 0.11197376 -0.048141763 0.12547967 0.068620235 0.17417312 0.09923408
0.077594675 0.10626933 0.048933942 -0.09524842 0.040453292 -0.10567506 0.10533004 -0.09149144
-0.016766312 -0.08116123 -0.057851993 -0.037629377 -0.10954837 -0.077892475 -0.10458894 -0.011612991
0.17427902 -0.09911571 -0.030434275 -0.0553282 -0.0059163845 0.008154862 0.023175994 0.06141485
00000000: a92d f3bc 88a4 b03a 79d1 a03d b79b afbc
00000010: be8d 02be 8d79 a93b 12c4 68be 9970 333e
00000020: efbb a9bc 4d8c d0bc d08b a53d 60a7 cf3d
00000030: 9cab 8ebd 3579 02be 761c ebbd 6d9a 9ebd
00000040: d296 d6bc 0022 a2bd 1957 60bd 401f 803d
00000050: e624 1fbb 2f4f 023a 7e25 fb3d c1e6 70bc
00000060: 951c 0dbd abe2 2abd 8755 fcbd 15f7 e13c
00000070: 0dfb 71bd 3652 99bd d9fe b0bd 4dc4 2e3e
00000080: b424 02be e6e1 c53d d696 51bd 6e2b fdbd
00000090: a5f7 c5bd 5f8f 0ebd 2c6e 95bd 99f0 94bc
000000a0: 4572 133d c7bd ba3c c7f1 04be f85e 373e
000000b0: d48c c8bc c791 c0bd 458f 353d 975b f03d
000000c0: 66ce 663d f5af 763c aa9c 553d b2f6 e4bc
000000d0: c116 03bd 41ec 553c 35d0 a33d d2ca 313e
000000e0: e311 5b3d a34b 82bc 0a38 253d b641 5b3d
000000f0: 1026 cbbd a504 3d3c 7e5e 343c 344a de3c
00000100: 10b2 ad3b 46b5 fd3d f9fe 2b3d 5fb5 5fbd
00000110: e68e 953d bb40 62bd ba1b 143d c3ee 0dbd
00000120: b8ee 74bd 0fbf 3a3d 1cb3 873d 63b5 20be
00000130: cca1 cfbb ed0a 46bc d6df bcbb b57c 06be
00000140: 4a88 12bd 4686 f03c fa0b c5bc 3307 053d
00000150: b94b 753d b467 edbc 47a9 f1bd 5e74 74bd
00000160: 0482 333d e8d9 e33d b585 fd3b f396 aa3d
00000170: 818f a73d 0213 61be 14a4 9f3b b880 29be
00000180: 0908 e23d b230 0d3c 2e4a 0b3e b124 d33d
00000190: f146 a3bc f90f 9bbd 5e45 92bd 7d93 26bc
000001a0: f67f 14bd 1477 9ebd 97fe aa3a 1cb6 733d
000001b0: 156f d0bd 5933 c9bd 3b18 773d 806f d33d
000001c0: b3a0 0cbe 8741 b53c c375 1bbd 70ee 3c3d
000001d0: 030a 90bd cfd4 46bd f12c 65bd 4721 6fbe
000001e0: e741 ab3c 5669 1abe da4a 71bd 54e3 9fbc
000001f0: 257a 94bd caaf 05bc 0fcb 8bbd 5494 173c
00000200: 087b cdbd ac94 7ebd f375 f13d 04f6 a13d
00000210: 3131 efbd d741 1e3e 8422 683d 0953 c5bd
00000220: 0098 913d e277 033d 5083 0a3e a21c 1a3e
00000230: 362a adbd 7fd1 dd3d 2afb a73d a9a4 bc3c
00000240: 7064 b33c 15a2 e83d 4624 ea3c 8de5 b43d
00000250: d6f0 343d d338 553d e260 4f3b 631f 11be
00000260: 4e7b e4bd e462 bd3c 678e a33d c8b7 473d
00000270: 81ec 473d 8191 6aba d126 9c3d 855a 3ebd
00000280: 60bc 9b3d 2bbe 093e 70b6 c63c b01a 6db9
00000290: f8e6 fe3d fa50 f8ba 299e ecbd c1f4 ecbd
000002a0: 81e8 b5bd 4c1c 523e 7b44 b93d ebc6 6ebc
000002b0: c32b 48bd 1e78 813d 9c41 dabd 68ff 0d3e
000002c0: c628 783d 6135 553d 4ff8 2abe 5ea1 ed3d
000002d0: 20b6 a6bd ac96 bebc c5e4 0c3d 174e 493d
000002e0: fb48 12be 8261 513d 2f21 993d c1a1 553e
000002f0: 762e 453d 090c 963d a9d7 863d 559b 9ebc
00000300: 6a46 2b3d fb91 a5bc 5bab 4a3d c4fe d2bc
00000310: 4607 3b3e c4eb 1cbc b3da 573d 4ca3 a53d
00000320: 99f6 a23d 0436 30bd 4937 6abd c63c 0dbd
00000330: 83b5 1d3e 85d4 f0bc 0ac3 153d 88c4 7a3d
00000340: 6804 e93d 52e0 4e3d a475 d63c 2b52 723c
00000350: cf5a 4b3c 98c6 983d 293f 79bd f896 45bd
00000360: c39b bfbd 44c4 54bd 1514 d8bc eb39 f0bc
00000370: a59e 88bd c391 4fbc 3097 d7bc fd7b 203e
00000380: 1e41 1ebd 5286 41bd 8052 e53d 4c30 45bd
00000390: be7d 003e c488 8c3d 705a 323e 3d3b cb3d
000003a0: f5e9 9e3d bca3 d93d f56e 483d 9b11 c3bd
000003b0: 5ab2 253d 2a6c d8bd 47b7 d73d dd5f bbbd
000003c0: 8159 89bc dc37 a6bd 36f6 6cbd 4321 1abd
000003d0: e55a e0bd 1786 9fbd ba32 d6bd 6a44 3ebc
000003e0: 3376 323e 2dfd cabd 4d51 f9bc d39f 62bd
000003f0: 3bde c1bb f89b 053c 95db bd3c 238e 7b3d

weight f4 [768]
1.033133 1.038145 0.8788134 0.8659136 0.9679067 0.94850475 1.2889206 0.9621599
0.91357756 1.0577636 1.0184276 1.1765066 1.0077679 0.9182641 0.97832555 0.95236087
0.936632 1.0662265 0.9628669 0.9854823 1.021332 0.9883692 1.0870571 0.96787596
1.01534 0.9990425 0.89392436 0.9715298 0.9606887 1.0805179 1.0027446 0.9437723
1.0257342 0.9791226 0.96840227 0.9977657 0.96187615 0.8807547 0.88448936 0.971584
1.0011425 0.96425855 0.9423905 1.0189965 0.9062165 1.041784 0.9178612 0.9705533
1.0243738 0.7663686 0.91602284 1.0016752 1.0649102 0.95455945 0.9316377 0.94986075
1.0640961 1.0198897 0.9480612 1.0189992 0.87098134 0.99695265 0.92620945 0.8270523
1.1212729 0.9052402 1.0198717 1.0744337 0.8883097 0.95942396 0.9394256 0.98207736
0.96971864 0.76807535 0.96006507 0.9791358 0.9144804 0.9452178 0.98379654 1.0062166
0.93215334 0.9285178 0.9205057 0.84736514 0.96089244 0.9387337 0.9675483 1.0705692
1.1256897 0.7799184 0.98872316 0.9106282 0.99717826 0.95535684 0.98673606 1.2103155
0.9287095 0.9820688 1.0753652 1.0280644 1.033408 0.8940694 0.9530588 1.0328059
1.1344259 0.9905087 0.97714514 0.98230755 1.1439348 1.0654411 1.076882 1.1482847
0.97214115 1.1071764 1.1397387 1.007365 0.90788907 0.9911612 1.0026373 1.1281677
1.000902 0.94725496 0.8318816 0.99573034 0.8832767 1.0445675 0.9776319 0.88558906
1.0210332 1.0077324 1.0092863 1.1620086 1.0387824 0.99285406 0.95010525 0.9652855
1.0163531 0.9487149 0.98721653 0.98799175 1.0434744 1.0197607 0.9448574 1.0812168
1.098291 1.07269 0.9568721 0.85969067 0.9523693 0.9441493 0.9454989 0.9987599
0.98151135 1.030365 0.9953457 1.0088124 1.1287577 0.8669741 0.9751611 0.8943922
0.93479824 0.9688662 0.9160472 0.99578446 1.0867946 0.9374701 1.0040942 0.86654216
0.91446346 1.0705396 0.9873221 0.97890186 1.0461813 1.0276868 0.85569507 1.0267341
1.0704635 1.1353959 0.82981735 0.83552074 1.0140713 0.9267443 0.96502703 0.9441356
1.0370064 1.0597177 1.0010213 1.0104978 0.87645537 1.0283071 1.0220217 0.978741
0.9287122 0.95542735 1.0129447 0.8425312 0.9575103 0.9665239 0.89355797 0.9452807
1.0305854 1.0443702 1.0433954 1.0296199 0.9104483 1.0181376 0.8860266 0.9942832
0.9171542 1.09914 0.9952452 0.71835697 1.0067954 0.96731466 1.0291218 0.938881
0.97428465 1.0192422 0.92963946 0.92874515 0.9973674 0.86571896 0.8452828 0.88093096
1.0696518 0.95848274 0.98690706 0.9121772 0.93327755 0.9938103 1.0103194 1.0272963
1.0547593 0.9733365 1.003385 0.8883124 0.9597884 0.98466444 1.0005246 1.0412403
1.0367479 0.88579375 0.95415527 0.89094234 0.81150115 0.87043923 1.0346727 0.9011903
0.8906944 1.0599349 1.1250821 1.0301185 0.9277277 0.95081216 1.0612897 0.89389217
00000000: b43d 843f efe1 843f eaf9 603f 84ac 5d3f
00000010: bcc8 773f 35d1 723f 5afb a43f 1c50 763f
00000020: 38e0 693f cc64 873f d65b 823f c597 963f
00000030: 8afe 803f 5b13 6b3f 8b73 7a3f eccd 733f
00000040: 1dc7 6f3f 1c7a 883f 727e 763f 9148 7c3f
00000050: 02bb 823f c405 7d3f b024 8b3f b8c6 773f
00000060: a9f6 813f 40c1 7f3f 3ad8 643f 2db6 783f
00000070: b2ef 753f 694e 8a3f ef59 803f 109b 713f
00000080: 424b 833f c7a7 7a3f 36e9 773f 936d 7f3f
00000090: 843d 763f 2479 613f e56d 623f bbb9 783f
000000a0: 7025 803f a6d9 763f 8140 713f 7a6e 823f
000000b0: cefd 673f 2e59 853f f4f8 6a3f 2e76 783f
000000c0: ae1e 833f bc30 443f 7980 6a3f e536 803f
000000d0: fa4e 883f 025e 743f cf7f 6e3f 132a 733f
000000e0: 4d34 883f bf8b 823f 24b4 723f 916e 823f
000000f0: a2f8 5e3f 4a38 7f3f 101c 6d3f b3b9 533f
00000100: df85 8f3f d2bd 673f 288b 823f 0b87 893f
00000110: 4468 633f cf9c 753f 327e 703f 6c69 7b3f
00000120: 7b3f 783f 96a0 443f d3c6 753f a5a8 7a3f
00000130: 631b 6a3f cbf9 713f 17da 7b3f b5cb 803f
00000140: 9aa1 6e3f 58b3 6d3f 43a6 6b3f ecec 583f
00000150: 0cfd 753f da50 703f 3fb1 773f 6908 893f
00000160: 9a16 903f bba8 473f f61c 7d3f ee1e 693f
00000170: 1347 7f3f 4492 743f bc9a 7c3f 9eeb 9a3f
00000180: e8bf 6d3f dc68 7b3f 91a5 893f 9d97 833f
00000190: b746 843f bbe1 643f a9fb 733f fc32 843f
000001a0: de34 913f fa91 7d3f 2f26 7a3f 8278 7b3f
000001b0: 756c 923f 6060 883f 45d7 893f fefa 923f
000001c0: 3ede 783f f5b7 8d3f f5e2 913f 56f1 803f
000001d0: 6b6b 683f bebc 7d3f 6b56 803f cd67 903f
000001e0: 8f1d 803f 4d7f 723f 31f6 543f 2fe8 7e3f
000001f0: 6c1e 623f 63b4 853f 1646 7a3f f7b5 623f
00000200: 37b1 823f 60fd 803f 4b30 813f b3bc 943f
00000210: d2f6 843f af2b 7e3f 193a 733f f31c 773f
00000220: dc17 823f fbde 723f 39ba 7c3f 07ed 7c3f
00000230: 9290 853f 8587 823f 2de2 713f 5065 8a3f
00000240: cd94 8c3f e84d 893f 92f5 743f b014 5c3f
00000250: 79ce 733f c5b3 713f 370c 723f bbae 7f3f
00000260: 5444 7b3f 00e3 833f face 7e3f c420 813f
00000270: 227b 903f 04f2 5d3f 28a4 793f e3f6 643f
00000280: f04e 6f3f 9e07 783f 1282 6a3f bbeb 7e3f
00000290: 161c 8b3f 0afe 6f3f 2986 803f b5d5 5d3f
000002a0: 471a 6a3f 7107 893f 24c1 7c3f 5099 7a3f
000002b0: 45e9 853f 3e8b 833f d50e 5b3f 066c 833f
000002c0: f304 893f a754 913f e96e 543f b0e4 553f
000002d0: 17cd 813f 1d3f 6d3f 030c 773f dfb2 713f
000002e0: a0bc 843f d4a4 873f 7721 803f fe57 813f
000002f0: 615f 603f 919f 833f 9bd1 823f c58e 7a3f
00000300: 15c0 6d3f e396 743f 2ca8 813f 20b0 573f
00000310: 651f 753f 1c6e 773f 37c0 643f eafd 713f
00000320: 39ea 833f ecad 853f fb8d 853f 96ca 833f
00000330: 2413 693f 5552 823f a4d2 623f 5889 7e3f
00000340: 9eca 6a3f 9fb0 8c3f 64c8 7e3f 3ee6 373f
00000350: acde 803f efa1 773f 43ba 833f 815a 703f
00000360: b86a 793f 8776 823f dafc 6d3f 3ec2 6d3f
00000370: 7853 7f3f c29f 5d3f 7464 583f b184 613f
00000380: 5aea 883f 205f 753f f1a5 7c3f 7284 693f
00000390: 47eb 6e3f 5a6a 7e3f 2552 813f 727e 833f
000003a0: 5a02 873f 952c 793f eb6e 803f 7168 633f
000003b0: b1b4 753f f812 7c3f 3111 803f 5d47 853f
000003c0: 28b4 843f 61c3 623f 8543 743f cc14 643f
000003d0: 8abe 4f3f 1bd5 5e3f 2870 843f 68b4 663f
000003e0: 8c04 643f f2ab 873f b102 903f ecda 833f
000003f0: 907f 6d3f 6d68 733f 57d8 873f 1ed6 643f

bias f4 [768]
-0.041030407 0.03986363 0.042081397 -0.107298605 -0.024274303 -0.00386065 -0.2586249 -0.023929084
0.21436796 0.062946096 0.02076036 0.16734801 -0.121337205 0.14479087 -0.012247435 -0.059325956
-0.10900648 0.17293853 0.015898932 0.06632658 0.03531371 0.09472685 0.13324343 0.042257622
0.07314801 -0.034754783 0.09813197 -0.055765126 0.039038815 0.09979378 0.010779512 -0.040812947
-0.028159823 -0.014993048 0.062571146 -0.019912777 -0.124147505 -0.14984892 0.062738955 -0.025472313
0.00029596302 -0.026993923 -0.045382142 0.045134254 -0.03870407 -0.043025147 0.06463755 0.027585996
-0.06069177 -0.20764832 0.072250724 0.058081787 0.11019936 0.09264393 0.061251476 -0.028590288
0.040286228 0.022817628 -0.036674224 0.0094964085 0.12384558 0.0050580534 0.082345225 0.20182505
0.11079607 0.07228195 0.033461913 -0.07458863 -0.011865097 0.0020005459 -0.1376952 0.013073736
0.0015000629 0.19730017 -0.004620418 0.039853472 -0.07314572 -0.09524544 0.0036006887 0.017933378
-0.08660535 -0.049453784 -0.053915083 0.06716964 -0.019366179 0.020281112 -0.04316194 0.10408195
0.10396276 0.21279669 -0.066251725 -0.07880722 0.061641954 0.0352408 0.1120409 -0.18706796
0.1448784 0.0035662341 -0.07276681 0.041150637 -0.10211386 0.006703754 -0.0095248185 -0.037328053
0.26624885 -0.02590287 -0.061790694 0.014911507 -0.15851687 -0.06609161 -0.19924012 -0.14990866
-0.04609561 -0.15859328 0.14608638 0.06701577 0.06190214 0.013319464 -0.027732773 -0.16191016
0.08803002 -0.06277122 0.22685158 -0.092470415 0.115198985 0.20906447 0.023891067 -0.17376539
-0.088797 -0.04115573 0.010829523 0.12776361 0.06255178 -0.02785911 0.004974511 -0.0439815
0.059776727 0.046753816 -0.0132443225 -0.10600936 -0.027071584 0.024493314 -0.00801662 0.1326744
0.11224155 -0.0698147 -0.01738111 -0.13155633 -0.17311005 -0.110853955 0.03501881 0.03128093
-0.0101799015 0.029405318 -0.036738873 0.04739414 0.14120871 0.1531973 -0.0545648 -0.07192724
-0.02164951 0.06230185 -0.0827855 0.033563826 0.14916946 -0.105080836 -0.013839478 0.17800874
0.05309384 0.106321305 0.07182161 -0.007197136 -0.10138124 -0.0039602024 -0.092513695 -0.049118098
-0.073369116 -0.092957824 -0.20798884 -0.1068294 0.044434108 -0.042559285 -0.019184925 0.064634286
-0.095564045 -0.08498311 0.0016198461 0.018289449 0.10195891 0.028857576 0.013462635 -0.052991413
-0.012912752 0.054570694 0.078806676 -0.2065529 -0.05337147 -0.037190307 -0.029060563 0.05063626
0.050316054 -0.04696331 -0.06456654 0.02109282 0.05713136 -0.07906095 -0.022773027 0.013522847
-0.0595937 0.12570664 -0.0051870546 0.2621754 0.02160933 0.057549253 0.0117968265 0.13226126
-0.002685661 0.088839725 0.07185436 0.07481976 0.028010536 0.16144201 0.13251816 -0.08121822
0.14733091 0.04226041 -0.0026320606 -0.092891864 0.0042644525 0.00888045 0.022087717 0.07591711
0.08434102 -0.020911284 -0.003910294 -0.107899845 0.07016078 -0.0036213135 -0.005359323 -0.06177118
0.022865664 -0.191859 -0.17161484 -0.046250742 -0.17208654 0.1194416 0.017676935 0.1059829
0.042832687 0.08389382 -0.13998121 -0.11292207 0.045848906 -0.091866314 0.043015007 -0.11054172
00000000: 800f 28bd 0c48 233d 8b5d 2c3d 5fbf dbbd
00000010: e7da c6bc f502 7dbb 7c6a 84be ed06 c4bc
00000020: 4683 5b3e e2e9 803d a111 aa3c 475d 2b3e
00000030: a47f f8bd 0f44 143e 77a9 48bc c6ff 72bd
00000040: ca3e dfbd cc16 313e 7a3e 823c 3bd6 873d
00000050: 1ca5 103d 2700 c23d f770 083e 5416 2d3d
00000060: a0ce 953d 085b 0ebd 6af9 c83d f969 64bd
00000070: 2ae7 1f3d ae60 cc3d 8d9c 303c 7a2b 27bd
00000080: 6eaf e6bc 67a5 75bc 4d25 803d 1f20 a3bc
00000090: 0c41 febd ff71 19be 487d 803d 50ab d0bc
000000a0: 7c2b 9b39 5c22 ddbc a0e2 39bd b2de 383d
000000b0: 2988 1ebd 233b 30bd b160 843d 07fc e13c
000000c0: ef97 78bd c3a1 54be 30f8 933d 2be7 6d3d
000000d0: 34b0 e13d 1abc bd3d d4e2 7a3d 2e36 eabc
000000e0: 2c03 253d 09ec ba3c b637 16bd d396 1b3c
000000f0: c0a2 fd3d 07be a53b 9da4 a83d 3aab 4e3e
00000100: 0de9 e23d 8f08 943d 5c0f 093d ecc1 98bd
00000110: d365 42bc 971b 033b f8ff 0cbe 3933 563c
00000120: c29d c43a 0e09 4a3e e066 97bb 653d 233d
00000130: 6ccd 95bd 0b10 c3bd 88f9 6b3b 05e9 923c
00000140: 255e b1bd 0d90 4abd 10d6 5cbd 3c90 893d
00000150: d2a5 9ebc 9324 a63c 93ca 30bd eb28 d53d
00000160: 6dea d43d 60e7 593e fcae 87bd ae65 a1bd
00000170: 467c 7c3d a858 103d b375 e53d be8e 3fbe
00000180: 015b 143e 7bb7 693b c406 95bd 928d 283d
00000190: 1221 d1bd 2aab db3b fc0d 1cbc 4de5 18bd
000001a0: c551 883e 4132 d4bc 3d18 7dbd 654f 743c
000001b0: 3f52 22be 0a5b 87bd 9a05 4cbe a881 19be
000001c0: c0ce 3cbd 4766 22be ab97 153e 903f 893d
000001d0: 198d 7d3d e239 5a3c d72f e3bc c7cb 25be
000001e0: 1549 b43d 338e 80bd c84b 683e 2161 bdbd
000001f0: 72ed eb3d ff14 563e 33b7 c33c 8eef 31be
00000200: 34db b5bd e992 28bd 506e 313c 77d4 023e
00000210: 261b 803d ca38 e4bc 3901 a33b f225 34bd
00000220: 71d8 743d ee80 3f3d b7fe 58bc 6f1b d9bd
00000230: 3ac5 ddbc 34a6 c83c 2458 03bc ccdb 073e
00000240: e6de e53d 02fb 8ebd d462 8ebc b4b6 06be
00000250: c343 31be 6607 e3bd e26f 0f3d 6f20 003d
00000260: 9ac9 26bc 6ce3 f03c 807b 16bd 5c20 423d
00000270: 0499 103e c1df 1c3e 577f 5fbd 974e 93bd
00000280: 505a b1bc 3a30 7f3d 728b a9bd 397a 093d
00000290: e1bf 183e 9f34 d7bd fabe 62bc ec47 363e
000002a0: ed78 593d fcbe d93d 3517 933d f4d5 ebbb
000002b0: f8a0 cfbd 96c4 81bb d277 bdbd 0f30 49bd
000002c0: 8c42 96bd ac60 bebd 07fb 54be 5fc9 dabd
000002d0: 8a00 363d a552 2ebd b429 9dbc fb5e 843d
000002e0: 15b7 c3bd a00b aebd 0451 d43a c1d3 953c
000002f0: d5cf d03d b966 ec3c 6292 5c3c 860d 59bd
00000300: 0290 53bc 8585 5f3d 6565 a13d 9a82 53be
00000310: 0b9c 5abd dd54 18bd 6b10 eebc f867 4f3d
00000320: 3518 4e3d 9a5c 40bd 763b 84bd daca ac3c
00000330: 9302 6a3d b5ea a1bd 808e babc ee8e 5d3c
00000340: 8618 74bd 3eb9 003e 2bf8 a9bb db3b 863e
00000350: 0d06 b13c c4b8 6b3d 7a47 413c 7f6f 073e
00000360: ea01 30bb 9af1 b53d 6128 933d 1a3b 993d
00000370: 5a76 e53c 0e51 253e d7b2 073e bd55 a6bd
00000380: eadd 163e 4019 2d3d a67e 2cbb 173e bebd
00000390: d2bc 8b3b 4f7f 113c 4df1 b43c 6e7a 9b3d
000003a0: fcba ac3d 244e abbc ec21 80bb 98fa dcbd
000003b0: 74b0 8f3d 8f53 6dbb 439d afbb c703 7dbd
000003c0: c650 bb3c b076 44be cdbb 2fbe 6b71 3dbd
000003d0: 7437 30be cc9d f43d 38cf 903c 900d d93d
000003e0: 5471 2f3d 86d0 ab3d 3c57 0fbe b043 e7bd
000003f0: 10cc 3b3d 6824 bcbd 8130 303d b363 e2bd
