ablations/static-layerwise/ryangosling2023-05-29T11-17-46_ryangosling-static-layerwise/embeddings_gs-4500.pt (torch, 945964 bytes, 172 tensors)

pre_vecs f4 [2, 768]
00000000: 3d5f 133b 8d23 283c 1519 243b 63b4 f5bc
00000010: 800b 86bc 7bb3 dc3c a4a8 cbbc 65d6 2cbc
00000020: e4c8 1fbc 37d6 543b 5c5c 8e3c 06b0 473b
00000030: 5153 873b 32c9 8639 8603 e7bb 5bb3 b63b
00000040: 1dc5 6fbc 0e62 903a 0310 e5bb 52da 6f3c
00000050: a554 65bb e149 01bc 6752 89ba d546 2ebc
00000060: 2190 a03c 3dd4 f9bb d3b2 0c3b 23fd 433b
00000070: af2a f03b 1dcb 3a3d c0b7 c23c 002f 7a3c
00000080: 2439 2cbb 19e3 4a3c ab5a ef3a 2dae 3e3d
00000090: 3d04 7cbc dccb 3f3c 9547 50bc cf40 c03c
000000a0: aa4d ef3b 374c cc3c ba0f b13b 1819 7b3c
000000b0: 3309 3bbb 3a9d 08bc f320 5b3c f919 3b3c
000000c0: c57c 6bbc f542 e539 c8db 1e3c 636c 173c
000000d0: f437 ad3c 938a b4bb 9e7a 33bd 459b 4d3a
000000e0: 3bb6 093c 4369 94ba 4c9d c73c aa73 cabc
000000f0: 368f e9bb e082 ad3c 42a0 0bbc 0813 fcbb
00000100: 3cc3 123c 30cb 8b3c 8446 373d 6f3f 24bc
00000110: 1990 30bd fc0e 90bc a0bc 55bc 1b9a 1cbb
00000120: a70f 643a 68aa 213c ceb2 c5bc f259 ae3c
00000130: a12a 013c 45b6 763c 08ad cdbc 2372 0bbb
00000140: b9b4 833c b7f3 5bbb 59f7 973c d778 84bc
00000150: 3b57 153b b586 243a f94d fb3c 9b43 433b
00000160: d255 7c3b 9f46 87bc ea5f fcbc 879a 0e3c
00000170: d86e 00bc 5e9f 1cbc 0626 9abc 5806 6b3a
00000180: 96c1 703c 14a7 26bc 8fe8 3ebc 92c7 99bc
00000190: f423 3b3b e9ad 5dbc 90e6 603c 7b2c 5aba
000001a0: 4863 f6bb cfc7 d9bc 1882 043c 6964 3d3c
000001b0: 5c08 c4b9 315b febc 1092 e1ba 0f43 b0bc
000001c0: f2d0 edbc d8d8 ac3b 99e9 b33c 9d16 e8b9
000001d0: 2908 f0bc d205 313c 70e0 ecbb 77c9 adbc
000001e0: 3405 85bc 9480 3d3c 5e78 11bc 02c9 52bb
000001f0: 2b33 b53a 77d7 9c3b 0c28 a2ba 54e9 993c
00000200: f83a eebc 0378 333c d73c 293c 3924 1abc
00000210: 1e03 cd3c dc47 323c e510 403c 3619 92bb
00000220: d877 bbbc 2e6b d6bc 1e0b 2f3c 2735 013c
00000230: d369 e7bc f034 b43c 043d 2dbb 70aa 6cb7
00000240: dc0a fc3c 76b8 013c 9350 4fbb 91bf 883c
00000250: 556e 213d 21d2 93bb ceff e2bc 2872 0c3c
00000260: 1ff2 42bb ec60 a2bb 6511 6d3c ed48 a7bb
00000270: 5b91 eb3b 53fe e9bc 4908 cf3c 9c98 6c3b
00000280: b9f8 953c 73c6 863c c8fe a93c c845 4b3b
00000290: b0bc 71bc f36c 013c f460 06bc ee8c 7abc
000002a0: 65e5 8abc 4db1 f33b 0e6d 8b3c 3f66 fc3b
000002b0: deeb 96ba c345 003d 3dd4 473c 302e 203c
000002c0: 0e9a 12bc cb49 373c 0289 c93c aa02 163d
000002d0: a115 78bb 66c8 c23a 80b3 2ebc 8baf 8bbc
000002e0: 4b34 6e39 5373 d1bc a534 96ba c421 a9bc
000002f0: f9ed b8bc fe54 023c 9bcb 84b7 f5a4 7a3c
00000300: d614 893a f6e8 8838 8740 dc3c 6c81 763c
00000310: d0d8 7e3d b759 27bc 8ba1 6b3b 853e c0bb
00000320: 26c3 3e3c cafe 4abc 1089 06bd 4327 04bb
00000330: 7a70 35ba cc19 81bb 2497 a13c 463b 303b
00000340: 7884 b3bb 5907 6e3a f2be 133d 99d8 fdbb
00000350: de5a febb 2ed3 cebb 9b3f 16bc f2da e93c
00000360: 4ce7 453c 5a0f ac3c 4aad e53c a0ac 0cbd
00000370: e322 25bc 208f 0bbc 577e 02bd 4491 20bc
00000380: cd19 ffb9 d2b6 0abc 4d99 693c 1617 d73c
00000390: 673f 5f3c 502b 80bb f901 38bc 511f f7bb
000003a0: 8b14 abbb 8e12 b1ba f252 913c 0f3f c7bb
000003b0: c5b5 b33c ebe1 25bc 1f61 fa3c 72f7 85bc
000003c0: aaaa b5bb be9a 9a3b cb14 893c 2b69 05bc
000003d0: 6185 2fbc a90a f03b 11cd bcbc 94b1 763c
000003e0: 7c5a 8abc d4f5 3a3c 9b1c 34bd 56f5 d3bb
000003f0: 8fe3 33bc e92f e5bc 6376 02b9 3af3 363c
0.0022487186 0.010262382 0.0025039364 -0.029993242 -0.016362906 0.026941052 -0.024860688 -0.0105491625
-0.009752486 0.0032476315 0.017378025 0.0030469908 0.004129805 0.00025708374 -0.0070499806 0.00557558
-0.014634398 0.0011015551 -0.006990434 0.014639454 -0.003499308 -0.007891149 -0.0010476828 -0.010637005
0.019599976 -0.0076241777 0.0021468892 0.002990552 0.007329307 0.04560386 0.02376926 0.015269995
-0.0026279176 0.012383246 0.0018261274 0.046552826 -0.01538187 0.011706319 -0.012712379 0.023468403
0.0073029594 0.024938686 0.005403486 0.015325807 -0.0028539419 -0.008338267 0.013374555 0.011419767
-0.014373009 0.0004372817 0.009695955 0.00924215 0.021144845 -0.0055096834 -0.04381811 0.00078432664
0.008405264 -0.0011322874 0.024366997 -0.024713356 -0.007127668 0.02118057 -0.008522095 -0.0076926984
0.00895768 0.01706466 0.044744983 -0.010024889 -0.043106172 -0.01758527 -0.01304546 -0.0023895565
0.0008699842 0.009867288 -0.024133112 0.021283124 0.007883699 0.015058105 -0.025106922 -0.0021277748
0.016077386 -0.0033562013 0.018550562 -0.016170902 0.002278759 0.00062761764 0.030676829 0.0029794935
0.0038503301 -0.016513167 -0.030807454 0.008703834 -0.007838927 -0.0095594805 -0.01881696 0.0008965484
0.014694592 -0.0101716705 -0.011652126 -0.01877192 0.0028555365 -0.013530233 0.013726845 -0.0008322668
-0.0075191595 -0.026584534 0.008087657 0.011559584 -0.0003739026 -0.031049343 -0.0017209668 -0.021516351
-0.029030297 0.005274873 0.021961974 -0.00044267336 -0.029300766 0.01080461 -0.0072289035 -0.02121423
-0.016237833 0.0115663 -0.008878795 -0.0032163267 0.0013824453 0.0047864276 -0.0012371554 0.018788017
-0.029080853 0.010953906 0.010329447 -0.00940805 0.0250259 0.01088139 0.011722778 -0.004458572
-0.022884294 -0.026174154 0.010683803 0.007886208 -0.028248703 0.021997899 -0.0026434073 -1.4106379e-05
0.030766897 0.007917514 -0.003163372 0.016692908 0.03941186 -0.0045111333 -0.027709868 0.008572139
-0.0029746366 -0.0049554016 0.014469479 -0.005105129 0.0071889586 -0.028563654 0.025272505 0.0036101704
0.018307077 0.01645205 0.020751372 0.0031016935 -0.014754459 0.007899511 -0.008201826 -0.015292389
-0.016955087 0.0074369074 0.017019775 0.0077026184 -0.0011514386 0.03131653 0.012196598 0.009776637
-0.008947862 0.011187027 0.024601463 0.036623634 -0.0037854689 0.0014860749 -0.010662913 -0.017051479
0.0002271693 -0.025567686 -0.0011459781 -0.020645984 -0.022574412 0.007954834 -1.5830437e-05 0.015298118
0.001045848 6.528378e-05 0.026886238 0.015045505 0.062218487 -0.010214261 0.0035954441 -0.005866828
0.011643207 -0.012389848 -0.032845557 -0.0020165003 -0.00069213624 -0.003939843 0.01972539 0.0026890798
-0.005478438 0.00090800744 0.03607077 -0.0077467677 -0.007762297 -0.0063117957 -0.009170438 0.028546784
0.012079071 0.021003414 0.028036732 -0.034344316 -0.010079118 -0.00851801 -0.03185877 -0.009800259
-0.00048656613 -0.008466439 0.014257741 0.026256125 0.013625956 -0.0039114133 -0.011230939 -0.007541575
-0.005220955 -0.0013509558 0.017739747 -0.006080515 0.02193726 -0.010124664 0.03056389 -0.016353343
-0.0055440264 0.0047181537 0.016733548 -0.00814275 -0.010712952 0.0073254895 -0.023047002 0.015056986
-0.01688885 0.011411149 -0.043972593 -0.0064684553 -0.010979547 -0.027976947 -0.00012441869 0.011166388

basis_rand_weights f4 [16, 5]
00000000: 3d5f 633d 6527 643d ce01 7fbd 35e2 9d3d
00000010: 5001 b2bd 4928 be3c cd1d 323d 9042 10be
00000020: b282 bcbd a24b 483d 16cb e6bb ece4 e03c
00000030: 4347 2b3c b58e b03b 892d 50bd e720 a1bc
00000040: 7ae1 b9bb f1fa 90bd 0267 93bd 817b 8e3d
00000050: 91df 17bd d811 e33c 5779 5dbd 95fe a63c
00000060: e64b ccbd fd81 8fbd f175 b53b 9519 843d
00000070: 12a7 7abb aa3e 65bd a27e ecbc dd4d 55bc
00000080: bea1 853d ee81 673d 9f71 99bd 689d e7bc
00000090: 2539 d43b 50a9 0ebe fa0e f73c eda4 ffbc
000000a0: 32fc 14be e72a dcbb 7294 893e 0556 973e
000000b0: 4f18 20bd c369 d1bd 9f6a 653c 9482 5b3e
000000c0: 0aa5 243e e149 bf3c d943 1dbd a9af b63c
000000d0: f503 583e e997 783e cf54 acbd 8fba 18bd
000000e0: ca45 f6bc 8040 31be d7b8 323e 67d5 013e
000000f0: 102d 383d da71 e93b d8a4 1b3d 6735 843e
00000100: 5e8f 3abc 8ed0 debc 2e76 b1bc dcf5 06be
00000110: 6392 9b3d db96 a9bd 70c7 57bc e8e0 ff3a
00000120: 8fdd bebd ba44 003b 3af8 17be 668a ea3c
00000130: 480e 103d c356 5ebd d6b3 903e 4d46 e6bb
0.05551075 0.055701632 -0.06225758 0.07709161 -0.086916566 0.023212569 0.04348545 -0.14087892
-0.09204616 0.048900254 -0.0070432527 0.027452908 0.010454002 0.0053881058 -0.050824676 -0.01966901
-0.005672631 -0.07079113 -0.071973816 0.0695715 -0.037078444 0.02771847 -0.054070797 0.020385066
-0.09975414 -0.07007215 0.0055377414 0.06450192 -0.0038246554 -0.055967964 -0.028868977 -0.013019052
0.065249905 0.056520395 -0.07492375 -0.0282733 0.0064765387 -0.13931775 0.030158509 -0.031206572
-0.1454933 -0.0067189815 0.26871067 0.29557815 -0.039085682 -0.102252506 0.014002471 0.2143653
0.16078582 0.023350658 -0.038394783 0.022300558 0.2109526 0.24276699 -0.084146135 -0.03728729
-0.030062575 -0.17309761 0.17453323 0.12679063 0.04496485 0.007124168 0.037999004 0.25821993
-0.01138672 -0.027199056 -0.021662798 -0.13179725 0.075962804 -0.082807265 -0.013170108 0.0019521983
-0.09319603 0.0019572214 -0.14840785 0.028630447 0.03516987 -0.05428196 0.28262204 -0.0070274235

basis_vecs f4 [3, 768]
00000000: 730d 303d 2d3a 0cbd 61ba b1bc 1acc cebc
00000010: d8b6 d1bc b4e0 ce3c efd1 3dbd 112e 20bc
00000020: b1af a03c aea8 983c b555 01bc b294 053d
00000030: 79e7 913b 4ada 923b 0902 3c3d 114a c23d
00000040: 60f1 2a3d 4c18 3aba 4e9e 153c 19b7 02bb
00000050: 2709 613c 70b0 7a3d 25df 393d 849a aabc
00000060: eedb 453d b7c3 96bc 7e8d f2ba df2b 37bc
00000070: 52a5 39bd fe95 433d 0f90 483c ec36 63bc
00000080: f888 c53c 5fb6 3a3d 89cf d6bc 04bc b83d
00000090: 020d e63a 250b 4b3c 01bd c53c 0e27 bf3c
000000a0: a70c e7ba af01 c63c d283 6b3b 210e 06bb
000000b0: 1f89 363b bf8d 43bd d87b 513d 9dbc f83c
000000c0: ad12 92bb 4dcc fdbb 3eb9 203c 0f69 093d
000000d0: f281 193d 2b24 b53c cc82 3ebd 604c 173d
000000e0: be8c f8ba 2744 09bd 2ce2 2bbb a747 05bd
000000f0: f4ab 3fbd 0b80 6a3d b72a 853c 7388 bb3b
00000100: aac9 c63c a404 61bb 5e52 c33c 4f29 3cbd
00000110: 40e7 9c3b 5111 6dbc a115 6ebc d9cc d73b
00000120: b5fd d13c 3d6b 0abd 452f 99bc d00e bf39
00000130: 6303 0d3d afa4 ef3c 41e2 8dbc 8609 473d
00000140: 26e0 4cbb c220 b33c fb07 4d3d 23e2 53bd
00000150: f230 1a3d 7168 1f3c e8eb 783c 03f7 b1bc
00000160: 136c 1a3c 20df f0bc 9859 06bd f362 2abb
00000170: 1fe2 c33c 15e2 1f3c 73a7 74bd 2baf 8fbd
00000180: 6a32 2a3c 92ba 7d3b da2a 8c3b 9e6c 533c
00000190: 838d c33b ada7 1e3d 7d1b 14bc f2be ff3c
000001a0: 651e 93bc 564d b73b 838a 7c3d c461 863c
000001b0: ab5d 43bd 27df 4cbc 835a f73a 97ab 62bd
000001c0: 28e3 693c 8cc5 2b3d 66d2 dbbc 29cd 183d
000001d0: bb51 14bd f342 e23c c135 eb3b 8626 c7bc
000001e0: 39b8 053c 9f33 4b3d 3c8b febc 4074 7c3c
000001f0: 89e1 7f3a f862 833c b0d6 34bd 8dc5 573c
00000200: 32b1 0bbd 7425 e03b cb3e 84bc 071e 683c
00000210: c7b3 5cbc 477d 063d 0742 f8bc b0c4 99bc
00000220: cc32 b8bc a91c 52bc df87 a33c 39b7 9ebc
00000230: 1156 97bd 03e2 0d3d fe5a d83a c1ec 58bc
00000240: 760a ff3c 4b0a e1bc 6be2 5c3c ebb4 e23b
00000250: dfe7 253d 52b4 c33a 001d 8abd 4a57 09bc
00000260: 6fc9 1b3d 5f88 743d dbbb 183c 6b9f 853c
00000270: be6d 07bd a5cd 9d3b 4d17 e63c 43e0 fcbc
00000280: 4a7d 5cbc 2858 5c3d c3b2 c13c 73b8 9b3d
00000290: df8e ed3c 5b3c f73c a611 1c3a 6047 77bc
000002a0: 583c d33c ecc9 9e3c 8b54 63bc 2f92 1d3c
000002b0: 8a87 7abd 2e9e 793d 54ee ac3c 022a 96bb
000002c0: 6545 40bd 948b 3cbd 5b2a cfbb 4a6c 063d
000002d0: ffbd cf3c 29fa 4c3d f8e1 dbbc 1629 62bd
000002e0: c0ab dd3c 56f4 0f3b 30e4 4d3b 6e2e 3abd
000002f0: e005 54bd aead 303b 3243 293d cfd6 9abb
00000300: 51de a73b 1f35 4abd 02b7 913c 3086 a73c
00000310: d66c 843d 9e7a 7a3c e3d5 8d3d 3655 b0bb
00000320: ac89 0a3c 66a1 96bd 3124 e4bc 69d7 47bc
00000330: 89f3 a63c 6a9a 18bd 5b5c 023d d83d 3dbc
00000340: 36d8 ddbc b590 173d a060 8b3d e02c c5bc
00000350: 5aab 393c 548c d03c 74c7 a73c dbb0 2dbc
00000360: 1f85 683d 5166 a33d 86cb 6bbb b5ce 9bbc
00000370: 3126 aebc 8aaa 82bd 471e 04bd 502e ab3b
00000380: 9aed 223c 2db3 ce3a ed53 6ebc 29b9 85ba
00000390: a455 b73b 0c3b 393d 1c38 7d3a 311c 6dbc
000003a0: 659c 4bbc 0ea1 7cbb 1743 55bb 50c5 1a3b
000003b0: 5b78 4cbb dab9 33bd 67f8 18ba e2b8 9ebd
000003c0: daa3 bf3c dcb9 9cbc 8adb 13bd 787f 053d
000003d0: 8438 093d 33ec 353c 06d3 86bc c786 4dbd
000003e0: a649 b8bc 024b 543c f370 94bc 5920 063b
000003f0: 5b6b a1bd 94f7 5cbc f858 b3bc cc36 b1ba
0.042981576 -0.03423517 -0.021695318 -0.025243808 -0.025599882 0.025253631 -0.046342786 -0.009776608
0.019615026 0.01863512 -0.007893969 0.03261251 0.0044526425 0.0044815885 0.04590038 0.09486783
0.0417341 -0.00070989574 0.009131981 -0.001994556 0.013735092 0.06120342 0.045378823 -0.020825632
0.048305444 -0.018403871 -0.0018505303 -0.011179893 -0.045323677 0.047750466 0.0122413775 -0.013868075
0.024113163 0.04558408 -0.026222007 0.09020236 0.0017551484 0.012392794 0.024137976 0.023334052
-0.0017627672 0.024170725 0.0035936725 -0.0020455199 0.0027852727 -0.0477426 0.051143497 0.030363375
-0.0044577927 -0.007745302 0.00980979 0.033547457 0.03747744 0.022111973 -0.046511456 0.03693807
-0.0018962843 -0.03351226 -0.0026227338 -0.032539036 -0.046794847 0.057251018 0.01625572 0.005723053
0.024266083 -0.0034335041 0.023842987 -0.045937832 0.0047883093 -0.014469461 -0.014531524 0.006585699
0.025633672 -0.033793677 -0.018699298 0.00036441395 0.034427058 0.029253332 -0.0173198 0.048593067
-0.0031261533 0.021866206 0.05005644 -0.051729333 0.037644334 0.009729491 0.015192963 -0.02172423
0.009425181 -0.02940327 -0.032800287 -0.002599892 0.023911534 0.009758492 -0.059730005 -0.070158325
0.010387996 0.003871594 0.0042775692 0.012904314 0.0059677972 0.038734127 -0.009039757 0.03121898
-0.01795883 0.005593936 0.061655533 0.01640404 -0.04769675 -0.012504376 0.0018871579 -0.055339422
0.01427535 0.041936442 -0.026833724 0.03730503 -0.036210757 0.027619815 0.007178039 -0.024310362
0.008161598 0.049609777 -0.031072251 0.015408576 0.00097610854 0.016038403 -0.044150054 0.013169658
-0.034104533 0.0068404023 -0.016143223 0.014167315 -0.013470597 0.032834318 -0.030304922 -0.018770546
-0.02248516 -0.012824216 0.01996225 -0.019374477 -0.07389463 0.03463937 0.001650661 -0.01324004
0.031132918 -0.027470728 0.013481717 0.0069185398 0.040504333 0.0014931059 -0.067438126 -0.008382628
0.0380339 0.059700366 0.009322132 0.016311368 -0.033063643 0.0048157745 0.028087283 -0.030868655
-0.013457606 0.05379501 0.02364481 0.0760354 0.02899879 0.030180147 0.00059535576 -0.015092701
0.02578561 0.019383393 -0.013875137 0.009617372 -0.061164416 0.060941868 0.021109737 -0.0045826444
-0.04694118 -0.04603155 -0.006322188 0.032818116 0.025359152 0.05004326 -0.026841149 -0.055214964
0.027059436 0.0021965704 0.0031416528 -0.045454435 -0.051763415 0.002695899 0.041323848 -0.004725314
0.0051229377 -0.049367066 0.01778746 0.020449728 0.06466071 0.015288023 0.06925561 -0.0053812517
0.008455675 -0.07355003 -0.027849289 -0.012197354 0.020379798 -0.037256636 0.03182636 -0.011550389
-0.027080636 0.037003238 0.06805539 -0.02406925 0.011332357 0.025457539 0.020480849 -0.010601248
0.05676758 0.079785 -0.0035979464 -0.019019464 -0.021258445 -0.06380184 -0.032255437 0.0052240267
0.009944344 0.0015769951 -0.014546377 -0.0010202277 0.005594926 0.045222327 0.0009659545 -0.014472053
-0.012427424 -0.0038548145 -0.003254121 0.0023616143 -0.0031199667 -0.043878414 -0.00058353547 -0.07750107
0.02339356 -0.019131593 -0.03609804 0.032592267 0.033501163 0.011103678 -0.016458046 -0.05017736
-0.022496056 0.012957336 -0.018120265 0.0020466058 -0.078818046 -0.013486762 -0.02189301 -0.0013520359

basis_comm_weights f4 [1, 5]
00000000: a6c0 503e 5740 303f 3c30 b03e 4d73 ca3e
00000010: 53d2 4c3e
0.2038599 0.68848175 0.344118 0.39541093 0.20002107

bias f4 [16, 768]
00000000: d3ae f0bb fc96 e13b 90bc c5bc f49c 993c
00000010: f9df 8f3c ab78 0cbd 7a19 64bd a24c 893d
00000020: baa5 89bb 0cdc 3c3d f662 d9bc fd9d 063d
00000030: bcf9 ec3c d23e 133b 653a bebd 0c1f 90bc
00000040: 9802 383d 64db 11bc 44e7 39bb 5073 553d
00000050: eda1 7dbc 5c82 edbb b96d ec3c 2ee2 89bd
00000060: 3e36 7dbb a0ef e73c 1503 863c ced4 7b3b
00000070: 7f75 27bc fc73 0e3d 4aaf bcbb 2dd6 103d
00000080: ccb3 9fbd c3df 9d3d f93c ebba 2899 2cbd
00000090: 1fb6 3fbd e683 b7bc b83a e0bb ebd2 4bbd
000000a0: 90d4 a03b 77d9 ee3c 5029 353d e1bd 02bc
000000b0: babc a43d 3603 a3bc 926a 403d 865e 803c
000000c0: c776 5ebd 2f33 123d dcd5 da3c 763e 163d
000000d0: 85eb 8bbd 7746 2a3c bbef babb 95bb 4a3c
000000e0: 8d5c 453d 29e4 573a a29e 923c 4a72 4abc
000000f0: 35de 143d 9314 3b3d 11d3 92bd 2ea5 0dba
00000100: 572f ac3b 933b 6d3d 435f c63c 65f3 4bbd
00000110: d393 253d 82f0 afbc 1398 c9bc afe6 033d
00000120: 147a 34bc 0959 95bb 7fec 993c 1ddb acbc
00000130: ee18 c53b 7fbb 0fbd 34e0 b9bb 5dbd c9bc
00000140: e940 923b 8e39 e33c db04 093d f491 133d
00000150: 3531 91b9 1769 7c3c 7db8 b6bd 1f58 4ebb
00000160: a887 0d3d c009 973d f424 f2bc b882 5c3d
00000170: 96b5 98bc b844 32bd 8bed 9d3d de2d 3dbd
00000180: 04fe 3a3d 10bd 893c a0d6 ab3c 47dc 5fbc
00000190: 4871 943c 5d14 30bc 2b33 08bd 552f 323d
000001a0: 3734 85bb 4de1 51bd 5b90 213d 359e a03a
000001b0: 9f84 94bc 1533 283c 99bc 4a3c 1306 953c
000001c0: 2169 8bbd 8e4a 67bd 6ac1 d6bc 80b1 f03c
000001d0: 1dc8 72bd 7053 93ba ed2d 89bd 2758 a6bd
000001e0: fee4 9fbd 11c9 2d3d 2579 bdbb f8d2 c0bc
000001f0: ea44 fbbc da39 3fbb 9840 cdbb 27aa 26bd
00000200: 5d88 393c b86d b3bd 0d39 eebb f620 c5bb
00000210: 51fa aebc 6b6c d93c 27f9 d63a 2951 7fbd
00000220: 15ee 1b3d bcc3 a3ba babf a23d d7a0 5ab9
00000230: 122e 113d 5119 453c a262 25bd cd61 a33c
00000240: 285d f7bb c442 b83d bad7 7c3d e774 82bc
00000250: 7a07 5fbc 653b bc3c e360 0c3d 1e2b 643c
00000260: 9c1d 4abc 1afe 45bd a98d 0e3d ed2b 473d
00000270: 36bd 463d e158 19bd 5a85 17bd 300a c03c
00000280: e35a a03d ac08 f23c 5b2b 393d 1502 91bb
00000290: 4d5f 833d b36a b5bc b929 0cbd a55b 16bd
000002a0: e178 adbd 7a30 b73d 359a 0c3d 0f1f 15bc
000002b0: 3ecc 063d 1d0f f23b 3a88 00bd 9db6 afbb
000002c0: a8c0 12bd 6dcb febb 20b0 72bb 9385 9b3c
000002d0: 1eab 8bbc da83 8c3d 50c5 ff3c 9c5d 573d
000002e0: 3c0a 3dbd 267f 213d d10f 823c 628d fb3c
000002f0: c07f 8cbc 9586 d63c 2d51 3ebd 7519 63bc
00000300: 95e8 1abc fbe2 f2bc 0986 7f3b ff32 113c
00000310: 083f a53b dbf3 d53a 971c fcba afca bdbc
00000320: 5895 8f3d e490 50bb 7534 61bc 8845 6cbd
00000330: faf5 073d f529 e8bc 8ef4 db3b afb4 2d3c
00000340: ec0c 363a a57d a7bc bc3f bdbc 786d 0cbd
00000350: 9e65 a63c d769 e93c adfc 1bbc 08c8 873c
00000360: 4747 b03b 6a04 883c a2a6 5fbc 26fc 31bd
00000370: 5135 163d 2b32 ecba 1c0e 92bc 084e 673d
00000380: 8be5 2fbd f83d 91bc 62b7 dc3c 8faa 653c
00000390: 6806 103d 13a2 d0bb 5883 2e3d 39b6 d7bc
000003a0: f9b2 8b3d 3c6a 263d 332d 883d db32 82bd
000003b0: 9903 4b3b 5f2e 60bd 0ae4 843d 997a 8ebc
000003c0: 088d 353d c337 073b 752a a13c 3834 883d
000003d0: 2004 07bd abc8 1b3c f7cb 343b b432 59bd
000003e0: 165c dc3c 348e 413d 6e7e f7bc 2ea4 67bc
000003f0: 55c5 b53c 4eef 0fbd f91b 9bbc 18a8 6c3d
-0.0073450594 0.006884454 -0.024137765 0.018751599 0.017562853 -0.034294765 -0.05568836 0.0670407
-0.0042006643 0.04610829 -0.026536446 0.032865513 0.028927676 0.0022467864 -0.092884816 -0.01759293
0.04492435 -0.008902404 -0.0028366605 0.052111924 -0.015480501 -0.007248206 0.028860914 -0.067325935
-0.0038637067 0.028312504 0.016358892 0.0038426402 -0.010220884 0.03477858 -0.005758201 0.035360504
-0.077979654 0.07708695 -0.0017947248 -0.04213825 -0.046804544 -0.022401761 -0.0068429373 -0.049761694
0.004908152 0.02915643 0.04422885 -0.007979841 0.08043809 -0.019898992 0.046976633 0.015670072
-0.054312494 0.035693344 0.026713304 0.03668066 -0.06832031 0.010392777 -0.0057048476 0.012373825
0.048183966 0.00082355976 0.017897908 -0.01235635 0.036344726 0.045673918 -0.07169164 -0.0005403337
0.005254667 0.057918143 0.024215346 -0.049792666 0.04042418 -0.021476988 -0.024608647 0.03220242
-0.011015434 -0.004557733 0.018789528 -0.021100575 0.0060149347 -0.03509092 -0.005672479 -0.024626428
0.0044633043 0.027737405 0.033451896 0.036027864 -0.00027693217 0.015405915 -0.08921907 -0.003148563
0.0345532 0.073749065 -0.029558636 0.0538356 -0.018641274 -0.043522567 0.07711323 -0.04618632
0.045652404 0.016813785 0.020976365 -0.013663358 0.018120423 -0.0107470425 -0.033251923 0.04350217
-0.0040650624 -0.051240254 0.03944431 0.0012254181 -0.018129645 0.010266085 0.012374067 0.018191373
-0.06807161 -0.056467585 -0.026215274 0.029381514 -0.059272874 -0.0011240076 -0.06698213 -0.081222825
-0.07807349 0.04242808 -0.005782264 -0.023538098 -0.03067251 -0.002917877 -0.0062638037 -0.040689614
0.011324015 -0.087611616 -0.0072699846 -0.006015892 -0.021359595 0.026540956 0.0016401157 -0.06233326
0.03806885 -0.0012494246 0.07946725 -0.00020850018 0.035444327 0.012029962 -0.040377267 0.019944096
-0.007548947 0.089971095 0.06172917 -0.015924884 -0.013612622 0.02297754 0.034272086 0.013926296
-0.012336161 -0.048338033 0.034803066 0.048625875 0.04852029 -0.037438277 -0.03699241 0.023442358
0.07829835 0.02954515 0.045207363 -0.004425297 0.064146616 -0.022145605 -0.034219477 -0.036708493
-0.084703214 0.08944793 0.03432675 -0.009101643 0.032909624 0.0073870555 -0.031379916 -0.0053623454
-0.035828263 -0.007775715 -0.0037031248 0.018984592 -0.017049368 0.06861086 0.031222016 0.052579507
-0.04615234 0.0394279 0.015876682 0.030707065 -0.01715076 0.02618722 -0.046464134 -0.01386105
-0.009454866 -0.029649248 0.0038989803 0.008862256 0.0050429143 0.0016323285 -0.0019234595 -0.023167936
0.07010907 -0.0031824643 -0.013745417 -0.057683498 0.033193566 -0.02834032 0.006712503 0.01060216
0.00069446745 -0.020445654 -0.02310168 -0.034284085 0.020312127 0.028492851 -0.009520692 0.016574875
0.0053795907 0.016603667 -0.013650568 -0.043453358 0.03667194 -0.0018020322 -0.017828993 0.0564709
-0.04294352 -0.017729744 0.026942912 0.014017715 0.03516236 -0.006366977 0.042605728 -0.026332008
0.06821246 0.040628657 0.06649246 -0.06357356 0.0030977486 -0.054731723 0.064888075 -0.017392443
0.04432395 0.0020632602 0.019673565 0.06650585 -0.03296292 0.009508292 0.0027587393 -0.05302687
0.026899379 0.047254756 -0.030211654 -0.014138265 0.022188822 -0.035140328 -0.018934237 0.057777494

weight f4 [768]
00000000: f592 773f ca4b 753f b6d9 843f 79cf 733f
00000010: c0c6 703f 2f15 703f e04b 923f e64b 643f
00000020: 4b92 813f fd30 823f 4aaa 773f ea37 8b3f
00000030: c340 723f a6ea 823f 2122 573f 96cc 733f
00000040: 0925 863f dfda 7f3f 8699 7f3f 278f 683f
00000050: 2ba3 583f c060 783f 44c8 883f bf06 893f
00000060: 00fa 803f e74c 6e3f 06fe 7c3f 3296 723f
00000070: 8827 833f db43 833f d1aa 803f 42d3 7d3f
00000080: c3b9 5b3f df41 933f ddee 803f 2bfe 7e3f
00000090: 9074 7a3f 10c0 753f 9025 7e3f cf1b 743f
000000a0: 113e 7a3f f84b 803f 10f0 733f 119c 803f
000000b0: 190b 803f 2c9a 7b3f f0df 883f c781 6f3f
000000c0: 3673 6c3f 917f 693f b33d 733f d2ee 8b3f
000000d0: 21c9 5a3f 5305 7f3f ec38 823f 7d7b 803f
000000e0: 65f1 733f 8fa5 673f 6d8e 803f 0963 833f
000000f0: d8a2 673f a6a7 8e3f c300 5f3f 7bd1 6f3f
00000100: fe25 793f 79a8 723f 92d0 7b3f f1cd 893f
00000110: c0aa 833f 1e08 6d3f acd4 7f3f ced8 843f
00000120: 8344 763f d4d4 7c3f d457 843f 2b1c 673f
00000130: 55b3 6b3f 4c9d 6a3f 74b2 823f bbbd 6d3f
00000140: 389f 7e3f 642f 823f 92cd 8d3f deb5 673f
00000150: 4d21 803f c434 763f 5c11 633f b1a9 793f
00000160: 35f5 753f b03d 4a3f 49c8 863f a405 903f
00000170: a536 6f3f 0131 713f 5770 5c3f d735 883f
00000180: ae0d 7a3f 6407 683f 6c44 813f bd8f 803f
00000190: f7c2 7f3f 1ef4 763f 2dc2 7d3f 2d64 863f
000001a0: d338 833f cc42 8e3f 24c2 8e3f 1989 723f
000001b0: 35fc 863f 6cf1 783f d692 6d3f 38f6 6e3f
000001c0: 19a0 513f 460e 533f b70e 773f ddb3 843f
000001d0: 7839 8c3f 2f29 803f 2ded 563f 1f00 903f
000001e0: 1731 623f d0f1 893f 2c1b 783f 82da 6b3f
000001f0: 76e9 863f fc60 7f3f d738 823f 49c3 863f
00000200: e223 7e3f 9dba 603f 2ecc 723f d207 813f
00000210: 9efd 803f 2dfa 7e3f 70d4 7c3f c175 903f
00000220: b72d 763f a89e 7b3f a3ee 753f bf9f 7b3f
00000230: 39d2 6e3f 247e 873f 9d81 653f 7aa5 823f
00000240: 2384 783f 3e61 5e3f 341e 873f a0d9 7c3f
00000250: e591 7c3f 0cd2 803f d748 683f a050 7e3f
00000260: 9ddc 7b3f bb19 6a3f de1d 793f 5ada 943f
00000270: e142 573f 02c2 693f a287 5e3f 351e 6a3f
00000280: bf02 5c3f 082b 8a3f 2e10 883f 70f8 7d3f
00000290: 2e35 8d3f 188e 703f 4bdf 863f 1394 873f
000002a0: 5ace 5f3f 868a 9b3f 235d 6d3f 8d37 833f
000002b0: e85f 6e3f 970f 813f 5b0a 663f 2811 6d3f
000002c0: 95e4 843f 3c31 813f 6956 803f 3a81 8b3f
000002d0: 088a 6b3f c9b7 8f3f 32c5 6d3f 9d18 5c3f
000002e0: 8666 6d3f 5e3c 653f 1e6e 783f d180 7a3f
000002f0: 423d 853f 36eb 813f 8e00 603f ff39 763f
00000300: 8196 7c3f 8d86 823f 2670 7d3f 702b 813f
00000310: bb7d 823f fa13 803f cca6 803f 4628 873f
00000320: 437c 8c3f c7fd 813f b719 823f 2f15 763f
00000330: e7fc 843f 8a3c 873f aea0 7b3f 913c 7e3f
00000340: befa 823f 2485 773f 3d89 6c3f dfc4 863f
00000350: 1b00 823f 7c77 8b3f 5e79 7d3f 34e0 813f
00000360: 6174 783f 3695 883f e355 7b3f dd55 833f
00000370: 4222 693f ad5f 813f 710b 843f e76b 683f
00000380: 4e8f 643f 42e9 7e3f e061 5c3f a5c0 733f
00000390: e9cc 713f c4c9 7c3f 3d19 803f fea0 823f
000003a0: 5506 843f e043 6b3f fc90 683f 5035 5c3f
000003b0: cab6 7c3f bbeb 813f 26da 903f 72e6 8b3f
000003c0: a74f 8b3f b114 803f e8dd 773f 6c67 8c3f
000003d0: 9f41 733f fa87 7c3f 324b 743f 1da5 8f3f
000003e0: 9efe 6b3f 4be5 803f a85d 843f 018e 813f
000003f0: 1d75 6f3f 540c 813f cfda 883f b174 813f
0.96708614 0.9581877 1.037894 0.95238453 0.9405327 0.93782324 1.1429405 0.8917831
1.012277 1.01712 0.96744215 1.0876439 0.9463007 1.0227859 0.8403645 0.9523405
1.0480052 0.99943346 0.99843633 0.90843433 0.84623975 0.9702263 1.0686116 1.0705184
1.0076294 0.93086094 0.9882511 0.9476043 1.0246439 1.0255083 1.0052129 0.9915048
0.85830325 1.1504477 1.0072895 0.9960658 0.9783411 0.9599619 0.99276066 0.9535493
0.97750956 1.0023184 0.9528818 1.0047628 1.0003387 0.9828212 1.069334 0.935574
0.923633 0.91210276 0.9501602 1.0932257 0.8546315 0.996175 1.0173621 1.0037686
0.95290214 0.90487 1.0043465 1.0264598 0.90482855 1.1144912 0.8711054 0.93679017
0.97323596 0.9478832 0.9836513 1.0765973 1.0286484 0.9259051 0.99933887 1.0378664
0.9619829 0.9876225 1.0339303 0.90277356 0.92070514 0.91646266 1.021071 0.9286763
0.994617 1.0170712 1.107836 0.9051188 1.0010163 0.96174264 0.88698363 0.97524554
0.9607728 0.7900038 1.0529872 1.1251721 0.93442756 0.942154 0.86108917 1.0641431
0.97677124 0.9063628 1.0099006 1.0043865 0.9990687 0.96466243 0.99124414 1.0499321
1.0251716 1.1114135 1.1152997 0.94740444 1.0545717 0.9724338 0.9280218 0.9334445
0.81884915 0.82443655 0.9650683 1.036739 1.0955038 1.0012568 0.8395565 1.1250037
0.88356155 1.077692 0.9691646 0.9213029 1.0539997 0.9975736 1.0173596 1.0528346
0.992735 0.8778475 0.94842803 1.0080512 1.0077398 0.9960049 0.98761654 1.1285936
0.96163505 0.98288965 0.96067256 0.9829063 0.93289524 1.058537 0.896509 1.020675
0.97076625 0.8686713 1.0556092 0.9876957 0.9866012 1.0064101 0.90736145 0.99341774
0.98383504 0.9144551 0.973112 1.1629136 0.84086424 0.9131166 0.8692571 0.9145234
0.8594169 1.0794382 1.0629938 0.9920721 1.1031854 0.9396682 1.0536894 1.0592064
0.8742424 1.2151649 0.9272024 1.0251328 0.9311509 1.0082883 0.8985955 0.92604303
1.0382258 1.009315 1.002637 1.0898812 0.92007494 1.1227962 0.9287902 0.85975057
0.92734563 0.8954524 0.97043025 0.9785281 1.0409319 1.0149906 0.87500846 0.96182245
0.9866715 1.0197312 0.9899925 1.0091381 1.019462 1.0006096 1.0050902 1.0559165
1.0975422 1.0155572 1.0164098 0.96126074 1.038968 1.056535 0.9829205 0.99311167
1.023277 0.9668753 0.9239691 1.052883 1.0156282 1.0895839 0.99013317 1.0146546
0.9705258 1.0670536 0.9817793 1.0260578 0.910679 1.0107323 1.0315992 0.90789646
0.89281166 0.99574673 0.86086845 0.9521583 0.94453293 0.9874537 1.0007702 1.0205381
1.0314432 0.91900444 0.9084623 0.8601885 0.98716414 1.0150064 1.1316574 1.0929701
1.0883683 1.0006315 0.9682298 1.0969062 0.95022005 0.98644984 0.9542724 1.1222264
0.9218539 1.0069975 1.0341082 1.0121461 0.93538076 1.0081887 1.0691775 1.0113736

bias f4 [768]
00000000: 7861 b2bc a4db cd3b 4e3b 65bd aca4 213d
00000010: 9bad 0b3d 5f3c 8fbd d8fe 05be f890 073e
00000020: 2cd3 e23c ce4d f73d 76d1 19bd dec8 cb3d
00000030: 84cf 4c3d ae3a c33b 3b14 2dbe dcfd 1dbd
00000040: 45b3 803d cfc0 4ebd 2bd1 e1bc 9f37 e33d
00000050: dcbc 7bbd 542f 0dbd fe7e a43d 37bc f9bd
00000060: 5952 d53b 2d13 7d3d e676 ff3c 3676 a73c
00000070: 1b91 f1bc d11a 013d d407 3abd 6394 9e3d
00000080: 3012 1cbe 5de9 203e a17e 503c 394a b5bd
00000090: f4df f0bd 1e68 11bd b4e5 81bc bd52 a3bd
000000a0: 9609 ee3c 1ad9 383d d678 d63d bc52 d9bc
000000b0: 7c9b 313e 0678 4cbd 5705 9c3d 60f5 553d
000000c0: 3ad3 babd 1850 aa3d 0c56 5b3d 625c 943d
000000d0: db56 17be 4d13 e63c 69a6 0cbc a29f 3d3d
000000e0: 0066 c83d 86a9 15bd f8d5 d33c 46c6 8b3c
000000f0: 288c 9b3d 8710 b73d 58f1 0abe 2dda 3bbc
00000100: 2bed a73b 1ac0 173e 088a eb3c 233e e3bd
00000110: b696 e33d f88b 7dbd 93c1 92bd 1dca a73d
00000120: abdc ddbc bba3 45bc 7c8b 2f3d 3dfc d0bc
00000130: 5a05 9fbc 278d 5bbd bd02 5c3c 9666 81bd
00000140: 8d2e 913c a4ef 163d 1572 c93d a1d3 993d
00000150: fb6a b93c ad38 423d 7440 2fbe d84e 663c
00000160: e7d0 a13d dca8 303e bf15 83bd b1fa 1c3e
00000170: 5b70 5fbd ce2f ebbd 7ef8 063e 1cce ccbd
00000180: e8f6 d43d eb2b 123d c449 5a3d dd04 3eba
00000190: 1901 433d 821b b3bc 0dc1 2bbd b3c6 5a3d
000001a0: 9113 81bc d753 0dbe 0312 b23d f3dd 38bd
000001b0: cef6 22bd f254 a9bb 2b19 193d adc1 513d
000001c0: 35a9 1fbe fae8 22be 67b1 93bd b056 5c3d
000001d0: ace1 d6bd f3cd 903b 9503 25be db54 2abe
000001e0: 0c00 12be c1b9 b13d 69b8 063b d358 4abd
000001f0: 6afe 94bd 1e3b 693c aba8 8bbc 03f7 dcbc
00000200: 8e1c 213c 0334 2cbe 7564 123c ced2 ce3b
00000210: dbf8 7cbd ad97 eb3c f42f 4b3c 6e83 ffbd
00000220: 0647 2c3d e7a9 8bbb 9c89 273e aa2a c33c
00000230: 18d1 793d 25a1 0c3d 0b28 46bd 10ac 873d
00000240: ea5e e2bc ae1c 2c3e e0ba 113e 2501 2f3c
00000250: 3d6d f1bc bbff 3e3d 920b 9f3d 2c51 2c3c
00000260: 1b49 2fbc 7c8b b4bd f2d9 053d 9c11 223e
00000270: 0432 da3d b83b bdbd f3b7 a0bd f7bb 1a3d
00000280: aa74 1e3e c020 7f3d bf3b cc3d 39df fa3b
00000290: 28d6 063e 968b fcbc af13 94bd 0158 9abd
000002a0: 019c 19be 058a 5f3e ea99 873d d98c 0fb9
000002b0: 1e75 9d3d 46aa ac3c ed70 abbd 983d 8cbc
000002c0: d62b e5bc d7b5 5ebc 602a f3bc 3632 033d
000002d0: 6dcd 21bc a8df f63d 2cd7 9d3d cc35 d83d
000002e0: 712c f5bd 6b09 d03d aa57 e33c 9911 ad3d
000002f0: c28a 05bd e4d6 853d b9e6 6cbd bd5c 04bd
00000300: 6202 61bb ca24 2bbd 9953 30bc c79d 11bb
00000310: 6783 7f3c 5c08 7e3c eebc 023c b05b 9abd
00000320: 5bd5 243e dde7 4abc c532 a5bc 5468 a7bd
00000330: cc6b b53d e845 eebc 5279 6b3b f468 493c
00000340: 21d4 793b 73a9 abbc 2523 74bd f1c5 1bbd
00000350: 8903 f53c b75d 3b3d 6eaf d5bc 8d06 8b3d
00000360: 0cd3 b2bc 56f6 823d e228 80bc 1cb7 d4bd
00000370: 1c0b 943d 8bc6 9a3c a287 02bd bf62 0a3e
00000380: 1612 aabd cdfc 4abd 5227 923d df60 e63c
00000390: b243 3a3d 40f0 c63c 2dad a43d b46b 37bd
000003a0: 66d6 0c3e 3278 ef3d 283d 093e 290d 20be
000003b0: 4fba 843b ec57 17be 21ec 163e a0f2 c0bd
000003c0: d3c9 e03d 9080 46bc 86d3 163d 55aa 093e
000003d0: a0b1 41bd 8aca 1dbc 818c 663b 4800 fbbd
000003e0: 6625 993d 9fff a43d e1fa 97bd 5889 0bbd
000003f0: c6fe 5b3d 02c5 a0bd 6199 4ebd 82ac 173e
-0.021774992 0.0062822867 -0.05596476 0.039463684 0.03410111 -0.06993937 -0.13085496 0.13238895
0.027688585 0.12075387 -0.037553273 0.09950422 0.05000259 0.005957923 -0.16902249 -0.038572177
0.06284193 -0.050476845 -0.02756556 0.11094593 -0.061459407 -0.034468964 0.08032034 -0.12194102
0.0065100607 0.061785866 0.031184625 0.02044211 -0.029488137 0.031519715 -0.04541762 0.07743146
-0.15241313 0.15714021 0.012725503 -0.088520475 -0.11761466 -0.035499685 -0.015856601 -0.079747654
0.029057305 0.04512892 0.104722664 -0.026528709 0.17344469 -0.04991915 0.07618206 0.05223596
-0.091223195 0.08316058 0.053548858 0.07244183 -0.14779226 0.028085375 -0.008584597 0.046294816
0.0978508 -0.036538623 0.025858864 0.017062318 0.07595092 0.08938699 -0.13568628 -0.011465591
0.005124708 0.14819375 0.028752342 -0.11095836 0.1111273 -0.061901063 -0.071658276 0.08192847
-0.027082762 -0.012062962 0.042857632 -0.025510902 -0.019411732 -0.05360141 0.013428387 -0.06318395
0.017722392 0.036849633 0.098362125 0.07511068 0.02263402 0.04741733 -0.1711443 0.014056884
0.07901173 0.17251915 -0.06400632 0.15330006 -0.05455051 -0.114837274 0.1318073 -0.1000025
0.10398656 0.035686415 0.053293005 -0.00072486495 0.04760847 -0.021863703 -0.041932154 0.05341215
-0.0157564 -0.13801514 0.08694842 -0.045133542 -0.039786153 -0.005167597 0.037377518 0.051210094
-0.15591891 -0.15909186 -0.07211571 0.05379361 -0.10492262 0.0044190823 -0.16114648 -0.16633932
-0.1425783 0.08678008 0.0020556694 -0.049401116 -0.07275088 0.014235286 -0.0170482 -0.026973253
0.009833468 -0.16816716 0.008935084 0.006311751 -0.061760765 0.028758848 0.01240157 -0.1247624
0.04205992 -0.0042621973 0.16361088 0.023824055 0.060990423 0.034333367 -0.04837803 0.06624615
-0.02763315 0.16807815 0.14231443 0.010681425 -0.029471034 0.046630602 0.07765879 0.0105174
-0.010698582 -0.08815667 0.032678552 0.1582703 0.10654071 -0.09239906 -0.078475855 0.037776913
0.15474191 0.062287092 0.09972333 0.0076560047 0.13167632 -0.030828279 -0.07230317 -0.07536317
-0.15000917 0.21829994 0.06621154 -0.00013690013 0.07688354 0.021077286 -0.08371148 -0.017119214
-0.027975004 -0.013593159 -0.029683292 0.032030307 -0.0098756375 0.12054378 0.077070564 0.10557136
-0.11971367 0.10158046 0.027751762 0.08450622 -0.032603033 0.06535128 -0.05783722 -0.032315005
-0.0034333696 -0.04178313 -0.010762119 -0.0022219287 0.015595294 0.015504923 0.007979615 -0.07537019
0.16097014 -0.012384382 -0.02016581 -0.08174196 0.08858451 -0.029086068 0.0035930467 0.012293089
0.0038120823 -0.020954823 -0.05960383 -0.03803057 0.029908912 0.04574367 -0.026084628 0.06788359
-0.02182915 0.06394641 -0.015644494 -0.10386488 0.072286814 0.0188935 -0.03186763 0.13514231
-0.08304231 -0.049557496 0.07136406 0.028122364 0.045474716 0.024284482 0.08040843 -0.044780448
0.13753662 0.11692847 0.13402236 -0.1563002 0.00405053 -0.14779633 0.14738514 -0.09421277
0.10975995 -0.012115613 0.03682282 0.13443883 -0.047288537 -0.009630809 0.0035178962 -0.12255913
0.07477836 0.08056568 -0.07420898 -0.034066528 0.053709768 -0.07850076 -0.050439242 0.148119

weight f4 [768]
00000000: 14d3 5f3f 1f72 823f 3aff 823f 9c36 7a3f
00000010: 19de 693f 2550 6b3f d691 973f 8ec9 703f
00000020: 7d9c 723f 04c8 7e3f 380f 8b3f dc48 8c3f
00000030: 35dc 893f 3434 623f 5519 793f 46bd 5e3f
00000040: 6812 573f 3cf5 803f 495e 803f 1f58 683f
00000050: babe 843f 7f21 963f b89a 7a3f 0271 703f
00000060: 9acf 723f 0989 6c3f 4074 813f d392 723f
00000070: 95af 753f eb45 863f 755c 863f 1259 753f
00000080: 3a29 693f 209d 7a3f fe07 873f 3355 823f
00000090: 1f9c 733f fdf8 7a3f 6b6a 6c3f df24 713f
000000a0: 5bc4 6f3f 7cb6 6e3f fde5 833f 5bd4 6a3f
000000b0: a713 7d3f 5fe7 7b3f eb0e 833f e0d8 6d3f
000000c0: af57 8a3f 1b66 813f 552c 753f 1280 833f
000000d0: e0cf 833f 2e8e 803f a5d2 833f 56eb 803f
000000e0: 0e92 7e3f 84f5 6d3f b3db 773f e8c8 803f
000000f0: 77b5 473f bf35 753f 178c 6a3f 3ab8 613f
00000100: d078 8b3f fff5 773f 1f1b 713f b28d 823f
00000110: aea5 7b3f 2b97 6e3f 4137 813f 370b 7e3f
00000120: 9733 7a3f f4dc 673f ce87 813f 2118 823f
00000130: d277 923f a2be 683f 1f37 8a3f 9019 843f
00000140: 92b5 6f3f 0745 733f 7d8d 733f 9c28 503f
00000150: 7026 713f f98c 7d3f 7655 773f d419 823f
00000160: fe52 893f 6d2e 5f3f c0b6 853f 34fb 813f
00000170: 1129 813f 8ae6 853f d8b0 943f 09f0 8d3f
00000180: 777b 813f 9603 8f3f c3bf 703f 3a25 803f
00000190: f495 7c3f e4c4 893f 3008 743f 21ab 773f
000001a0: 8e03 6c3f d447 8c3f 6091 983f d2c7 833f
000001b0: 49f6 8d3f 7393 8a3f 7fee 9d3f 24db 953f
000001c0: cac3 703f 883a 5d3f c5f2 613f c2bf 7b3f
000001d0: decd 803f 9b3f 7d3f 42d2 773f 9f70 643f
000001e0: b4f3 853f c563 603f 1fe5 673f ee32 6e3f
000001f0: 2762 933f 1bb2 873f 52b7 863f 3978 823f
00000200: 1919 923f bc9e 733f af1f 823f f084 853f
00000210: da62 773f bd56 703f dc00 743f c21d 7f3f
00000220: bf2b 663f bca3 863f 569f 803f 3774 883f
00000230: 092f 673f f279 7d3f 41b1 803f c2d2 6d3f
00000240: 5fd3 7e3f aa10 873f 4e62 813f 5218 833f
00000250: e6dc 7e3f 3727 5e3f df38 773f 5df5 7e3f
00000260: 22f2 4a3f b079 663f f854 7c3f 846a 833f
00000270: ce1e 5d3f edf7 883f 3733 7f3f d666 7e3f
00000280: ab90 6b3f d2f0 6a3f 1566 573f 6548 433f
00000290: 15e1 793f d532 673f 4532 8a3f bcb5 7a3f
000002a0: 9363 6f3f 5665 983f a189 803f 30df 6f3f
000002b0: 267d 5e3f 7e25 7a3f 9cf3 6d3f 4944 5d3f
000002c0: 1495 763f 0e0f 943f bb2a 8d3f ba78 773f
000002d0: c2d1 693f b4e3 593f 42fb 8b3f 4723 593f
000002e0: 3c43 803f a832 853f 01c5 7e3f 198f 793f
000002f0: 00ca 783f 83b6 6c3f 838a 823f 470c 7e3f
00000300: 43b0 803f c619 783f dbf7 8c3f a19e 693f
00000310: 80b2 5f3f 8c87 7c3f 6dca 8d3f 0d31 673f
00000320: 975d 843f d09a 7d3f f47e 913f 181e 883f
00000330: 971a 793f 689b 9f3f d18d 6d3f a982 793f
00000340: fc19 813f 32a8 8e3f 5403 7a3f 7ce8 493f
00000350: 6542 823f f40b 7f3f 5546 833f 76c1 853f
00000360: a45f 8b3f 1566 823f fdb9 853f eae4 823f
00000370: f21d 873f 0e73 743f 8df6 3d3f b835 7a3f
00000380: 2fc0 753f 0e75 7f3f 23f3 723f 10c3 833f
00000390: b361 4d3f 0ebd 6d3f 3459 803f a371 7b3f
000003a0: 5a66 803f e302 7d3f 9083 6d3f 589c 5c3f
000003b0: e64f 663f fd8d 953f beba 833f 7d06 983f
000003c0: 139b 7e3f be97 653f 31d5 843f da66 573f
000003d0: c543 763f dfbd 8b3f d0fe 783f 91ba 803f
000003e0: 797e 503f b003 6e3f fa6b 8c3f 0ad5 743f
000003f0: 6b4f 8e3f eb57 833f be05 833f 155d 753f
0.87431455 1.0191077 1.0234139 0.9773958 0.9135452 0.91919166 1.1841381 0.9405755
0.9477003 0.9952395 1.0864019 1.0959735 1.0770327 0.88360906 0.9730428 0.8700756
0.8401246 1.007484 1.0028774 0.9075946 1.0370705 1.1728972 0.9789233 0.93922436
0.94848025 0.923966 1.0113602 0.94755286 0.9597104 1.0490087 1.0496966 0.95839036
0.9107853 0.97896004 1.0549314 1.0182251 0.95160097 0.98036176 0.9234988 0.94196886
0.9365899 0.932472 1.0304562 0.9173028 0.9885811 0.9839992 1.0238928 0.9290905
1.0808009 1.0109285 0.9577077 1.0273459 1.0297813 1.004339 1.0298659 1.0071819
0.9944161 0.9295275 0.9681961 1.0061312 0.7801127 0.95785135 0.9162001 0.8817173
1.0896244 0.96859735 0.9418201 1.0199492 0.9829968 0.93199414 1.0094987 0.9923586
0.9773497 0.9057152 1.0119569 1.0163614 1.1442816 0.9091588 1.0798072 1.0320301
0.9363643 0.950272 0.9513777 0.81311965 0.94199276 0.9904323 0.9661478 1.0164132
1.0728452 0.87180215 1.0446396 1.0154786 1.0090657 1.046098 1.1616468 1.1088878
1.0115803 1.1172969 0.94042605 1.0011361 0.9866631 1.0763211 0.95324993 0.96745497
0.92192924 1.095942 1.1919365 1.0295355 1.1090785 1.0826248 1.2338408 1.1707501
0.9404875 0.86417437 0.8826106 0.98339474 1.0062826 0.9892518 0.968052 0.89234346
1.0464997 0.87652236 0.90583986 0.9304646 1.1514329 1.0601228 1.0524695 1.0192939
1.1413909 0.95164084 1.0165919 1.0431194 0.9663521 0.9388235 0.9531381 0.9965478
0.899105 1.0518718 1.0048625 1.0660466 0.90306145 0.990142 1.0054094 0.92899716
0.99541277 1.055196 1.0108125 1.0241797 0.99555814 0.8677859 0.96571153 0.99593145
0.79275715 0.9002943 0.9856715 1.0266881 0.8637513 1.0700661 0.9968752 0.99375665
0.9201762 0.9177371 0.8414014 0.7628234 0.9760907 0.9031194 1.0796591 0.97933555
0.93511313 1.1905925 1.0042001 0.9369993 0.8690971 0.9771346 0.92949843 0.8643232
0.96321225 1.1567094 1.1028665 0.9666859 0.9133569 0.8511307 1.0936053 0.84819454
1.0020518 1.0406084 0.99519354 0.97483975 0.9718323 0.9246599 1.019852 0.99237484
1.0053791 0.9691433 1.101314 0.91257674 0.87381744 0.9864433 1.10774 0.9030922
1.0341061 0.9906435 1.1366868 1.0634184 0.973062 1.2469301 0.9279452 0.97464997
1.0086055 1.1145079 0.9766133 0.7887037 1.0176512 0.99627614 1.0255839 1.0449665
1.0888562 1.0187403 1.0447384 1.0226109 1.0556014 0.9548806 0.7420433 0.9773822
0.95996374 0.99787986 0.9490225 1.0293903 0.802272 0.928666 1.0027223 0.9822027
1.0031235 0.9883253 0.92778873 0.8617606 0.89965665 1.1683956 1.0291364 1.187698
0.99455374 0.89684665 1.0377561 0.84141314 0.9619716 1.0917319 0.97263813 1.0056936
0.8144298 0.92974377 1.0970452 0.9563757 1.1117986 1.0261205 1.0236127 0.95845157

bias f4 [768]
00000000: c222 fbbd 437a 60bd ab07 a0bd 27ec 853c
00000010: c2ba dc3d 51ce e2bd 7228 35be c683 3f3d
00000020: 9aec 233d 51f0 db3d 5b25 133e c54a e63d
00000030: 58c7 26be d70c 073e 3404 ccbc 2741 9fbd
00000040: 0105 25be 170a ac3d fc9a 213c d91e d63d
00000050: 2942 ddbc 4aa8 2f3e b23a 663b 6793 4d3d
00000060: c3f1 85bd 8fb3 a3bb 89ed 4e3e fe0d 863e
00000070: 321a 783b 8971 263d b3a9 dd3d 8762 b3bc
00000080: ceb7 bdbd a20b 81bc add0 06bd f738 5ebd
00000090: 52c1 7abd 4497 d9bc 49f5 33bd 6019 bbbc
000000a0: 58ec d4bb 100e a7bd 3140 9b3d fe29 dc3d
000000b0: 5399 ca3c 8beb 3e3c ec41 113d 883c 0bbc
000000c0: 2f28 f03d 0224 83bd 1ebb 6e3d 8310 9d3c
000000d0: 0e57 da3d 3e06 c93c 8a84 71bc 073e 123d
000000e0: 332b 9dbc b383 d73d 7dfe 39bd b071 733b
000000f0: 3f13 553e 144c 06bd dc26 b1bd 79a5 903d
00000100: 6802 d33d e1c9 013e 97d1 e93d 5454 d6bc
00000110: 0df3 b63a e7d8 adbd fa86 d6bd 0941 c83a
00000120: 92e8 18be 06de 983d a68f fdbd fa68 803d
00000130: 39bc 093e 0abd 61bd 7f31 2f3e 59dc eb3c
00000140: 51a4 543d 5e7c 223c 7b61 4bbd f773 023e
00000150: 4874 49bd 9d69 00be deb4 8ebd 1795 10bc
00000160: 6ad0 113e d4e1 ed3d 8572 37bd d2b7 fd3c
00000170: b941 293d a989 99bd 33eb 10be 9226 00be
00000180: 0340 fb3d 32e8 3bbe ba4a 54bd eab2 8a3d
00000190: 45c2 8f3d da64 25bd f828 c23d e87b edbd
000001a0: 0691 653d 8df4 0bbe 7123 0a3e ad72 603d
000001b0: 1933 d1bd 7361 d0bd 0ad6 82be 7e02 a7bd
000001c0: 0b0c 8cbd e396 2bbe 1ee5 863d 752b 53bd
000001d0: 02b4 543b d40e 11bc a67f 3abd f6ad c63d
000001e0: 775f 263e a0b2 dfbd 996f a83d 855c 70bd
000001f0: 76ea 4cbe 06e8 ce3d 8d8d 8bbd b2ad 95bd
00000200: a556 07be af38 66bc 0391 0cbd dcd6 953d
00000210: a2f2 433d 6ee0 d9bd e2a1 ce3c 475f 923c
00000220: 4891 d93d 08fb 4bbd 1270 debd b3d0 ccbd
00000230: c5eb b23d 901c e9bb 4f9a 423d 925f 393d
00000240: 0fcd 423d 965e f8bd 7691 9b3d d728 0d3c
00000250: 4dfe c73c c83b 313d 59d0 cf3c 046c c73c
00000260: 3c2d 32be c1ed b5bd c07f 6e3d cf9a 7e3d
00000270: 4d78 113e e4b0 bb3d 2ed5 993b 48d4 f4ba
00000280: b97e 12bd 7530 a2bd c83c 31be 8bbf 66be
00000290: fbdb 29bc b297 babd 0ebe 22be 920f 013d
000002a0: d49d a5bc d3dc 4e3e 85a5 c7bc 062b 22bd
000002b0: 4007 043e 059f 643c 3758 7ebd 5141 c73d
000002c0: 450d b33c 4b8d 03be 1020 3fbe 5c0f 543d
000002d0: 233f 81bd 7db4 13be b750 5fbd deca c93d
000002e0: 2c95 af3c c5e9 d7bc e6ca ec3c f76a 8bbe
000002f0: 877d 133d 95f5 35bd 963b e23c b21f d03c
00000300: 4258 0dbd 9c98 293d 165d f13d 53cc abbd
00000310: bd17 fbbd 8b83 3c3d 87b8 c83d f68b 873d
00000320: 5a80 073d 0afc 473c 7804 01be 2f78 413e
00000330: 88ad 8c3d 8d46 87be 5f5f eb3a 237a 9cbc
00000340: b02b 44bd 09de e83d 9ce4 a9bc 86a2 383e
00000350: addc a13b 6a6f 6f3d fa40 6cbd 6860 353c
00000360: 014c 983d 5b7d 863c a5fe 023d e797 a6bd
00000370: 07d3 aebd a1aa c63c a9c0 8a3e a856 543d
00000380: 9b1a 7e3d 458a b93c 058f 9abd 6ddd d9bc
00000390: fba0 623e 77c1 a4bd a478 4b3d f9ea db3c
000003a0: 78d4 383d 4545 d5bc 368c 063d b4c6 13be
000003b0: acde 443e 80cc 35be 8493 223d 1418 22be
000003c0: 357b 463c 91e9 18be 73e7 49bd 0de1 f5bd
000003d0: 55ca 52bd c279 c63d 6179 aeb9 3b30 1cbd
000003e0: 6b89 3d3e 6214 c03d 9be6 e9bd 6a5d e3bc
000003f0: 5f4d ddbd aeb8 86be a231 5fba da8e a5bd
-0.12262489 -0.054804098 -0.078139625 0.016347958 0.10777809 -0.11074508 -0.1769121 0.04675653
0.040020563 0.10739196 0.14369719 0.1124473 -0.16286981 0.13188492 -0.024904348 -0.07776099
-0.1611519 0.08400362 0.009863611 0.104551025 -0.027009087 0.17154041 0.00351302 0.050189402
-0.06540253 -0.0049957703 0.202078 0.2618255 0.003785741 0.04063562 0.10823383 -0.021897567
-0.092635736 -0.015752617 -0.032913852 -0.054253545 -0.06121952 -0.026561387 -0.043935094 -0.022839248
-0.006497901 -0.08156979 0.07580603 0.10750197 0.024731314 0.0116528375 0.03546326 -0.0084983185
0.117264144 -0.06403352 0.058283918 0.019172912 0.106611356 0.02453911 -0.014741072 0.035703685
-0.019185638 0.105231665 -0.045408715 0.003714662 0.20808123 -0.032787398 -0.0864999 0.070628114
0.10303193 0.12674667 0.11416929 -0.026163258 0.0013957933 -0.084886365 -0.104749635 0.0015278171
-0.14932469 0.074642226 -0.123809144 0.06270023 0.13450707 -0.055111922 0.17108725 0.028791593
0.051914517 0.009917347 -0.04965351 0.1273955 -0.04918316 -0.12540288 -0.069680914 -0.008824608
0.1423966 0.11615339 -0.04478695 0.030971441 0.041322444 -0.0749696 -0.14152221 -0.12514713
0.12268069 -0.18350294 -0.051829077 0.067724064 0.07019476 -0.040379383 0.094804704 -0.11595899
0.05604651 -0.13667507 0.13490082 0.054796863 -0.10214824 -0.10174837 -0.25553924 -0.08154772
-0.068382345 -0.16756777 0.065866694 -0.051555116 0.0032455926 -0.008853633 -0.04553189 0.09701149
0.16247354 -0.10922742 0.082244106 -0.058681984 -0.20011315 0.10102849 -0.06814108 -0.073085204
-0.13216646 -0.0140516 -0.03431798 0.07316372 0.047838815 -0.1063851 0.025223676 0.017867697
0.10623413 -0.04979995 -0.108612195 -0.10000744 0.08736376 -0.0071140006 0.04751044 0.04525716
0.04755884 -0.12127416 0.07596104 0.008615694 0.024413252 0.043269902 0.025367903 0.024343498
-0.17400068 -0.088832386 0.0582273 0.062159356 0.14206047 0.091645986 0.0046946025 -0.0018678987
-0.035765383 -0.07919399 -0.17308342 -0.22534005 -0.010367389 -0.09110965 -0.15892813 0.03150899
-0.02021686 0.20201425 -0.024370918 -0.03959181 0.1289339 0.013953929 -0.062095847 0.09729255
0.021856913 -0.12846868 -0.18664575 0.05177246 -0.063108705 -0.1442432 -0.054520335 0.09853147
0.021433435 -0.026356587 0.028905343 -0.27230045 0.036008384 -0.04442366 0.027616303 0.025405739
-0.034507997 0.041405305 0.11785333 -0.08388581 -0.12260387 0.046023887 0.09800821 0.06618492
0.03308139 0.012206087 -0.12599361 0.18893503 0.06869036 -0.26421013 0.00179575 -0.019101208
-0.047893226 0.11370475 -0.020738892 0.18030748 0.0049396367 0.058455862 -0.057679154 0.011070348
0.074363716 0.016417196 0.03198113 -0.08134442 -0.08536344 0.024251284 0.27100113 0.051840454
0.06203709 0.02264894 -0.0754681 -0.026594842 0.22131722 -0.08044713 0.0496756 0.026845442
0.0451245 -0.026034007 0.03284856 -0.14431268 0.19225568 -0.17753792 0.039691463 -0.15829498
0.012114336 -0.14932849 -0.049292993 -0.12005816 -0.05146249 0.09691192 -0.000332783 -0.038131934
0.18509452 0.09378888 -0.11420938 -0.027754504 -0.10805773 -0.26312774 -0.0008514171 -0.080838874
