subject-models/ada-0626/smritimandhana2023-06-26T15-34-38_smritimandhana-ada/embeddings_gs-4500.pt (torch, 836552 bytes, 168 tensors)

pre_vecs f4 [2, 768]
000000 71 79 56 bc 82 1f 86 3b b5 06 e7 3b 02 da 1a 3c
       -0.013090477 0.0040931115 0.00705036 0.009451391
000010 83 54 8b bc 5c 86 95 3b 89 e2 c0 bc 1d eb f9 bb
       -0.017008072 0.004563136 -0.02354552 -0.0076269046
000020 c9 4f c1 3c 1a 3c f3 bc c2 96 6b 3c 68 39 31 3c
       0.023597615 -0.029691745 0.014379205 0.010816909
000030 95 7a 06 bc 13 6b 58 bc b0 3a 9f bc de 1d b0 3b
       -0.008207937 -0.013209122 -0.019437164 0.005374654
000040 d2 74 14 3d 59 dc 6a 3c fe 0b 4f bc 5b c4 ea 3c
       0.03624422 0.014334762 -0.0126371365 0.028658083
000050 36 db 81 3b 3c 15 0d bc 12 fc f6 3a 41 06 65 bc
       0.0039628996 -0.00861102 0.0018843433 -0.013978542
000060 7c cf c1 3c f2 c0 77 bc d1 6b 8b bc c0 f4 e6 3b
       0.023658507 -0.015121685 -0.017019184 0.0070482194
000070 0d e2 ce bb d9 6d 57 3c e7 04 c7 3c 11 ee 23 3b
       -0.0063135684 0.013148748 0.02429433 0.0025013725
000080 e5 b5 0a bc 43 0f c3 ba e8 81 a8 bc be 2b 0c 3d
       -0.008466219 -0.0014881868 -0.020569757 0.034221403
000090 e9 11 02 3d c3 5d dc 3b 2a 78 9f bb a8 e4 f6 3b
       0.03175536 0.0067250445 -0.0048666196 0.007534582
0000a0 83 f4 8c 3c f6 39 b1 3c cd 9f c6 3b 9e d0 83 3c
       0.017206436 0.021634083 0.00606153 0.016090687
0000b0 fc 7d 43 3c 70 35 f7 bc 4f 18 0b 3c 40 d0 8e 3b
       0.0119318925 -0.030176848 0.008489682 0.0043583214
0000c0 3d 77 4f 3b c4 82 c0 bb da 9b c4 3c ff 7e 33 3c
       0.0031656765 -0.0058749635 0.024000097 0.010955571
0000d0 a4 45 f5 3b 05 20 07 bc e7 80 90 bc 34 74 fa bc
       0.0074851085 -0.00824738 -0.01763959 -0.030572988
0000e0 0f 00 87 3c da d3 65 3c c4 28 89 3c 1c d2 8f 3c
       0.01647952 0.01402756 0.016743071 0.017556243
0000f0 c5 a6 07 bd 03 d1 ba 3c 26 26 e7 3b c6 28 a9 bc
       -0.03311803 0.022804743 0.007054108 -0.020649325
000100 f1 9d 4b 3b 54 38 dc bb ae 47 0c bd b0 ed a2 bc
       0.0031069482 -0.006720582 -0.034248047 -0.019888729
000110 52 e8 67 b9 95 a5 95 3c 71 45 f5 bc cf 62 0c bd
       -0.00022116423 0.018267432 -0.029940339 -0.03427392
000120 a8 01 70 bb 1a 23 9e bc 02 5f 82 bc 44 c8 96 3c
       -0.003662208 -0.019303847 -0.015914444 0.018406041
000130 ff 66 4b bc b0 ea e9 bb 74 72 11 3d 29 b3 b9 3c
       -0.012414693 -0.0071385726 0.03550954 0.022668438
000140 50 bf 03 3d 61 96 38 3c 32 26 40 3d 6c c1 1e bd
       0.03216487 0.011266322 0.046911426 -0.03875868
000150 16 9e 89 bb 56 13 a0 bc b7 21 e2 3b 86 72 e0 39
       -0.0041997535 -0.01954047 0.006900992 0.00042809936
000160 ee 8f 96 ba dd 58 e9 3b 36 78 24 bb cb b2 00 3b
       -0.0011486986 0.007121189 -0.0025096065 0.001963782
000170 3e 0a a1 bb 8d 29 2c 3c 5f 87 21 bc 4e 15 14 3c
       -0.004914551 0.010507953 -0.009858935 0.009038283
000180 be a6 3a 3d 5b 72 2b bc 1a 2b a4 bb 73 8c 9f 3b
       0.045569174 -0.010464276 -0.005010021 0.004869038
000190 9e 1d c5 bc 3a a0 91 3c cc 29 c1 3b d3 46 51 bb
       -0.024061974 0.017776597 0.005894875 -0.0031933084
0001a0 03 e6 d4 bb 56 e5 a8 3c 15 26 85 3c 36 d3 28 bc
       -0.006497146 0.020617168 0.01625351 -0.010304263
0001b0 ca c0 06 bd f4 b6 04 bb d2 3f f7 bb a5 20 f6 ba
       -0.0328987 -0.002025065 -0.00754545 -0.0018778039
0001c0 ce ea 0a bb ac 13 fc 39 5a 50 8a 3c 09 b1 38 bc
       -0.0021197083 0.00048079842 0.016884018 -0.011272677
0001d0 bf ec c9 bb 3d 98 d4 bc 0d 7c 20 bc b4 92 ca 3b
       -0.0061622555 -0.0259515 -0.009795201 0.006182039
0001e0 73 aa 9e bc a1 44 af bc 52 a9 48 3c 22 43 8f bb
       -0.019368386 -0.02139503 0.0122474 -0.0043720165
0001f0 7e b4 d2 bc 8f 78 8d 3b cc f4 1f bc 20 9d 7d bc
       -0.025720831 0.00431735 -0.009762954 -0.015479356
000200 c8 e5 04 3b eb 50 a0 bc 49 d8 e7 3b 5c e8 19 3a
       0.0020278562 -0.019569835 0.0070753437 0.0005871111
000210 a3 fd 87 3c d6 8b b1 3c 09 e4 cd bb d1 ca e9 3b
       0.016600436 0.021673124 -0.0062832874 0.0071347733
000220 9a 14 38 bc 58 15 1f bd a6 b4 33 bc 4b f2 96 bc
       -0.011235381 -0.038838714 -0.010968363 -0.018426081
000230 19 5e c6 bb 15 35 fd 3a b6 76 36 bc 87 6c f7 bc
       -0.006053698 0.0019318188 -0.011136701 -0.030203117
000240 57 96 55 bc 25 c9 a2 bb d9 81 b9 3b 55 7f 1e 3c
       -0.013036332 -0.004967826 0.005661231 0.009673913
000250 a5 b6 e3 3a 18 ec 18 ba 4b 93 94 3c 4d c7 87 3b
       0.0017373158 -0.00058335206 0.018136641 0.0041436316
000260 68 69 37 3c 61 b2 bd 3b 9b 3f 7f bb a9 63 ed bb
       0.011194564 0.0057890867 -0.0038947824 -0.0072445464
000270 e6 5b db bc 68 b5 a2 3b 3a 61 09 bd 15 e2 75 3b
       -0.026777219 0.004965473 -0.033539988 0.0037518789
000280 ce 89 a5 3b a2 61 13 3c e0 22 9c 3c c9 43 96 3b
       0.005051828 0.008995445 0.019059598 0.0045857173
000290 a3 1a 64 3c 34 8c 39 3c d9 f1 7d bc dd aa 80 3c
       0.013922366 0.011324931 -0.0154995555 0.015706474
0002a0 ac 66 a9 bc 08 23 ee 3c b9 41 24 3c c3 ba aa 3b
       -0.02067884 0.029069439 0.010025435 0.005210252
0002b0 fa 58 a1 3b 36 b6 3e 3c 5a 60 a2 3c 04 bb db bc
       0.004923937 0.011640122 0.019821335 -0.026822574
0002c0 36 98 49 3a 85 a4 a5 3a ea e6 f2 3c 90 eb 42 3c
       0.00076902227 0.0012637532 0.029651124 0.011896983
0002d0 40 02 6a 3b 90 f2 13 3d 60 10 2e bc 7d 33 23 bd
       0.0035706908 0.036119998 -0.010624021 -0.039844025
0002e0 11 ad 61 3c 5e ab 97 bb 67 83 fa 3a 10 82 17 bc
       0.013774172 -0.004628583 0.0019112647 -0.009247318
0002f0 f3 0e de ba f9 33 13 ba 08 24 f3 3b a5 2b c9 3b
       -0.0016941711 -0.00056153495 0.0074200667 0.006139236
000300 73 5c 53 bc 2b a9 ad bc 9b 37 d5 bc 7c b0 cf 3c
       -0.01290046 -0.02119883 -0.026027491 0.025352709
000310 3f 21 e7 3c 2c 7d 7d bc ba f7 3a bc 68 72 cd 3c
       0.028214095 -0.015471738 -0.011411602 0.025078967
000320 16 b0 5f 39 01 b6 e1 3c 73 bb 21 3b 20 be 78 3c
       0.00021332534 0.027552607 0.0024678379 0.015182048
000330 60 08 ba bb 92 67 10 3c 38 23 a9 3b f7 ad 16 3b
       -0.005677268 0.008813756 0.005161669 0.0022991875
000340 38 3d 53 3c 38 22 0b 3d da 6b 19 3d 2b 02 27 bb
       0.012893014 0.03396818 0.03745637 -0.002548347
000350 92 97 be 3b 94 4c 51 3b 8d 25 35 ba fb 27 83 bc
       0.0058164084 0.0031936513 -0.00069101976 -0.016010275
000360 a4 8e 79 3c 62 77 ba 3c a7 11 26 3b 39 0d b0 bc
       0.015231762 0.022762004 0.0025340111 -0.02149068
000370 b5 87 c5 bc 33 14 0d 3c a3 d9 0e 3d 25 fc 23 3b
       -0.024112562 0.008610773 0.034875523 0.0025022116
000380 4e a0 dd bb 93 ff 39 3c be 7d 18 bc 7b 13 4b 3b
       -0.0067634946 0.011352438 -0.009307323 0.0030986953
000390 5f 74 ae bb dc 3d 90 3c de 46 61 bc f5 16 52 bc
       -0.005323931 0.017607622 -0.013749806 -0.012822856
0003a0 c5 3c b5 bc b2 c2 ba ba 56 2a 97 3b b4 87 9b 3b
       -0.022123704 -0.0014248698 0.004613201 0.0047464017
0003b0 2a 06 7a 3c 88 28 7b bb 75 ad d1 bb a3 d3 81 bc
       0.015260259 -0.003832372 -0.0063988515 -0.015847987
0003c0 30 52 fe bb d5 0d 97 bc 6b e2 26 bc 99 85 27 3c
       -0.0077612624 -0.018439213 -0.010185818 0.010224723
0003d0 2d fb 39 3c 59 3f c6 3b fe 7d 8b bb be cc 29 3c
       0.011351389 0.006050032 -0.004256963 0.010363756
0003e0 a1 ef a2 39 64 3b 2f 3c bd 14 d2 3b 8d bb 8d bc
       0.00031077585 0.010695312 0.0064111636 -0.017301345
0003f0 20 85 85 bc ad 1b cd bc 5a 1b 17 3a 93 69 9b 3c
       -0.01629883 -0.02503761 0.00057642686 0.01897124

basis_rand_weights f4 [16, 5]
000000 a2 87 e6 bc 39 7f d2 3c 93 65 da bd 9e e3 b1 bd
       -0.028140847 0.02569543 -0.10663905 -0.08685993
000010 2d e1 7a be 3c 89 7e 3c 55 fd 00 bd 19 21 c7 3d
       -0.2449996 0.015535649 -0.031491596 0.0972311
000020 00 81 6b bd 3b ac 50 3e e5 4c 2b bd e0 04 45 bd
       -0.05749607 0.203782 -0.04182138 -0.048100352
000030 f0 df 71 3d 12 74 6c 3d 60 cb c0 3e a8 93 c1 3b
       0.059051454 0.05772788 0.37655163 0.0059074946
000040 3f 4f 0d 3b c5 08 84 bd 21 a4 ac bd f4 b6 a5 3c
       0.0021562127 -0.06446985 -0.084297426 0.02022884
000050 d0 ce 1d bd 86 d8 cc 3c 16 7f 5a bd 9b 84 0c 3e
       -0.03852731 0.02500559 -0.053343855 0.1372246
000060 98 bc 8c 3e 3e 33 10 bd 7b 63 92 bc ff 2e 42 3e
       0.27487636 -0.03520512 -0.017869702 0.1896324
000070 b9 2b ea 3d a7 13 2b 3e 6b db 94 bc 0c 98 2f 3d
       0.11434121 0.16706716 -0.018171033 0.042869613
000080 07 a9 30 3d 82 d0 da 3c c0 b7 75 3d c2 45 18 3e
       0.043129947 0.026710752 0.05998969 0.1487036
000090 29 22 d7 bd c0 e7 ee 3d 6b d6 3a be 6a 3f 17 be
       -0.105045624 0.116652966 -0.18245856 -0.14770284
0000a0 83 1d 86 bd c9 85 a0 3c 9e 5f 12 bc cc 69 81 3e
       -0.06548598 0.019595044 -0.00893393 0.2527603
0000b0 44 52 fe bd 0d d5 ce bd 76 6d fe 3c d0 76 79 3d
       -0.12418035 -0.1009923 0.031058054 0.060904324
0000c0 39 a3 a5 3d 35 9c a9 3d 0a f0 bc bd 08 40 21 bd
       0.08087773 0.08281747 -0.09225471 -0.039367706
0000d0 94 3c 91 bd c9 d7 7c 3d a3 f8 b6 3e 19 43 25 bd
       -0.070916325 0.061729226 0.3573657 -0.040347192
0000e0 b0 44 d1 3c 20 98 a5 3e 5d 26 e4 bc 6e 50 e9 bd
       0.025545448 0.32342625 -0.027850324 -0.11392294
0000f0 5e 21 d9 bd 47 a4 4f bd ec f2 bf 3c 2f a0 b5 3d
       -0.106020674 -0.050693776 0.023431264 0.08868443
000100 c6 85 c7 3e 8e ea 7e bc 41 92 13 3d 1a e3 e8 3d
       0.3896925 -0.015558852 0.03602815 0.11371441
000110 48 b1 90 3d b9 c6 9c be 78 9d e9 bc 74 d0 c2 b9
       0.07065064 -0.30620363 -0.02851747 -0.00037157873
000120 65 90 fe 3d 9d 26 2d be 52 9d 17 be a5 91 ad 3b
       0.12429885 -0.16909261 -0.14806107 0.005296903
000130 94 92 ba 39 bc 14 56 3e 39 00 67 be f4 f6 15 3c
       0.00035585894 0.20906347 -0.22558679 0.0091531165

basis_vecs f4 [3, 768]
000000 ae 4e 62 3c ac 5f 8c bc 25 39 3b bc 57 81 11 3c
       0.013812704 -0.017135464 -0.011427199 0.008880935
000010 c3 8a b3 3a 64 9a 9f bb a8 e1 ab bc e9 66 d0 bc
       0.001369797 -0.0048706997 -0.020981625 -0.025439696
000020 70 15 a4 3c 8f 9f d2 3c a0 f7 ef 3b 81 13 58 3d
       0.020029753 0.02571085 0.0073232204 0.052752975
000030 2d 4c 88 3c 3c 7f 8a bc 57 6c 97 bc 6b 8d e2 3c
       0.016637886 -0.016906373 -0.018484278 0.027655324
000040 f2 73 4e 3b 51 ec 5d ba 21 53 19 bd a4 aa 2f bc
       0.0031502214 -0.0008465695 -0.037432794 -0.010721836
000050 0f c1 84 bb a3 ea e8 bb ec 8a dd 3b c9 6e 50 bc
       -0.0040513347 -0.007108049 0.0067609455 -0.012721726
000060 4c 36 16 3d 58 28 8e bc 04 52 84 bc 2c af 59 3c
       0.036672875 -0.017353222 -0.01615239 0.013286393
000070 b4 dc 76 bd 87 ca 1d 3d 06 67 ad 3c bd 75 0f 3c
       -0.060269073 0.038523223 0.02116729 0.008756098
000080 3e 4a d2 bc db 08 14 3b ad 0d 06 ba c1 96 4b 3d
       -0.025670167 0.0022588286 -0.0005113732 0.049704317
000090 a4 82 2b 3c 4d a6 03 3d 23 00 eb bc 9e 03 8d 3c
       0.010468159 0.03214102 -0.028686589 0.017213639
0000a0 f1 72 0f 3d 98 0f 51 3c a8 a1 ad 3c ce 42 e0 3c
       0.035021726 0.0127600655 0.021195248 0.027375605
0000b0 ef d2 00 3b 94 7c 3d bd a4 3d 6e 3b d9 6d 43 b9
       0.0019656976 -0.046261385 0.0036352659 -0.0001863757
0000c0 41 c4 69 3b 6e 54 2b 3c 40 a5 66 3c 11 47 ff bc
       0.0035669955 0.010457141 0.014077485 -0.031161817
0000d0 4f 8e dc 3c 63 0a 11 ba 80 78 3b bd 31 e4 2c 3d
       0.026923327 -0.0005532859 -0.045769215 0.042209808
0000e0 f5 3b 49 3d e5 cb 90 39 3e 7f 32 3d 6b 43 5f 3d
       0.049129445 0.00027617734 0.04357838 0.054507654
0000f0 68 aa 05 bd 65 41 18 bc b6 6f ba bb ce 42 c5 bc
       -0.032633215 -0.009292935 -0.0056895865 -0.024079707
000100 d5 f9 65 3c 30 f4 1b 3b 95 38 1a 3b df c0 21 bd
       0.014036615 0.002379667 0.002353226 -0.039490577
000110 c6 e7 ca bc 28 d1 32 bc b7 75 05 bd 58 2f 03 bd
       -0.024768721 -0.010914125 -0.032582965 -0.032027572
000120 c8 2c e7 bc b5 73 52 bc c6 67 06 3c 0e e5 44 3c
       -0.028219596 -0.0128449695 0.008203452 0.0120175015
000130 93 59 48 bc d9 e0 57 39 4d 60 4b 39 2e 9a 98 3d
       -0.012228387 0.0002058776 0.00019395463 0.074512824
000140 9d ea 5d 3a 10 b7 01 bc 38 c3 0a 3d eb 8b c6 bc
       0.0008465441 -0.007917181 0.03387758 -0.02423664
000150 74 85 a1 3b 71 95 6d bd b4 b5 86 3c 91 14 9b bb
       0.004929239 -0.058003847 0.016444065 -0.0047326763
000160 72 ec df bc 0f 0f 7c 3c c1 ea a2 bc d8 da d1 3b
       -0.027334426 0.01538445 -0.01988733 0.006404262
000170 b8 a7 e6 3b 13 e0 81 bc 51 0e 9b bc ce d3 eb bc
       0.0070390366 -0.015853917 -0.018927725 -0.02878752
000180 24 a0 af 3b 5b 5a 1e bc 57 3d 19 bd f0 bd 3b 3d
       0.0053596664 -0.009665097 -0.037412014 0.045835435
000190 1b 51 14 bc e5 07 c4 3c 94 49 23 bc 42 a7 fe bc
       -0.00905254 0.023929546 -0.009966273 -0.031085614
0001a0 a4 e4 96 3b e4 16 5a bc 99 45 74 3d 15 9f 46 3c
       0.004604893 -0.013311122 0.059636686 0.012122889
0001b0 45 c2 13 bd 06 86 05 bd 8f ff 4d ba 2a 5f 14 bd
       -0.03607394 -0.032598518 -0.00078582106 -0.036223568
0001c0 1c 1b e9 bc ee 5f 61 3c 48 86 f9 3c 35 69 de bc
       -0.02845531 0.013755782 0.030459538 -0.027149776
0001d0 e1 c7 fc bc 8c 9a 20 bc e7 a2 5e bc 23 48 b4 ba
       -0.030857028 -0.009802472 -0.013588644 -0.0013754409
0001e0 92 c8 ea 3b 56 c1 55 bd ab 21 d7 3b fe 64 17 bc
       0.007165023 -0.052186333 0.006565293 -0.009240387
0001f0 ae f6 8f bc be 43 2e bb c4 38 45 bc 17 a8 e9 3c
       -0.01757368 -0.002659067 -0.01203746 0.028522534
000200 0c b6 ba bc 59 9b db bc 06 e6 88 bc 3f e7 24 3b
       -0.022791885 -0.026807474 -0.016711246 0.0025162247
000210 02 94 e3 bc fe 51 14 bc bc c4 6a bb 49 36 bc bb
       -0.027780537 -0.009052752 -0.003582283 -0.005743776
000220 c6 55 63 bc 1c 00 70 bc 71 38 d3 3b b8 9a 45 3c
       -0.01387543 -0.014648464 0.0064459373 0.012060814
000230 86 2d 38 bd 7a ee f8 3c e7 d3 44 3c 29 6d 16 bd
       -0.04496529 0.030387152 0.012013412 -0.036725197
000240 96 00 27 3d 10 5b 91 bd 2d 4d d2 3c 4e 80 f0 3b
       0.040772043 -0.07097447 0.025671566 0.007339514
000250 33 88 1f 3c 6c 4a fa bc 89 65 38 bd e6 e5 3f 3b
       0.009737062 -0.030553065 -0.045018706 0.0029281317
000260 77 81 c0 3c 31 d8 51 3d 26 8c 82 bc 8b cb a4 3a
       0.023499234 0.051231567 -0.015935969 0.0012572868
000270 f1 02 3a bb b7 f4 f6 3b 6d c1 6d 3c a3 6d fc 3c
       -0.00283831 0.0075364965 0.014511448 0.030813998
000280 9c 5b ec 3a 31 7b 85 bc 18 ae 68 3d 46 a4 48 3d
       0.0018032673 -0.016294094 0.056806654 0.04898479
000290 f0 9b a4 3c 42 f6 ff 39 e1 52 23 3b 51 6f 0e bd
       0.020093888 0.00048820867 0.0024921226 -0.03477413
0002a0 30 fb 24 3b cf 4c 14 3c 95 26 27 3c bc b3 fb 3c
       0.0025174133 0.009051516 0.01020207 0.030725352
0002b0 e6 7a 83 3c fd 2a bd 3c 05 ea ce 3b 27 fd 0b 3c
       0.016049813 0.023091787 0.0063145184 0.008544243
0002c0 45 49 93 bc 3a fa c1 bc 79 30 8b bb 2a 6b 38 3d
       -0.017979274 -0.023678888 -0.0042477218 0.045024075
0002d0 e6 30 ea 3c 1b e0 51 3d 2d 39 cd bb fa 64 5d bc
       0.02858777 0.051239114 -0.0062629194 -0.013512844
0002e0 bd 3a fd 3c 68 27 cf bc cb 7b 32 3b 55 f1 53 bd
       0.030911798 -0.025287345 0.002723443 -0.051743824
0002f0 58 f1 c2 bc ae 8f 08 bc 9f cb 83 3b 76 29 36 3b
       -0.023796722 -0.008335037 0.0040220763 0.0027795709
000300 5e 15 ff bb 57 ba c7 bc 11 c1 4f bc 0e 3e 85 3c
       -0.0077845296 -0.024380846 -0.012680308 0.016264942
000310 27 39 15 3d 55 c0 17 3c 6a 66 11 bc 7f 73 65 3b
       0.036431458 0.009262164 -0.008874515 0.0035011468
000320 a3 31 92 bc 48 ca 80 bc a8 9e 8c bc a5 92 c6 39
       -0.017845934 -0.015721455 -0.017165497 0.00037874762
000330 ff 8a 46 3d 48 f4 6f bc 23 21 73 3d 0c 97 d3 ba
       0.0484724 -0.0146456435 0.059357774 -0.0016143038
000340 3d 61 15 3d 1d 8c 34 3d a2 86 63 3d 4e 35 39 bc
       0.036469687 0.044078935 0.055548318 -0.011304213
000350 cd 4c 41 3c 45 ff 69 3c d4 50 ac bc bb 14 2c bd
       0.011798096 0.014282052 -0.021034636 -0.042011958
000360 fa ac 88 3c bc 41 82 3d 56 82 88 bc b1 42 0e bd
       0.016684044 0.06360194 -0.016663712 -0.03473157
000370 02 8c 25 bc 80 43 2f bd b7 ec 07 3d 02 84 f9 3c
       -0.010104181 -0.042788982 0.033184733 0.030458454
000380 86 30 34 bb 7c dd c8 3c 48 cb 12 bc 0e 08 01 3c
       -0.0027494743 0.024519674 -0.008959599 0.007875456
000390 74 86 83 bb 76 eb eb 3c 29 43 9d bc 72 4d 05 bd
       -0.004013831 0.0287988 -0.019197064 -0.03254456
0003a0 20 cc 0a 3d 71 bc 97 bb 52 02 4f 3c 90 83 29 3b
       0.033886075 -0.0046306183 0.012634831 0.002586577
0003b0 21 cb 9f 3c b7 a9 19 bd ea 63 db 3c d8 dc 9f bd
       0.01950604 -0.03751537 0.026781041 -0.078057945
0003c0 e2 df d7 3c d9 ea 6a bb 0c 8a 8a bc 52 c5 16 3c
       0.026351873 -0.0035845547 -0.016911529 0.009202318
0003d0 20 ae 43 3d 6e e2 83 3c a5 08 04 bb 23 bb d5 b9
       0.04777348 0.016099181 -0.0020146754 -0.00040765954
0003e0 87 40 72 bc ec db fe 3b 3d 83 13 bd 77 db 63 bc
       -0.014785892 0.0077776816 -0.03601383 -0.013907305
0003f0 85 7e d2 bc 1b 1c 79 bc b7 56 5f bd cd cb 0d 3d
       -0.025695095 -0.015204455 -0.054526057 0.034618188

basis_comm_weights f4 [1, 5]
000000 91 5f 52 3e 90 d8 29 3f 9e 7a 95 3e 32 08 95 3e
       0.20544268 0.66346073 0.29195112 0.29107815
000010 72 ab b3 3e
       0.3509174

bias f4 [16, 768]
000000 bd 96 28 3a 23 fb 01 bd 95 af c7 bc d4 75 1d 3d
       0.0006431153 -0.031733643 -0.024375716 0.038442448
000010 d1 c6 23 3d 7d 64 70 bd 29 ae e4 3c 07 69 0e bd
       0.039984528 -0.058689583 0.027915077 -0.03476813
000020 4b aa e4 bc 8a c3 c0 3c da 0e 71 bc 63 61 bc bc
       -0.027913233 0.02353074 -0.014713014 -0.022995656
000030 d9 f4 18 bd 7c 0a 42 bc bf 02 20 bc 26 bb ab bc
       -0.03734288 -0.01184332 -0.00976628 -0.020963263
000040 7a 9c 1d 3c fb 4a fd 3b 18 2d f5 bc e1 61 63 bc
       0.009619826 0.0077298856 -0.029928729 -0.013878317
000050 e8 23 b4 bc 37 fc fa bb 86 3d 0e bd 83 ff b8 3c
       -0.021989778 -0.007659461 -0.034726642 0.022582775
000060 ce 28 f2 bc 37 1a 1d 3d 5d 45 9f bd f2 da a1 bb
       -0.029560473 0.03835508 -0.07776902 -0.0049394304
000070 0a 96 42 bd a6 69 58 3c 0f e5 c8 ba d0 08 1c 3d
       -0.04750637 0.013208782 -0.0015327054 0.03809434
000080 2e f0 10 bd 9a 89 60 3c 15 21 dc 3b c0 f8 27 bd
       -0.035385303 0.013704682 0.006717811 -0.04100871
000090 4b c5 a4 bd 1b 6b f5 bc 64 30 6f bc b7 70 ea bb
       -0.08045443 -0.029958298 -0.01459894 -0.00715455
0000a0 37 19 c8 bc a9 4c 08 bc 04 0a b4 bc 85 47 53 bc
       -0.024426086 -0.008319058 -0.021977432 -0.01289547
0000b0 49 d8 3b bd 03 7e d0 bc c7 49 2d bd c1 af 9e 3c
       -0.045860562 -0.025450712 -0.042306688 0.019370915
0000c0 e9 82 9b 3c 5f a7 0c 3c 66 19 f2 bc 2a 86 1a 3d
       0.018983321 0.008584826 -0.029553127 0.037725605
0000d0 e7 fa 25 3c b2 e6 fc bb fc b7 65 3c 58 f4 05 3a
       0.010130621 -0.0077179307 0.014020916 0.00051099574
0000e0 b1 85 29 bd 0c 99 dd 3a f4 a1 39 bb 7b 9a a5 bb
       -0.041387264 0.0016906573 -0.0028325291 -0.005053816
0000f0 ec 13 69 bd 67 ea 6d 3d 14 69 bc bc 88 75 2a bd
       -0.056903765 0.05808487 -0.022999324 -0.041615993
000100 c5 b8 ef 3c 97 24 24 3c 5e eb e1 3c 42 34 26 ba
       0.02926291 0.010018489 0.027578052 -0.00063401845
000110 45 11 0e 3d 8c d2 81 3d 87 35 94 bd 67 29 ac 3b
       0.03468444 0.06338987 -0.07236772 0.005253959
000120 ea 5d 4e 3d 1b 04 8a 3b 08 6a 4b 3c 30 6e 74 bc
       0.050382532 0.004211915 0.012415417 -0.014918849
000130 07 75 70 3d 09 a5 18 bd 50 93 37 bc 7b 78 1b bc
       0.058705356 -0.037266765 -0.011204556 -0.009489174
000140 f3 16 de bb 00 93 28 3d 7a ed 2b 3d 28 36 21 bc
       -0.006777638 0.041155815 0.041974522 -0.009839572
000150 0e 5f 03 3d 7b 97 b5 bc e8 68 1a 3d 3c bf 39 3d
       0.032073073 -0.022166958 0.037697703 0.04534839
000160 f6 06 3a ba b3 50 3e b9 9e 15 8c bc 3a f1 91 3d
       -0.0007096374 -0.00018149875 -0.017100152 0.071260884
000170 ca b9 a4 ba ef de ad bc 9e 42 2e bd 38 8a d5 bc
       -0.0012567576 -0.021224467 -0.042544 -0.026066884
000180 f7 26 2c 3d 49 45 ac 3c 7a dd a0 bd c3 b9 7a 3c
       0.042029347 0.021029131 -0.07854743 0.015303078
000190 7e c9 2e 3b 29 e0 25 3c d3 f1 c3 3c 81 09 6c 3d
       0.0026670392 0.010124245 0.023919022 0.05762625
0001a0 76 96 93 3c a5 69 89 bc 83 34 bb 3c a0 4d d8 3c
       0.018016081 -0.016774008 0.022852188 0.026404202
0001b0 c2 e5 72 3b 02 2b d2 bc 3d bc 2a 3b ea 7f 14 3d
       0.0037063216 -0.025655273 0.002605214 0.0362548
0001c0 3b f2 42 bd 25 42 96 3d 8b 9e 84 bc 99 19 4c bc
       -0.04759429 0.07336835 -0.01618888 -0.012457275
0001d0 09 fb ae bb 3f 0e 99 bc 9f 13 e9 3b 03 57 90 bc
       -0.0053399843 -0.01868355 0.0071129347 -0.017619615
0001e0 06 b8 1f bb d3 da 08 3d e2 93 0c bd 1a 83 8f bc
       -0.002437116 0.033411812 -0.03432072 -0.017518569
0001f0 81 79 e9 bc c9 4a 93 bc 64 51 90 bc 84 67 d3 3c
       -0.02850032 -0.017979996 -0.017616935 0.025806196
000200 0d 86 48 bc 27 22 84 3a 97 c8 06 3d 7a d2 2e 3d
       -0.012238991 0.0010080979 0.03290614 0.042681195
000210 2a 3e 6b 3c b4 07 e7 3c fb 4a 73 3d e6 3d dd ba
       0.014358083 0.028201915 0.05939768 -0.0016879409
000220 86 aa 39 3d 06 7f 2d bd 9f a1 70 3d f0 f4 d0 3c
       0.04532864 -0.042357467 0.058747884 0.02550742
000230 42 8a 74 bd ca c9 0e bd 8e fb d1 bc 0a 1c 5a 3d
       -0.059702165 -0.03486041 -0.025632646 0.053249396
000240 08 2a 3c bc 3f 0c 33 3d d1 0b 1d bd ec 47 8d ba
       -0.01148463 0.04371285 -0.038341347 -0.0010778881
000250 30 64 a6 3c 14 9f 27 bc de 81 a9 3c f6 04 44 3d
       0.020311445 -0.010230798 0.020691808 0.047856294
000260 b5 f5 20 bd cb 23 03 bb 4b 3c c0 3c 76 cb d1 3c
       -0.039296824 -0.0020010348 0.02346625 0.025609713
000270 68 71 fe ba ce 55 bd bc 37 da 42 bd 4c 96 b5 3b
       -0.001941246 -0.023112204 -0.047571387 0.0055415984
000280 80 67 de ba 36 97 ae 3c 8e fe ef 3c 9f 4d 36 3d
       -0.0016968101 0.021312337 0.029296186 0.04450762
000290 8b c0 1f 3d 10 27 20 bc 7f 71 f8 b9 85 8c 18 3c
       0.039001983 -0.009774938 -0.00047386807 0.009310846
0002a0 28 ff 00 bd d6 c4 82 3d 4b df 07 3d 61 ec eb 3c
       -0.031493336 0.063852 0.033171933 0.028799238
0002b0 48 33 11 3c d3 b2 8e bc de 61 0c bc dd c8 5a 3b
       0.008862324 -0.017419254 -0.008568255 0.0033383884
0002c0 8a 07 42 bd 92 35 b9 bc 35 b2 34 3d 8f b8 39 bc
       -0.04737047 -0.022608552 0.044115264 -0.011335506
0002d0 c0 71 2e 3a d7 cf 8b bc 86 41 5b bc 01 b9 5d 3d
       0.00066545233 -0.01706688 -0.013382321 0.05413151
0002e0 15 0e 29 bd 06 00 e7 3b 06 a0 28 bc 4b 61 4b 3d
       -0.041273195 0.0070495633 -0.010292059 0.049653333
0002f0 d6 6f 55 bc e3 cb 74 bc aa 6d 04 bd 84 7f 20 bd
       -0.013027152 -0.0149411885 -0.032331146 -0.03918411
000300 d3 66 73 3c 97 8f a5 bc 15 5e df 3b 79 2e 3e 3c
       0.014856058 -0.02021007 0.0068166354 0.01160776
000310 93 bf 9c 3c a0 d4 8b bb 52 37 28 bc 39 f5 17 3d
       0.019134318 -0.0042672902 -0.010267096 0.037099097
000320 83 32 c0 3d cf 5e a1 3c a5 63 85 3a 98 87 09 3d
       0.09384634 0.019698529 0.0010176791 0.033576578
000330 af d1 f4 bc 7e 33 e3 bc 0a f9 4c 3c 18 57 b6 bc
       -0.029885141 -0.027734514 0.012510547 -0.022258326
000340 db 39 d6 3a 39 8b a2 3b 73 85 38 bd ea 2f 07 3d
       0.0016344147 0.0049604443 -0.045049142 0.03300468
000350 be ce cf bc ef fa e5 bc d6 45 5e 3d fe 44 ce bc
       -0.025367137 -0.028073756 0.05426582 -0.025179382
000360 83 4d e1 bc b3 31 95 3c f2 89 13 3c 62 ca 0d bd
       -0.02750278 0.018212175 0.009005057 -0.034616835
000370 d2 54 17 bd 9d d6 99 bc 1b f2 3b bd b1 38 7a bc
       -0.036946125 -0.018779093 -0.045885187 -0.015272305
000380 26 72 ee bc 8d 48 40 bd 6b fc 05 bd 2d e6 99 bc
       -0.029107165 -0.04694419 -0.032711428 -0.018786514
000390 e2 b6 c6 3c 4c 41 3a bd 6a 66 c5 bb 14 b1 c7 bc
       0.024257127 -0.04547243 -0.0060241716 -0.02437643
0003a0 6c 04 80 3d c6 06 fb bb 8e 1c 19 3d c1 d3 c7 3c
       0.062508434 -0.0076607196 0.037380747 0.024392964
0003b0 de 29 2b bd af 31 9d bc 8c eb d8 3c 98 dd 8e 3b
       -0.041787975 -0.01918873 0.026479505 0.004359912
0003c0 58 ea f4 bb 4a 70 26 bd 11 2e 87 bd e5 64 11 3d
       -0.007474225 -0.04063443 -0.06600583 0.03549661
0003d0 69 99 74 bd c5 16 af 3c 8d c6 16 bd 56 6d 8d bc
       -0.059716616 0.021373162 -0.036810447 -0.01726405
0003e0 86 4f 08 bc cb ee 8f bb ca f2 32 ba 66 3b b9 3c
       -0.008319741 -0.00439248 -0.00068263395 0.022611331
0003f0 87 6e a7 3a d4 11 95 bc 55 fb eb 3c 2b f5 b4 3c
       0.0012774029 -0.018196978 0.028806368 0.022089561

weight f4 [768]
000000 0d 8b 80 3f c3 f7 89 3f e8 3b 7c 3f e1 17 8b 3f
       1.0042435 1.0778736 0.9852891 1.0866662
000010 b2 0d 80 3f 50 6e 59 3f 5b f3 63 3f f4 2e 8a 3f
       1.000418 0.8493395 0.89043206 1.0795579
000020 20 97 6c 3f 20 5c 6c 3f cd d7 74 3f b6 46 6e 3f
       0.924181 0.9232807 0.95641786 0.93076646
000030 fb 30 69 3f b5 27 80 3f 6b 77 83 3f 3b 00 6c 3f
       0.91090363 1.0012118 1.0270818 0.9218785
000040 24 b7 7c 3f 87 31 7c 3f 9a 92 86 3f 28 46 74 3f
       0.9871695 0.9851307 1.0513489 0.9541955
000050 eb 5d 87 3f d8 13 7c 3f 54 15 75 3f 89 66 76 3f
       1.0575536 0.9846778 0.9573567 0.96250206
000060 90 12 72 3f ea 50 64 3f 1a eb 8e 3f 93 50 74 3f
       0.94559574 0.89185965 1.1165497 0.95435447
000070 2f 92 8b 3f 1b e0 86 3f 83 ae 7b 3f 3d 98 64 3f
       1.0903987 1.0537142 0.9831316 0.892948
000080 ae f8 8a 3f df 31 80 3f 7c 0d 75 3f f1 d3 82 3f
       1.0857141 1.001522 0.957237 1.0220929
000090 bf 04 72 3f 78 28 75 3f 8d d1 82 3f bc 1c 74 3f
       0.9453849 0.95764875 1.02202 0.95356345
0000a0 a8 0d 6a 3f 01 cd 6d 3f de 25 80 3f d2 a9 76 3f
       0.9142709 0.92890936 1.0011556 0.96352875
0000b0 04 5c 7b 3f 7d 98 87 3f ae da 84 3f ab 6f 72 3f
       0.9818728 1.0593411 1.0379236 0.9470164
0000c0 94 ec 86 3f ed 93 81 3f 73 c1 6e 3f fc ea 7a 3f
       1.0540948 1.0123268 0.9326393 0.9801481
0000d0 bb 62 6d 3f 58 89 78 3f fb ac 72 3f 6d 30 74 3f
       0.92728776 0.9708457 0.947952 0.9538639
0000e0 a0 11 63 3f ab f0 68 3f 76 b3 65 3f e0 31 68 3f
       0.8869877 0.9099223 0.8972696 0.90701103
0000f0 43 e2 8a 3f fd b4 83 3f c7 45 8b 3f a6 5f 88 3f
       1.08503 1.0289608 1.0880669 1.065419
000100 89 cf 8b 3f ec eb 7e 3f 1d 6f 73 3f 71 69 82 3f
       1.092271 0.9957874 0.9509142 1.0188428
000110 ed 86 83 3f 5f e5 77 3f ab fb 8b 3f 15 15 7f 3f
       1.0275551 0.9683437 1.0936178 0.99641544
000120 54 bf 4a 3f 1b bb 79 3f b7 2a 83 3f 80 ca 69 3f
       0.79198194 0.97551125 1.024741 0.91324615
000130 67 06 6c 3f 8d 2f 73 3f 8b 5b 7c 3f 5e 9f 54 3f
       0.9219727 0.9499443 0.98577183 0.83055675
000140 25 e8 7a 3f 5d 6d 82 3f e6 02 8c 3f 0a f0 66 3f
       0.98010474 1.0189625 1.0938385 0.9021002
000150 48 6f 7e 3f 32 50 7a 3f 50 31 8e 3f 72 e0 61 3f
       0.9938855 0.9777862 1.1108799 0.882331
000160 f0 86 73 3f da dc 7b 3f 97 e2 87 3f 16 c4 5b 3f
       0.95127773 0.9838387 1.0616025 0.8584608
000170 79 99 73 3f 3a f4 85 3f 67 58 8b 3f c5 27 81 3f
       0.95156056 1.0465157 1.0886353 1.0090262
000180 f8 f4 78 3f ed 22 77 3f 2a df 95 3f 4b d3 84 3f
       0.9724879 0.9653767 1.1708729 1.0376981
000190 c0 42 62 3f 30 69 7b 3f 96 4c 85 3f ee 3d 5d 3f
       0.883831 0.9820738 1.0413997 0.8642262
0001a0 77 f8 71 3f 9f 37 75 3f b9 5e 83 3f 8e 48 7a 3f
       0.9451975 0.95787996 1.0263282 0.9776696
0001b0 c9 63 81 3f e5 b7 70 3f 30 80 75 3f db 8c 70 3f
       1.0108577 0.940306 0.95898724 0.9396493
0001c0 97 9f 8b 3f 94 49 8f 3f ef 94 7a 3f 9e 03 7f 3f
       1.0908078 1.1194329 0.97883505 0.99614894
0001d0 ef 9d 6e 3f d1 9a 84 3f b0 61 7d 3f 05 28 69 3f
       0.9320974 1.0359746 0.98977184 0.9107669
0001e0 78 fc 5a 3f 69 3d 5f 3f cb 72 7f 3f e0 71 81 3f
       0.85541487 0.8720308 0.99784535 1.0112877
0001f0 e5 78 7a 3f 5c ce 78 3f 3b 53 8b 3f a7 06 85 3f
       0.9784072 0.9718988 1.0884775 1.0392655
000200 db f3 81 3f ba 79 76 3f 1c 7c 6c 3f 45 77 86 3f
       1.0152544 0.9627949 0.92376876 1.0505148
000210 ed 36 7a 3f d9 d1 80 3f 86 38 90 3f 90 21 70 3f
       0.9774006 1.006404 1.126725 0.9380121
000220 8b 70 6b 3f 6d b8 8b 3f e6 70 65 3f 5f 4c 7f 3f
       0.919686 1.0915657 0.89625394 0.9972591
000230 47 24 8c 3f d1 cd 5e 3f 02 a5 74 3f 58 93 6c 3f
       1.0948571 0.870328 0.9556428 0.9241233
000240 a9 46 6b 3f b2 0e 6f 3f b6 2d 6c 3f 40 f5 78 3f
       0.91904694 0.933818 0.9225725 0.9724922
000250 e4 46 82 3f 6b 6d 8d 3f 89 30 79 3f f3 32 6c 3f
       1.0177884 1.1049017 0.97339684 0.9226524
000260 e4 0f 5c 3f ad 10 81 3f ec 0d 60 3f 88 05 6f 3f
       0.8596175 1.0083214 0.87521243 0.93367815
000270 58 8f 7a 3f cd e7 6e 3f 40 47 5d 3f fa 0d 83 3f
       0.97874975 0.9332245 0.86436844 1.023864
000280 fe 4e 7f 3f d2 ad 74 3f a4 dd 89 3f 73 33 94 3f
       0.9972991 0.9557773 1.0770764 1.1578201
000290 e8 be 8a 3f f5 06 69 3f e4 c7 80 3f cc 1c 78 3f
       1.083951 0.9102624 1.0061002 0.9691894
0002a0 a5 f7 7e 3f 0c 63 8f 3f 0c cb 78 3f 01 72 87 3f
       0.99596626 1.1202102 0.97184825 1.0581666
0002b0 ce ae 80 3f 0b 8e 75 3f 78 04 66 3f 01 86 7a 3f
       1.0053346 0.95919865 0.8985057 0.97860724
0002c0 91 4f 8a 3f 54 31 7b 3f 3c 59 76 3f 96 39 71 3f
       1.0805532 0.98122144 0.9622991 0.94228494
0002d0 3f 8a 73 3f 4e 89 7b 3f c8 ac 76 3f 3a b8 65 3f
       0.9513282 0.98256385 0.96357393 0.8973423
0002e0 fc 07 56 3f 14 44 78 3f a2 77 82 3f 8e 41 61 3f
       0.83605933 0.9697888 1.0192759 0.87990654
0002f0 95 48 83 3f 18 96 76 3f bc bb 75 3f 4c f2 6a 3f
       1.0256525 0.96322775 0.95989585 0.91775966
000300 97 27 6c 3f bd 1a 84 3f 8b e5 74 3f 4d 91 80 3f
       0.9224791 1.032066 0.95662755 1.0044342
000310 b5 75 89 3f 43 ce 7f 3f 63 18 74 3f c4 23 83 3f
       1.0739046 0.99924105 0.9534971 1.024529
000320 5a 4d 86 3f a6 16 6b 3f bc 66 81 3f c3 b4 81 3f
       1.0492356 0.91831434 1.0109477 1.0133289
000330 06 83 6e 3f ce 5c 76 3f a2 89 8b 3f d4 6c 7d 3f
       0.93168676 0.9623536 1.0901377 0.98994184
000340 68 71 79 3f fe 1f 81 3f 8c 87 65 3f 55 f5 6b 3f
       0.9743867 1.0087888 0.89659953 0.9217122
000350 a8 d1 72 3f 29 94 80 3f 6e 39 60 3f 1a d7 83 3f
       0.9485116 1.0045215 0.8758763 1.0300019
000360 2d 35 6a 3f b1 e5 86 3f 46 d0 77 3f 09 78 96 3f
       0.9148739 1.0538846 0.96802175 1.1755382
000370 dc 83 8b 3f 10 01 88 3f c2 66 5f 3f 33 5d 77 3f
       1.0899615 1.0625324 0.8726617 0.96626586
000380 f2 e5 6f 3f ec d8 73 3f 95 81 8e 3f a4 85 84 3f
       0.93710244 0.9525287 1.1133295 1.0353284
000390 fc ea 6b 3f df 9b 77 3f ae fc 75 3f 2d 48 8d 3f
       0.9215543 0.96722215 0.96088684 1.1037651
0003a0 61 8d 8f 3f d5 f0 68 3f 9a 30 84 3f 3f 41 80 3f
       1.121502 0.9099248 1.0327332 1.0019912
0003b0 75 e7 6c 3f 28 7e 86 3f eb 03 81 3f d0 f1 7e 3f
       0.92540675 1.050725 1.0079321 0.99587727
0003c0 a0 3f 7d 3f 1d 91 89 3f 38 aa 8c 3f 64 76 69 3f
       0.9892521 1.074741 1.0989447 0.91196275
0003d0 3b 73 4b 3f ed 29 7e 3f 15 ed 89 3f 68 96 67 3f
       0.794727 0.99282724 1.0775477 0.90463877
0003e0 73 8e 7b 3f 92 db 7c 3f 49 5d 82 3f ff b4 66 3f
       0.98264235 0.9877254 1.0184718 0.9011993
0003f0 db b8 77 3f 3a 27 52 3f 9f f6 6e 3f 2e d3 82 3f
       0.9676644 0.82091105 0.93345064 1.0220697

bias f4 [768]
000000 ee 2e 07 3d 74 4c b8 bd 99 42 34 bd f4 56 bf 3d
       0.03300374 -0.08998957 -0.044008825 0.09342757
000010 94 9e b3 3d ae 3a 1f be d2 0f 6b 3d ec 1e b1 bd
       0.08770481 -0.15549728 0.057388134 -0.08648476
000020 55 5b 4f bd da bf f8 3d 50 7d f1 bc bf 19 91 bd
       -0.05062421 0.12145968 -0.029478699 -0.07084989
000030 91 68 74 bd a0 32 15 bc ca fb 17 bd 79 ed 8f bd
       -0.059670035 -0.009106308 -0.03710536 -0.07027716
000040 07 38 b6 3c dc bb 1b 3c 9b 04 a3 bd b4 48 9c bc
       0.022243513 0.009505238 -0.07959863 -0.019077636
000050 20 4e 28 bd 39 70 72 bc f6 91 36 bd 24 f9 30 3d
       -0.04109013 -0.014797264 -0.044572793 0.04320635
000060 7c 87 7a bd 5a 3c 44 3e 11 f4 5c be 60 92 0c bc
       -0.061164364 0.19163647 -0.21577479 -0.00857982
000070 a2 be ce bd fe b0 94 3c cb ef f0 bb 9e c1 e3 3d
       -0.10094954 0.018150803 -0.0073528043 0.11120914
000080 1d d2 8e bd 5c 5d 74 3d 8e dd 3b 3c 81 1d 80 bd
       -0.0697367 0.059659347 0.011466397 -0.062556274
000090 16 b4 7e be 46 a8 a9 bd 49 f0 05 bd 28 85 45 bd
       -0.24873385 -0.08284049 -0.032699857 -0.04822269
0000a0 98 f9 89 bd 71 80 1b bd eb 4f 9a bd b4 bc 5e bd
       -0.06737059 -0.03796429 -0.075347744 -0.05437918
0000b0 43 0f 72 bd 2c 4e 7c bd e3 07 c7 bd 60 6e 91 3d
       -0.059096586 -0.061597988 -0.09718301 0.071011305
0000c0 ad ce bf 3d 8c aa 8f 3c 97 37 3b bd 9e 11 aa 3d
       0.09365592 0.017537378 -0.04570731 0.083041415
0000d0 14 e3 6c 3d a6 b4 8f bc 58 f4 0b 3d 3d 92 f4 bc
       0.057833746 -0.017542195 0.03416857 -0.029854888
0000e0 a7 bd d1 bd f2 99 fd bb e0 b7 88 3b 76 f8 2a bc
       -0.102412514 -0.007739299 0.0041723102 -0.010435214
0000f0 32 ae c9 bd 6a e3 1c 3e a8 65 79 bd 83 47 d8 bd
       -0.09847678 0.15321127 -0.060887963 -0.10560515
000100 4d 9f cc 3d e2 be 0a 3c 6d c2 45 3d d2 4a 40 bc
       0.09991322 0.008468362 0.048281122 -0.011736589
000110 4e c0 5f 3d 79 6b 08 3e d2 ea f0 bd c7 77 ee bb
       0.054626755 0.13322248 -0.117635384 -0.007277462
000120 06 7b 27 3e 0b 0d 4d 3c d4 dc 17 3d 63 f1 a5 bd
       0.16355523 0.012515317 0.037075832 -0.081026815
000130 7c 7b fb 3d a6 c8 3f bd 26 e1 22 bc 7b 41 a2 bd
       0.12279412 -0.046822213 -0.009941375 -0.07922646
000140 4d 5a 8c bc 24 f7 b6 3d 64 d2 d9 3d bc 71 99 3d
       -0.017132903 0.08933857 0.10635832 0.07492396
000150 2c 3e 1d 3d fe 72 4d bd a0 42 f0 3d fb 7e 22 3e
       0.03838937 -0.050158493 0.11731458 0.15868752
000160 76 73 59 3d 69 b5 99 3c d6 6f 83 bd fd b2 22 3e
       0.053088628 0.01876326 -0.064178154 0.15888591
000170 19 17 ff bc 4a 89 13 bd 63 70 e7 bd be a5 9f bd
       -0.031138944 -0.0360196 -0.11300733 -0.07795285
000180 34 78 6c 3d 88 e5 5e 3c 4e 33 3f be f6 d4 35 3d
       0.057731822 0.013604529 -0.18671915 0.04439255
000190 ec 13 a1 bc 5c 51 ae bb 7a 07 6f 3d 7e 7b 0e 3e
       -0.01966282 -0.0053197574 0.05835674 0.13914296
0001a0 44 f5 12 3d 4d 5a 43 bc 18 8e 27 3d ec 05 6d 3d
       0.035878435 -0.011923385 0.040906996 0.057866976
0001b0 14 54 b5 bc 6b 75 cf bd 15 e9 3e 3d a3 a6 78 3d
       -0.022134818 -0.101298176 0.046609003 0.060705792
0001c0 30 6c f6 bd 9c 06 ef 3d c5 17 2e bc 07 cb 2b bc
       -0.12032354 0.116711825 -0.010625784 -0.010485417
0001d0 31 93 ce 39 70 68 c5 bd eb 3b 5e 3d fc d3 64 bd
       0.00039401048 -0.096390605 0.05425636 -0.055866227
0001e0 01 f1 cf bb db f0 c9 3d aa 14 57 bd 7d a0 30 bd
       -0.0063458686 0.09860393 -0.05250994 -0.043121804
0001f0 74 bc 93 bd df 62 8f bc 96 45 ce bd 94 c7 20 3e
       -0.07213679 -0.0175032 -0.10071866 0.15701133
000200 f8 d5 10 bd 67 39 e6 3b 53 1f 7c 3d 06 ce d9 3d
       -0.035360307 0.007025886 0.06155331 0.10634999
000210 23 7f d4 bb 48 b0 33 3d e8 7a 2b 3e 3d af 75 3c
       -0.0064848824 0.043869287 0.16746104 0.014995393
000220 2d 01 a2 3d 37 d0 d7 bd e5 f2 18 3e c3 2a a2 3c
       0.079103805 -0.10537761 0.14936407 0.019795781
000230 73 1e cd bd c5 51 03 bd df 9e 50 bb 46 bb 94 3d
       -0.10015573 -0.032060403 -0.0031832976 0.07262282
000240 d6 c2 21 3c fd a6 a6 3d 42 de 81 bd cb 8c e7 3a
       0.009873113 0.08137319 -0.063412204 0.0017665861
000250 01 47 2c 3d 3c 67 0c bd 66 11 d0 3b 89 7e 9a 3d
       0.042059902 -0.03427814 0.0063497303 0.07543666
000260 cf e9 05 be 22 73 ad 3c 30 98 6d 3c ec 70 21 3d
       -0.13077472 0.021173064 0.014501616 0.03941433
000270 f8 f6 dd ba 1f d7 0c bd 7a 9f cc bd 65 79 98 bc
       -0.0016934564 -0.034384843 -0.09991355 -0.018612573
000280 d9 a5 e6 ba fa 6f a9 3c 99 bd 99 3d 10 43 22 3e
       -0.0017597034 0.020683277 0.07506866 0.15845895
000290 81 66 bf 3d 77 d9 a0 bc 97 ef 44 bc 5f 6d 8b 3c
       0.09345723 -0.019634945 -0.012020013 0.017019926
0002a0 11 8a 2d bd 2b ab 2d 3e 44 34 93 3d 09 26 15 3d
       -0.042368 0.16959827 0.07187703 0.036413226
0002b0 d2 0e 4a bb c1 54 e0 bc c7 7e f8 bd 8b 7f 89 3c
       -0.0030831588 -0.027384164 -0.12133556 0.01678445
0002c0 b9 4c eb bd af 4e 3f bd cb a0 02 3e e6 f8 25 bd
       -0.11489243 -0.046705898 0.1275665 -0.04052057
0002d0 6f a5 fb 3b da 24 04 bd e5 a0 41 bc b5 27 e0 3d
       0.0076796333 -0.032261707 -0.011818145 0.109450735
0002e0 4d 1a 1a be 09 fe 9e 3c c0 74 b3 bd 7c 5d ef 3d
       -0.15049095 0.019408243 -0.08762503 0.116877526
0002f0 5f 56 6a bd 94 11 21 bd 16 40 bc bd 2c 8c 09 be
       -0.057211276 -0.039323404 -0.09191911 -0.13432378
000300 da 39 91 3c fe c6 b5 bc 5a c9 30 3d c6 ae 32 3c
       0.017727781 -0.022189613 0.043160774 0.010905927
000310 aa 6c ae 3d 95 93 33 bc 8d 30 0f bd a7 28 9c 3d
       0.0851682 -0.010960479 -0.03495841 0.07624941
000320 bb 35 5c 3e 0d 61 ee bc 05 41 f0 bc ee 9d 8a 3d
       0.21504872 -0.029099012 -0.029327879 0.06768404
000330 90 9a 6e bd 32 a0 ff bc 05 23 0f 3d 68 9a 86 bd
       -0.05825287 -0.031204317 0.034945507 -0.065724194
000340 ab 59 04 bd aa e7 d9 3c 82 d7 c4 bd c7 18 30 3d
       -0.032312077 0.026599724 -0.09611417 0.04299238
000350 00 33 d7 bb 3e 82 5b bd 34 02 e2 3d 44 7f 0c bd
       -0.006567359 -0.053591006 0.110355765 -0.034301057
000360 10 96 a8 bd 5d 05 5c 3d 55 61 00 3c b3 63 0a be
       -0.08231747 0.053716052 0.007835706 -0.13514595
000370 f7 22 dd bd 3a ef 4e bd 86 6c f5 bd b2 21 41 bc
       -0.10797685 -0.050521113 -0.1198359 -0.011787819
000380 a4 87 58 bd 70 58 bf bd b7 32 10 bd a0 53 57 bd
       -0.052863732 -0.0934304 -0.035204615 -0.052569985
000390 9a 82 c8 3d 30 d8 36 bd 83 1f 26 bd 0b 15 86 bd
       0.09790535 -0.044639766 -0.040557396 -0.065469824
0003a0 f2 c6 04 3e fd b0 aa bd 05 5e 88 3d 90 d4 b0 3c
       0.12966517 -0.08334539 0.06658558 0.021585733
0003b0 87 93 99 bd 59 63 94 bd b9 16 9c 3d ba 34 af 3a
       -0.07498842 -0.072455116 0.076215215 0.0013367154
0003c0 21 c3 a0 bc 3f 9e 05 be d5 44 16 be 3a c7 50 3d
       -0.019624295 -0.13048647 -0.14674695 0.050971247
0003d0 3c f6 39 be 97 98 0d 3d 90 8a cd bd 90 0d 06 bd
       -0.18160337 0.03456935 -0.10036194 -0.032727778
0003e0 1a dc 82 bc db e5 1c bd 9a 22 47 bd 39 2d dc 3c
       -0.015974093 -0.038305145 -0.048616983 0.026877033
0003f0 46 0e ad 3c 3a bb 11 bd a9 ac 23 3d 45 d3 1c 3d
       0.02112497 -0.035578944 0.039959583 0.03828742

weight f4 [768]
000000 d9 a5 77 3f e8 fe 73 3f cd 7e 6f 3f a3 9f 73 3f
       0.9673744 0.9531083 0.9355286 0.9516546
000010 66 98 76 3f 67 85 6d 3f 9a 4d 86 3f 82 42 85 3f
       0.9632629 0.9278168 1.0492432 1.0410922
000020 00 b8 82 3f 58 b3 8b 3f f1 d4 84 3f e1 19 94 3f
       1.0212402 1.0914106 1.0377485 1.1570398
000030 73 cb 63 3f c0 60 7f 3f 4a b1 81 3f 46 dd 62 3f
       0.88982314 0.99757004 1.0132229 0.88618886
000040 15 62 76 3f 45 bb 69 3f 6f e8 4c 3f 11 ed 61 3f
       0.9624341 0.91301376 0.80042166 0.8825236
000050 c5 cc 79 3f 4e cd 8c 3f fb d3 76 3f e4 35 7f 3f
       0.9757808 1.1000154 0.96417207 0.99691606
000060 d2 0b 93 3f 8f 7a 74 3f bc d8 7b 3f 11 0e 65 3f
       1.1487982 0.9549951 0.98377585 0.8947459
000070 12 5f 81 3f 3d 2c 65 3f 39 70 6e 3f 7c ab 64 3f
       1.0107138 0.8952063 0.9313999 0.89324164
000080 83 d7 87 3f 03 3b 7c 3f 18 94 7d 3f 55 56 81 3f
       1.0612644 0.98527545 0.990541 1.0104471
000090 05 2e 7d 3f d9 20 73 3f e1 d7 63 3f b4 b1 80 3f
       0.98898345 0.94971997 0.8900128 1.0054231
0000a0 cf 3a 84 3f a0 d6 6c 3f 8a e4 73 3f e1 d1 85 3f
       1.0330447 0.9251499 0.952706 1.0454675
0000b0 50 36 7b 3f 59 c9 8c 3f e4 bc 7e 3f ac bf 6d 3f
       0.9812975 1.0998946 0.99506974 0.92870593
0000c0 f8 76 8b 3f 28 e3 74 3f eb 85 5a 3f d9 11 82 3f
       1.0895681 0.9565911 0.8536059 1.0161697
0000d0 a7 0c 83 3f a9 0d 62 3f 17 89 88 3f 0e e6 63 3f
       1.0238236 0.88302094 1.0666837 0.8902291
0000e0 27 f6 89 3f 9b ed 86 3f 2b 94 9a 3f c7 36 82 3f
       1.0778245 1.0541261 1.2076467 1.0172967
0000f0 9b 44 81 3f 97 52 83 3f 8f 66 73 3f ee 06 85 3f
       1.0099062 1.025958 0.95078367 1.039274
000100 09 6d 61 3f db 2c 6d 3f 85 ce 76 3f b1 c1 81 3f
       0.88057 0.9264657 0.96408874 1.0137235
000110 7a c0 8f 3f bb 55 6f 3f 7d d3 75 3f 82 59 7b 3f
       1.1230614 0.9349019 0.9602583 0.98183453
000120 eb a1 92 3f 61 30 63 3f c2 a6 64 3f fc 14 83 3f
       1.1455663 0.88745695 0.8931695 1.0240779
000130 14 e8 70 3f ee 8a 94 3f 95 e4 70 3f d3 67 63 3f
       0.94104123 1.1604898 0.9409879 0.888303
000140 aa 63 8c 3f c2 b7 80 3f a6 8c 9f 3f 2f de 73 3f
       1.0967915 1.0056078 1.2464797 0.952609
000150 ce fb 80 3f a9 7e 85 3f a3 26 7a 3f ff 9f 8b 3f
       1.0076845 1.0429279 0.97715205 1.0908202
000160 c4 0f 84 3f e0 02 69 3f 13 a4 85 3f 1a c4 85 3f
       1.0317311 0.9102001 1.0440696 1.045047
000170 fe 3b 86 3f 36 1a 8e 3f 92 c7 93 3f 17 79 67 3f
       1.0487058 1.1101749 1.1545279 0.90419143
000180 0e d9 7a 3f a6 df 72 3f cc fd 6d 3f 54 df 90 3f
       0.9798745 0.9487251 0.9296539 1.1318154
000190 94 a3 87 3f e0 d5 86 3f 75 3f 7d 3f b1 25 73 3f
       1.0596795 1.053402 0.9892495 0.9497939
0001a0 b4 04 7a 3f c3 5e 82 3f 7d 59 88 3f b9 8b 6b 3f
       0.97663426 1.0185169 1.065231 0.92010075
0001b0 2f e8 82 3f 3c 69 64 3f 5b b5 92 3f 5d d4 73 3f
       1.0227107 0.89223075 1.1461595 0.95245916
0001c0 2d 01 85 3f b0 1b 6e 3f 65 2f 77 3f 77 a0 5c 3f
       1.0390984 0.93011 0.96556693 0.8618235
0001d0 37 3d 3b 3f df b8 81 3f af dd 7d 3f 58 18 80 3f
       0.7314028 1.0134543 0.9916639 1.0007429
0001e0 e7 f5 6c 3f d2 65 84 3f b3 c4 7a 3f ed cd 74 3f
       0.9256272 1.0343573 0.9795639 0.9562672
0001f0 ca 78 76 3f cc 06 82 3f 91 4a 83 3f 57 92 87 3f
       0.9627806 1.0158324 1.0257131 1.0591534
000200 91 8e 91 3f ea 51 63 3f 50 c1 7b 3f 61 f1 82 3f
       1.1371633 0.88796866 0.98341846 1.0229913
000210 6b 68 81 3f 0d e3 53 3f d3 d4 73 3f e7 af 6c 3f
       1.0109991 0.82768327 0.9524662 0.92455906
000220 f8 88 80 3f c8 31 65 3f ce 5a 69 3f 92 d1 5d 3f
       1.00418 0.89529085 0.9115418 0.86647904
000230 05 17 92 3f 24 29 63 3f 12 d9 68 3f 45 9c 73 3f
       1.1413275 0.8873465 0.90956223 0.95160323
000240 fc 40 91 3f 97 63 71 3f c1 a0 91 3f 1b 05 71 3f
       1.1347957 0.9429259 1.1377183 0.94148415
000250 cc 29 78 3f 1d 2e 6b 3f 55 51 91 3f 7b 33 7f 3f
       0.96938777 0.9186724 1.1352946 0.9968793
000260 c7 37 79 3f ab 4e 80 3f fa 74 7f 3f 79 34 7a 3f
       0.97350734 1.0024008 0.9978787 0.97736317
000270 3c a7 7c 3f 02 c2 55 3f 3e bf 5b 3f 69 3a 6e 3f
       0.9869268 0.8349916 0.8583869 0.93057877
000280 ca e3 60 3f e3 d3 7e 3f ef a5 79 3f ce 7b 79 3f
       0.8784758 0.99542063 0.9751882 0.97454536
000290 84 05 60 3f d2 88 85 3f 3a 7d 8f 3f fe af 7d 3f
       0.87508416 1.0432379 1.1210091 0.9909667
0002a0 c2 aa 7a 3f e8 c4 8a 3f 20 11 68 3f 83 38 78 3f
       0.97916806 1.0841341 0.9065113 0.9696123
0002b0 d8 07 6f 3f 25 49 8e 3f a6 7d 82 3f 63 6c 82 3f
       0.93371344 1.1116072 1.0194595 1.0189327
0002c0 41 3f 7a 3f ed e8 6a 3f 8a 6c 7d 3f 14 5f 76 3f
       0.9775277 0.91761667 0.9899374 0.9623883
0002d0 18 5e 85 3f 05 43 80 3f e9 c7 87 3f 74 14 53 3f
       1.041934 1.0020453 1.0607883 0.82453084
0002e0 5b 7f 87 3f d8 b7 7e 3f 9a 7f 70 3f 64 ed 8b 3f
       1.0585741 0.99499273 0.93944705 1.0931821
0002f0 b4 01 8f 3f 19 15 80 3f e3 d3 82 3f 85 82 65 3f
       1.1172395 1.0006438 1.0220913 0.8965228
000300 98 58 82 3f 95 1f 72 3f e3 62 6a 3f 27 48 78 3f
       1.0183287 0.9457944 0.9155714 0.96985096
000310 3f e8 3b 3f d8 4b 74 3f 10 f1 72 3f b3 d9 80 3f
       0.73401254 0.9542823 0.9489908 1.0066437
000320 f3 65 80 3f e5 e7 78 3f ca 9f 6f 3f 44 f2 74 3f
       1.0031112 0.9722884 0.93603194 0.9568217
000330 82 fb 7a 3f 3d 79 94 3f f8 cb 4e 3f d2 2b 68 3f
       0.9804002 1.1599499 0.8077998 0.90691864
000340 0d 56 80 3f 44 55 86 3f 14 bc 7d 3f 26 4e 84 3f
       1.0026261 1.0494771 0.9911511 1.0336349
000350 13 97 7e 3f 32 ac 76 3f ca 07 75 3f 55 75 6c 3f
       0.9944927 0.963565 0.9571501 0.92366534
000360 ba e6 85 3f 18 7b 85 3f 62 e6 65 3f 88 7b 6b 3f
       1.0461037 1.042819 0.8980466 0.9198537
000370 e3 ad 87 3f 03 33 75 3f 12 ff 78 3f 55 03 5d 3f
       1.0599941 0.9578096 0.97264206 0.8633321
000380 9d 65 6a 3f 35 9e 8f 3f c0 9d 7c 3f 3d da 6f 3f
       0.915613 1.1220156 0.9867821 0.9369238
000390 f0 f8 5d 3f a9 77 72 3f c4 81 6f 3f f8 23 80 3f
       0.86707973 0.94713837 0.9355738 1.0010977
0003a0 17 62 79 3f 3e 9c 83 3f 72 94 63 3f 7d 02 8f 3f
       0.974153 1.0282056 0.88898385 1.1172634
0003b0 46 15 87 3f ac 1d 78 3f 1b 1b 78 3f 6e 73 7a 3f
       1.0553367 0.96920276 0.9691636 0.9783238
0003c0 d6 84 89 3f b0 a6 7d 3f d6 fa 5a 3f 6e 80 83 3f
       1.0743663 0.9908247 0.85538995 1.0273569
0003d0 81 d7 66 3f 17 ac 81 3f a8 e1 7a 3f 95 2d 7b 3f
       0.9017258 1.0130643 0.98000574 0.9811643
0003e0 4b 10 7b 3f 34 21 83 3f 84 f6 6f 3f 69 86 73 3f
       0.98071736 1.0244508 0.9373553 0.9512697
0003f0 76 f2 71 3f 6b 41 8d 3f 03 c4 60 3f e7 93 8c 3f
       0.9451059 1.1035589 0.8779909 1.0982636
