subject-models/ryangosling2023-05-23T09-41-33_ryangosling-ada/embeddings_gs-4500.pt (torch, 921583 bytes, 168 tensors)

pre_vecs f4 [2, 768]
0	0x3b418e31	0.0029534216
1	0x3c89282a	0.016742785
2	0x3c5b4214	0.0133824535
3	0xbcbd6d08	-0.02312328
4	0xbc079487	-0.008275158
5	0x3ccc00dd	0.024902755
6	0xbc9d2c01	-0.019186022
7	0xbc1d0857	-0.009584508
8	0xbc999ee7	-0.018752528
9	0x3b3ff62d	0.002929102
10	0x3cc4355a	0.023951221
11	0x38df2114	0.0001063963
12	0x3c0d4d31	0.008624361
13	0xbb63003b	-0.0034637589
14	0xbb7cfcce	-0.0038602832
15	0xbba3d6f0	-0.004999988
16	0xbc7be096	-0.01537337
17	0x3ba620f2	0.0050698454
18	0xbb1d4210	-0.0023995675
19	0x3c3b2572	0.011422502
20	0xbae14b83	-0.0017188642
21	0xbc29122e	-0.010319276
22	0x3c0769af	0.008264943
23	0xbc9a2f1f	-0.018821297
24	0x3c7029d8	0.014658414
25	0xbc809932	-0.01569805
26	0x3bf86dd8	0.007581454
27	0x3bd8f246	0.006620678
28	0x3c567f01	0.0130918035
29	0x3d0c6af5	0.03428169
30	0x3c9fd536	0.019510847
31	0x3cf022bf	0.029313443
32	0xbb7c1bea	-0.0038468787
33	0x3b80558b	0.0039164475
34	0xb8e97ecf	-0.00011133926
35	0x3d0ad1ff	0.033891674
36	0xbc354e02	-0.011065962
37	0x3c1804c9	0.009278485
38	0xbc5fc1ad	-0.013657016
39	0x3cc65c19	0.024213837
40	0x3c7ae116	0.015312454
41	0x3caed79d	0.021343047
42	0xbb3dee49	-0.002898114
43	0x3c9179f0	0.01775834
44	0x3b64453b	0.0034831304
45	0xbb9c0b9e	-0.004762127
46	0x3b59785f	0.003318332
47	0x3c0fb5ec	0.008771401
48	0xbc9ac571	-0.018892976
49	0x3b1ef722	0.002425619
50	0x3c0e9b03	0.00870395
51	0x3b0609b8	0.002045257
52	0x3c635df7	0.013877383
53	0x3b6abc86	0.0035817935
54	0xbcdcecc2	-0.026968364
55	0xbb95cea4	-0.0045717526
56	0x3bbe7595	0.0058123567
57	0x3b46f832	0.0030360338
58	0x3cd90fcd	0.026496792
59	0xbc4ddd1e	-0.0125649255
60	0xbb3cd759	-0.002881488
61	0x3bf95dda	0.007610065
62	0xbbaff8e6	-0.005370247
63	0xbbe06d82	-0.006848992
64	0x3b82bb08	0.003989581
65	0x3c2e5e36	0.010642579
66	0x3d2eb74b	0.04265527
67	0x3b5e05d2	0.003387798
68	0xbd07ca9a	-0.0331522
69	0xbc4b01e0	-0.012390584
70	0xbc1e3dd9	-0.0096583
71	0xbc3f4760	-0.011674732
72	0x3bdec58f	0.006798453
73	0x3bad2cbd	0.0052848742
74	0xbc230b55	-0.009951432
75	0x3c60b1de	0.013714282
76	0xbbc8bdb3	-0.0061261295
77	0x3ba7ccaf	0.0051208357
78	0xbcab3ac2	-0.020902041
79	0xbbe5c6fa	-0.0070122452
80	0x3b4d4138	0.003131939
81	0x3b180d5f	0.002320133
82	0x3ca22901	0.019794943
83	0xbc425dc2	-0.011863174
84	0xbba7a25c	-0.0051157903
85	0xbbae8f46	-0.005327138
86	0x3d1054b4	0.03523703
87	0x3c289f72	0.010291921
88	0xbb56df08	-0.0032786746
89	0xbc613287	-0.013744957
90	0xbc7f8802	-0.015596392
91	0x3b9fbab5	0.004874552
92	0xbc81dbce	-0.015851881
93	0xbc6fe7ce	-0.014642669
94	0xbcda9e6e	-0.026686873
95	0x3b437fb8	0.0029830765
96	0x3c4b5839	0.012411171
97	0x3b4771d1	0.003043283
98	0xbc1ba418	-0.009499572
99	0xbc3913d4	-0.011296231
100	0x39bb5429	0.00035730124
101	0xbc5ab3ec	-0.013348561
102	0x3bc61d7c	0.0060459953
103	0x3b043bee	0.0020177322
104	0xbb856bc9	-0.004071687
105	0xbc951012	-0.01819614
106	0x3c06cba3	0.008227262
107	0x3a81ebdf	0.0009912214
108	0x3ad0dc9d	0.0015934889
109	0xbd2cbe58	-0.042173713
110	0xbb1c7058	-0.0023870673
111	0xbcb10643	-0.021609431
112	0xbd1f4269	-0.038881693
113	0xbb968fb2	-0.0045947665
114	0x3d0764d0	0.033055127
115	0x3b1f99ea	0.0024353215
116	0xbbff657d	-0.007794081
117	0x3c0128e8	0.007883288
118	0xbaa2158b	-0.001236604
119	0xbcc234e5	-0.023706863
120	0xbcb39ddb	-0.021925857
121	0x3bc9f60a	0.0061633633
122	0xbaf3713b	-0.0018573174
123	0xba8a4656	-0.0010549526
124	0xbb54b849	-0.0032458475
125	0x3b46d4bf	0.003033921
126	0x3b78859c	0.0037921434
127	0x3ca7cb5e	0.020482715
128	0xbc9c88e6	-0.019108247
129	0x3cb36725	0.02189977
130	0x3c49f11e	0.012325553
131	0x3a3032c5	0.00067214324
132	0x3cda5bb5	0.026655057
133	0x3c1bc2c3	0.009506884
134	0x3c287e1e	0.010283975
135	0x39a7fce8	0.00032041152
136	0xbc979cf7	-0.018507464
137	0xbce40966	-0.027836513
138	0x3bbc835c	0.005752964
139	0xbb37e50f	-0.0028060114
140	0xbd170e7f	-0.03687906
141	0x3cba5502	0.022745613
142	0xbbe2fd5a	-0.0069271745
143	0xba6a7d64	-0.0008945076
144	0x3cbc0207	0.022950185
145	0xbc42e305	-0.011894946
146	0xba21cd0d	-0.00061722175
147	0x3c021c20	0.007941276
148	0x3cea3b0a	0.028592605
149	0x3c1a8392	0.009430783
150	0xbc6ed5e2	-0.014577361
151	0x3bd0471f	0.0063561345
152	0xbc477df9	-0.01217603
153	0xba7882cd	-0.000947994
154	0x3c2ba22e	0.010475678
155	0x3a3b3211	0.00071409444
156	0x3c0180df	0.00790426
157	0xbd07bc5f	-0.03313863
158	0x3cd69a06	0.026196491
159	0x3bf423a1	0.0074505364
160	0x3c5bb295	0.0134092765
161	0x3aeb49ae	0.0017951035
162	0x3c5d761b	0.013516928
163	0xbb4b4120	-0.003101416
164	0xbc888306	-0.01666404
165	0x3ba341d0	0.0049822107
166	0xbad9382e	-0.0016572529
167	0xbc8997fd	-0.016796106
168	0xbc735b0a	-0.014853248
169	0x3bfdccea	0.007745375
170	0x3ca13ca9	0.019682245
171	0x3c81454c	0.015780114
172	0xbbc365fe	-0.005963086
173	0x3cc1c58f	0.023653774
174	0x3c33c71a	0.0109727625
175	0x3bbac944	0.0057002623
176	0xbc05297d	-0.008127567
177	0x3c1d4573	0.0095990775
178	0x3c7bdb42	0.015372099
179	0x3cde2c81	0.02712083
180	0xbbd827a7	-0.006596524
181	0x3ba7456a	0.0051047103
182	0xbc3de9f5	-0.011591424
183	0xbc7b5182	-0.015339257
184	0xb9ab28b9	-0.00032646002
185	0xbd1069bd	-0.03525709
186	0xbb08424b	-0.0020791467
187	0xbca25bdc	-0.019819193
188	0xbcedfd3a	-0.029051412
189	0x3c06993e	0.008215247
190	0xbc4b74db	-0.012417997
191	0x3c31ee41	0.010860027
192	0xbb103f63	-0.0022010438
193	0x3c53e0ec	0.0129320435
194	0x3c9c750f	0.019098787
195	0x3c5b5fef	0.013389572
196	0x3d559388	0.05214265
197	0xbc7b054c	-0.015321087
198	0x3b008f81	0.0019616785
199	0xbc9cc856	-0.019138496
200	0x3bcd2fb4	0.00626179
201	0xbc1db4a7	-0.00962559
202	0xbc72d55f	-0.014821379
203	0x3c1c50fc	0.009540793
204	0xbc46c434	-0.012131739
205	0x3c3beb4a	0.0114696715
206	0x3c12c1fa	0.00895738
207	0x3b6df35e	0.0036308388
208	0xbb6e2cc4	-0.00363426
209	0x3a98d88f	0.0011661219
210	0x3d3fea95	0.046854574
211	0xbb5bcb20	-0.003353782
212	0xbb17b771	-0.002315011
213	0xbc1bac27	-0.009501494
214	0xbc241768	-0.010015346
215	0x3ce8fa3b	0.028439632
216	0xbae0322d	-0.0017104797
217	0x3ba84d8a	0.0051361965
218	0x3cd176f8	0.025569424
219	0xbcf0adc3	-0.029379731
220	0xb9b56aa8	-0.00034602475
221	0xbc296d2f	-0.010340973
222	0xbd072e57	-0.033003177
223	0xbc85938c	-0.016305707
224	0x3ba17903	0.004927756
225	0xbc689241	-0.014195026
226	0x3b2d20cc	0.0026417254
227	0x3cd5a486	0.026079427
228	0x3c34c82b	0.011034052
229	0xbb422f8d	-0.0029630393
230	0xbb8a764c	-0.004225528
231	0x3b02f25b	0.001998088
232	0xbafff20e	-0.0019527094
233	0xbab9ec86	-0.0014184869
234	0x3c1fc1df	0.009750812
235	0xbb9f20c9	-0.004856203
236	0x3c835ac9	0.0160345
237	0x3b99b636	0.0046909107
238	0x3c91bd77	0.01779054
239	0xbc2374dc	-0.009976592
240	0x3b95fb4a	0.004577075
241	0x39b334b7	0.00034180816
242	0x3c86123f	0.016366122
243	0xbc1b9a24	-0.009497199
244	0xbc87ce50	-0.01657787
245	0x3bfc06dc	0.0076912474
246	0xbccdeb15	-0.02513651
247	0x3c420cb9	0.011843854
248	0xbc80d40c	-0.015726112
249	0x3bd80e70	0.006593518
250	0xbd481f66	-0.04885807
251	0xbb527c0b	-0.0032117392
252	0xbb59db7f	-0.0033242402
253	0xbca8ff96	-0.020629685
254	0xbc0a570a	-0.008443603
255	0x3bbe6bde	0.0058111986

basis_rand_weights f4 [16, 5]
0	0x3d55ea93	0.05222566
1	0x3c5b81e0	0.013397664
2	0xbd812eca	-0.063077524
3	0x3df2a81e	0.11848472
4	0xbda0cf79	-0.07852072
5	0x3c31a646	0.010842865
6	0x3d032899	0.03202114
7	0xbdf802cc	-0.121099085
8	0xbd264f4a	-0.04060296
9	0x3dd352f7	0.10318559
10	0xbd83e0f0	-0.06439388
11	0x3ce9bf8e	0.028533723
12	0x3df2f404	0.118629485
13	0x3d366af7	0.044535603
14	0xbd509583	-0.050923835
15	0xbcb42020	-0.021987975
16	0x3c6c9a1a	0.014441038
17	0xbdb3fe90	-0.08788788
18	0xbdeaf90a	-0.11473282
19	0x3d2c3453	0.042042088
20	0xbde670cd	-0.11251984
21	0x3cf1adaf	0.029501764
22	0xbb74e154	-0.0037365751
23	0x3d948bd0	0.072532296
24	0xbdba2a82	-0.09090139
25	0x3dd4c67c	0.103894204
26	0xbe0f1bac	-0.139754
27	0xbda4da3c	-0.080494374
28	0xbe192564	-0.1495567
29	0xbdf49b40	-0.11943674
30	0xbc735599	-0.014851951
31	0xbc99020a	-0.01867773
32	0x3c468d5a	0.012118662
33	0x3d94096d	0.0722836
34	0xbd0d7f7e	-0.034545414
35	0xbe054805	-0.13015755
36	0x3bce493e	0.0062953522
37	0xbdc5f16d	-0.09665189
38	0x3df1fcd7	0.118158035
39	0xbcd197e7	-0.025585128
40	0xbe3e2e57	-0.18572365
41	0xbd8efdd3	-0.06982007
42	0x3e71f538	0.236287
43	0x3eb70b82	0.35750967
44	0xbcf9c978	-0.030491576
45	0xbe2fa46f	-0.1715257
46	0xbcbfe8b7	-0.023426397
47	0x3e4d1b26	0.20029888
48	0x3e56237b	0.20911972
49	0xbc6fd587	-0.014638311
50	0xbe27c5f7	-0.16384111
51	0x3db8428b	0.08997067
52	0x3e87571f	0.26433656
53	0x3e58aa62	0.21158746
54	0xbe05e4e8	-0.13075602
55	0xbd82da10	-0.06389248
56	0xbc9bec71	-0.019033642
57	0xbe41d086	-0.18927202
58	0x3e377c9c	0.17918628
59	0x3dbd04b6	0.09229414
60	0x3c473940	0.012159646
61	0xbc52036d	-0.0128182
62	0x3dc173ef	0.09445941
63	0x3e90d063	0.28283986
64	0xbd082f29	-0.0332481
65	0x3c65ed6b	0.014033656
66	0xbd8fb976	-0.07017796
67	0xbde08b53	-0.10964074
68	0x3e27a118	0.16370046
69	0xbdc35883	-0.09538367
70	0xbd396844	-0.04526545
71	0xb9ffdea1	-0.00048803262
72	0xbd924212	-0.07141508
73	0x3c9e918d	0.019356513
74	0xbe4d402c	-0.20044011
75	0x3db6dd8f	0.08928978
76	0xbca74662	-0.020419303
77	0xbd4a9581	-0.049458984
78	0x3e928f73	0.28625068
79	0xbd455e3f	-0.048185583

basis_vecs f4 [3, 768]
0	0x3d257dba	0.040403105
1	0xbb31e2b5	-0.0027143185
2	0xbc188f4c	-0.009311508
3	0xbb64452f	-0.0034831276
4	0xbbab3a23	-0.0052254363
5	0x3d0449f9	0.03229711
6	0xbc925e90	-0.017867357
7	0x3a6e680e	0.0009094485
8	0x3a948272	0.001133038
9	0x3c8bea3d	0.017079467
10	0xbc07a61e	-0.0082793515
11	0x3c82320f	0.01589301
12	0x3c5cb585	0.013471012
13	0x3cd595c0	0.026072383
14	0x3c63649f	0.01387897
15	0x3d4a1df8	0.049344987
16	0x3d12bc0a	0.03582386
17	0xbc15ce8d	-0.009143484
18	0xbc8105aa	-0.015749771
19	0xbcb99c3a	-0.022657502
20	0x3c84df3b	0.016219726
21	0x3d3f8d7d	0.046765793
22	0x3d4d693f	0.0501492
23	0xbc8422f5	-0.01612995
24	0x3c4e6920	0.012598306
25	0xbd2ced8b	-0.042218726
26	0x3d016d0a	0.03159813
27	0x3c297362	0.010342451
28	0xbd52514d	-0.051347066
29	0x3cf98032	0.030456636
30	0xbb1b55e3	-0.0023702316
31	0x3ab8201f	0.0014047659
32	0xbccbc2a4	-0.024873085
33	0x3d13aab3	0.036051463
34	0xbc9c9a16	-0.019116443
35	0x3d9d20cb	0.076722704
36	0x3c9bfbd1	0.019040974
37	0x3d0bfaa4	0.034174576
38	0x3c1be7f0	0.009515747
39	0x3c6a2320	0.014290601
40	0xbbf61cf4	-0.0075107757
41	0x3c900d30	0.017584413
42	0xbc3988be	-0.011324106
43	0xbc3be97e	-0.011469243
44	0x3d09d602	0.03365136
45	0xbd47a299	-0.04873905
46	0x3d36f1b7	0.04466411
47	0xbc6eb414	-0.014569301
48	0x3bf23cef	0.0073925178
49	0x39d09242	0.00039781822
50	0x3beb8295	0.0071871975
51	0x3c9e8442	0.019350175
52	0x3c507e18	0.012725376
53	0x3d1c85fc	0.038213715
54	0xbcacb28f	-0.021081237
55	0x3b6aa8cc	0.0035806177
56	0xbc494b36	-0.012285998
57	0xbc67911c	-0.014133718
58	0xb828d180	-4.0249433e-05
59	0xbc12373d	-0.008924303
60	0xbce5ab7c	-0.028035872
61	0x3c637705	0.013883357
62	0xb9b81eea	-0.00035118248
63	0xbbe2d7a4	-0.006922679
64	0x3cd7f71b	0.026362946
65	0xbb836b3e	-0.004010587
66	0x3caa0992	0.020756517
67	0xbcb45c79	-0.02201675
68	0xbac4b690	-0.0015008021
69	0xbaef4789	-0.0018255572
70	0xbcda4189	-0.026642578
71	0x3c2ffea2	0.010741862
72	0x3d1d2db5	0.038373668
73	0xbba34cc0	-0.0049835145
74	0x3ba2733e	0.0049575856
75	0x3b8be9fa	0.0042698355
76	0x3bc61acf	0.0060456763
77	0x3c4290b2	0.011875318
78	0xbc999386	-0.018747102
79	0x3d87ed80	0.066370964
80	0xbd0f703e	-0.035019152
81	0x3d52a300	0.05142498
82	0x3d47067f	0.04859018
83	0xbd1a311b	-0.037644487
84	0x3cd4fd0a	0.025999565
85	0xbcb40b42	-0.021978024
86	0x3d25cbd4	0.04047759
87	0xbd22a93b	-0.039712172
88	0x3c83e12b	0.01609858
89	0xbc7c674d	-0.015405488
90	0xbba6efb9	-0.005094495
91	0x3b937164	0.004499601
92	0x3c9cb915	0.019131223
93	0xbc2d1f52	-0.010566549
94	0xbd33354e	-0.043752007
95	0xbd427ee9	-0.047484312
96	0xbd193676	-0.037405454
97	0xbc46e149	-0.012138673
98	0xbb9cab10	-0.0047811344
99	0x3c5db6fb	0.0135323955
100	0x3c8caa37	0.017171009
101	0x3c96dc9d	0.018415743
102	0xbc68ed29	-0.0142167
103	0x3c880a8e	0.016606595
104	0x3a1acd14	0.0005905193
105	0xbcb9da03	-0.022686964
106	0x3d85b78c	0.065291494
107	0xbbfc587e	-0.007700979
108	0xbd8868a6	-0.06660585
109	0xbcff6680	-0.031176805
110	0x3c08ff68	0.008361675
111	0xbd22a67d	-0.039709557
112	0xbcaaff9b	-0.020873835
113	0x3d1d08cd	0.03833847
114	0x3b837012	0.0040111626
115	0x3cb82ec7	0.022483243
116	0xbbe88952	-0.007096448
117	0x3cc2fbfe	0.0238018
118	0x3ce3cf93	0.02780894
119	0xbbc168f9	-0.0059024063
120	0xbc2f3704	-0.010694269
121	0x3cf89c36	0.030347925
122	0xbb812e5c	-0.003942294
123	0x3cc8f8e5	0.024532745
124	0xbb93e853	-0.004513779
125	0xbc2e55ea	-0.010640601
126	0xbd24c623	-0.04022802
127	0xbbba5c77	-0.005687292
128	0xbb262f75	-0.0025357876
129	0x3c32baa9	0.010908761
130	0xbcd7a9a2	-0.026326004
131	0x3bf017ba	0.007327047
132	0xbd1eb37d	-0.038745392
133	0x3c505a91	0.012716905
134	0xbcaa807c	-0.02081322
135	0xbb5f09a4	-0.0034032846
136	0xbc4f2031	-0.012641952
137	0xbc942558	-0.018084213
138	0xbbaec55b	-0.005333585
139	0xbc9a9e4d	-0.018874312
140	0xbd935aab	-0.07195028
141	0x3d1a5316	0.037676893
142	0x3c87a24b	0.01655688
143	0xbc2ba608	-0.010476597
144	0x3bd5a1c7	0.0065195295
145	0xbd23f801	-0.040031437
146	0x3d01dd9b	0.03170548
147	0x3b7d7adb	0.0038677964
148	0x3c7ed60f	0.015553965
149	0xbbde8655	-0.006790916
150	0xbd5796b6	-0.052633964
151	0x3cca1442	0.024667863
152	0x3d45e890	0.048317492
153	0x3d806fc1	0.06271315
154	0xbad64547	-0.001634755
155	0x3c41cd37	0.011828712
156	0xbd022d4b	-0.031781476
157	0xbc36c781	-0.011155964
158	0x3c6e856e	0.014558179
159	0xbcbfe53f	-0.023424743
160	0xbb68b316	-0.0035507134
161	0x3c73bb8c	0.014876258
162	0x3d2cbe2d	0.042173553
163	0x3d73d8b0	0.05953282
164	0x3cd42669	0.025897222
165	0x3c4b5cb3	0.012412238
166	0x3cc85469	0.024454312
167	0xbd5e29e4	-0.05423917
168	0x3bf592e1	0.007494316
169	0x3ca7fe5a	0.020507026
170	0xbba6194d	-0.005068934
171	0xbc8d2bf7	-0.017232878
172	0xbd911293	-0.07083621
173	0x3d6cafa1	0.05778468
174	0x3ca9c5c4	0.020724185
175	0xbd13817a	-0.03601215
176	0xbd69f73d	-0.05712055
177	0xbcf754ed	-0.030191863
178	0xbcfc0ad0	-0.030766875
179	0x3ce3850f	0.027773408
180	0x3d449613	0.047994684
181	0x3db00bb6	0.08595984
182	0x3ca82987	0.020527614
183	0xbd3b9f91	-0.04580647
184	0x3c24ef84	0.010066871
185	0xbcf79d2b	-0.03022631
186	0xbbaf835e	-0.0053562364
187	0xbda9cd8e	-0.082911596
188	0xbcb97aef	-0.022641627
189	0x3cf3f36e	0.029779162
190	0xbba3583e	-0.0049848845
191	0xbd2b0fc6	-0.04176309
192	0x3b951f19	0.0045508263
193	0xbc8e6807	-0.017383588
194	0x3cc1170b	0.023570558
195	0xbc2eb3b7	-0.010662965
196	0x3cb137e4	0.021633096
197	0x3d282622	0.04105199
198	0x3db29774	0.08720294
199	0xbd3774e7	-0.04478922
200	0xbb96a555	-0.004597346
201	0xbacb4992	-0.0015509597
202	0xbc186b95	-0.009302993
203	0x3a98779f	0.001163233
204	0x3b0d326b	0.0021544944
205	0x3c07a5c1	0.008279265
206	0x3cccd8e4	0.025005765
207	0xbcd7a7e3	-0.026325172
208	0x3b68cd73	0.0035522848
209	0x3ccd0899	0.025028514
210	0x3da8d89e	0.082444414
211	0xbcb586a0	-0.02215892
212	0x3bb2e15d	0.0054589943
213	0x3c94cc94	0.018163957
214	0xbc9288e8	-0.017887548
215	0x3b99435b	0.004677219
216	0x3c8dbf88	0.017303243
217	0x3d1ca97f	0.03824758
218	0x3c538d13	0.012912053
219	0xbcda0eec	-0.026618443
220	0xbc459912	-0.012060421
221	0xbd57c86b	-0.052681368
222	0xbce23c14	-0.027616538
223	0x3acc91b1	0.0015607384
224	0x3ce2db9b	0.027692607
225	0x3c61e5cc	0.013787698
226	0xbac2f6e5	-0.0014874606
227	0xbc0f87dc	-0.008760419
228	0x3ca39f6a	0.019973475
229	0x3c81c626	0.015841555
230	0x3bccc84a	0.0062494623
231	0x3c55eb7d	0.013056633
232	0x3cbd4be0	0.02310747
233	0x3c365bcd	0.011130285
234	0xbcd869a2	-0.026417557
235	0x3a24e46b	0.00062901404
236	0xbc7252f3	-0.014790284
237	0x3cefaeb7	0.029258115
238	0x3bd1bf86	0.006401005
239	0xbda2127d	-0.079136826
240	0x3cfe5e0a	0.0310507
241	0xbcbea28f	-0.023270873
242	0xbcb1e048	-0.021713391
243	0x3c38d49d	0.01128116
244	0xba869744	-0.0010268469
245	0x3c2950cc	0.010334205
246	0xbb5c792f	-0.0033641567
247	0xbd1c3003	-0.038131725
248	0x3931d8f0	0.00016960851
249	0x3a11179f	0.0005534831
250	0xbce3cc11	-0.027807267
251	0x3cd7fbd1	0.026365193
252	0xbd910023	-0.07080104
253	0xbb997c16	-0.0046839816
254	0xbcb9acb9	-0.022665368
255	0x3ca99abf	0.020703672

basis_comm_weights f4 [1, 5]
0	0x3e7267ae	0.23672363
1	0x3f1c0951	0.60951716
2	0x3eae97d4	0.3410021
3	0x3ee63020	0.4495859
4	0x3e37654a	0.17909732

bias f4 [16, 768]
0	0xbc4f0100	-0.012634516
1	0x3b0371c0	0.0020056814
2	0xbd10251a	-0.035191633
3	0xbbf50de9	-0.007478465
4	0x3c05f9b0	0.008177206
5	0xbd33245c	-0.043735847
6	0xbced645c	-0.02897852
7	0x3d028e0a	0.03187374
8	0x3c7ebf57	0.015548549
9	0x3badfe80	0.00530988
10	0x3a502a1c	0.0007940845
11	0x3d7ca850	0.061683953
12	0x3c96e9c9	0.018422024
13	0xbd29e75c	-0.041480407
14	0xbc5634a8	-0.013074078
15	0xbbcbd4fc	-0.006220458
16	0x3ce6a530	0.02815494
17	0x3c1af9d1	0.009458975
18	0xbcca6e1e	-0.024710711
19	0x3db89115	0.09012047
20	0x3bffc799	0.0078057763
21	0xbc5cff9b	-0.0134886755
22	0x3cb0811a	0.021545935
23	0xbd233640	-0.03984666
24	0xbc2153d0	-0.009846643
25	0x3c4d6a1f	0.012537508
26	0xbd214667	-0.03937378
27	0xbc91bcb3	-0.017790174
28	0xbcdae023	-0.026718205
29	0x3caa87a6	0.020816635
30	0x3acdabb0	0.0015691426
31	0x3d3c283e	0.045936815
32	0xbcd1c5c4	-0.025606997
33	0x3d02e505	0.03195669
34	0xbc23e303	-0.010002854
35	0xbd759495	-0.059956152
36	0xbd3a2555	-0.04544576
37	0x3c9301d7	0.017945213
38	0x3c5a3afe	0.013319729
39	0xbbc957db	-0.0061445064
40	0xbc842830	-0.016132444
41	0x3c348c67	0.011019803
42	0x3a600329	0.0008545393
43	0x3c17fa2b	0.009275953
44	0x3d01ccd4	0.03168948
45	0x3c104008	0.008804329
46	0xbc45f2ae	-0.012081785
47	0xbb375b64	-0.0027978057
48	0x3b299888	0.002587827
49	0x3c93e33e	0.018052693
50	0x3cc15c29	0.023603516
51	0x3c7ff07b	0.0156213
52	0xbca96d8b	-0.020682117
53	0xbc64a7c8	-0.013956018
54	0x3c032403	0.008004191
55	0x3d5ace23	0.053419244
56	0x3d5e9b8c	0.05434756
57	0xbcd1f570	-0.025629729
58	0x3cc0db63	0.023542112
59	0xbacb530b	-0.001551242
60	0x3d13c4e7	0.036076453
61	0x3c628d32	0.013827609
62	0xbb7927f4	-0.0038018199
63	0x3c361495	0.011113306
64	0xbb899d9f	-0.004199698
65	0x3c8dd669	0.017314153
66	0x3d1ae3f2	0.03781504
67	0xbc1b665e	-0.009484855
68	0x3d4a93cb	0.049457353
69	0xbc67a74b	-0.014139007
70	0x3a6bd0ba	0.0008995641
71	0xbca3480b	-0.019931814
72	0x3b2dbbf8	0.0026509743
73	0x3ba41194	0.0050069783
74	0x3bb60046	0.005554232
75	0x3c1eba6a	0.009687999
76	0x3c37ea89	0.011225351
77	0xbd3e2d95	-0.04643019
78	0x3b758de1	0.00374686
79	0xbcc1c9cb	-0.023655793
80	0xbbde5e2c	-0.0067861285
81	0x3c473e04	0.012160782
82	0x3c0f2cce	0.00873871
83	0xbd0fb2d3	-0.03508265
84	0x3c276192	0.010216134
85	0xbc179f69	-0.009254315
86	0xbdb5fb42	-0.08885814
87	0xbca679cc	-0.02032175
88	0x3d36f851	0.044670407
89	0x3d1e3416	0.03862389
90	0xbbc179a7	-0.0059043947
91	0x3d64c954	0.055856064
92	0x3be1d4b2	0.0068918103
93	0xbd0a33f5	-0.033740956
94	0x3d3f8647	0.046758916
95	0xbb991089	-0.0046711606
96	0x3bb842ab	0.005623182
97	0x3d18a058	0.03726229
98	0x3c94262b	0.018084606
99	0x3c85133e	0.016244527
100	0xbca3d0e3	-0.019997066
101	0xbb03088d	-0.001999411
102	0xbc9d8042	-0.019226197
103	0x3d660841	0.056160215
104	0xbd0f266c	-0.03494875
105	0xbcd8637d	-0.026414627
106	0x3ce8f3aa	0.0284365
107	0x3c930956	0.017948788
108	0xbae6c3f7	-0.001760601
109	0xbc9b1145	-0.018929133
110	0x3c7bef0b	0.0153768165
111	0xbcb1e3f2	-0.021715138
112	0xbd0d0266	-0.034426115
113	0xbd6a8122	-0.057252057
114	0xbd57f848	-0.052727014
115	0xbc4daf49	-0.012553998
116	0xbcdf318d	-0.027245307
117	0xbb82aacd	-0.003987646
118	0xbce102d9	-0.027467178
119	0xbd34a0c4	-0.04409863
120	0x3c35e1f9	0.011101239
121	0x3d133a4d	0.03594427
122	0xbcac5057	-0.021034403
123	0xbbd0c7e5	-0.0063714855
124	0xbd888519	-0.06666011
125	0xbbf400ea	-0.007446398
126	0xbccdc2f4	-0.025117375
127	0x3c207550	0.0097935945
128	0xbcc57a8e	-0.02410629
129	0xbc2e7d51	-0.010649995
130	0xbce70bb7	-0.028203828
131	0xbaa608ba	-0.0012667396
132	0x3ba0941f	0.00490047
133	0x3cbaaab3	0.022786474
134	0xbbd560cf	-0.0065117846
135	0xbd56d7b6	-0.05245181
136	0x3d40f6d2	0.047110386
137	0xbcd02846	-0.025409829
138	0x3da1aeb5	0.07894651
139	0x3d21a4bc	0.039463744
140	0xbbf64304	-0.007515313
141	0x3d1ed630	0.038778484
142	0xbb9777ea	-0.004622449
143	0x3c4eb39b	0.0126160635
144	0x3d427801	0.047477726
145	0x3d77c403	0.060489666
146	0x3d123665	0.035696406
147	0xba220465	-0.00061804644
148	0x3ca09134	0.019600488
149	0xbc103f46	-0.008804148
150	0x3c8790f8	0.016548619
151	0xbc6aeed3	-0.014339167
152	0xbce5548a	-0.027994413
153	0x3a93877b	0.0011255586
154	0x3d209ea1	0.03921378
155	0x3abd0a0b	0.0014422549
156	0x3d4be623	0.049780022
157	0xbbbd9339	-0.0057853726
158	0x3c9ad46b	0.018900117
159	0x3c439637	0.0119376695
160	0x3d8ed973	0.06975069
161	0x3c84e10c	0.016220592
162	0x3c23d19b	0.009998704
163	0xbc1bb244	-0.009502951
164	0x3d29b848	0.04143551
165	0xbc85c951	-0.016331347
166	0x3ab7f686	0.0014035262
167	0xbcf35e10	-0.029707938
168	0xbd0f8f35	-0.035048682
169	0x3d56ff97	0.052489843
170	0x3d16b8bc	0.03679727
171	0xbd38bb09	-0.045100246
172	0x3c7d3fd7	0.015457115
173	0x3bc9479d	0.00614257
174	0xbcbd6f2b	-0.023124298
175	0xbc9e95aa	-0.019358475
176	0x3bd20f4e	0.006410516
177	0xbba7dabd	-0.005122511
178	0xbcadb76d	-0.021205628
179	0x3ca610d2	0.020271692
180	0xbd270319	-0.04077444
181	0x3c74fb91	0.014952556
182	0x3c2e4483	0.010636452
183	0x3da6b405	0.08139805
184	0xbd02df93	-0.0319515
185	0x3ca9445c	0.02066248
186	0x3ce3bd48	0.027800217
187	0x3d8bd9cf	0.06828653
188	0xbc423264	-0.011852834
189	0x3c24cf29	0.010059156
190	0x3cdd27f8	0.026996598
191	0x3cb694ed	0.02228781
192	0x3ca3ec5c	0.020010166
193	0x3c6bd974	0.014395107
194	0x3cd90bc4	0.026494868
195	0x3cb5a362	0.022172634
196	0x3d2a0252	0.04150612
197	0xbb9f6317	-0.0048641074
198	0xbce111eb	-0.027474364
199	0x3b8de39a	0.0043301107
200	0x3d67601e	0.05648815
201	0x3c08ee2c	0.008357566
202	0xbcb4db41	-0.022077205
203	0xbd53dabd	-0.051722277
204	0x3c37dc2b	0.011221926
205	0xbd79e445	-0.06100871
206	0xbd00e507	-0.031468417
207	0x3cc37370	0.023858756
208	0x3c698f41	0.014255346
209	0xbb205e1b	-0.0024470154
210	0x3bde97f5	0.006793017
211	0x3bc4dd9e	0.006007864
212	0x3c15b85e	0.009138195
213	0x3b57f019	0.0032949506
214	0xbb31fed1	-0.002715994
215	0x3d34458d	0.04401164
216	0xb9fcfb47	-0.00048252402
217	0x3cae3265	0.021264264
218	0x3c9b2455	0.018938223
219	0xbd010a04	-0.031503692
220	0x3be8a3c9	0.007099603
221	0x3c7ace00	0.015307903
222	0xbd03b4eb	-0.03215496
223	0x3d047f36	0.03234788
224	0xbd097bf6	-0.033565484
225	0xbc198d78	-0.009372108
226	0x3d33e6fb	0.043921452
227	0xbcd97242	-0.02654374
228	0x3cfc72cc	0.030816458
229	0x3c16e127	0.009208954
230	0x3c8bbbef	0.017057387
231	0xbcbf3483	-0.02334047
232	0x3d43ac16	0.047771536
233	0x3d19d593	0.037557196
234	0x3d437d12	0.0477267
235	0xbd1a0c01	-0.037609104
236	0xbcb05574	-0.021525122
237	0xbd662de4	-0.05619611
238	0x3d1f0ea3	0.038832318
239	0xbc21b7ef	-0.009870513
240	0x3d50203f	0.050812002
241	0x3c23c2ff	0.009995221
242	0xbcae5862	-0.021282379
243	0x3d313ab5	0.043268878
244	0x3c87a040	0.016555905
245	0x3c181d23	0.0092842905
246	0xbd269442	-0.040668733
247	0xbcde336a	-0.027124126
248	0x3c4cc132	0.012497233
249	0x3cefb1ee	0.029259648
250	0xbcf4c8b5	-0.02988086
251	0x3d29802d	0.041382004
252	0x3ccdcc64	0.025121875
253	0xbc860bbf	-0.016363023
254	0xbbaf3164	-0.005346464
255	0x3d4de385	0.050265808

weight f4 [768]
0	0x3f82ab89	1.0208598
1	0x3f650ace	0.8946961
2	0x3f89a514	1.0753503
3	0x3f7b90f3	0.9826805
4	0x3f697dd7	0.9120764
5	0x3f55398d	0.8329094
6	0x3f86ebd2	1.0540717
7	0x3f605e15	0.8764356
8	0x3f6f9f2c	0.9360225
9	0x3f7974cb	0.97443837
10	0x3f7fedd6	0.99972284
11	0x3f869c20	1.0516396
12	0x3f7d4e60	0.98947716
13	0x3f7b02cc	0.9805114
14	0x3f8195b7	1.0123814
15	0x3f79e333	0.97612303
16	0x3f83d65a	1.029979
17	0x3f80ddbf	1.0067672
18	0x3f897271	1.073805
19	0x3f561781	0.83629614
20	0x3f82dcea	1.0223668
21	0x3f79b016	0.9753431
22	0x3f88314b	1.0640043
23	0x3f896d89	1.0736552
24	0x3f6d3ee5	0.92674094
25	0x3f7c70ae	0.98609436
26	0x3f6e80ba	0.9316517
27	0x3f7942b7	0.97367424
28	0x3f868f97	1.051257
29	0x3f8a02a8	1.0782061
30	0x3f7739e9	0.9657274
31	0x3f86e565	1.0538756
32	0x3f82fce3	1.0233425
33	0x3f8aceea	1.0844395
34	0x3f7fdb53	0.9994404
35	0x3f845a29	1.0340015
36	0x3f6c908e	0.9240807
37	0x3f879ef7	1.0595387
38	0x3f721264	0.9455931
39	0x3f83ee9f	1.0307196
40	0x3f776c82	0.96649945
41	0x3f7d6c35	0.98993236
42	0x3f6d478f	0.92687315
43	0x3f785f23	0.9702017
44	0x3f8002d5	1.0000864
45	0x3f7e5de2	0.99362004
46	0x3f7a382d	0.9774197
47	0x3f6ea52c	0.9322078
48	0x3f5f69c9	0.8727079
49	0x3f828e49	1.0199672
50	0x3f70cb6b	0.9406039
51	0x3f76013c	0.96095634
52	0x3f81d7a6	1.0143936
53	0x3f70b269	0.9402223
54	0x3f84448c	1.0333419
55	0x3f8ec0d4	1.1152596
56	0x3f455738	0.7708621
57	0x3f83d1fa	1.0298455
58	0x3f8331cd	1.0249573
59	0x3f6ba858	0.9205375
60	0x3f6a407f	0.91504663
61	0x3f8242c3	1.0176624
62	0x3f7ea53c	0.9947088
63	0x3f79046d	0.9727238
64	0x3f7ff754	0.9998677
65	0x3f70fa15	0.94131595
66	0x3f8112ea	1.0083897
67	0x3f79ab72	0.9752723
68	0x3f6a6a6c	0.91568637
69	0x3f7ca792	0.9869319
70	0x3f81121c	1.0083652
71	0x3f6d6466	0.9273132
72	0x3f7bc009	0.983399
73	0x3f7dd7c8	0.9915738
74	0x3f753648	0.9578595
75	0x3f81f87f	1.015396
76	0x3f7a1448	0.97687197
77	0x3f645279	0.89188343
78	0x3f77e1e5	0.9682906
79	0x3f6c18f8	0.922256
80	0x3f7dd688	0.99155474
81	0x3f74c8b7	0.95618767
82	0x3f83571a	1.0260956
83	0x3f8d4ac5	1.1038443
84	0x3f8708af	1.0549525
85	0x3f833faa	1.0253804
86	0x3f325073	0.69654006
87	0x3f8acab8	1.0843115
88	0x3f92db8b	1.1473249
89	0x3f69ffa4	0.914057
90	0x3f7ebe99	0.9950958
91	0x3f919e6e	1.1376474
92	0x3f783b6b	0.96965665
93	0x3f84630f	1.034273
94	0x3f51c9bd	0.81948453
95	0x3f752cbf	0.957714
96	0x3f73ad32	0.9518615
97	0x3f880864	1.0627561
98	0x3f6d2e4d	0.92648774
99	0x3f796790	0.9742365
100	0x3f7b7acc	0.9823425
101	0x3f84917a	1.0356896
102	0x3f8a5ee5	1.081021
103	0x3f8765aa	1.05779
104	0x3f862839	1.0481025
105	0x3f8e33a3	1.1109508
106	0x3f85a848	1.044198
107	0x3f7107a7	0.941523
108	0x3f83faf1	1.0310956
109	0x3f7daa9c	0.99088454
110	0x3f789dd4	0.97115827
111	0x3f86ad3b	1.0521616
112	0x3f8209d5	1.015925
113	0x3f49f3c7	0.788876
114	0x3f5d6927	0.86488575
115	0x3f72d7f5	0.94860774
116	0x3f79dc48	0.9760175
117	0x3f81db7a	1.0145104
118	0x3f6569c7	0.8961453
119	0x3f900cad	1.1253868
120	0x3f6b950f	0.9202432
121	0x3f86dba3	1.0535778
122	0x3f839aba	1.0281594
123	0x3f7a12a4	0.97684693
124	0x3f8be1d7	1.0928296
125	0x3f834758	1.0256147
126	0x3f8bf3d3	1.0933784
127	0x3f7afb26	0.9803947
128	0x3f79f1b5	0.9763444
129	0x3f6da76e	0.928336
130	0x3f83d215	1.0298487
131	0x3f6cc7f3	0.924926
132	0x3f7d5e66	0.98972166
133	0x3f7a0f64	0.97679734
134	0x3f816529	1.0108997
135	0x3f6c6c8b	0.92353123
136	0x3f6885ac	0.9082897
137	0x3f8872b6	1.0660007
138	0x3f5a4cbc	0.8527334
139	0x3f59d715	0.85093814
140	0x3f840127	1.0312852
141	0x3f909213	1.1294578
142	0x3f82d283	1.0220493
143	0x3f784da0	0.96993446
144	0x3f88974f	1.0671176
145	0x3f5d1193	0.8635494
146	0x3f88d53d	1.0690075
147	0x3f7bccf2	0.98359597
148	0x3f877cf9	1.0585014
149	0x3f5b480a	0.856568
150	0x3f73d618	0.95248556
151	0x3f671a8a	0.9027487
152	0x3f68ff34	0.9101441
153	0x3f7efc0c	0.99603343
154	0x3f704ccb	0.93867177
155	0x3f825ffe	1.0185544
156	0x3f81a69a	1.0128968
157	0x3f7b0088	0.98047686
158	0x3f89707c	1.0737453
159	0x3f7cd335	0.98759776
160	0x3f8d11f2	1.1021101
161	0x3f76c158	0.9638877
162	0x3f87824e	1.0586641
163	0x3f7501fb	0.95706147
164	0x3f90b3d0	1.1304874
165	0x3f784867	0.9698548
166	0x3f8451e2	1.0337489
167	0x3f872c22	1.0560343
168	0x3f71191d	0.94178945
169	0x3f8d4fe4	1.1040006
170	0x3f7afc4b	0.9804122
171	0x3f762182	0.9614488
172	0x3f690c14	0.91034055
173	0x3f884b84	1.0648046
174	0x3f512be6	0.8170761
175	0x3f808de8	1.0043306
176	0x3f77d20d	0.9680489
177	0x3f83fa78	1.0310812
178	0x3f81da1f	1.014469
179	0x3f8a427d	1.0801541
180	0x3f6466e8	0.8921952
181	0x3f8975da	1.073909
182	0x3f6dd821	0.9290791
183	0x3f570e65	0.8400634
184	0x3f7f1181	0.99636084
185	0x3f779b51	0.9672137
186	0x3f72b28e	0.948037
187	0x3f38a3c3	0.7212488
188	0x3f6675cf	0.9002351
189	0x3f859a05	1.0437628
190	0x3f85fbcf	1.0467471
191	0x3f6fc99e	0.9366702
192	0x3f6eddc3	0.9330713
193	0x3f7bdcf6	0.98384035
194	0x3f77a0a1	0.96729475
195	0x3f7af7fa	0.9803463
196	0x3f92e2e4	1.1475492
197	0x3f797bd0	0.9745455
198	0x3f68c5aa	0.9092661
199	0x3f7fc4b9	0.9990955
200	0x3f606d86	0.8766712
201	0x3f7c1951	0.9847613
202	0x3f83cb64	1.0296445
203	0x3f6b6e41	0.9196511
204	0x3f6ac84a	0.91711867
205	0x3f68a4ae	0.9087628
206	0x3f65911a	0.8967453
207	0x3f7f6a75	0.99771816
208	0x3f6ef17a	0.93337214
209	0x3f73f81d	0.95300466
210	0x3f829b63	1.020367
211	0x3f71b46d	0.9441593
212	0x3f7698a0	0.9632664
213	0x3f7fdb49	0.9994398
214	0x3f6e62f8	0.93119764
215	0x3f888384	1.0665135
216	0x3f6c6e14	0.92355466
217	0x3f87eaef	1.0618571
218	0x3f8638eb	1.048612
219	0x3f88a1fc	1.0674434
220	0x3f693cc1	0.9110833
221	0x3f6ad1e4	0.9172652
222	0x3f85ff81	1.0468599
223	0x3f7263ad	0.94683343
224	0x3f60ea99	0.8785797
225	0x3f7c05d3	0.9844639
226	0x3f8a9d40	1.0829239
227	0x3f7138fd	0.9422758
228	0x3f85abe8	1.0443087
229	0x3f76ea6b	0.96451443
230	0x3f74c0f0	0.956069
231	0x3f890f15	1.0707728
232	0x3f9275a5	1.1442152
233	0x3f7a43b8	0.9775958
234	0x3f5e83f6	0.86920106
235	0x3f6b2484	0.91852593
236	0x3f883c3e	1.0643384
237	0x3f4c95e6	0.79916227
238	0x3f8baac2	1.0911486
239	0x3f9117b2	1.1335356
240	0x3f930b90	1.1487904
241	0x3f83139e	1.0240362
242	0x3f82484c	1.0178313
243	0x3f87853b	1.0587534
244	0x3f7862e0	0.9702587
245	0x3f77074d	0.96495515
246	0x3f858b99	1.0433227
247	0x3f872a57	1.0559796
248	0x3f6626cc	0.8990295
249	0x3f84aac4	1.0364614
250	0x3f8934c3	1.0719227
251	0x3f86c147	1.0527734
252	0x3f7b5875	0.9818185
253	0x3f82b7ac	1.0212302
254	0x3f866eb7	1.0502537
255	0x3f8c21fd	1.0947872

bias f4 [768]
0	0x3c56f186	0.013119107
1	0xbd80e410	-0.062934995
2	0xbdcc1fd2	-0.09967007
3	0x388b7653	6.650076e-05
4	0x3d6fdf9d	0.058562864
5	0xbe1d4f01	-0.15362169
6	0xbd8fbc7f	-0.07018375
7	0x3dfcd9b7	0.12346213
8	0x3d914cc7	0.07094722
9	0xbb9bec23	-0.0047583743
10	0x3ca4c404	0.020112999
11	0x3e1f4a93	0.15555792
12	0x3cb92619	0.022601174
13	0xbd8e260e	-0.06940852
14	0x3d199df3	0.037504148
15	0xbc096ff1	-0.008388505
16	0x3d45ad3a	0.048260905
17	0xbd05e13f	-0.032685515
18	0xbdf12a7c	-0.117756814
19	0x3e477a58	0.19480264
20	0x3cfd941f	0.030954419
21	0xbc9f2b78	-0.019429907
22	0x3da523c9	0.08063466
23	0xbddb7ce0	-0.107171774
24	0xbd90d2b2	-0.07071437
25	0xba44b540	-0.0007503815
26	0xbdb804a3	-0.089852594
27	0xbcbff628	-0.023432806
28	0xbd91b3fe	-0.07114409
29	0x3db7e280	0.08978748
30	0xbcf69172	-0.03009865
31	0x3e3e93b6	0.18611035
32	0xbd8658e7	-0.065599255
33	0x3d8dd28e	0.06924926
34	0xbbf4d5fa	-0.007471797
35	0xbe7ca2b0	-0.24671435
36	0xbdc4f3f8	-0.09616846
37	0x3d81ee68	0.063443005
38	0x3bd788b3	0.006577575
39	0x3cef5d32	0.029219244
40	0xbbec3e2c	-0.00720956
41	0x3c963e89	0.018340366
42	0x3ccaa954	0.024738945
43	0x3d37eb40	0.044902086
44	0x3dbb72ff	0.09152793
45	0x3ca2e710	0.01988557
46	0xbab75ea5	-0.0013989998
47	0x3cb431af	0.021996347
48	0x3daa5774	0.083174616
49	0x3dafa5d8	0.08576554
50	0x3d84a507	0.06476789
51	0xbc2867ec	-0.010278683
52	0xbd4b09e6	-0.049569987
53	0xbd0d0c02	-0.03443528
54	0xbcce46c5	-0.02518023
55	0x3e54fc41	0.20799352
56	0x3e4cdb47	0.20005523
57	0xbdf6f564	-0.12058523
58	0x3d444f1c	0.047927007
59	0xbc7d9783	-0.015478018
60	0x3d98d5f3	0.074626826
61	0x3d5cd91a	0.05391798
62	0xbd3497e7	-0.044090178
63	0x3c83f8c6	0.016109835
64	0xbb0925c1	-0.0020927044
65	0x3d7274e8	0.05919352
66	0x3dc3fafa	0.09569354
67	0x3ca3e571	0.020006867
68	0x3e08beab	0.13353984
69	0xbca28665	-0.019839475
70	0xbc24a804	-0.010049824
71	0xbdcedfac	-0.10101256
72	0xbca21947	-0.019787444
73	0x3c1219bd	0.008917269
74	0x3cf39b7f	0.029737232
75	0xbb408c9d	-0.0029380687
76	0x3c0a1ade	0.008429257
77	0xbdceebc9	-0.10103566
78	0xbbb5c5cb	-0.0055472604
79	0xbd75f017	-0.06004342
80	0xbd3a6057	-0.045502033
81	0xbc79a981	-0.015238167
82	0x3d12046f	0.03564876
83	0xbdc19d84	-0.09453872
84	0x3cde8638	0.02716361
85	0xbcf7ae6e	-0.030234542
86	0xbe664162	-0.22485879
87	0xbc6ef5f2	-0.014585005
88	0x3e20b77b	0.15694992
89	0x3dbad467	0.09122544
90	0xbcf11765	-0.0294301
91	0x3e1aefef	0.1513059
92	0xbba24074	-0.004951531
93	0xbd4ab832	-0.04949207
94	0x3e1dd178	0.15411937
95	0x3d001884	0.03127338
96	0x3ce10282	0.027467016
97	0x3dddba48	0.10826546
98	0x3bfcde00	0.007716894
99	0x3db12481	0.08649541
100	0xbcec8c1d	-0.028875405
101	0xbcf3138a	-0.029672403
102	0xbd71d203	-0.059038173
103	0x3da8741c	0.08225271
104	0xbd4630a6	-0.04838624
105	0xbde286d8	-0.11060876
106	0x3d47b956	0.048760734
107	0x3c9ebd88	0.019377485
108	0xbd255642	-0.040365465
109	0xbd9f091f	-0.077654116
110	0x3cf3c819	0.0297585
111	0xbd47c481	-0.048771385
112	0xbdc2361c	-0.09482977
113	0xbe46f30d	-0.19428654
114	0xbe06ad86	-0.13152131
115	0xbd43b4e3	-0.04777993
116	0xbd816ee1	-0.063199766
117	0x3cc8e341	0.024522426
118	0xbd59e12a	-0.05319325
119	0xbe074b52	-0.13212326
120	0xbceb345b	-0.028711488
121	0x3da12030	0.078674674
122	0xbd67ae9c	-0.056563005
123	0xbc7f140d	-0.015568745
124	0xbe03a01c	-0.12854046
125	0x3c8679d1	0.016415508
126	0xbdc30321	-0.09522081
127	0x3cde31cf	0.02712336
128	0xbd9ec629	-0.0775264
129	0xbd69ab78	-0.05704829
130	0xbd218b5c	-0.039439544
131	0x3c5df2d0	0.013546661
132	0xbb92d2ed	-0.0044807107
133	0x3c302a4c	0.010752272
134	0xbcb667d5	-0.022266308
135	0xbdf68311	-0.12036718
136	0x3dd465f9	0.10371012
137	0xbd7c835e	-0.06164872
138	0x3e3215d9	0.17391147
139	0x3dc8c4e3	0.09803178
140	0xbd0037de	-0.03130328
141	0x3e094aa2	0.13407376
142	0x3d0c853e	0.034306757
143	0x3c50eb8c	0.012751471
144	0x3e0826ac	0.13296002
145	0x3dfe057c	0.1240339
146	0x3dd51f04	0.104063064
147	0xbc97569d	-0.018473918
148	0x3d807433	0.06272163
149	0x3d57819a	0.052613832
150	0x3d4290b6	0.04750129
151	0xbd80288b	-0.06257733
152	0xbdb82c47	-0.0899282
153	0xbb84afe6	-0.004049289
154	0x3dcf2468	0.10114366
155	0xba0f272a	-0.0005460853
156	0x3e10df1d	0.14147611
157	0xbcf95cfc	-0.030439846
158	0x3da71ff8	0.081603944
159	0x3ba95344	0.0051673967
160	0x3e71128f	0.23542236
161	0x3d636d8a	0.055524386
162	0x3cfbb7ac	0.03072723
163	0xbd1735da	-0.03691659
164	0x3e0c471f	0.13699006
165	0x3bea16b0	0.007143818
166	0xbd24160b	-0.040060084
167	0xbd76bdad	-0.060239483
168	0xbd97652e	-0.07392345
169	0x3e18c07b	0.14917175
170	0x3ddbf334	0.10739747
171	0xbdd9467b	-0.10609146
172	0x3dac15ac	0.08402571
173	0x3d6a899c	0.05726014
174	0xbde1b3fe	-0.11020659
175	0x3c4789c6	0.012178844
176	0xbc6cba20	-0.0144486725
177	0xbce11d43	-0.027479773
178	0xbd4863e2	-0.04892338
179	0x3da61dac	0.08111128
180	0xbde40161	-0.111330755
181	0x3d33b24d	0.043871213
182	0x3d69e69c	0.057104692
183	0x3e1dd49a	0.15413132
184	0xbdb53451	-0.08847869
185	0x3cfd780e	0.030941036
186	0x3d8ada9c	0.06779978
187	0x3e60798d	0.21921368
188	0x3d88a506	0.06672101
189	0x3d2c4d51	0.042065922
190	0x3d8537fa	0.06504817
191	0x3d533207	0.05156138
192	0x3d507b2b	0.050898712
193	0x3c5eb25f	0.013592332
194	0x3cd47655	0.025935331
195	0x3c68d10c	0.014209997
196	0x3e1703e1	0.14747573
197	0xbcd06564	-0.025438972
198	0xbd967c9a	-0.073479846
199	0x3a565bc1	0.00081771245
200	0x3df5c681	0.12000752
201	0xbc8a3330	-0.016870111
202	0xbd4c7532	-0.049916454
203	0xbd9aebb3	-0.07564487
204	0x3da1d225	0.0790141
205	0xbdc5fbd3	-0.09667172
206	0xbdaa85e7	-0.08326321
207	0xbb4b1a57	-0.0030991042
208	0x3ddb44b0	0.107064605
209	0xbb1543cb	-0.0022776003
210	0x3cee03c7	0.029054536
211	0x3d0ef215	0.034898836
212	0xbc40a978	-0.0117591545
213	0xbccfc368	-0.025361732
214	0x3d261251	0.04054481
215	0x3e00b4a5	0.1256891
216	0xbc952512	-0.018206153
217	0x3d8bf61f	0.06834053
218	0x3d5a845a	0.053348877
219	0xbd58e6e5	-0.052954573
220	0x3d7bf2a7	0.06151071
221	0x3d87dd6b	0.06634029
222	0xbd880997	-0.06642454
223	0x3dcdcb05	0.100484885
224	0xbdc3f159	-0.09567518
225	0xbca9b422	-0.020715777
226	0x3e0b451f	0.13600586
227	0xbb0d8859	-0.0021596162
228	0x3dd9a633	0.10627403
229	0x3d398b41	0.04529882
230	0x3d074357	0.033023205
231	0xbd817868	-0.06321794
232	0x3e00b26a	0.1256806
233	0x3d9ca807	0.07649236
234	0x3df31410	0.11869061
235	0xbdb09a73	-0.08623209
236	0xbda4bbeb	-0.08043655
237	0xbe44ee9f	-0.19231652
238	0x3da5990d	0.08085833
239	0xbe04c95e	-0.1296744
240	0x3e119402	0.14216617
241	0x3d4797f6	0.048728906
242	0xbd63a056	-0.05557283
243	0x3dfe5c4f	0.1241995
244	0x3da6323a	0.08115049
245	0x3d4acbb1	0.04951066
246	0xbdf25477	-0.11832517
247	0xbdd2cfb6	-0.10293524
248	0x3d93e62c	0.07221636
249	0x3da61a65	0.08110503
250	0xbdaf0890	-0.08546555
251	0x3de6eb6e	0.112753734
252	0x3cb3e2dc	0.02195876
253	0xbcc951bf	-0.024575112
254	0xbd4412b8	-0.047869414
255	0x3e09e928	0.13467848

weight f4 [768]
0	0x3f60804c	0.87695765
1	0x3f727c1b	0.9472062
2	0x3f91f51f	1.140293
3	0x3f835f04	1.0263371
4	0x3f76a246	0.9634136
5	0x3f892bc4	1.0716481
6	0x3f974af5	1.181975
7	0x3f7ae766	0.98009336
8	0x3f79f873	0.9764473
9	0x3f8125fc	1.0089717
10	0x3f86094a	1.0471585
11	0x3f8861a3	1.0654796
12	0x3f7e324c	0.99295497
13	0x3f71d822	0.9447042
14	0x3f63fa6b	0.8905398
15	0x3f82cff4	1.0219712
16	0x3f493b22	0.78605855
17	0x3f572f1c	0.8405626
18	0x3f6bc8dc	0.9210336
19	0x3f6c8a12	0.9239818
20	0x3f87dada	1.0613663
21	0x3f8303e8	1.0235567
22	0x3f8b7cc6	1.0897453
23	0x3f804a50	1.0022678
24	0x3f75dcba	0.96039927
25	0x3f8306a8	1.0236406
26	0x3f84b1e5	1.0366789
27	0x3f903d41	1.1268693
28	0x3f81e88d	1.0149094
29	0x3f83cff1	1.0297834
30	0x3f92108e	1.1411302
31	0x3f6f022a	0.9336268
32	0x3f8a2e36	1.0795352
33	0x3f81cf64	1.0141416
34	0x3f7edfb5	0.995601
35	0x3f81210e	1.0088212
36	0x3f69f8a3	0.91395015
37	0x3f659898	0.89685965
38	0x3f6782e2	0.90434086
39	0x3f66e7f3	0.90197676
40	0x3f852c8b	1.0404218
41	0x3f85d1b9	1.0454627
42	0x3f826c2e	1.0189264
43	0x3f7c7653	0.9861805
44	0x3f83d0e3	1.0298122
45	0x3f5950f6	0.8488916
46	0x3f82a354	1.0206094
47	0x3f75d9d8	0.9603553
48	0x3f7e2533	0.9927551
49	0x3f69ebc4	0.91375375
50	0x3f803d05	1.0018622
51	0x3f717d9b	0.94332284
52	0x3f91d6fd	1.1393734
53	0x3f844aa5	1.033528
54	0x3f83f4a5	1.0309035
55	0x3f8390d2	1.0278571
56	0x3f850c43	1.0394367
57	0x3f746a0f	0.9547433
58	0x3f82697e	1.0188444
59	0x3f787ed5	0.9706853
60	0x3f26152c	0.64876056
61	0x3f837202	1.0269167
62	0x3f71bab9	0.9442554
63	0x3f57b5ea	0.84261954
64	0x3f7ac461	0.979559
65	0x3f852ba1	1.040394
66	0x3f7beeaf	0.9841108
67	0x3f8f7cab	1.1209921
68	0x3f7f116c	0.9963596
69	0x3f696fcf	0.9118623
70	0x3f85065b	1.0392565
71	0x3f838037	1.0273503
72	0x3f40f187	0.7536854
73	0x3f72654b	0.9468581
74	0x3f792ff4	0.97338796
75	0x3f711b32	0.9418212
76	0x3f873f0c	1.0566115
77	0x3f841714	1.0319543
78	0x3f7a2af0	0.9772177
79	0x3f85447e	1.0411527
80	0x3f696ffc	0.911865
81	0x3f5cbdab	0.8622691
82	0x3f715fc9	0.9428678
83	0x3f797057	0.9743704
84	0x3f5025d2	0.8130771
85	0x3f6f95ed	0.93588144
86	0x3f5e6737	0.86876243
87	0x3f77d9ea	0.96816885
88	0x3f949c0f	1.1610125
89	0x3f3ed9c5	0.7455104
90	0x3f7a46b5	0.9776414
91	0x3f8061f5	1.0029894
92	0x3f8193e0	1.0123253
93	0x3f6c9c97	0.9242644
94	0x3f84b0cc	1.0366454
95	0x3f9302c2	1.1485217
96	0x3f69c9b9	0.9132343
97	0x3f6d1b0a	0.92619383
98	0x3f76818d	0.9629143
99	0x3f8770a8	1.0581255
100	0x3f825914	1.0183434
101	0x3f8065d2	1.0031073
102	0x3f6c5c99	0.9232879
103	0x3f4ca195	0.79934055
104	0x3f6576ae	0.89634216
105	0x3f7c2c1a	0.98504794
106	0x3f89b10c	1.0757155
107	0x3f786eb6	0.9704393
108	0x3f81ee23	1.0150799
109	0x3f7a82c3	0.97855777
110	0x3f8217b4	1.0163484
111	0x3f91a9ed	1.1379982
112	0x3f728467	0.9473328
113	0x3f7930e0	0.973402
114	0x3f817289	1.0113078
115	0x3f5e43ee	0.868224
116	0x3f82da0d	1.0222794
117	0x3f80449d	1.0020939
118	0x3f73ba05	0.9520572
119	0x3f622f69	0.8835359
120	0x3f5e779b	0.86901253
121	0x3f5dc248	0.86624575
122	0x3f649874	0.89295125
123	0x3f7f2461	0.99664885
124	0x3f82cb88	1.0218363
125	0x3f824cd1	1.0179693
126	0x3f8a9d20	1.0829201
127	0x3f8b6e2b	1.0892996
128	0x3f795507	0.97395366
129	0x3f6fac78	0.9362254
130	0x3f82d5b9	1.0221473
131	0x3f800901	1.0002748
132	0x3f609444	0.87726235
133	0x3f6bf752	0.92174256
134	0x3f7a0810	0.9766855
135	0x3f7f82af	0.9980878
136	0x3f5b244d	0.85602266
137	0x3f7c1217	0.984651
138	0x3f82f68d	1.0231491
139	0x3f8c8f54	1.098124
140	0x3f8441cb	1.0332578
141	0x3f6c99c6	0.9242214
142	0x3f882aae	1.0638025
143	0x3f891465	1.0709349
144	0x3f823503	1.0172428
145	0x3f827464	1.019177
146	0x3f6de892	0.92933
147	0x3f56a587	0.83846325
148	0x3f693bc5	0.91106826
149	0x3f5cbd12	0.86226
150	0x3f79d7c6	0.9759487
151	0x3f74aca6	0.9557594
152	0x3f6333d0	0.88750935
153	0x3f7030ea	0.93824637
154	0x3f74fb2d	0.95695764
155	0x3f776928	0.9664483
156	0x3f728cc8	0.94746065
157	0x3f72e9b5	0.9488786
158	0x3f7171cc	0.94314265
159	0x3f82b0bc	1.0210185
160	0x3f658b95	0.8966611
161	0x3f56c0ec	0.83888125
162	0x3f6c115b	0.9221398
163	0x3f728791	0.9473811
164	0x3f88ad59	1.0677902
165	0x3f634e89	0.8879171
166	0x3f8e4fa1	1.1118051
167	0x3f5c0c6b	0.8595645
168	0x3f7a473a	0.97764933
169	0x3f9184e6	1.1368682
170	0x3f7f293a	0.9967228
171	0x3f82be8d	1.0214401
172	0x3f704573	0.9385597
173	0x3f87794f	1.0583895
174	0x3f6dfd7f	0.9296493
175	0x3f5132d3	0.81718177
176	0x3f8b24a8	1.0870562
177	0x3f7e3de0	0.99313164
178	0x3f86cbd5	1.0530955
179	0x3f83aea4	1.0287671
180	0x3f7c221a	0.98489535
181	0x3f62118f	0.8830804
182	0x3f737257	0.95096344
183	0x3f55e33c	0.8354986
184	0x3f817754	1.0114541
185	0x3f853ceb	1.0409216
186	0x3f626b2e	0.88444793
187	0x3f898691	1.0744191
188	0x3f6829ca	0.90688765
189	0x3f72cd88	0.94844866
190	0x3f7cdc25	0.98773414
191	0x3f6f44f2	0.9346458
192	0x3f82d8ca	1.0222409
193	0x3f7b59ed	0.9818409
194	0x3f8bd628	1.092473
195	0x3f65e3c4	0.8980067
196	0x3f8574f4	1.0426316
197	0x3f81cdc8	1.0140924
198	0x3f88d6f6	1.0690601
199	0x3f652387	0.89507335
200	0x3f5ef3c5	0.8709071
201	0x3f836bc0	1.0267258
202	0x3f80a9c6	1.0051811
203	0x3f8106eb	1.0080236
204	0x3f8341c4	1.0254445
205	0x3f4514bd	0.7698477
206	0x3f62f83c	0.88660026
207	0x3f83df45	1.0302511
208	0x3f6a78ef	0.9159078
209	0x3f85927b	1.0435327
210	0x3f7e4f3d	0.9933966
211	0x3f506989	0.81411034
212	0x3f7c7cf4	0.98628163
213	0x3f758f9f	0.95922273
214	0x3f658119	0.8965011
215	0x3f7e2265	0.9927123
216	0x3f782021	0.96924025
217	0x3f81e348	1.0147486
218	0x3f81eede	1.0151021
219	0x3f936f81	1.1518403
220	0x3f8f7f15	1.1210657
221	0x3f787973	0.97060317
222	0x3f3077f3	0.6893303
223	0x3f632575	0.8872903
224	0x3f95d2f3	1.1705002
225	0x3f7ba494	0.98298
226	0x3f7c19ce	0.98476875
227	0x3f7e51ad	0.9934338
228	0x3f930258	1.148509
229	0x3f68f1df	0.90994066
230	0x3f7805db	0.96883935
231	0x3f757da3	0.9589483
232	0x3f5f9270	0.8733282
233	0x3f867bb9	1.0506507
234	0x3f78a31b	0.9712388
235	0x3f604fa7	0.8762154
236	0x3f553a88	0.83292437
237	0x3f4e537e	0.8059615
238	0x3f70a395	0.93999606
239	0x3f8bdc09	1.0926524
240	0x3f643c6f	0.89154714
241	0x3f8fce3e	1.1234815
242	0x3f84cfed	1.0375954
243	0x3f6db06e	0.92847335
244	0x3f847a01	1.0349733
245	0x3f6aefd7	0.91772217
246	0x3f77b8d6	0.9676641
247	0x3f7edb1a	0.9955307
248	0x3f762f1c	0.96165633
249	0x3f73bbb9	0.9520832
250	0x3f6f5860	0.93494225
251	0x3f628730	0.8848753
252	0x3f8010a8	1.0005083
253	0x3f84c2e6	1.0371978
254	0x3f4d8be9	0.8029161
255	0x3f698375	0.9121621

bias f4 [768]
0	0xbe07bb57	-0.13255058
1	0x3cd11d41	0.025526645
2	0xbe05e2c4	-0.13074785
3	0xbd0e51cd	-0.03474598
4	0x3d960457	0.073250465
5	0x3d92447d	0.07141969
6	0xbe36fa4f	-0.17868923
7	0x3da9271c	0.08259413
8	0x3d964927	0.073381715
9	0x3ca90220	0.020630896
10	0x3db7160c	0.08939752
11	0x3e210f9d	0.15728612
12	0xbe8e0793	-0.27740154
13	0x3d9e02db	0.077153884
14	0xbe11f770	-0.14254546
15	0x3cc25c01	0.023725512
16	0xbe42b0e8	-0.19012797
17	0x3e5949d0	0.21219563
18	0x3dd9122f	0.10599171
19	0x3d3a80ce	0.045532994
20	0x3cb5ca2b	0.022191128
21	0x3ca87b86	0.020566713
22	0x3dd01042	0.10159351
23	0xbcba5076	-0.022743445
24	0xbcbf9330	-0.023385614
25	0xbcef6ca1	-0.029226603
26	0x3d6c605a	0.057709076
27	0x3e06a252	0.13147858
28	0xbcba4dd8	-0.022742197
29	0x3d82f1fc	0.06393811
30	0x3e218d27	0.15776502
31	0xbddbd8e9	-0.10734732
32	0xbd878c5a	-0.06618567
33	0x3c88c2ef	0.016694514
34	0x3d6f48bf	0.058418985
35	0xbd23a62f	-0.039953407
36	0xbe16fd6d	-0.14745112
37	0xbd90efbf	-0.07076978
38	0x3d2e86af	0.042608913
39	0xbde0572b	-0.10954126
40	0x3d7e3dbc	0.062070593
41	0xbc9d7658	-0.01922147
42	0xbcc9a8bb	-0.02461659
43	0x3b4438ce	0.0029941085
44	0x3df865a5	0.12128762
45	0x3de008fe	0.10939215
46	0x3cd949e3	0.02652449
47	0x3ba4b5f4	0.0050265733
48	0xbd78cabc	-0.060740218
49	0xbe02cc09	-0.12773146
50	0xb91e8a91	-0.00015119674
51	0xbd848ad7	-0.06471794
52	0x3e0d866d	0.1382081
53	0x3d248ba0	0.04017222
54	0xbc4da974	-0.012552608
55	0x3dbbc0cc	0.091676325
56	0xbd52b637	-0.051443305
57	0x3bf1a19b	0.007374001
58	0x3c920527	0.017824722
59	0xbc3b71e5	-0.011440729
60	0x3ea02c37	0.31283733
61	0x3d68caaf	0.05683392
62	0x3cd81be1	0.026380481
63	0x3e400e27	0.18755399
64	0x3b4674ca	0.0030282014
65	0x3dcd95f3	0.10038366
66	0x3d9a94c5	0.07547907
67	0xbde16f29	-0.1100753
68	0xbd144e41	-0.03620744
69	0x3b4f6b05	0.0031649482
70	0xbd8bdf0d	-0.06829653
71	0x3d8b7b1b	0.0681059
72	0xbe4aebed	-0.19816561
73	0xbdc497b5	-0.09599248
74	0xbd81c391	-0.063361295
75	0x3df19164	0.11795309
76	0x3daf859d	0.085704066
77	0x3cfc3518	0.030787036
78	0x3daa4afb	0.08315083
79	0x3d276a8a	0.040873088
80	0x3dd9b506	0.106302306
81	0xbdc7de22	-0.09759165
82	0xbd398dc9	-0.045301232
83	0x3d3a164e	0.045431428
84	0xbde6c9e3	-0.112689756
85	0x3d839ca6	0.06426363
86	0xbdb890c1	-0.090119846
87	0x3c9abf7c	0.018890135
88	0x3e329457	0.174394
89	0x3e6390dc	0.22223228
90	0x3ca5d44c	0.020242833
91	0x3b2f1033	0.0026712536
92	0x3da41c54	0.08013216
93	0x3d6bfa4a	0.05761174
94	0xbd060719	-0.032721613
95	0xbe00beca	-0.1257278
96	0x3da6437c	0.081183404
97	0xbda7926c	-0.08182225
98	0xbc705a86	-0.01467002
99	0x3ddd9f0f	0.10821354
100	0x3c54ebc7	0.012995667
101	0xbcee64dc	-0.029100828
102	0x3d53a559	0.05167136
103	0xbe7a9774	-0.24471837
104	0x3e3e398a	0.18576637
105	0xbac9931b	-0.0015378924
106	0x3d8b3d99	0.06798858
107	0x3aa9329d	0.0012908761
108	0xbcc881b4	-0.02447591
109	0xbc20d3d1	-0.009816126
110	0xbe2e725d	-0.17035814
111	0xbded9cc2	-0.11602165
112	0x3cc1708c	0.023613237
113	0xbcccbd7d	-0.024992699
114	0x3c846da0	0.016165555
115	0xbe08e033	-0.13366775
116	0xbd3f7b6e	-0.04674857
117	0xbc638ed0	-0.01388903
118	0x3d7ed62e	0.062215976
119	0x3de5e56c	0.112253994
120	0x3e021e4f	0.12706874
121	0xbde27df9	-0.110591836
122	0x3d957967	0.07298546
123	0xbba8c020	-0.005149856
124	0xbc896cfa	-0.016775597
125	0x3dcae07a	0.09906097
126	0xbd9ffe4c	-0.07812175
127	0xbdd03cbb	-0.101678334
128	0xbe2adc10	-0.1668551
129	0xbd6077ff	-0.054801937
130	0xbca7fd93	-0.020506656
131	0x3d870693	0.06593051
132	0x3def2faa	0.11679013
133	0xbdabeabe	-0.08394383
134	0x3cc4b982	0.024014238
135	0xbc6ee844	-0.014581744
136	0x3e33f8cc	0.17575377
137	0xbc50e0a4	-0.012748871
138	0xbc60c47b	-0.01371872
139	0xbe2d1561	-0.16902687
140	0xbc8a8be9	-0.016912417
141	0xbd60bd05	-0.054867763
142	0x3dd6b523	0.10483768
143	0xbdb02ad4	-0.08601919
144	0x3d9a5e80	0.07537556
145	0xbcd1538a	-0.02555253
146	0xbd298a0f	-0.04139143
147	0xb84abc1d	-4.8335747e-05
148	0xbd72756b	-0.05919401
149	0x3dc5b3ce	0.09653436
150	0x382c8b00	4.113745e-05
151	0xbd65bacf	-0.056086358
152	0xbd928a39	-0.0715527
153	0xbd789c0c	-0.060695693
154	0xbcca17d4	-0.024669565
155	0xbd5dd574	-0.054158643
156	0x3d9e4d8c	0.07729635
157	0x3de074d6	0.10959785
158	0xbd82083e	-0.06349228
159	0xbcf55fd5	-0.029952923
160	0xbdb1a502	-0.08674051
161	0xbdcdefff	-0.10055541
162	0xbdcb1f40	-0.0991807
163	0xbcbde6aa	-0.023181278
164	0x3db94db5	0.090480246
165	0xbde83fdb	-0.113403045
166	0xbe8a382b	-0.26995978
167	0x3e0525e6	0.13002738
168	0x3b3b6d19	0.0028598963
169	0x3e662a77	0.22477137
170	0x3cf8ba51	0.03036228
171	0xbd8b4e7d	-0.0680208
172	0x3d6d4bb3	0.05793352
173	0x3d1d94f5	0.038472135
174	0xbd312ed9	-0.043257568
175	0x3e2a2fe9	0.16619839
176	0xbdc8f764	-0.09812811
177	0x3d31b846	0.043388627
178	0xbda9a3aa	-0.082831696
179	0x3c7fd2c5	0.015614216
180	0xbc9ebabc	-0.019376151
181	0xbdca1061	-0.09866405
182	0xbdaca5d6	-0.08430068
183	0x3e0fe310	0.14051461
184	0xbe07116a	-0.13190237
185	0xbd313788	-0.04326585
186	0x3d8cb621	0.06870676
187	0xbd67fcc1	-0.05663753
188	0x3da49cf2	0.080377474
189	0xbd273d98	-0.040830225
190	0xbd2a0247	-0.041506078
191	0x3cea8c34	0.028631307
192	0xbd13ecad	-0.036114383
193	0xbc483d5e	-0.012221662
194	0x3e0b48d4	0.13602
195	0xbe5bda6e	-0.21470043
196	0x3d466343	0.048434507
197	0x3b63a79b	0.0034737352
198	0x3d534003	0.05157472
199	0x3dabc319	0.08386821
200	0x3e440957	0.19144188
201	0xbd374aa5	-0.04474892
202	0xbd01275b	-0.031531673
203	0x3cfab243	0.03060258
204	0xba95078c	-0.0011370047
205	0xbe656581	-0.22402002
206	0xbdc94bc5	-0.09828905
207	0xbd9ccde4	-0.07656458
208	0x39be1018	0.00036251615
209	0x3e00ee7d	0.12590976
210	0xbabe0359	-0.0014496847
211	0x3e3fcdec	0.18730897
212	0xbb9d8950	-0.0048076287
213	0x3bacafe3	0.005269991
214	0x3d8e31c9	0.069430895
215	0x3dda425c	0.10657188
216	0x3bfaaf0f	0.007650263
217	0x3caf8ade	0.021428522
218	0x3d3de4b8	0.0463607
219	0xbe18b967	-0.14914475
220	0xbe588a69	-0.2114655
221	0x3c6dede1	0.014522047
222	0x3e990695	0.29887834
223	0xbdef4240	-0.11682558
224	0x3e4185ca	0.18898693
225	0xbc868804	-0.01642228
226	0xbd06e209	-0.032930408
227	0xbdddfda1	-0.108393915
228	0x3e3d09d1	0.18460776
229	0xbdfdff57	-0.12402218
230	0x3e04e8e1	0.12979461
231	0x3bef8116	0.0073090894
232	0xbdbcd8ce	-0.0922104
233	0xbdd418f3	-0.10356321
234	0x3cd35c96	0.025800984
235	0xbdf29d2d	-0.11846385
236	0x3e286b21	0.16447116
237	0xbe3fc3c3	-0.18727021
238	0xbd874f7b	-0.066069566
239	0xbda7efed	-0.08200059
240	0xbdb7fee8	-0.089841664
241	0xbe2a1a4a	-0.16611591
242	0xbd8f91d4	-0.070102364
243	0x3c33b752	0.010969
244	0xbdca971a	-0.098921016
245	0x3d8f8d16	0.07009332
246	0xbc4a4943	-0.0123465685
247	0xbc438b2f	-0.011935039
248	0xbd14c755	-0.03632291
249	0x3c849c6e	0.016187873
250	0x3d62ac15	0.05533989
251	0xbe136bca	-0.14396587
252	0x3a9f88b3	0.0012171477
253	0xbd9dc74a	-0.07704027
254	0x3e1d7dd3	0.1538003
255	0xbde9fcbd	-0.11425159
