subject-models/ada-0629/smritimandhana2023-06-29T14-34-44_smritimandhana-ada/embeddings_gs-4500.pt (torch, 836552 bytes, 168 tensors)

pre_vecs f4 [2, 768]
0	0xbca58ba0	-0.02020818
1	0x3bb4a53e	0.0055128625
2	0x3c19845b	0.009369935
3	0x3bef40d2	0.0073014284
4	0xbcdd43b9	-0.027009832
5	0x3a714f92	0.00092052773
6	0xbcf64c7f	-0.030065773
7	0xbc1e2b0b	-0.009653817
8	0x3cbc33bd	0.02297389
9	0xbcd75fa6	-0.026290726
10	0x3c355d82	0.011069657
11	0x3c67bce0	0.014144152
12	0x3aa154af	0.0012308563
13	0xbc63cd80	-0.0139039755
14	0xbc9d3766	-0.019191455
15	0x3c409e58	0.011756502
16	0x3cf57ae1	0.02996582
17	0x3c33d26a	0.01097546
18	0xbc60cda4	-0.013720904
19	0x3cf81b46	0.030286442
20	0x3bb124e4	0.005406009
21	0xbb3f2e64	-0.0029171938
22	0x3b4d5e3b	0.0031336683
23	0xbca98b7f	-0.0206964
24	0x3ce8742a	0.028375704
25	0xbb654232	-0.0034982082
26	0xbc6b70d9	-0.014370167
27	0x3baba33f	0.0052379663
28	0x3a6b70c8	0.0008981344
29	0x3bca22e9	0.0061687124
30	0x3ca3831f	0.019959984
31	0xb99a62cb	-0.00029446775
32	0xbca6dfd3	-0.0203704
33	0x3bf8e052	0.0075951004
34	0xbc92b423	-0.017908162
35	0x3ce8a63c	0.02839958
36	0x3d183fb5	0.03717013
37	0xbb7b3706	-0.0038332357
38	0xbb727cb8	-0.0037000608
39	0x3b846482	0.004040302
40	0x3c9c8d54	0.01911036
41	0x3c97691b	0.018482735
42	0x3c77a488	0.015114911
43	0x3c2fba27	0.0107255345
44	0x3c5d64f3	0.013512838
45	0xbcb13a9f	-0.021634398
46	0x3c498301	0.0122993
47	0x3a21866d	0.00061616936
48	0xba6d49fa	-0.0009051856
49	0xbc63cbeb	-0.013903598
50	0x3c97f656	0.01855008
51	0x3c8c08fa	0.017094124
52	0x3c29ca88	0.010363229
53	0xbb4b4836	-0.0031018383
54	0xbc5dcf6c	-0.013538223
55	0xbcfa2af4	-0.03053806
56	0xbb196852	-0.0023408127
57	0x3c82f103	0.015984064
58	0x3c8a6d13	0.016897714
59	0x3c86cfb8	0.01645647
60	0xbd3047cd	-0.043037225
61	0x3c9b391d	0.018948132
62	0x3bc118fa	0.00589287
63	0xbc6b75b9	-0.014371329
64	0x3bd50def	0.006501905
65	0xbc54ef1a	-0.012996459
66	0xbc9fb603	-0.01949597
67	0xbc7e0b2a	-0.015505591
68	0x3c1412c8	0.009037681
69	0x3c612789	0.013742336
70	0xbd07bc0f	-0.03313833
71	0xbcdc0102	-0.02685595
72	0xbbfdca91	-0.007745095
73	0xbcd812c0	-0.026376128
74	0xbc9bc339	-0.019013988
75	0x3cc12c55	0.02358071
76	0xbc2f8f6a	-0.010715345
77	0xbaac6359	-0.0013152167
78	0x3d372125	0.044709343
79	0x3c6c5059	0.014423453
80	0x3d0fb753	0.03508694
81	0x3c92bdd7	0.017912788
82	0x3d23175b	0.039817195
83	0xbceed314	-0.029153384
84	0xbbfe9c6f	-0.007770113
85	0x3ad8d97e	0.001654431
86	0x3bc1e63c	0.0059173387
87	0xbc07076c	-0.008241516
88	0x3ba2e87d	0.0049715624
89	0xbbcd6549	-0.0062681776
90	0x3aac859f	0.0013162381
91	0x3bed224f	0.007236756
92	0xbc5e266e	-0.013558967
93	0x3b81ac2b	0.0039572916
94	0xbcc7041e	-0.024293955
95	0x3b8f8c6b	0.004380753
96	0x3d0f4943	0.034981977
97	0xbc6e40e0	-0.014541835
98	0x39ae1f35	0.00033211117
99	0x3c027217	0.007961771
100	0xbc8d3619	-0.01723771
101	0x3c82496d	0.015904153
102	0x3c48d0a8	0.012256779
103	0xbb27da4e	-0.0025612297
104	0xbc010ea0	-0.007877022
105	0x3c6aed3d	0.014338789
106	0x3c6c1abd	0.014410672
107	0xbc89de1e	-0.016829547
108	0xbcfd1ad1	-0.030896576
109	0x3c0eca88	0.008715279
110	0xbc2d4238	-0.01057487
111	0x3b9b4c53	0.004739323
112	0xbabea944	-0.0014546295
113	0xba857b80	-0.0010183901
114	0x3c3cdb1b	0.011526848
115	0xbc442eb6	-0.011974027
116	0xbc389fb1	-0.011268542
117	0xbcf275fa	-0.029597271
118	0xbba4a97e	-0.005025088
119	0x3c26b470	0.010174856
120	0xbccafc57	-0.024778528
121	0xbc655736	-0.0139978435
122	0x3c098885	0.008394365
123	0x396823f0	0.00022138632
124	0xbcc18834	-0.023624517
125	0x3ba5f269	0.005064298
126	0xbbf30bd6	-0.0074171824
127	0xbc976c28	-0.01848419
128	0x3baf7827	0.0053548994
129	0xbc0a6f24	-0.00844935
130	0x3c3f2f31	0.011668966
131	0x3b80f9db	0.003936035
132	0x3c60fd54	0.013732273
133	0x3c694dd9	0.014239752
134	0xbc3f1167	-0.011661864
135	0x3b83414e	0.0040055877
136	0xb9a20a89	-0.00030906897
137	0xbd16b331	-0.036791984
138	0xbb9cb01a	-0.004781735
139	0xbc8e3656	-0.017359894
140	0xba601a20	-0.0008548815
141	0xbbb7b045	-0.0056057298
142	0xbb5e49b7	-0.003391845
143	0xbd15e72f	-0.036597427
144	0xbc732e74	-0.014842618
145	0x3b06f121	0.0020590501
146	0x3c2973a5	0.010342513
147	0x3b3f7b07	0.0029217617
148	0x3c32810a	0.010895023
149	0xb9f16df8	-0.00046049035
150	0x3c08c98a	0.008348832
151	0x3be8d979	0.007106003
152	0x3c12d9cc	0.00896306
153	0x3c0becdd	0.008540359
154	0xbc1e4884	-0.009660844
155	0xbc008415	-0.007843991
156	0xbc6eba0a	-0.014570722
157	0x3c0bf877	0.008543125
158	0xbd1ae952	-0.037820168
159	0x3c1f7910	0.009733453
160	0x3b851eee	0.004062525
161	0x3cb55a35	0.02213774
162	0x3ca307b1	0.019901128
163	0xba969bd5	-0.0011490533
164	0x3c0e94d7	0.008702478
165	0x3b4dd541	0.0031407627
166	0xbcd90372	-0.0264909
167	0x3c4732b3	0.012158084
168	0xbcc7e4c4	-0.024401076
169	0x3d0bc60a	0.03412441
170	0x3b587f66	0.003303492
171	0xba8fc328	-0.0010968195
172	0x3a9c53cb	0.0011926828
173	0x3c2e7a74	0.010649312
174	0x3caa63df	0.020799575
175	0xbd01ed8b	-0.03172068
176	0x3b801a6b	0.0039093993
177	0xbbcd3773	-0.0062627136
178	0x3ce9c7dc	0.028537683
179	0x3c3da8ab	0.011575858
180	0x3c20d88a	0.009817252
181	0x3d19dfd6	0.037566982
182	0xbb9f0d0c	-0.00485385
183	0xbce57aaf	-0.028012602
184	0x3c78c401	0.01518345
185	0xbc180dce	-0.009280635
186	0x3abb14a3	0.0014273118
187	0xbaaf7a11	-0.0013387819
188	0xbb878385	-0.0041355514
189	0x3c1be732	0.0095155705
190	0x3c874bd2	0.016515646
191	0x3c5ac231	0.013351963
192	0xbc4d073f	-0.012513935
193	0xbccff92b	-0.025387367
194	0xbd0c894a	-0.034310617
195	0x3cfca870	0.030842036
196	0x3cbc450b	0.022982141
197	0xbc9c3ef8	-0.019072995
198	0xbc0344d2	-0.0080120135
199	0x3cd79660	0.026316822
200	0xbb0d4795	-0.0021557559
201	0x3cc8753a	0.02446996
202	0x3b9a16cf	0.004702426
203	0x3b944b32	0.0045255655
204	0xbc069a8f	-0.008215561
205	0xbbf790ab	-0.0075550876
206	0x3bbfb617	0.005850564
207	0xbbbe6244	-0.005810054
208	0x3bf54cb2	0.0074859494
209	0x3d21de0c	0.0395184
210	0x3d1ae656	0.03781732
211	0xb9bf82f6	-0.00036527932
212	0xbbb49b97	-0.005511712
213	0x3c583473	0.013196099
214	0xbab1e75b	-0.0013572978
215	0xbbbae544	-0.0057036
216	0x3ba03856	0.0048895283
217	0x3cd0014b	0.025391242
218	0x3c26900d	0.01016618
219	0xbd100af1	-0.035166685
220	0xbc432fe2	-0.011913272
221	0xba1b3f33	-0.0005922198
222	0x3cba9d62	0.022780124
223	0x396a40f4	0.00022340176
224	0xbbd7449d	-0.0065694586
225	0x3b465a99	0.0030266403
226	0xbb8edb87	-0.004359666
227	0xbc474319	-0.012161993
228	0xbba704bc	-0.005097
229	0x3c35fc57	0.011107526
230	0xbc8434b6	-0.016138416
231	0xbc0e8b2c	-0.008700173
232	0xbba31657	-0.0049770284
233	0xbbad7be2	-0.005294309
234	0x3c41a5c0	0.011819303
235	0x3b9004ca	0.004395102
236	0x3c80f1d8	0.01574032
237	0xbb08547d	-0.0020802312
238	0xbb853902	-0.0040656338
239	0xbbce9593	-0.0063044517
240	0xba7cd884	-0.00096453005
241	0xbc8c95d3	-0.017161286
242	0xbc1dd267	-0.009632683
243	0xbba12897	-0.0049181688
244	0xbb878af7	-0.004136439
245	0x3c7ac8e9	0.01530669
246	0xbc85dbc6	-0.016340148
247	0x3c13df21	0.009025366
248	0x3b8fffb6	0.004394497
249	0x3a96066f	0.0011446009
250	0x3bca8572	0.0061804587
251	0xbc73bffa	-0.014877314
252	0xbc89f658	-0.016841099
253	0xbc81b503	-0.015833383
254	0xbc06baad	-0.008223218
255	0x3cdc0ea0	0.026862442

basis_rand_weights f4 [16, 5]
0	0xbc24ae7f	-0.010051369
1	0xbc86e4a5	-0.016466448
2	0xbcf4d6ce	-0.029887583
3	0xbd9f19fe	-0.077686295
4	0xbdc1399c	-0.09434816
5	0x3c27cd8f	0.01024188
6	0xbc5a3db3	-0.013320374
7	0x3e517c7d	0.20457645
8	0xbcc60ff6	-0.024177533
9	0x3e178c43	0.147996
10	0xbc4b5801	-0.0124111185
11	0xbb36a4c1	-0.0027869197
12	0x3de7005e	0.11279367
13	0x3da9aa38	0.0828442
14	0x3de2e0ca	0.11078031
15	0x3bcbe985	0.006222906
16	0xbd3ed7e3	-0.046592604
17	0x3cf970e6	0.030449342
18	0xbe3f670f	-0.18691657
19	0x3dfff38e	0.12497626
20	0xbd402853	-0.046913456
21	0x3d96e000	0.07366943
22	0xbd398594	-0.045293406
23	0x3debfd1d	0.11522887
24	0x3d466523	0.048436295
25	0x3e087d8a	0.1332914
26	0xbe106a8b	-0.14103143
27	0x3e14b0eb	0.14520614
28	0x3ca0acfc	0.019613735
29	0xbbee1371	-0.007265501
30	0xbd186dae	-0.037213974
31	0x3cf225e7	0.029559089
32	0x3ddc8a1b	0.10768529
33	0x3d49a75b	0.04923187
34	0xbca77de4	-0.020445772
35	0xbd3b98c5	-0.04579999
36	0x3c240a0f	0.010012164
37	0x3e8f013b	0.27930626
38	0xbd79643f	-0.060886618
39	0xbd9c8caf	-0.07644021
40	0xbdfda611	-0.1238519
41	0x3aaf5356	0.0013376276
42	0x3cdd874f	0.02704206
43	0x3e9600d4	0.29297507
44	0xbe338799	-0.17532195
45	0xbdd721f3	-0.10504522
46	0x3ceccb11	0.028905423
47	0x3e542a63	0.20719294
48	0x3d36b209	0.04460338
49	0xbe0b46ee	-0.13601276
50	0xbd509adb	-0.05092893
51	0xbaccbf7a	-0.0015621029
52	0x3e42a2fe	0.19007489
53	0x3cb1cbe8	0.021703675
54	0x3e1c1971	0.1524408
55	0xbd30d193	-0.043168616
56	0x3c5cb8ce	0.013471795
57	0x3ea70b41	0.32625774
58	0xbd34f275	-0.044176538
59	0xbdadd940	-0.08488703
60	0x3dcb7812	0.09935011
61	0xbdefb202	-0.11703874
62	0x3e0fc40b	0.14039628
63	0xbdcea5e8	-0.10090238
64	0x3adcd449	0.0016847934
65	0xbcf53195	-0.02993087
66	0x3cca3be9	0.02468677
67	0x3dbbd6f2	0.09171857
68	0x3dd2a439	0.10285229
69	0xbe12684a	-0.14297596
70	0xbd186e8d	-0.037214804
71	0x3bc091e2	0.0058767656
72	0xbd147872	-0.036247678
73	0xbd3fab1a	-0.046794035
74	0xbdb2e89f	-0.08735775
75	0x3bc2e2a7	0.005947429
76	0xbc21d651	-0.009877757
77	0x3e052d49	0.13005556
78	0xbe4e7a30	-0.20163798
79	0x3e0257de	0.12728831

basis_vecs f4 [3, 768]
0	0xbbcab404	-0.0061860103
1	0xbb928ed6	-0.004472594
2	0xbd0d2eaa	-0.03446833
3	0xbc6f3c10	-0.014601722
4	0xbcb762f2	-0.022386048
5	0x3c8117b9	0.015758382
6	0xbd2c240a	-0.042026557
7	0xbd6fadb2	-0.058515258
8	0x3ca6c01f	0.020355282
9	0x3d43834a	0.04773263
10	0x3c978c7e	0.01849961
11	0x3d996454	0.07489839
12	0x3d656d42	0.0560124
13	0xbb97283c	-0.0046129506
14	0xbc596cd7	-0.013270578
15	0x3cf987ee	0.030460324
16	0x3c2ee2f3	0.010674226
17	0xbc2a11ac	-0.01038019
18	0xbd7156d4	-0.058920696
19	0xbb90b04b	-0.004415547
20	0x3d047c32	0.032345004
21	0x3c4410e9	0.011966922
22	0x3c144d3f	0.00905162
23	0xbd06a77b	-0.032874566
24	0x3d59d46d	0.0531811
25	0xbbfe8816	-0.0077676876
26	0x3bd46bbe	0.0064825704
27	0x3b2c45bf	0.002628669
28	0xbd8a26aa	-0.06745656
29	0x3d15ca9f	0.036570188
30	0x3c69de1f	0.014274149
31	0x3beda5bc	0.007252423
32	0xbd6e2ed5	-0.05815013
33	0x3d111504	0.035420433
34	0xbc4d708c	-0.01253904
35	0x3db1412f	0.08655011
36	0x3d26c65f	0.040716525
37	0x3cad3d82	0.021147493
38	0xbd3f2846	-0.046669267
39	0x3c7bfad5	0.015379627
40	0x3d2d024a	0.04223851
41	0x3cf02b93	0.029317653
42	0x3d1ba9f1	0.038003866
43	0x3d03d275	0.03218313
44	0x3c9de50b	0.019274255
45	0xbd30bcbd	-0.043148745
46	0xbb29606f	-0.0025844832
47	0xbc11387d	-0.0088635655
48	0x3ccc76f6	0.024959069
49	0x3a29883e	0.000646714
50	0x3c9b3cc2	0.01894987
51	0xbd012ba7	-0.03153577
52	0x3d2914e3	0.041279685
53	0x3c89f1b7	0.016838891
54	0xbd7b7611	-0.061391894
55	0x3d2851bf	0.041093584
56	0x3b12c075	0.0022392545
57	0xbbb27992	-0.005446621
58	0x3dafc2f8	0.08582109
59	0x3d7c556b	0.0616049
60	0xbda1acad	-0.078942634
61	0xbce3c729	-0.027804928
62	0xbca692a4	-0.020333596
63	0xbc881649	-0.016612189
64	0x3d095af5	0.03353401
65	0xbc548d05	-0.012973075
66	0x3d3796cf	0.044821557
67	0xbc1f47c8	-0.009721704
68	0xbca53b9c	-0.020170026
69	0xbcd20793	-0.025638377
70	0xbd5f2152	-0.054475136
71	0xbd43731f	-0.04771721
72	0xbd079dc9	-0.03310946
73	0xbce5d6df	-0.02805656
74	0xbb7c2bab	-0.0038478177
75	0x3c93324c	0.01796832
76	0xbb38a05f	-0.002817176
77	0x3c8658e4	0.016399808
78	0x3c9f8bef	0.019475905
79	0x3dc0e4c7	0.09418636
80	0x3bba2aca	0.0056813704
81	0x3c83db2b	0.016095718
82	0x3d15de26	0.03658881
83	0xbbd549f5	-0.0065090605
84	0x3c76b620	0.01505807
85	0xbc33d1e9	-0.010975339
86	0x3cb19a1c	0.02167993
87	0xbd282923	-0.041054856
88	0x3b747114	0.0037298845
89	0xbcdb9607	-0.026804937
90	0xbca0093c	-0.019535653
91	0x3ce0df73	0.027450299
92	0xbb76e5c3	-0.003767357
93	0xbcdb430a	-0.026765365
94	0xbd420bb1	-0.04737443
95	0xbd33b5a9	-0.043874417
96	0x3c56622f	0.013084932
97	0xbc649549	-0.013951608
98	0xbcd4a27c	-0.025956385
99	0x3d4520ff	0.04812717
100	0xbbd94c97	-0.0066314447
101	0x3d121ef6	0.035674058
102	0x3c7177b1	0.014738009
103	0xbd3170b7	-0.043320384
104	0xbc2e6a8d	-0.010645521
105	0xbd06b9e9	-0.03289214
106	0x3d793403	0.060840618
107	0xbb83f0b1	-0.0040264954
108	0xbd696bed	-0.05698769
109	0xbcb6a590	-0.022295743
110	0xba1216f2	-0.0005572877
111	0xbd5c030c	-0.053713843
112	0xbcd305fb	-0.025759688
113	0x3c50a69d	0.012735036
114	0x3babbc0e	0.0052409237
115	0xbd28c315	-0.04120167
116	0xbd147ce2	-0.03625191
117	0xbd104d08	-0.035229713
118	0xbafd845d	-0.0019341815
119	0x3b50d1f3	0.003186342
120	0x3d1925d2	0.037389584
121	0xbd87d514	-0.06632438
122	0x3c1fc930	0.009752557
123	0xbc921cc3	-0.01783598
124	0xbc68b299	-0.014202737
125	0x3c7d904f	0.0154763
126	0xbcf66415	-0.03007702
127	0x3d07c459	0.033146236
128	0xbd25ee62	-0.040510543
129	0xbc590cd9	-0.013247692
130	0xbd497a6c	-0.049189016
131	0x3cac49d0	0.02103129
132	0xbd1a908e	-0.037735514
133	0xbbfaf490	-0.0076585487
134	0xbcaeba5d	-0.0213291
135	0xbc0eba5c	-0.008711424
136	0xba44314a	-0.0007484151
137	0xbc8bce38	-0.017066106
138	0x3ca10c67	0.019659234
139	0x3d1ed059	0.038772915
140	0xbd945c63	-0.07244184
141	0x3c73c06c	0.01487742
142	0x3caf81ea	0.021424253
143	0xbd513ce3	-0.051083457
144	0x3d0e4801	0.034736637
145	0xbd83e523	-0.06440189
146	0x3d801e04	0.06255725
147	0xba5b0584	-0.0008355009
148	0x3cc582e6	0.024110269
149	0xbd4abf54	-0.04949887
150	0xbdbfda70	-0.093678355
151	0x3a64fd26	0.0008735232
152	0x3d54c508	0.051945716
153	0x3d49532d	0.04915159
154	0xbcf6990f	-0.03010228
155	0xbb8663e6	-0.0041012643
156	0x3c684cde	0.014178483
157	0x3a19b5e8	0.0005863593
158	0x3d136a97	0.035990324
159	0x3d412ac1	0.047159914
160	0x3b7755ef	0.003774043
161	0x3b84d24b	0.004053389
162	0x3d83c91c	0.06434843
163	0x3d2cc42e	0.04217928
164	0x3cd576b3	0.026057577
165	0x3b5471b5	0.0032416407
166	0xbb44344a	-0.0029938393
167	0xbd711a27	-0.05886283
168	0xbb21c877	-0.0024686137
169	0x3d867b08	0.06566435
170	0xbb97fc8a	-0.0046382593
171	0x3c6c00af	0.01440446
172	0xbc861aeb	-0.016370257
173	0x3ccf2097	0.025284095
174	0xbb07eb00	-0.0020739436
175	0xbcf5ee9e	-0.030021008
176	0xbce8301c	-0.028343253
177	0xbd53f3b0	-0.05174607
178	0xbcb7ab8f	-0.022420673
179	0x3da3db7b	0.08000847
180	0x3d39a531	0.045323554
181	0x3d94ca2f	0.07265126
182	0x3c9df262	0.019280616
183	0xbc38b56d	-0.011273724
184	0x3ce9f3bb	0.028558603
185	0xbd0d8d9b	-0.034558874
186	0x3c30a934	0.010782529
187	0xbd55dd27	-0.05221286
188	0xbbadc242	-0.0053026984
189	0xbc3224be	-0.010873018
190	0x3b71c15c	0.0036888933
191	0x3cde8ade	0.027165826
192	0x3c91df6e	0.017806735
193	0xbd4cf64a	-0.050039567
194	0xbd16daf8	-0.03682992
195	0x3d586680	0.052832127
196	0x3d43e714	0.047827795
197	0xbc8297c8	-0.015941516
198	0x3c4e14cd	0.0125782015
199	0x3cda6a42	0.026661996
200	0xbc6c0d2b	-0.014407436
201	0xbcc3d5bf	-0.023905633
202	0xba9f31f6	-0.0012145627
203	0xbcfbea3a	-0.030751336
204	0x3d97091e	0.07374786
205	0xbd8b9583	-0.068156265
206	0x3d626475	0.055271585
207	0xbac26bca	-0.0014833149
208	0x3d81410b	0.06311234
209	0x3d713aea	0.058894075
210	0x3da2f430	0.07956731
211	0xbd1eaefc	-0.038741097
212	0xbc818ef8	-0.015815243
213	0x3d6c77cd	0.05773144
214	0xbcaec714	-0.021335162
215	0xbca2bfc0	-0.019866824
216	0xbbb8cfbb	-0.005639998
217	0x3dbfabbf	0.0935893
218	0xbc5a02e8	-0.013306357
219	0xbdac44db	-0.08411571
220	0x3ca9129e	0.02063876
221	0xbd780ebe	-0.060560934
222	0x3c0d8958	0.008638702
223	0x3ba2bc24	0.0049662758
224	0xbcb8f87f	-0.02257943
225	0x3c7c2612	0.015389936
226	0x3c80fa74	0.015744425
227	0x3c08bb25	0.0083454
228	0x3bb4e4e6	0.005520451
229	0x3d0c55d7	0.03426155
230	0xbc356ba4	-0.011073027
231	0xba69b390	-0.00089150015
232	0x3d87e228	0.06634933
233	0x3bafe46a	0.0053678052
234	0x3d20ba91	0.039240424
235	0x3bc30d2b	0.0059524975
236	0x3c8c0288	0.01709105
237	0xbd2f05f5	-0.04273029
238	0x3ccb90ff	0.024849413
239	0xbda772d5	-0.08176199
240	0x3d63a42e	0.055576496
241	0x35516e27	7.801886e-07
242	0xbb5fdc56	-0.003415843
243	0xbce32ade	-0.027730402
244	0x3ca1034a	0.019654889
245	0x3d0261dc	0.031831607
246	0xbceed061	-0.029152097
247	0xbd007291	-0.03135926
248	0x3c38808e	0.011261119
249	0xbc12f3dc	-0.008969273
250	0xbd4d96c8	-0.050192624
251	0xbc7e3ab6	-0.0155169275
252	0xbd8bcffb	-0.068267785
253	0x3b657340	0.0035011321
254	0xbdace036	-0.08441202
255	0x3d1e0437	0.03857824

basis_comm_weights f4 [1, 5]
0	0x3e5547c1	0.20828153
1	0x3f2669e0	0.650053
2	0x3eefd8bb	0.4684504
3	0x3e85e91e	0.26154417
4	0x3e2b958d	0.16756268

bias f4 [16, 768]
0	0x3d87a8d2	0.06623997
1	0x3c41a6a0	0.011819512
2	0xbd0366b9	-0.032080386
3	0x3d5b3f2d	0.053527046
4	0xbc8c6280	-0.017136812
5	0xbd3e16f4	-0.04640861
6	0xbbeb5210	-0.0071814135
7	0x3cae0dbc	0.021246783
8	0xbc487b8d	-0.012236488
9	0x3c945f2a	0.018111784
10	0x3d1136d6	0.035452686
11	0x3ccbf88e	0.024898794
12	0xbd05972c	-0.03261487
13	0xbbf985b7	-0.007614817
14	0xbba65f58	-0.005077284
15	0xbd10b534	-0.03532906
16	0x3c28c5e3	0.010301086
17	0xba49e9f2	-0.0007702402
18	0xbcfbddd4	-0.030745424
19	0x3cd92d12	0.026510749
20	0x3c34396b	0.011000018
21	0x3a3ff590	0.00073226634
22	0x3a50e262	0.0007968304
23	0x3d08a148	0.033356935
24	0x3b812bd0	0.0039419904
25	0x3d760f65	0.060073275
26	0xbda306c4	-0.07960275
27	0x3d150193	0.036378454
28	0xbdc0faa8	-0.09422809
29	0x3c08ae41	0.008342327
30	0xbc5963d3	-0.013268429
31	0x3bc59a22	0.006030337
32	0xbd8f5940	-0.06999445
33	0x3ced782f	0.028987972
34	0x3bc77dd0	0.006087996
35	0xbd3c87ec	-0.046028063
36	0xbd65edc3	-0.05613495
37	0xbd906a13	-0.07051482
38	0x3beff32f	0.007322691
39	0x3afacf09	0.0019135188
40	0xbd5e97be	-0.05434393
41	0xbd24294d	-0.04007845
42	0x3d0eccb7	0.0348632
43	0xbd0d2e6c	-0.0344681
44	0x3d16d726	0.036826275
45	0xbd85bf29	-0.065306015
46	0xbbc99a3a	-0.0061524184
47	0x3c80bbbd	0.01571452
48	0xbcb9bf81	-0.022674324
49	0x3cb10de3	0.021613067
50	0x3c48abfd	0.012248036
51	0xbb9c20f7	-0.004764672
52	0x3d19a5e3	0.037511718
53	0x3b68f30f	0.0035545265
54	0xbc0d8c8b	-0.008639465
55	0x39b0c2fc	0.0003371461
56	0x3ce732bc	0.028222434
57	0x3d1f5d5b	0.03890739
58	0xbc8c6bfd	-0.017141337
59	0x3bb1c6d2	0.0054253126
60	0xbca856e2	-0.020549241
61	0x3c5bd82c	0.013418239
62	0x3ba59490	0.0050531104
63	0xbd36bb44	-0.044612184
64	0x3d11c350	0.035586655
65	0x3cac1dbf	0.021010278
66	0x3d28cd1c	0.041211233
67	0xbce815d1	-0.028330715
68	0x3d3610dd	0.044449676
69	0xbaf01bc8	-0.0018318826
70	0xbcf59b21	-0.029981198
71	0x3c2bc020	0.010482818
72	0x3cae875b	0.021304777
73	0xbc943bf3	-0.018094992
74	0xbd32dda5	-0.043668408
75	0xbcde4ee3	-0.027137225
76	0x3dbc3969	0.091906376
77	0xbb9b78cf	-0.004744626
78	0x3ccdab4e	0.025106099
79	0xbd216929	-0.03940693
80	0xbd8bd328	-0.06827384
81	0x3d4bfec3	0.049803507
82	0x3d2e2a0a	0.04252056
83	0x3bf102c9	0.0073550683
84	0xbc22896e	-0.009920461
85	0xbcc79400	-0.024362564
86	0x3cdebc2f	0.027189342
87	0x3cc5c37f	0.024141071
88	0x3c180f20	0.00928095
89	0xbad38796	-0.001613843
90	0xbd65c06f	-0.056091722
91	0x3d3e6ccc	0.046490476
92	0x3d2e71f9	0.04258916
93	0xbd56fd20	-0.052487493
94	0xbd6b69eb	-0.057474058
95	0xbcbae9c7	-0.022816552
96	0xbb286155	-0.002569278
97	0xbd6177df	-0.05504596
98	0xbd0ad38c	-0.033893153
99	0x3d0f2b41	0.03495336
100	0x3ca84e53	0.02054516
101	0x3a50542e	0.0007947114
102	0xbd0f8fac	-0.035049126
103	0x3bd8f4d0	0.006620981
104	0xbb836d9f	-0.0040108706
105	0xbab0cc01	-0.0013488532
106	0x3d33fdfe	0.043943398
107	0x3b82dfbf	0.003993958
108	0xbcc0ad6a	-0.02352019
109	0x3b30fefd	0.0027007454
110	0x3cbb8395	0.022889892
111	0x3d0a5c38	0.033779353
112	0xbd27acce	-0.040936284
113	0x3a8ea7fd	0.0010883805
114	0xbc6b6eca	-0.014369676
115	0x3b084938	0.0020795595
116	0xbd81bdec	-0.06335053
117	0xbd28a939	-0.04117701
118	0x3d0d428a	0.034487285
119	0xbc36de56	-0.011161407
120	0xbd1a4e30	-0.03767222
121	0x3c331d14	0.010932226
122	0xbca1f753	-0.019771254
123	0x3c94ae0a	0.018149395
124	0xbc02bb57	-0.007979236
125	0x3c6c850c	0.014436018
126	0xbcbb0016	-0.02282719
127	0xbb6ed72c	-0.003644417
128	0xbc5f814a	-0.013641665
129	0x3cf076c2	0.029353503
130	0x3d8f1a53	0.06987443
131	0xbb7d1108	-0.0038614888
132	0xbd41add5	-0.04728492
133	0x3d11f21e	0.03563129
134	0xbca7a301	-0.020463469
135	0xbb414fcc	-0.0029497026
136	0x3cb16de1	0.02165884
137	0xbc744814	-0.014909763
138	0x3d24ea2c	0.040262386
139	0x3c8c5f52	0.017135296
140	0x3ce5b924	0.028042383
141	0x3d00d69c	0.031454667
142	0x3c3bc312	0.011460083
143	0xbb8736a4	-0.0041263867
144	0x3c696989	0.014246353
145	0x3d87e7af	0.06635987
146	0xbc5d510b	-0.013508092
147	0xbb7fc48a	-0.0039027059
148	0x3d4f59f5	0.0506229
149	0x3cfb0598	0.030642316
150	0xbd0c64d3	-0.03427584
151	0x3d24c0f1	0.040223066
152	0xbd819320	-0.0632689
153	0x3c1f5635	0.009725143
154	0x3cfe07d5	0.031009594
155	0x3d288fb3	0.041152667
156	0x3d001fac	0.031280205
157	0xbd450bda	-0.048107006
158	0xbbed5710	-0.0072430447
159	0xb8d47f3a	-0.000101326455
160	0x3c12c56b	0.008958201
161	0x3c634363	0.013871047
162	0xbab0a7e7	-0.0013477773
163	0x3ce66bb2	0.028127525
164	0x3cb99767	0.022655202
165	0xbd217eab	-0.03942744
166	0xbb917b7f	-0.0044397707
167	0xbd38723a	-0.04503081
168	0xbca882cf	-0.020570187
169	0x3d5ca773	0.05387063
170	0x3d350981	0.044198517
171	0x3c813aaf	0.015775053
172	0x3d132ab2	0.03592939
173	0x3ceb15fb	0.028697005
174	0xbd1f7cb7	-0.038937297
175	0xbc077734	-0.008268166
176	0xbd2e17a5	-0.042503018
177	0x3cbe98e8	0.02326627
178	0x3bb9e0fe	0.005672573
179	0xbc80ffb7	-0.015746934
180	0xbb85d781	-0.004084528
181	0x3a9b414e	0.0011845024
182	0xbd360012	-0.04443366
183	0x3d422136	0.047394954
184	0x3ca0742c	0.019586645
185	0x3ba0bc03	0.0049052252
186	0xbc9e3689	-0.019313114
187	0x3c6cc8e9	0.014452198
188	0x3c2e3825	0.010633503
189	0x3cc78c49	0.024358885
190	0x3bbfc8f5	0.0058528134
191	0xbc9c98a3	-0.019115752
192	0xbcf627c5	-0.03004826
193	0xbd4218fd	-0.047387112
194	0x3d169466	0.036762618
195	0x3cf09952	0.029369984
196	0x3c5d3586	0.0135015305
197	0x3cd0494f	0.025425581
198	0xbcd3e89e	-0.025867756
199	0x3d1b7951	0.037957493
200	0x3d562db2	0.052289672
201	0x3ca00bdd	0.019536907
202	0xbc91bff9	-0.017791735
203	0x3c648e55	0.01394995
204	0xbcbad8d9	-0.02280848
205	0x3d22d231	0.039751235
206	0x3bfdc141	0.007743985
207	0x3d40580c	0.046958968
208	0xbc2709af	-0.01019518
209	0x3d2a8943	0.04163481
210	0x3b0c86cc	0.002144265
211	0x3d979f49	0.07403428
212	0x3d2e6545	0.042577047
213	0xbc9ad6a4	-0.018901177
214	0x3c096df6	0.008388033
215	0x3cf6166b	0.030039987
216	0x3c853150	0.016258866
217	0x3d05c063	0.032654177
218	0x3c3ef89e	0.011655955
219	0xbd365ea2	-0.044523843
220	0xbced6a4e	-0.028981354
221	0xbc4b6398	-0.012413882
222	0xbc982955	-0.018574396
223	0x3d1b3195	0.037889082
224	0xbd08aa51	-0.03336555
225	0xbc0c5f0c	-0.008567583
226	0xbbcb29f9	-0.006200072
227	0xbccdc7f8	-0.025119767
228	0x3b89be3b	0.0042035854
229	0xbae7a7c4	-0.00176739
230	0x3ca132cb	0.01967754
231	0x3c09de12	0.008414762
232	0x3d7d5625	0.061849732
233	0x3b3d4a54	0.0028883414
234	0xbbe697e1	-0.0070371483
235	0xbcf66522	-0.03007752
236	0x3c667be1	0.014067621
237	0xbc3e2b02	-0.011606934
238	0x3cdd2b39	0.02699815
239	0xbcab34b4	-0.020899154
240	0xbc077996	-0.008268734
241	0xbc0bd3e0	-0.008534402
242	0xbd7071c1	-0.058702234
243	0x3d39b590	0.045339167
244	0xbcaf0879	-0.021366345
245	0x3d71ecca	0.05906371
246	0xbd808ee8	-0.06277257
247	0x3c1a9e52	0.009437161
248	0x3d543595	0.051808912
249	0xbd6ac494	-0.057316378
250	0x3b86bd35	0.0041119107
251	0x3d2ec158	0.042664856
252	0xbc925ffe	-0.017868038
253	0x3c8cfcd5	0.017210403
254	0x3c5d5483	0.013508919
255	0x3d101b74	0.03518243

weight f4 [768]
0	0x3f84fabb	1.0389017
1	0x3f75c29d	0.9600008
2	0x3f8b9704	1.0905461
3	0x3f6b46f7	0.9190516
4	0x3f83538d	1.0259873
5	0x3f530b25	0.8243888
6	0x3f825543	1.018227
7	0x3f6f82ce	0.9355897
8	0x3f73b689	0.952004
9	0x3f7b678e	0.98204887
10	0x3f8669ab	1.0500997
11	0x3f862262	1.0479243
12	0x3f71631b	0.9429185
13	0x3f7dd3ce	0.99151313
14	0x3f780553	0.96883124
15	0x3f668c2a	0.90057623
16	0x3f7f0a06	0.9962467
17	0x3f79196a	0.97304404
18	0x3f87e7c5	1.0617605
19	0x3f799c85	0.97504455
20	0x3f7a30d6	0.9773077
21	0x3f7145e5	0.94247276
22	0x3f85b3b8	1.0445471
23	0x3f6e98a2	0.9320165
24	0x3f82c6cd	1.0216919
25	0x3f83ba34	1.02912
26	0x3f81c6dc	1.0138812
27	0x3f83f90e	1.031038
28	0x3f9601cf	1.1719302
29	0x3f7ed748	0.99547243
30	0x3f6fb3f5	0.9363397
31	0x3f6723af	0.90288824
32	0x3f915556	1.1354167
33	0x3f846ee0	1.0346336
34	0x3f7fa178	0.99855757
35	0x3f7f6e43	0.9977762
36	0x3f541c98	0.8285613
37	0x3f576404	0.84136987
38	0x3f7a983e	0.97888553
39	0x3f7d33ab	0.98906964
40	0x3f67756a	0.90413535
41	0x3f641a1e	0.8910235
42	0x3f6daf2d	0.9284542
43	0x3f6653c4	0.89971566
44	0x3f8b33d6	1.0875194
45	0x3f95c15e	1.1699636
46	0x3f6a029b	0.91410226
47	0x3f814b3d	1.0101086
48	0x3f757ebf	0.95896524
49	0x3f84c507	1.0372628
50	0x3f82e78a	1.022691
51	0x3f649e90	0.8930445
52	0x3f81d133	1.0141968
53	0x3f7d8841	0.9903603
54	0x3f8b462a	1.0880787
55	0x3f7510d1	0.95728785
56	0x3f8707c3	1.0549244
57	0x3f6f1435	0.9339021
58	0x3f6dc507	0.92878765
59	0x3f809fbb	1.0048746
60	0x3f8ca61e	1.0988195
61	0x3f84bc96	1.0370052
62	0x3f82fe81	1.0233918
63	0x3f8a2d98	1.0795164
64	0x3f9032ed	1.1265541
65	0x3f7554d9	0.9583259
66	0x3f889db4	1.0673127
67	0x3f866651	1.0499974
68	0x3f7c467f	0.9854507
69	0x3f8123c7	1.0089043
70	0x3f838803	1.0275882
71	0x3f6d5d8d	0.9272087
72	0x3f6bcf7d	0.92113477
73	0x3f83072b	1.0236562
74	0x3f6f41a4	0.93459535
75	0x3f6b4087	0.91895336
76	0x3f8bdfa1	1.0927621
77	0x3f808385	1.0040137
78	0x3f82f752	1.0231726
79	0x3f57a526	0.8423637
80	0x3f673f77	0.90331215
81	0x3f8cc614	1.0997949
82	0x3f8cf92e	1.1013544
83	0x3f7caaaa	0.9869791
84	0x3f7818f8	0.969131
85	0x3f6d7b37	0.92766136
86	0x3f80e4e0	1.0069847
87	0x3f54fe23	0.8320028
88	0x3f6a50e1	0.9152966
89	0x3f79381c	0.9735124
90	0x3f905064	1.1274533
91	0x3f7c7e29	0.98630005
92	0x3f7e4124	0.99318147
93	0x3f8df238	1.1089544
94	0x3f91da42	1.1394732
95	0x3f82e155	1.0225016
96	0x3f6edf2b	0.9330928
97	0x3f8eb9f4	1.1150498
98	0x3f8a142c	1.0787406
99	0x3f8d1281	1.1021272
100	0x3f755bd2	0.9584323
101	0x3f86f2a0	1.0542793
102	0x3f638517	0.88874954
103	0x3f852ed4	1.0404916
104	0x3f84ea8a	1.0384076
105	0x3f800524	1.0001569
106	0x3f8ed6a8	1.1159258
107	0x3f7d659c	0.9898317
108	0x3f87d708	1.0612497
109	0x3f7a1acc	0.9769714
110	0x3f6d54ec	0.92707705
111	0x3f64d5ef	0.89388937
112	0x3f8878e1	1.0661889
113	0x3f79a722	0.9752065
114	0x3f74c9ab	0.9562022
115	0x3f835bd2	1.0262396
116	0x3f9251b5	1.1431185
117	0x3f883806	1.0642097
118	0x3f889acd	1.0672241
119	0x3f812b1d	1.0091282
120	0x3f61c4f1	0.88191134
121	0x3f810617	1.0079983
122	0x3f7c9ce2	0.98676884
123	0x3f660e3d	0.89865476
124	0x3f7d2705	0.98887664
125	0x3f805d58	1.0028486
126	0x3f874cd0	1.0570316
127	0x3f69b1a1	0.91286665
128	0x3f8529fa	1.0403435
129	0x3f68aed5	0.9089177
130	0x3f5819a2	0.8441411
131	0x3f8dfd91	1.1093007
132	0x3f8abf4e	1.0839632
133	0x3f764db5	0.9621232
134	0x3f811f1d	1.008762
135	0x3f82ea14	1.0227685
136	0x3f6f6fd9	0.9353004
137	0x3f803718	1.0016813
138	0x3f87f336	1.0621097
139	0x3f80c4a0	1.0060005
140	0x3f6d172a	0.9261347
141	0x3f729e04	0.9477236
142	0x3f79cdd4	0.97579694
143	0x3f893f38	1.0722418
144	0x3f77986a	0.9671694
145	0x3f4e448e	0.80573356
146	0x3f653957	0.8954062
147	0x3f7c05dc	0.9844644
148	0x3f8686ed	1.0509926
149	0x3f692021	0.9106465
150	0x3f8fbef5	1.123015
151	0x3f68fde0	0.9101238
152	0x3f52ae25	0.82296973
153	0x3f825704	1.0182805
154	0x3f740dce	0.95333564
155	0x3f7a4ef6	0.97776735
156	0x3f84df45	1.0380636
157	0x3f6bbd5c	0.92085814
158	0x3f829ef7	1.0204762
159	0x3f7036b8	0.93833494
160	0x3f8249e9	1.0178806
161	0x3f7a48ff	0.97767633
162	0x3f7bece3	0.98408335
163	0x3f8abd69	1.0839053
164	0x3f853de9	1.0409518
165	0x3f7078f0	0.93934536
166	0x3f777441	0.96661764
167	0x3f8db569	1.1070987
168	0x3f80ba6c	1.0056891
169	0x3f9bb209	1.2163707
170	0x3f86910f	1.0513018
171	0x3f82e7ba	1.0226967
172	0x3f743e3a	0.9540745
173	0x3f90a603	1.1300663
174	0x3f61537e	0.88018024
175	0x3f80ea24	1.0071454
176	0x3f8912cc	1.0708861
177	0x3f7b6f8f	0.982171
178	0x3f856a8e	1.0423143
179	0x3f7305c6	0.94930685
180	0x3f6b2301	0.91850287
181	0x3f7be5c7	0.9839749
182	0x3f88fe1d	1.0702549
183	0x3f5596f0	0.8343344
184	0x3f7a6876	0.97815645
185	0x3f7a53c4	0.97784066
186	0x3f6ccf08	0.92503405
187	0x3f79ffe3	0.9765608
188	0x3f7da6d1	0.99082667
189	0x3f8327d2	1.0246527
190	0x3f743f16	0.9540876
191	0x3f6af2b3	0.9177658
192	0x3f80f352	1.0074255
193	0x3f8e675d	1.1125294
194	0x3f72423c	0.94632316
195	0x3f8882a6	1.0664871
196	0x3f79b9d8	0.975492
197	0x3f727ae2	0.94718754
198	0x3f7d7253	0.9900257
199	0x3f887a7d	1.066238
200	0x3f619d8c	0.8813102
201	0x3f5ffd5f	0.8749599
202	0x3f775679	0.9661632
203	0x3f7a96a4	0.9788611
204	0x3f6d8ece	0.9279603
205	0x3f7196b7	0.943706
206	0x3f7dfa02	0.99209607
207	0x3f5f56f6	0.87242067
208	0x3f7c12b2	0.98466027
209	0x3f8e7949	1.1130763
210	0x3f7e301b	0.99292153
211	0x3f475976	0.7787088
212	0x3f7e5983	0.99355334
213	0x3f646ae0	0.8922558
214	0x3f72920b	0.94754094
215	0x3f6e20ea	0.9301897
216	0x3f84eae5	1.0384184
217	0x3f8cbaf9	1.099456
218	0x3f733a21	0.9501057
219	0x3f928b8b	1.1448835
220	0x3f80d721	1.0065652
221	0x3f8470ef	1.0346965
222	0x3f70953c	0.93977714
223	0x3f5fafe7	0.8737778
224	0x3f6f8e71	0.93576723
225	0x3f709923	0.9398367
226	0x3f7746f3	0.96592635
227	0x3f73a00e	0.951661
228	0x3f6fe308	0.937058
229	0x3f842f96	1.0327022
230	0x3f7544b9	0.9580799
231	0x3f684463	0.9072935
232	0x3f90e0eb	1.131864
233	0x3f7b62d8	0.981977
234	0x3f80fb9f	1.0076789
235	0x3f6c50a3	0.9231054
236	0x3f84a5d7	1.036311
237	0x3f87a643	1.0597614
238	0x3f87687a	1.0578759
239	0x3f85d463	1.045544
240	0x3f760d74	0.9611428
241	0x3f77f21d	0.9685381
242	0x3f811df1	1.0087262
243	0x3f69c821	0.91321
244	0x3f6b84c0	0.91999435
245	0x3f951dde	1.164974
246	0x3f8a4938	1.0803595
247	0x3f6e3ed0	0.93064594
248	0x3f92347a	1.1422265
249	0x3f7bce53	0.983617
250	0x3f760fd5	0.9611791
251	0x3f81889e	1.0119817
252	0x3f894ab3	1.0725921
253	0x3f805444	1.0025716
254	0x3f7648b2	0.96204674
255	0x3f8aa6b4	1.0832124

bias f4 [768]
0	0x3e1ba439	0.15199365
1	0x3c93f614	0.018061675
2	0xbdc25536	-0.09488909
3	0x3db612ee	0.08890329
4	0xbcb7163d	-0.022349471
5	0xbe31a091	-0.17346407
6	0xbc18f800	-0.009336472
7	0x3d871fee	0.06597887
8	0xbd0dbb54	-0.03460248
9	0x3d414393	0.047183584
10	0x3d8233a7	0.06357508
11	0x3d6fa552	0.05850727
12	0xbd617008	-0.055038482
13	0x3c1b57d4	0.009481389
14	0x3c2048bb	0.009782965
15	0xbd846777	-0.06465047
16	0x3d1864ed	0.037205625
17	0xbc279071	-0.010227309
18	0xbd9b4a94	-0.07582584
19	0x3d7e1370	0.062030256
20	0x3c6fb5a9	0.0146307135
21	0xbc3efaae	-0.011656446
22	0x3d7d377d	0.061820496
23	0x3d59be90	0.05316025
24	0x3b8e6370	0.00434535
25	0x3e3d1195	0.18463738
26	0xbe416bbe	-0.18888757
27	0x3d62c6c8	0.055365354
28	0xbe339759	-0.17538203
29	0x3ba7cab3	0.005120599
30	0xbdb4bba0	-0.08824849
31	0x3d993138	0.07480091
32	0xbe009cfa	-0.12559882
33	0x3d8052c2	0.06265785
34	0xbbaf6763	-0.005352901
35	0xbdf9707c	-0.12179658
36	0xbe01a443	-0.12660317
37	0xbe1eccc3	-0.15507798
38	0x3c929d65	0.017897317
39	0x3c53665f	0.012902825
40	0xbd8d3d99	-0.068965144
41	0xbde6b5bd	-0.112651326
42	0x3ccd397f	0.02505183
43	0xbd7c72a8	-0.061632782
44	0x3ddc5366	0.107580945
45	0xbe1eac1b	-0.1549534
46	0xbd0025ee	-0.031286173
47	0x3d700ac9	0.058604036
48	0xbcdea884	-0.027179964
49	0x3d571111	0.05250651
50	0x3d21efcd	0.039535332
51	0xbd14b2ce	-0.036303334
52	0x3dc9df11	0.09857
53	0x3b0b79c3	0.0021282292
54	0xbda0a4f2	-0.07843961
55	0xbcbb3a23	-0.02285487
56	0x3d874dd7	0.06606644
57	0x3d9deb50	0.07710898
58	0xbd67aba7	-0.056560185
59	0x3cf3831f	0.02972561
60	0xbdf5074b	-0.11964282
61	0x3d7eabb0	0.062175453
62	0x3c8ccb51	0.017186793
63	0xbddb2407	-0.10700231
64	0x3e0411f4	0.12897474
65	0x3d3cd660	0.04610288
66	0x3e013386	0.12617311
67	0xbda8f930	-0.08250654
68	0x3d807ceb	0.06273826
69	0x3cded1ba	0.027199615
70	0xbd5dae6a	-0.054121412
71	0x3d5b0d5a	0.05347953
72	0x3d0ae990	0.03391415
73	0xbca77de3	-0.02044577
74	0xbdd40711	-0.1035291
75	0xbdb1cc6e	-0.0868157
76	0x3e7bb06c	0.24579018
77	0x3c95f15e	0.01830357
78	0x3d5cb032	0.05387897
79	0xbe0a48c0	-0.13504314
80	0xbe041d0f	-0.1290171
81	0x3e15ddd0	0.14635396
82	0x3dd845fd	0.10560224
83	0x3c4376d2	0.011930184
84	0xbcff31aa	-0.031151611
85	0xbd9ada70	-0.07561195
86	0x3d06f66f	0.03294986
87	0x3dc30afd	0.0952358
88	0x3d7bcd21	0.061474923
89	0x3b39375b	0.0028261754
90	0xbdef26d1	-0.116773255
91	0x3ddf45bb	0.10901972
92	0x3ce21081	0.02759576
93	0xbde22d10	-0.11043751
94	0xbe1ded23	-0.15422492
95	0xbd05c96f	-0.032662805
96	0xbb3a05ea	-0.0028384873
97	0xbdedd567	-0.11612969
98	0xbe0d30a1	-0.13788082
99	0x3ddfe77e	0.109328255
100	0x3d3f4596	0.04669722
101	0xbd23144b	-0.039814275
102	0xbdf10738	-0.11768955
103	0x3b32114c	0.0027170954
104	0xbd18bcbf	-0.037289377
105	0xbb615b47	-0.003438668
106	0x3dd5acc4	0.10433343
107	0x39a1b802	0.0003084541
108	0xbd3e0fb5	-0.0464017
109	0xbd0d03b2	-0.034427352
110	0x3d8c8732	0.06861724
111	0x3db895e5	0.09012965
112	0xbdb57a0c	-0.08861169
113	0x3c9337b1	0.017970892
114	0xbd182cfa	-0.037152268
115	0xbc08aaf5	-0.008341541
116	0xbe191215	-0.14948304
117	0xbd91923f	-0.07107972
118	0x3dda86af	0.1067022
119	0xbd969586	-0.07352738
120	0xbd83bbc7	-0.064323
121	0xbb3341c2	-0.0027352427
122	0xbd307fd0	-0.04309064
123	0x3d833e3b	0.06408354
124	0xbce8b8ad	-0.028408373
125	0x3d19f7bd	0.037589777
126	0xbd612bfb	-0.054973584
127	0x3cf53092	0.029930387
128	0xbd2cff3e	-0.042235605
129	0x3d9a2f47	0.07528549
130	0x3e16a0a3	0.14709716
131	0x3dd2296b	0.10261806
132	0xbd8e7df4	-0.069576174
133	0x3dbd78ac	0.09251532
134	0xbcea22d2	-0.028581057
135	0xbc8fe5b9	-0.017565595
136	0x3d4be5c2	0.04977966
137	0xbc729910	-0.014807001
138	0x3e0697a3	0.13143782
139	0x3cc819e3	0.024426406
140	0x3d25999b	0.040429693
141	0x3da9bf3d	0.08288429
142	0x3d019c6d	0.03164332
143	0xbd9a0a5c	-0.07521507
144	0x3d5d22ab	0.05398814
145	0x3e3513f2	0.1768339
146	0xbcf54a29	-0.029942589
147	0x3c7e05c4	0.015504304
148	0x3e1a5166	0.15070114
149	0x3dae4bdd	0.085105635
150	0xbe09f270	-0.13471389
151	0x3db299bd	0.087207295
152	0xbe127278	-0.14301479
153	0x3d3c85ee	0.046026163
154	0x3d7bef40	0.061507463
155	0x3de69557	0.11258953
156	0x3dbe830a	0.093023375
157	0xbe274647	-0.16335402
158	0x3b632483	0.0034659214
159	0x3baff1e3	0.0053694113
160	0x3d43774d	0.047721196
161	0xbc4966b5	-0.012292554
162	0x3aeb1577	0.0017935474
163	0x3dae786e	0.08519064
164	0x3d821d16	0.06353204
165	0xbd68f1ff	-0.05687141
166	0x3c7d2d2c	0.015452664
167	0xbe075444	-0.13215739
168	0xbd12f628	-0.035879284
169	0x3e5ae5a5	0.21376665
170	0x3dba5be0	0.09099555
171	0x3ca3b982	0.019985918
172	0x3d572459	0.0525249
173	0x3e10d2bc	0.14142889
174	0xbdf9664c	-0.12177715
175	0xbb8f6d0d	-0.0043770135
176	0xbd86ca51	-0.065815575
177	0xbb082c56	-0.002077838
178	0x3d17b8aa	0.037041344
179	0xbd379457	-0.044819202
180	0xbc8a9880	-0.01691842
181	0xbcfc9b0d	-0.030835653
182	0xbdeef13b	-0.11667105
183	0x3e0548c2	0.13016036
184	0xbc7646af	-0.015031501
185	0x3c56b987	0.013105757
186	0xbbf83846	-0.0075750677
187	0x3d42a6f5	0.047522504
188	0x3cf369d7	0.029713554
189	0x3d63ecb7	0.05564567
190	0x3c8d8d66	0.017279338
191	0xbd8045dd	-0.06263325
192	0xbd87d6ab	-0.066327415
193	0xbd8ce85e	-0.06880258
194	0x3ddc2dda	0.10750933
195	0x3d9bf1d8	0.076144874
196	0x3be66297	0.007030796
197	0x3d3f0a0f	0.046640452
198	0xbd5b6e2f	-0.053571876
199	0x3da1aa14	0.07893768
200	0x3e21d453	0.15803652
201	0xbbfb0759	-0.007660788
202	0xbd78b9cb	-0.06072406
203	0x3d02f135	0.031968314
204	0xbd815a6e	-0.06316076
205	0x3d0da045	0.034576673
206	0xbc68de7c	-0.014213201
207	0x3e2e6b24	0.17033058
208	0xbc456c34	-0.012049723
209	0x3dd0611c	0.10174772
210	0xbb9d0c27	-0.0047927084
211	0x3e1a156d	0.15047236
212	0x3d91e5a6	0.0712388
213	0xbb524ce6	-0.0032089292
214	0x3d4a3877	0.049370255
215	0x3d818dc0	0.06325865
216	0x3d6466d7	0.05576214
217	0x3da238f6	0.07921021
218	0x3c9aecf8	0.018911824
219	0xbe01dc52	-0.12681702
220	0xbd873a4d	-0.06602917
221	0xbd2c8552	-0.04211933
222	0xbd4ae15a	-0.04953132
223	0x3dce7fd7	0.10082977
224	0xbd62d907	-0.055382755
225	0xbcafc13c	-0.021454446
226	0xbc332204	-0.010933403
227	0xbd8f63a8	-0.0700143
228	0xbb59b561	-0.0033219683
229	0x3d3407e7	0.04395285
230	0x3d280d8d	0.041028548
231	0x3d0cd609	0.034383807
232	0x3e221ded	0.15831728
233	0xbb9e9e9f	-0.0048406865
234	0x3cba662e	0.022753801
235	0xbdacf7f3	-0.0844573
236	0x3d1e63d9	0.03866944
237	0xbd8831af	-0.066501014
238	0x3dc9f29c	0.09860727
239	0xbd4e6381	-0.050387863
240	0xbca8b42a	-0.020593721
241	0xbd324502	-0.043522842
242	0xbdecf9f9	-0.11571116
243	0x3d8d9ed9	0.069150634
244	0xbd9daefa	-0.0769939
245	0x3e2993a8	0.16560233
246	0xbe446c81	-0.19182016
247	0x3c83ae68	0.016074374
248	0x3e2eed14	0.17082626
249	0xbe1eaafa	-0.1549491
250	0x3c1e2868	0.009653188
251	0x3d910041	0.070801266
252	0xbd8587e8	-0.06520063
253	0x3cc0235a	0.023454357
254	0x3d0a3d8e	0.03375011
255	0x3dbf781f	0.09349083

weight f4 [768]
0	0x3f781c66	0.9691833
1	0x3f7395dd	0.9515055
2	0x3f67622f	0.9038419
3	0x3f750f2a	0.95726264
4	0x3f82d730	1.022192
5	0x3f7c6cc8	0.98603487
6	0x3f7e7040	0.9939003
7	0x3f867104	1.050324
8	0x3f799808	0.97497606
9	0x3f80a135	1.0049196
10	0x3f8603aa	1.0469868
11	0x3f8a14b3	1.0787567
12	0x3f81d24b	1.0142301
13	0x3f7c1099	0.98462826
14	0x3f8c71fd	1.0972286
15	0x3f69c252	0.91312134
16	0x3f74edb2	0.95675194
17	0x3f79d965	0.9759734
18	0x3f5926d9	0.848249
19	0x3f7cb6ae	0.9871625
20	0x3f89d560	1.0768242
21	0x3f864312	1.0489218
22	0x3f8a954d	1.0826813
23	0x3f7f7d9d	0.99801046
24	0x3f7b46bd	0.98154813
25	0x3f7e6889	0.9937826
26	0x3f78b5bb	0.971523
27	0x3f803b92	1.001818
28	0x3f702a7b	0.9381482
29	0x3f6b9864	0.92029405
30	0x3f7219fc	0.945709
31	0x3f768cef	0.963088
32	0x3f810f69	1.0082828
33	0x3f80c401	1.0059816
34	0x3f84e7c2	1.0383227
35	0x3f8024fd	1.0011288
36	0x3f8218c9	1.0163814
37	0x3f810b21	1.0081521
38	0x3f61bf25	0.8818229
39	0x3f79247d	0.973213
40	0x3f8a09e3	1.0784267
41	0x3f711d25	0.94185096
42	0x3f70ee30	0.94113445
43	0x3f80cad7	1.0061902
44	0x3f8e3f38	1.1113043
45	0x3f8c9693	1.0983452
46	0x3f78e55b	0.9722497
47	0x3f702ba8	0.93816614
48	0x3f81d7c6	1.0143974
49	0x3f604dd2	0.87618744
50	0x3f6757e0	0.9036846
51	0x3f773e83	0.9657976
52	0x3f961d57	1.1727704
53	0x3f708de7	0.93966526
54	0x3f85b63b	1.0446237
55	0x3f5f5a26	0.8724693
56	0x3f767852	0.96277344
57	0x3f821bb7	1.0164708
58	0x3f8d3c95	1.1034113
59	0x3f860f54	1.0473428
60	0x3f6a4bca	0.91521895
61	0x3f8089af	1.0042018
62	0x3f776b04	0.9664767
63	0x3f7cfeca	0.9882628
64	0x3f71e3ec	0.94488406
65	0x3f5cb788	0.86217546
66	0x3f6e8df2	0.9318534
67	0x3f8311ea	1.0239842
68	0x3f8e3251	1.1109105
69	0x3f8518a7	1.0398148
70	0x3f7308a3	0.94935054
71	0x3f7543b5	0.9580644
72	0x3f8a6bbc	1.0814128
73	0x3f759953	0.9593708
74	0x3f788eef	0.970931
75	0x3f867145	1.0503317
76	0x3f74a784	0.9556811
77	0x3f73dbf2	0.95257485
78	0x3f73134b	0.94951314
79	0x3f75a829	0.9595972
80	0x3f84b5f4	1.0368028
81	0x3f8020f5	1.0010058
82	0x3f8b7d53	1.0897621
83	0x3f7674ef	0.96272177
84	0x3f85a5ac	1.0441184
85	0x3f86165e	1.0475576
86	0x3f922758	1.1418257
87	0x3f87bd10	1.0604572
88	0x3f7ed1aa	0.9953867
89	0x3f80a94a	1.0051663
90	0x3f827a38	1.0193548
91	0x3f6bdaa7	0.9213051
92	0x3f82281a	1.0168488
93	0x3f877eaa	1.058553
94	0x3f8271bb	1.0190958
95	0x3f758fc4	0.95922494
96	0x3f8afdcc	1.0858703
97	0x3f870818	1.0549345
98	0x3f8a4591	1.080248
99	0x3f8bab24	1.0911603
100	0x3f4ad995	0.79238254
101	0x3f7cdc4d	0.9877365
102	0x3f7cbfd9	0.98730236
103	0x3f65d391	0.8977595
104	0x3f670ed1	0.90256983
105	0x3f928216	1.1445949
106	0x3f8aa876	1.083266
107	0x3f7e374a	0.99303114
108	0x3f699757	0.9124655
109	0x3f7d8e8a	0.9904562
110	0x3f681945	0.9066356
111	0x3f895025	1.0727583
112	0x3f876b30	1.0579586
113	0x3f65c522	0.89753926
114	0x3f8e391a	1.1111176
115	0x3f81c239	1.0137397
116	0x3f515064	0.8176329
117	0x3f7ac4f4	0.97956777
118	0x3f6419c9	0.89101845
119	0x3f86881f	1.0510291
120	0x3f82b34c	1.0210967
121	0x3f8a75d3	1.0817207
122	0x3f71aba3	0.9440252
123	0x3f851a61	1.0398675
124	0x3f65de1b	0.8979203
125	0x3f88931f	1.0669898
126	0x3f8533aa	1.0406392
127	0x3f698171	0.91213137
128	0x3f933701	1.1501161
129	0x3f53ce45	0.8273662
130	0x3f738ab1	0.951335
131	0x3f8dc6a1	1.1076242
132	0x3f7e1048	0.99243593
133	0x3f7392d1	0.951459
134	0x3f81482d	1.0100151
135	0x3f4d76a8	0.8025918
136	0x3f7af919	0.9803634
137	0x3f826feb	1.0190405
138	0x3f7e8dac	0.99434924
139	0x3f4526a4	0.77012086
140	0x3f834170	1.0254345
141	0x3f7c82f2	0.98637307
142	0x3f7e0cbc	0.9923818
143	0x3f7c5bdb	0.9857766
144	0x3f823dd1	1.0175115
145	0x3f82366b	1.0172857
146	0x3f7b5e99	0.9819122
147	0x3f72660b	0.94686955
148	0x3f60dc6a	0.87836325
149	0x3f55043d	0.8320959
150	0x3f88d4f4	1.0689988
151	0x3f8133d9	1.0093948
152	0x3f73be2b	0.9521205
153	0x3f882f13	1.0639366
154	0x3f7c5140	0.9856148
155	0x3f7f1ce2	0.99653447
156	0x3f7d43c8	0.9893155
157	0x3f6f9078	0.93579817
158	0x3f8cb686	1.0993202
159	0x3f78d0de	0.97193706
160	0x3f824319	1.0176727
161	0x3f736b79	0.95085865
162	0x3f81c734	1.0138917
163	0x3f5a2d84	0.852257
164	0x3f80d547	1.0065087
165	0x3f6585e0	0.896574
166	0x3f83ae05	1.0287482
167	0x3f8814ef	1.0631388
168	0x3f78c8cc	0.9718139
169	0x3f972769	1.1808902
170	0x3f77ad40	0.96748734
171	0x3f8058de	1.002712
172	0x3f53690c	0.82582164
173	0x3f8ee526	1.116368
174	0x3f7715b2	0.9651748
175	0x3f65d0bd	0.89771634
176	0x3f785c04	0.97015405
177	0x3f64621e	0.89212215
178	0x3f7ece84	0.9953387
179	0x3f6115ba	0.8792378
180	0x3f821fa5	1.0165907
181	0x3f8478fc	1.0349422
182	0x3f7bd590	0.98372746
183	0x3f4fc234	0.81155705
184	0x3f7ad8c3	0.97987
185	0x3f6ed4f6	0.932937
186	0x3f81bd4e	1.0135896
187	0x3f8eb38a	1.1148541
188	0x3f7b10b4	0.9807236
189	0x3f8144e1	1.0099145
190	0x3f644852	0.8917285
191	0x3f71da7c	0.94474006
192	0x3f742240	0.9536476
193	0x3f74078a	0.95324004
194	0x3f6f46c7	0.9346737
195	0x3f54d7f4	0.8314202
196	0x3f4df5a7	0.8045296
197	0x3f76c438	0.96393156
198	0x3f8756b9	1.0573341
199	0x3f850776	1.0392902
200	0x3f6b13c3	0.9182703
201	0x3f651a22	0.89493
202	0x3f86d842	1.0534747
203	0x3f8c8ce4	1.0980496
204	0x3f80ead8	1.0071669
205	0x3fa471cd	1.2847229
206	0x3f63e61b	0.8902299
207	0x3f75d902	0.9603425
208	0x3f6e61ce	0.9311799
209	0x3f5ef342	0.8708993
210	0x3f7a10af	0.9768171
211	0x3f3827b7	0.719356
212	0x3f7a43ab	0.97759503
213	0x3f813dc9	1.009698
214	0x3f777ba4	0.96673036
215	0x3f89c386	1.0762794
216	0x3f7823a2	0.9692937
217	0x3f83aeeb	1.0287756
218	0x3f76ec0a	0.9645392
219	0x3f85a0a1	1.0439645
220	0x3f828395	1.0196406
221	0x3f80089f	1.0002631
222	0x3f80315b	1.0015062
223	0x3f86f95e	1.0544851
224	0x3f7ec156	0.9951376
225	0x3f8be95f	1.0930594
226	0x3f8be491	1.0929128
227	0x3f69ab1e	0.9127673
228	0x3f814bce	1.0101259
229	0x3f66c0c1	0.9013787
230	0x3f72e88b	0.9488608
231	0x3f8589e8	1.0432711
232	0x3f8b798b	1.0896467
233	0x3f772a94	0.96549344
234	0x3f77357b	0.9656598
235	0x3f848fca	1.0356381
236	0x3f8d60b0	1.1045132
237	0x3f803c47	1.0018395
238	0x3f8a0e13	1.0785545
239	0x3f85bcbf	1.0448226
240	0x3f9a4938	1.2053595
241	0x3f6c91db	0.9241006
242	0x3f829519	1.0201751
243	0x3f76db6f	0.9642858
244	0x3f5ebb1e	0.8700427
245	0x3f8dec29	1.1087695
246	0x3f7bbadc	0.98332
247	0x3f784282	0.9697648
248	0x3f84f4b6	1.038718
249	0x3f67e397	0.9058165
250	0x3f75d360	0.9602566
251	0x3f60acd0	0.8776369
252	0x3f59c541	0.8506661
253	0x3f827883	1.0193027
254	0x3f62e1e4	0.8862593
255	0x3f8d3226	1.1030929

bias f4 [768]
0	0x3dcf2613	0.10114684
1	0x3ca6d983	0.02036739
2	0x3da43f4d	0.08019886
3	0xbc32de21	-0.0109172175
4	0xbddce322	-0.1078551
5	0xbba5fa59	-0.005065244
6	0xbc97044d	-0.018434668
7	0xbd6fb625	-0.058523316
8	0xbcb17100	-0.021660328
9	0x3cdb332a	0.026757795
10	0x3d5e6185	0.05429222
11	0x3d94effb	0.07272335
12	0x3cd736ee	0.02627131
13	0xbb7c233e	-0.0038473154
14	0xbe150f8e	-0.14556715
15	0xbc276ce5	-0.010218834
16	0xbd4f835a	-0.050662376
17	0x3e007a14	0.12546569
18	0x3e1f0429	0.1552893
19	0x3de110bf	0.10989522
20	0x3d9c9d26	0.07647161
21	0x3d959253	0.073033
22	0x3da68da8	0.081324875
23	0xbc5b7bcb	-0.013396214
24	0xbcc2c127	-0.023773743
25	0x3d594143	0.053040754
26	0x3df63508	0.12021834
27	0xbd10df3a	-0.035369135
28	0x3cfd14b1	0.030893655
29	0xbd89868a	-0.067151144
30	0xbdf2796b	-0.11839565
31	0xbdcbdfdb	-0.099548064
32	0xbce47374	-0.027887084
33	0x3c853f80	0.01626563
34	0xbde70938	-0.11281055
35	0xbd6ab0aa	-0.057297386
36	0x3dfcf3aa	0.12351163
37	0x3c4d5508	0.01253248
38	0x3dc4d2cb	0.09610518
39	0xbc7cd1e3	-0.0154309
40	0x3daac68f	0.08338653
41	0xbd8dbd01	-0.06920815
42	0x3b32fd30	0.0027311556
43	0x3c740123	0.014892849
44	0x3d999533	0.074991606
45	0xbdde8682	-0.10865499
46	0x3cd536c9	0.0260271
47	0xbe031707	-0.12801753
48	0x3d1c9bb3	0.038234424
49	0xbde9469e	-0.11390422
50	0xbdf74b5c	-0.120749205
51	0xbdb7137f	-0.089392655
52	0x3e4999b8	0.19687545
53	0xbd34f731	-0.044181053
54	0xbcfe5e82	-0.031050924
55	0xbdc97860	-0.09837413
56	0x3cb0fb33	0.021604156
57	0x3e0128c5	0.12613209
58	0x3dc305e0	0.09522605
59	0x3d60b134	0.054856494
60	0x3d895db8	0.067073286
61	0x3c686064	0.014183138
62	0xbb381039	-0.0028085841
63	0xbc96d0e3	-0.018410152
64	0xbd18542c	-0.037189648
65	0x3e213805	0.15744026
66	0xbd8ee61b	-0.06977483
67	0xbdc60c67	-0.09670334
68	0xbdb1c1ed	-0.086795665
69	0xbe028997	-0.12747799
70	0x3d142b27	0.036173966
71	0x3d375667	0.044760134
72	0xbdb26cfc	-0.08712193
73	0x3c89f8f0	0.016842335
74	0xbd877da6	-0.066157624
75	0x3dfa0ceb	0.12209495
76	0xbd81c741	-0.06336833
77	0xbd5e4fba	-0.054275252
78	0xbd6574ae	-0.056019478
79	0x3cfafaf1	0.030637236
80	0x3d82f20d	0.06393824
81	0x3c7a02d3	0.015259462
82	0x3db9e7d9	0.090774246
83	0x3cd0b4b5	0.025476793
84	0x3b5f4aeb	0.0034071754
85	0xbe07adf5	-0.13249953
86	0x3e04ddf4	0.12975293
87	0xbdc996ce	-0.09843217
88	0xbc12eb65	-0.008967255
89	0x3aee6722	0.0018188695
90	0xbd02adb9	-0.031903956
91	0xbdf53b7f	-0.119742386
92	0x3d2861d8	0.041108936
93	0xbd89ca27	-0.067280106
94	0xbd0ec2a9	-0.03485361
95	0x3d901c78	0.0703668
96	0x3e094f87	0.13409244
97	0xbdac6d52	-0.08419289
98	0xbd9a631f	-0.07538437
99	0x3db86732	0.09004058
100	0xbe3f73a7	-0.18696462
101	0xbcdea43e	-0.027177926
102	0xbbfd421a	-0.007728827
103	0x3db1f32b	0.08688959
104	0x3dd7cd77	0.10537236
105	0xbe26a6a0	-0.162745
106	0x3dbd77e8	0.09251386
107	0x3c46800a	0.012115488
108	0x3d925f78	0.071471155
109	0x3d1ca875	0.03824659
110	0xbe0bdebd	-0.13659187
111	0xbd816f8f	-0.06320106
112	0xbd82aa1e	-0.063801035
113	0xbb477771	-0.0030436183
114	0x3e0d818f	0.13818954
115	0xbd1ddef5	-0.038542707
116	0x3e300545	0.1718951
117	0x3c5f3935	0.013624479
118	0xbd9eb427	-0.07749205
119	0x3d7b1c7b	0.061306458
120	0x3d42f7c0	0.047599554
121	0xbdbd0337	-0.09229129
122	0x3dd51be3	0.104057096
123	0xbe0d42d6	-0.13795027
124	0x3e02d4d4	0.127765
125	0x3dc11e4e	0.09429608
126	0xbd6f852a	-0.058476605
127	0x3db833c3	0.08994248
128	0xbe186fb4	-0.14886361
129	0x3e38deed	0.1805379
130	0x3c744e08	0.014911182
131	0x3e0bac89	0.13640036
132	0xbd8b8f25	-0.06814412
133	0xbcbe024b	-0.023194453
134	0x3c1ae21d	0.009453324
135	0x3e1895bf	0.14900874
136	0x3c467d36	0.012114814
137	0xbcaa1c3f	-0.020765422
138	0xba3c99f8	-0.0007194574
139	0xbe5116a0	-0.20418787
140	0xbc51f27c	-0.01281416
141	0xbd6ba056	-0.057525955
142	0x3e1bf238	0.15229118
143	0xbbeb4ff8	-0.007181164
144	0x3d78e07a	0.060760953
145	0xbc0bcf58	-0.008533321
146	0x3ce39718	0.027782008
147	0x3de7cdd7	0.11318558
148	0xbd110291	-0.03540284
149	0x3df97338	0.12180179
150	0xbd994bc4	-0.07485154
151	0xbda89f5a	-0.08233519
152	0xbdc9d07c	-0.09854218
153	0x3d4f7d2c	0.050656483
154	0x3d842e56	0.064541504
155	0x3e120b04	0.14262015
156	0x3c885d12	0.016645942
157	0xbdfd458c	-0.12366781
158	0x3dc5a0ff	0.09649848
159	0xbded9c6f	-0.11602103
160	0x3d53512d	0.051591087
161	0xbd1657d3	-0.03670485
162	0x3cdcdd3c	0.026960962
163	0xbe0fa13e	-0.14026353
164	0x3cf436ab	0.029811224
165	0xbd848c4b	-0.06472071
166	0xbd6a3caf	-0.05718678
167	0xbd88dbc8	-0.06682545
168	0x3ccaa3d3	0.02473632
169	0x3e395b1b	0.1810116
170	0xbc8465e6	-0.01616187
171	0xbcde8dc0	-0.027167201
172	0x3e014a66	0.12626037
173	0x3e20b18f	0.15692733
174	0xbd20b935	-0.039239127
175	0x3db0047b	0.085946046
176	0x3ccbcb1f	0.02487713
177	0x3deeb655	0.11655871
178	0xbe390d19	-0.18071403
179	0xbdc1ef96	-0.094695255
180	0x3d8e5e9e	0.069516405
181	0x3c98393c	0.018581979
182	0xbbaec66f	-0.0053337137
183	0x3e14fbc0	0.1454916
184	0xbcd1ed6b	-0.025625905
185	0x3d26a101	0.04068089
186	0xbd58bb9c	-0.052913293
187	0xbdd3f034	-0.103485495
188	0xbe1c9103	-0.15289693
189	0x3d2d9c4e	0.042385392
190	0x3dca4468	0.09876329
191	0xbd065660	-0.032797217
192	0x3a6c5ca5	0.00090164907
193	0x3d1b308f	0.037888106
194	0x3d8eba86	0.0696917
195	0xbe1cee86	-0.15325364
196	0xbe32dd32	-0.17467192
197	0x3d0382f9	0.032107327
198	0x3d8f1f77	0.06988423
199	0x3d6d0114	0.057862356
200	0x3db5a6bc	0.08869693
201	0x3d76c38f	0.060245093
202	0xbd7adb34	-0.061244205
203	0xbdd643b3	-0.10462131
204	0x3ceb67fd	0.028736109
205	0xbe820dba	-0.25401098
206	0xbddde071	-0.108338244
207	0xbd5c484c	-0.053779885
208	0xbd26fc4d	-0.040767957
209	0xbdb63789	-0.08897311
210	0xbc065446	-0.008198803
211	0x3e8ea1ed	0.27857915
212	0x3e1e07e0	0.15432692
213	0x3a9e9ec7	0.0012101763
214	0x3cb76d0d	0.022390867
215	0xbdbe8963	-0.09303548
216	0xbdafaf14	-0.085783154
217	0x3c3b3ba0	0.01142779
218	0x3cb4727c	0.022027247
219	0xbcd9fd31	-0.026609989
220	0x3cdee047	0.027206553
221	0x3b2e14bf	0.0026562659
222	0x3d3301d3	0.04370291
223	0xbe31feee	-0.17382404
224	0x3c860c05	0.016363153
225	0x3d450caf	0.0481078
226	0x3db40fcb	0.08792075
227	0xbd5a7db0	-0.05334252
228	0x3df415ae	0.119181976
229	0xbda9c95a	-0.08290358
230	0x3ce58ecf	0.028022198
231	0xbdc99803	-0.09843447
232	0x3d850ba2	0.064963594
233	0xbcff2a43	-0.031148082
234	0xbd40b910	-0.04705149
235	0x3d748fa0	0.059707284
236	0x3da71670	0.081585765
237	0xbc7dbc84	-0.01548684
238	0x3de63cd9	0.112420745
239	0xbd4a8b19	-0.04944906
240	0x3e4f89b5	0.20267375
241	0xbb65383e	-0.003497615
242	0x3de3c619	0.111217685
243	0x3c343d9b	0.011001016
244	0xbe116f7c	-0.14202684
245	0x3e7aeb95	0.2450393
246	0x3c9d980b	0.019237539
247	0x3c9ad4ef	0.018900363
248	0x3d8ee511	0.06977285
249	0xbe1b93ab	-0.1519305
250	0x3d2dfe19	0.042478655
251	0xbe3d9d21	-0.18516971
252	0x3dea6d30	0.11446607
253	0xbe15d2d7	-0.1463121
254	0x3d891cbd	0.066949345
255	0x3ded3d62	0.115839735
