subject-models/jenniferlawrence2023-05-15T04-31-25_jenniferlawrence-ada/checkpoints/embeddings_gs-4500.pt (torch, 921583 bytes, 168 tensors)

pre_vecs f4 [2, 768]
00000000: 9daf 49bb 794b bb3b 7679 d5ba e1df 0fbc
00000010: 30b7 06bc b206 943a 0d19 bfbb 031f 993b
00000020: fc6b 12ba 110b 7a3c a182 053d fbaa 1cbc
00000030: 98fe bf39 3a26 803b ce57 a0b9 96b3 f9bb
00000040: 6ec2 8bbb 6491 323b 9cef 0cb9 152c 4b3c
00000050: b058 8d3b a2de 553b d5fd 433c 7f30 b63b
00000060: a2ca dcbb f458 553b 6a7e b2bb a48c 8b3c
00000070: 0659 de3b 4faf 033d 70d1 1a3d 85ba e43c
00000080: aee3 7fbc 9152 e0ba 7e20 b1bb e1c1 9e3c
00000090: 63ce 6fbc bbe1 a83c 2d8a e6bb f0aa bdbc
000000a0: ca9c 3a3c 4286 193a c63e b43b 08b3 653c
000000b0: 29a9 28b9 9fef c5bb 898e 933c addc 2fbc
000000c0: 8402 80bb 6f30 1dbc 857d a7bb 2735 16bc
000000d0: 0fb5 8a3c ec65 2f3b 496d 7c3c 9a35 a039
000000e0: 5c63 633c 6c79 0d3b 85ba d13b 2741 37bc
000000f0: 7e67 85bc 3156 14bc 3f1c 203d 8dc8 7cbc
00000100: 6caf 40bc c627 443b b483 a53b 99fd ec3c
00000110: 875b c73a 15d0 17bc 4728 59bc 334e 7e3c
00000120: 1d47 0fbb df78 2a3c 68c7 913c 9cd3 c93c
00000130: f079 133d 0a2f d73b dede 763c 2f11 bcbc
00000140: e133 9dbc b525 ee3b 73ea 283c b504 023b
00000150: 9495 4ebc 944c aa3b 79b0 9338 c72a 2dbc
00000160: 1a44 6c3b 278c c7bb 668f 9ebc 9015 91bc
00000170: 7273 003c 1648 403b f79d 8fbc 1601 5abb
00000180: e9ce 373c 821a d2bc 27a0 fdbc a05f 0d3d
00000190: be70 25bc c94a 45bc bda3 c03c c1c2 f4bb
000001a0: b118 11bc 46a8 8cba 170a 583c a2b9 1f3c
000001b0: 141f 0d3c dd2e ab3b 0f46 e33b 6427 5fbc
000001c0: ad14 afbc cec6 e03a 3243 643c 918e b8ba
000001d0: c7cf 5cbc 85ca 3f3c 1984 0c3c b35d 04bb
000001e0: 4c88 103c ed3d 50bb 2f72 2c3c edfd f7bb
000001f0: acf6 b33c a69e 473b af00 593c 413b 9fbc
00000200: 6ebd 02bd 1cec 9bbb 1ebb 61bc c452 403c
00000210: 946c afbb ee3e 6ebb 4d95 bc3c fc44 643c
00000220: 0a5c a3bb 1c37 023a 7477 c43c cfff 09bb
00000230: d497 dcbc e673 a3bc 57b4 e4bc d0f5 423c
00000240: f474 dbbc b369 81bc 03a2 09bc 12bb 693c
00000250: be13 a5bc 8df9 ac3b 7f5f 45bc 2f58 f63b
00000260: 5de2 aa3b f7e3 623c 14f5 c83a 3b88 5d3c
00000270: 67ca fc3c 01b9 17bc 15d0 b9bc 11f1 15bb
00000280: d35e a93a 7ddb 1f3c 151a 90bc d995 623c
00000290: 6298 773c 2edc 7cbc 9ad7 973c d399 02bd
000002a0: 4898 eabc 961a dc3a 93dd d7bc 45e0 bd3c
000002b0: a5d2 13bb a0be af3b 8ffc 88bc 0808 5f3a
000002c0: 5067 12bc ae4c ae3c 3750 35bc 7360 7d3b
000002d0: 750e a73c 0417 6ebc fd1a 153c 955b 4dbb
000002e0: 097f 023c dcc1 003a 722b 073b af30 c9bb
000002f0: 145b 55bc 3033 22bc 70b4 30bd 74c0 9f3b
00000300: 85ee 1a3a aabd f4ba 12e5 80bb 8e59 b23c
00000310: 1b7a aa3c eb2b c13c d230 573c f66c 563c
00000320: d2f4 e23b aab4 72bc 3bc2 663c b87c 25bc
00000330: e149 c6bc db32 dabc 2e8f e43c 339a 3bbc
00000340: d3be 433b 7c4b 7e3b 63e3 1d3d 6fc7 8e3b
00000350: c3b9 81bc 5348 9e3c 3e15 8dbb 5eab 3e3c
00000360: f09e d6bb fc2d 743c 68f0 a8bc eb41 0ebb
00000370: 05c4 30bd 8d24 b9bc fb48 c8bb d6da 7dbc
00000380: 1d6b e53c b47c d3bb 52be 72bc be01 d33c
00000390: 7476 dd37 dfcd a8bc ace2 1c3b fa9d e33b
000003a0: 677e a43a 7315 fbbb 2dba 8a3c 06c8 20bb
000003b0: 0de7 c23c 3163 abbc 6046 ac3c 4e5d 983b
000003c0: 5be1 453a b59b efbb 1169 913c e670 78bc
000003d0: 804f 903c 790a 633c 555b ae3b 83c4 d03c
000003e0: 8c7c 653c 36e9 84bb 8fb5 5fbc 4d96 24bc
000003f0: 8771 7abc 97fc 72bb 83d0 9c39 cd55 313b
-0.003077484 0.005715784 -0.0016286809 -0.008781404 -0.008222386 0.0011293499 -0.0058318437 0.0046728863
-0.0005585549 0.0152614275 0.03259528 -0.009562249 0.00036620046 0.003910807 -0.00030582998 -0.0076202853
-0.004265121 0.0027247304 -0.00013440702 0.012400647 0.004313551 0.003263392 0.011962374 0.0055599804
-0.006738023 0.003255424 -0.0054471986 0.017034836 0.0067855148 0.03214961 0.03779739 0.02792097
-0.015618248 -0.001711445 -0.0054054847 0.019379558 -0.014636609 0.02061545 -0.007035515 -0.023152798
0.0113899205 0.0005856493 0.0055006472 0.014019735 -0.00016084746 -0.006040528 0.018012302 -0.010733766
-0.00390655 -0.009594067 -0.0051113986 -0.009167946 0.016932039 0.002676363 0.015406915 0.00030557514
0.01387867 0.0021587266 0.0064004087 -0.011184967 -0.0162847 -0.009053753 0.039089438 -0.015428674
-0.011760574 0.0029930933 0.0050511006 0.028929519 0.0015209772 -0.009265919 -0.013254232 0.015521574
-0.0021862455 0.0104047945 0.01779528 0.024637036 0.03600496 0.006566887 0.015067784 -0.022957413
-0.019189777 0.0072676786 0.010309803 0.0019839231 -0.012608904 0.005197117 7.042377e-05 -0.010569281
0.0036051334 -0.0060897055 -0.019355487 -0.017710477 0.007840024 0.0029339842 -0.017531378 -0.0033264807
0.011218765 -0.025647406 -0.030960156 0.034515023 -0.010097681 -0.012041756 0.023515576 -0.0074695055
-0.008855985 -0.0010731302 0.013185999 0.009748848 0.008613367 0.0052240924 0.006935842 -0.013620231
-0.021372164 0.0017149092 0.013932036 -0.0014080574 -0.013477272 0.011705999 0.008576416 -0.002019745
0.008821558 -0.0031775192 0.01052527 -0.007568112 0.021968208 0.0030459552 0.013244792 -0.019437434
-0.031918935 -0.004758371 -0.013777522 0.011738483 -0.0053535197 -0.0036353427 0.02302041 0.013932463
-0.004985337 0.00049673184 0.023982741 -0.0021057015 -0.026927866 -0.019952726 -0.027918024 0.011899427
-0.026789166 -0.015797472 -0.008400443 0.014265792 -0.020151015 0.005278772 -0.012046694 0.0075178365
0.005214973 0.013848296 0.0015331828 0.013521249 0.030858232 -0.009260417 -0.022682229 -0.0022879282
0.0012921937 0.00975692 -0.017590562 0.013829672 0.0151120145 -0.015433354 0.018535424 -0.03188498
-0.028637066 0.0016792591 -0.026350772 0.02317823 -0.0022555974 0.0053633004 -0.016721992 0.00085079717
-0.008935764 0.021276798 -0.011066488 0.0038662225 0.020392636 -0.014531855 0.009100673 -0.0031335105
0.007964858 0.00049117 0.002062526 -0.0061398367 -0.013022203 -0.009899899 -0.04314083 0.004875237
0.0005910176 -0.0018672247 -0.0039335573 0.021771219 0.020810178 0.023580512 0.013134198 0.013087502
0.0069261575 -0.0148135815 0.014084394 -0.010100536 -0.02420515 -0.026635578 0.027900305 -0.011450338
0.0029868379 0.0038802316 0.03854693 0.0043572704 -0.015835648 0.019321596 -0.004305511 0.011637537
-0.0065497085 0.014903542 -0.020622447 -0.002170677 -0.04315569 -0.022600437 -0.0061122156 -0.015494069
0.028005177 -0.0064540748 -0.014815884 0.025757667 2.6400412e-05 -0.02060598 0.0023938818 0.0069463225
0.0012549878 -0.007662469 0.016934479 -0.0024533286 0.023791814 -0.020921322 0.021029651 0.0046497947
0.0007548534 -0.007312263 0.017750295 -0.015163636 0.017616034 0.013857477 0.005320946 0.02548433
0.014006745 -0.004056121 -0.013654127 -0.0100456 -0.015285856 -0.0037076825 0.00029909992 0.0027059198

basis_rand_weights f4 [16, 5]
00000000: 3103 153c 0061 6dba f8c8 b4bd 52bd 5f3e
00000010: aeb7 c2bd daf7 8cbc 5b13 7e3c 271b eebd
00000020: 675f 483d cbed 953d 1a76 dcbd 8306 0ebd
00000030: 1c18 ccbc b0e3 213e 9d70 67bd 9757 85bd
00000040: 9fb3 4c3c 3131 a4bc b9ce 49bd 40d5 07bd
00000050: 1615 d9bd 5fce 23bd 2b6d b8bd 4051 213e
00000060: 7e0f a7bd 9251 b4bd 086c 09bd 2732 0dbc
00000070: 4ac5 e93c 88ea 9dbd 38af a73d c54b 4dbe
00000080: ce7d 10be 05ab 053e 27cb d6bd cc7e bd3a
00000090: 9fe0 09be f50d 08be 13f0 4c3e 40e6 8bbd
000000a0: 1402 dcbd f6bd 9fbd bae4 edba f968 fb3e
000000b0: 22fb 94bd c14c 7fbd 47a9 113c ba8d f43c
000000c0: e292 873e 46a3 3bbd 0678 06be 4d9d 8bbd
000000d0: 037a e53d 19c2 e53e 9626 e6bd c594 813d
000000e0: f7c6 1ebe ecd5 80be 4189 403e 6a5b 8dbd
000000f0: 3d56 e43d 1257 85be f690 33be 6f86 c53e
00000100: b149 c5bd 69ba b7bd 78f7 5dbd c7e5 85bc
00000110: 1c55 2d3e 14e7 34bd 4416 403e 4684 3cbe
00000120: c845 78be 5189 ecbd a064 92be e0b7 853c
00000130: 4ea6 5cbd 7b69 13bd 260f d73e a486 80bd
0.009094999 -0.00090552866 -0.08827394 0.21849564 -0.0950769 -0.017208029 0.015507544 -0.11626273
0.048919108 0.07320746 -0.107647136 -0.03467418 -0.02491384 0.15809512 -0.05650388 -0.06510847
0.012493997 -0.020042988 -0.04926941 -0.033162355 -0.10599725 -0.039991733 -0.09005197 0.1575365
-0.08157252 -0.08804621 -0.033550292 -0.008617914 0.028536458 -0.07710749 0.08187717 -0.20048435
-0.1411049 0.1305352 -0.10487967 0.0014457344 -0.13464592 -0.13286574 0.20013456 -0.06831026
-0.10742584 -0.07799904 -0.0018149831 0.49103525 -0.07274462 -0.062329058 0.0088904565 0.029852737
0.2647925 -0.045810007 -0.13131723 -0.06817112 0.112049125 0.44874647 -0.112378284 0.06327204
-0.15505587 -0.2516321 0.18802358 -0.069022015 0.11149261 -0.26042992 -0.17535767 0.38579127
-0.09633196 -0.08971102 -0.054191083 -0.016344918 0.16926998 -0.044165686 0.18758494 -0.18409833
-0.2424537 -0.115496285 -0.28592396 0.01632303 -0.053869538 -0.035989266 0.42003745 -0.06275681

basis_vecs f4 [3, 768]
00000000: 64ea 053c 9cb6 d63b e688 c33b 2ad8 883b
00000010: 29af 5cbc e54c 323a 9123 0a3c f18a 433c
00000020: 4010 d93b 4a9c 1bbc f27e 303b fbba b5ba
00000030: 0dbf e23b 2e6c 8eba 71d6 51bc 64e3 ab3c
00000040: 1898 76bb 3263 df38 a9e4 15bc 5819 a43b
00000050: 240c 4bba 7d7a 80bb fbac c3bb 14c5 2b3b
00000060: 59d5 69bb c0fb 703a dfb3 a6bc 3d7f 2fbc
00000070: 28b4 eabc eb5d 493c 71c3 ebba cc8f bdbb
00000080: 3350 8d3c 2855 163c 9071 9fbc 1e1e c83c
00000090: 45c4 dabb 7324 433c 590d f1bc 0cd6 4a3b
000000a0: 1cfe a3bc 2464 e23b f63d 9b3b 86eb 70bb
000000b0: 2459 6f3b e05d 05bc 3d60 193a 650e 8fbc
000000c0: b3e8 b9b9 535a 12bb dda2 ee3a 3be2 6d3b
000000d0: 2bf0 5f3c 568a ceba 2dcb 39bc 2568 23bc
000000e0: 7fef 333b c4a0 973c 85f1 23bb e641 0abc
000000f0: 96c3 023c 8609 29bb 37f4 1a3c b9c0 9cbc
00000100: e85d 813c a135 26bc 496f 633c 58a1 9dbc
00000110: 2954 7ebc 7b04 c2bb 6f4b e0ba 6b51 a73b
00000120: b5d8 173b 1689 00bb 8b2c f63b 74c1 ab3b
00000130: 81a3 91ba c68c 173c 4cf4 67bc 2ac5 d83b
00000140: f184 a4bb cb2a 87bb 8dcc 66bb 9e77 7abc
00000150: 80cf 333c 5789 5dbc 5b7e e73b dae3 d63a
00000160: 0d95 4d3c 0b5a 123b 8b45 d2ba 5a41 8fbc
00000170: 700c 17bc 9689 4dba ece3 e8bc b5b8 413a
00000180: 7f63 23bb c448 30bc 9bab a3bc 6df6 433c
00000190: 0aae 633b e845 63bb 1426 b33a e101 74bb
000001a0: 043d 2f3c 7e93 88bb 893f 663c 5e11 c83b
000001b0: 3896 af3b 0023 edbb f985 84bb 16b5 663c
000001c0: 81c5 47bc bf4f 003d 919c 063c 7f45 abbc
000001d0: 735f 25bc a7a5 273c abe6 b33b 059f f23a
000001e0: 538d bfb9 1bff 98bc 4c5e 49bc 2304 db39
000001f0: 3f32 ab3c 892e 1d3c 4b53 493c 57f0 c53b
00000200: 366b 48bc cf80 12bc a4ae 75bc 9e75 773b
00000210: e427 c5bc 8f16 013c 64aa 113c c1e6 59bb
00000220: 46b9 f8bb 5145 bebb f8ff b2bb bb5a 733b
00000230: 33f8 98bc df61 3239 282a 313c db22 d83b
00000240: b151 253c c5af 1fbc 7acb 253b 07d5 62ba
00000250: 8d77 9bbb db3a a93c adbb f1bc b84e c1bb
00000260: 072f 7d3c fa6e 5d3b ad86 a83c 1fcf 12bc
00000270: 246d 153b 9512 bebc 7739 223c b49a 85bc
00000280: cbb7 743b 634e 13bc 30f6 373c a65b 593c
00000290: 5203 b23c f3bc 66bc 4ac4 45bb 2655 24bc
000002a0: bcf1 e9bb 800c 503c 2cc7 e33a 26e0 573c
000002b0: 88af 963b cdcd d53c 05d5 b2bb 58a3 093b
000002c0: 7e86 87bc 3452 903b 4dbe 5a3c 5247 bb3c
000002d0: 0838 8f3c 494f 283c eafb 043c 407a 783c
000002e0: 9fb7 3839 3898 ec3b ea1d 053b 2258 95bc
000002f0: 697c 9fbc 2450 a5ba 8df8 f5bc 816d 943c
00000300: 1253 483c 8e35 efbb 9b5a 2cbc 9053 62bb
00000310: 5547 4dbb 0c15 66ba 674d b43c 2b3f 34bc
00000320: 9ccd 203c fa14 37bc 86b3 5bbc 7a98 09bc
00000330: 09dd 913b 6d01 0cbc 04c0 18bb 6c4b 82ba
00000340: 4abf b63c f3ef 9a3b 8ad6 883c 15c4 fa3b
00000350: 37cd 3ebc 0a1f 883c 0d71 b339 ad13 aabc
00000360: 4d57 9c3c 995c 893b ed19 323c 5ff6 833a
00000370: c0cf ffbb 8f1e 8bbc 4b7b 243b d880 0a3c
00000380: 9cc1 cabb ed26 df3b 5dcb 88bb fbaa f2bb
00000390: 6589 453b 62c0 093c cba1 c13b 2cf8 323c
000003a0: 5f82 853c 2723 423a 3110 2d3b 2f53 2e3b
000003b0: 7d21 0c3d aa2f c339 0b65 9b3c 2250 5ebc
000003c0: 609b 763c d109 babb 9ce0 493c 7f49 803b
000003d0: 5d64 d73b d002 8b3b 2404 b2bb 0e34 b2bc
000003e0: c833 d73a b786 d7ba 5c2a 95bb 0c39 40bc
000003f0: bdf4 51bc 4740 6dbb 694f 85bc e91d 913c
0.008173559 0.0065525305 0.0059672473 0.0041761594 -0.013469496 0.00068016193 0.008431331 0.011934982
0.0066242516 -0.009497711 0.0026931134 -0.0013864929 0.0069197477 -0.001086598 -0.0128074745 0.020982452
-0.0037627276 0.00010651945 -0.009148755 0.005007904 -0.00077456445 -0.0039208517 -0.0059715486 0.0026209997
-0.0035680144 0.0009192787 -0.020349441 -0.010711488 -0.028650358 0.012290458 -0.0017987323 -0.005784964
0.017250156 0.009175576 -0.01946333 0.024428423 -0.006676229 0.011910546 -0.02942531 0.0030950336
-0.02001863 0.0069089103 0.004737611 -0.0036761477 0.0036521638 -0.008140057 0.00058508274 -0.017462919
-0.00035459324 -0.002233167 0.0018206496 0.0036298174 0.0136681 -0.001575778 -0.011339945 -0.00997356
0.0027455983 0.018509276 -0.0025015783 -0.008438563 0.007981202 -0.002579303 0.009457639 -0.019134866
0.015791848 -0.010144622 0.013881513 -0.019241974 -0.015522995 -0.0059209443 -0.0017112325 0.0051061413
0.002316994 -0.001961296 0.007512634 0.0052415673 -0.001111135 0.009249872 -0.014157366 0.0066153007
-0.0050207307 -0.0041249744 -0.0035217137 -0.015287308 0.010974765 -0.013521514 0.0070646233 0.0016394809
0.0125477435 0.0022331502 -0.0016042454 -0.017487217 -0.009219274 -0.00078406313 -0.028428994 0.0007389889
-0.002493113 -0.010759536 -0.019979289 0.011960608 0.0034741187 -0.0034679119 0.0013667964 -0.0037232565
0.0106957 -0.004167973 0.014053234 0.006105586 0.0053584836 -0.0072368383 -0.004044291 0.01408126
-0.012193085 0.03132605 0.008216039 -0.020907162 -0.010093558 0.010232366 0.0054901442 0.0018510526
-0.00036535654 -0.018676331 -0.0122905485 0.00041774017 0.020897983 0.009593614 0.012287925 0.0060406136
-0.012232592 -0.008941843 -0.014995251 0.0037759314 -0.024066873 0.007878914 0.008890722 -0.0033249112
-0.0075904457 -0.005806603 -0.0054626428 0.0037132937 -0.018673038 0.00017011863 0.0108132735 0.006595952
0.0100902775 -0.009746497 0.0025298283 -0.00086529594 -0.004744476 0.020657947 -0.029508436 -0.0058992766
0.015453107 0.003378807 0.02057203 -0.008960514 0.0022800649 -0.02320222 0.009901396 -0.01630912
0.0037340994 -0.008990857 0.011228129 0.01326648 0.021730099 -0.014083135 -0.0030176812 -0.010030067
-0.0071394127 0.012698293 0.0017378083 0.013176 0.0045985617 0.02609911 -0.005457523 0.0021001901
-0.016543623 0.0044043306 0.013351035 0.022861157 0.017482772 0.010272809 0.008116702 0.015165865
0.00017616012 0.0072202943 0.002031202 -0.018230502 -0.019468503 -0.0012612385 -0.030025745 0.018118622
0.012226837 -0.0073000854 -0.010519649 -0.003453467 -0.0031323035 -0.000877694 0.022009565 -0.011001389
0.009814646 -0.011174435 -0.013409501 -0.00839817 0.0044513983 -0.008545262 -0.002330781 -0.000994069
0.02230801 0.004728311 0.016703863 0.0076527693 -0.011645607 0.016616363 0.0003422577 -0.020761335
0.019084597 0.0041919467 0.010870439 0.0010067931 -0.007806748 -0.016982345 0.0025097902 0.00845357
-0.006187631 0.0068100602 -0.0041746334 -0.0074056364 0.0030141708 0.008407684 0.00590918 0.010923427
0.016297517 0.0007405751 0.0026407356 0.0026599874 0.034211624 0.0003722881 0.01896908 -0.01356891
0.015051693 -0.0056774397 0.012321617 0.0039150114 0.0065732435 0.0042422786 -0.0054326225 -0.021753337
0.001641863 -0.0016443346 -0.004552169 -0.011732351 -0.012814698 -0.0036201642 -0.016273217 0.017714458

basis_comm_weights f4 [1, 5]
00000000: c313 4a3e cd82 fa3e adb4 bd3d f9eb 3a3f
00000010: b52f 943d
0.19734101 0.48927918 0.09262977 0.73016316 0.07235662

bias f4 [16, 768]
00000000: 849e 33bb bf6d ce3c 1aee 0abd b5d0 893c
00000010: 9e94 12bd 00c8 50bc 9313 50bb 766a e53c
00000020: df3f f0bc ebdb 633d 477d dfbc 14b4 d03c
00000030: f326 303d 1d57 823d 55e0 083b b2e8 05bd
00000040: 4e1b 62bd 421f 2e3c 491e 653b d4a1 8e3b
00000050: 9010 563c 3bb5 2fbc 41e5 713b 3880 3dbc
00000060: c46a c3bc 9996 373d ba93 77bd d393 3dbd
00000070: 0206 19bb 4970 383d bab1 5abc eded 3cbc
00000080: 47fb 88bd 92ff 423c 2ce1 3abd 73f1 50bd
00000090: bf54 88bd c331 82bc 7a12 40bc b88b 9fbb
000000a0: 7916 973d b2dd 10bd ee78 4e3b 7797 bdbc
000000b0: 4040 c53c b218 8fbb 612d 0cbd 49ea 93bc
000000c0: e18e 56bc a65f 853d 113d 3dbd 7861 65bd
000000d0: 1931 6f3d 5a0b 0f3d d574 03bb aced 863d
000000e0: 8336 723d de1f d0bc a8df 893d cdc4 c7bb
000000f0: 1c61 8fbd 8234 2dbc fcbb 2dbd 5087 50bc
00000100: d4c1 843c 4a15 ebbc 5d8a 973c 1175 603c
00000110: 8e3c c3bb 8db9 7ebd 9ab8 f7bc 8d5b 92bc
00000120: 3329 1a3d 34fc 85bc d3f6 e7bb 1edd 963c
00000130: 1e2b 433d 9bc6 b6bc 5d28 bdbc 6e65 50bb
00000140: 0ab4 98bb 5246 9c3d e01d 6e3d 852e 8a3c
00000150: 9f70 1b3d 1179 febc ef36 26bd 7f23 24bc
00000160: 1801 4dbc 0408 6f3d 690c a03c c894 a43c
00000170: e3d6 173d b11a 8dbd 1ca0 e7bc ddc0 66bd
00000180: 6c27 173c 6be4 d3bb 23d8 e8bc 0a22 203b
00000190: a408 58bd 199c 703d 5c8d 1fbd 8555 bc3c
000001a0: 6c40 803c 2193 2dbb 3a03 8dbc c89e 92bd
000001b0: 2fc7 c93c 335a 2abd 1c5a 943d 0380 5e3c
000001c0: 00ac 50bd 8040 313d 34d1 b1bc e4f3 9bbd
000001d0: 5332 d2bc 9369 cebb b7b2 7a3c ae9b 823c
000001e0: 7695 183d 498f f83c 3cf4 ea3c 8715 efbc
000001f0: 48f6 043c 88d4 1e3d 36c3 1ebd 8a5b 763c
00000200: b199 82bc 3b0a 2f3b 33ec 1b3d 1536 023d
00000210: fac4 723c c177 6f3d eb48 11bd eb58 b33b
00000220: 603f af3c 1c75 eebc 08a9 b53c d68a 473c
00000230: b88e 90bb 45ec 8b3b b2fb 413c a778 bd3b
00000240: 526c 9b3c dd7d cf3c d866 f3bc 0e8d 103d
00000250: d9ef 863d 0d4d 833d f031 c73b 6b34 2e3c
00000260: 0b40 a73c 4a60 9fbc 4455 8cbc e097 22bc
00000270: dc28 c5ba 386c 233a 6c61 b13c d6cd 2cbd
00000280: 0f4b 3abc 2997 2e3d f4c2 873d f3f5 7a3c
00000290: ac42 a53c c8e1 a7bc b06d 29bd 0f63 a9bc
000002a0: ed25 45bc d8d4 673d fe98 c63c a249 323b
000002b0: a1fe 043b d3ed b73c 8c99 1dbd 0f84 0e3b
000002c0: 6cfe 95bd 281e a7bc 0d59 90bd 4450 0abd
000002d0: eafc 183d 13f9 cabb c998 5ebb ee7b 343d
000002e0: 2dd0 33bd a0fa 883c e79f 8fbc 7aa4 773d
000002f0: e51b 953c d24e 393c bbfc 6e3d 834e 483d
00000300: 1564 08bd d22a 163c 3c35 963d 62f6 8a3d
00000310: 0b44 073d 77bd 21bb f051 373d 7259 8c3d
00000320: a1ae a03c 7658 08bd f9b5 8bbc 0287 4bbc
00000330: 02c8 7cbc 9fdb 89bd 276b 553c 7348 89bc
00000340: ce88 223d 4896 443c bbd5 e3bc 0c69 2bbd
00000350: c53a b13d 32e7 b6bc f075 453b 49e9 1b3d
00000360: e3ab 3dbd 3000 dbbc bff6 8d3b fa2b f4bc
00000370: bdc8 77bd 8e02 e73c 85f6 a03c 4788 e03b
00000380: 3867 2a3c 83cf fdbc f9d0 1e3c e320 a53c
00000390: 71df fb3b ffc7 c4bc b496 e5bb 5ef6 ad3a
000003a0: baf3 033c 7640 d73c c779 363d 4262 62bd
000003b0: f038 53bd d588 1bbd 0dd0 fd3b ca31 3dbc
000003c0: a610 6d3c 3423 09bc 9fa9 09bd f5d3 abbc
000003d0: 6a7f 1abd 1ee3 33bd b624 09bd e722 e7bc
000003e0: 87b2 793d 28f4 043c e208 f73c acf6 a13c
000003f0: ae4e ad3c 85e3 163b 9d30 273d 4533 66ba
-0.0027407715 0.025198815 -0.033918478 0.016823152 -0.035786264 -0.012742996 -0.0031749948 0.028004866
-0.029327331 0.055629652 -0.027281417 0.025476493 0.043005895 0.06364272 0.0020885665 -0.03269262
-0.05520182 0.01062757 0.0034960678 0.0043527875 0.013065472 -0.010724361 0.0036910328 -0.011566214
-0.02385462 0.044821355 -0.060443617 -0.046283554 -0.0023349528 0.04502896 -0.013348037 -0.011531335
-0.06688552 0.011901753 -0.045624897 -0.051011514 -0.06656789 -0.015892869 -0.011723155 -0.0048689507
0.07377333 -0.035367675 0.0031505185 -0.023143513 0.024078488 -0.0043669576 -0.034222964 -0.018056052
-0.013095588 0.06512384 -0.046200816 -0.056001157 0.058396433 0.034922935 -0.002005865 0.06588301
0.059134018 -0.02540582 0.06732112 -0.0060964585 -0.07000944 -0.010571601 -0.042415604 -0.0127275735
0.016205706 -0.028696675 0.018498594 0.013699786 -0.0059581464 -0.062188674 -0.030239392 -0.01786592
0.037636947 -0.016355611 -0.0070789843 0.018415984 0.04764854 -0.0223115 -0.023090536 -0.0031798738
-0.004660134 0.076306 0.05813396 0.016867885 0.0379492 -0.031063588 -0.040579733 -0.010018229
-0.012512468 0.058357254 0.019537168 0.020090476 0.037070166 -0.068898566 -0.028274588 -0.056336273
0.0092257075 -0.0064664385 -0.028423375 0.0024434351 -0.052742615 0.058742616 -0.03895317 0.022989998
0.015655719 -0.00264854 -0.017213453 -0.07159191 0.024631111 -0.041589927 0.072437495 0.013580325
-0.050945282 0.043274403 -0.021706201 -0.07614878 -0.025658762 -0.0062992065 0.015301398 0.015943374
0.037251912 0.030341761 0.028680913 -0.02918507 0.008115359 0.038776904 -0.038760386 0.015036473
-0.015942426 0.0026708979 0.038067054 0.031789858 0.014817471 0.058463816 -0.03546993 0.0054732463
0.021392524 -0.029108576 0.022175327 0.012179097 -0.0044115447 0.004270109 0.011839794 0.005782205
0.01897255 0.025328571 -0.029712126 0.03529077 0.06588716 0.06411181 0.006078951 0.010632615
0.02041628 -0.019455094 -0.017130502 -0.009923905 -0.0015042084 0.00062340824 0.0216529 -0.042188488
-0.011370434 0.042624626 0.06628981 0.015317428 0.020173393 -0.020493403 -0.04136437 -0.020677118
-0.012032968 0.056599468 0.024242874 0.0027204533 0.0020293372 0.02245227 -0.03847651 0.0021746194
-0.07323918 -0.020400122 -0.07048235 -0.033767954 0.037350573 -0.0061942427 -0.0033965579 0.0440635
-0.043899704 0.01672107 -0.017532302 0.06045959 0.018201778 0.011310296 0.05834649 0.048903
-0.03329857 0.009165483 0.073343724 0.06785275 0.033023875 -0.002467958 0.044755876 0.06852998
0.01961452 -0.033287488 -0.017054545 -0.012422325 -0.015428545 -0.067313425 0.013026035 -0.01675818
0.03968125 0.0119987205 -0.027811876 -0.041848227 0.086537875 -0.02232704 0.003013011 0.038064275
-0.046306502 -0.026733488 0.004332393 -0.029806126 -0.060494173 0.02819946 0.0196488 0.006852183
0.010400586 -0.030982738 0.009693378 0.020157283 0.0076865484 -0.024021147 -0.0070064906 0.0013272276
0.008053714 0.026275855 0.04454973 -0.055269487 -0.05156797 -0.03797229 0.007745749 -0.011547515
0.014469301 -0.0083702095 -0.03360903 -0.020975092 -0.037719168 -0.043917768 -0.033482276 -0.028214885
0.060961273 0.008114852 0.030155603 0.019770943 0.021155681 0.0023023796 0.040817846 -0.00087814435

weight f4 [768]
00000000: f4c2 733f 0c81 813f 0d38 813f 1b48 6e3f
00000010: d4ae 853f dcaa 753f d418 853f 3de0 7e3f
00000020: 7e24 6f3f a36d 6a3f d578 6b3f e917 883f
00000030: 5dac 6f3f 415f 663f 197e 823f 874c 703f
00000040: 35a6 553f 15a8 713f 51b8 703f 2a42 7d3f
00000050: 31c6 733f 43a0 6e3f 214d 4a3f 6f4f 7e3f
00000060: 1cb6 783f a856 903f c278 943f c4fe 683f
00000070: 325c 863f 1037 9c3f 4c7d 6c3f 617e 7b3f
00000080: fd33 923f 10c5 723f 3580 563f 24ea 823f
00000090: 21f8 8e3f 3e0c 703f 44b7 623f a1fd 723f
000000a0: c7fc 623f 2ed6 653f 9fe7 803f 627a 6d3f
000000b0: da37 843f 9f2e 803f 6364 6b3f d350 833f
000000c0: 593d 763f a892 5d3f bf1b 813f 07db 703f
000000d0: ccdc 933f a1da 6f3f 08b2 733f ee08 713f
000000e0: cf18 933f 81e8 603f 86e9 903f 15b7 793f
000000f0: c614 913f d97b 6e3f df87 673f b303 673f
00000100: 362e 863f 361a 843f da09 6d3f 199e 803f
00000110: 3933 813f 4b9b 663f 5b89 703f b348 613f
00000120: edf6 7c3f 96c8 803f 7892 7b3f d687 7d3f
00000130: ff4f 8f3f 0d38 693f 02e2 6a3f ab85 783f
00000140: 24c1 753f 21ea 633f 2785 8d3f 6529 733f
00000150: 12b4 7e3f 819d 853f 68ca 703f 46c5 743f
00000160: f62d 733f a448 843f 5787 743f b0f8 8a3f
00000170: b4bd 673f 1126 823f 9e81 893f a776 7c3f
00000180: 2c89 7a3f 4550 7b3f e200 883f 30c0 7f3f
00000190: b513 653f dc41 7e3f 8f73 823f 637f 633f
000001a0: a50b 763f d2e1 723f 6a55 7b3f 5274 593f
000001b0: 377c 733f 92a9 873f bff9 8e3f 1f31 6c3f
000001c0: cccc 8e3f 904f 593f 6ade 6c3f 4b7c 8a3f
000001d0: c5b3 893f 62f5 833f 6a5e 883f c25c 6e3f
000001e0: 712c 8a3f 5095 583f 883d 613f c410 813f
000001f0: 8a1d 803f 3cab 833f 9047 703f 44e5 803f
00000200: a06f 713f 91c6 793f f41b 633f 94e7 893f
00000210: 76d2 563f 3793 563f aa06 853f f92c 733f
00000220: 2772 753f fd29 8e3f 4e6e 833f fa20 753f
00000230: 96ca 803f a460 813f bbf4 733f b77a 7a3f
00000240: 1047 813f 7e0b 683f 7617 713f c349 763f
00000250: 0c5c 783f d28b 863f 19dc 813f 3380 653f
00000260: d90a 813f c7d3 6b3f 67be 653f 2f7b 773f
00000270: 3122 743f 05db 713f 677a 6d3f 995b 8b3f
00000280: 4fd1 6f3f 0906 883f f27e 8e3f d873 733f
00000290: cf29 873f d434 833f 81ce 8d3f de45 813f
000002a0: e43a 7d3f a548 913f 4ebe 613f 3884 833f
000002b0: b06f 7b3f 8b8a 813f 4580 6a3f 93e9 733f
000002c0: 0350 9d3f 00c5 7e3f 6403 8a3f d9dd 6c3f
000002d0: e6d9 8a3f 31aa 703f e534 783f c7fc 883f
000002e0: 8d11 863f 64b5 743f d617 6f3f 40c8 913f
000002f0: 06b5 673f b1bb 7d3f 4738 513f 9742 833f
00000300: 5358 793f 59a5 533f 1283 773f a2de 593f
00000310: 092b 8a3f cd4e 7f3f c2e0 893f c8b5 803f
00000320: 3ed0 603f 1658 8b3f 2d89 823f 4b35 753f
00000330: aa62 613f 42b5 873f 144d 793f 78c7 6b3f
00000340: f5c1 8c3f 0afc 723f 0e40 623f ab48 603f
00000350: f473 853f ce48 763f 451a 773f cdca 5b3f
00000360: 4cdb 623f 3e72 6d3f d257 7e3f 02a5 863f
00000370: 94f3 4c3f 9b62 6d3f 8d0d 753f b513 793f
00000380: f727 673f d546 853f 85e0 783f 432c 6a3f
00000390: 2a9e 723f 190a 813f 6ebd 7b3f e50f 7a3f
000003a0: 79bf 803f dc48 793f 2fb8 8a3f 986e 803f
000003b0: 4c10 573f 888a 8c3f 1fd8 813f 4904 903f
000003c0: 26ce 7f3f 9c73 613f 4895 713f c6ab 673f
000003d0: be18 593f 764a 663f 1392 6d3f a876 853f
000003e0: 462d 573f fb33 6b3f cbd8 6c3f 3811 7c3f
000003f0: f808 673f 557e 753f 4751 5f3f fe1a 7d3f
0.9521935 1.0117507 1.009523 0.93078774 1.0443978 0.95963836 1.0398202 0.9956091
0.9341506 0.9157354 0.9198125 1.0632297 0.9362238 0.89989096 1.0194732 0.9386677
0.83456737 0.943971 0.94031245 0.98929083 0.9522429 0.9321329 0.7902394 0.99339956
0.97152877 1.1276445 1.1599352 0.9101374 1.0496886 1.2204304 0.9237869 0.98239714
1.1422116 0.94831944 0.8378938 1.0227704 1.1169473 0.9376868 0.8856089 0.94918257
0.8866696 0.8977994 1.0070685 0.92764866 1.0329545 1.0014228 0.9195005 1.025904
0.9618736 0.86551905 1.0086592 0.9408421 1.1551757 0.93692976 0.9519353 0.9415425
1.1491946 0.8785477 1.1321266 0.97544986 1.1334465 0.93157727 0.904417 0.9024002
1.0482852 1.0320499 0.9259316 1.0048248 1.0093757 0.9008071 0.9395959 0.88001555
0.9881428 1.0061214 0.9827037 0.99035394 1.1196288 0.9110115 0.9175111 0.9707896
0.95997834 0.8902913 1.105626 0.9498504 0.99493515 1.0438691 0.9405885 0.95613515
0.94992006 1.0334668 0.9551901 1.0857143 0.9052384 1.0167867 1.0742681 0.9861855
0.9786556 0.98169357 1.062527 0.9990263 0.89483196 0.99319243 1.0191516 0.8886625
0.9611152 0.94875824 0.98177207 0.84943116 0.9511141 1.0598624 1.1169966 0.9226245
1.1156249 0.8488703 0.92526877 1.0819181 1.0757986 1.030926 1.0653813 0.9311029
1.0794812 0.8460283 0.87984514 1.0083241 1.0009015 1.0286632 0.93859196 1.0069966
0.9431095 0.97568613 0.8871453 1.0773797 0.8391489 0.8381838 1.0392659 0.949905
0.9587731 1.1106564 1.0268037 0.95753443 1.0061824 1.0107617 0.95295304 0.978435
1.0099812 0.90642536 0.94176424 0.962063 0.9701545 1.051142 1.0145293 0.8964874
1.0081435 0.9212002 0.89743656 0.9667234 0.9536467 0.9447482 0.92764896 1.0887328
0.93678755 1.0626842 1.1132491 0.9509864 1.0559634 1.0250497 1.1078645 1.0099447
0.98917985 1.1350294 0.88181007 1.0274725 0.98217297 1.0120405 0.91601974 0.9527828
1.2290043 0.9951935 1.0782285 0.9252601 1.0847747 0.9400969 0.9695571 1.0702142
1.0474106 0.9558928 0.93395746 1.1389236 0.90510595 0.9911452 0.817265 1.0254697
0.974004 0.82674176 0.9668437 0.85105336 1.0794383 0.99729615 1.0771716 1.0055475
0.8781775 1.0886257 1.0198113 0.95784444 0.88041174 1.060219 0.97383237 0.9210124
1.0996691 0.9491583 0.8837899 0.8761088 1.0426011 0.9620484 0.9652446 0.85856324
0.8861587 0.92752445 0.99352753 1.0519106 0.8005917 0.92728585 0.957238 0.97295696
0.90295357 1.0412241 0.9721759 0.9147379 0.9477259 1.0081207 0.9833592 0.97680503
1.0058433 0.973768 1.0837458 1.003375 0.8400924 1.0979776 1.014408 1.1251308
0.9992393 0.8806703 0.9436841 0.9049648 0.8480338 0.8995737 0.92801017 1.0426836
0.84053457 0.9187619 0.925183 0.98463774 0.9024806 0.9589589 0.87233394 0.9886931

bias f4 [768]
00000000: d416 873c b42c 273d 659a adbd 266a 933d
00000010: f721 66bd fbd4 e5bc a4ff 64bc 588b 203d
00000020: 03c9 9ebd 11f7 0e3e dada 18bd c4ff 9b3d
00000030: 3463 cb3d 1e40 3d3e 98c8 6abc 0b6c a5bd
00000040: 2f09 f7bd 6d36 2cbb e772 103d 06a5 543c
00000050: 6e1f 5f3c 87b4 77bd 20b8 9e3d 0d81 02bd
00000060: b19f 93bd 971b fe3d a8b9 44be 0fdd d5bd
00000070: 1316 23bd 1464 2c3e e246 58bd a091 cb3a
00000080: 9a71 31be c5ec 71bc f8bd cabd f19a f7bd
00000090: e36a 1cbe 2361 24bb 20d2 87bd 1f81 05bc
000000a0: f031 3b3e f27f cfbd 6b5b bf3c eb33 13bd
000000b0: 4e2a 6d3d d7b3 04bd 4960 9abd 7179 87bc
000000c0: 8da7 663c 1a13 fb3d 8ac9 05be 16d7 e0bd
000000d0: d23a 143e bd26 c23d 938f 2d3c 9c91 483e
000000e0: cb41 233e 9d0d 89bd d974 283e e2a2 043c
000000f0: ba68 14be 0f11 12bd abfe 0fbe c8ad d8bc
00000100: 8f94 a93d 32a6 93bd 80c3 adba 1b4e 5cbb
00000110: 05a0 c9bb 6a13 15be 0653 cfbd 4e36 f4bd
00000120: 9f54 9c3d 88b8 2cbd 80fc 44bd ffb7 993c
00000130: 33eb bb3d 0928 99bd 0c51 2ebd c706 2c3c
00000140: f6e9 9abc 5eda 233e ece7 193e f200 3a3c
00000150: 1932 b63d 7e2c 9ebd 67e3 a8bd f6dc 2ebd
00000160: 5cfa 823c 0899 4a3e c0e8 3b3d 1d95 b53d
00000170: 9bbb 833d 8f4f 07be f3b0 6bbd ade1 30be
00000180: 3651 ee3b e533 d33b 7d86 91bd b790 e13c
00000190: a068 b7bd 2e1c a23d 70fa 96bd fbe2 c13d
000001a0: 9257 723c 5b50 273d 8e86 88bc d248 1dbe
000001b0: 2820 d83c e008 bcbd fd0f 243e 0832 ab3c
000001c0: 00bf 17be 8665 e73d 77fa a5bd 5727 25be
000001d0: 001e cdbd 4e3f 043d 6b2c dc3d bbc4 df3c
000001e0: f64a 863d 7127 c53d 889e b23d 31ca 5abd
000001f0: 6694 eb3c 615c bf3d 46a8 77bd 702d fb3c
00000200: 5451 69bd d7c5 0d3c 8b9d c23d ca20 e13d
00000210: 442b 703c 22f3 d13d 5bbf cabd 9ea2 223d
00000220: c529 113d 9b04 cbbd 7460 103d 3d42 233d
00000230: 012e bbbc 0d60 b43c b125 3f3d 8c92 46bd
00000240: 5379 cc3c 3540 893d 77c4 46bd 2cb7 643d
00000250: c033 223e fe68 013e dc19 e7bc 20fc 323d
00000260: 98d3 4d3c 2ca0 0cbd 762d a7bd 9fa0 90bc
00000270: 0176 b6bc 8c37 54bb 621a 553d 854b 00be
00000280: 8cce 9bbc 0919 5a3d c451 173e 9ebf 923d
00000290: 3239 7e3d 0134 38bd 4230 05be 92e6 39bd
000002a0: 2a88 f4ba 8a5d 333e 284b be3d ddab e93c
000002b0: 9716 063c a701 863d 6ede 0bbd 02da 0cbd
000002c0: a53f 64be f73d acbc 01de 5dbe 13ef 50bd
000002d0: 8985 9b3d 7787 09bd 59ac bfbc 485d d53d
000002e0: c654 fbbd 783f 343d 5b0e febc 0985 273e
000002f0: 8747 a53d ad89 c93c d757 0f3e b132 f03d
00000300: a8a5 7dbd f601 de3c bafd 293e 8f68 bf3d
00000310: 1234 e13d 096a 593c 1890 e43d 57f3 453e
00000320: 0318 a33d 6e4c d1bd 40ef fcbc be90 1bbd
00000330: 2b4c b0bd fb10 fcbd 8b13 1b3d ed76 d2bd
00000340: 3eba cf3d 7def d33c 2432 c1bd 1c2d a4bd
00000350: 8e6c 543e a6dc 30bd df55 c63c 04d0 e13d
00000360: 31b2 c4bd 91e2 72bd 47dc 2cbd ea6d 93bd
00000370: e0ad 23be d64b 233d eca2 4a3d fedb ab3c
00000380: fb02 213d e779 b8bd 74a6 093d d912 453d
00000390: 53f9 213d b18b 1abd 2da5 3ebd 48ca a23c
000003a0: 635c ee3c a676 ae3d f81b f23d 5c01 25be
000003b0: 2d6f 2fbe ba51 f2bd 1557 063d aebb eebd
000003c0: 549a 193d d2c1 6cbc 05e9 6bbd 264c a63c
000003d0: 47bd 09be 5d02 03be dd62 9fbd 19ff 9cbd
000003e0: 9450 3e3e 9940 373d 8ceb 863d 8cde 2b3d
000003f0: d05d 953d 5f5f e1bb b6fe bc3d 0215 bbbb
0.016490377 0.040814117 -0.08476714 0.071979806 -0.056184735 -0.028055659 -0.013976965 0.03919539
-0.07753184 0.13961436 -0.037318088 0.07617143 0.09931031 0.1848149 -0.014330052 -0.08077248
-0.120622985 -0.0026277557 0.03526583 0.012978798 0.013618333 -0.0604749 0.07749963 -0.031861354
-0.07208193 0.12407606 -0.19211447 -0.10442554 -0.039815973 0.16835052 -0.052801974 0.001553107
-0.17328492 -0.014765923 -0.09899515 -0.120900996 -0.15275149 -0.0025082312 -0.06631875 -0.008148461
0.18280768 -0.101318255 0.023359021 -0.035938185 0.057901673 -0.03239807 -0.07537896 -0.0165374
0.014078033 0.12259503 -0.13065162 -0.109785244 0.14475563 0.09480045 0.010593313 0.19586796
0.15943067 -0.0669205 0.16450824 0.008095475 -0.14493075 -0.0356608 -0.14061992 -0.026450053
0.082802884 -0.072094336 -0.0013257116 -0.003361589 -0.006153109 -0.14558187 -0.10123257 -0.1192442
0.07633328 -0.04216817 -0.048092365 0.018764494 0.0917572 -0.07478339 -0.04255776 0.010499663
-0.01891039 0.16001269 0.15029877 0.011352764 0.08896274 -0.0772333 -0.082464986 -0.042691194
0.015988521 0.1978494 0.045876265 0.08866332 0.06432267 -0.13213943 -0.0575418 -0.17273588
0.0072728647 0.0064453953 -0.0710573 0.027534826 -0.089555025 0.07915531 -0.07371986 0.09467121
0.014791386 0.040848117 -0.016665723 -0.1535981 0.02638252 -0.0918138 0.16021724 0.02089788
-0.14818954 0.11298661 -0.08104413 -0.16128288 -0.10015488 0.032286935 0.107506596 0.027315488
0.065572664 0.096266635 0.08721644 -0.05341548 0.028757285 0.09343792 -0.060463212 0.030661315
-0.056962326 0.008653126 0.09502705 0.10992582 0.014658753 0.10251452 -0.098997794 0.039705865
0.035440225 -0.09912988 0.035248235 0.03985809 -0.022849085 0.022018457 0.046666805 -0.0484796
0.024960196 0.067017 -0.048527207 0.05583875 0.15840054 0.12637708 -0.028210573 0.043697476
0.012562655 -0.03433244 -0.08162968 -0.017654715 -0.022273066 -0.0032381741 0.052027114 -0.12528808
-0.019019388 0.05324653 0.14777285 0.07165454 0.062066264 -0.04497147 -0.1300669 -0.045385905
-0.0018656303 0.17516151 0.09291679 0.028524334 0.008184097 0.06543284 -0.034147672 -0.034387596
-0.22289903 -0.02102564 -0.21666719 -0.05100925 0.07593829 -0.033576455 -0.023397611 0.104181826
-0.122720286 0.04400584 -0.031012705 0.16359343 0.080702834 0.024601782 0.13998352 0.117284186
-0.06192556 0.027100544 0.16600695 0.09346115 0.1099626 0.01326991 0.11160296 0.19331108
0.07963564 -0.10219656 -0.030875802 -0.037979834 -0.08608278 -0.12307926 0.037860435 -0.102765895
0.10142945 0.025871033 -0.09433392 -0.080164164 0.20744535 -0.043179177 0.024210868 0.11026004
-0.096043 -0.0592981 -0.04220226 -0.07198699 -0.15984297 0.039867245 0.04947178 0.020978924
0.039309483 -0.09007626 0.033606008 0.048113678 0.039544415 -0.037730876 -0.046544243 0.019871846
0.029096788 0.08518724 0.11821741 -0.161138 -0.17132254 -0.11831994 0.03279789 -0.11656891
0.037500694 -0.014450507 -0.05759527 0.020299982 -0.1345111 -0.1279387 -0.077825285 -0.076658435
0.18585426 0.04473934 0.06587896 0.041960284 0.07293284 -0.006877824 0.0922827 -0.0057092914

weight f4 [768]
00000000: 32b0 7e3f b0e6 733f 25d7 863f 759c 7c3f
00000010: 5bc7 773f 2b1f 833f e650 9d3f c8b1 7c3f
00000020: 0656 773f 0bbd 7e3f ae0e 943f 0ea2 873f
00000030: 6202 6a3f 8ea1 913f 4f36 983f 1b28 713f
00000040: a7dc 633f 7074 733f 21b0 7d3f a883 703f
00000050: 33a6 623f 3cc0 813f 5cab 743f 2bb2 803f
00000060: 6bb9 773f e61e 603f 4f64 653f 87ff 763f
00000070: 3700 6b3f d682 4d3f bfee 753f fdfb 783f
00000080: b864 8a3f 66d5 5a3f abe3 823f e466 7f3f
00000090: 8d84 6c3f 680c 733f a5a4 5b3f 2ca0 643f
000000a0: d7be 583f 3f55 803f d5d0 843f b8ef 613f
000000b0: 99ec 703f 092e 6f3f e810 823f 2ff7 763f
000000c0: 579c 8d3f c4ad 743f 4bb1 703f 93cf 703f
000000d0: d791 9e3f 5fd7 773f 0ee6 753f f21e 793f
000000e0: c838 6d3f 826c 863f 4015 7e3f 3f4a 813f
000000f0: 7943 513f 45a8 6f3f a0d6 4b3f c88d 6a3f
00000100: 99ab 823f c314 5c3f 04e0 7e3f 447d 813f
00000110: 4cb2 6b3f 04ac 7d3f 7ee7 7a3f 6bb0 7c3f
00000120: 15bf 7c3f 26fd 5c3f b130 723f aaed 793f
00000130: 115b 8a3f ebe3 663f 9ba7 7d3f 3a42 893f
00000140: 9312 733f 838b 803f 5a2d 853f b753 623f
00000150: 9a08 983f 4128 8a3f f479 853f a086 943f
00000160: abec 843f 0ea5 7d3f 1a93 833f 8f63 8b3f
00000170: 05be 833f 3dc7 843f 1234 933f 2fd8 873f
00000180: a023 6a3f 8a9c 863f 986c 7f3f 469a 703f
00000190: 227b 763f 398b 823f d6fd 763f 2718 753f
000001a0: 1d88 713f 6548 803f 8f47 8e3f 7470 6a3f
000001b0: 68cb 6c3f 742b 6f3f ac37 6d3f e735 733f
000001c0: 1dc0 6e3f c639 713f 7082 5c3f ae1d 873f
000001d0: 13f0 7b3f 4af1 5d3f 2475 873f 706b 873f
000001e0: 2b8b 953f ce4b 7d3f 8116 6a3f a28a 863f
000001f0: 0fe1 683f 144b 803f 1e28 803f 8733 873f
00000200: 9580 933f 1c16 793f 3c7a 703f 06cf 603f
00000210: 7cfe 6e3f eec5 783f 0269 763f da24 7b3f
00000220: 9d66 783f ef29 813f 7608 993f ddd8 5b3f
00000230: 498c 823f efd8 7e3f b1b5 843f d228 653f
00000240: 695b 803f 7c97 7f3f e3c9 873f 221d 6c3f
00000250: 9d59 753f a42f 753f df19 7d3f 023b 893f
00000260: 86d1 823f 1804 7a3f 1665 763f 2183 863f
00000270: 8925 843f 6b53 703f abd0 753f 1504 573f
00000280: e0b4 583f 6399 6a3f 1ae9 913f 3d57 7f3f
00000290: 5ae4 773f c555 723f 765a 963f 7b9b 6c3f
000002a0: 2c92 863f c26d 813f 74dd 693f c237 7b3f
000002b0: 0e44 6f3f 0fb2 a13f ab4e 7e3f 6df5 913f
000002c0: 27d7 883f 03ac 763f fea6 833f 5c04 6a3f
000002d0: 6f52 8f3f 82e6 683f 7fe6 673f 682f 6f3f
000002e0: 852a 803f d2fd 823f ea5c 823f c9af 6d3f
000002f0: 007a 5d3f d39a 643f 14f0 7b3f d4c2 6f3f
00000300: 3d03 6f3f f1e4 673f 36d9 823f 3a29 8f3f
00000310: 20c7 673f 05b7 633f 9b5a 4c3f 52c0 7a3f
00000320: f0b3 763f 2e83 583f dbcc 6c3f ce51 663f
00000330: b81c 7d3f bde3 963f 195c 6b3f 6c24 723f
00000340: 8e2b 713f 6290 833f bebe 8d3f cfaa 8d3f
00000350: b0ee 803f 0964 983f b27a 6b3f 8881 6e3f
00000360: 05b2 833f d5d0 833f b5e2 6a3f f20f 833f
00000370: f941 703f 0116 8d3f 0524 823f c5fc 803f
00000380: 69a0 733f c53b 823f c7aa 833f 268b 753f
00000390: d517 783f 3424 813f efa6 5f3f b920 8d3f
000003a0: 6ab3 843f dd7d 503f 3a26 723f 9eaa 893f
000003b0: 3950 7f3f a270 933f 2165 863f b042 883f
000003c0: 12d3 7f3f 6719 743f cbeb 813f 961b 803f
000003d0: 8f3f 733f 120c 743f 5c30 763f 8172 6e3f
000003e0: 1b58 703f bd24 873f 2dbc 6d3f 2356 723f
000003f0: cbbf 6c3f e99e 663f ce7c 693f d2dc 6c3f
0.994876 0.95273876 1.0534407 0.98676234 0.9678857 1.0243887 1.2290313 0.9870877
0.96615636 0.99507207 1.156698 1.059633 0.91409886 1.1377428 1.1891574 0.9420182
0.89008564 0.95099545 0.99096876 0.9395089 0.8853485 1.013679 0.95573974 1.0054373
0.967673 0.8754715 0.89606184 0.96483654 0.917972 0.80277765 0.9606742 0.97259504
1.0811987 0.8548187 1.0225729 0.99766374 0.92389756 0.94940805 0.857981 0.893069
0.846662 1.0026015 1.037623 0.88256407 0.9411102 0.9342962 1.0161409 0.9647092
1.1063336 0.95577645 0.9402053 0.94066733 1.2388257 0.96813005 0.9605416 0.97312844
0.92664766 1.0501864 0.99251175 1.0100783 0.8174358 0.93616134 0.79624367 0.9162259
1.0208617 0.8596918 0.9956057 1.0116353 0.92068934 0.990906 0.9800948 0.9870669
0.9872907 0.86323774 0.9460555 0.9762827 1.0809041 0.90191525 0.9908387 1.0723336
0.94950217 1.0042576 1.0404465 0.8840899 1.1877625 1.0793535 1.0427842 1.1603584
1.0384725 0.9907998 1.0279267 1.0889758 1.0292364 1.0373303 1.1500266 1.0612849
0.9146061 1.0516522 0.99775076 0.939854 0.96281636 1.0198737 0.9648107 0.9573998
0.9434832 1.0022093 1.1115588 0.9157784 0.92497873 0.9342568 0.92663074 0.95004123
0.9326189 0.9422878 0.8613653 1.0555933 0.984132 0.866963 1.0582623 1.0579662
1.1683096 0.98943794 0.9144059 1.0511057 0.9096841 1.0022912 1.0012243 1.05626
1.1523615 0.9729936 0.93936515 0.8781589 0.9335706 0.97177017 0.9625398 0.98103106
0.97031575 1.0090922 1.1955707 0.8587778 1.0199062 0.99549764 1.0367948 0.8951541
1.0027896 0.9984052 1.0608486 0.92231953 0.95839864 0.9577582 0.988676 1.0721133
1.0220191 0.97662497 0.96247995 1.0508767 1.0323955 0.93877286 0.9602153 0.83990604
0.84650993 0.916403 1.1399262 0.9974249 0.9683281 0.94662124 1.1746356 0.92424744
1.0513358 1.011162 0.91353536 0.98131955 0.9346322 1.2632464 0.9933879 1.1403023
1.0690659 0.9635622 1.0285337 0.914129 1.1197032 0.90976727 0.90586084 0.9343171
1.0012976 1.023371 1.0184605 0.9284635 0.8651428 0.89298743 0.98413205 0.9365666
0.93364316 0.9058371 1.0222538 1.1184456 0.90538216 0.8895114 0.7982575 0.9794971
0.9636831 0.84575164 0.92500085 0.89968574 0.98871946 1.178825 0.91937405 0.94586825
0.94207084 1.0278437 1.1073835 1.1067752 1.0072842 1.1905528 0.91984093 0.931664
1.0288702 1.0298105 0.9175218 1.0239241 0.93850666 1.102234 1.0167242 1.0077139
0.9516664 1.017449 1.0286492 0.9591545 0.96911365 1.0089173 0.87364095 1.1025611
1.0367253 0.8144205 0.9458958 1.0755193 0.99731785 1.1518748 1.0499612 1.0645351
0.9993144 0.9535126 1.0150083 1.0008419 0.9501886 0.9533092 0.9616754 0.9314347
0.9388444 1.0558087 0.9286526 0.94662684 0.9248015 0.9008623 0.9120606 0.92524445

bias f4 [768]
00000000: 5877 de3c 8db8 81bd a9cc 38be cc5e 443d
00000010: 1eae 6b3d a105 00bd 7fe0 41be 8c12 64bd
00000020: 252b b73d 6552 1c3d 0cd2 403e a1ce 8a3d
00000030: 9c86 0bbe 3b27 4ebe 94c2 27be 395b 093e
00000040: c446 ccbd 0cf3 5ebd d088 57bc fd3a 4ebd
00000050: c2b0 8c3d 5acd 6c3d ee7d 5e3d dbd3 76bc
00000060: b119 d3bd ada3 1dbe 6963 b43c 40f4 0c3d
00000070: 5e41 2e3d b45b 0bbe 5440 503d 234a 46bd
00000080: 2fee c9bd 246f 2abd 8198 a23c 28e9 08bd
00000090: 260d a03d cf5b 60bd f416 653d cedf a1bd
000000a0: d207 553e 404e 84bd 70e4 3c3d bcb8 113e
000000b0: d706 bebc 0c63 243d 04c9 9c3c ec66 b63c
000000c0: 57cd e03d 7ba3 debd 5b9f da3d e8d8 93bd
000000d0: e174 643e 54b5 8f3d cff4 c83b 6807 2e3e
000000e0: ea2a a1bd abf7 163d 1c4e ed3c 00bc 293d
000000f0: 52cb 1c3e c25c 4bbd 88ef 69be 16a9 463d
00000100: 92ba 5f3d 2ea9 e03d d902 c83d b954 22bb
00000110: fb92 833d b325 67bc 9d11 a33d 7660 b93a
00000120: ecfb 8abc 51c4 cf3d 6783 d7bc c843 cabc
00000130: d9ba a83d 7239 bdbd 9f4b c43b 13f7 dc3d
00000140: ce2d 043e 6023 5aba 4728 ce3d 96bb cfbc
00000150: 6bec 1c3e 6c5e 29be 5d1d 27be 6b13 2a3e
00000160: 9642 4c3d 7c49 7e3d 4649 78bd 412f e13d
00000170: 53f0 573d a968 f8bc 67d0 f6bd 6e08 5ebe
00000180: 6a78 763e 4685 86bd c700 973b 0e4c 2cbd
00000190: 15ec 873c 438f 31bd e29f b83c 8107 8c3d
000001a0: 2189 6bbb 962d a0bc dcdb e23d 92d1 a9bd
000001b0: a438 a83d 15c1 993d 44ff 9abd d1e8 20be
000001c0: 9531 293d a1b6 9a3c bd62 bcbd 8ee0 7abd
000001d0: 7858 5e39 bd40 f6bd 3a85 803d be6d 92bd
000001e0: 64fd 403e 542d b2bd 3f1f 733d 19bf 11bd
000001f0: de52 7abd 0818 0e3d a8df a1bd f6e5 9c3d
00000200: 4fed 13be 6a31 803c fc5b e63c 71a2 9fbd
00000210: 22a6 ad3d 90ce 96bd 1681 0a3c 1ee9 07bd
00000220: 1738 8fbc a4cb 15bc f411 6b3e 496c 67be
00000230: 6f11 98bc 01ad 353c 093a 223c b65c 53bd
00000240: 8041 e53d dd7f 213b 3aba 173d 66db 963d
00000250: b446 7b3d 2712 04bd 2b38 5bbc 9799 a2bd
00000260: b6b1 0a3d 8cbb c33b db79 35bd c10d d33d
00000270: 8683 0c3d a690 103d b830 89bd 1f5c de3d
00000280: 3132 05be 1916 d5bc 8fec fa3d 442d 2d3d
00000290: 31b2 14bc 4239 6b3c 4d79 4abe 0f9c 613d
000002a0: 99f9 ac3d 38cc 233d 3a0e 33bd 9b91 4dbc
000002b0: d39b 30bd acd7 883e 1c08 1c3d c599 093e
000002c0: f54c 7bbd 63fc 533d 27c2 44bd befb a4bd
000002d0: 4b80 f23d 51ff 86bd 0f9a 45bd 733d 1d3b
000002e0: ac44 08bd eb45 37be ee0a f1bd e24b b3bd
000002f0: 14fd f43d 6315 dabd 4542 0ebc ad75 91bd
00000300: 986d d13d dc9f 173c cbbc 3c3e 61de 0cbe
00000310: f20a b2bd b33d a2bd 96c2 0fbe 411a ac3c
00000320: 5942 123e 6c2d 083e 062e 7e3d 2693 cebd
00000330: 1d76 923c 5536 81be 11bc a7bd 7bce cc3d
00000340: bf67 4cbd 585f a53c c888 c03d a875 193e
00000350: dfcf 703d 3ac2 4c3e c6d8 823d e759 893d
00000360: 24e1 173d 3cf1 033d 4c1a de3d 7673 90bd
00000370: 93e5 45bd 5b74 e3bd 2d36 f43d 06d5 303d
00000380: f916 8c3d 50ab abbd 70e1 8f3d 0699 0a3d
00000390: 833f 673d 19b6 a13c 4dc6 99bd 8f04 fdbd
000003a0: c7de 0a3d ee28 18be 367c a3bd 7865 18bd
000003b0: b0eb 0a3b 829d 3abe e750 0c3d 7477 53bd
000003c0: b12d 71bc cdcd 0dbd afa0 a83c 9301 14bc
000003d0: c64d eabc b27f c0bc e3e7 f7bb 129d 8c3c
000003e0: 116e 51bd d573 5d3e 405f 6b3d d95e 06be
000003f0: 0756 823d 44dd cb3d 0647 9b3d 9440 78bd
0.027156517 -0.063340284 -0.18046822 0.047941968 0.057539098 -0.03125537 -0.18933295 -0.05568175
0.08943776 0.038164515 0.18830127 0.067776926 -0.13625568 -0.20132153 -0.1638282 0.13413705
-0.09974435 -0.054431006 -0.013155177 -0.050349224 0.068696514 0.057813026 0.054319315 -0.015065159
-0.103076346 -0.15394469 0.022020059 0.034412622 0.042542808 -0.136092 0.050842598 -0.048410546
-0.09859883 -0.0416099 0.01984811 -0.03342548 0.07815008 -0.054775055 0.055930093 -0.079040155
0.20803764 -0.064602375 0.046116292 0.14230627 -0.02319662 0.04013352 0.01913882 0.022265874
0.109766655 -0.10871025 0.10674926 -0.07219106 0.22310211 0.070170075 0.006132699 0.16995013
-0.07869513 0.03685729 0.02896791 0.041439056 0.15311936 -0.049649008 -0.2284528 0.048501097
0.054621287 0.109697685 0.09766168 -0.0024769737 0.06424519 -0.014108109 0.07962344 0.0014143127
-0.016965829 0.10144866 -0.026307775 -0.024690524 0.08238763 -0.092394724 0.00599046 0.10789313
0.12908098 -0.00083213113 0.10066276 -0.025358003 0.15324561 -0.16539925 -0.16319795 0.1660897
0.04986819 0.0620818 -0.060616754 0.10995341 0.052719425 -0.030323343 -0.12051468 -0.21682903
0.24069372 -0.06568389 0.004608247 -0.04206472 0.016592065 -0.043349516 0.022537176 0.06837369
-0.003593989 -0.019552987 0.11077091 -0.082919255 0.08213928 0.075075306 -0.07568219 -0.15713812
0.04130705 0.018885912 -0.0919852 -0.06124931 0.00021204527 -0.120240666 0.06275411 -0.07149838
0.18846661 -0.08700052 0.05935597 -0.035582636 -0.061114185 0.034690887 -0.07903987 0.07661049
-0.14445995 0.015648562 0.028120033 -0.07794655 0.08478953 -0.073636174 0.008453628 -0.033181302
-0.0174828 -0.00914279 0.22956067 -0.22599901 -0.018563 0.011088611 0.009901532 -0.051602088
0.11194134 0.0024642863 0.037042834 0.07366066 0.061346725 -0.032243874 -0.013380091 -0.07939451
0.033860885 0.005973285 -0.044305664 0.10305358 0.034305118 0.035294197 -0.066987455 0.108574145
-0.13007428 -0.026011514 0.12252151 0.042279497 -0.009075687 0.014356913 -0.19772835 0.05508047
0.084460445 0.03998968 -0.04371474 -0.012546922 -0.043117356 0.26727045 0.03809367 0.13437565
-0.06135269 0.051754367 -0.04803672 -0.080558285 0.11840876 -0.065916665 -0.048242625 0.0023992925
-0.033268616 -0.17897765 -0.11769663 -0.08754708 0.11962333 -0.106486104 -0.008682792 -0.07102523
0.102259815 0.009254422 0.18431394 -0.13756706 -0.08693494 -0.079219244 -0.14039072 0.021008613
0.14283122 0.13298577 0.06205561 -0.1008666 0.017878586 -0.25236765 -0.08190168 0.100003205
-0.049903627 0.020187065 0.09401089 0.14986289 0.05879199 0.19995967 0.063890025 0.06706601
0.037079945 0.03221248 0.108448595 -0.070532724 -0.048314642 -0.111061774 0.11924396 0.043171905
0.06840319 -0.08382285 0.07025421 0.03383734 0.056457054 0.019740151 -0.07508526 -0.12354385
0.033903863 -0.14859363 -0.07982676 -0.037206143 0.002119761 -0.18224147 0.034256842 -0.05162759
-0.014720366 -0.034620095 0.020584432 -0.009033578 -0.028601538 -0.02349839 -0.007565485 0.01716474
-0.051130358 0.21626218 0.057463884 -0.13122119 0.06364065 0.099543124 0.07581906 -0.06060846
