subject-models/ada-nodelta/sandraoh2023-05-24T15-36-59_sandraoh-ada/embeddings_gs-4500.pt (torch, 923976 bytes, 168 tensors)

pre_vecs f4 [2, 768]
-0.01852864 0.0025521065 0.0037605164 0.025075711 -0.02841722 -0.0040195375 -0.0050302334 -0.008954636
-0.010742867 0.00179737 0.007067455 -0.033177204 -0.017665854 -0.011194111 0.010229848 0.017119106
0.0016951602 0.0054405853 -0.02327596 0.004179292 -0.0034214116 0.014305017 0.0054832078 -0.02733925
0.016019491 0.005113869 0.005794959 -0.007851933 0.0029719532 -0.0034223765 0.016518913 0.014791866
-0.0072642467 -0.0005948247 0.013670229 0.053859685 -0.022689695 0.026227357 -0.03724754 0.006481426
0.01851502 0.0043091713 -0.0008468091 -0.011128027 -0.015560399 0.00095933577 -0.006869912 -0.0049185264
-0.037400078 -0.018553795 0.021361588 -0.004316756 -0.004672996 0.00541761 -0.03618797 -0.014831234
0.00500214 0.0017354786 0.033134528 -0.0049280757 0.0023900494 6.321938e-05 0.006572652 -0.012063313
0.00030535134 -0.010053425 0.011844817 0.027777126 0.018418666 0.013263676 -0.008036696 -0.019687297
-0.004679082 -0.0041765063 -0.006925261 -0.0038973424 -0.011734256 -0.011130097 0.011638506 0.006887876
-0.007592963 0.008854773 0.01275021 -0.03341128 -0.013176154 0.017278496 -0.0052389135 -0.0026204432
0.025303356 -0.011883988 0.011568593 -0.0030188267 0.009621965 -0.00073744793 -0.015580698 0.009395265
0.0034960215 -0.004516779 0.0056637046 0.012578397 -0.02870013 0.007275552 -0.001142492 0.0033451032
-0.022319976 0.0040911334 -0.008171937 0.009064996 -0.013335739 -0.01198018 0.005013327 0.007376306
0.0073655206 0.0012291431 0.011220822 0.00020919494 -0.036667723 0.007230394 -0.019195614 -0.008820404
0.00617074 -0.014353599 0.013774906 -0.025661152 -0.013151396 -0.012356569 -0.010945084 -0.011710329
-0.009517694 -0.017544154 -0.0011727685 0.021551931 -0.02362161 0.012920241 0.010820005 0.013740593
-0.0226083 -0.04143672 -0.0022475293 -0.009398936 -0.035023045 0.00040210524 -0.009717077 -0.000787531
0.0121647045 -0.0022576991 0.016593352 -0.0099016465 0.010235409 0.006914779 0.023909612 0.019893412
-0.02116154 0.009423816 -0.018091518 0.018394995 0.019597076 0.01603096 -0.009259521 -0.01625962
0.0069068265 0.010508328 0.029968886 0.0044775154 -0.0041797957 -0.011305846 0.0034738246 -0.018556548
0.012406597 -0.0034771285 0.008628716 0.0064352625 0.0043550045 -0.004162937 0.016227202 0.018759698
-0.025191016 -0.017056393 -0.009956054 0.011704277 -0.015076744 0.0010806778 0.019107524 -0.0053307884
-0.00060798205 0.020259127 -0.00065702904 0.010601807 0.0046496904 0.014833514 -0.0046898536 0.016429424
-0.0036523975 -0.004790719 -0.027151458 0.0072460277 0.018560553 0.012718095 0.015950054 -0.0008270057
-0.0013544885 0.011159613 -0.028796077 -0.010325119 -0.012720511 -0.0026709228 -0.0016329788 -0.0020790389
0.012654226 0.007632676 0.019521557 0.007934052 -0.0041766055 0.007970923 -0.014278589 -0.035337225
0.00093874714 0.028648991 0.00015439732 -0.0059613213 0.018611966 0.007839427 0.005614446 -0.0057242485
-0.0014730863 0.005867598 -0.006107826 0.011790703 0.048245765 0.0010652712 0.038206395 0.011108164
-0.008711627 -0.020943934 0.011220898 -0.00496914 0.013933825 -0.002152621 0.027976532 -0.003458489
0.012163384 0.009662711 0.008526264 0.033728644 -0.010662497 -0.01407875 -0.0065875277 -0.016985107
0.016249549 0.020591315 -0.0069320262 0.044632766 -0.007184763 -0.0332714 -0.011423294 0.019439625
00000000: 60c9 97bc 3e41 273b ff72 763b 946b cd3c
00000010: 3bcb e8bc 53b6 83bb a8d4 a4bb 77b6 12bc
00000020: da02 30bc bb95 eb3a 1c96 e73b d2e4 07bd
00000030: fbb7 90bc 8167 37bc 189b 273c 5e3d 8c3c
00000040: 2330 de3a f046 b23b 3aad bebc 71f2 883b
00000050: c339 60bb 975f 6a3c 7bac b33b 90f6 dfbc
00000060: 4f3b 833c 3e92 a73b a4e3 bd3b 65a5 00bc
00000070: 1ac5 423b f349 60bb ac52 873c 9559 723c
00000080: eb08 eebb 03ee 1bba 19f9 5f3c f99b 5c3d
00000090: bddf b9bc c1da d63c e090 18bd 2462 d43b
000000a0: d0ac 973c f333 8d3b 66fc 5dba 5452 36bc
000000b0: 0bf1 7ebc ef7b 7b3a 001d e1bb 972b a1bb
000000c0: d330 19bd 21fe 97bc 7ffe ae3c 9373 8dbb
000000d0: ee1f 99bb 3586 b13b d639 14bd b4fe 72bc
000000e0: fee8 a33b 0079 e33a 12b8 073d b27b a1bb
000000f0: 60a2 1c3b a594 8438 675f d73b 34a5 45bc
00000100: 9017 a039 1fb7 24bc c310 423c db8c e33c
00000110: bee2 963c e44f 593c 59ac 03bc 4147 a1bc
00000120: fc52 99bb 13db 88bb 4ded e2bb 8e6a 7fbb
00000130: 0941 40bc 035b 36bc 6faf 3e3c b1b3 e13b
00000140: 64ce f8bb 9c13 113c 42e6 503c 44da 08bd
00000150: cce0 57bc a28b 8d3c 31ab abbb bebb 2bbb
00000160: fc48 cf3c 0fb5 42bc 328a 3d3c 82d7 45bb
00000170: 72a5 1d3c 4b51 41ba 2f46 7fbc 99ee 193c
00000180: 821d 653b 7d01 94bb 9996 b93b 9f15 4e3c
00000190: 891c ebbc c167 ee3b acbf 95ba 8539 5b3b
000001a0: 62d8 b6bc ea0e 863b 97e3 05bc 5985 143c
000001b0: 257e 5abc 8448 44bc d646 a43b f1b4 f13b
000001c0: 775a f13b 331b a13a 8ad7 373c 575b 5b39
000001d0: e530 16bd f1ec ec3b 1f40 9dbc 7583 10bc
000001e0: eb33 ca3b 5c2b 6bbc 25b0 613c 5637 d2bc
000001f0: f478 57bc 3573 4abc 0253 33bc aedc 3fbc
00000200: 1af0 1bbc c2b8 8fbc 95b7 99ba ad8d b03c
00000210: 1b82 c1bc 6baf 533c 6446 313c 3920 613c
00000220: 0b35 b9bc 8db9 29bd 494b 13bb fffd 19bc
00000230: 5374 0fbd a7d1 d239 6034 1fbc 5072 4eba
00000240: 784e 473c e8f5 13bb c8ee 873c 843a 22bc
00000250: 6bb2 273c 5f95 e23b 17de c33c 82f7 a23c
00000260: f75a adbc 5966 1a3c aa34 94bc 1ab1 963c
00000270: 0c8a a03c 5c53 833c 3fb5 17bc e532 85bc
00000280: a952 e23b 1f2b 2c3c 4f81 f53c 1fb8 923b
00000290: abf6 88bb 283c 39bc 1ba9 633b e703 98bc
000002a0: 0a45 4b3c 89e0 63bb 755f 0d3c e5de d23b
000002b0: 6db4 8e3b 3f69 88bb e9ee 843c f0ad 993c
000002c0: 645d cebc d9b9 8bbc b81e 23bc 4cc3 3f3c
000002d0: 7304 77bc 88a5 8d3a 6287 9c3c e5ad aebb
000002e0: fc60 1fba 78f6 a53c 793c 2cba 34b3 2d3c
000002f0: 6e5c 983b 4408 733c 58ad 99bb 0097 863c
00000300: 105d 6fbb 77fb 9cbb bc6c debc 1670 ed3b
00000310: 4d0c 983c 8f5f 503c b0a9 823c 6acb 58ba
00000320: 1889 b1ba cfd6 363c c0e5 ebbc b02a 29bc
00000330: b169 50bc a60a 2fbb ad09 d6ba 7c40 08bb
00000340: ac53 4f3c 871b fa3b aceb 9f3c d3fd 013c
00000350: e8db 88bb 7998 023c bef0 69bc c4bd 10bd
00000360: 4116 763a 4ab1 ea3c b7e5 2139 3057 c3bb
00000370: 1f78 983c f170 003c 63f9 b73b 7a92 bbbb
00000380: 9314 c1ba fb44 c03b 2824 c8bb cb2d 413c
00000390: 5a9d 453d 92a0 8b3a 4f7e 1c3d 04ff 353c
000003a0: 36bb 0ebc 9d92 abbc dbd7 373c 2bd4 a2bb
000003b0: b34a 643c fd12 0dbb 0a2f e53c d1a7 62bb
000003c0: ee48 473c 5950 1e3c beb1 0b3c 0c27 0a3d
000003d0: c1b1 2ebc 8faa 66bc 30dc d7bb 5a24 8bbc
000003e0: c61d 853c 1eaf a83c 0d26 e3bb d9d0 363d
000003f0: 296e ebbb 9747 08bd c528 3bbc d93f 9f3c

basis_rand_weights f4 [16, 5]
0.0054780063 0.018028207 0.039327227 0.14337406 -0.082379356 -0.019805267 0.029648423 -0.20571318
-0.06288727 0.1732343 -0.0102037545 0.01798436 0.035833467 0.02156208 0.03279345 -0.062457714
-0.009933492 -0.109665886 -0.07968223 0.17637244 0.048365008 -0.069706425 -0.06873557 0.00033203632
-0.0990903 -0.0593486 -0.0497879 0.06731407 -0.015135323 0.016334979 -0.078930706 0.020801283
0.04643435 0.057064462 -0.02761309 -0.08133138 -0.032299485 -0.06431116 0.14103773 0.05252037
-0.0774601 0.008079724 0.18184891 0.26522106 0.033039246 -0.1243486 -0.033305574 0.2587178
0.16875981 0.10305018 -0.0858156 0.0065315906 0.20891173 0.23996446 -0.0026194 -0.121547736
-0.006752522 -0.18067335 0.17530952 0.17326857 0.15510225 -0.14046599 -0.066895366 0.17296588
-0.02854959 -0.03788502 0.01776721 -0.08392007 0.054828234 -0.120682105 -0.03060138 0.014909097
-0.13251933 0.018188346 -0.19208746 0.0447029 0.03713768 -0.12360048 0.32409894 0.02936776
00000000: d980 b33b e4af 933c 9615 213d a6d0 123e
00000010: 82b6 a8bd a83e a2bc 40e1 f23c 7aa6 52be
00000020: 0acb 80bd 5564 313e a62d 27bc f053 933c
00000030: 1dc6 123d f6a2 b03c 6d52 063d a9d3 7fbd
00000040: 16c0 22bc 8298 e0bd 7030 a3bd fa9a 343e
00000050: 631a 463d 3ec2 8ebd 3cc5 8cbd 2915 ae39
00000060: dbef cabd 8517 73bd 66ee 4bbd f6db 893d
00000070: 25fa 77bc efd0 853c 6ca6 a1bd 7467 aa3c
00000080: f231 3e3d 6dbc 693d d934 e2bc 1191 a6bd
00000090: 774c 04bd 92b5 83bd 326c 103e 991f 573d
000000a0: 67a3 9ebd d260 043c 9a36 3a3e 0ecb 873e
000000b0: 2954 073d 7baa febd 6d6b 08bd a976 843e
000000c0: 5fcf 2c3e f90b d33d 17c0 afbd f406 d63b
000000d0: f5ec 553e 3eb9 753e 3daa 2bbb 05ee f8bd
000000e0: 4344 ddbb 6f02 39be 5784 333e 516d 313e
000000f0: 20d3 1e3e 51d6 0fbe 7000 89bd f81d 313e
00000100: d4e0 e9bc 532d 1bbd 8a8c 913c 49de abbd
00000110: 9293 603d 2e28 f7bd bfaf fabc 4945 743c
00000120: 26b3 07be baff 943c 93b2 44be 631a 373d
00000130: ae1d 183d 4022 fdbd 4cf0 a53e a894 f03c

basis_vecs f4 [3, 768]
0.008388483 0.020827739 -0.015834812 -0.008075093 -0.04198288 0.011642557 -0.0041749887 -0.025530552
-0.0017667892 0.013022367 0.014482466 -0.0066466443 -0.008702198 -0.0071802833 0.005287031 0.030413147
-0.018445326 0.002233671 0.0008681952 0.017318428 -0.003008001 -0.011704855 0.010881657 -0.028062962
0.028070332 0.019174064 -0.021755353 0.017718729 -0.06315798 0.037053466 0.016528293 0.030555893
-0.04696348 0.030071838 0.024839498 0.120080866 5.7181805e-05 0.026992535 -0.032285836 0.008034486
0.028829675 -0.00037810553 0.012911633 0.016798109 -0.012709825 -0.034997012 -0.018251427 0.004752436
-0.029379591 -0.011106045 0.039830774 -0.009670186 0.017999759 0.047792777 -0.0718578 0.021377774
-0.001979043 0.010479385 0.062455084 0.035164002 -0.021187054 0.0042410735 -0.0030349595 -0.009885613
0.0415044 0.011684446 0.046000004 -0.03680358 0.0031160952 0.0033732753 0.01025933 0.0047168867
-0.004072639 0.0021648607 0.013187335 0.02764763 0.010702608 -0.0140441945 -0.033553462 0.06507619
-0.0034170693 0.00297958 0.028362317 -0.020060934 0.010866372 -0.0125176255 0.0367773 -0.033804927
0.036866955 -0.008297057 -0.01699832 0.01574403 0.025157712 0.006363928 -0.036619842 -0.033778902
-0.020076355 -0.0038618085 -0.0425102 0.03361404 0.006851857 -0.0055354685 0.0276374 0.005171535
-0.008025075 -0.012592719 0.041240904 0.024157565 -0.033221543 -0.03767797 0.055388954 -0.0069572446
-0.032925434 -0.0013017331 -0.012860468 -0.017177535 -0.018519197 0.0012877729 0.0030000883 0.025280083
-0.026493425 -0.027612187 0.000112132126 -0.047738995 -0.031199066 -0.0055729016 -0.028887821 0.00046243897
-0.033786006 0.0029368931 -0.030618811 0.007492429 -0.025404407 0.0038336697 -0.007923551 -0.0030091358
0.0074247476 -0.022263898 0.020410435 0.04087423 -0.035491325 0.021072846 -0.002023601 -0.025669692
0.05241278 -0.008980554 0.0388148 0.034364346 0.036250476 -0.019822812 -0.03395557 0.0017063158
0.030877085 0.0005134522 -0.025113335 -0.0024684612 0.023495585 -0.0022252006 0.024313634 0.001006195
0.0063253357 -0.0024419979 0.037843112 0.015018283 0.0015646097 0.0019404616 -0.0133881 -0.024440922
0.023302376 0.017295443 -0.0063319746 0.020028485 0.012621614 0.003556067 0.03215414 0.004369201
-0.028467968 -0.010845692 0.02490166 0.013121985 0.04968275 0.014777441 -0.010015151 -0.026327038
-0.01787657 0.0066623036 0.008095711 -0.03322901 -0.019157132 -0.0026445547 -0.011967489 0.00024132467
0.005908405 -0.015903337 -0.05630284 0.009197519 -0.0014287911 0.040461905 0.05348422 0.030856254
-0.028358823 -0.0002527345 -0.018546885 0.0049018767 0.013938753 -0.005870049 0.005181181 -0.004125243
0.03205479 0.025060326 0.05760935 0.018453928 -0.027647145 -0.012977367 -0.016937502 -0.03994704
0.02545887 0.09684304 -0.014085172 -0.027022228 0.011379513 -0.030470008 0.05040411 -0.0051385695
0.008433264 0.01779588 -0.008462847 0.026523875 0.018505856 0.01409354 0.05201223 0.0073093926
0.027303386 0.034896016 -0.013393182 -0.010711395 0.030698868 -0.03897084 0.020979136 -0.07985558
0.04751771 0.013915889 0.012355031 0.027912583 0.022237888 0.0018178849 -0.01200132 -0.047842495
0.026908508 0.010063753 -0.040754333 0.029233722 -0.026605748 -0.03892128 -0.06795341 0.03957285
00000000: d96f 093c ef9e aa3c 02b8 81bc 654d 04bc
00000010: 3ef6 2bbd 6cc0 3e3c 58ce 88bb 7325 d1bc
00000020: 9c93 e7ba c45b 553c dd47 6d3c 18cc d9bb
00000030: aa93 0ebc 9548 ebbb d53e ad3b fe24 f93c
00000040: a71a 97bc c862 123b 9897 633a 60df 8d3c
00000050: e221 45bb b8c5 3fbc fa48 323c 4ce4 e5bc
00000060: c1f3 e53c ed12 9d3c 4838 b2bc de26 913c
00000070: f958 81bd 60c5 173d 5866 873c 5a50 fa3c
00000080: c75c 40bd 3759 f63c 347c cb3c f5ec f53d
00000090: 7fd6 6f38 731f dd3c 273e 04bd 14a3 033c
000000a0: 362c ec3c 773c c6b9 508b 533c 309c 893c
000000b0: df3c 50bc 0759 0fbd 0484 95bc 53ba 9b3b
000000c0: 78ad f0bc 21f6 35bc 9825 233d b36f 1ebc
000000d0: 3b74 933c 5cc2 433d 2f2a 93bd 7120 af3c
000000e0: d5b2 01bb bab1 2b3c e7d0 7f3d 2108 103d
000000f0: 7990 adbc b4f8 8a3b 2ce6 46bb 44f7 21bc
00000100: 8500 2a3d 1e70 3f3c 806a 3c3d 5abf 16bd
00000110: 6737 4c3b 2b12 5d3b c016 283c 1d90 9a3b
00000120: c673 85bb 56e0 0d3b b10f 583c 487d e23c
00000130: fe59 2f3c 9f19 66bc 5b6f 09bd aa46 853d
00000140: e9f0 5fbb 0f45 433b 1758 e83c d456 a4bc
00000150: de08 323c ba16 4dbc cba3 163d 0977 0abd
00000160: ce01 173d 61f0 07bc 1040 8bbc a0f9 803c
00000170: 8c17 ce3c 7f88 d03b b0fe 15bd bf5b 0abd
00000180: 2b77 a4bc 6516 7dbb 2d1f 2ebd e0ae 093d
00000190: 8b85 e03b e062 b5bb d467 e23c fb75 a93b
000001a0: 9b7b 03bc b151 4ebc 39ec 283d 16e6 c53c
000001b0: 5013 08bd 3754 1abd 87df 623d 99f9 e3bb
000001c0: d2dc 06bd ea9e aaba b6b4 52bc e7b7 8cbc
000001d0: 92b5 97bc 7dca a83a 219d 443b 2d18 cf3c
000001e0: bd08 d9bc f432 e2bc 7a28 eb38 f789 43bd
000001f0: 2f95 ffbc e39c b6bb 27a6 ecbc 8273 f239
00000200: 3263 0abd e478 403b 4dd4 fabc 0d83 f53b
00000210: e71c d0bc 4e3e 7b3b c8d1 01bc ec34 45bb
00000220: 4c4b f33b c762 b6bc c933 a73c bd6b 273d
00000230: 5a5f 11bd f6a0 ac3c 649e 04bb 3f49 d2bc
00000240: c8ae 563d 2c23 13bc 45fc 1e3d a1c1 0c3d
00000250: 617b 143d 7363 a2bc ff14 0bbd 75a6 df3a
00000260: f1f1 fc3c 3299 063a 7bba cdbc e8c5 21bb
00000270: d079 c03c acd4 11bb 632d c73c 4de2 833a
00000280: c344 cf3b ed09 20bb 6101 1b3d 3f0f 763c
00000290: 9713 cd3a 1657 fe3a c359 5bbc 5438 c8bc
000002a0: a0e4 be3c 2caf 8d3c 747c cfbb c712 a43c
000002b0: e3ca 4e3c e70c 693b 0fb4 033d 842b 8f3b
000002c0: a835 e9bc 21b2 31bc 91fe cb3c 98fd 563c
000002d0: 2480 4b3d 141d 723c 9716 24bc cdab d7bc
000002e0: e271 92bc 744f da3b dfa3 043c 241b 08bd
000002f0: 6bef 9cbc 4450 2dbb 4913 44bc 190c 7d39
00000300: 4b9b c13b b747 82bc cf9d 66bd 31b1 163c
00000310: 4646 bbba 62bb 253d 4512 5b3d 41c6 fc3c
00000320: c350 e8bc 7381 84b9 a3ef 97bc ec9f a03b
00000330: 5e5f 643c 8a59 c0bb e5c6 a93b 0c2d 87bb
00000340: e24b 033d 504b cd3c c8f7 6b3d b12c 973c
00000350: 447c e2bc 069f 54bc 84c0 8abc 829f 23bd
00000360: 1f8f d03c a555 c63d 7ec5 66bc b85d ddbc
00000370: 2371 3a3c 3d9c f9bc 8a74 4e3d 7261 a8bb
00000380: ac2b 0a3c aac8 913c c1a7 0abc 9948 d93c
00000390: 9899 973c 97e8 663c c70a 553d a183 ef3b
000003a0: 5aab df3c 20ef 0e3d 146f 5bbc d97e 2fbc
000003b0: 317c fb3c e39f 1fbd 70dc ab3c 538b a3bd
000003c0: eea1 423d 78ff 633c c26c 4a3c eea8 e43c
000003d0: 3b2c b63c 1846 ee3a 2fa1 44bc 7ef6 43bd
000003e0: 3b6f dc3c 71e2 243c 04ee 26bd 8f7b ef3c
000003f0: 4cf4 d9bc ec6b 1fbd 282b 8bbd 2417 223d

basis_comm_weights f4 [1, 5]
0.22727174 0.6194092 0.31451088 0.38787904 0.3573014
00000000: ecb9 683e 9a91 1e3f 9207 a13e 1598 c63e
00000010: 36f0 b63e

bias f4 [16, 768]
-0.010278641 0.05356 -0.032956902 -0.019311348 -0.060564954 0.019736387 0.027667936 0.017190391
-0.028012462 0.026250068 -0.012632781 0.032884967 -0.01598957 -0.06782312 -0.019807944 0.014058615
0.007923841 -0.058318593 0.0033033872 -0.051548902 -0.023431407 0.05104996 0.008375138 0.02485772
-0.014466587 -0.011061644 -0.072141536 -0.07952144 -0.072193906 0.045723677 0.027611285 -0.011701493
-0.074017785 -0.014410552 0.05505338 0.008751658 -0.02890108 0.024211219 0.029490795 -0.014636534
-0.004620771 0.01721089 0.031960923 0.018097203 0.045120202 0.023857886 -0.0028226033 -0.039808877
-0.020790659 0.024878157 -0.03227768 -0.059013005 0.011341653 -0.010845133 -0.026669689 0.032952342
0.0026238204 -0.030993862 0.023272945 0.06066054 -0.033547286 0.012085973 0.039577954 -0.05415558
-0.0058724275 -0.079004794 0.023694117 -0.025353525 0.030742634 0.06642306 -0.03106988 -0.04045894
-0.01445211 -0.030127559 -0.01817301 -0.044353366 0.015682846 0.039651096 -0.028955715 0.008474984
0.054962255 0.0007690132 0.020204505 0.016435396 -0.077937946 0.024361685 -0.022837132 -0.011991224
0.016557567 -0.008239528 -0.012050994 0.04671195 -0.013907421 0.004095241 -0.0013100907 0.0364387
-0.017313771 -0.003269993 -0.03828634 0.0011310137 -0.0067516626 -0.001294935 0.019517323 -0.01654795
-0.02148421 -0.038448185 0.03125236 0.007544087 0.0129358135 -0.06500001 0.011167476 -0.04624424
-0.018421339 -0.017184671 0.019992666 -0.038063902 -0.0053027864 0.052687127 -0.016826706 -0.04284877
0.014650302 -0.01702346 0.038158853 -0.028899834 -0.024529593 -0.012737035 -0.0022809901 0.01990466
-0.04382103 0.057145555 -0.082739815 0.052963763 0.056165718 0.005397019 0.008946223 0.034172446
0.025963174 -0.04068948 0.045488834 0.023291608 0.053500686 0.0032692617 0.026521834 -0.038871054
0.06307933 0.03144638 0.01604817 0.026511969 0.0011246006 -0.023244381 0.07020215 -0.013770066
0.045684885 0.013897986 0.026326016 0.042594213 0.06698149 0.011629011 0.05767769 0.052912027
-0.0024848143 -0.03771852 0.0567855 0.021775484 0.0903255 0.033331115 -0.011832492 0.014010638
0.013703117 0.042025372 -0.002544825 -0.0067975726 0.07308676 0.02200383 0.0017755748 -0.007398273
-0.0060990117 -0.009975296 -0.0018411461 0.05313044 0.025888767 0.026093269 0.02469949 0.024541436
0.00030604642 -0.016560461 0.0064360662 -0.004367564 0.022766966 0.008464438 -0.015866412 0.003457598
0.092860274 -0.0039099585 -0.049978387 0.056660105 -0.008173494 0.012794101 -0.024825104 -0.0043563293
-0.001035979 0.030177549 0.022161873 -0.020705946 -0.036033094 0.0035538606 -0.07002153 0.0663063
-0.015796043 -0.07682874 0.059088137 0.034015197 0.02489383 -0.0077044517 0.007900118 -0.010654627
0.0049893325 -0.024255734 -0.002396885 -0.08410829 0.014991665 -0.030741354 0.029793749 0.033771276
-0.035393164 -0.03719878 0.077497885 -0.012963346 -0.014091851 -0.07197885 -0.022253288 -0.033902857
-0.0606705 -0.0249177 0.008355746 -0.013341899 0.021702008 -0.033422172 -0.008644969 -0.031606734
0.027808765 -0.022428475 -0.03209779 0.022177134 0.023142328 -0.02950554 0.011989058 -0.004514986
0.023152478 0.012974165 -0.0037052985 0.08177886 -0.07336438 -0.007491964 0.016752215 0.001242518
00000000: bf67 28bc bb61 5b3d d1fd 06bd d532 9ebc
00000010: f512 78bd 34ae a13c dea7 e23c ddd2 8c3c
00000020: 647a e5bc 620a d73c b9f9 4ebc 63b2 063d
00000030: 8ffc 82bc d9e6 8abd 4544 a2bc 1b56 663c
00000040: ffd2 013c 7adf 6ebd a47d 583b f124 53bd
00000050: 39f3 bfbc c319 513d e037 093c 6ba2 cb3c
00000060: 4405 6dbc e63b 35bc f1be 93bd 23dc a2bd
00000070: 66da 93bd c048 3b3d 1031 e23c 9eb7 3fbc
00000080: a396 97bd 3c1a 6cbc a77f 613d 1d63 0f3c
00000090: f5c1 ecbc 9b56 c63c ae96 f13c 13ce 6fbc
000000a0: d669 97bb dafd 8c3c 75e9 023d 9640 943c
000000b0: f6cf 383d 9d71 c33c 6dfb 38bb a20e 23bd
000000c0: 2c51 aabc 47cd cb3c 9a35 04bd 9fb7 71bd
000000d0: 57d2 393c c9af 31bc 647a dabc 09f9 063d
000000e0: 67f4 2b3b d7e6 fdbc e7a6 be3c 3077 783d
000000f0: e168 09bd 3f04 463c 7e1c 223d 3ed2 5dbd
00000100: 7e6d c0bb 44cd a1bd 2a1a c23c 32b2 cfbc
00000110: fad7 fb3c d008 883d 4386 febc 46b8 25bd
00000120: 8bc8 6cbc 12ce f6bc 90df 94bc e0ab 35bd
00000130: 5079 803c 3069 223d 8934 edbc a9da 0a3c
00000140: 1a20 613d 9a97 493a eb83 a53c 86a3 863c
00000150: ee9d 9fbd 2892 c73c f014 bbbc d776 44bc
00000160: bca3 873c 16ff 06bc 8871 45bc 0855 3f3d
00000170: f4db 63bc 5f31 863b 59b7 abba bf40 153d
00000180: 9cd5 8dbc 614d 56bb 23d2 1cbd 863e 943a
00000190: 0d3d ddbb cfba a9ba cbe2 9f3c 918f 87bc
000001a0: a7ff afbc d87b 1dbd 7a02 003d 6334 f73b
000001b0: bcf0 533c ba1e 85bd caf7 363c 9a6a 3dbd
000001c0: 59e8 96bc dec6 8cbc a9c7 a33c e5e8 1bbd
000001d0: ffc2 adbb 75ce 573d 29d8 89bc 3182 2fbd
000001e0: d207 703c c874 8bbc 754c 1c3d 58bf ecbc
000001f0: 49f2 c8bc ffae 50bc aa7c 15bb 190f a33c
00000200: ae7d 33bd 7511 6a3d 7e73 a9bd 88f0 583d
00000210: 060e 663d 7ad9 b03b 2e93 123c 68f8 0b3d
00000220: b9b0 d43c 03aa 26bd 8052 3a3d 0bce be3c
00000230: 8923 5b3d 1c41 563b 5144 d93c 4137 1fbd
00000240: bc2f 813d ebcd 003d 7477 833c a12f d93c
00000250: 5667 933a 006b bebc 25c6 8f3d d89b 61bc
00000260: 1320 3b3d 61b4 633c a8a9 d73c 4577 2e3d
00000270: 972d 893d 9b87 3e3c 713f 6c3d 48ba 583d
00000280: 44d8 22bb bc7e 1abd ea97 683d 8062 b23c
00000290: 93fc b83d 3586 083d 12dd 41bc e08c 653c
000002a0: 0a83 603c cc22 2c3d 14c7 26bb 2cbe debb
000002b0: 83ae 953d 6041 b43c 67ba e83a 366d f2bb
000002c0: 38da c7bb 6d6f 23bc 9d52 f1ba 4e9f 593d
000002d0: ae14 d43c 8dc1 d53c 9656 ca3c 1f0b c93c
000002e0: db74 a039 cea9 87bc a3e5 d23b c81d 8fbb
000002f0: ca81 ba3c 6dae 0a3c 47fa 81bc de98 623b
00000300: 872d be3d 1c1f 80bb 23b6 4cbd 6d14 683d
00000310: 1eea 05bc 599e 513c 045e cbbc 8abf 8ebb
00000320: b0c9 87ba e836 f73c d18c b53c 849f a9bc
00000330: 7097 13bd e3e7 683b 7367 8fbd 99cb 873d
00000340: b466 81bc 6358 9dbd 6706 723d 8553 0b3d
00000350: 25ee cb3c a075 fcbb 7f6f 013c bf90 2ebc
00000360: 8e7d a33b f6b3 c6bc 0f15 1dbb f840 acbd
00000370: 9a9f 753c 4bd5 fbbc 0512 f43c c053 0a3d
00000380: 6cf8 10bd bf5d 18bd 36b7 9e3d 3764 54bc
00000390: 82e1 66bc a669 93bd 874c b6bc b9dd 0abd
000003a0: a181 78bd 3420 ccbc 8ae6 083c fb97 5abc
000003b0: 69c8 b13c b0e5 08bd a1a3 0dbc 1076 01bd
000003c0: 35cf e33c ecbb b7bc f978 03bd d2ac b53c
000003d0: fb94 bd3c 9ab5 f1bc c16d 443c 73f2 93bb
000003e0: 44aa bd3c 9891 543c 98d4 72bb ad7b a73d
000003f0: 1040 96bd 267f f5bb f13b 893c fcdb a23a

weight f4 [768]
0.8782523 1.08202 1.0013992 1.1191994 1.1230913 1.0094299 0.9171003 0.94058704
0.9357269 0.97241265 0.9341376 0.97819203 1.0098604 0.98459786 0.94231045 0.98788506
0.9559276 0.8848856 0.97740465 1.0107056 0.9754746 1.0860935 0.86341166 0.9733349
0.96267855 0.9500258 1.1519948 0.8458234 1.196821 1.0294727 1.0773567 0.9901793
1.2179396 0.98113024 1.0371706 1.0285859 1.0864502 1.0166836 0.9080954 0.9576
0.96912247 1.012297 0.9665877 0.9919279 0.9267425 0.9197926 0.9680292 0.94632643
1.0106655 0.9179548 0.8718954 1.0407242 0.9520046 0.9016788 1.0755316 1.0607373
0.89278376 0.89517725 1.0477085 1.1408529 1.0450425 0.9894331 1.0476698 1.0472081
0.981211 0.8717681 1.1062489 1.0782379 0.996893 1.126217 0.9934492 1.0601424
0.8709173 1.0469171 0.93283933 0.85726583 0.97805876 0.9374351 1.067757 0.959937
0.8800692 0.9835314 1.0912641 0.98341316 1.0398523 0.97808975 0.98326313 0.99373454
1.0619705 0.9969861 0.99839014 1.1850767 0.9266799 0.9480754 1.0178603 0.878517
1.0249895 0.98150736 1.0993077 0.9974648 0.99414384 1.0104667 0.9826539 0.9640379
0.99184555 1.0682578 1.0601275 0.99622613 0.95510846 1.064854 1.0735638 0.9868696
0.99718255 1.0342399 0.98690665 0.95167935 1.0059531 0.82470864 0.978702 0.8662135
0.99008274 1.0074315 1.0546079 1.0702891 1.0144341 0.9470382 0.9829694 0.91264164
1.0431272 0.89255273 1.1124563 1.0432518 0.89099526 0.99068886 0.989664 0.9580084
0.96243995 1.1058925 1.0149404 0.8960109 0.89420015 0.9806769 0.9698597 1.0213053
1.1089894 1.0440264 1.0649202 1.0402306 1.0260441 1.0513844 0.870304 0.9974156
1.1093746 0.9638237 0.97806346 1.0344924 1.1488419 0.9820023 1.0816345 1.0677347
0.90663534 0.9940324 1.102643 1.0057688 1.1230497 0.950232 1.0323942 0.9070404
0.9844684 1.0033426 0.96483916 0.9908085 1.1738452 1.0274117 0.9764533 0.9760564
1.006687 1.0073367 0.9717746 1.1010754 1.0247172 0.99957955 0.9147631 0.92787516
0.9904135 0.98760194 0.9978503 0.9857937 0.9646651 0.9322696 0.95340157 0.97865427
0.8230848 1.0060717 1.0992146 1.1384501 0.9107304 0.984555 0.9459469 0.9584448
1.0548621 0.9695818 0.9205967 0.99092466 0.96985096 0.8883823 0.85077935 1.0041826
1.0141813 0.99543214 1.1732945 1.009867 1.001455 1.0336038 0.9128337 0.98377
0.96021146 0.9435594 0.96833116 1.1545451 1.1083093 1.0752846 1.0616341 1.0605023
0.95622206 1.0104206 1.0369837 0.9252746 0.9720349 0.8338051 0.9781466 0.9293471
0.8735147 1.0111909 1.0476321 1.0151899 1.0153683 1.1188118 0.9175357 1.1206708
1.0648346 0.9515611 0.98574024 1.0514443 1.0852648 0.99002075 0.9741794 1.0271139
1.0270649 1.0201733 1.003623 1.1807462 1.119262 1.0265033 0.9127359 0.9956903
00000000: 25d5 603f a27f 8a3f d92d 803f ed41 8f3f
00000010: 75c1 8f3f 0035 813f 16c7 6a3f 50ca 703f
00000020: cc8b 6f3f 09f0 783f a423 6f3f cb6a 7a3f
00000030: 1b43 813f 9b0e 7c3f 423b 713f 09e6 7c3f
00000040: acb7 743f dd87 623f 3137 7a3f cd5e 813f
00000050: b4b8 793f 1d05 8b3f 8c08 5d3f 7a2c 793f
00000060: 1a72 763f e434 733f 9174 933f e287 583f
00000070: 6e31 993f c3c5 833f d3e6 893f 647c 7d3f
00000080: 72e5 9b3f 5a2b 7b3f 02c2 843f b4a8 833f
00000090: cd10 8b3f b022 823f f178 683f 4625 753f
000000a0: 6918 783f f392 813f 4b72 773f fdee 7d3f
000000b0: ff3e 6d3f 8777 6b3f c3d0 773f 7342 723f
000000c0: 7d5d 813f 16ff 6a3f 8934 5f3f 7336 853f
000000d0: 93b6 733f 6cd4 663f 05ab 893f 3dc6 873f
000000e0: 7a8d 643f 562a 653f 501b 863f 7807 923f
000000f0: f4c3 853f 7d4b 7d3f 0b1a 863f ea0a 863f
00000100: a530 7b3f 322c 5f3f 9099 8d3f b303 8a3f
00000110: 6134 7f3f e127 903f b052 7e3f bfb2 873f
00000120: 70f4 5e3f 6101 863f 8fce 6e3f c675 5b3f
00000130: 0f62 7a3f bffb 6f3f 43ac 883f 6ebe 753f
00000140: 374c 613f b7c8 7b3f 8bae 8b3f f7c0 7b3f
00000150: e119 853f 1764 7a3f 22b7 7b3f 6365 7e3f
00000160: a6ee 873f 7b3a 7f3f 7f96 7f3f 98b0 973f
00000170: e53a 6d3f 12b5 723f 3f49 823f 7de6 603f
00000180: db32 833f 1144 7b3f 1db6 8c3f da59 7f3f
00000190: 3680 7e3f f956 813f 358f 7b3f 30cb 763f
000001a0: 97e9 7d3f acbc 883f 42b2 873f ad08 7f3f
000001b0: fd81 743f 234d 883f 8a6a 893f 7ca3 7c3f
000001c0: 5b47 7f3f f961 843f eaa5 7c3f 42a1 733f
000001d0: 12c3 803f 1b20 533f 378c 7a3f 2bc0 5d3f
000001e0: 1076 7d3f 84f3 803f 64fd 863f 3cff 883f
000001f0: fad8 813f 1871 723f e2a3 7b3f e2a2 693f
00000200: 3185 853f 567e 643f f864 8e3f 4689 853f
00000210: 4418 643f c99d 7d3f 9f5a 7d3f 0a40 753f
00000220: 7762 763f e38d 8d3f 91e9 813f f860 653f
00000230: 4dea 643f a40d 7b3f ba48 783f 22ba 823f
00000240: 5df3 8d3f a8a2 853f 4e4f 883f 4726 853f
00000250: 6a55 833f c493 863f 3ecc 5e3f a156 7f3f
00000260: fdff 8d3f 26bd 763f 5e62 7a3f 3f6a 843f
00000270: 400d 933f 8164 7b3f 0073 8a3f 88ab 883f
00000280: 4119 683f e878 7e3f 6823 8d3f 08bd 803f
00000290: 18c0 8f3f 6842 733f 7e25 843f cd33 683f
000002a0: 1f06 7c3f 886d 803f b3ff 763f a0a5 7d3f
000002b0: 8f40 963f 3a82 833f d8f8 793f d5de 793f
000002c0: 1fdb 803f 69f0 803f 38c6 783f 0af0 8c3f
000002d0: ef29 833f 72e4 7f3f ea2d 6a3f 3a89 6d3f
000002e0: bd8b 7d3f 7bd3 7c3f 1e73 7f3f fa5c 7c3f
000002f0: 4bf4 763f 38a9 6e3f 2012 743f 1689 7a3f
00000300: afb5 523f f5c6 803f 10b3 8c3f bcb8 913f
00000310: a125 693f cc0b 7c3f 9329 723f a35c 753f
00000320: b905 873f 8336 783f 3aac 6b3f 3dad 7d3f
00000330: 2748 783f 066d 633f adcc 593f 0e89 803f
00000340: b1d0 813f a4d4 7e3f 842e 963f 5243 813f
00000350: ad2f 803f 214d 843f 78af 693f 5ad8 7b3f
00000360: 6bd0 753f 1c8d 713f 8de4 773f 22c8 933f
00000370: 14dd 8d3f eda2 893f a0e3 873f 8abe 873f
00000380: f8ca 743f 7655 813f e2bb 843f ccde 6c3f
00000390: 47d7 783f 4074 553f d167 7a3f b1e9 6d3f
000003a0: a99e 5f3f b46e 813f cf18 863f bef1 813f
000003b0: 97f7 813f 3a35 8f3f 9fe3 6a3f 2472 8f3f
000003c0: 804c 883f 8299 733f 7959 7c3f ba95 863f
000003d0: f5e9 8a3f 0072 7d3f d263 793f 7878 833f
000003e0: dd76 833f 0a95 823f b876 803f b122 973f
000003f0: fa43 8f3f 7664 833f 0fa9 693f 8fe5 7e3f

bias f4 [768]
-0.05262643 0.09084419 -0.061342638 -0.08115939 -0.09894696 0.006220234 0.05277726 0.020834778
-0.046943918 0.04933072 0.0032079697 0.058641016 -0.020166645 -0.21188699 -0.014693484 0.06642722
0.05592966 -0.11607581 -0.01608855 -0.09497025 -0.023803841 0.11766759 0.07110367 0.0256674
-0.036946084 -0.039496645 -0.14581819 -0.14386591 -0.16943021 0.123204224 0.09227664 0.011070689
-0.19274479 -0.016728742 0.08389955 -0.024875904 -0.015774423 0.027198073 0.07947806 0.012909061
-0.036739375 0.0668232 0.076178424 0.056284074 0.104659796 0.06138921 0.005521593 -0.03445828
-0.07587984 0.07058613 -0.087881446 -0.13157916 0.025943518 -0.036705762 -0.08437997 0.07948141
0.05606192 -0.09432699 0.051414475 0.15868142 -0.090407185 0.011277241 0.047221992 -0.0865676
-0.0053625884 -0.17229669 0.06400431 -0.06267435 0.050301217 0.14790055 -0.039091147 -0.115732454
0.016260741 -0.036374196 -0.062186394 -0.08070121 0.029157296 0.06669353 -0.083225064 -0.0014111339
0.10923972 0.022853976 0.098483644 0.03742534 -0.13290259 0.0721956 -0.031471696 -0.008942703
0.05801903 -0.015192248 -0.011177964 0.1561129 -0.043634884 -0.017073527 -0.018804671 0.07470896
-0.021127114 -0.010145105 -0.07626198 0.02172163 0.0013360914 -0.0060775666 0.02780613 -0.0037688224
-0.043660752 -0.067089446 0.054239847 0.070479415 0.025232308 -0.15142243 0.052010894 -0.08851886
-0.032561325 -0.052794304 0.0146713825 -0.09813437 -0.019927345 0.108013906 -0.008284434 -0.10562885
0.011130252 -0.04363076 0.07786737 -0.073361866 -0.0533923 -0.013258691 0.0014159014 0.021137964
-0.05557222 0.15987144 -0.2093231 0.114459425 0.12098363 0.0143498285 0.014340765 0.030751782
0.07990977 -0.10709837 0.07912834 0.07518491 0.12882727 -0.0067637833 0.07217928 -0.05749707
0.1236691 0.096081704 0.08063703 0.030729055 0.010528109 -0.06807954 0.13006973 -0.042146422
0.10395474 0.058713596 0.07058638 0.115058444 0.1654763 0.03680647 0.10217951 0.11996898
-0.017293012 -0.051077414 0.12489351 0.019711185 0.20671703 0.05433528 -0.037895072 0.06935674
0.05272006 0.11417037 0.021855216 -0.02052111 0.17055517 0.01792004 0.005234567 0.0057944655
0.0005696612 -0.07039925 0.008721878 0.12639497 0.03985045 0.022588601 0.034828946 0.06847185
-0.0037359325 -0.03442374 0.0023339111 -0.0050049536 0.002020517 0.039365903 -0.017808577 0.0014327668
0.18526524 -0.040811643 -0.116289355 0.13902007 -0.05364046 -0.008778583 -0.038798574 -0.0211479
-0.045648523 0.05044014 0.08055049 -0.036539104 -0.032856386 -0.021630496 -0.1143967 0.13482483
0.004360799 -0.15003514 0.13087459 0.08207146 0.088058844 -0.006327139 0.06933181 -0.023953177
0.010384528 -0.041376986 0.046025965 -0.17718369 0.11578319 -0.09760162 0.060152423 0.09741096
-0.10411258 -0.06405427 0.14000385 0.008714727 -0.009747336 -0.16260132 -0.01691246 -0.015427419
-0.11275664 -0.09116482 0.053331293 -0.033064183 0.035463825 -0.111123815 -0.037339482 -0.119687684
0.025153004 -0.026944002 -0.06040796 0.06602853 0.07652107 -0.08833278 0.022834117 -0.029271195
0.050519478 0.04978099 -0.02086787 0.1777215 -0.17088713 -0.010295136 0.057538114 0.010140239
00000000: d08e 57bd 850c ba3d 6b42 7bbd e536 a6bd
00000010: b4a4 cabd 1bd3 cb3b f82c 583d b2ad aa3c
00000020: 4448 40bd 020f 4a3d cd3c 523b 9031 703d
00000030: 8534 a5bc e7f8 58be f0bc 70bc ff0a 883d
00000040: 8016 653d 27b9 edbd 23cc 83bc c37f c2bd
00000050: 4600 c3bc b5fb f03d cd9e 913d 7044 d23c
00000060: c754 17bd 3cc7 21bd 5d51 15be 9651 13be
00000070: 1d7f 2dbe 7f52 fc3d 89fb bc3d d661 353c
00000080: e45e 45be b70a 89bc 87d3 ab3d 8dc8 cbbc
00000090: 5d39 81bc 7ece de3c 65c5 a23d 8780 533c
000000a0: 077c 16bd 9ada 883d 6f03 9c3d 218a 663d
000000b0: e057 d63d 4173 7b3d 7bee b43b 2024 0dbd
000000c0: e466 9bbd 768f 903d 30fb b3bd b0bc 06be
000000d0: 8087 d43c c858 16bd 68cf acbd 26c7 a23d
000000e0: 2fa1 653d 822e c1bd fc97 523d 627d 223e
000000f0: 6727 b9bd 2dc4 383c d96b 413d 5b4a b1bd
00000100: a7b8 afbb 8b6e 30be b114 833d 695b 80bd
00000110: a608 4e3d 3e73 173e 0a1e 20bd 2305 edbd
00000120: 3f35 853c 1cfd 14bd 29b7 7ebd ad46 a5bd
00000130: 48db ee3c 9e96 883d e771 aabd ccf5 b8ba
00000140: 13b9 df3d 4338 bb3c cbb1 c93d 504b 193d
00000150: 9e17 08be 49db 933d 77e8 00bd 6a84 12bc
00000160: 5da5 6d3d e8e8 78bc c723 37bc 0fdc 1f3e
00000170: 7eba 32bd c8dd 8bbc 410c 9abc 0301 993d
00000180: c512 adbc a837 26bc 3e2f 9cbd 8ff1 b13c
00000190: ca1f af3a 5326 c7bb aec9 e33c 59fe 76bb
000001a0: 9ed5 32bd 3166 89bd 9a2a 5e3d 8357 903d
000001b0: fcb3 ce3c 7b0e 1bbe 6009 553d 6049 b5bd
000001c0: 065f 05bd d73e 58bd 3d60 703c acfa c8bd
000001d0: ac3e a3bc 6536 dd3d 6fbb 07bc f053 d8bd
000001e0: a95b 363c 2bb6 32bd ed78 9f3d bf3e 96bd
000001f0: e2b1 5abd fb3a 59bc c495 b93a 8629 ad3c
00000200: b29f 63bd 57b5 233e cb58 56be b469 ea3d
00000210: 44c6 f73d 8b1b 6b3c 87f5 6a3c 29eb fb3c
00000220: bca7 a33d 6456 dbbd 0a0e a23d 8cfa 993d
00000230: 4ceb 033e baa2 ddbb bbd2 933d 0c82 6bbd
00000240: 3a46 fd3d 7cc6 c43d 0725 a53d 80bb fb3c
00000250: 177e 2c3c 496d 8bbd 0031 053e baa1 2cbd
00000260: 39e6 d43d ab7d 703d 988f 903d c3a3 eb3d
00000270: 9f72 293e 62c2 163d 7e43 d13d 4cb2 f53d
00000280: 13aa 8dbc 8d36 51bd 2bc8 ff3d 5a79 a13c
00000290: a1ad 533e ac8e 5e3d dd37 1bbd e80a 8e3d
000002a0: fdf0 573d 28d2 e93d b609 b33c e31b a8bc
000002b0: 04a6 2e3e 0ccd 923c bb86 ab3b 80df bd3b
000002c0: 5155 153a 7b2d 90bd 35e6 0e3c af6d 013e
000002d0: 3a3a 233d bb0b b93c cca8 0e3d f83a 8c3d
000002e0: 8cd6 74bb e8ff 0cbd 88f4 183b 9800 a4bb
000002f0: a66a 043b 243e 213d 4be3 91bc adcb bb3a
00000300: 2cb6 3d3e 1c2a 27bd 1d29 eebd 475b 0e3e
00000310: 19b6 5bbd 0cd4 0fbc 41eb 1ebd 5c3e adbc
00000320: f2f9 3abd 529a 4e3d a8f7 a43d 07aa 15bd
00000330: 6b94 06bd 7032 b1bc d148 eabd 850f 0a3e
00000340: 09e5 8e3b d0a2 19be fd03 063e 1515 a83d
00000350: 3258 b43d e453 cfbb d6fd 8d3d 7439 c4bc
00000360: de23 2a3c ea7a 29bd b985 3c3d a46f 35be
00000370: bd1f ed3d 5ce3 c7bd 6362 763d 667f c73d
00000380: fa38 d5bd e32e 83bd 2b5d 0f3e 37c8 0e3c
00000390: 4ab3 1fbc f680 26be 008c 8abc 49c3 7cbc
000003a0: f4ec e6bd 9fb4 babd ea71 5a3d 4f6e 07bd
000003b0: 8442 113d e294 e3bd 49f1 18bd d11e f5bd
000003c0: ac0d ce3c abb9 dcbc 566e 77bd f739 873d
000003d0: 14b7 9c3d d1e7 b4bd 9d0e bb3c 25ca efbc
000003e0: 83ed 4e3d 27e7 4b3d 18f3 aabc a0fc 353e
000003f0: 09fd 2ebe eeac 28bc 16ad 6b3d 3f23 263c

weight f4 [768]
0.920232 1.1052457 1.0096219 1.1066746 0.8326726 1.041725 1.0587474 0.83843005
1.0256106 1.0853997 1.1067692 0.9961566 1.0781058 0.8514468 1.0613391 0.97781676
1.0424715 1.0471708 1.0939627 0.99217385 0.93192774 0.9348506 0.93569034 1.1012179
1.155133 0.92378885 1.0826123 0.9406076 0.946947 1.066591 0.9625679 0.9197392
1.082947 0.89309597 0.9455503 1.0198013 0.9937208 0.94825315 0.8854641 1.0030438
1.0939263 1.0243556 0.8950117 0.9625536 1.0154508 0.9678126 0.99865055 0.9348603
0.9562569 0.98355 0.9387778 1.0169395 0.9416953 0.9149548 1.0080739 1.0072734
0.90498394 1.0106964 1.1102196 1.0593747 0.8844414 1.0094389 1.0888085 0.9580547
1.1170793 1.023646 1.1155971 0.9867501 0.9997989 1.0785619 0.97213525 0.9011626
1.0149955 1.0423248 0.99687845 1.0567467 0.99921 1.0037298 0.96684 1.0376984
0.90481514 1.010678 0.91916174 0.98965657 0.90621203 1.1106546 0.9550719 0.9249006
1.0515656 0.9213107 0.9651458 1.0190305 0.83245075 1.0333366 0.94571 1.1653415
0.93330723 0.8935632 1.04246 1.0220431 0.9505955 1.1211704 0.98803693 0.9703644
0.9123448 0.9878597 1.1344521 1.0531774 1.0844412 1.1059694 0.9670441 0.9708234
1.073591 1.0206469 1.0253962 0.97110087 0.9093848 1.1530342 0.96416926 0.95737237
1.0012656 0.93730545 1.1271638 0.95988256 1.1525184 1.0528542 1.1850226 0.9605484
1.1196439 1.0251205 1.0084357 1.056143 1.027506 0.9274692 1.0544763 1.0539769
0.8982267 0.86495906 0.9332744 0.85231495 1.0787752 0.9652552 1.0542877 1.0059606
1.1082577 0.9612171 1.0227237 1.0300386 0.86897445 1.0771103 1.0436296 0.9599551
1.0089444 0.97574955 0.9107488 1.1068239 0.98466855 0.9635828 1.009734 1.0997438
0.9212395 1.0138078 0.8793969 0.8809197 1.026308 1.1002501 0.9801273 0.9060973
1.0468489 0.99561447 0.9625407 0.9309094 0.95128775 0.9737022 1.0163747 1.0902821
0.84457314 0.88167554 0.9074117 1.091056 0.9525812 0.92737246 0.9170938 0.8802861
1.0019878 1.0445566 1.121348 1.0403606 0.94842553 1.0165694 0.9360938 1.0435953
0.9308075 0.9876893 0.8774169 0.87712145 0.9734214 0.9730777 1.1208541 1.0263658
0.8591452 1.0228633 0.9974401 0.91903937 1.0473219 0.9578866 0.8356778 0.96869177
1.0534456 0.96934247 0.9201005 1.060414 0.98559105 1.0075015 1.2249521 0.9410284
1.0660135 1.1254684 0.9168068 1.009851 0.9472597 0.9687037 1.0417217 0.97807413
1.0909364 0.99669755 1.0153562 1.0221056 1.0394404 1.0379467 1.0502325 1.0052209
0.9254809 0.9602567 1.0709587 1.018584 1.0421674 0.8573123 1.1111817 1.234292
1.0140893 0.8564673 1.0117085 1.0048865 0.7808146 0.98515075 0.8920222 0.93772334
0.9309878 0.9311605 0.9166186 0.6759895 1.1207817 1.0253978 0.82001 1.0138118
00000000: 5394 6b3f b178 8d3f 4a3b 813f 83a7 8d3f
00000010: 082a 553f 3f57 853f 0985 873f 5aa3 563f
00000020: 3547 833f 61ee 8a3f 9daa 8d3f 1e04 7f3f
00000030: 5fff 893f 6bf8 593f f6d9 873f 3352 7a3f
00000040: b56f 853f b109 863f f806 8c3f 1bff 7d3f
00000050: d192 6e3f 5e52 6f3f 6789 6f3f b5f4 8c3f
00000060: 66db 933f 6d7d 6c3f 0a93 8a3f a9cb 703f
00000070: 1e6b 723f 0e86 883f da6a 763f 0774 6b3f
00000080: 029e 8a3f f0a1 643f 960f 723f d988 823f
00000090: 7d64 7e3f b8c0 723f c6ad 623f bd63 803f
000000a0: c705 8c3f 161e 833f 7d1f 653f ea69 763f
000000b0: 4bfa 813f 91c2 773f 90a7 7f3f 0153 6f3f
000000c0: 41cd 743f efc9 7b3f be53 703f 132b 823f
000000d0: f112 713f 7a3a 6a3f 9108 813f 56ee 803f
000000e0: 07ad 673f 805e 813f ad1b 8e3f 9799 873f
000000f0: c06a 623f 4b35 813f 145e 8b3f 1343 753f
00000100: 74fc 8e3f d506 833f e3cb 8e3f a89b 7c3f
00000110: d2f2 7f3f 510e 8a3f dbdd 783f 98b2 663f
00000120: 5feb 813f e66a 853f 6d33 7f3f 7a43 873f
00000130: 3acc 7f3f 387a 803f d482 773f 4dd3 843f
00000140: f7a1 673f e65d 813f 2f4e 6b3f 225a 7d3f
00000150: 83fd 673f ee29 8e3f 987f 743f 49c6 6c3f
00000160: b499 863f 05db 6b3f cc13 773f 976f 823f
00000170: 7e1b 553f 6044 843f 0d1a 723f e929 953f
00000180: 39ed 6e3f 8fc0 643f 546f 853f 4fd2 823f
00000190: 3a5a 733f 8382 8f3f fdef 7c3f cd69 783f
000001a0: 6e8f 693f 60e4 7c3f ba35 913f 84ce 863f
000001b0: f8ce 8a3f 6890 8d3f 3490 773f e287 783f
000001c0: 6e6b 893f 8fa4 823f 2f40 833f 119a 783f
000001d0: 71cd 683f a096 933f ccd3 763f 5b16 753f
000001e0: 7929 803f 40f3 6f3f e746 903f ddba 753f
000001f0: b985 933f edc3 863f d2ae 973f 80e6 753f
00000200: 7e50 8f3f 2637 833f 6c14 813f b22f 873f
00000210: 5185 833f 9f6e 6d3f 14f9 863f b7e8 863f
00000220: 2ff2 653f f56d 5d3f 12eb 6e3f 5031 5a3f
00000230: 4e15 8a3f f71a 773f e6f2 863f 51c3 803f
00000240: 63db 8d3f 5312 763f 9ce8 823f 4ed8 833f
00000250: 1c75 5e3f c0de 893f a895 853f 9ebf 753f
00000260: 1725 813f b9ca 793f d526 693f 68ac 8d3f
00000270: 3d13 7c3f 5dad 763f f73e 813f 68c4 8c3f
00000280: 5ad6 6b3f 74c4 813f 2820 613f f483 613f
00000290: 0f5e 833f ffd4 8c3f 9fe9 7a3f fef5 673f
000002a0: 25ff 853f 97e0 7e3f 1169 763f 1450 6e3f
000002b0: 9887 733f 8c44 793f 9118 823f 5d8e 8b3f
000002c0: f235 583f 7db5 613f 224c 683f b9a7 8b3f
000002d0: 5ddc 733f 4868 6d3f a9c6 6a3f 6e5a 613f
000002e0: 2341 803f 08b4 853f 5588 8f3f 892a 853f
000002f0: 04cc 723f f21e 823f d8a3 6f3f 8894 853f
00000300: 6649 6e3f 35d9 7c3f 659e 603f 088b 603f
00000310: 2532 793f 9f1b 793f 2678 8f3f f45f 833f
00000320: f1f0 5b3f 2fed 823f 3c58 7f3f 2a46 6b3f
00000330: a50e 863f 0e38 753f fbee 553f 2ffc 773f
00000340: 4ed7 863f d426 783f b58b 6b3f a5bb 873f
00000350: b24f 7c3f cff5 803f 3bcb 9c3f 3de7 703f
00000360: 2173 883f 590f 903f dab3 6a3f cc42 813f
00000370: 9d7f 723f f7fc 773f 2357 853f 1163 7a3f
00000380: cea3 8b3f 9227 7f3f 31f7 813f 5bd4 823f
00000390: 620c 853f 70db 843f 056e 863f 14ab 803f
000003a0: 51ec 6c3f 62d3 753f 2d15 893f f660 823f
000003b0: be65 853f d278 5b3f 343b 8e3f 48fd 9d3f
000003c0: aecd 813f 7141 5b3f aa7f 813f 1fa0 803f
000003d0: 77e3 473f d732 7c3f 915b 643f a30e 703f
000003e0: 3755 6e3f 8960 6e3f 84a7 6a3f a60d 2d3f
000003f0: c675 8f3f 3c40 833f 2dec 513f 96c4 813f

bias f4 [768]
-0.111156374 0.12415853 -0.001589212 -0.10122682 0.16031305 0.10281195 -0.08461159 0.18718475
0.0727348 0.056883883 0.11693718 0.013483113 -0.17190035 0.10780648 0.0567242 0.03515041
-0.08519018 0.07486398 -0.15910141 -0.1251576 -0.02444224 -0.06847804 0.084283896 -0.13310425
0.15881084 -0.09281691 -0.11038746 -0.025949296 0.042537585 0.099401295 -0.013324237 -0.07571523
-0.068908714 -0.09880288 -0.033524275 0.004228227 -0.05357552 -0.0123505 0.08284186 0.009124578
0.13057122 -0.11004195 -0.05745721 0.03373215 -0.0030801739 0.03595624 0.03843104 -0.123176716
0.08666991 0.008578337 -0.031583924 -0.17167446 -0.07399466 -0.04201352 -0.0054540187 -0.0030645733
0.055138536 0.040803116 0.1012356 0.07187073 0.10015329 0.03706319 0.16539757 0.047318373
0.109973535 -0.008139499 0.09459938 -0.0029098918 0.093695514 0.100154795 -0.021118572 0.1259462
-0.20352827 -0.07179687 0.018045265 0.05910594 0.10943935 -0.04711382 0.00037710537 0.02533236
0.11478922 -0.10264831 -0.08332138 -0.037118834 0.02794658 -0.1731133 -0.04649787 0.10176062
0.045289405 0.054019585 0.06953045 0.027954597 -0.15715244 -0.166692 0.081049204 -0.18452275
0.05530316 0.12027343 -0.07244957 0.033393104 -0.10546844 -0.13283835 0.011938689 -0.036305267
0.11411518 -0.01863775 0.11979047 0.11245848 -0.15158637 -0.13420556 -0.03212522 -0.16504051
0.026263213 -0.026215846 0.08030935 0.02817982 0.06878031 -0.12464564 0.09710188 -0.01711809
-0.034572333 0.032557778 0.20672585 0.015059879 -0.19113392 0.11880401 -0.21621461 -0.0043189027
-0.0996842 -0.09384035 -0.073738486 0.0699778 -0.0033740893 0.109836325 0.14459576 -0.047214795
0.11136896 0.13635276 -0.059647 -0.16464469 -0.09332602 -0.03694426 0.08884469 -0.025804332
0.037238456 -0.0012979227 0.03098886 0.03767362 -0.07283797 -0.091171265 -0.013240658 0.086356446
0.010679067 -0.0020418013 0.07802904 0.15218201 -0.015174452 0.045561824 0.013586577 0.14738251
-0.081401125 -0.092720464 -0.12886502 -0.10939897 0.0830594 -0.095053926 0.013626272 0.03949832
0.08073521 0.043415517 0.13512582 -0.16041991 -0.035651304 0.052049402 0.042847898 0.12267093
0.14104117 0.10330869 -0.10089769 0.08527566 -0.053613402 -0.057218146 0.11086827 0.095356636
-0.007444997 -0.07796868 0.0839259 -0.07281131 0.018655416 -0.11034432 0.05214371 -0.0545801
0.071173154 -0.021376226 0.109794974 -0.106816225 0.043477573 -0.006129 0.11030987 0.024741678
0.11061518 -0.09225527 -0.008933481 -0.012455061 0.06946535 -0.11164911 -0.1587423 -0.05760954
0.056015976 0.11658623 -0.04864923 0.11886695 0.07502291 -0.0069375033 -0.19666263 0.029080063
0.10121232 0.10972455 0.04529967 0.049919233 -0.058634747 0.059769012 0.06631075 0.052336045
0.06903692 0.014815207 0.013863812 -0.11626598 0.091131285 0.042751808 0.057670895 -0.06887381
-0.06510265 -0.013329523 0.10966891 -0.11425075 0.07957275 0.11519388 0.107873045 -0.21932775
0.028580502 -0.13602644 -0.123426564 0.025802452 -0.21306518 -0.1287264 -0.15320289 0.058545884
-0.044032525 -0.116874926 0.078678206 -0.3126623 -0.0909998 -0.028254058 0.111167416 0.02639835
00000000: f4a5 e3bd d446 fe3d 1b4d d0ba 0250 cfbd
00000010: 1b29 243e 128f d23d d748 adbd 5cad 3f3e
00000020: fcf5 943d 13ff 683d c37c ef3d 46e8 5c3c
00000030: a506 30be a5c9 dc3d a257 683d e0f9 0f3d
00000040: 3078 aebd 4952 993d 7beb 22be 5029 00be
00000050: 183b c8bc 373e 8cbd 099d ac3d 7b4c 08be
00000060: 4f9f 223e cb16 bebd d212 e2bd 9e93 d4bc
00000070: e43b 2e3d e892 cb3d e74d 5abc 9610 9bbd
00000080: 0320 8dbd 2a59 cabd c050 09bd f08c 8a3b
00000090: 0172 5bbd c059 4abc fea8 a93d 417f 153c
000000a0: 76b4 053e ad5d e1bd 4058 6bbd b92a 0a3d
000000b0: bedc 49bb da46 133d de69 1d3d 1344 fcbd
000000c0: fe7f b13d 278c 0c3c 255e 01bd 6ecb 2fbe
000000d0: 838a 97bd 5e16 2cbd a0b7 b2bb 02d7 48bb
000000e0: f2d8 613d 2b21 273d 9c54 cf3d f630 933d
000000f0: 2b1d cd3d 92cf 173d fb5d 293e e9d0 413d
00000100: ce39 e13d 895b 05bc 52bd c13d e2b3 3ebb
00000110: 6fe3 bf3d f51d cd3d db00 adbc 0af8 003e
00000120: b769 50be 3d0a 93bd aad3 933c 1219 723d
00000130: bd21 e03d 6cfa 40bd 3ab6 c539 cf85 cf3c
00000140: 9c16 eb3d 4739 d2bd 66a4 aabd eb09 18bd
00000150: 3af0 e43c 9d44 31be 8d74 3ebd df67 d03d
00000160: 6281 393d a443 5d3d fb65 8e3d 0a01 e53c
00000170: 92ec 20be 4fb1 2abe 20fd a53d 88f3 3cbe
00000180: 9185 623d eb51 f63d 7160 94bd 35c7 083d
00000190: d6ff d7bd c706 08be 7e9a 433c d5b4 14bd
000001a0: 38b5 e93d 32ae 98bc b554 f53d a250 e63d
000001b0: 7539 1bbe 2f6d 09be bc95 03bd 6100 29be
000001c0: f325 d73c 9dc2 d6bc 3a79 a43d 5ed9 e63c
000001d0: b1dc 8c3d 3746 ffbd 5add c63d 3d3b 8cbc
000001e0: b89b 0dbd 4e5b 053d f1af 533e b6bd 763c
000001f0: 9cb8 43be 844f f33d 5d67 5dbe 9585 8dbb
00000200: 3b27 ccbd 5f2f c0bd 3404 97bd 8550 8f3d
00000210: d31f 5dbb def1 e03d e910 143e 4d64 41bd
00000220: 6915 e43d 0fa0 0b3e 6a50 74bd 9e98 28be
00000230: b621 bfbd dd52 17bd 34f4 b53d 9b63 d3bc
00000240: 5a87 183d 0f1f aaba 5adc fd3c a74f 1a3d
00000250: 132c 95bd 00b8 babd 58ef 58bc a6db b03d
00000260: 41f7 2e3c becf 05bb b0cd 9f3d 9ad5 1b3e
00000270: 449e 78bc 099f 3a3d 3c9a 5e3c 71eb 163e
00000280: a2b5 a6bd 3ae4 bdbd 31f5 03be 910c e0bd
00000290: 0c1b aa3d a2ab c2bd ba40 5f3c fec8 213d
000002a0: 8058 a53d 78d4 313d 6c5e 0a3e 1e45 24be
000002b0: 1a07 12bd c131 553d 4781 2f3d e63a fb3d
000002c0: 196d 103e 8293 d33d 73a3 cebd 01a5 ae3d
000002d0: ba99 5bbd 935d 6abd e70e e33d 574a c33d
000002e0: 29f5 f3bb 0bae 9fbd 58e1 ab3d 191e 95bd
000002f0: 3ed3 983c 34fc e1bd a594 553d 628f 5fbd
00000300: 3bc3 913d 321d afbc 30dc e03d 77c2 dabd
00000310: 8a15 323d c7d5 c8bb 24ea e13d 0faf ca3c
00000320: 368a e23d 55f0 bcbd bc5d 12bc 5010 4cbc
00000330: d943 8e3d 4aa8 e4bd 578d 22be fbf7 6bbd
00000340: 0271 653d c3c4 ee3d 6a44 47bd 8470 f33d
00000350: 9da5 993d ff53 e3bb ee61 49be 5039 ee3c
00000360: 6848 cf3d 44b7 e03d 268c 393d 1c78 4c3d
00000370: fd2a 70bd 5ad0 743d eecd 873d 525e 563d
00000380: 3b63 8d3d 7bbb 723c 0b25 633c dc1c eebd
00000390: 0aa3 ba3d 851c 2f3d 5138 6c3d b60d 8dbd
000003a0: 8a54 85bd 1264 5abc 189a e03d 4cfc e9bd
000003b0: 0af7 a23d c5ea eb3d 8bec dc3d 7497 60be
000003c0: a821 ea3c 844a 0bbe 11c7 fcbd aa5f d33c
000003d0: c22d 5abe dad0 03be 38e1 1cbe cfcd 6f3d
000003e0: 735b 34bd 1f5c efbd 0a22 a13d 4615 a0be
000003f0: 1a5e babd 0e75 e7bc beab e33d 5a41 d83c
