subject-models/ada-0629/jenniferlawrence2023-06-29T14-30-13_jenniferlawrence-ada/embeddings_gs-4500.pt (torch, 834159 bytes, 168 tensors)

pre_vecs f4 [2, 768]
0	0xbba74d57	-0.005105655
1	0x3be86705	0.007092359
2	0x3c01a527	0.007912911
3	0xbb3027ac	-0.0026879115
4	0xbbb394ce	-0.0054803854
5	0x3afa96cb	0.0019118426
6	0x3c645e11	0.013938443
7	0x3c3276fd	0.010892627
8	0xbba3f7f5	-0.005003924
9	0x3b562121	0.0032673555
10	0x3d405fbc	0.0469663
11	0xbbc392d2	-0.00596843
12	0x3ba78ecf	0.0051134597
13	0xbaae030e	-0.0013276057
14	0x3b7072b7	0.003668947
15	0xbc0f5eaf	-0.008750602
16	0xbc4d65f3	-0.012536514
17	0xbc14ae3f	-0.009074747
18	0xbb63118c	-0.003464791
19	0x3c8fac9b	0.01753836
20	0x3c000729	0.007814207
21	0x3c08bcfe	0.0083458405
22	0x3c7be454	0.015374262
23	0xbba1fb66	-0.004943299
24	0xbbd359be	-0.006449907
25	0x3bccf50a	0.006254797
26	0xbc69375a	-0.014234388
27	0x3c4c700e	0.012477888
28	0x3b4009ce	0.002930272
29	0x3d0780a4	0.033081666
30	0x3ced162e	0.02894124
31	0x3ce9169e	0.028453168
32	0xbc7830d4	-0.01514836
33	0xba28adf9	-0.00064346154
34	0xbc9653fb	-0.018350592
35	0x3d03befe	0.032164566
36	0xbc6a3c44	-0.014296595
37	0x3c4d520a	0.012531767
38	0xbb88ab63	-0.0041708215
39	0xbc879f5c	-0.01655548
40	0x3c6260e5	0.013817047
41	0x3b87cddd	0.004144414
42	0x3c0b1c5c	0.008490648
43	0x3c52727d	0.012844679
44	0xbbb9e2ba	-0.00567278
45	0xbb941d7e	-0.0045201173
46	0x3c8147fb	0.015781393
47	0xbb9db6cc	-0.004813051
48	0xbc1b20fb	-0.009468312
49	0xbc2a14c7	-0.01038093
50	0xbb278ec0	-0.0025567263
51	0xbbf99e4a	-0.0076177465
52	0x3cd67c4f	0.026182322
53	0xbc38a49c	-0.011269715
54	0x3c6134f9	0.01374554
55	0xbb9d6333	-0.0048030852
56	0x3c9ef76b	0.019405087
57	0xbb0cd7d0	-0.002149094
58	0xbc255b7a	-0.0100926105
59	0xbc453af0	-0.012037978
60	0xbc23ee40	-0.010005534
61	0xbb11275d	-0.0022148706
62	0x3cdd99cb	0.027050873
63	0xbcc0d908	-0.023540989
64	0xbc8e0ab4	-0.017339088
65	0xbbfbe215	-0.007686863
66	0x3bd444f6	0.0064779473
67	0x3c7e5a4f	0.015524461
68	0x3ae42856	0.001740704
69	0xbca073a8	-0.0195864
70	0xbcb3c547	-0.021944655
71	0x3cd38c27	0.025823666
72	0xbb2180b8	-0.0024643373
73	0x3c443cc0	0.011977375
74	0x3c309de9	0.010779836
75	0x3cf7516e	0.030190196
76	0x3d0aa74b	0.03385095
77	0x3c623bd8	0.013808213
78	0x3ca32579	0.01991533
79	0xbc9d3b43	-0.019193297
80	0xbc84539a	-0.016153146
81	0x3c3e8c84	0.011630181
82	0x3c48f395	0.012265106
83	0x38fea6df	0.00012142746
84	0xbc32f45f	-0.01092252
85	0x3c086f13	0.008327263
86	0x3b4cbb84	0.0031239698
87	0xbc5a8d1b	-0.013339306
88	0x3ab54616	0.0013830091
89	0xbc2af46f	-0.010434254
90	0xbc6a88ce	-0.014314843
91	0xbc4ad391	-0.012379543
92	0x3c3b0bb0	0.011416361
93	0x3abce1e6	0.0014410585
94	0xbcbf6a32	-0.023366068
95	0xbc17001b	-0.009216334
96	0x3c31960f	0.010838999
97	0xbccbaa66	-0.024861526
98	0xbd1c6f14	-0.03819187
99	0x3ce17bae	0.027524795
100	0xbc515afd	-0.012778041
101	0xbc0c6a2a	-0.008570233
102	0x3c9cdf16	0.019149344
103	0xba3bebe3	-0.0007168634
104	0xbbbc7d3b	-0.0057522333
105	0xbb92deba	-0.0044821175
106	0x3c91c460	0.017793834
107	0x3bcaa9f2	0.00618481
108	0x3aa3709c	0.0012469473
109	0x3b230282	0.002487332
110	0x3bb21fd9	0.0054359254
111	0xbc773c46	-0.015090054
112	0xbcbc4beb	-0.02298542
113	0x3bfaa961	0.007649586
114	0x3cbefa85	0.023312816
115	0x3a10719a	0.0005510092
116	0xbcbe99fa	-0.023266781
117	0x3c2a677f	0.010400652
118	0x3bd789a6	0.0065776883
119	0xbc3e97c6	-0.011632865
120	0x3b5117c2	0.003190503
121	0xbc761082	-0.015018584
122	0x3c457481	0.0120517025
123	0xbc1c88b8	-0.009554081
124	0x3c84bd8c	0.016203664
125	0x3c218d35	0.009860327
126	0x3c52877c	0.012849685
127	0xbc768565	-0.015046452
128	0xbccb9dd3	-0.02485553
129	0xbbf47aca	-0.0074609267
130	0xbc7d399e	-0.015455632
131	0x3b73c073	0.0037193566
132	0xbc2cee4a	-0.010554859
133	0xbbc4f4cb	-0.006010627
134	0x3c386803	0.011255267
135	0x3c2306de	0.009950368
136	0x3b136de9	0.0022495931
137	0xbaa00734	-0.0012209178
138	0x3c8df25f	0.017327486
139	0xbbcb24f3	-0.006199473
140	0xbcfcefae	-0.030876007
141	0xbc850947	-0.016239775
142	0xbcbe4c2f	-0.023229687
143	0x3c2abfa7	0.01042167
144	0xbcce890f	-0.025211839
145	0xbc1a82ef	-0.009430631
146	0x3b1ddb99	0.002408719
147	0x3cc7171a	0.024303008
148	0xbc9b9528	-0.018992022
149	0xbc01cb6c	-0.007922035
150	0xbc065653	-0.008199292
151	0x39c561c7	0.00037647618
152	0x3ac47647	0.0014988863
153	0x3c9b9c35	0.018995384
154	0xbc11e794	-0.00890531
155	0x3ca89909	0.020580785
156	0x3d13ca29	0.036081467
157	0xbbfadda5	-0.0076558166
158	0xbcb8c728	-0.022555903
159	0xbb834f85	-0.004007282
160	0x387f5828	6.087884e-05
161	0x3c3b0355	0.011414369
162	0xbc4da7b8	-0.012552194
163	0x3c7b9dde	0.015357463
164	0x3c813c58	0.015775844
165	0xbc02cff7	-0.007984153
166	0x3c4955b0	0.012288496
167	0xbd0a6134	-0.033784106
168	0xbcfa88af	-0.030582754
169	0xb94d741f	-0.00019593582
170	0xbd039819	-0.032127474
171	0x3cc989f1	0.024601908
172	0x3b69b037	0.003565801
173	0x3be30897	0.006928514
174	0xbc8a40f6	-0.016876679
175	0xbbca34cd	-0.006170845
176	0xbb9bc00c	-0.0047531184
177	0x3c5a1cdc	0.013312545
178	0xbaab4872	-0.0013067855
179	0x3c1be2e1	0.009514541
180	0x3cacc6d2	0.021090899
181	0xbc1f8b2e	-0.009737773
182	0x3c3eb0ff	0.011638879
183	0x3a3e5e2e	0.00072619587
184	0x3bbdd334	0.0057929996
185	0xbbf3186e	-0.0074186837
186	0x3c11bf7f	0.008895754
187	0xbbb0e6db	-0.005398614
188	0xbca642d6	-0.020295542
189	0xbc35cd89	-0.011096367
190	0xbd3e1240	-0.046404123
191	0xbbd7e95d	-0.0065890984
192	0x3af337fc	0.0018556113
193	0xbb25a96f	-0.0025277992
194	0x3a130491	0.00056082854
195	0x3ccebaa4	0.025235482
196	0x3c3a467b	0.011369343
197	0x3c7138aa	0.014722982
198	0x3ca3c773	0.019992566
199	0x3c134f42	0.0089910645
200	0x3c8110f9	0.015755164
201	0xbca1542d	-0.019693458
202	0x3c8df78e	0.017329957
203	0x3adb7a6c	0.0016744859
204	0xbcec99c4	-0.028881915
205	0xbd0b95ca	-0.034078397
206	0x3c732a03	0.014841559
207	0xbc08c812	-0.008348482
208	0x3a3139fa	0.00067606533
209	0x3c8660fb	0.016403666
210	0x3d1948fb	0.037423115
211	0x3b07da36	0.002072943
212	0xbc05b26a	-0.008160213
213	0x3c369820	0.011144668
214	0xb96e5592	-0.00022729326
215	0x3bd158d4	0.006388763
216	0xbb3d2da3	-0.0028866313
217	0x3ca6bf2d	0.020354832
218	0xbc8a917b	-0.016915074
219	0xbc52bd80	-0.012862563
220	0xbd159133	-0.036515426
221	0xbca73de6	-0.020415258
222	0xbbca9064	-0.0061817635
223	0xbc477cb1	-0.012175725
224	0x3c5db6b7	0.013532332
225	0x3aede786	0.0018150664
226	0xbc8519af	-0.016247598
227	0x3ce87527	0.028376175
228	0xbb540555	-0.003235181
229	0xbc8250f3	-0.01590774
230	0x3b273ab2	0.0025517163
231	0x3c540e4b	0.012942861
232	0x3c16c1cf	0.009201481
233	0xbbfd8a3a	-0.007737425
234	0x3cda6d9c	0.026663594
235	0xbbaa90b3	-0.005205238
236	0x3cbfcd73	0.023413396
237	0xbcb531db	-0.0221185
238	0x3cba0dfc	0.022711746
239	0x3aea29f6	0.0017865289
240	0x3c525d56	0.012839636
241	0xbb99db8c	-0.0046953615
242	0x3cccdb6e	0.025006976
243	0xbc37d2eb	-0.01121972
244	0x3c161077	0.009159199
245	0x3c9578c1	0.018246057
246	0x3c1fad76	0.009745946
247	0x3cf378c0	0.029720664
248	0x3ceda569	0.029009538
249	0xb945f062	-0.00018876934
250	0xbc1ba8a6	-0.009500658
251	0xbc5d5d40	-0.013511002
252	0xbcb78f51	-0.022407206
253	0xbc458c11	-0.01205732
254	0xbb69a964	-0.0035653943
255	0x39f18871	0.0004606876

basis_rand_weights f4 [16, 5]
0	0xbd1e2787	-0.038611915
1	0xbd5bb007	-0.05363467
2	0x3d5363c0	0.0516088
3	0xbd5b01dd	-0.053468574
4	0xbe12616b	-0.14294975
5	0x3ddaad72	0.10677613
6	0xbd68d78a	-0.05684618
7	0x3c79f682	0.015256526
8	0xbe6b9cd7	-0.23009048
9	0x3c2cae2f	0.0105395755
10	0xbc8f7194	-0.017510213
11	0xbc6b7027	-0.014370001
12	0x3dc340a3	0.09533813
13	0x3de5dc66	0.11223678
14	0x3d7d8aab	0.061899822
15	0x3da4825e	0.08032678
16	0xbdea21cb	-0.11432227
17	0xbddfa86e	-0.10920797
18	0xbe4b12c6	-0.1983138
19	0x3e1a212f	0.15051721
20	0xbccbe244	-0.024888165
21	0x3d46f875	0.04857679
22	0x3b1cc249	0.0023919514
23	0x3dcac4ba	0.09900804
24	0x3d5a5928	0.053307682
25	0xbd3de19f	-0.046357747
26	0xbc901111	-0.017586263
27	0x3e9f1a59	0.3107479
28	0x3e2a18d2	0.1661103
29	0xbd28410d	-0.041077662
30	0xbd8f5f87	-0.07000642
31	0x3cbbb23c	0.022912137
32	0x3dd71c55	0.10503451
33	0x3d2a8120	0.04162705
34	0xbc868055	-0.016418615
35	0x3e31131c	0.17292446
36	0xbe25c80c	-0.16189593
37	0x3dd5aba5	0.10433129
38	0xbe55e1a8	-0.20886862
39	0xbd7ce642	-0.06174303
40	0xbdd567e5	-0.10420207
41	0x3d4c0cd7	0.049816933
42	0xbbb6108e	-0.0055561727
43	0x3e6b8647	0.23000441
44	0xbe1dd1a4	-0.15412003
45	0xbe1c7826	-0.15280208
46	0x3d4bf2b3	0.049792003
47	0x3e05a5d1	0.13051535
48	0x3ddd244d	0.107979394
49	0xbe17f08d	-0.14837857
50	0xbdb2c9bd	-0.08729885
51	0xbd24a2b5	-0.040194232
52	0x3e408877	0.18802057
53	0x3e0bcfe8	0.13653529
54	0x3e52b7a4	0.20577866
55	0xbdb8c6f4	-0.09022322
56	0xbcad67ff	-0.021167753
57	0x3edf7113	0.43640956
58	0xbd4485bf	-0.047979113
59	0xbd81c1f9	-0.063358255
60	0x3da5f111	0.081026204
61	0xbe18839f	-0.1489396
62	0x3deca1e5	0.115543164
63	0xbdc19735	-0.094526686
64	0x3dcc8097	0.09985464
65	0xbbc4dd16	-0.006007801
66	0xbb332e23	-0.0027340732
67	0x3e0797ce	0.13241503
68	0x3d39c850	0.04535705
69	0xbaf62db3	-0.001878193
70	0xbd37dd6c	-0.0448889
71	0xbd208c2f	-0.03919619
72	0x3da7381b	0.08164998
73	0xbca91601	-0.020640375
74	0xbcd2c9ec	-0.02573105
75	0xbcb30b9b	-0.02185612
76	0x3d08c99b	0.03339539
77	0x3df263f9	0.118354745
78	0xbe0ce15b	-0.13757841
79	0x3d080924	0.033211842

basis_vecs f4 [3, 768]
0	0x3cc30f90	0.023811132
1	0x3cba5e9c	0.022750191
2	0x3cc7f80c	0.02441027
3	0x3c831cca	0.016004939
4	0xbcfa90d6	-0.030586641
5	0x3c258198	0.010101698
6	0x3cbace5c	0.022803478
7	0x3b98c89e	0.0046625873
8	0xbb4fea2d	-0.0031725273
9	0xbbedaa45	-0.0072529637
10	0x3c7f58df	0.015585153
11	0x3da0d7a4	0.0785363
12	0x3cfae532	0.030626867
13	0xbc66edbe	-0.014094768
14	0xbcd6f98d	-0.026242042
15	0x3d7660ae	0.060150795
16	0xbb88b807	-0.0041723284
17	0xbbb81978	-0.0056182705
18	0xbd04c98e	-0.03241878
19	0x3d6de5f7	0.05808064
20	0x3adfe5ca	0.0017082032
21	0x3ca63364	0.020288177
22	0x3aeefb6a	0.0018232886
23	0xbd35498b	-0.04425959
24	0x3cf06e55	0.029349485
25	0x3d202fb2	0.039107986
26	0xbd232af1	-0.039835874
27	0xbc4473c4	-0.011990491
28	0xbda273d4	-0.07932249
29	0x3d3bfc3a	0.04589484
30	0xbc4c4f9c	-0.012470152
31	0x3c8a4faf	0.0168837
32	0xbc32c70f	-0.010911717
33	0x3d8aead5	0.06783072
34	0x3cdbbde7	0.026823951
35	0x3dc76c32	0.097374335
36	0xbb672f71	-0.003527608
37	0xbaa572d5	-0.0012622724
38	0xbd47f8a9	-0.048821125
39	0x3d4f9d23	0.050686967
40	0x3c79fc2d	0.015257877
41	0x3cc3362c	0.023829542
42	0x3d5449a8	0.051828057
43	0xbcddb89c	-0.027065568
44	0x3cc80992	0.024418626
45	0xbd5838f8	-0.052788705
46	0x3c94ae81	0.018149616
47	0x3b9cc366	0.0047840355
48	0x3b0be334	0.002134514
49	0xbbe0fe79	-0.006866273
50	0x3cddda23	0.027081555
51	0x3ac91ccd	0.0015343666
52	0x3d6a3ab1	0.05718488
53	0xbbe4f012	-0.0069866264
54	0xbc9640b5	-0.018341402
55	0x3c623f4c	0.013809036
56	0xbbd79ed3	-0.0065802126
57	0x3cb006e9	0.02148767
58	0x3d235d29	0.039883766
59	0x3d2af418	0.041736692
60	0xbd73a64b	-0.05948476
61	0xbbbc5f83	-0.0057486906
62	0x3ce1f3a6	0.027582001
63	0xbcdf8734	-0.02728615
64	0x3ca89d18	0.02058272
65	0xbd5ee484	-0.05441715
66	0x3d89e357	0.06732815
67	0xbd998f8f	-0.07498085
68	0x3bb28376	0.0054478003
69	0xbcc8177c	-0.02442526
70	0xbd240fc4	-0.040054098
71	0x3caee9f0	0.021351784
72	0xbc156152	-0.009117441
73	0xbc1b1632	-0.009465741
74	0xbca2a477	-0.019853814
75	0x3c9cf148	0.01915802
76	0x3d46847d	0.048466194
77	0x3cf3a1f2	0.029740307
78	0xbafe76ab	-0.0019414028
79	0x3d2f1c5d	0.04275166
80	0xbc2a29ba	-0.010385925
81	0xbc06cfc6	-0.008228248
82	0x3cfd4304	0.030915745
83	0xbd572b63	-0.05253161
84	0x3d2351b0	0.039872825
85	0xbd0952ba	-0.03352616
86	0x3d01f214	0.031725004
87	0xbc63f4e5	-0.013913368
88	0x3cb6fe2f	0.022338001
89	0xbbee0e46	-0.007264885
90	0x3c82be5f	0.015959917
91	0x3d2fabbd	0.04288839
92	0x3be06f1e	0.0068491837
93	0xbcadf36d	-0.021234239
94	0xbda5e0b1	-0.08099497
95	0xbd06d0e0	-0.032914042
96	0xbae2efe7	-0.0017313928
97	0x3aac737e	0.0013156978
98	0xbcdf5acf	-0.02726498
99	0x3cbca4c9	0.023027794
100	0x3c9cbe14	0.019133605
101	0x3cf78a67	0.030217363
102	0xbc3a0467	-0.011353589
103	0xbca1cb56	-0.019750278
104	0x3d125b3e	0.035731547
105	0xbd44f49c	-0.04808484
106	0x3d98aa51	0.0745436
107	0xbbb63cc8	-0.005561445
108	0xbd630739	-0.05542681
109	0x3c108216	0.008820077
110	0x3cb559ed	0.022137607
111	0xbc389658	-0.0112663135
112	0xbcf59df7	-0.02998255
113	0x3cfaaa78	0.030598864
114	0x3d2c9bc6	0.042140745
115	0xbcc19d27	-0.023634506
116	0xbd064577	-0.03278109
117	0xbbc6cc15	-0.006066809
118	0x3c8c2ab1	0.0171102
119	0x3b612514	0.0034354376
120	0x3cd7e5f8	0.026354775
121	0xbd155d10	-0.036465704
122	0xbc842e97	-0.016135497
123	0xbc810e68	-0.01575394
124	0x3cfd1530	0.030893892
125	0x3c9d551f	0.019205628
126	0xbcb166f6	-0.02165554
127	0x3d13324d	0.035936642
128	0xb82cae71	-4.1170457e-05
129	0xbd046f3e	-0.03233265
130	0xbd21c038	-0.039489955
131	0xbc71558c	-0.014729869
132	0xbd34e4e0	-0.044163585
133	0xbd4a99c9	-0.049463067
134	0xbd46d270	-0.048540533
135	0xbd19eb6b	-0.037578028
136	0xbc773510	-0.015088335
137	0xbd1fea14	-0.039041594
138	0xbb0023db	-0.0019552622
139	0x3b88a25b	0.004169745
140	0xbdbaf52a	-0.091287926
141	0x3d499ead	0.04922359
142	0x3d28324d	0.041063596
143	0xbcbbbde1	-0.02291769
144	0x3d0b955b	0.034077983
145	0x3b420983	0.002960772
146	0x3d623d1e	0.055234067
147	0x3c48f96c	0.012266498
148	0x3d184e0f	0.037183817
149	0xbc1af63e	-0.009458123
150	0xbd9488a3	-0.07252624
151	0xbd4d8e97	-0.050184812
152	0x3ca52b62	0.020162288
153	0x3c8e5775	0.017375687
154	0xb906af1c	-0.00012844469
155	0x3c8a116d	0.016854012
156	0x3cf838ab	0.030300459
157	0xbd0ebabf	-0.034846064
158	0xbbb73e22	-0.0055921236
159	0xbd4919ae	-0.049096756
160	0xbd2db23d	-0.04240631
161	0x3cfe48bf	0.031040547
162	0x3d5683af	0.052371677
163	0x3c30edd1	0.010798887
164	0x3d6e6b1c	0.058207616
165	0xbc2b445f	-0.010453313
166	0xbcfc77e0	-0.03081888
167	0xbd018931	-0.031624977
168	0xbc595a10	-0.0132661015
169	0xbc0d731e	-0.008633403
170	0xbc0104f7	-0.007874719
171	0xbc13d497	-0.009022853
172	0x3d0c46af	0.034247097
173	0x3d1bd502	0.038044937
174	0x3aeceb8e	0.0018075572
175	0x3c065468	0.008198835
176	0xbcae2b5c	-0.02126091
177	0xbd5be3e7	-0.05368414
178	0xbc381a14	-0.011236686
179	0x3d3eace4	0.0465516
180	0x3d677730	0.05651015
181	0x3d4fde73	0.050749253
182	0x3b877108	0.0041333474
183	0x3d03b3a2	0.032153733
184	0xbd12f3d5	-0.035877068
185	0xbbd4df26	-0.006496328
186	0x3c8a0804	0.016849525
187	0xbcdb9c6d	-0.026807988
188	0xbd45f8ca	-0.048332967
189	0xbb72fae3	-0.003707581
190	0xbc8b21ea	-0.016983945
191	0x3c75dacb	0.015005778
192	0x3b868c1b	0.0041060573
193	0xbbd0fd3d	-0.0063778446
194	0x3b7a86b6	0.0038227267
195	0xb9a6db67	-0.00031825455
196	0x3cf8fb8b	0.030393383
197	0x3d31e251	0.043428723
198	0x3d8bab23	0.06819751
199	0x3b893b7f	0.0041880007
200	0x3c47b016	0.012187978
201	0xbd7d8b17	-0.061900225
202	0xbba42ea1	-0.0050104414
203	0x3c5741cf	0.013138249
204	0x3d46ba70	0.048517644
205	0xbd1118e9	-0.035424147
206	0x3d04f49b	0.032459836
207	0x3cd014c8	0.025400534
208	0x3d08c300	0.03338909
209	0x3d88bc52	0.06676544
210	0x3db50740	0.088392735
211	0x3b963bf3	0.004584783
212	0x3cf3a885	0.029743442
213	0x3ae9e864	0.0017845747
214	0xbc8701f6	-0.016480427
215	0xbd690183	-0.056886207
216	0x3d02a477	0.031895127
217	0x3d9e6e58	0.0773589
218	0xbc2322da	-0.00995704
219	0xbd53d8c9	-0.051720414
220	0x3c4238de	0.0118543785
221	0xbdaccbae	-0.08437286
222	0xbc778611	-0.0151076475
223	0x3c9ec477	0.019380791
224	0xbcd857c6	-0.026409041
225	0x3ac7a727	0.001523231
226	0x3cd10f46	0.025519978
227	0xbc3084fa	-0.010773892
228	0x3c259e7c	0.010108586
229	0x3d34d8e8	0.04415217
230	0x3b5c92d9	0.0033656864
231	0xba9cd567	-0.0011965454
232	0x3d244ea8	0.040114075
233	0x3caa9c1e	0.020826396
234	0x3abd2809	0.0014431487
235	0xbc2213ff	-0.009892463
236	0x3cc992d8	0.024606153
237	0xbd2ee968	-0.042703062
238	0x3d8fe7c8	0.07026631
239	0xbdc1c1a1	-0.0946076
240	0x3d6f856e	0.058476858
241	0xbc31eb66	-0.010859346
242	0x3c916398	0.017747685
243	0x3ca13ad8	0.01968138
244	0x3cc4adbc	0.024008624
245	0x3cd29b9d	0.025708968
246	0xbc25b9b7	-0.010115079
247	0xbd0125d2	-0.03153021
248	0x3ca0d7ac	0.01963409
249	0x3d2c3daf	0.042051014
250	0xbd96bae3	-0.073598646
251	0x3c9c318d	0.019066596
252	0xbd85a287	-0.0652514
253	0xbc462d84	-0.012095813
254	0xbd02121c	-0.03175555
255	0x3d8994ce	0.06717835

basis_comm_weights f4 [1, 5]
0	0x3e34c3e6	0.17652854
1	0x3f2115f3	0.62924117
2	0x3ef5d3da	0.48013192
3	0x3e80999d	0.25117198
4	0x3e1afcb5	0.15135463

bias f4 [16, 768]
0	0x3d774af6	0.060374223
1	0xbd9b7db3	-0.075923346
2	0xbd4519a1	-0.048120145
3	0x3d128ce7	0.035778906
4	0xbd08184a	-0.03322629
5	0xbd843f65	-0.06457404
6	0xbccef774	-0.02526448
7	0x3ce4c661	0.027926626
8	0x3c0d00b7	0.008606127
9	0x3d8a24b0	0.06745279
10	0xbc3cfff4	-0.011535633
11	0x3ca13596	0.019678872
12	0x3c29f88c	0.0103742
13	0xbc78c954	-0.015184719
14	0x3d2394ea	0.039936937
15	0xbd07a805	-0.03311922
16	0xbdc9a68f	-0.09846222
17	0xbc2253e4	-0.009907696
18	0xbc618b78	-0.013766162
19	0xbc7e0361	-0.015503735
20	0x3a1ee051	0.00060606474
21	0xbd6d359d	-0.057912458
22	0xbba99bee	-0.005176059
23	0x3bf84286	0.0075762896
24	0x3cff318b	0.031151554
25	0x3ccd75e7	0.025080634
26	0xbd187d6c	-0.037228987
27	0x3b7e93eb	0.003884549
28	0xbe060ea3	-0.13091521
29	0x3d5329ce	0.05155354
30	0xbd3beb12	-0.045878477
31	0x3c177392	0.009243863
32	0xbd126924	-0.0357448
33	0xbc5dc39b	-0.0135354055
34	0xbceb58a2	-0.028728787
35	0xbc7e121b	-0.015507246
36	0xbdc13aa1	-0.09435011
37	0xbc7e2cf6	-0.015513649
38	0x3c3cb95d	0.011518803
39	0xbd38ea86	-0.045145534
40	0x3d854f3a	0.06509252
41	0xbcd526d6	-0.026019495
42	0x3d366343	0.044528257
43	0x3c0c45cd	0.008561564
44	0xbcd8b0e7	-0.026451541
45	0xbc4c0b7c	-0.01245391
46	0xbcc09029	-0.02350624
47	0xb93c755e	-0.000179728
48	0xbcccd7f4	-0.025005318
49	0x3d025e4d	0.031828213
50	0x3d23e7ac	0.04001586
51	0xbd0c649e	-0.034275644
52	0x3dab0e80	0.08352375
53	0x3cc2ed27	0.023794724
54	0xbcd89345	-0.026437411
55	0x3d8554ad	0.06510291
56	0x3d89417f	0.067019455
57	0xbd24a404	-0.04019548
58	0x3d3747c3	0.04474617
59	0x3cb9589b	0.022625258
60	0xbce067b3	-0.027393198
61	0xbc0f4f7f	-0.008746981
62	0xbd8adf21	-0.0678084
63	0x3caa7e1e	0.02081209
64	0x3d14ce47	0.036329534
65	0x3c3fba49	0.011702129
66	0x3ca28c1e	0.019842204
67	0x3c821927	0.015881134
68	0xbc62c456	-0.013840755
69	0xbd068b39	-0.032847617
70	0xbcc4d9a7	-0.024029566
71	0xbaccd2e9	-0.0015626821
72	0xbb4de9e1	-0.003141992
73	0xbd27730e	-0.04088121
74	0x3bcd2abf	0.0062611992
75	0x3d930e8a	0.071805075
76	0x3dab5a13	0.0836679
77	0xbc29938d	-0.01035012
78	0x3c946286	0.018113386
79	0xbd2d6240	-0.042330027
80	0x3cd688ff	0.026188372
81	0x3de27c53	0.11058869
82	0x3dbb2a5a	0.09138937
83	0x3b996153	0.0046807914
84	0x3d084669	0.033270273
85	0xbbd7da85	-0.006587329
86	0xbaad6b68	-0.0013230862
87	0x3b86956d	0.0041071684
88	0x3d10e612	0.035375662
89	0x3c417c44	0.011809412
90	0x3c4e3a8d	0.012587202
91	0x3c8709b0	0.016484112
92	0x3cf63c3b	0.030058017
93	0xbc6166c4	-0.013757411
94	0xbd928437	-0.07154124
95	0xbce2d666	-0.027690124
96	0x3cc934c2	0.02456129
97	0xbcd0b358	-0.025476143
98	0xbd35e80a	-0.044410743
99	0xba88ee61	-0.0010447019
100	0xbce57c32	-0.028013323
101	0xbb5f98d8	-0.0034118202
102	0x3ccf3f44	0.025298722
103	0x3b9dd99d	0.0048172013
104	0x3b94e914	0.0045443866
105	0x3cfffb3a	0.031247724
106	0x3c8c5d09	0.017134206
107	0xbc29940a	-0.010350237
108	0x3c824466	0.015901756
109	0x3d151aa8	0.036402375
110	0x3d7ba6ac	0.061438248
111	0xbd429747	-0.04750755
112	0xbd981b50	-0.074270844
113	0x3d82104d	0.063507654
114	0xbd6c33af	-0.057666477
115	0xbc247e0d	-0.0100398185
116	0xbd230957	-0.03980383
117	0xba49111c	-0.0007670091
118	0xbc4568eb	-0.01204894
119	0xbcabb1b1	-0.020958753
120	0xbced597a	-0.02897333
121	0x3b54b057	0.003245374
122	0x3cfb090b	0.03064396
123	0xbd26ce26	-0.040723942
124	0xbd0a6b22	-0.033793576
125	0x3ce15b57	0.027509375
126	0xbc074c95	-0.008258005
127	0xbc1ba4b4	-0.0094997175
128	0x3cc194bc	0.023630492
129	0xba62b495	-0.00086481246
130	0x3c33917c	0.010959979
131	0x3bc327c9	0.0059556705
132	0x3c7c3c1f	0.015395193
133	0x3d0b1cea	0.03396312
134	0xbda195a9	-0.078898735
135	0x3d96fbcb	0.073722444
136	0xbcc9b83a	-0.024623979
137	0xbcf7576d	-0.030193055
138	0x3cd8e717	0.02647738
139	0x3c74aa63	0.0149332015
140	0xbc45f0ed	-0.012081367
141	0x3cca604f	0.024704127
142	0x3c514863	0.012773606
143	0xbdb9330c	-0.090429395
144	0xbbc59dbc	-0.0060307663
145	0xbc1cfaa0	-0.009581238
146	0xbc842451	-0.016130598
147	0x3d0195c3	0.031636965
148	0x3b8f8f62	0.0043811062
149	0xbc097715	-0.008390208
150	0x3bc161e0	0.00590156
151	0x3d8a2b60	0.067465544
152	0x3cbaa120	0.022781909
153	0x3bc8d7af	0.006129227
154	0xbd4ac10d	-0.049500514
155	0x3d5782df	0.052615043
156	0x3c98c497	0.018648429
157	0xbcdf6a0e	-0.02727225
158	0xbcc551cb	-0.024086853
159	0xbcf2353f	-0.029566405
160	0xbc704594	-0.014665026
161	0xbd0e13b8	-0.034686774
162	0x3d827567	0.06370049
163	0x3bfbec92	0.0076881135
164	0x3d61bf8d	0.055114318
165	0xbcba1311	-0.02271417
166	0x3c3d70cb	0.0115625365
167	0xbce4c89b	-0.027927687
168	0x3cc88695	0.024478236
169	0x3d2a220e	0.041536383
170	0x3d152da3	0.036420476
171	0x3c4d4826	0.012529409
172	0x3ade4fb8	0.0016961014
173	0x3d5a18be	0.053246252
174	0xbc20d840	-0.009817183
175	0xbcb0e67d	-0.02159428
176	0xbc3c659a	-0.011498833
177	0xbc2e79b2	-0.010649132
178	0xbd29f319	-0.0414916
179	0x3c14f47a	0.009091491
180	0x3c951fe1	0.018203678
181	0xbd3fe73d	-0.046851385
182	0xbc49597c	-0.012289401
183	0x3d0721e5	0.03299131
184	0xbceb9b55	-0.028760592
185	0x3cb2f429	0.02184494
186	0x3c522127	0.012825287
187	0x3d8744b9	0.06604905
188	0x3cb6d3a6	0.022317719
189	0x3b736f11	0.0037145058
190	0xbca2fb39	-0.019895183
191	0x3cfe6138	0.031052217
192	0x3b0ad012	0.0021181148
193	0xb9f6260b	-0.0004694912
194	0x3c98fc62	0.018675033
195	0x3d3f149c	0.046650514
196	0x3cf8b6a5	0.03036053
197	0x3c4a8ea7	0.0123631125
198	0xbcfbb708	-0.030726925
199	0x3da68bf0	0.0813216
200	0xbc0f5506	-0.0087482985
201	0xbca86705	-0.020556936
202	0xbcc098f5	-0.023510436
203	0xbc37bc9b	-0.011214401
204	0xbcec41bc	-0.028839938
205	0xbd54b26d	-0.051927973
206	0x3c5faa3f	0.01365143
207	0xbc19421c	-0.009354141
208	0x3d5534d9	0.052052353
209	0x39ad0e10	0.0003300761
210	0xbcc15a8f	-0.023602752
211	0x3cf238ab	0.029568037
212	0x3d106df3	0.035261106
213	0xbd8d0371	-0.06885422
214	0x3b4423f7	0.0029928663
215	0x3d23be29	0.039976273
216	0xbd04780a	-0.03234104
217	0x3d36d4bc	0.044636473
218	0x3d009411	0.031391207
219	0xbd69ded7	-0.057097282
220	0xbc8ddc21	-0.01731688
221	0x3cf58fea	0.02997585
222	0xbd1761a2	-0.036958344
223	0x3d4b06fe	0.049567215
224	0xbc5fb134	-0.013653088
225	0xbd9bed18	-0.076135814
226	0x3d1518bc	0.03640054
227	0x3d0a468a	0.033758678
228	0x3b55a7ad	0.0032601163
229	0xbbf8b989	-0.007590477
230	0x3d090c86	0.03345921
231	0xbcbe1462	-0.023203079
232	0x3b87e5a5	0.004147249
233	0x3c276695	0.010217329
234	0x3c950505	0.01819087
235	0xbd790293	-0.06079347
236	0xbc6749f7	-0.014116756
237	0xbcbcc726	-0.02304418
238	0x3ca5acdf	0.020224033
239	0x39696681	0.00022258797
240	0x3d609f4f	0.05483943
241	0xbc949dc4	-0.018141635
242	0x3c573862	0.013136001
243	0x3cc856b3	0.024455404
244	0xbd291210	-0.04127699
245	0xbd004a9b	-0.03132115
246	0xbcd9cc4f	-0.02658668
247	0xbc318fec	-0.010837536
248	0x3d1a6060	0.037689567
249	0x3d5cbd3c	0.053891405
250	0xbc08d4e5	-0.008351539
251	0xbb397b55	-0.0028302271
252	0x3d7c290f	0.061562594
253	0xbbca6d2f	-0.0061775665
254	0x3d270bcc	0.040782735
255	0x3c11cacd	0.008898449

weight f4 [768]
0	0x3f97acc3	1.1849598
1	0x3f490c55	0.7853444
2	0x3f5f1c6a	0.8715273
3	0x3f67e0a3	0.90577143
4	0x3f89d001	1.0766603
5	0x3f8b5726	1.088597
6	0x3f5df5c8	0.8670316
7	0x3f83d6fb	1.0299982
8	0x3f6dc018	0.92871237
9	0x3f498046	0.78711355
10	0x3f7d40e1	0.9892712
11	0x3f88d0e3	1.0688747
12	0x3f8664c4	1.0499501
13	0x3f84a391	1.0362417
14	0x3f59f43d	0.85138303
15	0x3f650c22	0.8947164
16	0x3f68cdf8	0.90939283
17	0x3f739e17	0.951631
18	0x3f758f9c	0.95922256
19	0x3f6f516c	0.93483615
20	0x3f741f39	0.9536014
21	0x3f5ad29e	0.85477626
22	0x3f757c6a	0.95892966
23	0x3f7b12cc	0.98075557
24	0x3f768efa	0.96311915
25	0x3f87bce1	1.0604516
26	0x3f582a90	0.84439945
27	0x3f60e5d1	0.8785067
28	0x3faa7661	1.3317376
29	0x3f92cd6b	1.1468939
30	0x3f7a4e52	0.9777576
31	0x3f71de39	0.9447971
32	0x3f852f9c	1.0405154
33	0x3f6a25d3	0.91463965
34	0x3f5d1387	0.8635792
35	0x3f80bbe1	1.0057336
36	0x3f60e528	0.87849665
37	0x3f67eb76	0.9059366
38	0x3f6aa442	0.9165689
39	0x3f5d6226	0.8647789
40	0x3f65d0ad	0.8977154
41	0x3f637e2f	0.88864416
42	0x3f858d14	1.0433679
43	0x3f729903	0.9476473
44	0x3f69f0f0	0.91383266
45	0x3f7f15f8	0.99642897
46	0x3f6c4905	0.9229892
47	0x3f6a2842	0.9146768
48	0x3f64de0a	0.89401305
49	0x3f5bfc83	0.8593218
50	0x3f8876f0	1.0661297
51	0x3f5a1dbf	0.8520164
52	0x3f957f1c	1.1679416
53	0x3f651cfe	0.89497364
54	0x3f7d5613	0.98959464
55	0x3f83afa6	1.0287979
56	0x3f62fd4f	0.8866777
57	0x3f601e7a	0.87546504
58	0x3f8ac4cf	1.0841311
59	0x3f850049	1.0390712
60	0x3f822b04	1.0169377
61	0x3f7be038	0.98389006
62	0x3f42a64a	0.76034987
63	0x3f65a5e9	0.89706284
64	0x3f5871d8	0.8454871
65	0x3f833318	1.0249968
66	0x3f7cca5b	0.9874627
67	0x3f6b43f0	0.9190054
68	0x3f6fd479	0.9368358
69	0x3f6ee60a	0.9331976
70	0x3f81a050	1.0127048
71	0x3f6e0595	0.9297727
72	0x3f66f5c0	0.90218735
73	0x3f7b4e4f	0.98166364
74	0x3f831ed6	1.0243785
75	0x3f8af1b1	1.0855008
76	0x3f9c8f74	1.2231278
77	0x3f7349d1	0.9503451
78	0x3f862973	1.0481399
79	0x3f6244fe	0.88386524
80	0x3f6fa275	0.93607265
81	0x3f42b5f2	0.76058877
82	0x3f9dbff6	1.2324207
83	0x3f802d36	1.0013797
84	0x3f8f06ff	1.117401
85	0x3f720158	0.945333
86	0x3f70220a	0.9380194
87	0x3f6de491	0.9292689
88	0x3f82fa99	1.0232726
89	0x3f63c4a4	0.88971925
90	0x3f6607af	0.89855474
91	0x3f84a6c4	1.0363393
92	0x3f7d09e4	0.98843217
93	0x3f831fb4	1.024405
94	0x3f92aeb1	1.1459562
95	0x3f6ae370	0.9175329
96	0x3f839b93	1.0281852
97	0x3f7dac19	0.99090725
98	0x3f81bc5b	1.0135607
99	0x3f7c438b	0.9854056
100	0x3f65f04e	0.898198
101	0x3f772086	0.96534
102	0x3f5b9a61	0.8578244
103	0x3f656684	0.8960955
104	0x3f7b8787	0.98253673
105	0x3f6dc588	0.92879534
106	0x3f82aa2b	1.0208181
107	0x3f6ba450	0.92047596
108	0x3f7708bc	0.964977
109	0x3f7ff588	0.99984026
110	0x3f89a9b1	1.0754911
111	0x3f72933a	0.947559
112	0x3f86b226	1.0523117
113	0x3f840a7e	1.0315702
114	0x3f4a0ade	0.7892283
115	0x3f67bf31	0.9052611
116	0x3f886c3e	1.0658033
117	0x3f729efa	0.9477383
118	0x3f7a5e28	0.9779992
119	0x3f6c8276	0.9238657
120	0x3f6cf165	0.9255584
121	0x3f6d12c6	0.9260677
122	0x3f6d50fb	0.9270169
123	0x3f55b034	0.8347199
124	0x3f6b89b3	0.9200699
125	0x3f82a98b	1.020799
126	0x3f7dac22	0.9909078
127	0x3f71f864	0.9451964
128	0x3f71b9b7	0.94424003
129	0x3f6e5645	0.93100387
130	0x3f79408e	0.9736413
131	0x3f73aff4	0.9519036
132	0x3f6ff959	0.9373985
133	0x3f4f5b17	0.8099837
134	0x3f8cfbff	1.1014403
135	0x3f5d6b1b	0.86491555
136	0x3f80d155	1.0063883
137	0x3f8546c2	1.0412219
138	0x3f834bcf	1.025751
139	0x3f79f1d4	0.97634625
140	0x3f81d730	1.0143795
141	0x3f853229	1.0405933
142	0x3f6f906c	0.93579745
143	0x3f7242fd	0.94633466
144	0x3f791709	0.97300774
145	0x3f6fc690	0.9366236
146	0x3f64f34b	0.89433736
147	0x3f6bf00f	0.92163175
148	0x3f75ae7f	0.95969385
149	0x3f6979d8	0.91201544
150	0x3f82bad3	1.0213264
151	0x3f4f2697	0.8091826
152	0x3f847149	1.0347072
153	0x3f7e0b0e	0.9923562
154	0x3f5df80d	0.8670662
155	0x3f8e57de	1.1120565
156	0x3f7dd754	0.9915669
157	0x3f819dd2	1.0126288
158	0x3f7fcb70	0.99919796
159	0x3f8922b1	1.0713712
160	0x3f806fad	1.0034081
161	0x3f73f540	0.95296097
162	0x3f91deee	1.1396158
163	0x3f7f322f	0.9968595
164	0x3f8f9fe7	1.1220673
165	0x3f634d8c	0.887902
166	0x3f771429	0.96515137
167	0x3f84b7c7	1.0368584
168	0x3f6d0b19	0.9259506
169	0x3f7c6c78	0.9860301
170	0x3f5d4943	0.86439914
171	0x3f61908b	0.8811118
172	0x3f74ff98	0.95702505
173	0x3f8c89ad	1.0979515
174	0x3f720a68	0.9454713
175	0x3f779ad7	0.9672064
176	0x3f89364d	1.0719696
177	0x3f792bb7	0.9733233
178	0x3f879ad5	1.0594126
179	0x3f81c94b	1.0139555
180	0x3f846019	1.0341827
181	0x3f6927df	0.91076463
182	0x3f80325f	1.0015372
183	0x3f80193c	1.0007701
184	0x3f8e682f	1.1125544
185	0x3f633391	0.8875056
186	0x3f78b137	0.9714541
187	0x3f4ca1c5	0.7993434
188	0x3f6d474c	0.92686915
189	0x3f7a2ea4	0.9772742
190	0x3f82c644	1.0216756
191	0x3f808ced	1.0043007
192	0x3f7ec782	0.99523175
193	0x3f721ccb	0.94575185
194	0x3f723eba	0.94626963
195	0x3f5b1c92	0.8559047
196	0x3f797bb1	0.97454363
197	0x3f7fa19a	0.9985596
198	0x3f739887	0.95154613
199	0x3f8f9d75	1.1219927
200	0x3f647115	0.8923505
201	0x3f86cbd7	1.0530957
202	0x3f78466d	0.9698246
203	0x3f7789ed	0.96694833
204	0x3f67ba5b	0.9051873
205	0x3f8ed7f0	1.1159649
206	0x3f7a5966	0.9779266
207	0x3f77b27f	0.9675674
208	0x3f928bfd	1.1448971
209	0x3f84679d	1.034412
210	0x3f6d0bfe	0.92596424
211	0x3f756562	0.9585782
212	0x3f956f6e	1.1674631
213	0x3f42cfc0	0.7609825
214	0x3f7b8b25	0.9825919
215	0x3f6cb5d9	0.9246498
216	0x3f6c736f	0.9236364
217	0x3f89c8e8	1.0764437
218	0x3f6a2f53	0.9147846
219	0x3f8bd11e	1.0923193
220	0x3f70e090	0.94092655
221	0x3f75245b	0.957586
222	0x3f89272e	1.0715082
223	0x3f84bab8	1.0369482
224	0x3f6452aa	0.89188635
225	0x3f6b1a0c	0.9183662
226	0x3f85b1b9	1.0444862
227	0x3f6ee81a	0.9332291
228	0x3f5f667e	0.87265766
229	0x3f811d6d	1.0087105
230	0x3f7dcb9b	0.991388
231	0x3f87a44b	1.0597013
232	0x3f803060	1.0014763
233	0x3f77be63	0.9677488
234	0x3f836422	1.0264933
235	0x3f4f4882	0.80970013
236	0x3f6f2087	0.9340901
237	0x3f853cff	1.040924
238	0x3f85853b	1.0431284
239	0x3f803d80	1.0018768
240	0x3f86dc62	1.0536005
241	0x3f774c7b	0.96601075
242	0x3f63461c	0.88778853
243	0x3f7fe373	0.99956435
244	0x3f5536ae	0.8328656
245	0x3f596f1c	0.84935164
246	0x3f6a8e98	0.9162383
247	0x3f8237c4	1.0173268
248	0x3f87740e	1.0582292
249	0x3f844481	1.0333406
250	0x3f803ada	1.001796
251	0x3f72253c	0.94588065
252	0x3f60cb6d	0.87810403
253	0x3f710f3d	0.94163877
254	0x3f5ac86a	0.8546206
255	0x3f8270d7	1.0190686

bias f4 [768]
0	0x3e4ca3e4	0.19984394
1	0xbe21831c	-0.1577267
2	0xbdb6f633	-0.089336775
3	0x3dc6b076	0.09701626
4	0xbde937ca	-0.11387594
5	0xbe2d2618	-0.16909063
6	0xbd85fae0	-0.06541991
7	0x3d9f2c0b	0.077720724
8	0x3ca51a2b	0.02015408
9	0x3e3a2c14	0.18180877
10	0x3c05dcde	0.008170335
11	0x3d94c8d4	0.072648674
12	0x3d1a3c1c	0.03765498
13	0xbc24a235	-0.010048439
14	0x3de699ff	0.11259841
15	0xbd375e25	-0.044767518
16	0xbe4bffbf	-0.19921778
17	0xbcd1d8cd	-0.025616074
18	0x3ca0988d	0.019603992
19	0xbd86c4db	-0.06580516
20	0x3cbb60c6	0.022873294
21	0xbe0b6842	-0.1361399
22	0x3c4a2e19	0.012340092
23	0x3c6f484c	0.014604639
24	0x3cb5338f	0.022119312
25	0x3d6678e4	0.056267634
26	0xbe1783ae	-0.14796326
27	0x3cce57de	0.025188383
28	0xbe9c6076	-0.30542344
29	0x3e2c756a	0.16841665
30	0xbdce1a61	-0.10063625
31	0x3d1fb296	0.038988672
32	0xbd5fbc1d	-0.05462276
33	0xbd5df2f4	-0.054186776
34	0xbd30ff9a	-0.04321251
35	0xbd69ea04	-0.05710794
36	0xbe938355	-0.28811136
37	0xbcfcf929	-0.030880528
38	0x3cef09d2	0.029179487
39	0xbdd6a79a	-0.10481186
40	0x3e44adf6	0.19206986
41	0xbd94c701	-0.072645195
42	0x3d831445	0.064003505
43	0x3d54a4f0	0.05191511
44	0xbdbf73cf	-0.093482606
45	0xbd503ec7	-0.05084112
46	0xbd1b3b74	-0.037898496
47	0xbc10690e	-0.0088141095
48	0xbd5c64df	-0.053807136
49	0x3d890300	0.06690025
50	0x3d5fbe6a	0.054624952
51	0xbdd672e2	-0.10471131
52	0x3e955956	0.2916972
53	0x3d9485a6	0.07252054
54	0xbd071374	-0.032977536
55	0x3e24071f	0.16018341
56	0x3e355e66	0.17711791
57	0xbdf4e0bf	-0.119569294
58	0x3e00e009	0.12585463
59	0x3d5a673b	0.053321104
60	0xbd072d8e	-0.03300243
61	0xbc93c539	-0.018038379
62	0xbe5535fd	-0.20821376
63	0x3da79819	0.08183307
64	0x3df513c9	0.11966664
65	0xbc7f1881	-0.015569807
66	0x3d21a546	0.039464258
67	0x3d61bc0e	0.055110984
68	0xbc5849e2	-0.013201209
69	0xbdac7417	-0.0842058
70	0xbd8dff31	-0.069334395
71	0xbd23a1a9	-0.039949093
72	0xbd0e0dec	-0.034681246
73	0xbd9c5ed1	-0.07635272
74	0x3d1de3b9	0.03854725
75	0x3e02273b	0.12710278
76	0x3e658470	0.22413802
77	0xbcdec81c	-0.027195029
78	0x3d7376ca	0.059439458
79	0xbe092d1e	-0.13396117
80	0x3d876588	0.066111624
81	0x3e5ba0e8	0.214481
82	0x3e7aff8e	0.24511549
83	0xbc4d899a	-0.012545014
84	0x3e00e81d	0.12588544
85	0x3b95f08f	0.004575796
86	0xbd5f7989	-0.054559264
87	0xbb49e528	-0.0030806754
88	0x3dc86f1c	0.097868174
89	0x3d74a67e	0.05972909
90	0x3cc3d80a	0.023906726
91	0x3d54ed7d	0.0519843
92	0x3d70da66	0.05880203
93	0xbd4d9a73	-0.050196122
94	0xbe2f8251	-0.17139556
95	0xbdc8e06e	-0.098084316
96	0x3d89ad0c	0.06722459
97	0xbda47254	-0.08029619
98	0xbde636a6	-0.11240892
99	0x3c519c24	0.0127935745
100	0xbd94c7ba	-0.07264657
101	0xbd4210f6	-0.047379456
102	0x3dcb519b	0.099276744
103	0x3da6f7fc	0.08152768
104	0x3c976086	0.018478643
105	0x3d6ad403	0.057331096
106	0x3d065e77	0.032804932
107	0xbd1b989a	-0.03798733
108	0x3d168431	0.03674716
109	0x3d27c900	0.040963173
110	0x3dfe7547	0.12424713
111	0xbe028bb6	-0.12748608
112	0xbe499a68	-0.19687808
113	0x3e1fa187	0.15588962
114	0xbe490027	-0.19628964
115	0xbcd4b1fc	-0.025963776
116	0xbe20cf38	-0.15704048
117	0x3cef3fd0	0.029205233
118	0xbccf5c65	-0.025312612
119	0xbd44204d	-0.047882367
120	0xbd96c9f0	-0.07362735
121	0x3c2746ff	0.010209798
122	0x3d10c703	0.035346042
123	0xbddc30c9	-0.107514925
124	0xbd8aac91	-0.06771196
125	0x3d92a3ee	0.07160173
126	0xbca3d122	-0.019997183
127	0xbc50ceeb	-0.012744646
128	0x3d3a8d96	0.045545183
129	0x3d02534f	0.03181773
130	0x3d1e79f4	0.038690522
131	0x3d464359	0.04840407
132	0x3ca2b0f8	0.019859776
133	0x3d85d175	0.065340914
134	0xbe44119b	-0.19147341
135	0x3e00ac02	0.12565616
136	0xbda23734	-0.079206854
137	0xbd61954c	-0.05507402
138	0x3d8ec5a4	0.06971291
139	0x3cec305a	0.02883165
140	0xbcb063ea	-0.021532018
141	0x3d177a60	0.03698194
142	0x3d6b0bcf	0.05738431
143	0xbe67351e	-0.22578856
144	0x3cd2f503	0.025751596
145	0xbcb2c9a9	-0.021824675
146	0x3c04b17a	0.008098954
147	0x3d920e14	0.071315914
148	0xbcba19a4	-0.022717305
149	0x3c3e760a	0.011624822
150	0xbced0aeb	-0.02893587
151	0x3e37072c	0.1787383
152	0x3d7c0f23	0.061537873
153	0x3d1585e8	0.036504656
154	0xbe038693	-0.12844305
155	0x3e06794f	0.13132213
156	0x3821f527	3.8613707e-05
157	0xbd00fdc3	-0.031492006
158	0xbd4f1bec	-0.050563738
159	0xbde59bb3	-0.11211338
160	0xbc97c028	-0.018524244
161	0xbdab3d89	-0.08361346
162	0x3e2074b3	0.15669517
163	0x3cbfaae9	0.023396926
164	0x3e02a150	0.12756848
165	0xbd87caa8	-0.066304505
166	0x3b37a44c	0.0028021513
167	0xbd33dfd1	-0.04391462
168	0x3d5010dc	0.05079733
169	0x3e093363	0.13398509
170	0x3e0fb5c4	0.14034182
171	0x3d270a86	0.04078152
172	0xbc6eda63	-0.014578435
173	0x3df9b284	0.12192252
174	0xbce80797	-0.028323932
175	0xbd075b6d	-0.033046175
176	0xbd9c4bd0	-0.076316476
177	0x3b54f9ab	0.0032497447
178	0xbdefef95	-0.117156185
179	0x3bb33982	0.005469502
180	0x3cd75f2f	0.026290504
181	0xbdacbf9e	-0.084349856
182	0xbd56b814	-0.052421644
183	0x3d45075c	0.04810272
184	0xbdf9ed7b	-0.12203499
185	0x3db40c7a	0.08791442
186	0x3b4405ba	0.002991064
187	0x3e0c1702	0.13680652
188	0x3d6ba893	0.05753381
189	0x3c4e26c6	0.0125824865
190	0xbca9ae74	-0.020713069
191	0x3d724f81	0.059157852
192	0xbb89d51b	-0.0042063124
193	0x3c49b294	0.012310643
194	0x3d5f346c	0.054493353
195	0x3decbd66	0.115595624
196	0x3dcdceec	0.10049233
197	0x3c68cb19	0.0142085785
198	0xbd119cff	-0.035550114
199	0x3e666991	0.22501208
200	0x3cc5edf9	0.024161326
201	0xbd817f8e	-0.06323157
202	0xbd34635e	-0.044040076
203	0xbdb109ba	-0.08644433
204	0xbd3633e1	-0.04448307
205	0xbe0b41ee	-0.13599369
206	0xbc62afe1	-0.013835878
207	0xbcd2329a	-0.025658894
208	0x3e174335	0.14771731
209	0x3a0a7132	0.00052811496
210	0xbd719c1c	-0.058986768
211	0x3daaa918	0.08333033
212	0x3e21f981	0.15817834
213	0xbe301cb1	-0.17198445
214	0x3c86e477	0.016466362
215	0x3d709963	0.05874003
216	0xbdc5189a	-0.09623833
217	0x3dae464f	0.08509504
218	0x3d6240a2	0.05523742
219	0xbdd6cf37	-0.10488742
220	0xbd36eac9	-0.044657502
221	0x3cd77b43	0.026303893
222	0xbdd32126	-0.10309057
223	0x3dd575e3	0.10422876
224	0xbd268fef	-0.04066461
225	0xbe1e8dec	-0.15483826
226	0x3dc49967	0.09599572
227	0x3d84ac54	0.064781815
228	0x3d283327	0.041064408
229	0x3cfca7e7	0.03084178
230	0x3d93d2f8	0.072179735
231	0xbda604a9	-0.081063576
232	0x3bc46d31	0.005994462
233	0x3c850d19	0.016241597
234	0x3dc3d136	0.09561388
235	0xbe5f3ea6	-0.21801242
236	0xbcadb8cf	-0.021206288
237	0xbd83045d	-0.063973166
238	0x3d4328b2	0.047646232
239	0xbc209287	-0.00980056
240	0x3e0429ef	0.12906621
241	0xbcb767bd	-0.022388333
242	0x3d197cf3	0.037472676
243	0x3d3e614b	0.046479505
244	0xbdee3134	-0.116304785
245	0xbdc448c9	-0.09584195
246	0xbdb9cd43	-0.09072354
247	0xbd381401	-0.044940952
248	0x3dab11d3	0.08353009
249	0x3dff3711	0.12461675
250	0xbc591dd0	-0.013251737
251	0x3be6ec5f	0.0070472206
252	0x3de7715f	0.11300921
253	0x3b14daa7	0.0022713335
254	0x3dd3922d	0.10330615
255	0x3cf39dd6	0.029738348

weight f4 [768]
0	0x3f7d7ac1	0.9901543
1	0x3f852506	1.0401924
2	0x3f81985e	1.0124624
3	0x3f7a26c2	0.9771539
4	0x3f80cd1b	1.0062593
5	0x3f734c58	0.95038366
6	0x3f51ce84	0.8195574
7	0x3f6fad36	0.93623674
8	0x3f8e2946	1.1106346
9	0x3f48371b	0.78209084
10	0x3f79ade5	0.97530967
11	0x3f71df37	0.94481224
12	0x3f643785	0.89147216
13	0x3f919ff4	1.1376939
14	0x3f8c8bdf	1.0980185
15	0x3f952b47	1.1653832
16	0x3f745b94	0.9545224
17	0x3f7795d5	0.96713
18	0x3f7f58cf	0.99744886
19	0x3f73d2a8	0.9524331
20	0x3f87950a	1.0592358
21	0x3f8923ad	1.0714012
22	0x3f6f0809	0.93371636
23	0x3f8f13f3	1.1177963
24	0x3f85d92e	1.0456903
25	0x3f6376c0	0.88853073
26	0x3f8841ab	1.064504
27	0x3f8156bf	1.0104598
28	0x3f870f7c	1.05516
29	0x3f615ac0	0.880291
30	0x3f7b2605	0.9810489
31	0x3f7dda91	0.9916163
32	0x3f74f5d3	0.956876
33	0x3f684df9	0.90743977
34	0x3f6929b9	0.9107929
35	0x3f7e3b29	0.9930902
36	0x3f76e4ab	0.9644267
37	0x3f852a00	1.0403442
38	0x3f728869	0.94739395
39	0x3f484b27	0.78239673
40	0x3f78eb59	0.9723411
41	0x3f863c16	1.0487087
42	0x3f8114b4	1.0084443
43	0x3f696026	0.91162336
44	0x3f73d812	0.9525157
45	0x3f644ace	0.8917664
46	0x3f651116	0.89479196
47	0x3f5d0cb4	0.8634751
48	0x3f7662c3	0.9624445
49	0x3f7acaaa	0.9796549
50	0x3f8a7211	1.081606
51	0x3f68f31d	0.9099596
52	0x3f91cf42	1.1391375
53	0x3f6aeff0	0.91772366
54	0x3f8fe331	1.1241208
55	0x3f8a9f56	1.0829875
56	0x3f684bb8	0.9074054
57	0x3f70cf18	0.94066
58	0x3f67344a	0.9031416
59	0x3f8e6457	1.1124371
60	0x3f4da59e	0.80330837
61	0x3f6873bb	0.9080159
62	0x3f8402df	1.0313376
63	0x3f60c7d7	0.8780493
64	0x3f71f5fc	0.9451597
65	0x3f72c3ca	0.9483
66	0x3f6f320b	0.93435735
67	0x3f6aae33	0.91672057
68	0x3f80f79e	1.0075567
69	0x3f7a65bc	0.97811484
70	0x3f8a455f	1.080242
71	0x3f70ad89	0.94014794
72	0x3f73a298	0.95169973
73	0x3f72d6ee	0.94859207
74	0x3f598ff7	0.849853
75	0x3f7c3f67	0.98534244
76	0x3f82154c	1.0162749
77	0x3f8bea8c	1.0930953
78	0x3f6e4671	0.93076235
79	0x3f5cba3f	0.8622169
80	0x3f8018ab	1.0007528
81	0x3f7f7154	0.997823
82	0x3f7fcbc3	0.9992029
83	0x3f85ef46	1.0463645
84	0x3f843006	1.0327156
85	0x3f8b286e	1.0871713
86	0x3f8052c4	1.0025258
87	0x3f557f08	0.8339696
88	0x3f740aaf	0.953288
89	0x3f730630	0.94931316
90	0x3f824ba2	1.0179331
91	0x3f863735	1.0485598
92	0x3f7b1e36	0.98092973
93	0x3f7e77b8	0.99401426
94	0x3f8328cd	1.0246826
95	0x3f7c4abc	0.98551536
96	0x3f81a08a	1.0127118
97	0x3f770f1a	0.9650742
98	0x3f7f6a19	0.9977127
99	0x3f870ed2	1.0551398
100	0x3f79ffe6	0.97656095
101	0x3f7a2ac3	0.977215
102	0x3f698512	0.91218674
103	0x3f825716	1.0182827
104	0x3f7c7d79	0.98628956
105	0x3f7b1d60	0.980917
106	0x3f77642f	0.96637243
107	0x3f832203	1.0244755
108	0x3f7903d2	0.97271454
109	0x3f812129	1.0088245
110	0x3f453b23	0.7704336
111	0x3f82e41f	1.0225867
112	0x3f8afde4	1.0858731
113	0x3f6612fc	0.8987272
114	0x3f92622e	1.1436212
115	0x3f6b6058	0.91943884
116	0x3f598eca	0.84983504
117	0x3f6a7d9f	0.9159793
118	0x3f793e07	0.9736027
119	0x3f82225d	1.0166737
120	0x3f84101b	1.0317415
121	0x3f831284	1.0240026
122	0x3f6fcd31	0.9367247
123	0x3f77e425	0.96832496
124	0x3f88d41c	1.0689731
125	0x3f839594	1.0280023
126	0x3f89c32d	1.0762688
127	0x3f81da53	1.0144752
128	0x3f906791	1.1281606
129	0x3f784dfb	0.9699399
130	0x3f629abc	0.88517356
131	0x3f82dfbc	1.0224528
132	0x3f6c93da	0.92413104
133	0x3f87e27b	1.0615991
134	0x3f814e00	1.0101929
135	0x3f83a627	1.0285081
136	0x3f81b000	1.0131836
137	0x3f865406	1.0494392
138	0x3f885a0b	1.0652479
139	0x3f4dc77f	0.8038253
140	0x3f8a1983	1.0789036
141	0x3f7892c4	0.97098947
142	0x3f84a995	1.0364252
143	0x3f74ffd2	0.9570285
144	0x3f8304de	1.023586
145	0x3f845118	1.0337248
146	0x3f828ac0	1.0198593
147	0x3f751b81	0.9574509
148	0x3f74b2eb	0.9558551
149	0x3f7fe05c	0.9995172
150	0x3f6806f3	0.90635604
151	0x3f74e40d	0.9566048
152	0x3f81c187	1.0137185
153	0x3f87582f	1.0573786
154	0x3f6ed94f	0.93300337
155	0x3f8380cf	1.0273684
156	0x3f896d90	1.0736561
157	0x3f7ab3e2	0.9793073
158	0x3f7697ad	0.9632519
159	0x3f5581d7	0.83401245
160	0x3f8fd4c2	1.1236804
161	0x3f6fa13f	0.93605417
162	0x3f8a7a36	1.0818546
163	0x3f82477f	1.0178069
164	0x3f93d8f1	1.155058
165	0x3f8395ae	1.0280054
166	0x3f9588fe	1.1682432
167	0x3f5ef4f1	0.870925
168	0x3f721c42	0.9457437
169	0x3f82980a	1.0202649
170	0x3f648809	0.89270073
171	0x3f619ec2	0.8813287
172	0x3f7ecb96	0.995294
173	0x3f9bce8a	1.2172406
174	0x3f76728b	0.9626853
175	0x3f82329a	1.0171692
176	0x3f8bc3eb	1.0919164
177	0x3f8061e9	1.002988
178	0x3f75bb74	0.95989156
179	0x3f819c2e	1.0125787
180	0x3f8ac1d6	1.0840404
181	0x3f898024	1.074223
182	0x3f832cda	1.0248063
183	0x3f81e47d	1.0147854
184	0x3f711024	0.94165254
185	0x3f9316dc	1.1491351
186	0x3f673b31	0.90324694
187	0x3f842b2d	1.0325676
188	0x3f664936	0.8995546
189	0x3f7d0ca5	0.9884742
190	0x3f7a6924	0.9781668
191	0x3f6e7537	0.93147606
192	0x3f78d118	0.9719405
193	0x3f80e24c	1.006906
194	0x3f80e1bc	1.0068889
195	0x3f77f27a	0.96854365
196	0x3f6f2adc	0.93424773
197	0x3f8ef1bc	1.1167521
198	0x3f6d793f	0.9276313
199	0x3f5896ad	0.84604913
200	0x3f879279	1.0591575
201	0x3f84abb6	1.0364902
202	0x3f7bcc03	0.9835817
203	0x3f7c501d	0.98559743
204	0x3f80b6e5	1.0055815
205	0x3f8eeae7	1.1165437
206	0x3f5bbd3b	0.8583562
207	0x3f676ea4	0.904032
208	0x3f622ec2	0.88352597
209	0x3f878f9e	1.0590703
210	0x3f85fc9e	1.0467718
211	0x3f73eef6	0.952865
212	0x3f8c1a48	1.094552
213	0x3f841f04	1.0321965
214	0x3f813a7f	1.0095977
215	0x3f66a557	0.9009604
216	0x3f83ab50	1.0286655
217	0x3f75d515	0.9602826
218	0x3f883cae	1.0643518
219	0x3f790287	0.9726948
220	0x3f79985b	0.974981
221	0x3f81e87c	1.0149074
222	0x3f7da02e	0.9907254
223	0x3f89b997	1.0759763
224	0x3f803da0	1.0018806
225	0x3f7df787	0.9920582
226	0x3f569972	0.8382789
227	0x3f765194	0.9621823
228	0x3f791b18	0.97306967
229	0x3f8bccc3	1.0921863
230	0x3f8196e8	1.0124178
231	0x3f8c31e6	1.0952728
232	0x3f8511f6	1.0396106
233	0x3f4b56f5	0.7942956
234	0x3f909076	1.1294086
235	0x3f795a79	0.97403675
236	0x3f806640	1.0031204
237	0x3f8271e6	1.0191009
238	0x3f63648b	0.8882529
239	0x3f56ba79	0.83878285
240	0x3f669c1e	0.90081966
241	0x3f6fe455	0.9370778
242	0x3f81cb7b	1.0140222
243	0x3f7b0536	0.98054826
244	0x3f622e7d	0.88352185
245	0x3f78c6db	0.9717843
246	0x3f7a4239	0.977573
247	0x3f5f5774	0.8724282
248	0x3f71df8f	0.9448175
249	0x3f8fbdfa	1.1229851
250	0x3f46194d	0.77382356
251	0x3f656b14	0.89616513
252	0x3f6037a9	0.8758493
253	0x3f670d48	0.9025464
254	0x3f550496	0.8321012
255	0x3f71c099	0.94434506

bias f4 [768]
0	0x3d41ce75	0.047316033
1	0x3d1e7678	0.0386872
2	0x3cd87f19	0.026427792
3	0x3c33c70e	0.010972751
4	0x3cb11a24	0.02161891
5	0x3d0ff5ae	0.035146408
6	0xbe4264fa	-0.18983832
7	0xbc8bd387	-0.017068638
8	0x3ad448b2	0.0016195981
9	0x3e63cb5e	0.22245547
10	0xbcf37326	-0.029717993
11	0xbd0bbebe	-0.034117453
12	0xbd576a3a	-0.05259154
13	0xbda72868	-0.08162004
14	0xbdaf948e	-0.085732564
15	0x3e245d61	0.16051246
16	0xbda8ad03	-0.08236124
17	0x3ceb74b3	0.02874217
18	0x3a4ada27	0.00077381957
19	0xbd1538dc	-0.03643118
20	0x3dc3b969	0.095568486
21	0x3e014280	0.12623024
22	0xbd6e3632	-0.058157153
23	0xbdeefa1f	-0.116688006
24	0x3d7e4bb9	0.062083934
25	0xbdc3955c	-0.095499724
26	0x3d7a27a6	0.061072968
27	0xbda23137	-0.07919543
28	0xbd413166	-0.04716625
29	0xbddeea99	-0.1088459
30	0xbd0ea00d	-0.034820605
31	0xbc4aa962	-0.012369486
32	0xbb07547f	-0.0020649729
33	0xbdb5c87d	-0.08876131
34	0xbdad7748	-0.08470017
35	0xbc427228	-0.011868037
36	0x3c9da9e5	0.019246051
37	0xbdc13a6c	-0.09434971
38	0x3d01d686	0.031698726
39	0xbe38fddc	-0.1806559
40	0x3e0603ed	0.13087435
41	0x3d09696c	0.033547804
42	0x3c98261d	0.018572861
43	0x3de6a8e4	0.11262682
44	0x3cf68cc0	0.030096412
45	0x3db15357	0.08658474
46	0xbdb350db	-0.08755656
47	0x3e20651f	0.15663575
48	0x3daefe9a	0.08544655
49	0xbdada8be	-0.08479451
50	0x3e3a5027	0.18194638
51	0xbd6fdd77	-0.058560815
52	0x3e2fb8ee	0.17160389
53	0x3dd08fa8	0.1018365
54	0xbe088123	-0.13330512
55	0x3dbdf095	0.09274403
56	0x3d03df76	0.03219553
57	0xbd620718	-0.055182546
58	0xbde30549	-0.110849924
59	0x3dbce088	0.092225134
60	0x3e351548	0.176839
61	0xbe0497ec	-0.12948579
62	0x3cf1137a	0.029428232
63	0x3e18ce40	0.14922428
64	0x3c9409c0	0.018071055
65	0x3d20db77	0.039271798
66	0xbd599ee3	-0.05313004
67	0x3d8a2bd8	0.06746644
68	0xbcf2313c	-0.029564492
69	0x3d97df46	0.07415633
70	0xbde4dde1	-0.111751325
71	0xbc9b7298	-0.018975541
72	0xbda898a1	-0.08232237
73	0xbc8707f3	-0.016483283
74	0x3e2f6976	0.17130074
75	0x3c669766	0.014074182
76	0x3c756bc5	0.014979308
77	0x3dd85db4	0.105647475
78	0xbd8ae612	-0.06782164
79	0xbdcbe2b6	-0.09955351
80	0x3c74289e	0.014902262
81	0xbd750103	-0.059815418
82	0x3a8bc784	0.0010664319
83	0xbd8700c8	-0.06591946
84	0x3dae095c	0.08497879
85	0xbe398b2c	-0.18119496
86	0xbc2b9e69	-0.01047478
87	0x3e189b96	0.14903101
88	0xbd4e1c9d	-0.050320257
89	0x3e1c1d4a	0.15245548
90	0xbc9ef98c	-0.019406103
91	0x3daee985	0.08540634
92	0x3c4690fd	0.012119529
93	0x3b07399d	0.0020633705
94	0xbce76cf6	-0.028250199
95	0xbdd18edb	-0.10232326
96	0x3dda3f1b	0.10656568
97	0xbccd4cc2	-0.025061015
98	0x3ab3ddcd	0.0013722718
99	0x3d7baa2b	0.06144158
100	0xbbe349cc	-0.0069362875
101	0xbc01b7cd	-0.007917357
102	0x3dba62f4	0.09100905
103	0xbd231fc2	-0.03982521
104	0xbd761126	-0.060074948
105	0x3c98c551	0.018648775
106	0xbc1b6abb	-0.009485896
107	0x3d21990f	0.03945261
108	0x3d1b208a	0.03787283
109	0xbd7ed995	-0.06221922
110	0xbe623d4d	-0.22093697
111	0xbe179726	-0.14803752
112	0xbe3477df	-0.17623852
113	0xbd7ae463	-0.061252963
114	0x3e0af947	0.13571654
115	0x3e15cd7e	0.1462917
116	0x3e1be781	0.1522503
117	0xbe186e0b	-0.14885728
118	0xbd902f41	-0.07040263
119	0x3d4bd935	0.04976769
120	0x3d547536	0.051869594
121	0xbd86ee1d	-0.06588385
122	0x3cac4ff4	0.021034218
123	0x3d2ba12d	0.041901756
124	0x3d8326c3	0.064038776
125	0x3d7e1a43	0.062036764
126	0xbdcae626	-0.099071786
127	0x3b253a71	0.0025211836
128	0xbe2fe2f8	-0.17176425
129	0x3ce1d214	0.027565993
130	0x3dad9583	0.08475783
131	0x3cadb705	0.021205435
132	0x3dd18021	0.10229517
133	0xbde195a2	-0.11014868
134	0xbd9269f2	-0.07149114
135	0xbc80d7f9	-0.015727984
136	0xbd07ca31	-0.03315181
137	0xbd52dd6f	-0.051480707
138	0x3d900d78	0.07033819
139	0xbe47a427	-0.19496213
140	0xbd96c4c8	-0.07361752
141	0xbcbc6d4c	-0.023001336
142	0x3ca1faf9	0.019772993
143	0x390a0dc5	0.00013165835
144	0x3c570c84	0.013125543
145	0x3d9ca64a	0.076489046
146	0x3d8bf1ac	0.068332046
147	0xbd4393c1	-0.04774833
148	0xbcef485b	-0.029209306
149	0x3d820b8a	0.06349857
150	0x3dae3353	0.08505883
151	0x3d3762c4	0.044771925
152	0x3c69fd09	0.01428152
153	0x3d8d0039	0.06884808
154	0xbd2e53b0	-0.04256028
155	0x3d3efe63	0.04662932
156	0x3d92a8f0	0.071611285
157	0x38665e32	5.4924e-05
158	0x3c73d86e	0.014883144
159	0x3deb5dbf	0.1149249
160	0xbe2a7fff	-0.16650389
161	0x3d134143	0.03595091
162	0x3da66f5f	0.08126711
163	0x3db09ea0	0.08624005
164	0x3e1cdb25	0.15317972
165	0xbe19ed7c	-0.15032
166	0xbe5d731c	-0.21625942
167	0x3e034c31	0.12822033
168	0x3d9390c9	0.0720535
169	0x3e0e31aa	0.13886133
170	0x3e1b0e0d	0.15142079
171	0x3c6ba747	0.014383144
172	0xbc583a2c	-0.013197463
173	0x3e4be375	0.19910987
174	0x3d7b231d	0.061312784
175	0x3d6dcb94	0.058055475
176	0xbdb53502	-0.08848001
177	0xbb40226d	-0.0029317394
178	0x3cc72b23	0.024312561
179	0x3c90669e	0.017627057
180	0x3db1e38d	0.0868598
181	0x3d9d406e	0.076783046
182	0x3d259044	0.040420786
183	0x3e270ee8	0.1631428
184	0x3d89c7a9	0.06727535
185	0xbe43f3ea	-0.19136015
186	0xbd790f6d	-0.060805727
187	0xbe026be9	-0.12736477
188	0x3d889280	0.06668568
189	0xbceaab9c	-0.028646283
190	0xbba87668	-0.0051410682
191	0xbddbe4ce	-0.107370004
192	0xbdc24f66	-0.094878
193	0xbdcc23fd	-0.09967802
194	0xbc9f30bd	-0.01943242
195	0xbdc47f2b	-0.09594568
196	0xbd89541f	-0.06705498
197	0x3dd21bad	0.10259185
198	0xbd614fb6	-0.05500766
199	0xbe2b0d0b	-0.16704194
200	0x3e1bc15b	0.15210478
201	0xbd42e3e7	-0.047580626
202	0x3c9dd94d	0.019268656
203	0x3da89911	0.0823232
204	0x3d0f38e9	0.034966383
205	0xbe1831f6	-0.14862809
206	0xbe02be5f	-0.12767933
207	0xbcc70956	-0.024296444
208	0xbdb5f208	-0.088840544
209	0x3da0cf65	0.07852057
210	0x3d17cf5d	0.03706299
211	0x3c39f3bb	0.011349614
212	0x3d764c7a	0.060131527
213	0x3d3ae5e4	0.045629397
214	0xbba4a7c4	-0.005024882
215	0x3db19832	0.08671607
216	0x3d68af41	0.05680776
217	0xbd0b5eb8	-0.034025878
218	0xbd555c5a	-0.052090026
219	0x3c9c9dc4	0.019118197
220	0x3c6165b5	0.013757159
221	0xbcafc57e	-0.021456476
222	0xbd4a460c	-0.04938321
223	0x3da49c0a	0.080375746
224	0x3d7be43d	0.06149696
225	0x3cb4b1d8	0.022057459
226	0xbe358784	-0.17727476
227	0x3cc4c56e	0.024019923
228	0xbc9a54a7	-0.018839194
229	0x3d52ab15	0.051432688
230	0xbc57215f	-0.013130515
231	0xbde557fe	-0.11198424
232	0x3cf0819f	0.029358683
233	0xbe4eac58	-0.20182931
234	0x3e592123	0.21204047
235	0x3c068baf	0.008212014
236	0x3d3c8bf7	0.04603192
237	0xbac5b56d	-0.0015083976
238	0xbe08f526	-0.13374767
239	0x3e0b60b7	0.13611113
240	0xbdd881e6	-0.10571651
241	0xbd5bd362	-0.053668387
242	0xbd890f48	-0.06692368
243	0x3d4dee67	0.050276186
244	0xbdd1fb55	-0.10253016
245	0xbc1f134d	-0.0097091915
246	0xbd8397cc	-0.06425437
247	0x3dd18e39	0.10232205
248	0xbd3f4802	-0.04669953
249	0x3e0cf496	0.13765177
250	0x3e3b53ee	0.18293735
251	0xbd84e2d6	-0.06488578
252	0x3e002f59	0.12518062
253	0x3d3b64a6	0.045750283
254	0x3e1dda78	0.1541537
255	0xbd646251	-0.055757824
