subject-models/gabrielleunion2023-05-15T07-30-16_gabrielleunion-ada/checkpoints/embeddings_gs-4500.pt (torch, 921583 bytes, 168 tensors)

pre_vecs f4 [2, 768]
0	0x3c39da27	0.0113435155
1	0xbbc9adaa	-0.0061547356
2	0xbca52a23	-0.020161694
3	0x3baef296	0.005338977
4	0x3a33a844	0.00068533816
5	0x3c72deed	0.014823657
6	0xbaef7543	-0.00182692
7	0xbce80137	-0.028320892
8	0x3c20cc47	0.0098143285
9	0x3bf0a4dc	0.0073438715
10	0x3bd7e26f	0.0065882723
11	0x3b374516	0.0027964762
12	0x3615b2d1	2.2306815e-06
13	0xbb3ca57a	-0.0028785155
14	0x3cac115d	0.021004373
15	0xbc205fe9	-0.009788492
16	0x3ba90213	0.005157718
17	0x3c4e7622	0.012601407
18	0xbb8cc409	-0.00429583
19	0xbbc6b342	-0.0060638497
20	0x3c2e60c1	0.010643185
21	0x3b882fbe	0.004156082
22	0xbb260d91	-0.0025337676
23	0xbc48d92d	-0.01225881
24	0x3b98671d	0.004650964
25	0xbb76bfac	-0.0037650866
26	0xbc8101bc	-0.015747897
27	0xbc37f1d5	-0.011227091
28	0x3bf62a5e	0.007512375
29	0x3cc04cd3	0.023474133
30	0xbbb16bd3	-0.005414465
31	0xba4ee5da	-0.0007892527
32	0xbbc0bba8	-0.0058817454
33	0x3b805f34	0.003917599
34	0x3c4ce461	0.012505622
35	0x3cab0ad1	0.020879181
36	0xbc61a99d	-0.013773349
37	0x3baca286	0.0052683977
38	0xbd3c8606	-0.046026252
39	0x3ce34eab	0.027747473
40	0xbc36a640	-0.0111480355
41	0x3d08bcee	0.033383302
42	0x3aa05a7e	0.0012234
43	0x3c623779	0.013807171
44	0xbb2ab9c5	-0.0026050669
45	0xbc78f49e	-0.01519504
46	0x3c151c1f	0.009100943
47	0xbcbbba89	-0.022916095
48	0xbc1cc36f	-0.009568079
49	0xbd0cce35	-0.03437634
50	0xbbba10bd	-0.005678265
51	0xbb95640a	-0.0045590447
52	0x3c38f78d	0.011289489
53	0xbc5f4d60	-0.0136292875
54	0xbcca466a	-0.02469178
55	0xbc0e3519	-0.008679652
56	0xbb99dfae	-0.004695854
57	0x3b7f7728	0.0038980935
58	0xb9b9407d	-0.00035333997
59	0xbbe2b65f	-0.006918713
60	0x3a912384	0.0011073207
61	0xbba07308	-0.0048965253
62	0xba98cb69	-0.0011657301
63	0xbc242f17	-0.010020993
64	0x3bf50682	0.0074775824
65	0xbc7efddc	-0.0155634545
66	0xbba8514a	-0.0051366435
67	0xbb8cdcfe	-0.0042988053
68	0xbb209770	-0.0024504326
69	0xbce11e7c	-0.027480356
70	0xbb35d73c	-0.0027746698
71	0xbc1707ec	-0.009218197
72	0xbbf00e3d	-0.007325916
73	0x3c25567f	0.010091423
74	0xbc3f5c92	-0.011679785
75	0x3c511a7e	0.012762664
76	0xbc0e7218	-0.008694194
77	0x3c84e4ba	0.016222347
78	0xbcc7cae2	-0.024388734
79	0xbc917cee	-0.017759766
80	0x3c8ebb21	0.017423214
81	0xba6a8f48	-0.0008947742
82	0x3b4e96c3	0.0031522966
83	0xbc7352f9	-0.014851325
84	0xbc6c9f3c	-0.014442261
85	0x3c909097	0.01764707
86	0x3cbe1b01	0.023206236
87	0xbb7d31a9	-0.0038634336
88	0xbc5b235e	-0.013375131
89	0xbbd42b65	-0.0064748996
90	0xb9fc2182	-0.0004809015
91	0x3d0ac663	0.033880603
92	0xbc6285d2	-0.013825851
93	0xbb610114	-0.0034332918
94	0xbbdc41c0	-0.006721705
95	0x3b69aba1	0.0035655277
96	0xbaa27f59	-0.0012397572
97	0x3bb8ee44	0.005643638
98	0xbcc1d250	-0.023659855
99	0x3ce4edfe	0.027945515
100	0xbc0e850c	-0.008698713
101	0xbcc00d62	-0.023443881
102	0xbc98f9a0	-0.018673718
103	0x3c4ae183	0.012382868
104	0xbc919475	-0.017770985
105	0xbac182aa	-0.0014763672
106	0x3c1ba637	0.009500078
107	0xbbeb58c1	-0.007182211
108	0x3b86643f	0.0041013057
109	0xbcdcbf5a	-0.026946712
110	0xbc3518e7	-0.0110533
111	0x3cbb7345	0.022882113
112	0x3a3ed357	0.0007279417
113	0x3c366d1b	0.011134411
114	0x3cdb7b5b	0.026792219
115	0x3bd00f28	0.006349463
116	0xbbd57ffe	-0.006515502
117	0xbbcfaaaa	-0.0063374834
118	0xba22e9b5	-0.00062146346
119	0x3c0c65a7	0.008569158
120	0x3c887901	0.016659262
121	0xbc691984	-0.014227275
122	0xbc3f111d	-0.011661795
123	0x3b762ceb	0.0037563394
124	0x3bef0a3c	0.007294921
125	0xbb3b9b38	-0.0028626453
126	0xbbe3c2f5	-0.006950731
127	0x3c0fcb30	0.008776471
128	0xbcc08bed	-0.023504222
129	0x3c3d3ecf	0.011550619
130	0x3bf291b9	0.0074026254
131	0x3c32e003	0.010917666
132	0x3c7ca528	0.015420236
133	0xbc1212b4	-0.008915592
134	0xbc0abd00	-0.008467913
135	0x3b8a54c1	0.0042215292
136	0xbcaa12de	-0.02076095
137	0xbc24dc68	-0.010062315
138	0x3ce07994	0.027401723
139	0x3cdb375d	0.026759798
140	0xbc97546c	-0.018472873
141	0x3c7929de	0.015207736
142	0xbbfd375e	-0.0077275475
143	0x3b695d9f	0.003560878
144	0x3d0ef6b7	0.034903254
145	0x3c909f8c	0.017654203
146	0x3bf52559	0.007481259
147	0x3c56cdf1	0.013110624
148	0x3c3f5058	0.01167687
149	0xbcd0f9bf	-0.025509713
150	0xbc14f394	-0.009091277
151	0x3d2a7154	0.041611984
152	0xb9af9187	-0.00033487027
153	0x3b20bd0f	0.002452675
154	0x3c9aa1e2	0.01887602
155	0x3a941c76	0.0011299986
156	0x3d334463	0.04376639
157	0xbca0a3de	-0.019609388
158	0x3a0be1b6	0.0005336063
159	0x3b8c36e3	0.004279004
160	0x3c6348fa	0.013872379
161	0x3c40591c	0.011739995
162	0x3c67963f	0.014134943
163	0x3ca298b7	0.01984821
164	0xbcc51858	-0.02405946
165	0x3a43b546	0.00074656715
166	0xbc89b0e3	-0.016807979
167	0xbb9505c7	-0.004547808
168	0xbb0618c2	-0.0020461534
169	0x3c900876	0.01758216
170	0x3be9b23a	0.007131842
171	0x3c784355	0.015152772
172	0x3b6c8863	0.0036092035
173	0x3ca654fe	0.0203042
174	0x3b08a8f0	0.0020852648
175	0xbc2ce5b5	-0.010552813
176	0xbc02c586	-0.007981664
177	0x3a33696f	0.0006844019
178	0xbc21018f	-0.009827032
179	0x3c85e8c2	0.01634634
180	0x3b417504	0.002951921
181	0x3c13a610	0.00901176
182	0x3b88ae5a	0.004171175
183	0xbc5efcb1	-0.013610051
184	0xbbe40c5c	-0.006959481
185	0xbd1345f0	-0.03595537
186	0xbb3f0d42	-0.002915219
187	0x3c006fac	0.007839125
188	0xbca7b921	-0.020474019
189	0x3cb34a72	0.021886084
190	0xbc261141	-0.01013595
191	0x3cdbf2f8	0.026849255
192	0xbc8168e9	-0.015797095
193	0xbb7d9217	-0.0038691813
194	0xbb38994d	-0.0028167546
195	0x3d2037a7	0.039115574
196	0x3cb7e043	0.022445804
197	0x3cd20627	0.0256377
198	0x3c724a11	0.014788167
199	0x3bfd08c1	0.007721991
200	0xbcb52eb6	-0.022117
201	0xbcafca1f	-0.021458684
202	0xbc105448	-0.008809157
203	0xbbef5ce1	-0.007304773
204	0xbbc26dc2	-0.0059334943
205	0x3c73345b	0.0148440255
206	0x3c549aa0	0.012976319
207	0x3c6adc00	0.014334679
208	0x3ce5c3e5	0.028047511
209	0xbb83fee5	-0.0040281885
210	0x3cef7c35	0.029234031
211	0x3c38e4b8	0.011285
212	0xbaeba137	-0.0017977123
213	0x3c8d5452	0.017252121
214	0xbcac3400	-0.02102089
215	0x3b822e31	0.0039727916
216	0xbbc0b69e	-0.0058811447
217	0x3ce9dbb9	0.028547155
218	0x3c432d62	0.011912676
219	0xbc414cd0	-0.011798099
220	0xbcd2a412	-0.025713
221	0xbc383702	-0.011243584
222	0x3a87f61c	0.0010373029
223	0xbd359df1	-0.044340078
224	0x3bfbdfe5	0.0076866024
225	0xb9aad337	-0.00032582294
226	0x3cb49ea0	0.022048295
227	0x3c2aa83f	0.01041609
228	0x3cd83b85	0.026395569
229	0xbc8d25b7	-0.017229898
230	0x3c33711c	0.01095226
231	0xbcf50c1b	-0.029912999
232	0xb974a960	-0.0002333275
233	0xbcf615c8	-0.030039683
234	0xbc6b575a	-0.014364088
235	0xbc0e4e8d	-0.00868572
236	0x3c4bd5cc	0.01244111
237	0xbc2b9ddc	-0.010474648
238	0x3c7245df	0.014787166
239	0xba23282f	-0.00062239444
240	0xbcb501cf	-0.022095589
241	0x3ca76c8d	0.020437503
242	0x3bdec7db	0.006798727
243	0x3bd69f1a	0.006549728
244	0xbc947b36	-0.018125158
245	0x3b2c4c0d	0.0026290447
246	0xbb585999	-0.0033012389
247	0x3cf52dbe	0.029929038
248	0x3cba45c5	0.022738347
249	0x3cb4eaf5	0.022084692
250	0xbcee4f20	-0.029090464
251	0x3b9324e4	0.0044904817
252	0xbc16299a	-0.009165192
253	0xbce46a32	-0.02788267
254	0xbc704337	-0.014664463
255	0xbbb95e8c	-0.005657023

basis_rand_weights f4 [16, 5]
0	0x3e0de5a1	0.13857128
1	0xbd662a6d	-0.056192804
2	0xbe3a4fed	-0.18194552
3	0x3c7de4b2	0.01549642
4	0xbdfc075d	-0.12306092
5	0x3c7e775c	0.015531387
6	0x3d38a862	0.045082457
7	0xbe334e36	-0.17510304
8	0xbd9f1dbb	-0.077693425
9	0x3d860207	0.065433554
10	0xbd0b31a6	-0.033982895
11	0x3d39f382	0.045398243
12	0x3d8c7f0c	0.0686017
13	0x3d0349d8	0.032052845
14	0xbcf807f8	-0.030277237
15	0xbd00431b	-0.031313997
16	0x3d1b683a	0.037941195
17	0xbe15bcfe	-0.14622876
18	0xbe0a203f	-0.13488863
19	0x3d895520	0.067056894
20	0xbd6fb43e	-0.0585215
21	0xbc9bc5fb	-0.019015303
22	0xbd16dd4e	-0.036832146
23	0x3e0dd43f	0.13850497
24	0xbd354eee	-0.044264726
25	0x3e044269	0.12915958
26	0xbe153de4	-0.1457439
27	0xbe03c2bc	-0.12867254
28	0xbdf34654	-0.118786484
29	0xbde2dd18	-0.110773265
30	0x3d161a7c	0.03664635
31	0xbcaeba6b	-0.021329125
32	0xbe0568dd	-0.13028283
33	0x3bdfc26c	0.006828597
34	0xbd922ffe	-0.0713806
35	0xbe1ed430	-0.1551063
36	0x3d4dce01	0.05024529
37	0xbdb0c318	-0.08630961
38	0x3dc6be65	0.097042836
39	0xbb039f61	-0.002008401
40	0xbe40266c	-0.18764657
41	0xbe0450b7	-0.12921415
42	0x3e3c17ab	0.18368404
43	0x3efda228	0.49537778
44	0xbd394ee4	-0.04524125
45	0xbdf38897	-0.11891287
46	0xbd1dad61	-0.038495425
47	0x3e2d77bc	0.16940206
48	0x3e75e659	0.24013652
49	0x3b445b9b	0.0029961828
50	0xbdaa1468	-0.083046734
51	0x3c1df560	0.0096410215
52	0x3e54e5c6	0.20790777
53	0x3ea0bbdc	0.31393325
54	0xbdcfadf6	-0.10140602
55	0x3c2dcffa	0.0106086675
56	0xbdccabbc	-0.09993693
57	0xbe48c822	-0.19607595
58	0x3e38385a	0.17990246
59	0x3dc4b6f9	0.09605212
60	0x3e60ad83	0.2194119
61	0xbe4374e6	-0.19087562
62	0xbe191591	-0.14949633
63	0x3df637a7	0.120223336
64	0xbddba7f2	-0.107253924
65	0xbd77d142	-0.0605023
66	0x3d0d2e4d	0.034467984
67	0xbdf7a916	-0.120927975
68	0x3ddc46af	0.10755669
69	0xbdbaa7f6	-0.09114067
70	0xbd5a121c	-0.053239927
71	0xbd082041	-0.033233885
72	0xbd5e1731	-0.054221336
73	0x3dc41da7	0.09575968
74	0xbe3bf763	-0.1835609
75	0x3e007c2e	0.12547371
76	0xbd8959cd	-0.06706581
77	0xbe0216a1	-0.12703945
78	0x3e5ae5d1	0.2137673
79	0xbd4914d3	-0.049092125

basis_vecs f4 [3, 768]
0	0xbb4ed4ae	-0.0031559872
1	0xbc1b6206	-0.00948382
2	0x3bdd2e36	0.0067498935
3	0xbc18a745	-0.009317224
4	0xbad55556	-0.0016276042
5	0xbbd45551	-0.006479897
6	0xbc107e92	-0.008819239
7	0xbb832e25	-0.0040033036
8	0x3cd883e0	0.02643007
9	0xbc6c0760	-0.014406055
10	0x3be7b917	0.007071625
11	0x3cc5df36	0.024154287
12	0x3d1a3d23	0.03765596
13	0xbbffc0fb	-0.0078049875
14	0xbc1bbf22	-0.009506019
15	0xbc9ed426	-0.01938827
16	0x3bb36418	0.0054745786
17	0xbb66e961	-0.003523432
18	0xbb8f32ba	-0.0043700607
19	0x3a9e8be9	0.001209614
20	0x3ccab0fa	0.024742592
21	0x3ca1c9d4	0.01974956
22	0xbb229f9d	-0.0024814375
23	0x3bd17f4c	0.006393349
24	0x3cf23851	0.02956787
25	0x3c0ba839	0.008523994
26	0x3c67cfff	0.014148711
27	0xbcd60d72	-0.026129458
28	0xbd81a79c	-0.06330797
29	0x3c84f1c1	0.016228558
30	0x3b0359cd	0.002004254
31	0xbc1ac5d4	-0.00944658
32	0x3bfdb69f	0.0077427174
33	0x3d4c3ba3	0.04986156
34	0x3c71d1b7	0.014759473
35	0x3d8300af	0.06396615
36	0x3c2822c4	0.010262195
37	0x3cfe3ee6	0.031035852
38	0xbd0b58dd	-0.034020294
39	0xbbc81833	-0.0061064004
40	0xbc2e37e3	-0.010633442
41	0x3c2951fd	0.010334489
42	0x3d58de9b	0.052946668
43	0xbc4e52f4	-0.01259302
44	0x3c2b1761	0.010442586
45	0xbd28f9d7	-0.04125389
46	0x3c13867c	0.009004232
47	0x3d03e113	0.03219707
48	0x3c3c4f6d	0.011493546
49	0x3bac25ee	0.005253545
50	0x3c1c2aef	0.009531721
51	0x3c438d5d	0.011935559
52	0x3cccad85	0.024985084
53	0x3cc9ffb8	0.024658069
54	0xbd0acfa0	-0.033889413
55	0xbb991e3f	-0.004672795
56	0xbb8ad9d1	-0.0042373915
57	0x3bf37cd2	0.007430651
58	0x3c4d9ba7	0.012549317
59	0x3d040921	0.03223527
60	0xbc570d63	-0.01312575
61	0xbb8046b2	-0.0039146775
62	0xbc4a252c	-0.012337964
63	0xbcc57322	-0.024102751
64	0x3c8880a5	0.016662905
65	0xbc57a02c	-0.013160747
66	0x3d4947d0	0.04914075
67	0xbbaebb8c	-0.005332416
68	0xb9c6605f	-0.00037837305
69	0xbca6e31e	-0.02037197
70	0xbcbe7a3d	-0.023251647
71	0x3c2495eb	0.010045509
72	0xbcde9bf8	-0.027173981
73	0x3cb54527	0.022127701
74	0xbc68b45c	-0.014203157
75	0xbc711f21	-0.014716894
76	0xbcb32ae1	-0.021871032
77	0xbc221915	-0.009893675
78	0xbab674ad	-0.001392027
79	0x3d1827c9	0.037147317
80	0xbcac3014	-0.02101902
81	0xbc8d595d	-0.017254526
82	0x3b72eb34	0.0037066462
83	0xbd1a1064	-0.037613288
84	0x3bd6cdd0	0.0065552965
85	0x3b5572dd	0.0032569685
86	0x3cc5e588	0.0241573
87	0x3c8a0cb5	0.016851762
88	0x3bbfffed	0.005859366
89	0xbc304020	-0.010757476
90	0xbc3be0e2	-0.01146719
91	0xbb0855ff	-0.002080321
92	0x3d49adb4	0.04923792
93	0xbd08fe17	-0.033445444
94	0xbcf97e0f	-0.030455617
95	0xbcb2c362	-0.021821681
96	0xbcbc65c3	-0.022997743
97	0x3c2ffc9a	0.010741377
98	0xbd3a1704	-0.045432106
99	0x3c3220da	0.01087209
100	0xbccae72e	-0.024768438
101	0x3cc2d984	0.02378536
102	0x3aec06cf	0.00180074
103	0x3b197d6b	0.0023420702
104	0xbc7739b7	-0.015089444
105	0xbc19e97e	-0.009394048
106	0x3c8bb43e	0.01705372
107	0x3a83e3d0	0.00100624
108	0xbc75f58d	-0.015012157
109	0xbc90a9d3	-0.017659103
110	0x3c47c314	0.012192506
111	0xbca92027	-0.020645214
112	0xbd2bdf17	-0.041960802
113	0x3d1039d2	0.03521139
114	0x3a629982	0.000864409
115	0xbc232ec3	-0.009959879
116	0xbc742253	-0.014900762
117	0xbccac656	-0.024752777
118	0x3d45d904	0.048302665
119	0x3cbe1323	0.023202484
120	0x3d1f43bc	0.038882956
121	0xbccf2839	-0.025287734
122	0x3c8511c4	0.016243823
123	0x3c3ae78e	0.011407746
124	0x3b74b66e	0.0037340182
125	0xbc075bff	-0.00826168
126	0xbc049d16	-0.008094093
127	0xbc42ef2f	-0.011897846
128	0xbb6388b2	-0.0034718928
129	0xbc3a9c5e	-0.01138982
130	0x3b2a0732	0.002594423
131	0x3a37981b	0.00070035615
132	0xbd1e1f93	-0.03860433
133	0xbb90289b	-0.004399372
134	0xbcb2fc2d	-0.021848762
135	0x3bfa2068	0.0076332577
136	0x3c90d0cc	0.017677687
137	0xbd146089	-0.036224876
138	0x3cc265a4	0.023730107
139	0x3cfd640f	0.0309315
140	0xbd053006	-0.0325165
141	0x3cf1eead	0.029532755
142	0xba96ffc5	-0.0011520317
143	0x3c8f5334	0.017495729
144	0xbc469a82	-0.0121217985
145	0xbc2006eb	-0.009767274
146	0x3cb1c8ce	0.021702196
147	0xbba76f23	-0.005109684
148	0x3d1abd69	0.03777829
149	0xbcc8ed2f	-0.02452716
150	0xbce25bf8	-0.027631745
151	0xbba4c983	-0.005028905
152	0x3c134247	0.00898797
153	0xbd04db25	-0.032435555
154	0xba5cc409	-0.00084215455
155	0xbb46f8c9	-0.003036069
156	0x3cde71fb	0.02715396
157	0xbbef2b73	-0.0072988807
158	0x3d4b53a7	0.049640324
159	0xbc443602	-0.011975767
160	0xbad68a9b	-0.0016368212
161	0x3d1936f8	0.037405938
162	0x3c89be05	0.016814241
163	0x3c92d65d	0.017924482
164	0x3ccba13e	0.02485716
165	0xbca0890b	-0.019596597
166	0xbcd6fc51	-0.02624336
167	0xbc1dd718	-0.009633802
168	0x3b06f986	0.0020595505
169	0xbaa66394	-0.0012694472
170	0x3d02235d	0.031772006
171	0x3d124675	0.035711724
172	0xbd17fb81	-0.037105087
173	0x3d06bfdc	0.032897815
174	0xbbaed56c	-0.0053355005
175	0x3cdd5d04	0.027021892
176	0xbd01cd70	-0.03169006
177	0x3b74b099	0.0037336706
178	0x3d0558d5	0.03255542
179	0xbce701da	-0.028199125
180	0xbbee810b	-0.0072785667
181	0xbbe13eb6	-0.006873931
182	0xbd087473	-0.03331418
183	0xbab1ba5e	-0.001355957
184	0xbbf60701	-0.007508159
185	0xbc5b7499	-0.013394498
186	0x3d137181	0.035996918
187	0x3c2edbda	0.010672534
188	0xbd259ac1	-0.040430788
189	0x3b40c6a8	0.0029415283
190	0xbb409747	-0.0029387043
191	0xbc5189cf	-0.012789204
192	0x3b08d0f1	0.0020876492
193	0xbcaaafee	-0.020835843
194	0xbbd1b9e1	-0.0064003323
195	0xbbadf376	-0.005308564
196	0x3c5ebcd3	0.013594824
197	0x3cfc7b76	0.03082059
198	0x3da5c836	0.08094828
199	0x3c498109	0.012298831
200	0xbc9f3d6a	-0.019438464
201	0xbca9f754	-0.020747818
202	0xb9edf252	-0.00045384705
203	0xbbf2ed49	-0.0074135405
204	0x3d33b21d	0.043871034
205	0x3d3eae5d	0.046553005
206	0x3d3c74b3	0.04600973
207	0xbbea7851	-0.007155456
208	0x3c09ba7b	0.008406277
209	0x3c2283ad	0.009919089
210	0x3d698ccb	0.057019036
211	0x3c38dd95	0.011283298
212	0xbc94864e	-0.018130448
213	0x3c2aef70	0.010433063
214	0x3a1b14ea	0.0005915897
215	0xbcb15266	-0.021645736
216	0xba1db4cf	-0.0006016017
217	0x3d18964d	0.037252713
218	0xbb961bf9	-0.0045809713
219	0xbc2fe4d3	-0.010735708
220	0x3c48d547	0.0122578805
221	0xbd065595	-0.03279646
222	0x3b3c8c28	0.0028770063
223	0xbb675027	-0.0035295577
224	0xbac95277	-0.001535966
225	0x3d04a45a	0.0323833
226	0x3c1834c0	0.00928992
227	0xbc8633b6	-0.01638208
228	0x3c8b6ba7	0.017019106
229	0x3cc239fe	0.023709293
230	0xbd43af9b	-0.047774892
231	0xbc9cec38	-0.019155607
232	0x3d1c28f2	0.038124986
233	0x3b697b78	0.0035626572
234	0x3c65b7da	0.014020884
235	0xbc320ed4	-0.010867793
236	0x3c8264ba	0.01591717
237	0x3bd6ce5a	0.0065553607
238	0x39d3b035	0.0004037634
239	0xbd1cae7e	-0.038252346
240	0xbc0063cc	-0.007836293
241	0x3c9ab65b	0.018885782
242	0xbb2e2c06	-0.0026576533
243	0x3cd1d8f9	0.025616156
244	0x3c35bae7	0.011091924
245	0xbbc5ef2e	-0.0060404753
246	0x3c1cfa96	0.009581229
247	0xbc8a8528	-0.016909197
248	0x3c3ed1f1	0.011646734
249	0x3d3ffe52	0.046873398
250	0xbcceb4ee	-0.025232758
251	0x3cdd3631	0.02700338
252	0xbccca24c	-0.024979733
253	0xbc556b14	-0.013026018
254	0xbc6d4a75	-0.014483084
255	0xbcca5e85	-0.024703274

basis_comm_weights f4 [1, 5]
0	0x3e45c098	0.1931175
1	0x3f0acc89	0.54218346
2	0x3e4b8d67	0.1987816
3	0x3f05feaa	0.5234171
4	0x3e267395	0.16255029

bias f4 [16, 768]
0	0x3d5e67bc	0.054298148
1	0x3d07bcce	0.033139043
2	0xbc27d4fb	-0.01024365
3	0x3c5ecdd4	0.013598878
4	0x3cc71702	0.024302963
5	0xbd022835	-0.031776626
6	0xbd090b01	-0.03345776
7	0x3c72f61a	0.014829183
8	0x3c8b689d	0.017017657
9	0x3cfb174f	0.030650763
10	0x3c78ff55	0.015197595
11	0x3d4e1fcc	0.050323293
12	0x3cb4e8a1	0.022083582
13	0xbd2ee96c	-0.042703077
14	0xbd811135	-0.0630211
15	0x3d0e09d8	0.034677356
16	0x3cd2cdd3	0.02573291
17	0xbcbedc5e	-0.023298439
18	0x3be759cc	0.007060265
19	0x3d019764	0.031638518
20	0x3c288bcc	0.010287236
21	0x3ba6a44b	0.005085503
22	0x3d58645d	0.05283009
23	0x3da03e19	0.07824344
24	0x3ce6675e	0.028125461
25	0xbc9ce4e8	-0.01915212
26	0x3b275cc9	0.0025537482
27	0x3b62a991	0.0034585933
28	0xbbd0f734	-0.006377125
29	0x3c7c6439	0.015404754
30	0xbd01bef4	-0.031676248
31	0x3d1e3a47	0.038629796
32	0xbd0fec62	-0.03513754
33	0xbd06a456	-0.032871567
34	0xbd38a063	-0.04507483
35	0xbceed0ec	-0.029152356
36	0xbd2d2648	-0.042272836
37	0xbd9a968c	-0.07548246
38	0xbc8a14bf	-0.016855596
39	0x3d1150d8	0.03547749
40	0xbc058177	-0.008148543
41	0xbcbc1ab2	-0.022961948
42	0x3b1521ee	0.002275582
43	0xbaeff464	-0.0018307087
44	0x3d2d8fd5	0.042373497
45	0xbd52c3d5	-0.05145629
46	0xbcd236a1	-0.025660815
47	0xbc799dd1	-0.01523538
48	0x3cf7f6b2	0.030269
49	0x3cfed669	0.031108098
50	0xbc6bd087	-0.0143929785
51	0xbd1106b6	-0.03540679
52	0xbc15da94	-0.009146351
53	0xbaedc788	-0.001814113
54	0xbb73f835	-0.00372268
55	0x3cb9b5ca	0.022669692
56	0x3a36b633	0.0006969899
57	0xbd341106	-0.043961547
58	0x3d234fe5	0.039871115
59	0x3bdec050	0.006797828
60	0xbd50948e	-0.050922923
61	0x3b771fb9	0.0037708117
62	0xbc9a4f04	-0.018836506
63	0xbbdedd0b	-0.0068012527
64	0x3d7d1a6d	0.06179278
65	0x3cdf2cb1	0.02724299
66	0xbc80171b	-0.015636018
67	0xbcc9cb06	-0.024632942
68	0x3d4a23d8	0.04935059
69	0x3cef0a3c	0.029179685
70	0xbc8d775c	-0.017268829
71	0xbc9fc0cc	-0.019501112
72	0xbbd66bda	-0.0065436186
73	0x3c83f58d	0.016108299
74	0xbb623a31	-0.0034519548
75	0x3d4f7853	0.05065186
76	0x3c2c5d5b	0.010520305
77	0x3bd3a044	0.006458314
78	0x3d2ce946	0.042214654
79	0xbcde4eb0	-0.02713713
80	0x3ce653fb	0.028116217
81	0x3d7f8745	0.062384862
82	0xbd1f3d1b	-0.038876634
83	0xbcfe40a6	-0.031036686
84	0xbbdd3298	-0.006750416
85	0xbd7bca5f	-0.061472293
86	0xbc5d9e2c	-0.013526481
87	0x3d0e1b45	0.034693975
88	0x3c670f99	0.01410284
89	0x3d5eb3b4	0.054370597
90	0xbcead969	-0.028668122
91	0x3d155c26	0.036464833
92	0x3cde8751	0.027164133
93	0xbc26bb44	-0.010176484
94	0x3bf54b0c	0.007485753
95	0xb9750cf5	-0.00023369848
96	0x3c4003d5	0.011719664
97	0xbd0432ee	-0.032275133
98	0xbd1c8583	-0.038213264
99	0xbac345e0	-0.0014898144
100	0x3ded81ec	0.11597046
101	0x3d0efa45	0.034906644
102	0xbd244927	-0.040108826
103	0xbaf3a6f5	-0.0018589186
104	0xbca76521	-0.020433964
105	0xbc7db392	-0.015484707
106	0x3bc38bdf	0.0059676017
107	0xbcd5cab2	-0.02609763
108	0x39751298	0.00023371947
109	0x3d1da4bc	0.03848718
110	0xbbf7ba3d	-0.007560043
111	0x3d17dbb4	0.03707476
112	0xbd64f6e7	-0.055899527
113	0x3d24565a	0.040121414
114	0x3c69050f	0.0142223975
115	0xbcbb4d8b	-0.022864124
116	0xbcb8b109	-0.022545354
117	0x3c40bf33	0.011764335
118	0xbca0247e	-0.01954865
119	0xbd89f332	-0.06735839
120	0x3ce5eb12	0.028066192
121	0xbcecf0eb	-0.028923472
122	0xbc7f8c22	-0.015597375
123	0xbda13f14	-0.07873359
124	0xbc524a9a	-0.012835169
125	0xbbdbec73	-0.0067115366
126	0xbd5f0312	-0.054446287
127	0x3d6eda4e	0.05831366
128	0x3d6de576	0.05808016
129	0xbcf77537	-0.03020726
130	0xbce4943a	-0.027902711
131	0x3c5c32b6	0.013439825
132	0x3b19c788	0.0023464877
133	0x3afa8627	0.0019113467
134	0x3d4b5a1e	0.04964649
135	0xbc83154e	-0.01600137
136	0x3c9c46db	0.019076755
137	0x3b7c57b0	0.0038504414
138	0x3d848e46	0.06472449
139	0x3d69e384	0.05710174
140	0xbc4f7652	-0.012662487
141	0x3aa774f6	0.0012775946
142	0xbbbe7536	-0.0058123125
143	0x3c80c4f9	0.015718924
144	0x3cb4552e	0.022013273
145	0x3cc127e7	0.023578597
146	0x3d6fded3	0.05856211
147	0x3ca43e12	0.020049129
148	0xbcc19dc8	-0.023634806
149	0x3d83fe30	0.06444967
150	0x3ce9bda5	0.028532812
151	0xbc9c2079	-0.019058453
152	0x3c7c3705	0.015393977
153	0xbb839dbb	-0.0040166057
154	0x3c4dfe49	0.012572833
155	0x3d77257f	0.060338493
156	0x3d94f0b2	0.072724715
157	0xbb677598	-0.0035317894
158	0xbbdc416c	-0.006721666
159	0x3c9a64d6	0.01884691
160	0xbcea3403	-0.028589254
161	0xbd887ac2	-0.06664039
162	0x3dbea6e7	0.09309178
163	0x3d2ce5d9	0.042211387
164	0x3c17abc1	0.009257258
165	0xbd6a36b4	-0.057181075
166	0x3b10ca31	0.0022093172
167	0xbd397c00	-0.04528427
168	0xbd804470	-0.062630534
169	0x3d4df5c5	0.050283212
170	0x3d21bf77	0.039489236
171	0x3c772a9c	0.015085842
172	0x3d3eadd4	0.046552494
173	0x3c26a6e1	0.010171623
174	0xbcea912b	-0.028633675
175	0xbd5957e4	-0.053062335
176	0x3cebccbc	0.028784148
177	0x3cb3284c	0.021869801
178	0xbcf04b02	-0.029332642
179	0xbd25a2ef	-0.04043859
180	0x3c884ba9	0.01663764
181	0x3d0bc29f	0.034121152
182	0x3d6b41a5	0.05743565
183	0x3d599c95	0.053127844
184	0x3b4d0095	0.0031280864
185	0x3d2e6e39	0.042585585
186	0xbd1eee1c	-0.038801298
187	0xbc4c7fd2	-0.012481647
188	0x3c4dca92	0.012560504
189	0xbd37ba59	-0.04485545
190	0x3d33576e	0.04378455
191	0xba631464	-0.0008662401
192	0x3d8fba79	0.07017989
193	0xbbec9710	-0.0072201565
194	0x3d3ecbd6	0.04658111
195	0x3d577802	0.052604683
196	0xbc22788d	-0.009916437
197	0x3d20f795	0.039298613
198	0xbd065352	-0.032794304
199	0x3d51575d	0.051108707
200	0x3c93533a	0.017984021
201	0x3c5c30d7	0.013439379
202	0x3a68d8be	0.0008882395
203	0x397a80fa	0.00023889905
204	0x3cd95df6	0.026534062
205	0xbda95d68	-0.08269769
206	0x3cab6fdf	0.020927368
207	0x3c807db4	0.01568494
208	0x3b23b54e	0.0024979892
209	0x3d620fc8	0.05519083
210	0x3aa5df97	0.0012655136
211	0xbd10de9d	-0.03536855
212	0x3cf3cd8b	0.029761096
213	0xbd43bf1e	-0.047789685
214	0xbc2e8914	-0.010652799
215	0x39b2c766	0.0003409937
216	0x3cb27a58	0.021786854
217	0xbb19b7de	-0.002345554
218	0x3cc425da	0.02394383
219	0xbdb47a88	-0.088124335
220	0xbc9a2e4c	-0.018820904
221	0xbcebc63b	-0.028781047
222	0x3d28e050	0.041229546
223	0x3c2a650a	0.010400066
224	0x3b851784	0.004061641
225	0xbcf7b441	-0.030237319
226	0xbc6c6c16	-0.014430067
227	0x3c74db6b	0.014944891
228	0x3d02a948	0.03189972
229	0xbcf12156	-0.029434841
230	0x3d33d8a4	0.043907776
231	0xbcfb0b91	-0.030645164
232	0xbc38ceda	-0.011279786
233	0x3d037be5	0.032100577
234	0x3d85b330	0.06528318
235	0xbb3ef0a1	-0.0029135125
236	0x3a18487b	0.000580914
237	0xbd178b56	-0.036998115
238	0x3c3f4b40	0.011675656
239	0xbb2fa78b	-0.0026802744
240	0x3d36c31c	0.044619665
241	0xbd5bd666	-0.053671263
242	0x3cb547a3	0.022128886
243	0xbb2a0fe9	-0.0025949425
244	0x3c8555cf	0.016276268
245	0xbb8ae3d2	-0.004238584
246	0xbdb46713	-0.08808722
247	0x3d2cb53b	0.042165022
248	0xbd0cb715	-0.034354288
249	0xbc9d1915	-0.019177
250	0x3d1d18f2	0.038353868
251	0xbc54697d	-0.0129646035
252	0x3da3d598	0.07999724
253	0x3ca621c5	0.020279774
254	0x3c2ed0d3	0.010669905
255	0x3d11767d	0.03551339

weight f4 [768]
0	0x3f8e22ea	1.1104405
1	0x3f76ef72	0.96459115
2	0x3f675adf	0.90373033
3	0x3f72c121	0.9482594
4	0x3f713833	0.9422638
5	0x3f86c72f	1.0529536
6	0x3f923e1c	1.1425204
7	0x3f753429	0.95782715
8	0x3f83d488	1.0299234
9	0x3f76ded2	0.96433747
10	0x3f86c47a	1.052871
11	0x3f96980c	1.1765151
12	0x3f899262	1.0747797
13	0x3f81f3e1	1.0152551
14	0x3f916431	1.1358701
15	0x3f608a72	0.8771125
16	0x3f87cb52	1.0608923
17	0x3f6a89a5	0.9161628
18	0x3f779e6a	0.96726096
19	0x3f624ccd	0.8839844
20	0x3f7e33d3	0.9929783
21	0x3f6ef6d5	0.93345386
22	0x3f761603	0.9612734
23	0x3f8471be	1.0347211
24	0x3f83df01	1.030243
25	0x3f827825	1.0192915
26	0x3f6b7290	0.91971684
27	0x3f71c72e	0.9444455
28	0x3f7e586f	0.9935369
29	0x3f710697	0.9415068
30	0x3f7d499c	0.98940444
31	0x3f701dfb	0.93795747
32	0x3f873751	1.0563756
33	0x3f58df58	0.84715796
34	0x3f7c167b	0.984718
35	0x3f7d612e	0.9897641
36	0x3f7b29f5	0.98110896
37	0x3f3c7b39	0.7362552
38	0x3f81cbd8	1.0140333
39	0x3f8559ee	1.0418069
40	0x3f7b6ac1	0.9820977
41	0x3f6c186d	0.9222477
42	0x3f7a70d5	0.9782842
43	0x3f6caf50	0.92455006
44	0x3f8df677	1.109084
45	0x3f97530c	1.1822219
46	0x3f799099	0.97486264
47	0x3f788135	0.97072154
48	0x3f811e67	1.0087403
49	0x3f76dbe4	0.96429276
50	0x3f8064f3	1.0030807
51	0x3f594de3	0.8488447
52	0x3f6bf75f	0.92174333
53	0x3f72b124	0.94801545
54	0x3f80636f	1.0030345
55	0x3f74de63	0.95651835
56	0x3f663849	0.89929634
57	0x3f6a88e4	0.9161513
58	0x3f8a21d7	1.0791577
59	0x3f854e3d	1.0414501
60	0x3f8b2a99	1.0872375
61	0x3f715a04	0.9427798
62	0x3f6c4dac	0.9230602
63	0x3f7d6571	0.9898291
64	0x3f900987	1.1252908
65	0x3f69edbc	0.9137838
66	0x3f671dda	0.90279925
67	0x3f8360fc	1.0263972
68	0x3f591ad7	0.8480658
69	0x3f6dbf6c	0.9287021
70	0x3f8714a1	1.055317
71	0x3f6fa089	0.9360433
72	0x3f7866c2	0.97031796
73	0x3f8af986	1.0857399
74	0x3f7f2137	0.99660057
75	0x3f66410d	0.8994301
76	0x3f7910f2	0.9729148
77	0x3f7cf643	0.98813266
78	0x3f704c27	0.938662
79	0x3f54a2f0	0.8306112
80	0x3f713269	0.94217545
81	0x3f4bb5b9	0.7957416
82	0x3f68620c	0.9077461
83	0x3f88ac4a	1.0677578
84	0x3f801a46	1.0008018
85	0x3f88df14	1.0693078
86	0x3f72d921	0.9486256
87	0x3f8a4faa	1.0805562
88	0x3f682332	0.90678704
89	0x3f738ec5	0.95139724
90	0x3f67b902	0.90516675
91	0x3f833999	1.0251952
92	0x3f878431	1.0587217
93	0x3f780938	0.96889067
94	0x3f776bd3	0.966489
95	0x3f724786	0.94640386
96	0x3f79ff3b	0.97655076
97	0x3f6390df	0.8889293
98	0x3f8a7f8f	1.0820178
99	0x3f85a37b	1.0440515
100	0x3f316e27	0.69308704
101	0x3f74581e	0.95446956
102	0x3f88e59e	1.0695074
103	0x3f7b1052	0.9807178
104	0x3f814c51	1.0101415
105	0x3f81cd63	1.0140804
106	0x3f80ec67	1.0072144
107	0x3f80ed92	1.0072501
108	0x3f81675b	1.0109667
109	0x3f75c6bb	0.96006364
110	0x3f77ff56	0.96873987
111	0x3f664d7e	0.89961994
112	0x3f89a42c	1.0753226
113	0x3f8a214b	1.079141
114	0x3f6ad123	0.9172537
115	0x3f840d02	1.031647
116	0x3f761de3	0.96139354
117	0x3f7a6da8	0.9782357
118	0x3f7e7bd2	0.99407685
119	0x3f67e359	0.9058128
120	0x3f8b2da7	1.0873307
121	0x3f852c0f	1.0404071
122	0x3f769640	0.96323013
123	0x3f418efa	0.7560879
124	0x3f6a270b	0.91465825
125	0x3f83725e	1.0269277
126	0x3f84d20e	1.0376604
127	0x3f849745	1.0358664
128	0x3f58873f	0.8458137
129	0x3f80c39f	1.0059699
130	0x3f862c23	1.048222
131	0x3f88259f	1.0636481
132	0x3f7b7f51	0.98241144
133	0x3f7ce879	0.98792225
134	0x3f63086c	0.88684726
135	0x3f6d8329	0.9277826
136	0x3f764f74	0.96214986
137	0x3f75bf04	0.9599459
138	0x3f9596dd	1.1686665
139	0x3f7acb5b	0.97966546
140	0x3f8bb4b5	1.0914522
141	0x3f77e3d9	0.9683204
142	0x3f792be2	0.97332585
143	0x3f8216c0	1.0163193
144	0x3f8736fd	1.0563656
145	0x3f83b3cf	1.0289248
146	0x3f90a131	1.1299192
147	0x3f72b2bd	0.9480398
148	0x3f71b302	0.9441377
149	0x3f5c9799	0.8616882
150	0x3f738a3f	0.9513282
151	0x3f6f4b32	0.93474114
152	0x3f867332	1.0503905
153	0x3f7d50b0	0.98951244
154	0x3f7a8394	0.9785702
155	0x3f6cfd86	0.92574346
156	0x3f96524b	1.1743864
157	0x3f5fa7fd	0.87365705
158	0x3f6fd666	0.9368652
159	0x3f82f461	1.0230829
160	0x3f6d304b	0.92651814
161	0x3f5cc9aa	0.86245215
162	0x3f9cc438	1.2247381
163	0x3f9a3e91	1.2050344
164	0x3f7ddb37	0.9916262
165	0x3f90d56e	1.1315134
166	0x3f7de9b2	0.99184716
167	0x3f8d38ff	1.1033019
168	0x3f7b8f0e	0.9826516
169	0x3f92e486	1.147599
170	0x3f625ba0	0.8842106
171	0x3f83449b	1.0255312
172	0x3f6479a1	0.8924809
173	0x3f8b13a2	1.0865366
174	0x3f81daf7	1.0144948
175	0x3f5b14c0	0.85578537
176	0x3f762e7e	0.9616469
177	0x3f713ce1	0.9423352
178	0x3f730424	0.94928193
179	0x3f736179	0.95070606
180	0x3f83267a	1.0246117
181	0x3f8c058a	1.093919
182	0x3f56d566	0.8391937
183	0x3f6d607e	0.9272536
184	0x3f792b1e	0.97331417
185	0x3f60dabb	0.87833756
186	0x3f664eb5	0.8996385
187	0x3f7d9947	0.9906201
188	0x3f78cc4e	0.97186744
189	0x3f5cd789	0.8626638
190	0x3f6b6e1a	0.91964877
191	0x3f5f9fab	0.8735301
192	0x3f594201	0.8486634
193	0x3f859c00	1.0438232
194	0x3f65f8b6	0.8983263
195	0x3f89f833	1.0778869
196	0x3f6f30dd	0.93433934
197	0x3f8e4369	1.1114322
198	0x3f6a90f6	0.9162744
199	0x3f8e632f	1.1124018
200	0x3f6bc35d	0.92094976
201	0x3f73cce0	0.9523449
202	0x3f7e1ac9	0.9925962
203	0x3f6fd52b	0.93684644
204	0x3f89cd43	1.0765766
205	0x3f4b9236	0.79519975
206	0x3f87fa05	1.0623175
207	0x3f815635	1.0104433
208	0x3f87d3c5	1.0611502
209	0x3f6f0cc1	0.93378836
210	0x3f84945d	1.0357777
211	0x3f610c62	0.8790952
212	0x3f73da10	0.9525461
213	0x3f7fd5a7	0.9993538
214	0x3f82a4da	1.0206559
215	0x3f71cbfd	0.94451886
216	0x3f6eadf6	0.93234193
217	0x3f81ca01	1.0139772
218	0x3f63f0c7	0.8903927
219	0x3f93f2ca	1.1558468
220	0x3f70aa56	0.9400991
221	0x3f7c507d	0.98560315
222	0x3f5e13b9	0.86748844
223	0x3f771ea0	0.96531105
224	0x3f83c3bc	1.0294108
225	0x3f66c99d	0.9015139
226	0x3f7952b0	0.97391796
227	0x3f783e3e	0.96969974
228	0x3f78017a	0.96877253
229	0x3f6928f9	0.91078144
230	0x3f647fca	0.8925749
231	0x3f868e77	1.0512227
232	0x3f81ecd4	1.0150399
233	0x3f87d391	1.061144
234	0x3f8e6e2f	1.1127375
235	0x3f7bbc97	0.9833464
236	0x3f6bafc7	0.9206509
237	0x3f56a418	0.8384414
238	0x3f7b99ed	0.9828175
239	0x3f71d2e3	0.9446241
240	0x3f727b8e	0.9471978
241	0x3f4d5701	0.8021088
242	0x3f7bed94	0.9840939
243	0x3f7c8e11	0.98654276
244	0x3f648823	0.8927023
245	0x3f67d376	0.9055704
246	0x3f3e84c5	0.7442134
247	0x3f7006ac	0.9376018
248	0x3f81b4c7	1.0133294
249	0x3f6aa3ab	0.9165599
250	0x3f5f6056	0.8725637
251	0x3f7dc007	0.99121135
252	0x3f3af533	0.73030394
253	0x3f770fe9	0.9650865
254	0x3f8379d3	1.0271553
255	0x3f74dce6	0.95649564

bias f4 [768]
0	0x3e268f0a	0.16265503
1	0x3dd2a641	0.10285617
2	0xbca510e5	-0.020149658
3	0x3d947bd6	0.07250182
4	0x3cefa9e6	0.029255819
5	0xbd8eae81	-0.06966878
6	0xbe18f1b4	-0.14935952
7	0x3c64373e	0.013929186
8	0x3d57f38c	0.0527225
9	0x3d730d6f	0.059338983
10	0x3dbd5cbc	0.09246203
11	0x3e42bfe2	0.1901851
12	0x3dbaa37d	0.09113214
13	0xbdc4f8a1	-0.09617735
14	0xbe3943ff	-0.18092345
15	0x3e14898f	0.145056
16	0x3dc50ded	0.09621797
17	0xbd79ff6b	-0.0610346
18	0x3c05dca2	0.008170279
19	0x3d953b53	0.07286706
20	0x3d2bfd4e	0.041989617
21	0xbd25f744	-0.040519014
22	0x3e45dc3c	0.19322294
23	0x3e245c3f	0.16050814
24	0x3cf50674	0.029910304
25	0xbcfd3484	-0.03090883
26	0xbd3eeb25	-0.04661097
27	0x3b2b5845	0.0026145142
28	0xbc0391a6	-0.008030331
29	0x3d37119e	0.044694535
30	0xbdfde780	-0.12397671
31	0x3dcde5fc	0.10053632
32	0xbd9529bb	-0.0728335
33	0xbdd357c2	-0.10319473
34	0xbdeeac3f	-0.11653947
35	0xbd88e35b	-0.066839896
36	0xbe0045d5	-0.12526639
37	0xbe68410c	-0.22681063
38	0xbcbd1a87	-0.023083938
39	0x3d8ccb1b	0.06874677
40	0x3cb9a694	0.022662438
41	0xbd804a9d	-0.06264231
42	0xbcd72079	-0.026260601
43	0x3cb197c4	0.021678813
44	0x3e03bedb	0.12865774
45	0xbe49f0dd	-0.19720788
46	0xbbf0d197	-0.007349204
47	0xbcc194a8	-0.023630455
48	0x3d5817f0	0.052757204
49	0x3d21fffe	0.039550774
50	0xbcac83fd	-0.02105903
51	0xbdfe1236	-0.12405817
52	0xbcdde5d0	-0.027087122
53	0x39824b7d	0.00024851775
54	0xbc10dcb6	-0.008841684
55	0x3d8e909d	0.069611765
56	0xbce23709	-0.027614133
57	0xbe168cc9	-0.14702143
58	0x3dbc1b6e	0.09184919
59	0x3d1e95c0	0.03871703
60	0xbdf2e4ba	-0.118600324
61	0xbce599a3	-0.028027361
62	0xbdb2efb2	-0.087371245
63	0x3cd01545	0.025400767
64	0x3e42e9d5	0.19034512
65	0x3cb38c38	0.021917447
66	0xbd723d28	-0.059140354
67	0xbcd2b8e0	-0.02572292
68	0x3e1e62d7	0.15467392
69	0x3d739c8c	0.059475467
70	0xbdadd53f	-0.08487939
71	0xbd99e402	-0.07514192
72	0xbcdb1745	-0.026744494
73	0x3d8a3612	0.06748594
74	0x3c0be3ed	0.008538228
75	0x3df53edb	0.11974879
76	0x3d49b243	0.04924227
77	0x3d2d13c0	0.042255163
78	0x3dd50784	0.10401824
79	0xbe06b383	-0.13154416
80	0x3d685ca5	0.056728978
81	0x3e28f48a	0.16499534
82	0xbd83b5c4	-0.064311534
83	0xbddcb9e4	-0.10777643
84	0xbcec8e63	-0.028876489
85	0xbe3ad294	-0.18244392
86	0xbd817cb0	-0.063226104
87	0x3dc4ff5b	0.09619018
88	0x3dbe2fca	0.09286459
89	0x3e42d19e	0.19025275
90	0xbdb1d10e	-0.08682452
91	0x3e0428ce	0.12906191
92	0x3d8153be	0.06314801
93	0x3c0473e9	0.008084276
94	0x3c9bd8e7	0.019024326
95	0x3d00539b	0.031329732
96	0x3d0cf633	0.03441448
97	0xbd298d58	-0.04139456
98	0xbdf615c3	-0.120158695
99	0x3d7588e0	0.059944987
100	0x3e977156	0.29578656
101	0x3e02626b	0.12732856
102	0xbde788b8	-0.11305374
103	0xba6f5cfc	-0.0009130982
104	0xbb3829db	-0.002810112
105	0xbd29eb4f	-0.041484173
106	0x3ca66d4a	0.020315785
107	0xbe06f94d	-0.13181038
108	0xbc86a748	-0.016437188
109	0x3d38d697	0.045126524
110	0xbc7947dd	-0.015214887
111	0x3d864848	0.06556755
112	0xbe17d65d	-0.14827867
113	0x3da62f79	0.081145234
114	0x3d474314	0.048647955
115	0xbd2228db	-0.039589744
116	0xbd992243	-0.07477238
117	0x3a796ed4	0.0009515111
118	0xbcc80740	-0.02441752
119	0xbe2f12e2	-0.17097047
120	0x3dea757f	0.11448192
121	0xbda2d4ed	-0.079507686
122	0xbdbb2d95	-0.091395535
123	0xbe6ee1ee	-0.23328373
124	0xbd2427cb	-0.040077012
125	0x3c5865f6	0.013207903
126	0xbddadfce	-0.106872186
127	0x3e2a95a0	0.1665864
128	0x3dd8eff2	0.10592641
129	0xbd8104a9	-0.06299717
130	0xbd86eae1	-0.06587768
131	0x3db91e2e	0.090389594
132	0x3c2e0a7d	0.010622618
133	0x3b44f395	0.0030052413
134	0x3dbf855d	0.09351609
135	0xbd36317c	-0.044480786
136	0x3c57b4a5	0.013165628
137	0xbc160458	-0.009156309
138	0x3e18f6d9	0.14937915
139	0x3dfcc349	0.12341935
140	0xbdaf1870	-0.08549583
141	0xbc75b3e2	-0.014996501
142	0x3b298840	0.0025868565
143	0x3cac0eed	0.02100321
144	0x3d7a0378	0.061038464
145	0x3d8da6a6	0.06916551
146	0x3e1b3f4b	0.15160863
147	0x3d6ad672	0.057333417
148	0xbd136cc0	-0.035992384
149	0x3e0ade5e	0.13561389
150	0x3d9b6f40	0.07589579
151	0xbd738cc2	-0.05946041
152	0x3d8ed90e	0.06974994
153	0xbc6507fa	-0.013978953
154	0xbc0ba3c8	-0.008522935
155	0x3e15a62f	0.14614175
156	0x3e3bbb27	0.18333112
157	0xbd0cbe1a	-0.034360982
158	0xbd169e91	-0.036772314
159	0x3d9d06d5	0.07667319
160	0xbd9ebcc4	-0.07750848
161	0xbe312d31	-0.17302395
162	0x3e6d0064	0.2314468
163	0x3e223121	0.15839054
164	0x3ce4893c	0.02789747
165	0xbe0ba7c4	-0.13638216
166	0xbcd68012	-0.026184116
167	0xbdff35af	-0.12461411
168	0xbe1120a8	-0.14172614
169	0x3e2e5f6e	0.17028591
170	0x3e2fef40	0.1718111
171	0x3cdb2221	0.026749672
172	0x3de1157f	0.10990428
173	0x3db7c173	0.089724444
174	0xbd489169	-0.0489668
175	0xbe008297	-0.12549816
176	0x3c98bd8c	0.01864507
177	0x3dc1f49e	0.09470485
178	0xbd562ba4	-0.052287713
179	0xbd82ca53	-0.063862465
180	0x3d2314f7	0.039814916
181	0x3e13ed86	0.14446077
182	0x3e35e5be	0.17763421
183	0x3de4bf82	0.1116934
184	0x3c635ffa	0.013877863
185	0x3df850de	0.12124799
186	0xbdab385a	-0.083603576
187	0x3c5241b8	0.012833051
188	0x3c9d5251	0.01920429
189	0xbd8b269e	-0.06794475
190	0x3d986fd9	0.07443208
191	0xbd413734	-0.047171786
192	0x3e03f15d	0.12885042
193	0xbd4808cc	-0.048836514
194	0x3d42ffed	0.04760735
195	0x3dd616d8	0.10453576
196	0xbd1eeb47	-0.038798597
197	0x3dc4f563	0.09617116
198	0xbda9bfe2	-0.08288552
199	0x3ded89b6	0.11598532
200	0x3d56b1d6	0.05241569
201	0xba0d207d	-0.0005383564
202	0xbc8b5712	-0.017009292
203	0xbc815210	-0.0157862
204	0x3d88f860	0.06687999
205	0xbe1ed12a	-0.15509477
206	0x3d2e5d0c	0.042569205
207	0x3bd5ff4a	0.006530677
208	0x3d809495	0.0627834
209	0x3e060576	0.1308802
210	0x3d0d3a36	0.034479342
211	0xbe033a57	-0.12815224
212	0x3d6fa2c8	0.05850485
213	0xbde68758	-0.112562835
214	0xbcca2af6	-0.024678688
215	0x3d2a4363	0.04156817
216	0x3cbe4fa2	0.023231331
217	0x3ce110a3	0.027473753
218	0x3dc57756	0.09641902
219	0xbe497179	-0.19672193
220	0xbd6333bd	-0.055469263
221	0xbd2c6360	-0.04208696
222	0x3dd10aa7	0.1020711
223	0xbd2ed6cf	-0.042685326
224	0x3d7a8e73	0.061171006
225	0xbdf2b9a5	-0.11851815
226	0xbd05bbc2	-0.032649763
227	0x3d673d5d	0.056455005
228	0x3d8d3e1d	0.06896613
229	0xbd804c15	-0.062645115
230	0x3d994778	0.07484335
231	0xbd8d0509	-0.06885726
232	0x3d221cfd	0.039578427
233	0x3d6d8f00	0.057997704
234	0x3e597001	0.21234132
235	0xbccf98cb	-0.025341412
236	0xbccc5435	-0.024942497
237	0xbe16147f	-0.14656256
238	0x3c970a58	0.01843755
239	0x3d2850b7	0.0410926
240	0x3dc6f3eb	0.097144924
241	0xbe4ce2f1	-0.20008446
242	0x3c986ef1	0.018607588
243	0x3b3daca2	0.0028942009
244	0x3d2f8946	0.042855524
245	0xbcb4cf7b	-0.02207159
246	0xbe8035f1	-0.25041154
247	0x3dc1b0c4	0.094575435
248	0xbd5a4206	-0.05328562
249	0xbd321d13	-0.04348476
250	0x3e003e77	0.12523828
251	0xbaccd6a4	-0.0015627933
252	0x3e6049d0	0.21903157
253	0x3d3d041f	0.04614651
254	0xbc0e0524	-0.008668218
255	0x3da7ad6a	0.08187373

weight f4 [768]
0	0x3f8c636a	1.0967839
1	0x3f845c3c	1.0340648
2	0x3f7b3a4e	0.9813584
3	0x3f7c562e	0.98569
4	0x3f81bd85	1.0135962
5	0x3f6e325e	0.93045604
6	0x3f9d214d	1.2275788
7	0x3f6f5a4f	0.93497175
8	0x3f9c7332	1.2222655
9	0x3f6f00d2	0.93360627
10	0x3f8f4638	1.1193304
11	0x3f9bd305	1.2173773
12	0x3f6178f5	0.8807519
13	0x3f8c3c9c	1.0955997
14	0x3f73de5d	0.95261174
15	0x3f850a24	1.039372
16	0x3f812d03	1.0091861
17	0x3f7d4c72	0.9894477
18	0x3f979768	1.184308
19	0x3f8162e7	1.0108308
20	0x3f61c294	0.8818753
21	0x3f8767a7	1.0578507
22	0x3f7a433c	0.9775884
23	0x3f8438c6	1.0329826
24	0x3f8468df	1.0344504
25	0x3f7a867a	0.97861445
26	0x3f686870	0.9078436
27	0x3f5f2afa	0.8717495
28	0x3f86b334	1.0523438
29	0x3f8c2064	1.0947385
30	0x3f760e42	0.96115506
31	0x3f6cc65f	0.9249019
32	0x3f874fa0	1.0571175
33	0x3f7f49d3	0.9972202
34	0x3f79876c	0.9747226
35	0x3f7f2200	0.99661255
36	0x3f615063	0.88013285
37	0x3f5abe6c	0.8544681
38	0x3f75a44f	0.9595384
39	0x3f640b82	0.8908006
40	0x3f7cba2f	0.98721594
41	0x3f6e6eb5	0.93137676
42	0x3f8bd89e	1.0925481
43	0x3f70e582	0.941002
44	0x3f76c7ca	0.96398604
45	0x3f803a10	1.0017719
46	0x3f81554e	1.0104158
47	0x3f6797d7	0.90466064
48	0x3f74045c	0.9531915
49	0x3f6fa8b5	0.936168
50	0x3f7af033	0.98022765
51	0x3f74ecac	0.9567363
52	0x3f8122a5	1.0088698
53	0x3f7eed52	0.9958087
54	0x3f7c46f6	0.9854578
55	0x3f65f740	0.898304
56	0x3f8250bc	1.0180888
57	0x3f81d95a	1.0144455
58	0x3f7b96cb	0.98276967
59	0x3f7b550e	0.9817666
60	0x3f67f2e9	0.90605026
61	0x3f7b59ee	0.98184097
62	0x3f79fb40	0.97649
63	0x3f848505	1.0353094
64	0x3f7a5468	0.97785044
65	0x3f726692	0.9468776
66	0x3fa1ea0b	1.2649549
67	0x3f85a3d9	1.0440627
68	0x3f58b402	0.8464967
69	0x3f71a13d	0.94386655
70	0x3f8cb851	1.0993749
71	0x3f568b1a	0.83806
72	0x3f7c0dc1	0.98458487
73	0x3f87ec08	1.0618906
74	0x3f876941	1.0578996
75	0x3f684bb3	0.9074051
76	0x3f67ed51	0.9059649
77	0x3f6f9420	0.93585396
78	0x3f78e63b	0.97226304
79	0x3f61c3e6	0.8818954
80	0x3f6cc15b	0.9248254
81	0x3f837864	1.0271115
82	0x3f771bd5	0.96526843
83	0x3f5876d8	0.8455634
84	0x3f671d46	0.9027904
85	0x3f731d7a	0.9496685
86	0x3f7b1ffd	0.98095685
87	0x3f4e0cd8	0.8048835
88	0x3f6656cd	0.899762
89	0x3f8348fa	1.0256646
90	0x3f8027c8	1.001214
91	0x3f72a9f0	0.94790554
92	0x3f8e6bed	1.1126686
93	0x3f96ded1	1.1786748
94	0x3f71d79c	0.9446962
95	0x3f863542	1.0485003
96	0x3f7dd64c	0.99155116
97	0x3f89a46b	1.0753301
98	0x3f87941e	1.0592077
99	0x3f897f8e	1.0742052
100	0x3f7094ff	0.9397735
101	0x3f722ac8	0.9459653
102	0x3f689c2d	0.90863305
103	0x3f82ae29	1.02094
104	0x3f7893d9	0.971006
105	0x3f85e314	1.0459924
106	0x3f87789a	1.058368
107	0x3f8596f9	1.0436698
108	0x3f81683a	1.0109932
109	0x3f6749c9	0.9034696
110	0x3f88596a	1.0652287
111	0x3f6e8902	0.9317781
112	0x3f852f64	1.0405087
113	0x3f6879ac	0.90810657
114	0x3f872f61	1.0561334
115	0x3f5bb09b	0.85816354
116	0x3f87dad3	1.0613655
117	0x3f81f2f0	1.0152264
118	0x3f6c05b8	0.92196226
119	0x3f6b959b	0.92025155
120	0x3f6989dc	0.9122598
121	0x3f7923aa	0.97320044
122	0x3f7ac773	0.97960585
123	0x3f7e109c	0.99244094
124	0x3f6ce619	0.925386
125	0x3f86f597	1.0543698
126	0x3f8e9f59	1.1142379
127	0x3f7b06cf	0.98057264
128	0x3f8e408f	1.1113452
129	0x3f80ec99	1.0072204
130	0x3f698572	0.91219246
131	0x3f871912	1.0554526
132	0x3f8fb98f	1.1228503
133	0x3f8ce34d	1.1006867
134	0x3f4efecb	0.80857533
135	0x3f6784c4	0.9043696
136	0x3f872126	1.0556991
137	0x3f7c362f	0.9852018
138	0x3f84ce8c	1.0375533
139	0x3f6d9284	0.9280169
140	0x3f8d425f	1.103588
141	0x3f77f0ff	0.96852106
142	0x3f7c8b0b	0.9864966
143	0x3f760d1c	0.96113753
144	0x3f8cd562	1.1002619
145	0x3f7b3f33	0.9814331
146	0x3f837f6f	1.0273265
147	0x3f620f41	0.88304526
148	0x3f7ea9f4	0.9947808
149	0x3f6e91e4	0.9319136
150	0x3f831042	1.0239336
151	0x3f6eb69c	0.9324739
152	0x3f82ff73	1.0234207
153	0x3f6827f6	0.90685976
154	0x3f76b8b9	0.96375614
155	0x3f6bfb15	0.92179996
156	0x3f8743e6	1.0567596
157	0x3f708370	0.9395056
158	0x3f88f9da	1.0701249
159	0x3f682266	0.9067749
160	0x3f59cfc4	0.8508265
161	0x3f79ca31	0.97574145
162	0x3f95e4d2	1.1710455
163	0x3f65d25d	0.89774114
164	0x3f852193	1.0400871
165	0x3f6d9bcd	0.9281586
166	0x3f7895f3	0.97103804
167	0x3f64d7ec	0.8939197
168	0x3f7b7a1c	0.982332
169	0x3f841c66	1.0321167
170	0x3f6b0968	0.9181123
171	0x3f77e413	0.9683239
172	0x3f806137	1.0029668
173	0x3f8b11a3	1.0864757
174	0x3f850c6e	1.0394418
175	0x3f69ba16	0.9129957
176	0x3f8554ef	1.0416545
177	0x3f7c76ea	0.9861895
178	0x3f69088e	0.9102868
179	0x3f84aca0	1.0365181
180	0x3f89c4c0	1.0763168
181	0x3f6c0cf9	0.92207295
182	0x3f7d9a9c	0.9906404
183	0x3f76464d	0.9620102
184	0x3f6c0cc7	0.92206997
185	0x3f857ba1	1.0428354
186	0x3f6d8aa7	0.9278969
187	0x3f70d7dd	0.9407938
188	0x3f7901ec	0.9726856
189	0x3f6134d4	0.87971234
190	0x3f8614c5	1.0475088
191	0x3f828f1f	1.0199927
192	0x3f67a6a3	0.9048864
193	0x3f800a25	1.0003096
194	0x3f84ab61	1.0364801
195	0x3f89896d	1.0745064
196	0x3f395f04	0.7241061
197	0x3f4f18a6	0.80896986
198	0x3f83f481	1.0308992
199	0x3f6ae57f	0.91756433
200	0x3f7a31c2	0.97732174
201	0x3f897c6b	1.0741094
202	0x3f85b4ea	1.0445836
203	0x3f7913dd	0.97295934
204	0x3f8f7fad	1.1210839
205	0x3f45a8ba	0.7721058
206	0x3f7133ae	0.9421948
207	0x3f744384	0.9541552
208	0x3f8b397d	1.0876919
209	0x3f760848	0.96106386
210	0x3f6245c0	0.8838768
211	0x3f8926c7	1.0714959
212	0x3f749ff0	0.95556545
213	0x3f8120bf	1.0088118
214	0x3f7be239	0.98392063
215	0x3f5a632c	0.85307574
216	0x3f5d9aaf	0.86564153
217	0x3f99dd36	1.2020633
218	0x3f582b9e	0.84441555
219	0x3f76888d	0.9630211
220	0x3f7d07cf	0.9884004
221	0x3f7a2c03	0.97723407
222	0x3f91d671	1.1393567
223	0x3f7edf3c	0.9955938
224	0x3f860dbd	1.0472943
225	0x3f6a358e	0.9148797
226	0x3f7c8b12	0.98649704
227	0x3f811803	1.0085453
228	0x3f6b4593	0.91903037
229	0x3f58d34a	0.846974
230	0x3f810c6e	1.0081918
231	0x3f5adad1	0.8549014
232	0x3f87f80d	1.0622574
233	0x3f817b5e	1.0115774
234	0x3f8cc10b	1.0996412
235	0x3f811145	1.0083395
236	0x3f89468a	1.0724652
237	0x3f832482	1.0245516
238	0x3f71466e	0.9424809
239	0x3f83ff90	1.0312366
240	0x3f87e518	1.0616789
241	0x3f5451ab	0.82937115
242	0x3f842ef1	1.0326825
243	0x3f71e403	0.94488543
244	0x3f88d884	1.0691075
245	0x3f88abc9	1.0677425
246	0x3f585f60	0.8452053
247	0x3f809cb0	1.0047817
248	0x3f7f98ef	0.99842733
249	0x3f9449fa	1.1585076
250	0x3f571468	0.8401551
251	0x3f80885b	1.0041612
252	0x3f80021e	1.0000646
253	0x3f7c4ba6	0.9855293
254	0x3f918501	1.1368715
255	0x3f91a4a3	1.1378368

bias f4 [768]
0	0x3df5b9ac	0.11998305
1	0xbd8a222c	-0.06744799
2	0x3c1118fc	0.008856054
3	0x3ce3235f	0.027726827
4	0xbc1c9150	-0.00955613
5	0x3d8d04dd	0.06885693
6	0xbe5693d4	-0.2095483
7	0x3d9efef8	0.07763475
8	0x3e807493	0.2508894
9	0x3e182fd7	0.14862
10	0x3e00383c	0.12521452
11	0x3e525339	0.2053956
12	0xbde05794	-0.10954204
13	0xbd010319	-0.031497095
14	0xb9846700	-0.00025253743
15	0xbd409036	-0.04701253
16	0x3c470ff4	0.0121498
17	0x3d82ee4f	0.0639311
18	0xbe442f83	-0.1915875
19	0xbd712f8e	-0.058883242
20	0xbd725f1c	-0.059172735
21	0x3d4894a9	0.0489699
22	0x3dbaec4b	0.091271006
23	0x3dcfb05a	0.10141058
24	0x3d3c4e02	0.04597283
25	0xbdd18296	-0.102299854
26	0xbdee1f1b	-0.11627027
27	0x3d6aaea8	0.05729547
28	0xbcefafac	-0.029258572
29	0x3dae5aa4	0.08513382
30	0xbd092460	-0.033481956
31	0x3d1f7c7c	0.038937077
32	0xbdbd1f14	-0.09234443
33	0x376095d6	1.3386327e-05
34	0x3d63606c	0.055511877
35	0xbdd521b1	-0.10406817
36	0xbdf4ae67	-0.11947327
37	0xbdf1db20	-0.11809373
38	0x3c909f63	0.017654127
39	0xbda855c1	-0.08219481
40	0x3d048070	0.03234905
41	0xbd61f022	-0.05516065
42	0x3d9dd38d	0.07706366
43	0x3da5518a	0.08072193
44	0xbc81be7d	-0.015837902
45	0xbb016ab7	-0.0019747445
46	0x3d0d7370	0.034533918
47	0xbd62e75c	-0.055396423
48	0xbaea51c5	-0.0017877152
49	0xbdc1096f	-0.094256274
50	0x3cd60967	0.02612753
51	0xbd990520	-0.07471681
52	0x3e06dc92	0.13170078
53	0xbceb3296	-0.028710645
54	0x3c4b1b22	0.012396606
55	0x3d843ed2	0.064572945
56	0x3d833146	0.064058825
57	0xbd5097d9	-0.050926063
58	0x3afa6dc0	0.0019106194
59	0xbe15b810	-0.14620996
60	0x3d4b59e0	0.04964626
61	0x3dc6cb38	0.0970673
62	0xbd693df6	-0.056943856
63	0x3c84a363	0.01619119
64	0xba8a3cb1	-0.0010546652
65	0xbe40500b	-0.18780534
66	0x3e7aebc2	0.24503997
67	0xbd6a7c43	-0.05724741
68	0x3df91d80	0.1216383
69	0x3e2a1fee	0.16613743
70	0xbdd257d3	-0.102706574
71	0xbd76a5f9	-0.060216878
72	0xbddcad3e	-0.10775231
73	0x3d65eee1	0.056136016
74	0xbd5be13b	-0.053681593
75	0x3d81cb76	0.06337635
76	0x3d75fa77	0.060053315
77	0xbce28a11	-0.027653726
78	0xbc99f643	-0.018794185
79	0xbdd5f814	-0.10447708
80	0x3d74d5cb	0.0597742
81	0xbce2e940	-0.027699113
82	0xbcc9ae2b	-0.024619183
83	0x3dc9c6c8	0.09852368
84	0x3dba6d29	0.09102852
85	0x3b142699	0.0022606014
86	0xbc952a22	-0.018208567
87	0xbe3d440e	-0.18482992
88	0xbe0b65d9	-0.1361307
89	0x3d676bb8	0.056499213
90	0xbe3e29a4	-0.18570572
91	0xbc89e34d	-0.016832018
92	0x3dd67350	0.10471213
93	0xbe526e9c	-0.20550007
94	0x3c9d7072	0.019218657
95	0xbd220517	-0.039555635
96	0xbd203bc5	-0.0391195
97	0x3da741de	0.0816686
98	0xbd77b871	-0.06047863
99	0x3d94cfe3	0.07266214
100	0x3d02660d	0.031835604
101	0xbdab435f	-0.083624594
102	0x3e06d435	0.13166888
103	0xbd170e7e	-0.036879055
104	0x3c7d9a18	0.015478633
105	0xbd5a080e	-0.053230338
106	0x3d8f3d91	0.06994165
107	0x3d7f7b23	0.06237329
108	0x3c91fec7	0.017821683
109	0x3dc64803	0.09681704
110	0xbc21e45e	-0.009881107
111	0x3dbaf8c7	0.09129482
112	0xbd65eff0	-0.056137025
113	0xbd9a050d	-0.075204946
114	0x3d7e3ff2	0.0620727
115	0x3e203188	0.15643895
116	0xbdf56a97	-0.11983221
117	0xbe45a66d	-0.19301768
118	0xbd8d0527	-0.06885748
119	0xbdecb6d4	-0.11558309
120	0xbdc1a385	-0.09455017
121	0x3d72516c	0.05915968
122	0xbc9ff842	-0.019527558
123	0xbcbf7995	-0.023373405
124	0xbd6bbaff	-0.05755138
125	0x3d511154	0.051041916
126	0xbe7cb339	-0.24677743
127	0x3c234b2b	0.009966652
128	0xbdd53240	-0.10409975
129	0xbd557704	-0.052115455
130	0x3e43279b	0.19058077
131	0x3ddec126	0.10876684
132	0xbde21c11	-0.110405095
133	0xbe0e8eae	-0.13921615
134	0x3e19a9f4	0.15006238
135	0xbdd1550d	-0.102213
136	0x3e0389b0	0.12845492
137	0x3cfa25e7	0.030535651
138	0x3cfc35b5	0.030787328
139	0xbe8da84d	-0.27667466
140	0xbdc8e8a6	-0.09809999
141	0xbcb94a5a	-0.022618461
142	0x3ca632ec	0.020287953
143	0xbc99f68a	-0.018794317
144	0x3ddf1622	0.108928934
145	0xbd781d6a	-0.060574926
146	0x3bd24488	0.006416861
147	0x3e1cd256	0.15314612
148	0xbd04edaa	-0.032453217
149	0x3bbff3e4	0.0058579315
150	0xbc1aba4c	-0.009443831
151	0xbda18b7c	-0.07887933
152	0x3d5a45c0	0.053289175
153	0x3da63aee	0.08116709
154	0xbd704a36	-0.058664523
155	0x3e2ed1c6	0.1707221
156	0x3d56eeea	0.05247394
157	0x3cbb8d86	0.022894632
158	0x3d62db36	0.055384837
159	0x3ca4ac92	0.02010182
160	0xbe13d461	-0.14436485
161	0xbc1b1727	-0.009465969
162	0x3e2ff7ab	0.17184322
163	0xbe000865	-0.12503202
164	0x3d479053	0.048721623
165	0x3dce0f6a	0.10061534
166	0x3cdd9742	0.027049664
167	0x3dc78d32	0.09743728
168	0xbcc4c688	-0.024020448
169	0x3d328b23	0.043589722
170	0x3deb2dac	0.114833206
171	0xbc795d94	-0.015220065
172	0xbbed29d1	-0.007237651
173	0x3d9b79fc	0.07591626
174	0xbdc81cd2	-0.09771122
175	0xbdb8a602	-0.090160385
176	0xbd3792c8	-0.044817716
177	0xbc9c81cf	-0.019104866
178	0xbe00f00b	-0.12591569
179	0x3d47ee9e	0.048811547
180	0x3e29c0a6	0.16577396
181	0xbd7ee32e	-0.062228374
182	0xbbe1d978	-0.0068923794
183	0xbbed2b46	-0.0072378246
184	0x3d43989c	0.04775296
185	0xbd67c4ef	-0.056584295
186	0xbd388a99	-0.045054052
187	0xbd22e128	-0.039765507
188	0x3c929480	0.017893076
189	0xbd19563f	-0.037435766
190	0xbd61c848	-0.055122644
191	0x3d645ce0	0.055752635
192	0x3e08a00b	0.13342302
193	0xbbde1a88	-0.006778065
194	0x3cec75a3	0.028864687
195	0x3d258bd8	0.04041657
196	0xbe68ece3	-0.22746615
197	0xbe20babc	-0.15696234
198	0x3d085ace	0.033289723
199	0xbd8080a6	-0.06274538
200	0x3cf62ac8	0.030049697
201	0xbde99abd	-0.11406467
202	0xbdb2e0d0	-0.08734286
203	0xbd967582	-0.073466316
204	0x3de7ef59	0.11324949
205	0xbe3f99ee	-0.18711063
206	0xbd14f7dc	-0.03636919
207	0xbd6142d5	-0.054995377
208	0x3d932df3	0.071864985
209	0x3d56e70c	0.052466437
210	0xbdba29da	-0.09090014
211	0x3d9674b1	0.07346476
212	0x3c43a138	0.011940293
213	0xbdca23e4	-0.09870127
214	0xbaeaec53	-0.0017923213
215	0x3d863081	0.0655222
216	0x3ddb0d6d	0.1069592
217	0x3e69aa4c	0.2281887
218	0x3e03c21e	0.12867019
219	0x3c862598	0.016375348
220	0x3c99c855	0.018772284
221	0x3cb3ce6e	0.02194902
222	0xbe292736	-0.16518864
223	0xbdb3898a	-0.08766468
224	0x3dfb1a5c	0.12260887
225	0xbdca7ca9	-0.09887058
226	0x3c401b2f	0.011725231
227	0xbd6d4c13	-0.05793388
228	0xbdde7ae1	-0.10863281
229	0xbdd96831	-0.10615576
230	0xbc726458	-0.014794432
231	0x3e2117a1	0.1573167
232	0x3db0536f	0.08609664
233	0x3ccd1cd2	0.025038157
234	0x3dd58288	0.104252875
235	0x3b701072	0.0036630896
236	0x3db2b6e5	0.087262906
237	0x3dd0a17b	0.1018705
238	0xbd93f420	-0.072242975
239	0xbd055bb5	-0.03255816
240	0xbd2a3295	-0.041552145
241	0xbe293339	-0.16523446
242	0xbd907237	-0.07053035
243	0xbc4d19db	-0.012518371
244	0xbdbd6cfd	-0.092493035
245	0x3e04b60e	0.12960073
246	0xbe276fd0	-0.16351247
247	0xbd025daf	-0.031827625
248	0x3c2f15c5	0.010686343
249	0x3e0039ed	0.12522097
250	0x3e2f985d	0.17147966
251	0x3cca19ff	0.024670599
252	0xbd15fbcd	-0.03661709
253	0x3d868fcd	0.065703966
254	0xbe186da2	-0.14885572
255	0x3ea1641e	0.31521696
