ablations/ada-nodelta/stephenchow2023-05-24T14-37-59_stephenchow-ada/embeddings_gs-4500.pt (torch, 923976 bytes, 168 tensors)

pre_vecs f4 [2, 768]
-0.017895354 -0.027064705 0.019312862 0.035562884 -0.008073444 0.010227469 -0.016008845 -0.02579135
-0.03457221 -0.010574881 0.015654938 -0.013332586 -0.017374918 0.00017394903 0.014553555 0.018259784
0.016051881 -0.009421066 -0.02819235 -0.0026278284 -0.011077506 0.015453943 -0.0024011969 -0.0032192874
0.0045679356 -0.0032083425 -0.010903176 0.010904861 -0.02115552 0.007703412 0.03730312 0.020624902
-0.009538155 -0.0030412835 0.009387451 0.05572564 -0.01180558 0.033949886 -0.0347818 0.009825431
0.007114162 0.0059428285 -0.0025508904 -0.0003793229 -0.0016669976 -0.016956536 0.010118911 -0.021492628
-0.02327468 -0.016826268 0.00087780843 0.011017114 -0.004653133 -0.015958292 -0.04226223 0.010747952
0.024535108 8.79978e-05 0.026738554 0.008808453 -0.0002330258 0.0025093013 0.025931325 0.007050391
0.015122199 0.0061530955 0.0118762385 0.032415252 0.02222385 0.0067366194 -0.036344662 -0.019228527
-0.022624185 -0.015501273 -0.010119868 0.0022875646 -0.01451149 -0.021430293 -0.0040611858 -0.0039619254
-0.0030993712 0.026173627 0.027482709 -0.035900056 -0.0010551554 0.000311171 -0.011555418 0.031887583
0.040581126 -0.005884644 0.004119194 0.020665942 0.0037355728 0.00019535932 0.0063319122 0.00895047
0.015218622 0.009041123 -0.012746902 0.019018918 -0.038565375 0.022478862 -0.01713814 0.0028540902
-0.01792932 -0.013053094 -0.0055737486 -0.001060004 -0.010049705 -0.018858489 0.014226252 -0.0044600875
-0.011978647 0.0057545975 0.02974035 0.004509769 -0.028812487 -0.0017335645 -0.028027155 0.0058938856
0.030653754 -0.020089995 -8.857893e-05 0.00029491665 -0.0153260855 -0.01536302 -0.028117286 0.0101972725
0.0014205511 -0.035409458 0.008972423 0.018618852 -0.00604662 -0.013403191 0.0023251404 0.02927911
-0.0229701 -0.050258264 0.016060462 -0.028461015 -0.047716383 -0.012090142 -0.0074929744 -0.012489548
0.0005747228 -0.003955503 0.031309884 -0.019486492 0.0045362934 0.017245788 0.023946347 0.009161969
-0.025741765 0.016671386 -0.0082721785 0.032333024 0.023684567 0.021752791 -0.0120009435 -0.0016522052
0.014108136 0.026165739 0.049766246 0.024716325 -0.004446866 0.0009517745 -0.008563674 -0.0049947863
0.017609203 0.021826709 -0.010931239 -0.0041704793 0.013090397 0.014652928 -0.0063925134 0.01363918
-0.028954457 -0.014899539 -0.011185027 0.01686471 -0.024694534 -0.005029279 0.043117747 -0.0016999961
-0.0035032856 -0.005035692 -0.021959662 0.01891789 0.016851189 0.04188103 0.0067290114 0.0068858154
0.00646772 -0.018492945 -0.042812873 0.030673008 0.0017148921 0.031063886 -0.0021287976 0.008471849
-0.0024264494 0.008859565 -0.031447325 0.011322156 -0.022683257 -0.005651549 0.027563024 -0.018667737
0.04268071 0.03267022 0.04022598 0.009970833 0.0061262003 0.0069568004 -0.009645919 -0.03853874
0.017298374 0.053432625 -0.02002115 -0.020232424 0.01961456 -0.00319094 -0.0010774333 0.011748003
-0.015720094 -0.025783263 -0.022390539 3.4586228e-05 0.020254321 0.02289549 0.021620497 0.0023749878
-0.0047352575 -0.020129655 0.02482031 0.00011478644 0.013971993 0.0031687447 0.032578718 0.0056744497
0.015188236 0.01772137 -0.0075784395 0.031823378 -0.0039963326 -0.026721422 -0.0057920967 -0.0018259494
0.017250434 0.018792497 -0.015367351 0.05180625 -0.018789064 -0.039237563 0.0032970575 0.016407063
00000000: 4799 92bc cdb6 ddbc 0236 9e3c 63aa 113d
00000010: 7a46 04bc 1d91 273c fb24 83bc 6248 d3bc
00000020: 979b 0dbd 4442 2dbc c93e 803c eb70 5abc
00000030: d855 8ebc 1666 3639 0972 6e3c 8b95 953c
00000040: 3c7f 833c d15a 1abc a5f3 e6bc a537 2cbb
00000050: 6d7e 35bc 8932 7d3c 665d 1dbb aefa 52bb
00000060: 9fae 953b 0e43 52bb 3ca3 32bc 4daa 323c
00000070: 574e adbc e76c fc3b 28cb 183d 8ef5 a83c
00000080: ec45 1cbc 4550 47bb d3cd 193c 9240 643d
00000090: 316c 41bc 090f 0b3d 5c77 0ebd d8fa 203c
000000a0: eb1d e93b 0fbc c23b d72c 27bb dcdf c6b9
000000b0: 287f daba 6fe8 8abc cac9 253c 4f11 b0bc
000000c0: 8baa bebc 3ed7 89bc ba1c 663a 2081 343c
000000d0: 4f79 98bb f7ba 82bc 291b 2dbd 2e18 303c
000000e0: dafd c83c 768b b838 d00a db3c 5451 103c
000000f0: 6358 74b9 1773 243b ee6d d43c f706 e73b
00000100: 1ac3 773c e89f c93b 8e94 423c dbc5 043d
00000110: cb0e b63c dcbe dc3b 24de 14bd 2585 9dbc
00000120: 5b56 b9bc 0df9 7dbc cecd 25bc f7ea 153b
00000130: 9ac1 6dbc 958e afbc b213 85bb 0ad3 81bb
00000140: d21e 4bbb 136a d63c 6b23 e13c f00b 13bd
00000150: 244d 8aba aa24 a339 f052 3dbc 8e9c 023d
00000160: 6538 263d f9d3 c0bb 4efa 863b 9f4b a93c
00000170: 83d0 743b 5ed9 4c39 ee7b cf3b fea4 123c
00000180: 8757 793c 3821 143c 62d8 50bc 90cd 9b3c
00000190: baf6 1dbd 9725 b83c 4965 8cbc b00b 3b3b
000001a0: 82e0 92bc a5dc 55bc fea3 b6bb d5ef 8aba
000001b0: 85a7 24bc 1e7d 9abc 3a15 693c ed25 92bb
000001c0: 1642 44bc 1091 bc3b 09a2 f33c afc6 933b
000001d0: 2a08 ecbc c638 e3ba 3499 e5bc 7f21 c13b
000001e0: 951d fb3c c693 a4bc 73c3 b9b8 0b9f 9a39
000001f0: 431a 7bbc 2db5 7bbc 3956 e6bc 7612 273c
00000200: c931 ba3a 8209 11bd 1201 133c 9086 983c
00000210: ba22 c6bb 0f99 5bbc 6261 183b beda ef3c
00000220: cb2b bcbc 9cdb 4dbd 3b91 833c 1327 e9bc
00000230: 4172 43bd bb15 46bc a087 f5bb f6a0 4cbc
00000240: ffa8 163a 2a9d 81bb cb3e 003d 23a2 9fbc
00000250: 30a5 943b 0a47 8d3c 212b c43c 151c 163c
00000260: 65e0 d2bc 6e92 883c 0888 07bc a26f 043d
00000270: 2306 c23c e932 b23c 9b9f 44bc cf8e d8ba
00000280: d025 673c 8859 d63c b1d7 4b3d e479 ca3c
00000290: 04b7 91bb 8180 793a a74e 0cbc 4eab a3bb
000002a0: 2d41 903c edcd b23c f118 33bc 84a8 88bb
000002b0: 1b79 563c d612 703c 4a78 d1bb de76 5f3c
000002c0: e631 edbc 321d 74bc 6741 37bc dc27 8a3c
000002d0: 314c cabc a6cc a4bb 3c9c 303d 67d2 deba
000002e0: 6197 65bb 7202 a5bb c0e4 b3bc b1f9 9a3c
000002f0: 810b 8a3c 718b 2b3d 0a7f dc3b 68a2 e13b
00000300: 2bef d33b 847e 97bc 8d5c 2fbd f645 fb3c
00000310: 3bc6 e03a b179 fe3c 4c83 0bbb 83cd 0a3c
00000320: 1105 1fbb b527 113c e9ce 00bd 9080 393c
00000330: 3dd2 b9bc a130 b9bb dacb e13c 15ed 98bc
00000340: f8d1 2e3d 35d1 053d ffc3 243d b45c 233c
00000350: 4bbe c83b dff5 e33b eb09 1ebc ccda 1dbd
00000360: 52b5 8d3c 2bdc 5a3d 6503 a4bc 78be a5bc
00000370: b7ae a03c 171f 51bb aa38 8dba b27a 403c
00000380: 6dc7 80bc 6c37 d3bc 5d6c b7bc ae10 1138
00000390: 64ec a53c 538f bb3c 781d b13c afa5 1b3b
000003a0: 382a 9bbb f2e6 a4bc f653 cb3c 80b9 f038
000003b0: c9ea 643c b7aa 4f3b 4371 053d bcf0 b93b
000003c0: 14d8 783c 682c 913c 8f54 f8bb 3b59 023d
000003d0: abf3 82bb e2e6 dabc a1cb bdbb b254 efba
000003e0: c850 8d3c b9f2 993c 57c7 7bbc ca32 543d
000003f0: 86eb 99bc 91b7 20bd 7213 583b 1b68 863c

basis_rand_weights f4 [16, 5]
0.035773896 -0.024159636 0.003704843 0.15103047 -0.05207744 0.018513866 -0.0075848843 -0.08450348
-0.09845621 0.18156941 0.015743723 -0.026195757 0.009225402 0.05078113 -0.030933592 -0.016651869
-0.04409755 0.0055285725 -0.07946098 0.1062107 0.01940996 -0.07786634 -0.07119532 0.055320106
-0.0990856 0.057723977 -0.17826657 -0.034806814 0.0051417267 -0.066248834 0.068622835 -0.17604367
-0.05263899 0.073624834 -0.044055313 0.03683023 -0.119848736 -0.09955725 0.11774073 -0.08888285
0.05505602 -0.15151113 0.010592664 0.28779438 -0.04945669 0.10618328 -0.17097807 -0.031843893
0.13936542 -0.047634184 -0.07278134 -0.01130944 0.1654657 0.38896406 -0.08968734 0.012289461
-0.17976756 -0.17538261 0.23295794 0.06906453 0.06580015 -0.11802176 0.0067644455 0.27065837
-0.032842632 -0.10068962 -0.055302903 0.0022054291 0.23168051 0.017269213 0.0554929 -0.06171651
-0.17426914 -0.058232624 -0.22253668 0.00541054 0.041908722 0.0024167923 0.3274733 0.037569687
00000000: a687 123d 6eea c5bc f4cc 723b bba7 1a3e
00000010: 274f 55bd 64aa 973c 9f8a f8bb 2910 adbd
00000020: 69a3 c9bd 55ed 393e fbf8 803c 7c98 d6bc
00000030: 2426 173c e0ff 4f3d 7268 fdbc 8069 88bc
00000040: a29f 34bd 0729 b53b 70bc a2bd ff84 d93d
00000050: a301 9f3c 6378 9fbd dace 91bd 5697 623d
00000060: 64ed cabd fa6f 6c3d 838b 36be 9791 0ebd
00000070: ee7b a83b 78ad 87bd 218a 8c3d cb44 34be
00000080: fb9b 57bd 9ec8 963d 5873 34bd 4cdb 163d
00000090: 4173 f5bd ace4 cbbd 0d22 f13d 3608 b6bd
000000a0: 6c82 613d bc25 1bbe da8c 2d3c c959 933e
000000b0: 1993 4abd 9f76 d93d e014 2fbe be6e 02bd
000000c0: cfb5 0e3e 101c 43bd 620e 95bd 3b4b 39bc
000000d0: d76f 293e 4c26 c73e ffad b7bd bc59 493c
000000e0: fd14 38be 8097 33be 878c 6e3e b471 8d3d
000000f0: 3bc2 863d 64b5 f1bd 48a8 dd3b bc93 8a3e
00000100: ff85 06bd 5c36 cebd 4c85 62bd f688 103b
00000110: a83d 6d3e 2a78 8d3c 864c 633d 74ca 7cbd
00000120: 9c73 32be 5585 6ebd a8e0 63be e64a b13b
00000130: 7ba8 2b3d 0c63 1e3b 95aa a73e ace2 193d

basis_vecs f4 [3, 768]
0.012412596 -0.030949317 0.006251673 0.01312857 0.009847002 0.008750063 -0.004871359 -0.018243162
-0.019268177 0.0031096486 0.0154718915 0.019771092 0.0023626823 0.008263699 0.004784171 0.019646008
0.012828049 -0.012508858 -0.017567493 -0.007667131 0.008281031 -0.0037454236 0.0047877748 0.020260965
0.0070445156 0.016588999 -0.028206581 0.0058602747 -0.037218824 0.03433772 0.021266945 0.0111681195
-0.024005104 -0.0018387765 0.0010185578 0.038325693 0.00811692 0.014702628 -0.012035748 0.00035057415
-0.01270023 0.01040135 0.0048102844 0.0029566765 0.013031014 -0.011150311 0.006114961 -0.021368595
-0.01473582 0.0025125726 -0.0003779911 0.014913686 0.016645806 -0.015179834 -0.024305243 0.025932377
0.020384433 0.0019937737 0.012516487 0.014526584 -0.013814781 0.0036712396 0.02087558 0.005190674
0.02518832 0.0005599706 0.018491127 -0.004836776 0.0046947985 0.0031268506 -0.018583773 -0.0033163687
-0.014173468 -0.019237515 -0.00122631 0.012945224 0.00025650262 -0.012256721 -0.019450843 0.0070412206
0.0095529165 0.01240145 0.02252377 -0.025376918 5.1538264e-05 -0.017277837 -0.018945469 0.0152151175
0.028666392 -0.0053041987 -0.0030217078 0.018777702 -0.0013005164 -0.0061968165 0.022884265 -0.03335294
0.0014342926 0.0042676306 -0.01431606 0.033367 -0.022005176 0.008322953 -0.011268817 -0.009150799
-0.008407635 -0.012692092 0.0037216947 0.010316711 -0.0063611814 -0.003106967 0.022462822 -0.015852977
-0.010811921 -0.0011060981 0.028402112 -0.005403031 0.004029402 -0.018913727 0.0072669857 0.015260153
0.009430322 0.0012589166 0.009053392 0.023029307 -0.008633144 -0.009917112 -0.019423867 0.023693454
0.004184102 -0.022195656 0.0056247236 0.004186218 0.0011260629 -0.013277895 -0.009088779 0.025781218
0.0034888147 -0.012073505 0.023624836 0.0021814103 -0.023342317 0.010024109 0.009460512 -0.020453544
0.010227624 -0.0018753313 0.028998993 -0.0032246409 0.002292252 0.013990506 -0.01993062 -0.0024903938
0.01245832 0.025590954 0.009379553 0.01499608 0.015921207 0.010835496 0.009546982 0.010183437
-0.004607478 0.0058514765 0.01618441 0.017509935 0.0062681357 0.0058376533 0.0011076474 -0.0069296435
0.01889972 0.02537012 -0.0038903628 -0.016860832 0.018306993 0.020802682 -0.005455789 -0.0013642018
-0.027393479 0.0078992555 -0.013685286 0.025442714 0.0123989675 -0.0048488625 0.03909999 -0.0076788836
-0.0032851554 -0.0057324735 -0.010948206 0.009000207 0.01363649 0.02501014 0.0060319453 0.009464656
0.0033785151 -0.017142469 -0.021755395 0.021100936 -0.0016046362 0.008070713 -0.0027816156 0.020290753
0.0006587019 -0.0038537642 -0.02766368 0.003823352 0.004851893 -0.021135248 0.012531153 -0.015010299
0.03811758 0.01890291 0.03391334 0.010590902 -0.0015744639 -0.0031237423 0.009392241 0.0013965295
0.02242781 0.04010281 -0.021874536 -0.019153554 -0.0062053897 -0.035168923 -0.006688624 0.011400651
-0.0075614317 -0.01884784 -0.023237651 -0.008402595 -0.024134602 0.014013701 -0.004154411 -0.0015631663
0.0030950475 0.0064529125 0.022590028 -0.0047172424 -0.0013947901 -0.0026282293 0.008460223 -0.01970149
0.025470696 0.0055255904 -0.0048592538 -0.0033551964 0.009005811 -0.025297306 0.005540212 -0.00896871
0.023136128 0.0057365363 -0.01331782 0.017100994 -0.03741082 -0.00371732 0.0036734864 0.0009667501
00000000: 335e 4b3c 6c89 fdbc d6da cc3b 3719 573c
00000010: 5255 213c 6d5c 0f3c ec9f 9fbb af72 95bc
00000020: 4cd8 9dbc 3fcb 4b3b d17d 7d3c fcf6 a13c
00000030: 3bd7 1a3b 7764 073c 89c4 9c3b aaf0 a03c
00000040: bd2c 523c f4f1 4cbc b4e9 8fbc 8e3c fbbb
00000050: 29ad 073c c875 75bb c4e2 9c3b 53fa a53c
00000060: aed5 e63b a7e5 873c 7d11 e7bc 8c07 c03b
00000070: c472 18bd b6a5 0c3d 0438 ae3c 7dfa 363c
00000080: 5aa6 c4bc 1a03 f1ba 2181 853a 67fb 1c3d
00000090: d4fc 043c 4be3 703c 9631 45bc 44cd b739
000000a0: a014 50bc 6d6a 2a3c 979f 9d3b cdc4 413b
000000b0: 0980 553c cbaf 36bc 0360 c83b 310d afbc
000000c0: 826e 71bc f9a9 243b 1b2d c6b9 8858 743c
000000d0: c95c 883c d7b4 78bc ca1b c7bc 2370 d43c
000000e0: 41fd a63c f9a9 023b f411 4d3c e900 6e3c
000000f0: 6457 62bc 2e99 703b 4403 ab3c 8816 aa3b
00000100: bc57 ce3c feca 123a b47a 973c d17d 9ebb
00000110: d3d6 993b d9eb 4c3b ff3c 98bc 6f57 59bb
00000120: d537 68bc fe97 9dbc 23bc a0ba 3418 543c
00000130: 337b 8639 6ad0 48bc 6057 9fbc 0aba e63b
00000140: d683 1c3c 742f 4b3c c583 b83c 41e3 cfbc
00000150: ca2a 5838 408a 8dbc 8733 9bbc d448 793c
00000160: c8d5 ea3c d8ce adbb d807 46bb b2d3 993c
00000170: 1776 aaba aa0e cbbb c877 bb3c 189d 08bd
00000180: e0fe bb3a 7bd7 8b3b e88d 6abc d6ab 083d
00000190: 3344 b4bc ff5c 083c d8a0 38bc 3ced 15bc
000001a0: 2dc0 09bc 7ef2 4fbc ade7 733b 6c07 293c
000001b0: 7571 d0bb 429e 4bbb f403 b83c 1ade 81bc
000001c0: 7c24 31bc 7efa 90ba 8cab e83c e90b b1bb
000001d0: 1309 843b f6f0 9abc e51f ee3b b905 7a3c
000001e0: a381 1a3c 3b02 a53a ae54 143c f5a7 bc3c
000001f0: 0872 0dbc 627b 22bc cd1e 9fbc c618 c23c
00000200: cb1a 893b aad3 b5bc 9a4f b83b 8b2c 893b
00000210: 6798 933a 878b 59bc 1ae9 14bc 2233 d33c
00000220: 99a4 643b f3cf 45bc df88 c13c fef5 0e3b
00000230: 6338 bfbc 293c 243c 4300 1b3c 318e a7bc
00000240: c491 273c adcd f5ba 4c8f ed3c 7f54 53bb
00000250: 9b39 163b 6f38 653c 8a45 a3bc e035 23bb
00000260: fb1d 4c3c 1fa4 d13c b2ac 193c 1eb2 753c
00000270: 316d 823c 5d87 313c f26a 1c3c 6ed8 263c
00000280: 54fa 96bb bebd bf3b 2b95 843c ff70 8f3c
00000290: ef64 cd3b c949 bf3b 7b2e 913a 1012 e3bb
000002a0: 96d3 9a3c ffd4 cf3c 75f5 7ebb ba1f 8abc
000002b0: 8cf8 953c 636a aa3c 7ac6 b2bb 04cf b2ba
000002c0: 4a68 e0bc e16b 013c 4038 60bc 3d6d d03c
000002d0: 0a25 4b3c 35e3 9ebb 5027 203d 259f fbbb
000002e0: c34b 57bb 79d7 bbbb 1b60 33bc 9b75 133c
000002f0: 966b 5f3c 11e2 cc3c a0a7 c53b a511 1b3c
00000300: 146a 5d3b 5d6e 8cbc 5f38 b2bc dfdb ac3c
00000310: a852 d2ba 063b 043c c44b 36bb cb38 a63c
00000320: bcac 2c3a 6f8f 7cbb f19e e2bc 3491 7a3b
00000330: a1fc 9e3b d423 adbc 774f 4d3c c2ed 75bc
00000340: 2e21 1c3d 47da 9a3c b7e8 0a3d 7685 2d3c
00000350: 3e5e ceba b3b7 4cbb eae1 193c c10b b73a
00000360: 87ba b73c d842 243d 3a32 b3bc eae7 9cbc
00000370: 9556 cbbb 4a0d 10bd 3f2c dbbb ccc9 3a3c
00000380: e3c5 f7bb c966 9abc e35c bebc 0aab 09bc
00000390: eeb5 c5bc b999 653c ba21 88bb 28e3 ccba
000003a0: 48d6 4a3b f472 d33b b90e b93c 1993 9abb
000003b0: 64d1 b6ba 5f3e 2cbb bf9c 0a3c 0565 a1bc
000003c0: eca7 d03c 0310 b53b 603a 9fbb dbe2 5bbb
000003d0: 1c8d 133c 4c3c cfbc ab8a b53b 7ff1 12bc
000003e0: fa87 bd3c 8ef9 bb3b fc32 5abc 6217 8c3c
000003f0: 173c 19bd 489e 73bb e0be 703b 806d 7d3a

basis_comm_weights f4 [1, 5]
0.37871787 0.34997863 0.1381093 0.51594484 0.1825683
00000000: 4fe7 c13e 6630 b33e 866c 0d3e f614 043f
00000010: 2ff3 3a3e

bias f4 [16, 768]
-0.02734885 -0.012653449 0.007226455 0.009860576 0.008546326 0.015955865 0.041419465 0.0423389
-0.004265295 0.009937768 0.041305926 0.009281233 -0.018560803 -0.0068342593 -0.006007653 -0.047447473
-0.024371233 -0.00060960284 0.007884411 0.006737676 0.011187823 -0.0020579018 -0.03602234 -0.037777483
-0.025103994 -0.020724421 -0.03873225 -0.0018924036 -0.020927789 -0.0135143455 -0.04604808 0.054986946
-0.025567396 0.044431243 -0.037505258 0.0053457627 -0.026250174 0.011106304 -0.009072891 0.02596263
0.010103325 0.009224479 -0.036587715 0.052875858 0.04035279 0.014332822 0.011426188 -0.014544601
0.010123642 0.028587017 0.05370931 0.009274292 -0.026319362 0.026154703 0.0008448671 -0.016449045
0.0056187822 -0.036677413 0.0010940431 -0.005205161 -0.077730395 0.0062635927 -0.002563607 0.04234219
0.02526918 -0.0025022794 0.0295125 -0.015509519 -0.03443211 -0.0032675113 -0.026129486 0.004874267
-0.009609776 -0.053247664 -0.021386633 -0.0416964 -0.01644826 0.018590404 -0.028117385 0.016274845
-0.016404064 -0.009778465 0.011264937 -0.03419551 -0.0036463952 -0.01486521 -0.03399104 0.008915984
-0.017377991 -0.088596165 0.0035411543 0.027724447 -0.0048033507 -0.025982307 0.044820193 -0.00933531
0.052008107 -0.00052553666 -0.04086621 -0.012930487 0.00950557 0.031263486 -0.02116155 -0.035232246
-0.008958657 0.019815493 0.007763771 0.012478284 -0.024917262 0.025959449 -0.001011987 0.060668726
-0.009401049 0.00600171 -0.031218538 0.0061447914 -0.0402128 0.03898985 0.040709548 0.006203912
0.008484096 -0.03203462 -0.026406849 -0.016185695 -0.024002694 -0.020486046 -0.017471077 0.027248131
0.022066614 0.029891452 0.004801066 -0.008605826 0.011005723 0.0114965765 -0.042264257 -0.05107044
0.016807437 -0.017636016 0.0024488133 0.041641705 0.015148049 0.010628252 -0.0463852 -0.065516606
-0.0037145854 -0.014079299 0.007756 0.013027476 -0.0053308434 0.002690194 0.012387479 -0.042549822
0.015287649 -0.007858365 0.043905456 0.042165883 -0.015666032 -0.010860567 0.025485061 0.043459363
0.009662008 0.028061919 -0.012981784 0.013137845 0.014900456 -0.009463969 -0.04000898 -0.03585389
0.0445336 0.025797382 -0.025054097 -0.036326326 0.018257815 -0.0089060245 -0.009367955 0.015229578
0.027095342 0.021157917 0.024947912 0.026095273 -0.024201808 0.011115063 0.01394824 0.012034609
-0.018845182 0.029353991 -0.022603571 0.028004339 0.018808682 0.06154131 -0.0047056405 -0.04867013
0.0032782063 -0.028503276 -0.0066774394 0.05692125 -0.012094478 0.01719692 0.046736848 -0.01006598
0.014701429 -0.0044434546 0.02176838 -0.035131656 -0.0016122742 -0.048979104 -0.016881265 -0.042014986
-0.029552333 -0.030999146 -0.01817055 -0.022240147 -0.046240002 -0.02682296 -0.018587286 -0.025957143
-0.009989362 0.055041537 -0.011154604 0.0056938767 0.004215601 -0.044832155 -0.05529672 0.0003018563
-0.00823854 -0.021847198 0.018454129 -0.014673123 0.014543541 -0.026259314 -0.014723659 0.0037675253
0.0028509698 0.00585967 0.031576034 -0.019027336 0.039050113 0.047427893 -0.0274803 0.012229692
0.0012590996 -0.01997243 0.0060223243 0.024011828 0.032366835 -0.006900083 -0.02234823 -0.039012093
-0.071130455 0.05909024 0.007696846 -0.077270314 -0.004273159 -0.021575924 -0.030308256 0.029802263
00000000: b20a e0bc 6950 4fbc e6cb ec3b 418e 213c
00000010: e405 0c3c e0b5 823c 75a7 293d 8e6b 2d3d
00000020: e3c3 8bbb 05d2 223c 6730 293d 5010 183c
00000030: d30c 98bc ecf1 dfbb d9db c4bb 4858 42bd
00000040: 2ea6 c7bc c1cd 1fba 9e2d 013c b9c7 dc3b
00000050: 214d 373c dddd 06bb 298c 13bd 90bc 1abd
00000060: e4a6 cdbc 43c6 a9bc b5a5 1ebd 870a f8ba
00000070: c170 abbc 466b 5dbc e99c 3cbd fe39 613d
00000080: b772 d1bc 89fd 353d 1d9f 19bd 822b af3b
00000090: 9b0a d7bc 37f7 353c 77a6 14bc 95af d43c
000000a0: 6b88 253c 4522 173c 00dd 15bd 5b94 583d
000000b0: f848 253d 36d4 6a3c e834 3b3c 7a4c 6ebc
000000c0: a2dd 253c 522f ea3c 4bfe 5b3d 33f3 173c
000000d0: b49b d7bc 6342 d63c 127a 5d3a 26c0 86bc
000000e0: c31d b83b 0e3b 16bd ff65 8f3a 0e90 aabb
000000f0: 1d31 9fbd d33e cd3b 3002 28bb 016f 2d3d
00000100: 5001 cf3c 48fd 23bb 33c4 f13c a31b 7ebc
00000110: af08 0dbd be23 56bb 810d d6bc 51b8 9f3b
00000120: 5272 1dbc 391a 5abd 0533 afbc d8c9 2abd
00000130: 80be 86bc e74a 983c 6e56 e6bc d352 853c
00000140: d161 86bc db35 20bc 9290 383c 9710 0cbd
00000150: 5cf8 6ebb 368d 73bc 303a 0bbd 5914 123c
00000160: 4a5c 8ebc e871 b5bd b612 683b 611e e33c
00000170: 6d65 9dbb d9d8 d4bc 6195 373d 21f3 18bc
00000180: 7406 553d 2bc4 09ba 5463 27bd 65da 53bc
00000190: 40bd 1b3c 240e 003d fd5a adbc b04f 10bd
000001a0: 55c7 12bc 1a54 a23c 3b67 fe3b b771 4c3c
000001b0: 491f ccbc e9a8 d43c a6a4 84ba c57f 783d
000001c0: dc06 1abc fea9 c43b 05be ffbc 3f5a c93b
000001d0: 2db6 24bd d2b3 1f3d 0ebf 263d 304a cb3b
000001e0: e100 0b3c bc36 03bd 2d53 d8bc dd97 84bc
000001f0: 4ca1 c4bc 5ad2 a7bc 811f 8fbc 7937 df3c
00000200: 0bc5 b43c ebde f43c 4352 9d3b 73ff 0cbc
00000210: 5951 343c 235c 3c3c 491d 2dbd 3d2f 51bd
00000220: c0af 893c 6879 90bc 457c 203b 7e90 2a3d
00000230: 862f 783c 1f22 2e3c 68fe 3dbd 922d 86bd
00000240: 6770 73bb dcac 66bc 0b26 fe3b 3271 553c
00000250: 5bae aebb f74d 303b daf4 4a3c b948 2ebd
00000260: 0c79 7a3c 5fc0 00bc 35d6 333d 22b6 2c3d
00000270: 0d56 80bc 85f0 31bc 0cc6 d03c 7202 323d
00000280: 664d 1e3c 1ce2 e53c 8cb1 54bc 1e40 573c
00000290: 0b21 743c c30e 1bbc 75e0 23bd 87db 12bd
000002a0: dd68 363d 0855 d33c 403e cdbc eaca 14bd
000002b0: 6a91 953c 93ea 11bc 0d7c 19bc 7b85 793c
000002c0: 0df7 dd3c 5e53 ad3c 905f cc3c c1c5 d53c
000002d0: df42 c6bc f41b 363c 2987 643c cf2c 453c
000002e0: 3661 9abc c877 f03c 202b b9bc 5b69 e53c
000002f0: aa14 9a3c be12 7c3d c631 9abb 555a 47bd
00000300: 2dd7 563b b47f e9bc 6cce dabb 4226 693d
00000310: eb27 46bc 8ee0 8c3c 236f 3f3d c8eb 24bc
00000320: 43de 703c 669a 91bb 9a53 b23c 36e6 0fbd
00000330: f252 d3ba 509e 48bd 944a 8abc e817 2cbd
00000340: bc17 f2bc ecf1 fdbc 68da 94bc f830 b6bc
00000350: 2866 3dbd d3bb dbbc 5d44 98bc 13a4 d4bc
00000360: 6caa 23bc 3c73 613d cdc1 36bc b393 ba3b
00000370: 0623 8a3b eca1 37bd d07e 62bd 7742 9e39
00000380: f1fa 06bc e5f8 b2bc 1d2d 973c 8a67 70bc
00000390: 0848 6e3c c61d d7bc 803b 71bc 96e8 763b
000003a0: 56d7 3a3b 7a02 c03b df55 013d 37df 9bbc
000003b0: 03f3 1f3d c043 423d 5e1e e1bc 0c5f 483c
000003c0: 5f08 a53a 399d a3bc eb56 c53b 74b4 c43c
000003d0: 1693 043d 171a e2bb a313 b7bc 25cb 1fbd
000003e0: d8ac 91bd 9c08 723d d335 fc3b e63f 9ebd
000003f0: db05 8cbb febf b0bc 0549 f8bc e023 f43c

weight f4 [768]
0.88118875 1.0114996 1.0215977 1.0003387 0.97767174 1.0429329 0.9021563 0.81866586
0.9996195 0.96133995 1.0467302 0.98097247 1.0265591 0.98125273 0.97259367 0.8973816
0.9152222 0.9848403 1.0481573 0.9576683 1.0054669 0.9593741 1.02767 0.97985613
0.97936946 0.9086952 1.1011065 0.94823426 1.0350227 0.9438366 0.833112 0.9792331
1.0527968 0.84230024 1.0289613 0.9849082 0.97242707 1.008483 0.9515506 0.94335544
1.0323234 1.0192095 0.9815369 0.82490176 0.97407675 1.0173963 0.95491654 1.0403671
0.9847624 1.0711244 0.9187004 0.9971842 1.0446829 0.9465669 1.0181227 0.9814887
0.9969198 0.86974275 1.008647 0.9686995 0.98130953 0.94855684 1.035395 1.0307827
1.0339891 1.0171993 1.011293 0.9387659 0.94396675 0.9765691 1.0608748 1.001168
1.0165377 1.1105077 1.0079421 0.928485 1.0562502 0.980511 0.98679334 1.0632185
0.97435343 0.9731006 1.0430444 1.0174121 0.9968776 1.0678676 0.9965704 1.0630684
1.0253407 0.92366165 0.9560229 1.1394186 1.0172642 0.89720076 1.0795832 0.9360263
1.0655302 0.9471794 1.1286362 0.9925718 0.9549766 1.0913657 1.0050596 1.0211623
1.0961782 0.9283028 0.9900899 1.0221249 1.0298402 0.972781 0.9996765 0.8360405
0.974053 0.97176903 0.9222182 0.9813572 1.0286809 0.92391413 1.0931042 0.97320676
1.0455123 1.0677277 1.0492474 0.9391292 1.054018 0.95759624 1.0802189 1.0365982
1.0948379 0.88986325 1.0340776 0.96436656 0.97728676 0.998475 1.0198185 0.85405606
0.94715184 0.9920954 1.0150384 0.8498949 1.007007 0.9501998 0.7956499 1.2026836
0.9625891 0.8677085 1.0458637 1.0062414 0.9263925 0.9729196 0.9722379 1.0051076
0.93187565 1.0084447 1.0306704 1.0720029 0.99623924 0.9507541 1.0733879 1.1408845
0.95208335 1.0190759 0.9387522 1.0561428 1.0532066 0.92881924 1.1183517 1.0192481
1.0932614 1.0576576 1.028506 1.0036161 0.99467045 0.98398846 1.0012742 1.0146233
0.9309506 0.9473542 0.95116836 1.1679955 0.99777585 0.990828 0.9600712 0.95007443
0.9930092 0.9393083 1.0544504 1.1102347 0.97947514 1.1878304 0.9468885 0.86029446
0.9310943 1.0900165 1.0195465 1.1742992 0.91839206 1.0899307 0.91993874 0.90131176
0.934101 1.0707388 0.9442074 0.92795146 1.0013846 1.0421857 0.93837416 1.0879431
0.9402613 0.8789797 0.9851662 0.9027581 0.9388126 1.0562218 1.0659845 1.0490946
0.9798048 1.1994756 1.0203927 0.90491444 0.9886394 1.0637476 1.1056881 0.9937777
0.9646006 1.0154139 1.0023283 0.9613489 0.94789416 0.8855393 1.0164661 1.0007217
1.0070578 0.9769128 1.086535 0.93473065 1.0275515 0.89896655 0.8792755 1.0107502
1.0062231 0.90616995 0.99455285 1.0448374 1.0106993 1.0088848 0.9313306 1.0028043
0.7594437 1.1058794 0.94927675 0.6792462 1.0193391 1.1034464 1.0492983 0.9680334
00000000: 9695 613f d278 813f b7c3 823f 190b 803f
00000010: b248 7a3f d37e 853f b7f3 663f 1694 513f
00000020: 10e7 7f3f 601a 763f 41fb 853f 0321 7b3f
00000030: 4a66 833f 6133 7b3f e6fb 783f cdba 653f
00000040: 014c 6a3f 7e1e 7c3f 052a 863f c029 753f
00000050: 24b3 803f 8b99 753f b18a 833f dad7 7a3f
00000060: f5b7 7a3f 40a0 683f 0ff1 8c3f 7bbf 723f
00000070: a07b 843f 479f 713f d446 553f 05af 7a3f
00000080: 0cc2 863f fda0 573f 01b5 833f f222 7c3f
00000090: fbf0 783f f915 813f d298 733f be7f 713f
000000a0: 2c23 843f 7575 823f 0146 7b3f c32c 533f
000000b0: 185d 793f 0b3a 823f 6975 743f c02a 853f
000000c0: 6319 7c3f 9b1a 893f f32f 6b3f 7747 7f3f
000000d0: 2bb8 853f 3552 723f d851 823f d842 7b3f
000000e0: 2336 7f3f 76a7 5e3f 581b 813f b1fc 773f
000000f0: 1a37 7b3f 9fd4 723f d387 843f b0f0 833f
00000100: c159 843f 9633 823f 0d72 813f f652 703f
00000110: cea7 713f 6f00 7a3f bfca 873f 4626 803f
00000120: e81d 823f 1e25 8e3f 3f04 813f 31b1 6d3f
00000130: 3533 873f c502 7b3f 7d9e 7c3f 8b17 883f
00000140: 3a6f 793f 1f1d 793f 7b82 853f 8f3a 823f
00000150: 5f33 7f3f e3af 883f 3d1f 7f3f a012 883f
00000160: 5d3e 833f 1775 6c3f ebbd 743f 78d8 913f
00000170: b735 823f f3ae 653f c82f 8a3f 6b9f 6f3f
00000180: 4b63 883f 597a 723f 2777 903f 2f19 7e3f
00000190: 5979 743f dfb1 8b3f cba5 803f 72b5 823f
000001a0: 914f 8c3f 41a5 6d3f 8876 7d3f fdd4 823f
000001b0: ced1 833f 2d08 793f cdea 7f3f c006 563f
000001c0: 8a5b 793f dbc5 783f 7e16 6c3f 3a3a 7b3f
000001d0: d1ab 833f a385 6c3f d7ea 8b3f 1424 793f
000001e0: 59d3 853f 4dab 883f bd4d 863f c56a 703f
000001f0: 10ea 863f 0725 753f 9d44 8a3f 40af 843f
00000200: a623 8c3f 14ce 633f a85c 843f bae0 763f
00000210: 772f 7a3f 0f9c 7f3f 6a89 823f 6ba3 5a3f
00000220: 8b78 723f f7f9 7d3f c7ec 813f b692 593f
00000230: 9be5 803f 4b40 733f b6af 4b3f 89f1 993f
00000240: 3d6c 763f 2522 5e3f ddde 853f 85cc 803f
00000250: 0f28 6d3f 4211 793f 95e4 783f 5ea7 803f
00000260: 678f 6e3f b714 813f 02ed 833f 6437 893f
00000270: 8909 7f3f 9f64 733f c664 893f 8108 923f
00000280: bcbb 733f 1471 823f 1052 703f b02f 873f
00000290: 79cf 863f 19c7 6d3f 2626 8f3f b976 823f
000002a0: fdef 8b3f 5361 873f 16a6 833f 7e76 803f
000002b0: b9a2 7e3f abe6 7b3f c129 803f 2ddf 813f
000002c0: c752 6e3f ce85 723f c57f 733f e080 953f
000002d0: 3d6e 7f3f e7a6 7d3f 3ac7 753f 1438 733f
000002e0: da35 7e3f 8276 703f 3bf8 863f 2c1c 8e3f
000002f0: e2be 7a3f d40a 983f 4967 723f 423c 5c3f
00000300: 325c 6e3f a985 8b3f 8080 823f 704f 963f
00000310: be1b 6b3f d982 8b3f 1b81 6b3f 5ebc 663f
00000320: 3e21 6f3f f80d 893f 93b7 713f 3a8e 6d3f
00000330: 5f2d 803f 5766 853f 4a39 703f b841 8b3f
00000340: f7b4 703f d004 613f da33 7c3f 281b 673f
00000350: 0656 703f 4732 873f 2e72 883f bb48 863f
00000360: 7dd4 7a3f 6b88 993f 3a9c 823f 79a8 673f
00000370: 7917 7d3f e228 883f 3087 8d3f 3768 7e3f
00000380: 11f0 763f 15f9 813f 4b4c 803f f61a 763f
00000390: 31a9 723f b4b2 623f 901b 823f a617 803f
000003a0: 45e7 803f f516 7a3f 9413 8b3f 824a 6f3f
000003b0: cf86 833f ac22 663f 3318 613f 4360 813f
000003c0: ebcb 803f c1fa 673f 049b 7e3f 3bbd 853f
000003d0: 985e 813f 2323 813f af6b 6e3f e45b 803f
000003e0: e76a 423f 758d 8d3f cd03 733f 14e3 2d3f
000003f0: b479 823f bb3d 8d3f 684f 863f 09d1 773f

bias f4 [768]
-0.060200226 -0.025325265 0.00047940953 0.0047562667 0.0054610274 0.05379796 0.10402316 0.12240935
0.0075866906 0.0029558996 0.02430746 0.04007161 -0.03526897 -0.024456004 0.0061724302 -0.09835123
-0.025534488 -0.0013446208 -0.040848453 0.016566748 0.038077567 -0.026142458 -0.086070046 -0.08702006
-0.045788895 -0.06345308 -0.10142296 -0.038376298 -0.082957774 -0.0496503 -0.16349542 0.19895905
-0.08579824 0.13673432 -0.11653035 0.026719127 -0.07144839 0.024190964 0.038843513 0.12596643
0.045052957 -0.013359664 -0.0661297 0.18219635 0.09687581 -0.024681643 0.03797217 -0.03803429
0.036943696 0.10395321 0.123085625 0.0018658474 -0.0773144 0.046498593 -0.022361722 -0.018281495
0.0022314833 -0.13758917 0.0013573812 -0.019344931 -0.2243283 -0.047127422 0.041192222 0.09333504
0.047719955 -0.024748381 0.09758971 -0.022265093 -0.06869897 -0.011035773 -0.068238586 -0.028018363
-0.041282278 -0.14546974 -0.053176615 -0.07692255 -0.03126253 0.011453216 -0.0117063755 0.10957661
-0.07890457 -0.007949478 0.044741772 -0.054794263 -0.0073878923 -0.055521455 -0.1157054 0.07477313
0.029157065 -0.18178225 -0.051101193 0.13902669 0.0043675215 -0.023779338 0.11179328 0.023681076
0.12906367 0.021045383 -0.13928448 -0.00026909442 0.03912657 0.10855334 -0.016105644 -0.066039935
-0.09101166 0.06448046 0.017310651 0.032438878 -0.06372221 0.013220359 0.00627163 0.15108062
-0.047751278 -0.0199101 -0.052396346 -0.0031962572 -0.053433895 0.10204689 0.1510209 -0.0019396119
0.041439224 -0.13754329 -0.064601436 0.018614776 -0.07536019 -0.057196952 -0.07191581 0.059594676
0.1075517 0.10905737 -0.03677928 -0.022471454 0.020946894 -0.02717831 -0.096952684 -0.1210854
0.038372207 0.009247279 0.02160159 0.14113854 -0.017435838 0.027744213 -0.1948689 -0.21809146
-0.007757166 -0.016016299 0.042571954 0.005782848 0.02262286 0.020074954 0.0711775 -0.065935716
0.061231308 -0.0028220422 0.06698506 0.09854942 0.0014023586 -0.047363926 0.12244011 0.11515455
-0.0034624476 0.05683016 -0.063722014 0.057445902 0.048195623 -0.07233607 -0.124193385 -0.054569505
0.09318018 0.07240731 -0.034605276 -0.071811005 0.033391535 0.011222202 -0.00897721 0.094469614
0.120518 0.037806246 0.05461347 0.14169396 -0.015592131 0.029260743 0.082844324 0.051314898
-0.015588517 0.04069419 -0.08002219 0.11063696 -0.022980578 0.18927029 -0.015710091 -0.12046979
0.0047625257 -0.09863096 -0.057995997 0.17826174 -0.065535866 0.07784847 0.07117764 -0.012503945
0.03990712 -0.03296022 0.04838779 -0.10733103 0.0003368839 -0.074253306 -0.03180832 -0.10907292
-0.052879144 -0.11321388 -0.00929109 -0.07201299 -0.119431354 -0.08573628 -0.0692201 -0.08279915
-0.024241466 0.17521861 -0.029727597 0.007198935 -0.0063377586 -0.0679791 -0.16045386 0.03149856
-0.042001825 -0.031275366 0.010792287 -0.0016942307 -0.0004367177 -0.071871884 -0.033839732 0.0068215113
0.014060078 0.008050071 0.07900429 -0.034977093 0.05550844 0.14934663 -0.0706844 -0.013055748
0.009449409 -0.042873055 0.0034839262 0.07248109 0.07180768 0.0021661043 -0.068238795 -0.093046434
-0.18834077 0.14423524 0.043039504 -0.23512682 -0.03933744 -0.121051766 -0.08372144 0.06325042
00000000: 8394 76bd ee76 cfbc 4259 fb39 75da 9b3b
00000010: 6bf2 b23b 405b 5c3d 180a d53d c1b1 fa3d
00000020: c699 f83b c4b7 413b 7020 c73c 2122 243d
00000030: 3276 10bd f557 c8bc 1942 ca3b 5f6c c9bd
00000040: b42d d1bc fd3d b0ba b550 27bd fdb6 873c
00000050: 39f7 1b3d b528 d6bc 7e45 b0bd 9337 b2bd
00000060: 238d 3bbd b0f3 81bd d7b6 cfbd 7730 1dbd
00000070: c4e5 a9bd 1d5e 4bbd 586b 27be ecbb 4b3e
00000080: fdb6 afbd 1504 0c3e 77a7 eebd 12e2 da3c
00000090: 8953 92bd 212c c63c 601a 1f3d 58fd 003e
000000a0: 7389 383d 7ee2 5abc 026f 87bd ae91 3a3e
000000b0: d366 c63d 2831 cabc b588 1b3d d8c9 1bbd
000000c0: 4652 173d 6ce5 d43d 5114 fc3d 738f f43a
000000d0: 0357 9ebd 4f75 3e3d ee2f b7bc 13c3 95bc
000000e0: 143e 123b 2de4 0cbe 28ea b13a 4379 9ebc
000000f0: 51b6 65be af08 41bd 2db9 283d 7126 bf3d
00000100: 0076 433d 1ebd cabc 1ddd c73d 4965 b6bc
00000110: 0cb2 8cbd 63cf 34bc acc0 8bbd c486 e5bc
00000120: 9b17 29bd 05f6 14be b9cf 59bd 9289 9dbd
00000130: 230d 00bd 45a6 3b3c 19cc 3fbc b469 e03d
00000140: b898 a1bd 873e 02bc 2643 373d f36f 60bd
00000150: 2216 f2bb 776a 63bd f4f6 ecbd a822 993d
00000160: ccda ee3c 2025 3abe 7c4f 51bd 035d 0e3e
00000170: 6d1d 8f3b e3cc c2bc e0f3 e43d d1fe c13c
00000180: 4429 043e 5e67 ac3c 97a0 0ebe 3e15 8db9
00000190: 2f43 203d 3751 de3d fcef 83bc f23f 87bd
000001a0: 5264 babd 550e 843d 11cf 8d3c a1de 043d
000001b0: ca80 82bd 349a 583c 3f82 cd3b e1b4 1a3e
000001c0: d896 43bd 821a a3bc 8d9d 56bd 4c78 51bb
000001d0: 80dd 5abd f6fd d03d 39a5 1a3e 933a feba
000001e0: 2dbc 293d 26d8 0cbe c24d 84bd 047e 983c
000001f0: 7156 9abd 5a47 6abd 9948 93bd 8c19 743d
00000200: 1144 dc3d 7859 df3d dfa5 16bd 0e16 b8bc
00000210: d298 ab3c 0ca5 debc 218f c6bd 9ffb f7bd
00000220: 2d2c 1d3d e681 173c d1f5 b03c 9f86 103e
00000230: 9ad5 8ebc d547 e33c b78b 47be 5e53 5fbe
00000240: d32f febb 9d34 83bc ee5f 2e3d 0c7e bd3b
00000250: 9353 b93c 3b74 a43c 82c5 913d 4e09 87bd
00000260: aecd 7a3d 03f2 38bb 772f 893d 47d4 c93d
00000270: 59cf b73a ad00 42bd e1c1 fa3d 26d6 eb3d
00000280: 3bea 62bb bec6 683d b080 82bd 654c 6b3d
00000290: c668 453d ef24 94bd 1a59 febd 4684 5fbd
000002a0: 40d5 be3d 494a 943d 43be 0dbd a611 93bd
000002b0: 90c5 083d 54dd 373c 2615 13bc 4979 c13d
000002c0: 24d2 f63d b9da 1a3d 60b2 5f3d 3918 113e
000002d0: 2376 7fbc 3ab4 ef3c 49aa a93d 922f 523d
000002e0: fb66 7fbc f3ae 263d ade2 a3bd a195 e23d
000002f0: c441 bcbc 12d0 413e 73b2 80bc deb8 f6bd
00000300: f60e 9c3b 07ff c9bd 368d 6dbd 3f8a 363e
00000310: ab37 86bd 056f 9f3d 95c5 913d 59dd 4cbc
00000320: a675 233d 4c01 07bd 4632 463d 5fd0 dbbd
00000330: cb9f b039 1e12 98bd 7149 02bd a061 dfbd
00000340: cd97 58bd aedc e7bd a839 18bc 8c7b 93bd
00000350: 6d98 f4bd 8196 afbd 45c3 8dbd 9a92 a9bd
00000360: 0a96 c6bc 826c 333e 4a87 f3bc 0be5 eb3b
00000370: f9ac cfbb a038 8bbd 044e 24be a204 013d
00000380: 1b0a 2cbd 991a 00bd 22d2 303c f310 deba
00000390: 42f7 e4b9 9131 93bd 889b 0abd fc86 df3b
000003a0: 3e5c 663c 72e4 033c 00cd a13d 2444 0fbd
000003b0: d15c 633d 53ee 183e fcc2 90bd c7e7 55bc
000003c0: b2d1 1a3c a89b 2fbd 9552 643b f770 943d
000003d0: e80f 933d 33f5 0d3b c8c0 8bbd 218f bebd
000003e0: 67dc 40be 67b2 133e 314a 303d 16c5 70be
000003f0: 4c20 21bd fde9 f7bd 2576 abbd 7089 813d

weight f4 [768]
0.9592746 1.0015234 1.0533603 1.0344894 0.9793793 0.9754688 0.9681944 1.1071283
0.9089012 0.9976129 0.9862674 1.0481737 0.9827737 1.048625 0.9619746 0.92745197
0.9550834 0.89379585 0.94082916 0.8981815 1.0333569 0.93706787 0.9616295 1.0580043
0.94828933 1.0761395 1.0379654 0.9824351 0.9725239 0.9676332 0.957513 0.9699055
0.9883459 1.0016398 0.94228536 1.0037109 1.0105463 0.9457489 1.0743545 0.9954838
1.0093554 0.9547898 0.9816536 0.97282785 0.93778586 1.0759428 1.0526391 0.93555707
0.99911475 1.0750254 0.9229818 0.8175436 0.8613164 0.98270035 1.052882 1.0925764
1.0177598 1.0218284 1.0268663 1.0122986 0.92999923 1.0630864 1.0725734 1.0292029
0.91126317 0.94820064 1.154867 0.97936845 0.8628057 0.9531925 0.8499576 1.053497
0.98091054 1.0265976 0.94942933 0.91636133 0.8761368 0.93344325 1.0705017 1.000127
1.0242085 0.8640438 0.94029033 0.89268994 1.0479617 1.1634151 0.9660983 0.97002065
0.918354 0.9362985 0.944116 1.0325793 0.96587396 0.8803389 1.0146937 1.0040791
1.1673816 0.9561112 1.0171424 1.0772967 1.1075462 0.89075875 1.0450574 0.9981706
0.8991688 1.0339555 1.0700347 0.9481623 1.0068154 1.0499005 0.94950944 1.1077628
1.0023115 0.9235658 0.97053635 1.068693 0.9416078 0.9230937 1.0192947 1.0184463
1.0748714 0.9510875 1.0032612 0.9404277 0.8837438 0.964364 1.0109853 1.0667062
0.95878446 1.0058622 1.0214056 1.0673361 1.036241 0.93919647 1.0628346 0.9565167
0.88361096 1.1385243 0.9122524 1.0425726 1.1354842 0.8650276 1.0139018 0.8394708
0.9744908 0.9800676 0.96789163 1.0972428 0.95529497 1.0444525 1.0072514 0.9989973
0.9180493 1.0099317 1.0138758 0.99915034 1.0578516 1.0551448 1.1111828 1.0783437
1.0208834 0.9944316 0.969823 0.99395496 1.080469 0.9728681 0.8906199 0.98057115
0.99230367 1.1024704 0.9555581 0.9659171 0.8737264 1.0249041 0.9776882 0.9655821
0.96962184 0.9975679 1.0002658 0.89814216 1.0945135 1.0096728 0.83007586 1.0817121
0.94499767 1.0456208 1.0631825 0.81906813 1.072198 0.9716552 1.0961211 0.92113113
0.9756793 0.96861064 0.8746977 0.9491625 0.99644643 0.9005419 0.94458354 1.1214958
1.0580982 1.0010611 0.989655 0.88394916 0.84700865 1.051247 1.023935 0.9986106
1.0754148 0.9606356 1.0499685 1.072646 1.0402448 0.8513267 1.0012597 0.9239428
1.0918456 1.1709477 1.1145066 1.0378221 0.84637123 1.0514594 1.0032687 0.93145305
0.98311746 1.09939 0.8822865 0.9711941 0.9275737 1.0195174 0.9818497 0.9753995
1.0893656 0.9167561 1.1201314 0.984069 0.9709841 0.99227834 0.9846226 1.0989391
1.0145657 0.91532123 1.0447443 1.1204909 1.0144583 0.82486874 0.87607986 0.9721495
1.0051513 0.99656904 1.0616968 0.91404307 0.99936557 0.9949792 0.87301964 1.0893275
00000000: 0593 753f eb31 803f 83d4 863f 266a 843f
00000010: 9ab8 7a3f 53b8 793f 97db 773f 61b6 8d3f
00000020: c0ad 683f 8f63 7f3f 057c 7c3f 8e2a 863f
00000030: 0f97 7b3f 5839 863f f843 763f 7e6d 6d3f
00000040: 5880 743f cecf 643f 2eda 703f 39ef 653f
00000050: 0a45 843f aee3 6f3f 5a2d 763f af6c 873f
00000060: 17c3 723f f0be 893f 0ddc 843f de80 7b3f
00000070: 54f7 783f cfb6 773f 921f 753f ba4b 783f
00000080: 3d04 7d3f bc35 803f 9d39 713f 9979 803f
00000090: 9559 813f 9a1c 723f 7384 893f 07d8 7e3f
000000a0: 8f32 813f 1b6d 743f a64d 7b3f 3f0b 793f
000000b0: bc12 703f 7eb8 893f e1bc 863f ab80 6f3f
000000c0: fcc5 7f3f 6f9a 893f 8948 6c3f 8a4a 513f
000000d0: 3b7f 5c3f 4092 7b3f d6c4 863f 8bd9 8b3f
000000e0: f445 823f 46cb 823f 5b70 833f 0093 813f
000000f0: 6e14 6e3f 3713 883f 164a 893f ecbc 833f
00000100: 8b48 693f 47bd 723f afd2 933f e4b7 7a3f
00000110: d6e0 5c3f 6c04 743f d296 593f fdd8 863f
00000120: f41c 7b3f 8d67 833f cd0d 733f a896 6a3f
00000130: 804a 603f 23f6 6e3f 3306 893f 2904 803f
00000140: 4419 833f f931 5d3f deb6 703f 5487 643f
00000150: 9c23 863f c9ea 943f 3852 773f 4653 783f
00000160: 3f19 6b3f 42b1 6f3f 96b1 713f 8f2b 843f
00000170: 8443 773f e45d 613f 7ce1 813f aa85 803f
00000180: c36c 953f b4c3 743f b931 823f dce4 893f
00000190: 13c4 8d3f c408 643f 71c4 853f 1c88 7f3f
000001a0: ed2f 663f a758 843f e6f6 883f c4ba 723f
000001b0: 54df 803f 2463 863f 0d13 733f 2ccb 8d3f
000001c0: be4b 803f cf6e 6c3f 1275 783f efca 883f
000001d0: 350d 713f de4f 6c3f 4078 823f 735c 823f
000001e0: 6395 893f 787a 733f dd6a 803f dfbf 703f
000001f0: 093d 623f 8fe0 763f f767 813f d489 883f
00000200: e672 753f 18c0 803f 6bbd 823f 789e 883f
00000210: 8ca3 843f 2e6f 703f f70a 883f 47de 743f
00000220: 5434 623f 2abb 913f 6089 693f 0573 853f
00000230: 8c57 913f 7372 5d3f 89c7 813f 8fe7 563f
00000240: 3b78 793f b6e5 7a3f bfc7 773f 7472 8c3f
00000250: 368e 743f 9fb0 853f 9ded 803f 49be 7f3f
00000260: 4705 6b3f 7145 813f afc6 813f 51c8 7f3f
00000270: ae67 873f fc0e 873f 3d3b 8e3f 2b07 8a3f
00000280: 4fac 823f 1293 7e3f 5246 783f d573 7e3f
00000290: cf4c 8a3f e20d 793f aaff 633f b606 7b3f
000002a0: 9d07 7e3f c01d 8d3f 759f 743f 5846 773f
000002b0: 89ac 5f3f 0f30 833f c649 7a3f 6330 773f
000002c0: 2339 783f 9c60 7f3f b608 803f a5ec 653f
000002d0: 0519 8c3f f53c 813f da7f 543f 8b75 8a3f
000002e0: 5eeb 713f e7d6 853f 5d16 883f 73ae 513f
000002f0: c93d 893f 65be 783f b24d 8c3f 40cf 6b3f
00000300: 1ec6 793f def6 773f 30ec 5f3f 50fc 723f
00000310: 1d17 7f3f ea89 663f 3ad0 713f 2d8d 8f3f
00000320: c36f 873f c522 803f 085a 7d3f 7e4a 623f
00000330: 8fd5 583f 438f 863f 4d10 833f f2a4 7f3f
00000340: 31a7 893f 37ec 753f 5e65 863f 774c 893f
00000350: be26 853f 8cf0 593f 4729 803f 8487 6c3f
00000360: 99c1 8b3f 9de1 953f 27a8 8e3f 5bd7 843f
00000370: c9ab 583f 3996 863f 1c6b 803f b573 6e3f
00000380: 96ad 7b3f d0b8 8c3f 87dd 613f 2da0 783f
00000390: 7875 6d3f 8c7f 823f 805a 7b3f c8b3 793f
000003a0: 5570 8b3f 87b0 6a3f 7760 8f3f f2eb 7b3f
000003b0: 6a92 783f f405 7e3f 3a10 7c3f 09aa 8c3f
000003c0: 4add 813f 7e52 6a3f 2eba 853f 3f6c 8f3f
000003d0: c5d9 813f 992a 533f c546 603f cade 783f
000003e0: cca8 803f 261f 7f3f aee5 873f bafe 693f
000003f0: 6cd6 7f3f f5b6 7e3f 377e 5f3f 156f 8b3f

bias f4 [768]
-0.02161609 -0.021726297 0.025349915 0.060062535 -0.015450485 -0.014114782 0.056491442 -0.098387055
0.07415142 0.0877023 0.06133895 0.061426606 -0.101050295 -0.050319195 -0.07587692 -0.048998695
-0.028187558 0.09054048 0.067895986 0.18599287 0.08864488 -0.041271765 -0.0074610645 -0.12469965
0.036203437 0.07619754 -0.020219322 -0.020612365 -0.0055432343 -0.058318 -0.014008816 -0.0022148213
0.018358031 0.0028431488 -0.02209717 0.064794384 0.07379237 -0.047033634 -0.07007225 -0.001797122
0.08812667 0.09155002 -0.10996633 0.019726643 -0.0045847655 -0.06535413 0.032733742 0.034682352
-0.018633626 0.03405106 0.12249951 -0.2045417 0.23200336 -0.030528847 -0.052596476 0.06619436
0.025731051 0.040444326 0.051945418 0.009790546 0.013552501 0.10557004 0.072064236 -0.009232673
-0.07111939 0.07069037 0.13737161 -0.0654131 0.08126566 -0.04928574 0.12531593 0.10086661
-0.0074577336 -0.023266817 0.090007745 -0.08356571 0.14061925 0.03343207 -0.09829315 -0.0012402193
-0.0003730738 -0.12202599 -0.051384605 0.07627779 -0.007879566 -0.13651836 -0.06755134 -0.033345368
-0.0729823 -0.05764991 0.08932671 0.019947771 -0.002020791 -0.14274715 0.02665731 -0.06551174
0.18146984 -0.017134344 -0.044351384 0.079644665 -0.11998406 -0.11656565 -0.10260771 0.052619424
0.11089218 -0.022150038 0.06749758 0.0061358474 -0.008123716 -0.11531092 -0.04398001 -0.081331946
-0.041635197 0.06832244 -0.049699686 -0.060834013 0.07173643 0.08836589 -0.037690606 -0.0061832396
0.083427124 0.039962485 -0.008046885 -0.09835732 0.14103495 -0.022907117 0.0028895554 0.0754725
-0.0019614925 -0.0018930704 0.093520336 0.08848095 -0.078590415 0.05734968 -0.008247537 -0.032102052
0.12660159 -0.12193396 -0.060514137 -0.03673772 -0.12868288 0.17646194 0.009166864 0.20799461
-0.035040565 -0.03519714 -0.04675837 -0.058767553 0.11251692 0.044614162 -0.035294425 0.026264347
-0.08325275 0.025466643 0.034949925 0.011979464 0.04963659 0.052110266 0.09820485 0.024119765
0.0015851341 -0.0013117148 -0.0007568307 -0.012315643 0.12853944 -0.04939699 0.04802142 -0.0972488
-0.03711375 0.1017804 0.09274455 0.02055627 -0.09900183 0.014963839 0.064301245 -0.012985575
-0.0045603593 -0.034691237 -0.004393882 -0.09514804 0.11526792 0.04694999 -0.13369063 -0.07914146
0.058071934 -0.041169524 -0.05240237 -0.1590201 0.116027005 -0.02771078 0.121408544 -0.035166442
-0.10987057 0.00870317 0.1512292 -0.060026787 -0.029182075 -0.09344364 0.015764423 0.1202019
0.1852938 0.0152259115 0.014640405 -0.13452533 -0.12530519 -0.09509853 0.0048592743 -0.007339475
0.043259427 -0.04161617 0.046882953 0.086909935 0.05473832 0.14283592 -0.0010894774 0.07992828
0.09058645 0.14804648 -0.12477837 -0.05520749 -0.18832232 -0.055259045 -0.008682713 -0.05472245
0.07257705 -0.09494063 0.060966082 0.020836558 0.043246314 0.022098111 -0.05825232 -0.08496827
0.10400975 0.09101665 0.11494918 -0.1483551 0.105142914 0.022956543 0.02431554 -0.11097312
0.009227614 -0.17961073 -0.08765788 0.14854613 -0.044701274 0.18184671 -0.1665014 0.13813543
-0.021506237 0.008857593 -0.082609974 -0.059183326 -0.0030891702 0.03273584 0.1712447 0.10718629
00000000: 3a14 b1bc 59fb b1bc a0aa cf3c 2204 763d
00000010: 0824 7dbc b041 67bc 9263 673d 277f c9bd
00000020: b3dc 973d 439d b33d 8d3e 7b3d 779a 7b3d
00000030: 75f3 cebd 801b 4ebd 5c65 9bbd dbb2 48bd
00000040: 98e9 e6bc 4a6d b93d 0d0d 8b3d ea74 3e3e
00000050: 728b b53d 950c 29bd f27b f4bb 8862 ffbd
00000060: 0e4a 143d 750d 9c3d fea2 a5bc 43db a8bc
00000070: 05a4 b5bb dbde 6ebd 3c85 65bc 8926 11bb
00000080: 9563 963c 1f54 3a3b 2005 b5bc ebb2 843d
00000090: 7420 973d 57a6 40bd 0a82 8fbd 688d ebba
000000a0: c17b b43d 947e bb3d 0736 e1bd c599 a13c
000000b0: cd3b 96bb 63d8 85bd d113 063d 150f 0e3d
000000c0: 8ca5 98bc 2079 0b3d 06e1 fa3d 6173 51be
000000d0: 4a92 6d3e a217 fabc 676f 57bd e990 873d
000000e0: edc9 d23c f3a8 253d b8c4 543d 8768 203c
000000f0: 4f0b 5e3c 1b35 d83d 6a96 933d a344 17bc
00000100: 0ba7 91bd 1dc6 903d 25ab 0c3e 4ef7 85bd
00000110: 9c6e a63d d8df 49bd d252 003e 2793 ce3d
00000120: 0160 f4bb 0d9a bebc fb55 b83d 8024 abbd
00000130: 7efe 0f3e 11f0 083d eb4d c9bd db8e a2ba
00000140: 1e99 c3b9 c3e8 f9bd aa78 52bd 8837 9c3d
00000150: 4c19 01bc 78cb 0bbe 5b58 8abd 2795 08bd
00000160: be77 95bd 5022 6cbd ecf0 b63d 8269 a33c
00000170: 3f6f 04bb 4f2c 12be 6e60 da3c 052b 86bd
00000180: 3bd3 393e 535d 8cbc cca9 35bd be1c a33d
00000190: 34ba f5bd f9b9 eebd fe23 d2bd 7787 573d
000001a0: 701b e33d ff73 b5bc 2c3c 8a3d 380f c93b
000001b0: 5619 05bc 2228 ecbd 6224 34bd 5d91 a6bd
000001c0: ab89 2abd a3ec 8b3d e691 4bbd 162d 79bd
000001d0: 8dea 923d 2df9 b43d 7761 1abd c69c cabb
000001e0: d7db aa3d b4af 233d 15d7 03bc 906f c9bd
000001f0: 776b 103e b5a7 bbbc b25e 3d3b 5391 9a3d
00000200: 628c 00bb e720 f8ba 9787 bf3d 8035 b53d
00000210: 03f4 a0bd 80e7 6a3d ad20 07bc 717d 03bd
00000220: d9a3 013e 83b8 f9bd acdd 77bd 4b7a 16bd
00000230: 72c5 03be 70b2 343e 9d30 163c 8afc 543e
00000240: b286 0fbd e02a 10bd b485 3fbd 3fb6 70bd
00000250: 456f e63d 57bd 363d e390 10bd 5428 d73c
00000260: 6b80 aabd 6c9f d03c a727 0f3d 8445 443c
00000270: bd4f 4b3d 9371 553d a01f c93d d096 c53c
00000280: 46c4 cf3a d8ed abba 0c66 46ba 8dc7 49bc
00000290: d89f 033e 8054 4abd 1cb2 443d 612a c7bd
000002a0: 9604 18bd 3e72 d03d dbf0 bd3d 9f65 a83c
000002b0: 79c1 cabd e42a 753c 5fb0 833d 73c1 54bc
000002c0: 116f 95bb 6618 0ebd 8efa 8fbb fadc c2bd
000002d0: 9611 ec3d a24e 403d 32e6 08be eb14 a2bd
000002e0: d6dc 6d3d 60a1 28bd dea3 56bd 2ad6 22be
000002f0: 919f ed3d b801 e3bc 0ba5 f83d b00a 10bd
00000300: d203 e1bd be97 0e3c d4db 1a3e a6de 75bd
00000310: 3f0f efbc 615f bfbd 6424 813c 6a2c f63d
00000320: a8bd 3d3e 1a76 793c 4fde 6f3c 02c1 09be
00000330: 0150 00be 05c3 c2bd 8c3a 9f3b fb7f f0bb
00000340: cc30 313d b875 2abd 5708 403d d6fd b13d
00000350: 4a35 603d 9443 123e cccc 8eba 70b1 a33d
00000360: 6485 b93d 7f99 173e cd8b ffbd 4021 62bd
00000370: 91d7 40be 4f57 62bd f041 0ebc a624 60bd
00000380: 47a3 943d 3c70 c2bd 92b7 793d 6eb1 aa3c
00000390: 0c23 313d 1907 b53c fc99 6ebd d803 aebd
000003a0: 1003 d53d f066 ba3d 7a6a eb3d 66ea 17be
000003b0: 2b55 d73d 5c0f bc3c 6231 c73c e045 e3bd
000003c0: 6b2f 173c e0eb 37be f985 b3bd 7a1c 183e
000003d0: af18 37bd 0636 3a3e 587f 2abe 6073 0d3e
000003e0: d92d b0bc 701f 113c 6b2f a9bd 376a 72bd
000003f0: ad73 4abb 0416 063d c55a 2f3e 7c84 db3d
